DCRNN_pearsons_local.pth (torch, 29468 bytes, 7 tensors)

recurrent.conv_x_z.weight f4 [2, 1, 33, 32]
0	0x3ea4155a	0.3204754
1	0x3f0b37e6	0.5438217
2	0x3dfe2a1e	0.12410377
3	0xbee79f37	-0.4523866
4	0x3ed4da30	0.41572714
5	0xbe545d63	-0.20738749
6	0x3eeaa7dc	0.45831192
7	0xbef9e825	-0.48809925
8	0x3f271fb5	0.65282756
9	0xbcc8035f	-0.02441567
10	0x3e940b0b	0.28914675
11	0xbf167137	-0.587665
12	0xbeb00ddf	-0.34385583
13	0xbd527ca2	-0.05138839
14	0x3f8cb4ff	1.0992736
15	0x3f31b9e0	0.6942425
16	0xbe8bb76a	-0.2728837
17	0x3eb6ed4b	0.35727915
18	0x3f6bbf03	0.92088336
19	0x3f855945	1.0417868
20	0xbedc27b7	-0.4299905
21	0x3f9a1d4a	1.2040188
22	0x3f85a187	1.0439919
23	0x3f7c9c4c	0.9867599
24	0xbe8ee31d	-0.2790765
25	0xbd1a8216	-0.037721716
26	0xbeebc072	-0.46045262
27	0x3f252d95	0.6452268
28	0xbecb6fdb	-0.39733776
29	0x3e1ea74a	0.15493503
30	0xbf8cbde8	-1.0995455
31	0xbec4a20d	-0.38404885
32	0xbf06382f	-0.5242948
33	0x3b3f968c	0.002923402
34	0xbea47973	-0.32123908
35	0x3ee76d00	0.45200348
36	0x3e5dbfc6	0.21655187
37	0xbc7f432f	-0.015579983
38	0xbf6bcb40	-0.9210701
39	0x3e1d592f	0.15366052
40	0x3eb3200f	0.34985396
41	0xbea42544	-0.3205968
42	0x3eb5bfd6	0.35497922
43	0xbd9e42bc	-0.07727572
44	0xbeb6562e	-0.35612625
45	0xbda91648	-0.08256203
46	0xbe950c1b	-0.29110798
47	0xbe55a3c3	-0.20863251
48	0x3e9a34ab	0.30118307
49	0x3ed45ab8	0.41475463
50	0xbd281a81	-0.0410409
51	0xbdb14df4	-0.086574465
52	0xbed68a1f	-0.41902253
53	0xbdb1b4cb	-0.08677062
54	0x3d0b107c	0.033951268
55	0x3e712860	0.23550558
56	0xbe607561	-0.21919776
57	0xbd4eda1d	-0.050500978
58	0xbe29d058	-0.16583383
59	0xbea26faa	-0.31725818
60	0xbec77807	-0.3895876
61	0xbf5edf22	-0.87059224
62	0xbe8fd246	-0.28090113
63	0x3e399ee3	0.18127017
64	0xbecccc45	-0.39999595
65	0xbd90d507	-0.07071882
66	0x3f7e2246	0.9927105
67	0x3d356a9b	0.04429112
68	0xbd8e646c	-0.06952748
69	0xbe74703f	-0.23870943
70	0xbed188e3	-0.4092475
71	0x3e8d742a	0.2762769
72	0xbebd3e50	-0.36961603
73	0x3ea7d9b3	0.3278328
74	0x3ea14a71	0.31502107
75	0xbeb0cab8	-0.34529662
76	0xbe9f2ce4	-0.31088936
77	0x3f93c379	1.1544029
78	0xbec425d1	-0.38310102
79	0xbe72260c	-0.23647326
80	0xbd2e369b	-0.042532545
81	0x3e736a73	0.23771076
82	0xbdc7bdc8	-0.09752995
83	0xbd852104	-0.06500438
84	0xbe3f047b	-0.18654053
85	0xbdc77a90	-0.09740174
86	0xbce8d429	-0.028421478
87	0x3e23b5ae	0.15987274
88	0x3e01cec3	0.1267653
89	0xbe3f8b65	-0.18705519
90	0xbef59e95	-0.4797255
91	0xbef2155a	-0.47281915
92	0xbdb0f943	-0.08641293
93	0xbed2baa5	-0.41158023
94	0xbe836592	-0.2566343
95	0x3e9b2c43	0.30307207
96	0xbf43e32a	-0.765185
97	0xbee2dee2	-0.4431067
98	0xbea4ccb5	-0.3218743
99	0x3e73ffc4	0.23828036
100	0xbd835548	-0.064127505
101	0x3e1bff26	0.1523405
102	0xbd58fbcf	-0.05297452
103	0x3d3086f7	0.043097463
104	0xbe588ac3	-0.21146683
105	0xbdcb3d0a	-0.09923752
106	0xbf55ef4d	-0.8356827
107	0xbdb27216	-0.087131664
108	0xbe6c64e4	-0.23085362
109	0xbf4e2b43	-0.8053476
110	0xbf513e36	-0.8173555
111	0xbf0eb4b9	-0.5574451
112	0x3d83ebff	0.06441497
113	0xbb0ad0fc	-0.0021181693
114	0xbf57159b	-0.8401734
115	0xbf5e3f94	-0.8681576
116	0x3d4973dd	0.04918276
117	0xbf4107f1	-0.7540274
118	0xbf711140	-0.94166946
119	0xbf05a524	-0.5220511
120	0x3d5fc545	0.05463149
121	0xbb28225f	-0.0025655252
122	0x3e2a0442	0.16603187
123	0x3ed09205	0.40736404
124	0xbc2ff7c3	-0.010740223
125	0xbe33d4e8	-0.17561686
126	0x3f2481f6	0.64260805
127	0xbe0f8651	-0.14016081
128	0x3ec50be3	0.3848563
129	0xbe8bc255	-0.272967
130	0x3f035315	0.5129865
131	0xbeab9b18	-0.33516765
132	0xbe7402c2	-0.23829177
133	0xbeb43dfe	-0.35203546
134	0x3e82cde5	0.2554771
135	0x3cc27f35	0.023742298
136	0x3dcedc25	0.10100583
137	0x3f174866	0.59094846
138	0x3e93fad1	0.28902295
139	0xbf946a46	-1.1594932
140	0xbe3be4bd	-0.18348975
141	0x3e8cc9ee	0.2749781
142	0x3e92d85e	0.286807
143	0xbe6a5c03	-0.22886662
144	0xbefc1450	-0.49234247
145	0xbeb4d589	-0.35319164
146	0xbe1cd146	-0.15314206
147	0xbca92cda	-0.02065127
148	0xbeb03c4f	-0.34421012
149	0x3d7ad95c	0.061242446
150	0x3ebe6bde	0.3719167
151	0xbe959e07	-0.29222128
152	0xbf143e4f	-0.57907575
153	0x3deb743a	0.11496778
154	0xbf2795a6	-0.6546272
155	0x3f49afce	0.7878388
156	0xbe97fa93	-0.2968336
157	0xbf234838	-0.6378207
158	0x3dc53d8d	0.096308805
159	0xbe337a7f	-0.17527197
160	0xbf2b1633	-0.6683075
161	0xbe08a44f	-0.13343929
162	0xbc57aef1	-0.013164268
163	0x3ecc22fc	0.3987044
164	0x3e12fbe0	0.14353895
165	0x3e9cc5bf	0.30619618
166	0xbd6707e4	-0.05640401
167	0xbd8ba886	-0.06819253
168	0xbd770ae9	-0.06031314
169	0xbdac09ee	-0.084003314
170	0xbe8abfb7	-0.27099392
171	0x3eb005f2	0.34379536
172	0x3c54d23d	0.012989578
173	0xbe54916a	-0.20758596
174	0xbeabc038	-0.3354509
175	0xbea7d88b	-0.32782397
176	0x3e7262bf	0.23670481
177	0x3e0db54e	0.13838693
178	0xbec21561	-0.37906936
179	0xbeb8d7de	-0.36102194
180	0x3ebaf4bc	0.36514843
181	0xbeb2b02e	-0.3490004
182	0xbf04ec0d	-0.51922685
183	0xbddadd83	-0.10686781
184	0x3eec6979	0.4617422
185	0xbe0be712	-0.13662365
186	0x3f0c4d7f	0.5480575
187	0xbdcde472	-0.10053338
188	0x3ed8155d	0.422038
189	0xbe1c8e4b	-0.15288655
190	0x3effbe11	0.49949697
191	0x3d628580	0.055303097
192	0xbf24645a	-0.64215624
193	0xbe4cff2b	-0.20019214
194	0xbde17ae3	-0.11009767
195	0x3e05f77a	0.13082686
196	0x3ea981d6	0.3310687
197	0x3d11cb1e	0.0355941
198	0xbef2711e	-0.47351927
199	0x3d6587a1	0.05603755
200	0x3edd3f2f	0.43212268
201	0xbefa8c1e	-0.48935026
202	0xbf2d063b	-0.6758763
203	0x3da7b7a8	0.081893265
204	0x3ed9ca73	0.4253727
205	0xbe0eaeed	-0.13933916
206	0x3ecbdef2	0.3981853
207	0xbd619793	-0.055076193
208	0x3d74471a	0.05963812
209	0x3eda4fd8	0.4263904
210	0xbe2adc77	-0.16685663
211	0xbbf63baa	-0.0075144367
212	0x3ebf188e	0.3732342
213	0x3e3132e5	0.17304571
214	0x3ebf67f3	0.37383994
215	0x3e6d340a	0.23164383
216	0xbe0fefba	-0.14056292
217	0x3b4b987e	0.0031066234
218	0x3edfd44f	0.43716666
219	0xbe8560b8	-0.26050353
220	0x3f0b4a5e	0.5441035
221	0x3f62f613	0.8865673
222	0x3e73bc82	0.23802379
223	0x3e06e167	0.13171922
224	0xbe759085	-0.23980911
225	0xbe91cfdd	-0.284789
226	0xbdd6bf2c	-0.10485682
227	0x3ebced27	0.36899683
228	0xbde2910e	-0.11062823
229	0x3ea333f3	0.31875572
230	0x3f00fadd	0.50382787
231	0x3d9b8cd7	0.075952224
232	0xbe53bf30	-0.20678401
233	0xbed3a3d2	-0.41335922
234	0xbf2748e6	-0.6534561
235	0x3f59caa5	0.85074836
236	0x3ea5fb20	0.32418156
237	0xbe4b5646	-0.1985713
238	0x3e34b496	0.17647013
239	0x3ea708ef	0.32624003
240	0x3e5f2c1c	0.2179417
241	0xbed879f3	-0.4228054
242	0xbd8c6b94	-0.068564564
243	0xbd49ef6c	-0.049300596
244	0x3f35d3ba	0.71026194
245	0xbe236350	-0.15955853
246	0xba71fb48	-0.0009230864
247	0xbf25a948	-0.6471143
248	0x3edeb296	0.43495625
249	0x3e53d970	0.20688415
250	0x3f6750c5	0.9035762
251	0x3dc4ff83	0.096190475
252	0x3f192522	0.59822285
253	0x3f27214a	0.6528517
254	0x3f446df8	0.767303
255	0xbc9ec772	-0.019382212

recurrent.conv_x_z.bias f4 [32]
0	0x3ecbe66b	0.39824232
1	0x3e1238af	0.14279436
2	0x3df344ff	0.11878394
3	0x3efa686b	0.4890779
4	0xbe043657	-0.12911354
5	0x3eec1193	0.46107158
6	0xbf07ce56	-0.5304922
7	0xbf0b06b9	-0.5430713
8	0xbeb3e5b6	-0.35136193
9	0x3df4b118	0.119478405
10	0x3f5400d7	0.8281378
11	0x3e144269	0.14478458
12	0xbeaf855b	-0.3428143
13	0x3d84559e	0.06461643
14	0x3f1fa237	0.62356895
15	0x3eba7dad	0.36424008
16	0xbea4d598	-0.3219421
17	0x3cef0dd2	0.029181395
18	0x3f5624f2	0.83650124
19	0x3f4fe2ee	0.8120564
20	0xb9d31288	-0.00040258863
21	0x3f474563	0.7784025
22	0x3f23c3d4	0.63970685
23	0x3e86373c	0.26214015
24	0xbeacd77f	-0.3375816
25	0xbec8c2fd	-0.39211264
26	0xbe5ba8bc	-0.21451086
27	0xbebfc5e1	-0.37455657
28	0xbf50848b	-0.81452245
29	0xbea6cb28	-0.3257687
30	0xbecc3653	-0.39885196
31	0x3e9585a7	0.2920353

recurrent.conv_x_r.weight f4 [2, 1, 33, 32]
0	0xbe6968a9	-0.22793831
1	0xbe590e63	-0.21196894
2	0xbf3e0d7b	-0.7423932
3	0xbec6c43b	-0.38821587
4	0xbd87a7e3	-0.06623819
5	0xbef3c07d	-0.47607794
6	0x3e4e36b7	0.2013806
7	0xbf3c00d7	-0.7343878
8	0x3e23c70c	0.15993899
9	0xbe61bbdc	-0.22044319
10	0xbea584f7	-0.32328007
11	0xbf09b45d	-0.5379084
12	0x3e9fd7c2	0.31219298
13	0xbf446511	-0.76716715
14	0x3dd67250	0.10471022
15	0xbe6cff4f	-0.23144267
16	0x3ec6990f	0.3878865
17	0xbe98c0eb	-0.29834685
18	0xbeb17974	-0.34662974
19	0xbe1a90f1	-0.15094353
20	0xbf29c221	-0.6631184
21	0xbe86f153	-0.2635599
22	0x3eda709f	0.42664048
23	0xbe224187	-0.15845309
24	0xbe969462	-0.29410082
25	0x3e9a1991	0.3009763
26	0xbf1dff21	-0.6171742
27	0xbd5b5a98	-0.053553194
28	0xbf28e66a	-0.65976584
29	0x3d9265de	0.07148336
30	0xbf25c324	-0.64750886
31	0xbee3a0af	-0.4445853
32	0x3ecb7701	0.3973923
33	0x3cd60102	0.026123527
34	0x3c7fe4c6	0.015618509
35	0x3ebb3306	0.36562365
36	0x3d7aabaa	0.061198868
37	0x3e2d6dea	0.1693646
38	0x3dfd6cbd	0.12374256
39	0x3d1d414c	0.03839235
40	0x3d7d0800	0.061775208
41	0x3dce3f09	0.10070617
42	0x3d74af38	0.059737414
43	0x3d3ee84f	0.046608265
44	0x3e7921df	0.24329327
45	0x3d5d1db5	0.05398341
46	0x3d8ac57c	0.067759484
47	0x3e829842	0.25506788
48	0xbd8a4f73	-0.06753435
49	0x3d6475a2	0.055776246
50	0x3dcae4d0	0.09906924
51	0x3d9dc5a4	0.077037126
52	0x3d753d34	0.05987282
53	0x3d6a5135	0.05720635
54	0x3c3a67fa	0.011377329
55	0x3d3878ee	0.045037203
56	0x3dcf4859	0.10121221
57	0x3deeb89a	0.11656304
58	0x3d812f96	0.063079044
59	0x3e3ee0b9	0.18640412
60	0x3dfaf756	0.12254207
61	0x3f01c90b	0.5069739
62	0x3d741660	0.05959165
63	0x3daf94c4	0.08573297
64	0x3d0d5538	0.0345051
65	0xbd3459bd	-0.044030894
66	0x3bbf34f9	0.0058351723
67	0x3cc1f2b0	0.023675293
68	0xbd11cafd	-0.035593975
69	0xbbb38180	-0.005478084
70	0x3e0ada40	0.13559818
71	0x3da210cc	0.0791336
72	0x3c3ada96	0.011404654
73	0xbc6a69c1	-0.01430744
74	0xbd09e780	-0.03366804
75	0xbd36c1ca	-0.044618405
76	0x3e841682	0.25798422
77	0xbc9ec5e4	-0.019381471
78	0x3bdb2697	0.00668795
79	0xbd819351	-0.063269265
80	0xbda285cf	-0.07935678
81	0x3cbdc58c	0.023165487
82	0x3d326e3e	0.043562166
83	0xbd79ad91	-0.06095654
84	0xbc0a65a3	-0.008447084
85	0xbc26a1f3	-0.010170448
86	0xbcc76ed6	-0.024344843
87	0xbcba86c3	-0.022769338
88	0xbda02efc	-0.078214616
89	0x3df6be43	0.12048008
90	0xbbfe7223	-0.007765071
91	0x3e4cd19a	0.20001832
92	0x3c7d9ab8	0.015478782
93	0x3e4c012c	0.19922322
94	0x3c669fa8	0.014076151
95	0x3cd6be38	0.02621375
96	0x3da8c86d	0.08241353
97	0x3dd6977a	0.104781106
98	0x3e52f827	0.20602475
99	0x3f0442ac	0.51664233
100	0x3e3aa775	0.18227942
101	0x3e1690cd	0.14703675
102	0x3eb53f60	0.35399914
103	0x3d619387	0.055072334
104	0x3e98db3e	0.2985477
105	0x3e81671a	0.25273973
106	0x3de141fe	0.10998915
107	0x3dfe6b92	0.12422861
108	0x3e6b5e80	0.22985268
109	0x3e832ae2	0.25618654
110	0x3d2d1a21	0.042261247
111	0x3e63eba0	0.22257853
112	0x3d480512	0.04883296
113	0x3e027a71	0.1274202
114	0x3d176348	0.036959916
115	0x3d62057e	0.05518102
116	0x3dfe6051	0.12420715
117	0x3cb04aba	0.021520007
118	0x3e3eb52a	0.18623796
119	0x3e67cba1	0.22636272
120	0x3d6febe4	0.058574572
121	0x3ec1fb1b	0.3788689
122	0x3e4ef598	0.20210874
123	0x3ebd6184	0.3698846
124	0x3e2515fe	0.1612167
125	0x3e955e95	0.29173723
126	0x3e273e23	0.16332297
127	0xbc9caf3a	-0.019126523
128	0xbe51be27	-0.20482694
129	0x3e3670a5	0.17816408
130	0x3c3ba782	0.011453511
131	0x3f3b8e2a	0.732638
132	0x3e0ef5af	0.13960908
133	0x3d51f729	0.0512611
134	0x3f1d1a89	0.61368614
135	0x3a6cc9d8	0.00090327626
136	0x3e92e600	0.286911
137	0x3e3bcbce	0.18339464
138	0x3e303635	0.17208178
139	0xbdcffc1b	-0.10155507
140	0x3f32cfbf	0.69848245
141	0x3db6c303	0.08923914
142	0x3da06b8f	0.07833015
143	0x3d8d89c2	0.06911041
144	0xbd351d31	-0.044217292
145	0x3e436d76	0.19084725
146	0x3dd7fb6e	0.10546003
147	0x3dfbb250	0.1228987
148	0x3d70fa2e	0.05883234
149	0x3d3bf6fd	0.045889843
150	0x3d92b848	0.07164055
151	0x3dfb99ce	0.12285195
152	0x3da19875	0.07890407
153	0x3dd49703	0.10380366
154	0x3c5a3690	0.013318673
155	0x3ef404be	0.47659868
156	0x3ca0fc42	0.019651536
157	0x3ea85073	0.32873878
158	0x3db52152	0.08844246
159	0x3d8aa924	0.06770542
160	0xbd94305b	-0.072357856
161	0x3d0e4a8c	0.034739062
162	0x3e1699b9	0.14707078
163	0x3deee9ff	0.11665725
164	0xbcddf99b	-0.02709656
165	0xbcdf4acf	-0.027257351
166	0xbe6e81d4	-0.23291713
167	0x3e318a11	0.17337824
168	0xbc835c4c	-0.016035222
169	0x3c670d0d	0.014102233
170	0x3d26cb29	0.040721092
171	0x3df7a3d8	0.120917976
172	0x3d8eafe3	0.069671415
173	0x3e40ab5f	0.18815373
174	0xbdc67b7c	-0.096915215
175	0xbce7b9a0	-0.028286755
176	0x3e0eef30	0.1395843
177	0xbba1f15f	-0.0049421038
178	0xbcf497b2	-0.02985749
179	0xbc8cd693	-0.01719216
180	0x3e475f2b	0.19469897
181	0xbd5d351d	-0.05400573
182	0xbae00daf	-0.0017093922
183	0xbd244578	-0.040105313
184	0x3df78fd5	0.12087981
185	0x3d1cd82b	0.03829209
186	0x3df18cab	0.117944084
187	0xbd9e8efa	-0.07742114
188	0x3e1d2c49	0.15348925
189	0x3d523cf5	0.051327664
190	0x3e255ac1	0.16147901
191	0x3c07ae6d	0.008281332
192	0x3e8fbe9f	0.2807512
193	0x3d862d74	0.06551638
194	0x3e341841	0.17587377
195	0x3de87a8e	0.113515005
196	0x3cd5983f	0.026073573
197	0x3e996d49	0.2996619
198	0xbe138b38	-0.14408576
199	0x3e1e63bc	0.15467733
200	0x3d9a9dcf	0.07549631
201	0x3d970bf7	0.07375329
202	0x3e1fe4ff	0.15614699
203	0xbcb5cb4e	-0.02219167
204	0x3e38ad9b	0.18034975
205	0x3e6ba1ee	0.2301099
206	0x3c3bc356	0.011460146
207	0x3de690e3	0.11258104
208	0x3e0f0c24	0.13969475
209	0x3d948e20	0.07253671
210	0x3dcd4d0c	0.10024461
211	0x3d4d0c6e	0.050060682
212	0x3da58bc7	0.08083301
213	0x3d382db0	0.044965446
214	0x3d084f28	0.033278614
215	0x3d32980c	0.043602034
216	0x3dc3ea95	0.09566227
217	0xbee6154e	-0.4493813
218	0x3d0e02ec	0.034670755
219	0xbd225a4d	-0.0396369
220	0x3df6322e	0.1202129
221	0xbebff3b9	-0.37490633
222	0x3e53c68a	0.20681205
223	0x3e84b649	0.25920323
224	0xbd8150ca	-0.063142374
225	0xbd2ba119	-0.04190168
226	0xbcc04780	-0.023471594
227	0x3cc914e8	0.024546102
228	0xbe1513ca	-0.1455833
229	0xbe0bb2d1	-0.13642432
230	0xbd7e35ef	-0.062063154
231	0xbdb4192d	-0.087938644
232	0xbd7ab6d1	-0.061209504
233	0xbe4157b8	-0.18881118
234	0xbdc9dde0	-0.098567724
235	0xbd7733b4	-0.060352042
236	0xbe14a945	-0.14517696
237	0xbdac9a7e	-0.084279045
238	0xbdc57fce	-0.096435174
239	0xbdf9800d	-0.12182627
240	0xba3241b8	-0.0006799954
241	0xbde56abd	-0.11201999
242	0xbdd1ca74	-0.10243693
243	0xbe01f186	-0.1268979
244	0xbdb84909	-0.08998305
245	0xbdb609a7	-0.0888856
246	0xbce700f2	-0.028198693
247	0xbd87c220	-0.06628823
248	0xbd510185	-0.05102684
249	0xbe9e77ce	-0.3095078
250	0xbda1f973	-0.07908907
251	0xbe3b43fc	-0.18287653
252	0xbc54efe2	-0.012996646
253	0xbee8205c	-0.45337188
254	0xbde607c4	-0.1123195
255	0xbdc7fa97	-0.09764593

recurrent.conv_x_r.bias f4 [32]
0	0xbe1392d6	-0.14411482
1	0xbdeeec06	-0.11666112
2	0xbe8a0755	-0.2695872
3	0xbf40fd0a	-0.75386107
4	0xbe604840	-0.21902561
5	0xbef354a1	-0.47525504
6	0xbf2384f2	-0.63874733
7	0xbe274fae	-0.16338989
8	0xbe99eb3c	-0.30062282
9	0xbe9f8b12	-0.3116079
10	0xbea0b174	-0.31385386
11	0xbdc2ac2c	-0.095054954
12	0xbea0e640	-0.31425667
13	0xbef5fe15	-0.48045412
14	0xbe3bfad7	-0.18357407
15	0xbea0e21c	-0.31422508
16	0xbd908ebf	-0.07058477
17	0xbe725d2c	-0.23668355
18	0xbe8e0409	-0.27737454
19	0xbe6081d3	-0.21924524
20	0xbe3d66b8	-0.18496215
21	0xbe3884dc	-0.18019432
22	0xbd038894	-0.032112673
23	0xbe6f0014	-0.23339874
24	0xbe09c770	-0.13454986
25	0xbeb9f67f	-0.36320874
26	0xbe717a99	-0.23581924
27	0xbefa2519	-0.48856428
28	0xbeb0c983	-0.3452874
29	0xbea797a3	-0.32732877
30	0xbe98ca34	-0.2984177
31	0xbe08a390	-0.13343644

recurrent.conv_x_h.weight f4 [2, 1, 33, 32]
0	0x3d3bbf9b	0.045837026
1	0xbdabc86a	-0.08387835
2	0xbe2f77d4	-0.17135555
3	0xbd4c13fe	-0.049823754
4	0xbe300c9e	-0.17192313
5	0x3d1f3d38	0.038876742
6	0xbe304e65	-0.17217405
7	0x3ec93462	0.39297777
8	0xbe081dd7	-0.13292633
9	0xbd27637f	-0.04086637
10	0x3c8d3d92	0.017241273
11	0x3ea23eac	0.3168844
12	0x3e048f87	0.12945376
13	0xbe98fdf6	-0.29881257
14	0xbea35445	-0.3190023
15	0xbdc6ec9d	-0.09713099
16	0x3e81277b	0.25225434
17	0xbe625e00	-0.2210617
18	0xbe972d53	-0.29526767
19	0xbe95705c	-0.29187286
20	0x3eade062	0.33960253
21	0xbe9f1817	-0.31073067
22	0xbeb9f049	-0.36316136
23	0xbe63a243	-0.22229867
24	0x3e70c2fe	0.23511884
25	0xbde3bb8a	-0.111197546
26	0x3ed16882	0.40900046
27	0xbe33a713	-0.17544203
28	0x3ed2d2ed	0.4117655
29	0xbd28b0e8	-0.041184336
30	0x3eed30de	0.46326345
31	0x3e6b6aab	0.2298991
32	0xbe937168	-0.2879746
33	0xbd9d0ff2	-0.07669057
34	0xbd1b2e9a	-0.03788624
35	0xbdf994af	-0.12186562
36	0xbc03377e	-0.008008836
37	0x3da57d38	0.08080524
38	0x3de00e6d	0.109402515
39	0xbd7ed2dc	-0.06221281
40	0xbd4a84e2	-0.049443133
41	0x3d3e05d7	0.046392288
42	0xbc608381	-0.013703228
43	0xbbfb290f	-0.0076648067
44	0xbf2970bb	-0.6618764
45	0x3d55158b	0.052022498
46	0x3e159122	0.14606145
47	0xbeb0389a	-0.34418184
48	0x3e16d2fb	0.1472892
49	0x3cc4df39	0.024032222
50	0x3b99a901	0.0046893363
51	0x3c1d6222	0.009605916
52	0x3cb6ba3a	0.022305597
53	0x3d0f0aa4	0.034922257
54	0xbd10efda	-0.03538499
55	0xbcafed4e	-0.02147546
56	0xbc89786b	-0.016781053
57	0x3d8595a7	0.065226845
58	0x3ca3911e	0.019966658
59	0xbeb4a632	-0.35283047
60	0xbc829f08	-0.015944973
61	0xbeb0a21b	-0.34498677
62	0xbccf03b7	-0.025270326
63	0xbab1bba4	-0.001355995
64	0x3dca76ee	0.09885965
65	0xbe1817c7	-0.1485282
66	0x3dfb05b1	0.12256945
67	0xbd33f83a	-0.0439379
68	0x3d24cd45	0.040234823
69	0x3b21b2ca	0.0024673217
70	0xbd9179d2	-0.071033135
71	0xbc3a187a	-0.011358375
72	0x3d883a5a	0.06651755
73	0xbc4271e5	-0.011867975
74	0x3e0b68f8	0.13614261
75	0xbca4013d	-0.020020122
76	0x3e5764eb	0.21034591
77	0x3d81ca53	0.063374184
78	0x3c263115	0.010143538
79	0xbdbcc1c7	-0.092166476
80	0x3de43e96	0.1114475
81	0x3cc3d6d7	0.023906155
82	0xbcffd5c4	-0.031229861
83	0xbb2a219e	-0.0025959979
84	0xbd38f668	-0.045156866
85	0xbd421b80	-0.047389507
86	0x3ccab52e	0.024744596
87	0x3d42d149	0.04756287
88	0x3bc2bb60	0.005942747
89	0x3d7eec7c	0.062237248
90	0xbd92a69e	-0.07160686
91	0xbe127b77	-0.1430491
92	0xbd7b0a3f	-0.06128907
93	0xbdfb0d00	-0.12258339
94	0xbccfbf21	-0.025359692
95	0x3d0f4285	0.034975547
96	0xbdc26f09	-0.094938345
97	0x3d2ebdd5	0.042661507
98	0xbe2fb8db	-0.1716036
99	0x3d210873	0.0393147
100	0x3ba3c4d5	0.0049978294
101	0x3d8f14ed	0.06986413
102	0xbcc62e50	-0.024192005
103	0x3e61b4ce	0.22041628
104	0x3c81024e	0.01574817
105	0x3e428f84	0.1900006
106	0xbd88b1fa	-0.06674571
107	0x3e0077b4	0.12545663
108	0xbcb7b08c	-0.022423051
109	0xbe67a1ec	-0.22620362
110	0xbdaaea01	-0.08345414
111	0xbd194c4b	-0.037426274
112	0x3dec36a2	0.11533858
113	0xbd14a6b7	-0.036291804
114	0xbe0b7211	-0.13617732
115	0xbdcaea4a	-0.09907968
116	0x3d61ed49	0.055157933
117	0xbdd7147e	-0.105019554
118	0xbd700c58	-0.058605522
119	0x3d64b139	0.055833075
120	0x3e6970a1	0.22796871
121	0x3b443e27	0.0029944272
122	0x3d949de2	0.07256676
123	0xbd421023	-0.04737867
124	0x3de6da77	0.112721376
125	0xbe069668	-0.13143313
126	0x3ce22f95	0.02761058
127	0x3e33ad4e	0.17546579
128	0x3d7b5682	0.061361797
129	0x3cff7f14	0.031188525
130	0xbd1e3fd2	-0.038635083
131	0xbf2116b1	-0.6292525
132	0x3e10bfb6	0.14135632
133	0x3dedd108	0.11612135
134	0xbeca6969	-0.39533547
135	0xbd6c1a3f	-0.057642218
136	0x3e1be2d0	0.15223241
137	0xbd62194e	-0.055199914
138	0x3d4e1ca1	0.05032027
139	0xbc91dc1e	-0.017805155
140	0xbe37b03d	-0.17938323
141	0x3cc27106	0.023735534
142	0xbd1f2b0c	-0.038859412
143	0xbdc09b04	-0.09404567
144	0x3e2a4e69	0.16631474
145	0xbbbc8445	-0.0057530724
146	0x3e04b91e	0.12961242
147	0x3dad1beb	0.084525906
148	0xbd2edd14	-0.042691305
149	0x3c9aadf1	0.01888177
150	0x3d46da04	0.04854776
151	0x3dbee76e	0.093214855
152	0x3d812deb	0.06307586
153	0x3cf5043c	0.029909246
154	0xbd725d19	-0.059170816
155	0x3e6276c5	0.2211562
156	0xbd38c60c	-0.045110747
157	0x3e471e98	0.19445264
158	0xbd4a46ef	-0.049384054
159	0x3d62c8e6	0.055367373
160	0x3db6f895	0.08934132
161	0xbda3b49f	-0.07993435
162	0x3cca4991	0.024693282
163	0xbc8c307d	-0.017112965
164	0xbd4b893e	-0.04969143
165	0x3e248caf	0.16069292
166	0x3bfa5443	0.0076394393
167	0x3cb24c62	0.021764938
168	0x3cf97146	0.03044952
169	0xbd7cd503	-0.06172658
170	0x3d9be047	0.07611137
171	0xbc4f0f41	-0.012637914
172	0xbd30507d	-0.04304551
173	0xbd7355cc	-0.059407994
174	0xbd443299	-0.047899816
175	0xbd30acee	-0.04313367
176	0xbe426b08	-0.18986142
177	0xbd9e1cc4	-0.0772033
178	0xbdb316c3	-0.08744576
179	0xbd038a59	-0.03211436
180	0x3d29b4ee	0.041432314
181	0xbdca62e4	-0.09882143
182	0xbc5fa19e	-0.013649372
183	0xbce7bb6c	-0.028287612
184	0x3d916b7c	0.07100579
185	0x3cdccb8e	0.026952531
186	0xbc26a7bc	-0.010171827
187	0x3d0ae2f6	0.033907853
188	0xbbf4ce28	-0.007470865
189	0x3d14f296	0.03636416
190	0xbaccac80	-0.0015615374
191	0x3d51f937	0.05126306
192	0xbda11662	-0.07865597
193	0x3cff501f	0.031166134
194	0xbceda262	-0.029008094
195	0xbe067520	-0.13130617
196	0xbd0e653b	-0.03476451
197	0xbf0b6556	-0.544515
198	0x3e9f9d1b	0.3117455
199	0xbc6005b6	-0.013673237
200	0xbe80b0f7	-0.25135013
201	0xbdb87ee8	-0.090085804
202	0xbdaefd7c	-0.08544442
203	0xbca1f116	-0.019768279
204	0x3baf993f	0.0053588445
205	0xbcee8afd	-0.02911901
206	0xbdd13bb6	-0.10216467
207	0x3e6be105	0.23035057
208	0xbd34199a	-0.043969728
209	0x3d581898	0.05275783
210	0xbbda32df	-0.0066588963
211	0xbcef10e6	-0.029182862
212	0x3d157ad6	0.0364941
213	0xbc850b8e	-0.016240861
214	0xbc5aaebc	-0.013347324
215	0xbc3d13c1	-0.011540354
216	0xbdd6d77f	-0.10490321
217	0x3dd261b7	0.10272544
218	0x3d685bfd	0.05672835
219	0xbe11b3da	-0.14228764
220	0xbc09f9b0	-0.008421347
221	0x3d65b36a	0.056079306
222	0xbc351afc	-0.011053797
223	0xbe1a24e8	-0.15053141
224	0xbb8de85a	-0.004330677
225	0x3db2420f	0.08704006
226	0xbd20bc6c	-0.039242193
227	0x3f34c361	0.70610625
228	0xbe44f72c	-0.19234914
229	0xbec5ef99	-0.3865936
230	0xbf0c3912	-0.5477458
231	0x3d0d5705	0.034506816
232	0xbe3b6fcf	-0.1830437
233	0xbe79ae11	-0.24382807
234	0xbe50e1fd	-0.20398708
235	0x3cb72f27	0.022361351
236	0x3ea20efd	0.3165206
237	0x3c25a0cb	0.010109137
238	0xbe08116c	-0.13287896
239	0x3e933a7e	0.28755563
240	0xbf0da774	-0.5533364
241	0xbe15605d	-0.14587541
242	0xbdd5d061	-0.10440136
243	0xbd859380	-0.06522274
244	0x3d395b6b	0.0452532
245	0xbdf63184	-0.12021163
246	0x3dff1590	0.124552846
247	0xbe1edde5	-0.15514334
248	0xbd858c33	-0.065208815
249	0x3e891420	0.26773167
250	0x3d045902	0.032311447
251	0xbd828560	-0.063730955
252	0x3d763263	0.060106646
253	0x3e9e21bf	0.3088512
254	0x3dac8783	0.08424284
255	0x3e18efd8	0.14935243

recurrent.conv_x_h.bias f4 [32]
0	0xbdba179c	-0.090865344
1	0x3dd03e75	0.10168163
2	0x3c9fe53d	0.019518489
3	0xbe91b211	-0.28456166
4	0x3e34e6fe	0.17666242
5	0xbe5953e6	-0.21223411
6	0x3e7360c3	0.2376738
7	0xbe884cab	-0.26620993
8	0x3e7945ba	0.24343005
9	0x39bd276e	0.00036078267
10	0xbe30ec26	-0.17277583
11	0xbed8ecf2	-0.42368275
12	0xbeae89df	-0.34089562
13	0xbd5e8d6a	-0.05433408
14	0x3e35356a	0.17696157
15	0x3e0ac031	0.13549878
16	0xbed813d2	-0.42202622
17	0x3e469151	0.19391371
18	0x3c1d71a0	0.00960961
19	0x3da47b47	0.08031326
20	0xbe854f41	-0.26037028
21	0x3da0b208	0.07846457
22	0x3e41b383	0.18916135
23	0x3e34bdbe	0.17650506
24	0xbef838b4	-0.4848076
25	0x3ddea6c8	0.10871655
26	0xbe736f3b	-0.237729
27	0x3e2d3ad9	0.1691698
28	0xbddbf90f	-0.107408635
29	0x3d5462e5	0.051852126
30	0xbe150ed3	-0.14556436
31	0xbf002555	-0.50056964

linear.weight f4 [1, 32]
0	0x3b2be045	0.0026226204
1	0x3c4a50bf	0.012348353
2	0xbef3df07	-0.47631094
3	0xbe04f619	-0.12984504
4	0xbe9f9dab	-0.3117498
5	0x3cb6c7f0	0.022312135
6	0xbd6482ea	-0.055788912
7	0x3eb3b5bf	0.350996
8	0xbd798455	-0.060917217
9	0xbc0f11f2	-0.008732306
10	0x3cbe8730	0.023257822
11	0x3e80b6fd	0.2513961
12	0x3e46dd19	0.1942028
13	0xbf067be7	-0.5253281
14	0xbe466a94	-0.19376594
15	0xbc8923df	-0.016740737
16	0x3f07809e	0.5293063
17	0xbe49e55c	-0.197164
18	0xbea8611b	-0.32886586
19	0xbe846247	-0.2585623
20	0x3e9948a4	0.29938233
21	0xbe8a38bb	-0.26996407
22	0xbe312a0f	-0.173012
23	0xbd95dd98	-0.07317656
24	0x3e8c4ff6	0.27404755
25	0xbe814e25	-0.25254932
26	0x3eadf9e5	0.33979717
27	0xbdd47d99	-0.10375518
28	0x3ec8d115	0.39222017
29	0xbca7a28d	-0.020463252
30	0x3ed8e453	0.42361698
31	0x3e4e2924	0.20132881
