dcrnn_best_model.pth (torch, 199660 bytes, 7 tensors)

recurrent.conv_x_z.weight f4 [2, 1, 127, 64]
0.10139719 -0.035135254 -0.041025132 0.04662863 0.081357375 0.04730754 0.009361536 -0.084035225
0.10620737 -0.051035956 0.07877341 0.09141723 -0.09157414 -0.0843351 0.09058392 -0.03700216
0.061857767 -0.09604217 -0.089717895 -0.1477121 -0.09823104 0.11750325 0.28810883 0.1309226
0.024326842 0.1418973 -0.11395508 -0.017981479 0.123855725 0.091061905 -0.015316831 -0.110628255
0.17438033 -0.07687749 -0.029081145 -0.15180847 0.13760062 0.1101666 0.045669958 -0.01984388
-0.12167314 -0.095314 -0.04982222 0.027238678 0.06145794 0.11109649 0.14487621 0.021241691
0.10493055 0.04907815 0.0013529134 -0.13685416 0.07243562 -0.002422526 -0.0035415539 0.056138426
-0.100964546 0.011351521 -0.11078169 -0.011263473 -0.034419775 -0.08734087 -0.040155057 -0.034317117
0.09838185 -0.06638311 -0.060602486 0.04807877 0.07071188 0.037132874 0.033125006 -0.0744345
0.063999884 -0.08637192 0.12529975 0.09656624 -0.07374932 -0.09504319 0.06305936 -0.047968145
0.06479907 -0.10436134 -0.08425531 -0.11891201 -0.073235594 0.065720916 0.33302647 0.16738836
0.029357804 0.1369621 -0.13252206 -0.05865578 0.12509504 0.08950029 -0.079141974 -0.10723832
0.20355392 -0.07915503 -0.04331386 -0.12868327 0.16872643 0.07831018 0.10683354 -0.06016018
-0.13307293 -0.096131034 -0.08310959 0.029671537 0.0041357353 0.12382761 0.13717432 0.018817317
0.09660469 0.06064762 -0.03613905 -0.12669633 0.096249394 -0.0030763915 0.027869368 0.07162721
-0.12327899 0.0069154575 -0.120530136 -0.026270384 -0.02353958 -0.09087721 -0.055613287 -0.07473488
0.08041839 -0.059708476 -0.065050244 0.04726909 0.06692335 0.042583305 0.021396661 -0.07393616
0.1214164 -0.08142746 0.06767149 -0.0022679188 -0.08785486 -0.10194208 0.066187575 -0.032294534
0.02301454 -0.11920758 -0.0809034 -0.15380743 -0.09830841 0.11130532 0.11663077 0.077910304
0.06801635 0.1206334 -0.13256918 -0.048147593 0.103094935 0.0984128 -0.031471275 -0.12657121
0.0833835 -0.076378785 -0.014836837 -0.19565783 0.023341319 0.13361675 0.045530096 -0.005869549
-0.13838671 -0.105796866 -0.029334977 0.04430513 0.054809935 0.045848846 0.12257583 0.020580463
0.10054587 0.026336014 0.020349994 -0.16827309 0.075696655 -0.011204102 0.0021313985 0.038767748
-0.13769278 -0.01365804 -0.12635864 -0.018529018 -0.053704333 -0.0958537 -0.06395803 -0.037220072
0.082347505 -0.07603427 -0.06738274 0.026404468 0.068326056 0.020175844 0.03927108 -0.08882762
0.09366471 -0.07297618 0.07159029 0.06206121 -0.10945706 -0.09092032 0.08595566 -0.03491313
0.033598397 -0.10253583 -0.09689617 -0.11626586 -0.08484035 0.08299237 0.17827591 0.09614819
0.04843052 0.12320724 -0.15453115 -0.05761373 0.0826818 0.10137394 -0.060276873 -0.1286657
0.14103806 -0.088787846 -0.013140784 -0.14474942 0.083088934 0.10693161 0.10377111 -0.033307057
-0.09895359 -0.11761594 -0.057384096 0.03318112 0.038843527 0.07424557 0.13713114 0.011621968
0.11573651 0.07703223 0.00019136621 -0.14020374 0.075423144 -0.0340251 0.008725394 0.05161512
-0.120770164 -0.0046906807 -0.13562292 -0.013254726 -0.032037996 -0.1093034 -0.0933896 -0.06845353
00000000: 54a9 cf3d fce9 0fbd f809 28bd aafd 3e3d
00000010: b29e a63d 8dc5 413d 2161 193c a91a acbd
00000020: 4083 d93d 140b 51bd f453 a13d f538 bb3d
00000030: 398b bbbd e2b7 acbd 1084 b93d 948f 17bd
00000040: 925e 7d3d c2b1 c4bd 04be b7bd d741 17be
00000050: 5b2d c9bd 8ba5 f03d 0083 933e 9310 063e
00000060: 1649 c73c 874d 113e 4861 e9bd e54d 93bc
00000070: 12a8 fd3d aa7e ba3d 72f3 7abc 1191 e2bd
00000080: c290 323e f271 9dbd 953b eebc ae73 1bbe
00000090: 2de7 0c3e 079f e13d 6c10 3b3d a28f a2bc
000000a0: c42f f9bd fd33 c3bd 6212 4cbd a623 df3c
000000b0: 52bb 7b3d 8e86 e33d 6e5a 143e 0e03 ae3c
000000c0: d4e5 d63d 2c06 493d 3e54 b13a 7f23 0cbe
000000d0: 2059 943d 3ec3 1ebb 6a19 68bb 68f1 653d
000000e0: 80c6 cebd bbfb 393c 83e1 e2bd 6e8a 38bc
000000f0: c0fb 0cbd c5df b2bd a179 24bd 1b90 0cbd
00000100: 6c7c c93d def3 87bd 503a 78bd 3fee 443d
00000110: 64d1 903d a418 183d 16ae 073d 1d71 98bd
00000120: 5f12 833d c3e3 b0bd 944e 003e 85c4 c53d
00000130: e209 97bd 01a6 c2bd 4425 813d 3f7a 44bd
00000140: 60b5 843d 66bb d5bd 0c8e acbd 2488 f3bd
00000150: 8bfc 95bd b098 863d 7282 aa3e db67 2b3e
00000160: c77f f03c cb3f 0c3e ddb3 07be 0b41 70bd
00000170: ea18 003e ee4b b73d 3015 a2bd c49f dbbd
00000180: 7070 503e 081c a2bd e069 31bd 8cc5 03be
00000190: 9fc6 2c3e 1661 a03d 8bcb da3d 856a 76bd
000001a0: 4544 08be 59e0 c4bd 5c35 aabd b911 f33c
000001b0: 1085 873b 5499 fd3d 6d77 0c3e c626 9a3c
000001c0: aed8 c53d a469 783d 8a06 14bd afbc 01be
000001d0: 671e c53d 499d 49bb 4d4e e43c 49b1 923d
000001e0: b279 fcbd 109b e23b 81d8 f6bd fd34 d7bc
000001f0: 14d6 c0bc d51d babd c2ca 63bd 9a0e 99bd
00000200: 66b2 a43d e090 74bd 1039 85bd 3c9d 413d
00000210: 1c0f 893d d56b 2e3d 0d48 af3c d76b 97bd
00000220: 29a9 f83d 71c3 a6bd 5a97 8a3d 5da1 14bb
00000230: 40ed b3bd 02c7 d0bd 5a8d 873d 4647 04bd
00000240: fd88 bc3c 1b23 f4bd afb0 a5bd b27f 1dbe
00000250: eb55 c9bd 0bf4 e33d 1ddc ee3d 708f 9f3d
00000260: 284c 8b3d a50e f73d 37c0 07be 6936 45bd
00000270: 7023 d33d a68c c93d 06e8 00bd e29b 01be
00000280: f8c4 aa3d 7b6c 9cbd 3416 73bc 875a 48be
00000290: 4b36 bf3c d4d2 083e c47d 3a3d 5855 c0bb
000002a0: 3fb5 0dbe 07ac d8bd e84f f0bc 4c79 353d
000002b0: 6280 603d 00cc 3b3d 0909 fb3d 5c98 a83c
000002c0: feea cd3d a0be d73c 08b5 a63c c84f 2cbe
000002d0: d906 9b3d 6991 37bc efae 0b3b eeca 1e3d
000002e0: 56ff 0cbe f9c5 5fbc 2964 01be 2bca 97bc
000002f0: 13f9 5bbd f24e c4bd 6dfc 82bd 1374 18bd
00000300: cfa5 a83d dbb7 9bbd f6ff 89bd 2f4e d83c
00000310: 88ee 8b3d d047 a53c b6da 203d 41eb b5bd
00000320: 49d3 bf3d 8974 95bd ee9d 923d e533 7e3d
00000330: 062b e0bd 6f34 babd 8509 b03d 1201 0fbd
00000340: 799e 093d 4efe d1bd 8071 c6bd cc1c eebd
00000350: c7c0 adbd e7f7 a93d f68d 363e 58e9 c43d
00000360: 155f 463d 1454 fc3d 6a3d 1ebe 60fc 6bbd
00000370: 1355 a93d 249d cf3d e2e4 76bd f1c0 03be
00000380: 486c 103e 67d6 b5bd 714c 57bc 3139 14be
00000390: 882a aa3d f6fe da3d f385 d43d fb6c 08bd
000003a0: 2ea8 cabd a0e0 f0bd 960b 6bbd ede8 073d
000003b0: 641a 1f3d 100e 983d 1b6c 0c3e 116a 3e3c
000003c0: 4307 ed3d 13c3 9d3d 7aa9 4839 9291 0fbe
000003d0: 7377 9a3d e75d 0bbd f4f4 0e3c 606a 533d
000003e0: 5956 f7bd 48b4 99bb bce0 0abe 5a2a 59bc
000003f0: 463a 03bd 76da dfbd 0c43 bfbd 5d31 8cbd

recurrent.conv_x_z.bias f4 [64]
0.12307553 0.11488158 0.11927232 0.12601271 0.19485511 0.16814539 0.051118936 0.23419061
0.19096042 0.16483513 0.12295004 0.06813345 0.17756823 0.19002174 0.20910327 0.06768468
0.1531292 0.18871169 0.19062951 0.19619109 0.15559919 -0.06479197 0.019011283 0.114026286
0.21245898 0.16062462 0.21322541 0.25998947 0.08801295 0.14619562 0.11755772 0.20641616
0.14129375 0.1965647 0.20026886 0.15587005 0.092623636 -0.060741503 0.0077218926 0.19367273
0.14124739 0.19112352 0.13480571 0.15297718 0.1059213 0.068124324 0.18728921 0.1358724
0.08356617 0.0016482283 0.08589897 0.3482398 0.08884212 0.16807812 0.16497673 0.12778169
0.15974088 0.08916831 0.25867414 0.21475072 0.11690942 0.16876009 0.19145082 0.14502025
00000000: 060f fc3d 0947 eb3d 0c45 f43d 7a09 013e
00000010: 1988 473e 4e2e 2c3e 1762 513d aacf 6f3e
00000020: 218b 433e 8aca 283e 3bcd fb3d 8d89 8b3d
00000030: 72d4 353e 0f95 423e 2b1f 563e 449e 8a3d
00000040: e7cd 1c3e a33d 413e 6234 433e 51e6 483e
00000050: 6555 1f3e a7b1 84bd 8dbd 9b3c 9d86 e93d
00000060: d98e 593e c87a 243e c357 5a3e 571d 853e
00000070: 2240 b43d 4eb4 153e 1ac2 f03d c25e 533e
00000080: 4faf 103e 4248 493e 4813 4d3e 669c 1f3e
00000090: 76b1 bd3d 15cc 78bd ee07 fd3b 2552 463e
000000a0: 28a3 103e e2b5 433e 820a 0a3e 0da6 1c3e
000000b0: 44ed d83d c484 8b3d bec8 3f3e 2222 0b3e
000000c0: bd24 ab3d 5d09 d83a cdeb af3d 7d4c b23e
000000d0: dbf2 b53d ac1c 2c3e a9ef 283e 34d9 023e
000000e0: 1d93 233e e09d b63d f070 843e 9de7 5b3e
000000f0: 356e ef3d 72cf 2c3e af0b 443e 3080 143e

recurrent.conv_x_r.weight f4 [2, 1, 127, 64]
0.0076107965 0.009136814 0.0027534508 -0.009018827 0.0045881434 -0.009169886 -0.011651526 0.0075523225
0.014012085 0.008001832 -0.012426198 0.00020504715 -0.00493413 -0.005351401 -4.730635e-05 0.009731655
-0.0048958273 -0.011683097 -0.012865839 -0.0004065283 -0.014909659 0.0154274255 -0.008502894 -0.0074898507
-0.00063542684 -0.0052027577 -0.010882996 -0.00069216156 0.005100194 -0.008741394 0.010125013 -0.011676453
-0.013357974 0.0036387385 0.014603349 -0.006056129 -0.00053000764 -0.002779909 -0.0093215965 -0.004590799
-0.0026897432 -0.00613072 0.008422205 0.007855702 0.011889696 0.0008917372 0.005760471 -0.008205522
-0.012697422 -0.0056748376 0.008169697 -0.008730846 0.006972735 -0.004321047 0.0041671623 -0.0006392939
-0.0062878868 0.0035889116 -0.009563199 -0.003553098 -0.01460385 -0.01380296 -0.014258075 0.0031196815
0.0118139405 -0.009891038 -0.01373232 -0.004223295 -0.014563459 -0.0151911 -0.006932396 -0.003272248
0.0070144236 -0.0021875587 0.0035139578 -0.009299241 0.013770177 0.004480733 -0.0065331194 0.010973593
0.007901384 0.005675784 0.0043599014 -0.014152222 -0.0005751897 -0.009230574 0.0155627355 -0.008030132
-0.009373668 0.010726611 -0.007476387 0.010834261 0.008690729 0.012448016 -0.0155978 -0.00267512
-0.0023172125 -0.0053503034 -0.005356695 0.013434616 -0.015214227 -0.0028919124 -0.015595625 -0.009998138
-0.008027966 0.0065938053 0.010411855 0.0037256808 0.003122376 -0.014045568 -0.014605662 -0.0047655078
-0.004366738 -0.003394796 0.0053533106 -0.0038817683 0.009635511 0.014488195 -0.009742443 -0.0052501857
0.0141641395 -0.0077093863 -0.006000808 0.006732461 0.014031583 -0.004875929 0.0099673495 -0.012192795
0.00938433 0.008579425 -0.009968135 -0.0016755232 0.0016471447 -0.007954719 -0.0120134335 -0.0034502537
-0.01395602 -0.0068359263 0.00081569137 0.008736442 0.0034138828 0.008285382 -0.014696824 -0.0055619758
-0.008675242 -0.0036813512 0.014533396 -0.013263422 0.012107321 0.011028603 0.013713605 -0.0053809355
-0.00733757 0.005188806 -0.0038777424 0.013645039 -4.5483135e-05 0.008511371 -0.0051744184 0.014907609
-0.007899939 -0.011959666 0.006831429 -0.005252046 0.009221976 0.0130584575 0.008445662 -0.009259461
-0.014618182 -0.0017023198 -0.0022840095 -0.0002719152 0.014120362 0.013922764 0.0030359782 -0.005735198
-0.015679216 -0.0067990636 -0.009678921 0.011243818 -0.010292607 -0.0013957542 0.0006110182 -0.0033480246
-0.01275969 -0.0019046686 0.0105604045 0.007185241 -0.0068239267 0.0044984412 0.0019037075 0.0026110439
-0.006139703 -0.011485419 0.015470591 -0.0011441692 -0.010793189 -0.0049189255 0.0019300515 -0.012967247
0.008890057 -0.009729809 0.0009428452 0.010052283 0.011586144 -0.0053824405 0.014252665 -0.0069274534
-0.010230378 0.00810002 0.009101717 -0.010153577 -0.009821503 0.01352894 0.01221036 0.0027562054
-0.0006400064 -0.013027068 -0.011492701 -0.013430412 -0.0013172176 0.013860768 -0.0032951962 0.014273169
0.008791536 0.0019571641 0.010639889 -0.012664417 0.012638972 -0.005148598 0.012729973 0.0003898875
-0.0050247875 0.013468879 -0.009399897 0.00615965 0.010555857 0.013926495 -0.013794451 0.011744073
-0.009158186 0.012379404 0.005805204 -0.0027242363 -0.0024712116 -0.0035677284 0.009884848 -0.006225957
-0.012312204 -0.009337106 -0.007536914 0.0032687306 0.011358097 0.015451271 0.009751619 0.005585423
00000000: fd63 f93b 93b2 153c 3d73 343b b4c3 13bc
00000010: 2358 963b 4a3d 16bc 0be6 3ebc 7979 f73b
00000020: f292 653c 1e1a 033c 4197 4bbc ed01 5739
00000030: 7bae a1bb ce5a afbb ce6a 46b8 8571 1f3c
00000040: 2d6d a0bb 766a 3fbc 3dcb 52bc 4e23 d5b9
00000050: a447 74bc 50c3 7c3c b94f 0bbc 6c6d f5bb
00000060: c692 26ba e57b aabb 984e 32bc 2d72 35ba
00000070: 871f a73b 1038 0fbc 62e3 253c 984e 3fbc
00000080: 67db 5abc e777 6e3b e342 6f3c 7e72 c6bb
00000090: 36f0 0aba 222f 36bb 9cb9 18bc 6a6e 96bb
000000a0: 6746 30bb 35e4 c8bb 4afd 093c 34b5 003c
000000b0: 00cd 423c 78c3 693a 55c2 bc3b 7470 06bc
000000c0: d908 50bc fdf3 b9bb 31da 053c d30b 0fbc
000000d0: 8a7b e43b 9297 8dbb b18c 883b 4a96 27ba
000000e0: 9e0a cebb f233 6b3b f7ae 1cbc 18db 68bb
000000f0: fd44 6fbc cf25 62bc b39a 69bc 9273 4c3b
00000100: 428f 413c 050e 22bc 86fd 60bc 9163 8abb
00000110: 939b 6ebc 17e4 78bc 2729 e3bb 3673 56bb
00000120: 40d9 e53b 255d 0fbb 6e4a 663b d85b 18bc
00000130: 4f9c 613c 1dd3 923b c713 d6bb 96ca 333c
00000140: ce74 013c edfb b93b 81dd 8e3b b9de 67bc
00000150: 54c8 16ba d53b 17bc d8fa 7e3c d190 03bc
00000160: 0394 19bc abbe 2f3c 7bfc f4bb 2f82 313c
00000170: 8f63 0e3c c3f2 4b3c ea8d 7fbc 1151 2fbb
00000180: 60dc 17bb 9951 afbb 3787 afbb dd1c 5c3c
00000190: 1845 79bc 3d86 3dbb cb84 7fbc 3bcf 23bc
000001a0: bb87 03bc d910 d83b 7c96 2a3c 8d2a 743b
000001b0: c7a0 4c3b 621f 66bc 964c 6fbc fa27 9cbb
000001c0: da16 8fbb 3a7b 5ebb d36a af3b 4465 7ebb
000001d0: 43de 1d3c e55f 6d3c c59e 1fbc c009 acbb
000001e0: b510 683c 059f fcbb 6da2 c4bb fa9b dc3b
000001f0: bae4 653c 42c6 9fbb 184e 233c 4ac4 47bc
00000200: bcc0 193c b790 0c3c 6351 23bc 3b9d dbba
00000210: 01e5 d73a 8254 02bc fed3 44bc a71d 62bb
00000220: caa7 64bc e8ff dfbb 1fd4 553a 4b23 0f3c
00000230: 73bb 5f3b 69bf 073c f3ca 70bc 3c41 b6bb
00000240: 9a22 0ebc d342 71bb 7b1d 6e3c d34e 59bc
00000250: c95d 463c 50b1 343c 07af 603c 8f52 b0bb
00000260: 0070 f0bb dc06 aa3b b921 7ebb 718f 5f3c
00000270: 25c5 3eb8 4773 0b3c 2b8e a9bb 0b3f 743c
00000280: bf6e 01bc 7af2 43bc 2eda df3b 5b19 acbb
00000290: c517 173c 24f3 553c ad5f 0a3c ffb4 17bc
000002a0: 1981 6fbc 6020 dfba 52af 15bb d78f 8eb9
000002b0: 1759 673c 4e1c 643c 43f7 463b 54ee bbbb
000002c0: b371 80bc aeca debb 5694 1ebc fe37 383c
000002d0: 53a2 28bc bdf1 b6ba bd2c 203a 886a 5bbb
000002e0: 050e 51bc 13a6 f9ba 8c05 2d3c 2c72 eb3b
000002f0: 3f9b dfbb a967 933b d385 f93a 0c1e 2b3b
00000300: 902f c9bb 572d 3cbc 5d78 7d3c f3f7 95ba
00000310: ead5 30bc f02e a1bb c8f9 fc3a 9374 54bc
00000320: 9aa7 113c c769 1fbc 4529 773a 55b2 243c
00000330: cfd3 3d3c 2f5f b0bb 0384 693c b1ff e2bb
00000340: 519d 27bc f2b5 043c 5e1f 153c 305b 26bc
00000350: 5fea 20bc 7da8 5d3c f60d 483c 74a1 343b
00000360: 1ac6 27ba 7c6f 55bc e24b 3cbc 3b0b 5cbc
00000370: 7da6 acba 4618 633c 38f4 57bb 03da 693c
00000380: 600a 103c c443 003b ee52 2e3c 6a7e 4fbc
00000390: b113 4f3c 92b5 a8bb 6091 503c d069 cc39
000003a0: f9a6 a4bb 93ac 5c3c 0702 1abc e4d6 c93b
000003b0: 79f2 2c3c f42b 643c 1f02 62bc 366a 403c
000003c0: 370c 16bc fcd2 4a3c 9539 be3b 1a89 32bb
000003d0: 0df4 21bb 8dd0 69bb 0ff4 213c 1d03 ccbb
000003e0: 20b9 49bc a9fa 18bc 38f8 f6bb 3338 563b
000003f0: 5017 3a3c 5427 7d3c 41c5 1f3c ed05 b73b

recurrent.conv_x_r.bias f4 [64]
0.0 0.0 0.0 0.0 0.0 0.0 0.0 0.0
0.0 0.0 0.0 0.0 0.0 0.0 0.0 0.0
0.0 0.0 0.0 0.0 0.0 0.0 0.0 0.0
0.0 0.0 0.0 0.0 0.0 0.0 0.0 0.0
0.0 0.0 0.0 0.0 0.0 0.0 0.0 0.0
0.0 0.0 0.0 0.0 0.0 0.0 0.0 0.0
0.0 0.0 0.0 0.0 0.0 0.0 0.0 0.0
0.0 0.0 0.0 0.0 0.0 0.0 0.0 0.0
00000000: 0000 0000 0000 0000 0000 0000 0000 0000
00000010: 0000 0000 0000 0000 0000 0000 0000 0000
00000020: 0000 0000 0000 0000 0000 0000 0000 0000
00000030: 0000 0000 0000 0000 0000 0000 0000 0000
00000040: 0000 0000 0000 0000 0000 0000 0000 0000
00000050: 0000 0000 0000 0000 0000 0000 0000 0000
00000060: 0000 0000 0000 0000 0000 0000 0000 0000
00000070: 0000 0000 0000 0000 0000 0000 0000 0000
00000080: 0000 0000 0000 0000 0000 0000 0000 0000
00000090: 0000 0000 0000 0000 0000 0000 0000 0000
000000a0: 0000 0000 0000 0000 0000 0000 0000 0000
000000b0: 0000 0000 0000 0000 0000 0000 0000 0000
000000c0: 0000 0000 0000 0000 0000 0000 0000 0000
000000d0: 0000 0000 0000 0000 0000 0000 0000 0000
000000e0: 0000 0000 0000 0000 0000 0000 0000 0000
000000f0: 0000 0000 0000 0000 0000 0000 0000 0000

recurrent.conv_x_h.weight f4 [2, 1, 127, 64]
-0.04157721 -0.043856125 -0.028715396 -0.011063648 -0.0018547693 -0.0046349014 -0.018418064 -0.040220615
-0.051291976 -0.049407117 -0.06787913 -0.060818225 -0.0041671703 -0.018114273 -0.027250286 0.002958522
-0.11536026 -0.024010291 -0.0049833017 0.0013667984 -0.009610821 -0.07868227 -0.0904462 -0.030408515
0.019943397 -0.04491434 -0.027642356 -0.041295826 -0.16576198 -0.011451818 -0.033880614 -0.0412009
-0.01853274 -0.04432422 -0.045663152 0.026453825 -0.07041936 -0.08421655 -0.05109015 -0.008361431
0.020618305 -0.031662654 -0.007843584 -0.046073355 0.018473443 -0.18969773 0.0102516115 -0.014070131
-0.0962105 -0.013710283 -0.015142176 -0.07389887 -0.020380393 -0.1357796 -0.079724036 -0.024186587
-0.0038007814 0.037375044 -0.0261398 -0.001662659 -0.0049642543 -0.031044604 -0.03797098 -0.021459892
-0.015052186 0.018463122 -0.021863634 -0.017457254 -0.017158754 0.018834984 -0.08622052 -0.024965117
-0.01788309 0.0025862139 -0.12993038 -0.10719284 0.0052542565 7.0573326e-05 -0.0130191725 -0.0071477946
-0.12944092 -0.0009199624 -0.016024014 -0.046654347 -0.01544375 -0.040023305 -0.20911963 -0.01766502
0.04721507 -0.023434885 -0.018071149 0.009743807 -0.16393143 -0.006200987 0.036261782 -0.046549246
-0.062607124 0.0008246189 -0.024901936 -0.035055555 -0.1390008 -0.022809945 -0.10257969 0.032561295
0.032126606 -0.025576027 0.08538415 -0.053576633 0.0644648 -0.21784759 0.006259643 -0.011026851
-0.059933756 -0.055364277 0.011287786 -0.048570316 -0.07726008 -0.09719544 -0.061910752 0.027884588
-0.003935385 0.039853957 0.0023911314 0.045819208 -0.016388211 -0.032954857 -0.021516096 0.047351744
0.028028999 -0.023667935 -0.036767736 -0.042092294 -0.0038110393 0.0041804365 -0.02142931 -0.0171181
-0.054500915 -0.027033238 0.021857178 0.03504234 -0.010413183 -0.0018808246 0.061279975 -0.006035234
-0.07500059 -0.0011586389 -0.015409384 0.04234011 -0.009053242 -0.11985069 0.051163584 0.06383226
-0.026511077 0.014625063 -0.026080746 -0.017705485 -0.102879226 0.01289659 -0.07746717 -0.0027072662
0.035628766 -0.032485086 -0.028203825 0.047228552 0.021146717 -0.12470159 -0.027895927 -0.05289547
0.050508615 -0.015572944 -0.06939776 -0.03740468 -0.052110545 -0.16065505 0.048441716 -0.009308509
-0.084287554 -0.0031150668 -0.0781547 -0.040269047 0.01942019 -0.09114337 -0.006794727 0.0029927397
0.031314183 0.045289133 -0.024670029 -0.061555635 0.007279756 -0.004690036 -0.057252344 -0.05619849
0.03011492 -0.010650545 -0.03081507 -0.009796041 -0.017273663 0.023879018 -0.071136825 -0.011095917
-0.028409561 -0.012877652 -3.1442887e-05 -0.028553823 -0.008864733 -0.0004038314 0.04421282 -0.010154915
-0.0680886 -0.012025529 -0.001927293 -0.0025684643 -0.004169577 -0.06870935 0.021994265 0.04397887
0.0015867419 0.011039601 0.00099031 -0.0084331855 -0.09638577 -0.007588588 -0.020099489 -0.007364747
0.006078165 -0.00929684 -0.015589598 0.005905917 -0.03356691 -0.064219795 -0.09849443 -0.03543925
0.014738131 -0.015567007 -0.0036905264 -0.030502496 -0.0028290723 -0.17705673 0.03385862 -0.023527216
-0.04675601 -0.044933736 -0.037914593 -0.045550827 0.011815444 -0.05440445 -0.004098311 0.022312675
-0.010979064 0.042435687 0.002224331 -0.009882689 0.018381692 -0.0037663267 -0.015552492 -0.026568271
00000000: dd4c 2abd 7ba2 33bd 8d3c ebbc 4e44 35bc
00000010: bb1b f3ba 5fe0 97bb 7be1 96bc 5fbe 24bd
00000020: 8917 52bd 1e5f 4abd 3704 8bbd 881c 79bd
00000030: c28c 88bb 6264 94bc fe3b dfbc c3e3 413b
00000040: 0042 ecbd 3bb1 c4bc f74a a3bb 2526 b33a
00000050: b476 1dbc 2c24 a1bd db3b b9bd 471b f9bc
00000060: 5660 a33c 19f8 37bd 3972 e2bc d025 29bd
00000070: 82bd 29be 68a0 3bbc 66c6 0abd 46c2 28bd
00000080: f9d1 97bc 508d 35bd 4909 3bbd b1b5 d83c
00000090: 0738 90bd ba79 acbd e843 51bd 62fe 08bc
000000a0: b8e7 a83c b3b0 01bd 6082 00bc 6ab7 3cbd
000000b0: 9e55 973c 1f40 42be 60f6 273c 6886 66bc
000000c0: 030a c5bd 18a1 60bc e416 78bc 4a58 97bd
000000d0: c8f4 a6bc cf09 0bbe 5b46 a3bd f322 c6bc
000000e0: 8816 79bb 9316 193d 2223 d6bc 94ed d9ba
000000f0: 2fab a2bb 4151 febc 7587 1bbd a8cc afbc
00000100: 729d 76bc f93f 973c 5d1b b3bc 8402 8fbc
00000110: 8490 8cbc d34b 9a3c 6294 b0bd a583 ccbc
00000120: 8f7f 92bc 787d 293b 780c 05be eb87 dbbd
00000130: e62b ac3b c400 9438 5e4e 55bc 0c38 eabb
00000140: 298c 04be a229 71ba cb44 83bc a118 3fbd
00000150: c807 7dbc 7aef 23bd 7523 56be 3bb6 90bc
00000160: 9764 413d 84fa bfbc f209 94bc 7da4 1f3c
00000170: a4dd 27be a631 cbbb 3c87 143d 6caa 3ebd
00000180: 2a38 80bd 3d2b 583a 25ff cbbc 6a96 0fbd
00000190: 3a56 0ebe ecdb babc 4d15 d2bd fe5e 053d
000001a0: 3097 033d d184 d1bc e3dd ae3d 2c73 5bbd
000001b0: 1f06 843d 7013 5fbe b11d cd3b f7a9 34bc
000001c0: 197d 75bd a7c5 62bd 68f0 383c abf1 46bd
000001d0: 883a 9ebd 670e c7bd 2196 7dbd 386e e43c
000001e0: 67f4 80bb e73d 233d 87b4 1c3b ecac 3b3d
000001f0: 9240 86bc acfb 06bd 8642 b0bc e7f3 413d
00000200: 129d e53c 42e3 c1bc c499 16bd f868 2cbd
00000210: a1c2 79bb 0bfc 883b 858c afbc 423b 8cbc
00000220: 5a3c 5fbd cf74 ddbc d30d b33c 8f88 0f3d
00000230: 0e9c 2abc 0086 f6ba b600 7b3d 36c3 c5bb
00000240: e999 99bd 78dd 97ba a477 7cbc d36c 2d3d
00000250: 0d54 14bc 4774 f5bd e890 513d 7dba 823d
00000260: c22d d9bc f69d 6f3c 4aa7 d5bc 180b 91bc
00000270: 58b2 d2bd 384c 533c 1ca7 9ebd 646c 31bb
00000280: 78ef 113d 150f 05bd b50b e7bc ba72 413d
00000290: e13b ad3c 8c63 ffbd 0086 e4bc eca8 58bd
000002a0: 1fe2 4e3d a925 7fbc 6a20 8ebd a635 19bd
000002b0: de71 55bd c282 24be d26a 463d b782 18bc
000002c0: f49e acbd 2626 4cbb 920f a0bd 28f1 24bd
000002d0: 1717 9f3c 60a9 babd 4da6 debb d721 443b
000002e0: 4d43 003d 1981 393d cd18 cabc c321 7cbd
000002f0: 058b ee3b e0ae 99bb 6f81 6abd 6330 66bd
00000300: 91b3 f63c a07f 2ebc e36f fcbc 937f 20bc
00000310: 7f81 8dbc ee9d c33c 2fb0 91bd a6cb 35bc
00000320: 2bbb e8bc cafc 52bc 8be1 03b8 b5e9 e9bc
00000330: 633d 11bc 55b9 d3b9 8018 353d cd60 26bc
00000340: 0972 8bbd b906 45bc 399d fcba ae53 28bb
00000350: f2a0 88bb 7db7 8cbd 512d b43c 3023 343d
00000360: 39fa cf3a 71df 343c 4acd 813a 582b 0abc
00000370: e765 c5bd b1a9 f8bb afa7 a4bc fa53 f1bb
00000380: 582b c73b c651 18bc 836b 7fbc 6c86 c13b
00000390: 757d 09bd ab85 83bd 73b7 c9bd bf28 11bd
000003a0: 3478 713c c20c 7fbc c2dc 71bb 5fe0 f9bc
000003b0: f567 39bb 5c4e 35be 56af 0a3d 26bc c0bc
000003c0: 3b83 3fbd 700c 38bd 554c 1bbd 8193 3abd
000003d0: 9095 413c 33d7 5ebd 204b 86bb 12c9 b63c
000003e0: 88e1 33bc 0bd1 2d3d 15c6 113b 01eb 21bc
000003f0: 3495 963c 7ad4 76bb e1cf 7ebc b4a5 d9bc

recurrent.conv_x_h.bias f4 [64]
-0.23367453 -0.06648129 -0.120676726 -0.067574754 -0.14470655 -0.18682113 0.095769644 -0.10139883
-0.16674009 -0.078494914 -0.12602758 0.09900975 -0.0930056 -0.11561604 -0.058366485 -0.102154106
-0.17824845 -0.06879042 -0.124666564 -0.039264005 -0.09512092 -0.031806055 0.026811147 -0.103436664
-0.15449245 -0.2450886 -0.19768992 -0.10172918 0.04468426 -0.13814947 -0.10164261 -0.09012664
-0.12540427 -0.11861712 -0.075014584 -0.014147658 0.07462406 -0.046435807 0.12811172 -0.12545434
-0.06682496 -0.06860651 -0.119068526 -0.1565433 -0.10197301 0.033634588 -0.16583228 -0.033774696
-0.0968152 0.12360692 -0.10808501 -0.18445699 -0.15136139 -0.15357995 -0.18718073 -0.24365234
-0.066263475 -0.018805608 -0.23893137 -0.099387616 -0.02062697 -0.0710241 -0.06977195 -0.11058125
00000000: 6048 6fbe 5827 88bd 5c25 f7bd a264 8abd
00000010: f42d 14be 0a4e 3fbe e022 c43d 31aa cfbd
00000020: eabd 2abe f1c1 a0bd 600d 01be a0c5 ca3d
00000030: b879 bebd 1ac8 ecbd b211 6fbd 2c36 d1bd
00000040: c386 36be fee1 8cbd 2f51 ffbd 4bd3 20bd
00000050: c2ce c2bd 1147 02bd 0da3 db3c 9ad6 d3bd
00000060: 4533 1ebe 82f8 7abe 3a6f 4abe 6357 d0bd
00000070: d806 373d 0e77 0dbe 002a d0bd 5194 b8bd
00000080: fa69 00be 88ed f2bd 3fa1 99bd 94cb 67bc
00000090: 80d4 983d 7933 3ebd b82f 033e 1a77 00be
000000a0: 86db 88bd 9281 8cbd 33da f3bd e34c 20be
000000b0: 3ad7 d0bd 6cc4 093d f0cf 29be 5657 0abd
000000c0: 0c47 c6bd a025 fd3d ac5b ddbd 4be2 3cbe
000000d0: 7bfe 1abe 1044 1dbe 4eac 3fbe 0080 79be
000000e0: 25b5 87bd 380e 9abc 6daa 74be bc8b cbbd
000000f0: e4f9 a8bc 1575 91bd 99e4 8ebd 6c78 e2bd

linear.weight f4 [1, 64]
0.011899915 -0.030627599 -0.026446754 -0.020071723 0.00015097395 0.0037517499 0.054052915 -0.0014468861
-0.019258467 -0.00081321364 0.024373692 0.071315676 -0.0008030102 -0.0027103864 0.005034608 -0.001083883
-0.021882126 -0.0023417776 -0.0015723343 -0.023057053 0.0011385443 -0.061383624 0.1143445 0.004901032
7.95636e-05 -0.0151363 -0.0032102328 0.0046071666 0.012907164 -0.0011438812 -0.048511058 -0.0029006284
0.032016803 -0.0005562098 -0.0024480342 -0.021098927 0.06861328 -0.055081595 0.087271184 -0.004157031
-0.021253938 -0.003373779 -0.04706014 -0.036441702 -0.06968203 0.021204429 0.008302178 -0.023169436
-0.025449593 0.08559465 -0.07933214 -0.000117711716 0.029019777 -0.0009461366 -0.0029840788 -0.010814423
-0.008643534 -0.00048500748 -0.00025516265 -0.005151696 -0.00208565 0.0028186063 0.0023247956 -0.00877617
00000000: dcf7 423c bbe6 fabc dda6 d8bc 746d a4bc
00000010: c34e 1e39 ebdf 753b 9766 5d3d 71a5 bdba
00000020: efc3 9dbc d82d 55ba 56ab c73c f40d 923d
00000030: 1a81 52ba bda0 31bb 5af9 a43b 1411 8eba
00000040: 2542 b3bc 8278 19bb c916 ceba 25e2 bcbc
00000050: 353b 953a 656d 7bbd 732d ea3d d698 a03b
00000060: 62db a638 3efe 77bc c562 52bb b7f7 963b
00000070: 9278 533c 49ee 95ba 88b3 46bd 7818 3ebb
00000080: 0d24 033d 9cce 11ba 336f 20bb a8d7 acbc
00000090: 1f85 8c3d 3d9d 61bd 3cbb b23d b437 88bb
000000a0: bd1c aebc 9e1a 5dbb 22c2 40bd e543 15bd
000000b0: 74b5 8ebd e9b4 ad3c dc05 083c d4cd bdbc
000000c0: aa7b d0bc 3f4c af3d e478 a2bd ffdb f6b8
000000d0: e2ba ed3c 2706 78ba 8990 43bb fa2e 31bc
000000e0: 9c9d 0dbc 9a48 feb9 5ac7 85b9 8fcf a8bb
000000f0: 67af 08bb 5eb8 383b 995b 183b edc9 0fbc
