dcrnn_best_model.pth (torch, 31724 bytes, 7 tensors)

recurrent.conv_x_z.weight f4 [2, 1, 36, 32]
00000000: 4401 13bd 41a5 dd3c d0cc 4dbc 71ad 25bd
00000010: 6aee 513d caa9 1aba 107f 863d e76b 05bd
00000020: ae53 273d 0d73 a33c 1039 5c3d 02f0 0d3c
00000030: 0dac f93c 9228 89bc bc52 013c ffa2 89bc
00000040: dc6a 5cbd 1ef6 2a3c 3c6c 1a3d aa57 2b3d
00000050: 3919 09bd 6e6b 97bc 5b9d 433d f208 453d
00000060: c2d5 2abc d1db 593d 5504 1b3c 055b acbc
00000070: 2185 99bc 2c84 5e3d b85e 493d 865b 733d
00000080: 6306 32bd a853 eb3b 7f63 45bd 1943 c3bc
00000090: 9e32 943b 91e0 53bd 6225 35bd fed5 fcbc
000000a0: 79d7 623d e498 b1bc 97b0 303d 302e 433d
000000b0: 90c3 213c fe04 703d 2ade a83c 7f88 1d3c
000000c0: 5d80 b9bc a2d7 0ebd ca76 e93c 4ea6 98bc
000000d0: 7445 9fbc 2fc3 993c b129 c8bc 4384 38bc
000000e0: 9432 7cbc e56f 9c3c 905f 4d3c c2d2 05bc
000000f0: a99c aebc c98b 32bd 4856 a8bb d982 02bc
00000100: 8231 a63c f75a 5cbd e534 0fbd 2fca f43b
00000110: f8f6 c8bc 4bb2 2cbb aa4a 82bc 1c85 80bb
00000120: f98b 9dbb 4310 dfbc bc1c 263d e9aa e8bc
00000130: 77af 0fbd 8145 ff3b 4bd0 f1bc d879 c5bc
00000140: 88ac e5bc fb86 55bd b847 83bc a460 5e3c
00000150: 8aa2 59bc 493f 3f3c 0a90 7b3c a518 553d
00000160: 3c0c 10bc c449 cc3a 57a6 933b 62a6 10bd
00000170: 6584 b93b e1a5 1c3d cad0 ebbc 3ef8 a8bc
00000180: 6ac0 9f3c dbd0 0e3d 1ab7 91bd a4db 8dbb
00000190: b637 293d 749a 93bb 94e5 d2bc bd74 25bd
000001a0: b560 5fbd 271d 743c f6c1 013d fc54 2c3c
000001b0: 76bf a5bc 0b25 7cbb 3168 41bc 85fe 1e3c
000001c0: 8350 1ebc 4ca1 0cbd 7c89 57bd d971 22bb
000001d0: e72d 343c ce24 a6ba 74bc 9f3c 1cc9 93ba
000001e0: 49fb 333c 9a11 283d efc7 09bc 7844 0fbd
000001f0: dc3c 2f3c ce01 5e3c 5039 89bc 8321 1f3d
00000200: c87f 023d 5498 563d ccaf 043d e9d3 103d
00000210: dd09 42bc 545c 4c3d b683 13bd 7a36 46bc
00000220: 0f14 be3c 2225 80bc 273d f3bb d26b dd3c
00000230: 0878 09bc 3655 303b 5265 403d c1b7 333c
00000240: 3644 a83c 3f2a 113d addd d73c 1544 8c3c
00000250: 8e59 423d f892 043c 23c8 5eba d25e c3bc
00000260: d3ac 77bc 6a9c 33bd c316 5f3d 1476 0ebd
00000270: 1a2b b83c 7532 89bc cdcd 9f3c bc67 87bc
00000280: abe3 2e3d 47c0 afbc 8fd7 d73c 5570 913d
00000290: ac87 f3ba cdde df3c cb65 713c 23a8 a33c
000002a0: a612 f6bc 9887 4ebc 4bd6 9cbc 5a92 c4bc
000002b0: 0fc8 313d 6fa7 cb3b abc2 f23c a146 233d
000002c0: 3acf ef3b e4f0 263d af47 ecbc 2964 12bd
000002d0: 87b1 fdbc 77c8 213d 6d22 8f3c dd5a 99bc
000002e0: 89e9 6fbc fcb5 74bb ccde 38bd 67ad e93b
000002f0: d9f7 473d 48d0 c3bc 827f 693c 623a 8b3d
00000300: d8c5 88bc 3120 76bc 8825 703d 9f03 51bd
00000310: 153a b9bb d712 f43c 1bad 4c3a 5ac3 0cbd
00000320: 9062 ddbc a5ee 3b3d 224c 38bc 2e2a 8d3a
00000330: d9ad 3c3c 5dbb 123d dd6d 2b3d 09ff bbbc
00000340: 3958 0dbc 2679 973c c6fe 91bc 9bca 41bd
00000350: e824 173d 87e2 213c 0ce8 d2ba 4e15 103d
00000360: caf2 453d 97c0 47bd 4e44 c03b aa21 203d
00000370: cfaa bcbb e13e fc3c 6ae8 633c 107c a83a
00000380: a0b7 bcbc d4d6 cf3b fba5 d2bc 155e bf3b
00000390: 1ea7 59bd 9386 943c 169a 68bd 0aa6 2d3c
000003a0: 426a edbc 43a9 153d 9cd9 eebc 9ea2 f8bc
000003b0: 4913 d43c 16dd e7bc 688b 543d e5f9 63bd
000003c0: a87b 243d 15f4 ab3c 0a26 27bd 53ba acbb
000003d0: 716a 823c e488 003d 9e34 6bbc 1496 00bd
000003e0: c33a 65bc fa28 96bd 6bd3 31bd 458c 1d3d
000003f0: 2a1c 5e3c 6620 523a 9426 093d a9eb 65bd
-0.03588988 0.027056338 -0.012561038 -0.04044861 0.05125276 -0.00058999343 0.06567204 -0.032573607
0.040851288 0.019952321 0.053765357 0.008663179 0.030477548 -0.016742978 0.007893261 -0.016801355
-0.053812847 0.0104346555 0.037700877 0.04183165 -0.03347132 -0.018483844 0.047757488 0.048104234
-0.01042694 0.05318815 0.009461482 -0.021039495 -0.018740239 0.054325268 0.049162596 0.059413455
-0.043463122 0.0071816035 -0.04819059 -0.023835706 0.0045226356 -0.051727835 -0.044225104 -0.030863758
0.055381272 -0.02167935 0.04313716 0.04765147 0.009873286 0.05859851 0.020613749 0.009615063
-0.022644216 -0.034873612 0.028499026 -0.018633988 -0.019442298 0.018769829 -0.024433943 -0.011262002
-0.015392918 0.019096324 0.012534991 -0.008167924 -0.021314936 -0.04359034 -0.0051372387 -0.007965767
0.020287279 -0.05379769 -0.034962554 0.007470391 -0.024531826 -0.0026351388 -0.015904743 -0.003922118
-0.004807946 -0.027229434 0.040554747 -0.028401809 -0.035079446 0.007790268 -0.029518267 -0.024105951
-0.02803637 -0.05213068 -0.01602541 0.013572846 -0.013283381 0.011672803 0.015354166 0.052025456
-0.008791979 0.0015585949 0.0045059132 -0.035314925 0.0056615346 0.038244132 -0.028786082 -0.020626184
0.01950093 0.03486715 -0.07115002 -0.0043291617 0.041312896 -0.004504496 -0.025744237 -0.040394533
-0.054535586 0.014899529 0.031679116 0.010518309 -0.020232897 -0.0038474228 -0.011804626 0.009704237
-0.00966275 -0.034333512 -0.05262135 -0.0024787097 0.010997272 -0.0012675764 0.019499041 -0.0011275145
0.010985204 0.04103241 -0.008409484 -0.034977406 0.010695662 0.013550235 -0.016750962 0.03885032
0.031860143 0.052391365 0.032394215 0.035358343 -0.011843172 0.04989274 -0.03601428 -0.012097949
0.023202924 -0.015642706 -0.0074230614 0.027028952 -0.008390434 0.0026906258 0.046971627 0.010969103
0.020540338 0.03544068 0.02635082 0.017122308 0.047448687 0.008091681 -0.00084984506 -0.023848925
-0.015116888 -0.04385034 0.054465067 -0.034780577 0.02248149 -0.016747693 0.019507313 -0.016528957
0.04269759 -0.02145399 0.026347904 0.07101504 -0.0018579862 0.02732792 0.014733742 0.019977635
-0.03003819 -0.01260557 -0.019145152 -0.023995567 0.04340368 0.006215028 0.02963384 0.03986228
0.0073184045 0.040757075 -0.028842775 -0.03574005 -0.03096844 0.03949782 0.01747247 -0.018720085
-0.014643081 -0.0037339916 -0.04513435 0.007131267 0.04882035 -0.023903027 0.014251592 0.06798245
-0.016695902 -0.0150223235 0.058629543 -0.051028844 -0.005652676 0.02979414 0.0007807777 -0.03436599
-0.027024537 0.045881886 -0.01124862 0.0010770017 0.011516058 0.035823215 0.04185282 -0.022948759
-0.008626991 0.018490385 -0.01782168 -0.04731236 0.03690043 0.0098806685 -0.0016090884 0.035176568
0.048327245 -0.048767652 0.0058675176 0.039094605 -0.0057576667 0.030791702 0.013910392 0.0012854356
-0.023036778 0.006342748 -0.025713911 0.005840073 -0.05313789 0.018130576 -0.056787573 0.010598669
-0.028981332 0.036538374 -0.029156499 -0.03035098 0.025888102 -0.028303664 0.05189076 -0.05565824
0.04015699 0.02099041 -0.04080776 -0.005271235 0.015919896 0.03138055 -0.014355807 -0.031393126
-0.013991061 -0.073320344 -0.043414515 0.03846385 0.0135565195 0.0008015692 0.033484057 -0.056132946

recurrent.conv_x_z.bias f4 [32]
00000000: 645d a3bc 5622 b4bc b00e 73bc 8364 bf3b
00000010: 3ef9 0bbd 4702 f3bc 7cb9 e3bc 9ce2 5cbb
00000020: 1fe4 14bd d4b0 e0bb add6 4cbc 3e1b 923b
00000030: 9490 84bc 7d65 02bd 5de8 b1bc 6648 98bc
00000040: 4e4e ccbb 2f07 bebc dbee f0bc d39a 2fbd
00000050: bc41 ccbc db9c 85bc 1210 13bc 9f00 adbb
00000060: d177 2fbd 2168 18bd 6074 d1bb cd5a 3abc
00000070: fb53 1dbd 5239 9fbb 7878 1c3b 3b95 55bc
-0.019941993 -0.021989029 -0.014835045 0.0058408394 -0.034173243 -0.029664172 -0.027798407 -0.0033704406
-0.036350366 -0.006857017 -0.012502355 0.004458814 -0.016182221 -0.031835068 -0.021717245 -0.01858921
-0.0062349206 -0.023196785 -0.02941077 -0.04287226 -0.024933688 -0.016310146 -0.008975999 -0.005279615
-0.042838875 -0.03720868 -0.006392047 -0.011374188 -0.03841017 -0.004859128 0.0023875516 -0.013036068

recurrent.conv_x_r.weight f4 [2, 1, 36, 32]
00000000: d465 30bc f7e0 92bc 2af7 e8bc 7be5 4fbd
00000010: da27 65bc d366 d63a 0ddc 61bd a2a4 e93b
00000020: 05cd 32bd 1e52 59bd 1978 58bd 8aee 313b
00000030: 1a96 153d 1dda 37bd 2eec a7bc 034b 2e3d
00000040: 50d8 d53c 2edf 43bd 5c34 50bd a015 dcb7
00000050: 1614 bebc 3933 9ebc 97e6 c4bc 4df8 30bc
00000060: 37c7 d5bc 52cc 0b3c d4e5 3bbc f970 1abd
00000070: 7c20 35bd 1c1b 83bc 6ba5 1a3c abd0 24bc
00000080: a842 20bb 9168 15bd 2d93 96bc 901a 9dbc
00000090: 892c ea3c 71ce 0d3c 20e9 1a3c d1cb b53c
000000a0: b8aa 023d 84d5 b4bc e43a f2bc abb2 3e3d
000000b0: ca24 6e3d 097f ce3c 617c cd3c 30ea eb3c
000000c0: 3c69 0d3d acaa 9739 2090 693d 5365 9d3d
000000d0: a283 44bc 0d3f 203d d662 533d 37c4 a0bc
000000e0: cf04 463d 7f41 e63c 74dc 67bc 8f65 cc3c
000000f0: 8ac6 8f3d f7c5 69ba e9ae 13bd 5c60 8e3d
00000100: 007e 263d 27b2 2d3c 2ab9 34bd 3498 5bbd
00000110: 8195 febc a2f7 01bd 603b 6e3c 8590 2a3c
00000120: e358 a33c 56f6 35bd f71a c13c f2ef f6b9
00000130: fb06 263d 8b57 15bc 8907 a3bb 17ab 82bc
00000140: 9369 5cbb e053 23bc 1e6c b0ba 04f0 bbbc
00000150: 4288 d1bc e70f 493d fba1 aabc 906c bfbc
00000160: b7be 283d b0cf c63b 9b89 2cbd cdc0 643b
00000170: c010 96bd f892 c8bb 3102 3abd 9a0f 363d
00000180: 6f21 693b 0bcc 8fbc 30ef 2fbc dd16 a2bc
00000190: d13e e4bc e053 8eba 7aa4 46bd c3a4 00bd
000001a0: 2b6d 87bc dca2 933c 9588 903c cf1f c73c
000001b0: 21ac 263c a92f 35bc 3b61 d63c 62c2 e7bc
000001c0: 74e4 16bd 2bc5 4ebd 2779 61bd f1ff a13c
000001d0: fe66 f53c 7d2b 74bc ea8b 403c 04ce 803c
000001e0: afd9 4c3d 0f58 3ebd 530c fd3b f548 273d
000001f0: 4b20 113d ca81 45bc d65d 2e3c db2d 393d
00000200: e13f 56bb d444 8f3c 38c8 89bd 8178 f7bc
00000210: 7df3 163b e209 76bd 48a0 24bd 86a3 4d3d
00000220: 943f 29bb a81c 40bc 4220 0b3a 1037 1abc
00000230: 50fa 67bc aaac b73a 4549 9dbc f48e cb3b
00000240: 6b8c dcbc f9f6 1db9 3f66 8dbd b350 22bd
00000250: 970d abba 08aa e13c fe24 3dbd 2813 febc
00000260: 1bde 26bd ad58 a8bb 20ee 3c3c 0923 edbc
00000270: 4123 17bd 1085 463c c423 563c daf4 353c
00000280: e73d f03c 8a9e 593c 72f3 70bd bdb3 aabb
00000290: 5b22 1ebd e303 e2bc 2b4e 9abc dde1 a83c
000002a0: ba98 dd3a 917a fbbb eeac 5fbc 7ead 0cbd
000002b0: 64b9 353d 7e95 70bc b38d f9bc 09b9 653d
000002c0: a88d f9bc c3b9 5abc 4deb b1bc 3d9d 69bd
000002d0: 4a1a 6e3b 35a3 5cbd 6582 703c 8a2a 34bd
000002e0: 1336 4dbd 8b6a 88bc c673 d6bc 2f67 f43c
000002f0: 2362 d7bc f4df a63c 6758 5cbd 4da6 e83c
00000300: b19f 0b3d ade3 873b 675d 8c3c e26b 1fbc
00000310: caee bfbc b902 833b f85d a43a 0ca2 81bc
00000320: 8ca5 723a 54d1 2ebd dce8 40bd bf52 5e3d
00000330: 67a9 1a3d bc48 3bbc a8a1 21bc 388d 113d
00000340: dcbe fabb ccc6 debb b00b d43b 5a8b b2bb
00000350: 26df 36bc c84a 02bd e053 5bbd c111 c1bb
00000360: 5e75 92b9 8feb f03b 2ccc 3a3b 2b70 31bc
00000370: 9441 ec3c 29a6 22bd d8b3 1a3c d893 bbba
00000380: 2c0a 7ebc 62c4 d33c 186d 043d a66b 2c3d
00000390: 573c c33b 42bd ecbc 308b 523c 0892 b23b
000003a0: ee65 95bc 5911 5f3c 94d8 2abd 0444 8a3c
000003b0: ecba 28bc ff10 95bc e127 a83b 3cb4 23bd
000003c0: e06b 2c39 1379 3bbc 4393 b53c 5aa1 a13c
000003d0: 51fc 47bd 04c1 61bc b702 31bd fa49 fc3c
000003e0: 0c98 8439 c5c5 943c 5226 68bc f156 86bc
000003f0: 481f 1ebc 2bb0 cd3b a3fb 6d3c fdea 013d
-0.010766465 -0.017929537 -0.02843817 -0.05075596 -0.013986552 0.0016357548 -0.055141497 0.0071302215
-0.043652553 -0.05305683 -0.05284891 0.0027150237 0.0365201 -0.044885743 -0.020498361 0.042552005
0.026104122 -0.047820263 -0.050831184 -2.6236114e-05 -0.023202937 -0.019311534 -0.024035735 -0.010801387
-0.02609597 0.0085326005 -0.0114683695 -0.037705395 -0.044220433 -0.016004138 0.009438853 -0.010059516
-0.0024453793 -0.036476675 -0.018380726 -0.019177705 0.02858569 0.0086551765 0.009454995 0.022191914
0.03190109 -0.022074468 -0.029569097 0.04655711 0.058140554 0.02520706 0.025083723 0.028798193
0.034524187 0.00028928125 0.057022214 0.07685342 -0.011994274 0.03912263 0.05160793 -0.019624813
0.04834443 0.028107403 -0.014151681 0.02495077 0.0702029 -0.00089177437 -0.03605548 0.06951973
0.040647507 0.010601557 -0.0441219 -0.05361195 -0.031077148 -0.0317303 0.014540523 0.010410433
0.019939845 -0.044424377 0.023572428 -0.0004709955 0.040534 -0.00911511 -0.0049752635 -0.015950723
-0.0033632263 -0.009968728 -0.0013459956 -0.022941597 -0.025577668 0.04908743 -0.020829191 -0.023367196
0.041197505 0.0060672387 -0.04212342 0.0034904957 -0.073274136 -0.0061210357 -0.045412246 0.044448473
0.0035572906 -0.01755335 -0.010738179 -0.019786293 -0.027861984 -0.0010858737 -0.0484967 -0.03140713
-0.016531548 0.018021993 0.017643252 0.02430716 0.010172875 -0.011058726 0.02616941 -0.028290931
-0.036838964 -0.050481003 -0.05504718 0.019775363 0.029956337 -0.014902947 0.011752108 0.015723236
0.050012287 -0.046470698 0.0077224164 0.04084106 0.035431188 -0.01205487 0.010642489 0.045209747
-0.0032691883 0.017488874 -0.06727642 -0.030208828 0.0023033314 -0.06006802 -0.04019192 0.050204776
-0.002582525 -0.011725582 0.0005307236 -0.009412542 -0.0141588 0.001401325 -0.019199977 0.0062121097
-0.026922425 -0.00015064691 -0.069042675 -0.039627742 -0.0013050315 0.027546898 -0.046177857 -0.031014994
-0.04073916 -0.005137524 0.011531383 -0.02894737 -0.036898855 0.0121166855 0.013070051 0.01110574
0.029326392 0.013282428 -0.058825918 -0.0052094148 -0.038606983 -0.027589744 -0.018836102 0.020615513
0.0016906478 -0.007674523 -0.0136520695 -0.034345143 0.044366255 -0.014684079 -0.030463075 0.056084666
-0.030463055 -0.013349953 -0.021718645 -0.05703472 0.0036331587 -0.053866584 0.014679526 -0.04398588
-0.050100397 -0.016652366 -0.026178252 0.029834358 -0.026291912 0.020370461 -0.053795245 0.02839961
0.03408784 0.004147014 0.017134381 -0.009730311 -0.023429293 0.0039981273 0.0012540212 -0.01582434
0.0009256236 -0.0426801 -0.047097072 0.05427813 0.03775921 -0.011430915 -0.009865202 0.035535067
-0.0076521467 -0.006798601 0.00647112 -0.005448741 -0.011161601 -0.0318096 -0.053546786 -0.005892009
-0.00027934735 0.0073522995 0.0028503044 -0.010829966 0.028839864 -0.039709244 0.009442292 -0.0014311029
-0.015505355 0.025850479 0.032330602 0.04209485 0.005958121 -0.028898839 0.012850568 0.005449537
-0.01823708 0.013614976 -0.04171045 0.016878136 -0.010298472 -0.018196581 0.005131707 -0.039966807
0.00016443385 -0.011442441 0.022164946 0.019730259 -0.048824612 -0.013778929 -0.04321548 0.030796994
0.00025290286 0.01816071 -0.0141692925 -0.016398879 -0.009651013 0.0062771044 0.014525327 0.031718243

recurrent.conv_x_r.bias f4 [32]
00000000: 0514 0d3c 2073 703c 35f3 063d d10b c83c
00000010: 1496 053d f275 dd3c da77 0e3c 8553 b93c
00000020: b0f7 3b3d 716c 013d cef0 9f3c 4c08 663c
00000030: 4d26 283c e575 f53c 1770 163d c0ee d03c
00000040: d708 5abb ba4e 613d 5b40 f73c 4605 b63c
00000050: a662 4c3d fcd6 0c3c aabb 4c3b c138 97ba
00000060: b7c9 273d 91bc 243d 1291 d4ba 1390 133d
00000070: 02c1 293d ff35 14bc 9cdd 8f3c 3438 ce3c
0.00861073 0.014675885 0.032946784 0.024419697 0.03261383 0.02703378 0.008695567 0.022622833
0.04589051 0.03159756 0.019524004 0.014040064 0.010263038 0.029963443 0.03672799 0.02550447
-0.003326943 0.05500672 0.030182054 0.022219311 0.049898766 0.008596178 0.0031239786 -0.00115373
0.040963855 0.040218893 -0.0016217551 0.03602607 0.041443832 -0.009046077 0.017561726 0.025173284

recurrent.conv_x_h.weight f4 [2, 1, 36, 32]
00000000: 58db a33c 1fe9 0d3c a641 4c3d 655a 80bc
00000010: cf93 2dbd 01b3 76bd fc87 97bd 4442 a93c
00000020: fce6 c63c 15fa 863c ace4 033d 7b91 9abb
00000030: 8f19 093d ddc3 633d 9224 983b be18 aabc
00000040: ed2f 25bc c2d6 fa3c 79e5 74bd 1716 16bd
00000050: 726f f33a 6c8f 8dbb fb28 453d 22e2 213d
00000060: 1054 80bd e853 91bd c0b7 01bd 383d 393c
00000070: 4c35 64ba 36e3 453d 67d7 ae3c a478 373d
00000080: c729 50bc 9486 15bc 6880 c9bc 3b42 c7bc
00000090: 689d d83c babe 7e3a 4941 873b 9181 a33c
000000a0: 2932 ae3c 6d75 a3bc f41c 223d 36fd f1bc
000000b0: 5a31 9dbc fade 663c 405a b93b e692 123d
000000c0: 4f57 85bc 46d2 48bd 7ef9 123d 05c3 013c
000000d0: 4831 d6b7 3882 0dbd fa07 41bd 8b83 633a
000000e0: 166f dbbc 8ab1 783d e3f7 06bd 044d 11bd
000000f0: 44dd 06bd e0ff b7bc 3298 d5bc 4398 4b3d
00000100: 5679 8b3c fce2 2b3b bc83 2fbd d8ff 9abc
00000110: c2c6 2f3d 9e48 5e3c a520 4f3b 086a 573b
00000120: 0b81 023d 9d87 eabc e6d4 843b 0963 09bc
00000130: 94d0 f73b 23da 803a befb 03ba 761b 4abc
00000140: 070a e83c 30cd 0c3c 1063 ac38 e2da c9bb
00000150: 7355 083d c607 d6bc 2779 1dbd 5547 ffbc
00000160: c6cc d6bc 0922 673d 4ba1 69bd 4d93 f5bc
00000170: 066e c8bc 13a0 a93b f15c 76bd 15d1 013d
00000180: c732 003d 7df3 733c b47e 13bd 75fe 76bc
00000190: dca7 0e3d 9be4 363c d280 f33c 9bca 9dbb
000001a0: 1faa 58bd 44cb cabc ea84 e93c fd9f 603c
000001b0: f37a 143c 82bf 03bc da4c 1f3d b822 10bd
000001c0: 695c 2fbc 8938 d3bc 741d 053d bf9c 33bd
000001d0: 2bfb 163c e40e 4dbd 6691 a6bc 9008 023c
000001e0: 1534 7cbd 0545 6f3d f471 933c f3b1 38bd
000001f0: 1c9e 213d c32e e03a 2c68 053d c6e2 163d
00000200: 2c2b 95bc 05e1 373c 1c71 a1bc 041b 0cbd
00000210: 9fde cabb 7a8a 8fbb 4400 33bd ede6 fe3c
00000220: c27c 633d 507f 8cbd 7800 5abc 1520 d4bb
00000230: f46a 1bbc 588e 2b3c bca0 7fbc f151 83bd
00000240: dede f1bb d4bd b13c 7cf4 7f3b 8d92 86bd
00000250: fd02 bd3b ea07 07bc ce80 d4bc d8fd 09bd
00000260: de97 1f3a 04d9 41bd 20f2 69bd bdba fdbb
00000270: 8f47 583c 879c 23bd ac80 e3bc 93d3 50bd
00000280: 0dd7 393c 82e9 34bd 513a 043d 6e95 6abc
00000290: c7bd c6bc c650 043c 0c1a c6ba b4c3 16bc
000002a0: 3fc9 f03c e677 a73c 80ba 32bd 8fdf a23c
000002b0: dfca fa3b 1d8d 563d 1b02 1f3d c733 ffbc
000002c0: 4d3e fb3c f0f2 863c 1124 56bc 9588 723a
000002d0: 41e8 d2bc 4e3d a33b 42db 033c 84ec 433c
000002e0: 1853 6dbc de88 3dbc 62db 1d3c 92be 74bd
000002f0: a4d1 683d cad9 d9bc 5509 7dbc 50a6 a43c
00000300: 5ccf 023d 299a 8cbc d29d 883d 8cdd 363d
00000310: 6ad3 1d3c d0bf 89bd 6bbc 933c a5eb d83c
00000320: a98d 8fbc 5d1a 0e3d 44fa 363c 498b bdba
00000330: ca9b 39bd f631 c8bc 554d bdbb aa88 503d
00000340: 1f66 51bc 6a26 bebc 7463 03bd 88f1 acbc
00000350: 0224 903c 4f70 8abb 0416 893d 9d8a 803d
00000360: 58a9 5d3c 0a03 2ebd dc64 f53b 6cb3 d13c
00000370: 9756 99bb f272 ae3c 240b ce3b 161c 533d
00000380: cbd5 90bc 693e 433d 7812 62ba 1507 08bd
00000390: 815f 443b e9be 083d 1c9c d13c 6ebc 30bb
000003a0: af9c 313d 8b7c eabc 3c69 62bd 0018 f2bb
000003b0: c67d dd3c fe66 b5bc 9eb5 a03b 960e 1e3c
000003c0: 290a 1abd 6257 c13c 0a76 f2bb 64bd bdbc
000003d0: 7383 1e3d 15e8 66bd 4881 1b3b 8590 25bb
000003e0: ab19 8d3b f06a a9bc 6117 22bd e679 783c
000003f0: 46a5 4f3c d475 84bb 34e5 633c cff1 9bbb
0.020002052 0.008661537 0.049867295 -0.015668103 -0.04237729 -0.060229305 -0.07398984 0.02066148
0.024280064 0.01647667 0.0322005 -0.0047170497 0.03347164 0.05560671 0.0046430314 -0.020763751
-0.010082227 0.030619983 -0.059789155 -0.03664216 0.0018572642 -0.0043200757 0.048134785 0.039522298
-0.06266034 -0.07096082 -0.03166938 0.0113061 -0.00087054516 0.04831239 0.021342946 0.044792786
-0.012705273 -0.009126324 -0.024597362 -0.024323573 0.026442245 0.00097177515 0.0041276556 0.019959243
0.021264153 -0.019953454 0.039578393 -0.029539686 -0.019188572 0.014091248 0.0056565106 0.035784625
-0.016276984 -0.049028657 0.035882466 0.007920031 -2.5533736e-05 -0.034548014 -0.047126748 0.0008678964
-0.026786368 0.06071619 -0.032951247 -0.03547384 -0.03292586 -0.022460878 -0.026073549 0.049705755
0.01702563 0.0026227823 -0.04285024 -0.018920824 0.04291416 0.013567118 0.003160515 0.0032869596
0.031861346 -0.028629119 0.0040537 -0.008385428 0.0075627062 0.0009830635 -0.0005034766 -0.012335649
0.028325094 0.008593842 8.220051e-05 -0.006160126 0.033284616 -0.026126754 -0.038445618 -0.031161943
-0.02622069 0.056428943 -0.057038587 -0.029977465 -0.024466526 0.005176553 -0.06014723 0.031693537
0.031298425 0.014889595 -0.036009505 -0.015075316 0.034828052 0.011162902 0.029724512 -0.004815412
-0.052896615 -0.024755128 0.028505761 0.013710019 0.0090625165 -0.0080412645 0.03889165 -0.03518936
-0.010703185 -0.025783794 0.03249879 -0.043850657 0.009215157 -0.05006303 -0.020333003 0.007936612
-0.061573107 0.05841543 0.017998673 -0.04509158 0.039457425 0.001710378 0.03257005 0.03683736
-0.018209063 0.011223082 -0.019707255 -0.03420545 -0.0061910893 -0.0043805214 -0.043701425 0.031115973
0.0555389 -0.068602204 -0.013305776 -0.006473551 -0.009485949 0.010470949 -0.015602287 -0.064121135
-0.007381304 0.021696962 0.0039055636 -0.06570921 0.0057681785 -0.008241633 -0.025940325 -0.03368935
0.00060879986 -0.047326103 -0.057115674 -0.007743208 0.013200655 -0.039944198 -0.027771316 -0.050983023
0.011342776 -0.044168003 0.032282177 -0.014317853 -0.024260415 0.0080758985 -0.0015113964 -0.009201933
0.029392837 0.020442914 -0.04363489 0.019881992 0.0076535787 0.05238067 0.038820367 -0.031152619
0.030669356 0.016473264 -0.013070122 0.00092519197 -0.025745513 0.0049816733 0.008047881 0.011958245
-0.014485143 -0.011568276 0.0096348245 -0.059752055 0.056840554 -0.026593108 -0.015444119 0.020098835
0.031936035 -0.017163353 0.06670727 0.044644877 0.009632925 -0.067260385 0.01803418 0.026479552
-0.017523604 0.03469311 0.011168066 -0.0014461066 -0.045314588 -0.024437886 -0.005777041 0.050911583
-0.012780695 -0.023211677 -0.032077268 -0.021111265 0.017595295 -0.004224814 0.06693652 0.062764384
0.013529144 -0.042483367 0.00748883 0.02559825 -0.0046795118 0.021295045 0.006287949 0.051540457
-0.01768007 0.04766694 -0.0008623968 -0.03320988 0.0029964151 0.03338519 0.025587134 -0.0026967782
0.043362316 -0.02862384 -0.05527614 -0.007388115 0.027037513 -0.022143837 0.004904463 0.009647032
-0.037607346 0.023601238 -0.0073993253 -0.023161598 0.03869958 -0.056373674 0.002372818 -0.0025263142
0.0043060384 -0.020680875 -0.039573077 0.015165782 0.012673682 -0.0040423665 0.013909627 -0.0047590504

recurrent.conv_x_h.bias f4 [32]
00000000: d8bf 9fbc 4d41 77bc 81a5 293d 2d29 d3bc
00000010: 41e7 343d a31f 933a 3f9d 503d c924 afbc
00000020: 1ccc 4bbd ce51 283d 517f 3a3d c2bd 9bbc
00000030: f2f7 e5bc 1e3e 4dbd bb09 eabc a20c 4d3d
00000040: 7eb9 cebc 42ce 07bd 4efd 2a3d 0da4 583d
00000050: 1335 04bd 60a8 453d d6a0 2a3d 17d3 113d
00000060: e47f 5a3d b4de 2f3d be28 493d eb60 463d
00000070: ca78 74bd 2156 243d 8577 283d c2a2 323c
-0.019500658 -0.0150912525 0.041417602 -0.02577647 0.044165853 0.0011224638 0.05093121 -0.021379845
-0.0497552 0.04109364 0.045531575 -0.019011382 -0.028072331 -0.050108068 -0.028569093 0.050060876
-0.025234934 -0.033155687 0.041745476 0.052890826 -0.032277178 0.048256278 0.04165729 0.0356017
0.053344622 0.042936996 0.04911112 0.048432272 -0.059685506 0.0401212 0.041129608 0.010903062

linear.weight f4 [1, 32]
00000000: 9b37 0ebe 3b22 30be 96a0 1c3e 6d79 22be
00000010: c4bf 503e eb31 bc3c 2462 8e3d 4412 41bd
00000020: c92f b5bb c846 e83d 14f7 013d 55cb 29be
00000030: b9fd 22bd 34c9 393b da82 01be edae 023d
00000040: 05c6 03be a804 bfbd 3e90 323e 9338 a93d
00000050: 34c1 a0bd d687 393e 0d22 263e a404 1a3d
00000060: b5c3 983d c8cc 113e 27f9 043e a4be 4f3e
00000070: 5776 47bc 47e3 9c3d ed6b c53d bddc 423d
-0.138884 -0.17200558 0.15295634 -0.15866633 0.20385653 0.022973021 0.069523126 -0.04713656
-0.005529378 0.113416255 0.031729773 -0.16581471 -0.03979275 0.0028348686 -0.12647572 0.031905103
-0.12868507 -0.0932706 0.17437837 0.08262744 -0.078493506 0.18118224 0.16223927 0.037602082
0.07459203 0.14238274 0.12985669 0.20287567 -0.0121742105 0.07660537 0.09639726 0.047573794
