dcrnn_best_model.pth (torch, 158066 bytes, 19 tensors)

recurrent.conv_x_z.V.weight f4 [64, 128]
-0.07780367 0.07525013 -0.03127196 -0.04868153 -0.07809974 0.02259826 0.07080073 0.070514806
0.074580684 -0.016483536 -0.05884365 -0.012363873 0.014757461 0.06857366 -0.029946186 0.058562238
-0.067527644 -0.07004514 -0.0021006507 -0.03180138 0.022526687 0.027722586 -0.0029714685 0.0068995426
-0.08870673 -0.021999024 0.006634528 -0.055438302 -0.023846503 0.052053284 0.04650207 -0.08655309
0.06286548 -0.015504069 0.0522178 -0.008228547 -0.09178572 0.05848263 -0.080834076 0.02263647
0.05688669 -0.090626925 -0.009370398 -0.010069731 -0.07162383 -0.05273759 0.025956115 0.066279024
0.053970754 -0.037334315 0.03378545 -0.09317853 0.038841788 -0.055582218 -0.10715825 0.06848756
-0.08125227 -0.004296496 0.029685998 0.04945664 -0.07670781 -0.036421064 -0.017029366 -0.009534793
-0.08523331 -0.027644655 0.059196975 -0.014458876 0.060217362 -0.03781799 0.061667718 -0.067816965
0.057525873 -0.04775752 0.015615259 0.08674035 0.04173111 0.0761101 -0.019758526 -0.07065123
-0.015561922 0.047990434 0.017741684 -0.01288053 0.07002695 -0.022342402 -0.032508697 -0.039833933
-0.047937255 0.07871277 -0.06774854 0.008331673 0.069906145 0.038182177 0.084320985 -0.021929573
0.045049142 0.04007177 -0.081768416 0.0047083297 0.0579828 -0.075816765 -0.022717457 0.03653367
-0.023121761 -0.086030185 0.051570408 -0.013678454 -0.06303342 -0.07035063 0.039686758 -0.021217724
-0.05299671 -0.085217744 -0.00090391294 -0.01685186 -0.046829425 0.07540318 -0.050681762 -0.044944186
0.010424728 0.03534285 0.0683402 0.02266805 -0.0355311 0.03736513 0.014645598 0.056139074
0.027118962 0.0064045824 0.022739843 -0.012151766 -0.07888579 0.04571996 -0.012341234 -0.08039969
0.04847843 -0.082721926 -0.015106263 0.010097741 0.05121803 0.012426077 0.05260056 -0.014097336
0.07407158 -0.08526489 -0.083795704 0.0032224213 0.06758219 0.038879134 0.051848695 0.08573896
-0.05326849 -0.04073008 -0.020625051 -0.01775607 -0.00868355 -0.061761558 0.045012154 -0.05305118
-0.095882155 -0.028015358 -0.05420669 0.004781406 -0.07541239 -0.066097654 0.03376975 -0.06222708
0.022920331 -0.08865434 -0.09094656 0.018735908 -0.08875421 -0.003102235 -0.041644238 0.045837536
0.045324825 -0.023069864 -0.050522137 0.04070695 -0.06921928 0.061365306 0.04016042 -0.0012035011
0.08286304 -0.007307704 -0.042196885 -0.0044389577 -0.029795181 0.06769241 -0.049159195 0.06481948
0.067710765 0.0869641 -0.026400363 -0.0653221 -0.031135963 0.0464761 0.031189058 0.05916089
0.019926924 0.05921296 0.049810145 -0.08751104 0.07916219 0.0754018 -0.009563257 -0.019664856
0.0139493 -0.07688117 -0.039065577 -0.013961259 0.027007068 0.06360385 -0.049994044 -0.03231714
-0.026431384 0.024741149 0.070645355 -0.036948066 0.047183584 0.07357203 -0.012373977 0.045340355
0.005541657 -0.07075264 0.07419175 0.03856743 -0.08816009 -0.00902933 0.00044669336 0.060579192
-0.0071241767 0.0840627 -0.05599779 -0.024780702 -0.07046654 -0.077892095 -0.021652997 -0.03449119
-0.03310895 0.028030382 0.01505183 0.056699302 0.06099941 -0.07925333 -0.036914054 -0.04776693
0.0024782557 -0.04438824 -0.0056597 0.078702144 -0.005007762 -0.08677549 0.032568965 -0.029335987
00000000: 8857 9fbd bd1c 9a3d 0717 00bd 4966 47bd
00000010: c2f2 9fbd fc1f b93c f9ff 903d 116a 903d
00000020: c2bd 983d 7b08 87bc 0a06 71bd d891 4abc
00000030: 47c9 713c 5970 8c3d b451 f5bc f5de 6f3d
00000040: ef4b 8abd d473 8fbd 12ab 09bb 2a42 02bd
00000050: e389 b83c 7a1a e33c f8bc 42bb 8f15 e23b
00000060: e0ab b5bd 4c37 b4bc 7466 d93b 4613 63bd
00000070: be59 c3bc d335 553d f478 3e3d bf42 b1bd
00000080: 9ebf 803d c704 7ebc 55e2 553d 07d1 06bc
00000090: 27fa bbbd 7b8b 6f3d 568c a5bd 1e70 b93c
000000a0: 0502 693d 9c9a b9bd 4c86 19bc 83fb 24bc
000000b0: 84af 92bd 5f03 58bd eba1 d43c 4cbd 873d
000000c0: 7010 5d3d deeb 18bd 9d62 0a3d 63d4 bebd
000000d0: 9118 1f3d 2eaa 63bd c975 dbbd 3543 8c3d
000000e0: 9767 a6bd 9fc9 8cbb 0d30 f33c 0c93 4a3d
000000f0: fc18 9dbd 412e 15bd 2b81 8bbc d237 1cbc
00000100: cd8e aebd 0b77 e2bc 8778 723d ece4 6cbc
00000110: 7ba6 763d 09e7 1abd 4a97 7c3d 9fe3 8abd
00000120: 40a0 6b3d 649d 43bd 25d7 7f3c eda4 b13d
00000130: 3eee 2a3d 9ddf 9b3d a2dc a1bc 98b1 90bd
00000140: 6ff7 7ebc 9e91 443d 0257 913c dc08 53bc
00000150: 4a6a 8f3d 6a07 b7bc d727 05bd e828 23bd
00000160: db59 44bd 2934 a13d bfbf 8abd 9281 083c
00000170: f42a 8f3d ea64 1c3d 7bb0 ac3d a6a5 b3bc
00000180: 7385 383d 4c22 243d 3376 a7bd 5548 9a3b
00000190: 5f7f 6d3d d245 9bbd f619 babc 54a4 153d
000001a0: d969 bdbc 9830 b0bd 7e3b 533d 981b 60bc
000001b0: aa17 81bd fe13 90bd 958e 223d cbd0 adbc
000001c0: 1413 59bd a486 aebd 92f4 6cba e90c 8abc
000001d0: 36d0 3fbd fc6c 9a3d ae97 4fbd 6517 38bd
000001e0: 7acc 2a3c aac3 103d f2f5 8b3d 59b2 b93c
000001f0: 0f89 11bd 2e0c 193d 17f4 6f3c 16f2 653d
00000200: 9628 de3c 88dd d13b e848 ba3c 3318 47bc
00000210: e08e a1bd da44 3b3d e332 4abc 98a8 a4bd
00000220: 5191 463d 1d6a a9bd 4280 77bc ff70 253c
00000230: ffc9 513d bf96 4b3c af73 573d 83f8 66bc
00000240: d7b2 973d 5c9f aebd 159d abbd 422f 533b
00000250: 8868 8a3d ba3f 1f3d 4c5f 543d e897 af3d
00000260: 0f30 5abd 96d4 26bd def5 a8bc 2d75 91bc
00000270: 7345 0ebc b0f9 7cbd aa5e 383d 324c 59bd
00000280: dd5d c4bd 7780 e5bc d607 5ebd 57ad 9c3b
00000290: d071 9abd 355e 87bd 2652 0a3d d3e1 7ebd
000002a0: 6bc3 bb3c 6890 b5bd 3142 babd 0c7c 993c
000002b0: c4c4 b5bd de4e 4bbb 2693 2abd 24c0 3b3d
000002c0: 86a6 393d 03fd bcbc 4df0 4ebd 55bc 263d
000002d0: d6c2 8dbd 305a 7b3d 417f 243d ccbe 9dba
000002e0: 19b4 a93d 7775 efbb a4d6 2cbd ad74 91bb
000002f0: 0615 f4bc 51a2 8a3d 275b 49bd 13c0 843d
00000300: f1ab 8a3d 3c1a b23d 9345 d8bc 98c7 85bd
00000310: d910 ffbc b95d 3e3d 3280 ff3c b052 723d
00000320: ca3d a33c 4a89 723d b905 4c3d fd38 b3bd
00000330: c91f a23d 426c 9a3d 35af 1cbc 3118 a1bc
00000340: 9b8b 643c e073 9dbd 3a03 20bd c4bd 64bc
00000350: ed3d dd3c bc42 823d 8ec6 4cbd fa5e 04bd
00000360: a186 d8bc f3ad ca3c 83ae 903d db56 17bd
00000370: 9343 413d efac 963d 39bc 4abc cfb6 393d
00000380: ca96 b53b c3e6 90bd d8f1 973d e2f8 1d3d
00000390: 478d b4bd c1ef 13bc 2b32 ea39 e321 783d
000003a0: ed71 e9bb 1129 ac3d f05d 65bd e600 cbbc
000003b0: c350 90bd e485 9fbd a061 b1bc a246 0dbd
000003c0: 409d 07bd f99f e53c f39b 763c 873d 683d
000003d0: 84da 793d 924f a2bd 3133 17bd 42a7 43bd
000003e0: 3b6a 223b 71d0 35bd 0175 b9bb 972e a13d
000003f0: 2718 a4bb 59b7 b1bd 0967 053d 0652 f0bc

recurrent.conv_x_z.V.bias f4 [64]
0.04593469 0.072034724 -0.007614869 -0.10077656 0.013814064 -0.055146612 0.03527887 0.07429816
0.02564112 0.07893342 0.05151721 0.0797249 -0.04078695 0.03451728 0.013449713 0.058229834
0.0104643 0.10629736 -0.09006209 0.060130566 -0.09629998 0.027789412 -0.08692308 0.034872517
0.035314776 -0.070757 -0.16418388 -0.04169005 0.087144636 -0.032265883 -0.020328768 0.059889954
0.04256385 0.03011959 0.07164731 0.015223176 -0.04971671 -0.13690297 -0.07516836 0.016949551
-0.04395085 0.050021715 0.04001497 0.016843919 0.016367232 -0.046036296 -0.07762113 0.03178681
0.047266565 -0.059906695 -0.10932191 -0.0034860007 0.0077306037 -0.03531295 -0.039619654 -0.07204985
-0.018837709 0.04604585 -0.0038173401 0.19630504 0.04157427 0.04349588 0.0483931 -0.05278834
00000000: 0326 3c3d f186 933d 2786 f9bb f163 cebd
00000010: 6254 623c 6ae1 61bd 9480 103d a229 983d
00000020: 530d d23c d8a7 a13d b603 533d cf46 a33d
00000030: 3810 27bd fe61 0d3d 2f5c 5c3c 6882 6e3d
00000040: 7572 2b3c 6eb2 d93d 7972 b8bd 784b 763d
00000050: ed38 c5bd 9fa6 e33c ba04 b2bd 7cd6 0e3d
00000060: 3aa6 103d 0ce9 90bd d21f 28be 30c3 2abd
00000070: e378 b23d 3b29 04bd 8488 a6bc 2b4f 753d
00000080: 6e57 2e3d 5cbd f63c d3bb 923d a16a 793c
00000090: c0a3 4bbd 4b30 0cbe def1 99bd c9d9 8a3c
000000a0: ce05 34bd 92e3 4c3d bde6 233d 42fc 893c
000000b0: 9314 863c 8e90 3cbd d4f7 9ebd e332 023d
000000c0: 969a 413d b960 75bd 2ae4 dfbd 6375 64bb
000000d0: 0151 fd3b 50a4 10bd 3848 22bd df8e 93bd
000000e0: 8a51 9abc 939a 3c3d 572c 7abb 3004 493e
000000f0: c849 2a3d bc28 323d d837 463d 9638 58bd

recurrent.conv_x_z.ln.weight f4 [64]
0.9522094 0.9576941 0.9852443 1.0033921 0.96015614 0.98769736 1.0223845 0.9452652
0.96319216 0.9686412 0.9603496 0.96301776 1.0271028 0.96348494 0.9581219 0.97226757
0.9733174 1.0605432 0.97742754 0.96992666 0.9724525 0.97811306 1.0194559 1.0038991
0.95742774 0.959587 1.0680653 1.0248381 1.0152639 0.96544725 0.9461785 0.95987105
1.0186912 0.95068616 0.97278386 0.9303024 0.966444 1.0646528 0.9861015 0.93787795
0.96824014 0.9587679 0.9521556 0.99926955 0.94802475 0.97113764 0.99651116 0.93330693
0.95344865 0.9674625 1.0164872 0.9672959 0.9159629 0.9062879 0.9992485 0.9358463
1.0011578 0.95978695 0.933395 0.9943935 1.0165443 0.9540287 0.96677923 0.98295283
00000000: ffc3 733f 712b 753f f838 7c3f 276f 803f
00000010: cbcc 753f bcd9 7c3f 7fdd 823f e6fc 713f
00000020: c393 763f dff8 773f 79d9 753f 5588 763f
00000030: 1b78 833f f3a6 763f 7a47 753f 87e6 783f
00000040: 542b 793f e1bf 873f b138 7a3f 1d4d 783f
00000050: a6f2 783f 9e65 7a3f 887d 823f c47f 803f
00000060: fc19 753f 7ea7 753f 5db6 883f e52d 833f
00000070: 2bf4 813f 8d27 773f c138 723f 1cba 753f
00000080: 7964 823f 2b60 733f 5d08 793f 4c28 6e3f
00000090: e068 773f 8b46 883f 2671 7c3f c518 703f
000000a0: 96de 773f d071 753f 78c0 733f 21d0 7f3f
000000b0: c0b1 723f 7a9c 783f 5b1b 7f3f 34ed 6e3f
000000c0: 3615 743f 9fab 773f 411c 823f b4a0 773f
000000d0: 8b7c 6a3f 7c02 683f c0ce 7f3f a093 6f3f
000000e0: f025 803f 99b4 753f faf2 6e3f 9390 7e3f
000000f0: 201e 823f 3a3b 743f d87e 773f cca2 7b3f

recurrent.conv_x_z.ln.bias f4 [64]
-0.04902707 0.022525027 0.028447099 0.0021071304 -0.01252415 0.03492109 0.028459955 -0.06038109
0.040996786 0.043009903 0.06454538 0.013987879 -0.03377712 -0.026921278 0.025890823 0.020085895
0.009930571 -0.024140107 -0.03499417 -0.043447215 -0.015121364 0.059554216 -0.014803185 0.017977234
0.012531622 -0.00933258 -0.079953484 -0.066909306 0.01631012 -0.008266666 -0.04757395 0.023314405
-0.0018656583 -0.06808356 0.018245865 -0.00067433 0.0003968067 -0.10752883 -0.04375577 0.010290153
-0.019447528 -0.0021062065 0.10675044 0.01569709 -0.033574525 -0.07178101 -0.027947875 0.016209876
0.0036826911 0.0273781 -0.01962436 -0.01967274 0.08436267 -0.09669568 0.021687925 0.001949957
0.013256219 -0.001954753 -0.03775213 0.07511041 -0.009994266 -0.03805721 -0.020784132 0.0179015
00000000: 9cd0 48bd 6886 b83c e409 e93c c817 0a3b
00000010: 1832 4dbc 6b09 0f3d da24 e93c 2952 77bd
00000020: 3fec 273d 272b 303d 5e30 843d 6b2d 653c
00000030: e159 0abd 038a dcbc fe18 d43c 2d8b a43c
00000040: d5b3 223c 79c1 c5bc 0c56 0fbd b5f5 31bd
00000050: 99bf 77bc 1fef 733d 0f89 72bc fe44 933c
00000060: 6f51 4d3c ade7 18bc a7be a3bd bf07 89bd
00000070: cd9c 853c e970 07bc e7dc 42bd dafd be3c
00000080: 1b89 f4ba 656f 8bbd 5a78 953c 85c5 30ba
00000090: 7e0a d039 1338 dcbd 4039 33bd 0898 283c
000000a0: 6c50 9fbc 4808 0abb fa9f da3d 2f97 803c
000000b0: 7185 09bd ec01 93bd f1f2 e4bc 93ca 843c
000000c0: 4e59 713b 0a48 e03c 44c3 a0bc ba28 a1bc
000000d0: 56c6 ac3d 6208 c6bd e0aa b13c b395 ff3a
000000e0: 9d30 593c 501b 00bb faa1 1abd 7dd3 993d
000000f0: fdbe 23bc e1e1 1bbd 7c43 aabc 2ba6 923c

recurrent.conv_x_z.ffn.weight f4 [64, 64]
0.010080566 0.10803638 -0.005487025 -0.099839844 -0.078596264 0.083377354 0.11769591 0.028741425
-0.023208959 -0.0990556 0.047261063 0.122566305 0.030828828 0.11150121 0.092433676 -0.008285094
0.0068382355 -0.008354617 -0.016128588 -0.069215424 -0.0011282767 -0.10538642 0.0762922 0.024120927
-0.07646199 -0.016531296 0.027575726 0.055655725 -0.031427853 0.057982873 -0.11290435 0.05367985
-0.13392214 -0.07224067 0.033885468 0.015219821 -0.027912052 -0.0095862765 -0.122435436 -0.10290338
-0.112237655 0.062768795 0.05608076 -0.12965721 -0.07965327 -0.020229416 0.067413576 0.02305211
-0.034573022 -0.11052936 -0.1207115 -0.06232443 -0.14783408 0.02213605 -0.16470404 -0.03790563
-0.014182476 0.089247316 0.12611017 0.019951008 0.011031444 0.103154115 0.032603256 -0.03893193
-0.059771784 -0.17543177 -0.0081506055 -0.06487367 0.08788969 -0.054437906 0.014486896 -0.07265873
0.10053549 0.124796994 -0.02399325 0.18112838 -0.107406616 -0.13953069 0.0738166 0.09048128
-0.004779359 0.06689205 -0.023346514 -0.09491891 -0.15961453 0.09097176 -0.08338971 0.050846063
0.04295689 0.018567802 -0.033818454 0.059329648 0.11883638 0.060384147 0.032579247 0.103474684
0.16110215 0.11377868 -0.02173453 0.00963286 0.010285861 -0.04808529 0.12593468 -0.0334291
0.112492785 0.034584895 -0.020610563 0.050936833 0.013535284 0.07412787 -0.17632402 -0.1003135
0.016737817 0.0005932072 -0.0659854 0.02728038 0.19920404 -0.089911886 -0.011039506 0.024105478
-0.07298318 -0.08320541 -0.0018618357 0.07198517 0.12760852 0.07277886 0.012615776 -0.094643064
-0.091631934 -0.089736015 -0.0676291 -0.08864207 0.0548773 -0.075045675 0.03139243 0.036174897
0.14055128 0.118419245 0.020863773 0.14498568 0.065377556 -0.07104295 -0.0635307 0.041344825
0.0025954077 0.010218724 0.07656557 -0.1026702 -0.14578392 -0.12596808 -0.08051907 0.04206777
0.091861814 -0.0047433404 -0.08448489 -0.13329414 0.08659558 0.07590958 -0.062268306 -0.0528656
-0.012981959 -0.104441874 0.10896865 -0.06265466 0.009771145 -0.15856099 -0.04687705 0.037565622
-0.032928176 -0.054407056 -0.0046983506 -0.082345486 -0.0436434 -0.10409122 -0.093927674 -0.09716833
0.08128855 -0.00011858162 0.017703295 0.024436878 0.06808664 -0.077575564 -0.12934072 0.05713896
0.097270824 0.032248575 -0.115633115 0.07557328 -0.00822751 -0.05972115 0.08369468 -0.08929704
0.050451513 0.066692516 -0.15188125 -0.06271725 0.047509443 -0.061937563 0.025050549 0.15116596
0.10012838 -0.05123514 -0.09455772 0.032210674 -0.095477924 -0.1309974 -0.031789634 0.05503085
-0.026098058 0.092546664 -0.03979394 -0.10422309 -0.035725765 -0.12897535 -0.059314195 0.059375137
-0.020213252 -0.05239783 0.06703251 0.04078674 -0.1356952 0.10023362 0.066982746 0.054253936
-0.07758935 0.019083325 -0.04389697 -0.076571256 0.07550377 0.096141174 -0.07008646 -0.049124077
0.03429802 0.019715808 -0.04567874 0.14251572 -0.038231973 0.020425968 0.15762925 0.04109469
0.04877645 -0.031139782 -0.074353844 0.054453216 0.026068788 -0.069283 -0.002715273 0.10068125
-0.013286814 0.06420082 -0.031114848 0.008196901 0.1542949 0.018733867 -0.024742203 -0.1763874
00000000: f528 253c 2d42 dd3d 80cc b3bb d578 ccbd
00000010: 14f7 a0bd bfc1 aa3d 8e0a f13d 2373 eb3c
00000020: b720 bebc aadd cabd d194 413d 0b04 fb3d
00000030: bd8c fc3c bf5a e43d de4d bd3d 34be 07bc
00000040: 4713 e03b cee1 08bc 1a20 84bc d1c0 8dbd
00000050: afe2 93ba d6d4 d7bd 163f 9c3d 4099 c53c
00000060: 1b98 9cbd a46c 87bc 7de6 e13c 42f7 633d
00000070: 7eba 00bd 737f 6d3d 653a e7bd 67df 5b3d
00000080: e322 09be ebf2 93bd 7dcb 0a3d 8e5c 793c
00000090: d1a7 e4bc c20f 1dbc 6ebf fabd 02bf d2bd
000000a0: dbdc e5bd ed8c 803d f0b4 653d dcc4 04be
000000b0: 4121 a3bd 29b8 a5bc 2110 8a3d c7d7 bc3c
000000c0: 719c 0dbd 385d e2bd 9737 f7bd e747 7fbd
000000d0: d161 17be a956 b53c 2da8 28be ef42 1bbd
000000e0: 9e5d 68bc 4cc7 b63d 0623 013e 4c70 a33c
000000f0: 3bbd 343c 7742 d33d fe8a 053d 1677 1fbd
00000100: 42d3 74bd 63a4 33be 1e8a 05bc 7ddc 84bd
00000110: 83ff b33d 48fa 5ebd 725a 6d3c 1ace 94bd
00000120: 8de5 cd3d 9195 ff3d 7e8d c4bc b879 393e
00000130: 00f8 dbbd 22e1 0ebe 282d 973d 404e b93d
00000140: 2b9c 9cbb b3fe 883d 3041 bfbc d864 c2bd
00000150: fe71 23be 674f ba3d 39c8 aabd f643 503d
00000160: 90f3 2f3d 811b 983c 3885 0abd a503 733d
00000170: 7d60 f33d 5e55 773d d171 053d 89ea d33d
00000180: f6f7 243e cc04 e93d 9d0c b2bc 25d3 1d3c
00000190: 0786 283c 15f5 44bd 05f5 003e f4ec 08bd
000001a0: 9e62 e63d e4a8 0d3d 7cd7 a8bc 24a3 503d
000001b0: 19c3 5d3c 5ad0 973d 498e 34be 2a71 cdbd
000001c0: bf1d 893c 7681 1b3a 5a23 87bd 1a7b df3c
000001d0: 25fc 4b3e b923 b8bd 0bdf 34bc da78 c53c
000001e0: 3578 95bd 9967 aabd d708 f4ba f66c 933d
000001f0: cfab 023e 150d 953d 66b2 4e3c 39d4 c1bd
00000200: 86a9 bbbd 84c7 b7bd 2081 8abd f989 b5bd
00000210: 05c7 603d 8cb1 99bd 5995 003d 212c 143d
00000220: adec 0f3e ca85 f23d 81ea aa3c 2077 143e
00000230: abe4 853d f77e 91bd 621c 82bd 3159 293d
00000240: b717 2a3b 6f6c 273c 69ce 9c3d c144 d2bd
00000250: 6148 15be c7fd 00be 2fe7 a4bd 414f 2c3d
00000260: 0c22 bc3d 066e 9bbb 6a06 adbd 427e 08be
00000270: 0659 b13d 7b76 9b3d 0d0d 7fbd 9989 58bd
00000280: 48b2 54bc 9fe5 d5bd f52a df3d 1651 80bd
00000290: 2717 203c d05d 22be 2602 40bd 69de 193d
000002a0: b2df 06bd efd9 5ebd 9ff4 99bb c0a4 a8bd
000002b0: 6cc3 32bd c72d d5bd 275d c0bd 3000 c7bd
000002c0: 9c7a a63d 06af f8b8 8006 913c d92f c83c
000002d0: 0271 8b3d f0df 9ebd e571 04be 8b0a 6a3d
000002e0: ed35 c73d 1517 043d 0ed1 ecbd 2ac6 9a3d
000002f0: aecc 06bc 2a9e 74bd 1e68 ab3d 5ee1 b6bd
00000300: 3fa6 4e3d 1696 883d c286 1bbe e771 80bd
00000310: 4399 423d 3eb2 7dbd cf36 cd3c 40cb 1a3e
00000320: 1c10 cd3d f0db 51bd 7aa7 c1bd 57ef 033d
00000330: ee89 c3bd 2f24 06be d935 02bd 0768 613d
00000340: 98cb d5bc 1b89 bd3d f8fe 22bd ea72 d5bd
00000350: 2e55 12bd 1d12 04be 71f3 72bd 5833 733d
00000360: 4396 a5bc 1b9f 56bd 5748 893d ff0f 273d
00000370: aff3 0abe 4947 cd3d 402e 893d 6039 5e3d
00000380: 2ae7 9ebd a254 9c3c 4fcd 33bd 64d1 9cbd
00000390: b8a1 9a3d aae5 c43d 7d89 8fbd 5436 49bd
000003a0: 157c 0c3d 0c83 a13c a119 3bbd a4ef 113e
000003b0: 2199 1cbd 5c54 a73c 9069 213e e852 283d
000003c0: d1c9 473d db18 ffbc d446 98bd 560a 5f3d
000003d0: 368e d53c 3fe4 8dbd b9f2 31bb f931 ce3d
000003e0: f0b0 59bc b87b 833d 91e4 febc 4b4c 063c
000003f0: 7bff 1d3e c477 993c 29b0 cabc e69e 34be

recurrent.conv_x_z.ffn.bias f4 [64]
-0.05464539 0.25593388 -0.032654133 -0.11622768 0.053832352 0.081117935 0.09918461 -0.0027422982
0.067362875 0.112989396 0.15770087 -0.014682039 -0.06450142 0.06097622 -0.036366656 0.019481802
0.0072839824 0.018543022 0.08003111 -0.046928227 0.11182833 0.019728368 -0.042983443 0.028971031
-0.0013493967 -0.039242104 0.015655806 -0.090226546 0.14007954 0.07983586 0.10881221 0.08765794
0.07394513 -0.03683888 -0.008420071 0.109908976 0.0095719695 0.057082493 -0.105943546 0.12181903
0.09857601 -0.049729355 0.102165505 0.053462427 0.08511221 0.05251217 -0.044638615 -0.025356589
0.1081537 -0.027932853 0.11485076 -0.013907775 -0.044857424 0.09377132 -0.06817633 -0.055458777
0.029450305 0.21903239 0.09459044 -0.04778645 0.06967301 -0.066749044 0.030160947 0.036043838
00000000: d8d3 5fbd c409 833e 57c0 05bd c708 eebd
00000010: 507f 5c3d 2921 a63d 4d21 cb3d 21b8 33bb
00000020: 8cf5 893d fc66 e73d 567c 213e ef8c 70bc
00000030: 5219 84bd 33c2 793d 34f5 14bd 4d98 9f3c
00000040: 79ae ee3b 89e7 973c 5ae7 a33d d037 40bd
00000050: 4006 e53d 639d a13c 680f 30bd a854 ed3c
00000060: 3dde b0ba 54bc 20bd 9b40 803c b2c8 b8bd
00000070: 0371 0f3e fc80 a33d f0d8 de3d 0286 b33d
00000080: 8b70 973d 5ee4 16bd 56f4 09bc f517 e13d
00000090: c0d3 1c3c 55cf 693d eef8 d8bd 417c f93d
000000a0: 38e2 c93d 02b1 4bbd 263c d13d 6bfb 5a3d
000000b0: 4f4f ae3d 0017 573d fbd6 36bd 9fb8 cfbc
000000c0: b07f dd3d 70d3 e4bc e036 eb3d 70dd 63bc
000000d0: 6bbc 37bd 2e0b c03d 08a0 8bbd be28 63bd
000000e0: c441 f13c 074a 603e a2b8 c13d b9bb 43bd
000000f0: b9b0 8e3d b9b3 88bd 1714 f73c b4a2 133d

recurrent.conv_x_r.V.weight f4 [64, 128]
-0.059082504 0.028073393 0.067638084 0.057225704 0.038058825 -0.041165385 0.02778592 0.06852778
-0.034683853 0.007339705 0.01443793 0.053956352 0.006179402 0.055077586 -0.031930957 -0.04622918
0.02405368 -0.06800309 0.0745842 0.07694318 0.047941945 0.06351227 0.032755636 0.08395923
-0.010818885 0.007790729 -0.07915926 0.078748375 -0.026455102 0.017496295 0.0022016459 -0.0254546
-0.0025885014 -0.039871708 0.012665496 -0.08606142 -0.023996245 0.012478702 0.041215308 -0.003222295
-0.052134145 -0.0030583227 0.07735882 -0.02467072 0.015192706 -0.07119103 0.084369384 -0.056806806
0.007987797 0.02584176 0.06919809 -0.04177391 0.06070188 0.004505909 0.008728844 -0.017379053
0.00973864 0.012264975 -0.037919845 0.009644969 -0.06381729 -0.08503447 -0.05573048 0.024515547
-0.023257758 0.041532032 -0.0580321 0.04738295 0.07728031 -0.03426979 0.024246566 -0.021210581
-0.078901395 -0.087543294 0.05502783 -0.019893417 -0.021206755 0.07915069 -0.012100898 -0.07413258
-0.010999053 -0.00095026393 0.045404263 -0.049217455 0.08433876 -0.05599348 -0.07467665 -0.017710317
-0.0043736733 -0.02947919 -0.047186747 -0.08668632 0.02999253 -0.07554538 -0.07746665 0.05936358
-0.015456492 0.0638483 0.01675081 -0.076783665 -0.07258965 0.0252538 0.060757052 0.068750486
0.03811902 0.0792697 0.040206943 -0.003464355 0.057700887 0.06124414 0.06489485 -0.060340326
-0.061565176 0.021725941 0.07220947 -0.08234283 -0.0083556445 -0.04901887 -0.085848205 -0.080019645
-0.08659813 0.04954167 0.01679633 -0.05948442 0.024551697 0.07993353 0.014943555 0.004239762
-0.040135063 0.01432957 0.021282831 -0.0070337187 -0.04472108 0.048451744 0.03688236 0.06753684
-0.028391518 0.032336883 -0.04866059 0.08238321 0.011477082 0.02435797 0.0814644 -0.028661521
0.051341373 0.08354367 0.042582065 0.012199679 -0.06031761 -0.0018967135 0.020156687 0.019193474
0.06860401 0.0024899514 -0.071016304 -0.085249744 0.0845853 -0.05198684 0.059664037 0.045069933
-0.007228859 -0.0073923883 0.0878072 0.010484271 0.06582411 0.082082875 0.005600705 0.019982863
0.03644905 -0.058279503 0.077664554 0.010260218 -0.006673932 -0.036274698 -0.043488257 -0.009020047
0.069815874 0.05407904 -0.027655235 -0.021372298 0.06097606 -0.065818444 -0.02519057 0.042224355
0.07147939 0.07157364 -0.05604728 -0.06524308 0.013305075 -0.046436206 0.048264503 -0.06938919
-0.02505371 -0.021308625 0.061098747 0.055252653 0.018206395 0.074828796 0.056877993 0.048402704
-0.071194604 0.08202176 -0.06827671 -0.03742739 0.03194926 -0.055161584 -0.006470279 -0.001051585
0.025259975 -0.0073862984 -0.030411405 -0.03947699 -0.01688291 -0.082811095 -0.013087302 -0.0030577222
0.04140267 -0.045193814 0.05847579 0.07764789 0.078485206 0.07678871 -0.07676432 -0.07864487
-0.014270174 -0.053866114 0.009509235 0.07928879 0.035984777 0.07110028 -0.078441754 -0.07363941
0.0045587295 0.0048791612 0.033321794 -0.04382364 -0.050401896 -0.088318594 -0.008382987 -0.015616914
0.070592016 -0.07932516 0.044555277 -0.045415398 0.008603805 0.07348361 0.028473904 0.06610291
0.061427757 0.07407937 0.0058805496 0.008531902 -0.027762476 -0.063967355 -0.061549686 0.06491405
00000000: 7f00 72bd 2cfa e53c d685 8a3d 8065 6a3d
00000010: 92e3 1b3d 099d 28bd 4c9f e33c 4b58 8c3d
00000020: a810 0ebd e881 f03b 118d 6c3c 5601 5d3d
00000030: 957c ca3b 0999 613d 09ca 02bd cf5a 3dbd
00000040: 390c c53c 3445 8bbd 9abf 983d 6394 9d3d
00000050: c65e 443d b912 823d c62a 063d d1f2 ab3d
00000060: b141 31bc 5f49 ff3b 401e a2bd d446 a13d
00000070: 5fb8 d8bc 6454 8f3c 7d49 103b 2a86 d0bc
00000080: d9a3 29bb 8450 23bd f182 4f3c f840 b0bd
00000090: c693 c4bc 7873 4c3c 62d1 283d 242d 53bb
000000a0: 9d8a 55bd 246e 48bb 4d6e 9e3d 401a cabc
000000b0: d4ea 783c 9acc 91bd dbc9 ac3d 41ae 68bd
000000c0: 40df 023c 19b2 d33c bab7 8d3d 1f1b 2bbd
000000d0: 89a2 783d 4ea6 933b 6d03 0f3c 845e 8ebc
000000e0: d18e 1f3c 09f3 483c d751 1bbd ef05 1e3c
000000f0: a4b2 82bd 8d26 aebd a545 64bd d4d4 c83c
00000100: 0e87 bebc 7e1d 2a3d 11b3 6dbd a014 423d
00000110: 2445 9e3d 7b5e 0cbd bca0 c63c d0c1 adbc
00000120: 0e97 a1bd e649 b3bd dd64 613d 85f7 a2bc
00000130: cab9 adbc c219 a23d d842 46bc d2d2 97bd
00000140: 5f35 34bc 221b 79ba d2f9 393d 3e98 49bd
00000150: cdb9 ac3d 6b59 65bd 12f0 98bd 3a15 91bc
00000160: 0851 8fbb 587e f1bc e446 41bd 9988 b1bd
00000170: e5b2 f53c 89b7 9abd d6a6 9ebd 3a27 733d
00000180: 3a3d 7dbc e6c2 823d ff38 893c c140 9dbd
00000190: e2a9 94bd 0fe1 ce3c 63dc 783d 0ecd 8c3d
000001a0: b122 1c3d 2758 a23d 09b0 243d 3b0a 63bb
000001b0: c457 6c3d 23db 7a3d 97e7 843d 6b27 77bd
000001c0: c42b 7cbd 9afa b13c 8fe2 933d 5ca3 a8bd
000001d0: 1de6 08bc 03c8 48bd 2fd1 afbd 57e1 a3bd
000001e0: 5c5a b1bd 35ec 4a3d 7598 893c efa5 73bd
000001f0: a420 c93c 31b4 a33d d0d5 743c b4ed 8a3b
00000200: aa64 24bd 93c6 6a3c 5559 ae3c 1c7b e6bb
00000210: 742d 37bd 5675 463d f511 173d c150 8a3d
00000220: 5495 e8bc ae73 043d 5450 47bd 87b8 a83d
00000230: 5f0a 3c3c 5e8a c73c cfd6 a63d 91cb eabc
00000240: 554b 523d f218 ab3d 886a 2e3d 2ae1 473c
00000250: 990f 77bd 259b f8ba a31f a53c a23b 9d3c
00000260: 4280 8c3d 742e 233b ff70 91bd 6b97 aebd
00000270: 0f3b ad3d 27f0 54bd 4762 743d 409b 383d
00000280: 10e0 ecbb d93b f2bb 43d4 b33d 38c6 2b3c
00000290: cace 863d 111b a83d 1e86 b73b 1ab3 a33c
000002a0: 994b 153d 7db6 6ebd 980e 9f3d 791a 283c
000002b0: 00b1 dabb c794 14bd be20 32bd d2c8 13bc
000002c0: a0fb 8e3d fc81 5d3d 3b8d e2bc f514 afbc
000002d0: 08c2 793d d2cb 86bd 745c cebc 72f3 2c3d
000002e0: c963 923d 3395 923d d591 65bd 2a9e 85bd
000002f0: 87fd 593c e433 3ebd 00b1 453d eb1b 8ebd
00000300: 703d cdbc 6d8f aebc ae42 7a3d 9b50 623d
00000310: 9425 953c d73f 993d e6f8 683d ea41 463d
00000320: 7ace 91bd 06fb a73d a9d4 8bbd 774d 19bd
00000330: 3add 023d 1df1 61bd a204 d4bb 56d5 89ba
00000340: 02ee ce3c c308 f2bb 5721 f9bc a0b2 21bd
00000350: 074e 8abc dd98 a9bd 206c 56bc 1164 48bb
00000360: d995 293d 261d 39bd 4f84 6f3d db05 9f3d
00000370: dabc a03d 6643 9d3d 9d36 9dbd 9010 a1bd
00000380: 73cd 69bc b7a2 5cbd 9fcc 1b3c 2962 a23d
00000390: c664 133d 069d 913d 12a6 a0bd 42d0 96bd
000003a0: 6561 953b 5fe1 9f3b 6f7c 083d 6b80 33bd
000003b0: 3872 4ebd 61e0 b4bd cc58 09bc 16de 7fbc
000003c0: 8c92 903d 3b75 a2bd 987f 363d 7f05 3abd
000003d0: f9f6 0c3c 937e 963d 1b42 e93c f660 873d
000003e0: ac9b 7b3d edb6 973d a0b1 c03b 64c9 0b3c
000003f0: 226e e3bc 5101 83bd 861b 7cbd a8f1 843d

recurrent.conv_x_r.V.bias f4 [64]
0.023073407 -0.057362188 0.026729235 0.08778557 -0.058703035 0.024181344 -0.03138129 0.016726999
-0.039954126 0.059816565 -0.069211744 0.061537307 0.071328916 0.03033846 -0.07248554 0.081339
-0.029770553 0.0413801 -0.07028431 -0.04897329 -0.016621895 0.08072919 0.082191065 0.002891864
-0.04007999 -0.06432065 -0.016188415 -0.039127037 -0.032071844 -0.009535314 0.03393957 0.029130079
0.08289934 0.05959108 0.078463234 -0.06156075 0.031276796 -6.840433e-05 0.086196765 0.08484933
0.0708589 0.031444468 0.006389578 -0.024835957 -0.0795036 -0.06919091 0.08708155 -0.021469815
-0.041153215 -0.035564035 -0.056933563 -0.0469502 -0.002376977 0.024659226 -0.026037332 0.04224407
0.018096235 -0.05242638 -0.035783697 -0.0667934 -0.064511515 0.055969547 0.022991022 0.020285867
00000000: 7104 bd3c 9df4 6abd 45f7 da3c ecc8 b33d
00000010: 9872 70bd f417 c63c ab89 00bd 0f07 893c
00000020: f0a6 23bd 3702 753d e3be 8dbd 8b0e 7c3d
00000030: e514 923d 5d88 f83c 4c73 94bd 1095 a63d
00000040: 60e1 f3bc 2e7e 293d 38f1 8fbd 3798 48bd
00000050: a42a 88bc 5855 a53d ca53 a83d 6d85 3d3b
00000060: ea2a 24bd 8cba 83bd 919d 84bc ac43 20bd
00000070: c45d 03bd 013a 1cbc 3804 0b3d 34a2 ee3c
00000080: 21c7 a93d c715 743d 55b1 a03d 2027 7cbd
00000090: 191c 003d 4c74 8fb8 ee87 b03d 7cc5 ad3d
000000a0: 791e 913d eacb 003d aa5f d13b c774 cbbc
000000b0: c9d2 a2bd f7b3 8dbd d057 b23d 77e1 afbc
000000c0: 4690 28bd 98ab 11bd 2b33 69bd da4e 40bd
000000d0: 0ec7 1bbb 2502 ca3c 3e4c d5bc 1e08 2d3d
000000e0: 8e3e 943c 0bbd 56bd ed91 12bd faca 88bd
000000f0: 9d1e 84bd 5340 653d ab57 bc3c 8c2e a63c

recurrent.conv_x_r.ln.weight f4 [64]
1.0 1.0 1.0 1.0 1.0 1.0 1.0 1.0
1.0 1.0 1.0 1.0 1.0 1.0 1.0 1.0
1.0 1.0 1.0 1.0 1.0 1.0 1.0 1.0
1.0 1.0 1.0 1.0 1.0 1.0 1.0 1.0
1.0 1.0 1.0 1.0 1.0 1.0 1.0 1.0
1.0 1.0 1.0 1.0 1.0 1.0 1.0 1.0
1.0 1.0 1.0 1.0 1.0 1.0 1.0 1.0
1.0 1.0 1.0 1.0 1.0 1.0 1.0 1.0
00000000: 0000 803f 0000 803f 0000 803f 0000 803f
00000010: 0000 803f 0000 803f 0000 803f 0000 803f
00000020: 0000 803f 0000 803f 0000 803f 0000 803f
00000030: 0000 803f 0000 803f 0000 803f 0000 803f
00000040: 0000 803f 0000 803f 0000 803f 0000 803f
00000050: 0000 803f 0000 803f 0000 803f 0000 803f
00000060: 0000 803f 0000 803f 0000 803f 0000 803f
00000070: 0000 803f 0000 803f 0000 803f 0000 803f
00000080: 0000 803f 0000 803f 0000 803f 0000 803f
00000090: 0000 803f 0000 803f 0000 803f 0000 803f
000000a0: 0000 803f 0000 803f 0000 803f 0000 803f
000000b0: 0000 803f 0000 803f 0000 803f 0000 803f
000000c0: 0000 803f 0000 803f 0000 803f 0000 803f
000000d0: 0000 803f 0000 803f 0000 803f 0000 803f
000000e0: 0000 803f 0000 803f 0000 803f 0000 803f
000000f0: 0000 803f 0000 803f 0000 803f 0000 803f

recurrent.conv_x_r.ln.bias f4 [64]
0.0 0.0 0.0 0.0 0.0 0.0 0.0 0.0
0.0 0.0 0.0 0.0 0.0 0.0 0.0 0.0
0.0 0.0 0.0 0.0 0.0 0.0 0.0 0.0
0.0 0.0 0.0 0.0 0.0 0.0 0.0 0.0
0.0 0.0 0.0 0.0 0.0 0.0 0.0 0.0
0.0 0.0 0.0 0.0 0.0 0.0 0.0 0.0
0.0 0.0 0.0 0.0 0.0 0.0 0.0 0.0
0.0 0.0 0.0 0.0 0.0 0.0 0.0 0.0
00000000: 0000 0000 0000 0000 0000 0000 0000 0000
00000010: 0000 0000 0000 0000 0000 0000 0000 0000
00000020: 0000 0000 0000 0000 0000 0000 0000 0000
00000030: 0000 0000 0000 0000 0000 0000 0000 0000
00000040: 0000 0000 0000 0000 0000 0000 0000 0000
00000050: 0000 0000 0000 0000 0000 0000 0000 0000
00000060: 0000 0000 0000 0000 0000 0000 0000 0000
00000070: 0000 0000 0000 0000 0000 0000 0000 0000
00000080: 0000 0000 0000 0000 0000 0000 0000 0000
00000090: 0000 0000 0000 0000 0000 0000 0000 0000
000000a0: 0000 0000 0000 0000 0000 0000 0000 0000
000000b0: 0000 0000 0000 0000 0000 0000 0000 0000
000000c0: 0000 0000 0000 0000 0000 0000 0000 0000
000000d0: 0000 0000 0000 0000 0000 0000 0000 0000
000000e0: 0000 0000 0000 0000 0000 0000 0000 0000
000000f0: 0000 0000 0000 0000 0000 0000 0000 0000

recurrent.conv_x_r.ffn.weight f4 [64, 64]
0.030461118 -0.07909934 0.026044548 -0.06344551 -0.056137577 0.0146009475 0.010800749 0.0014791936
0.05331607 0.11270371 -0.06511669 -0.08294518 0.10663566 0.081726044 -0.039505765 -0.047057018
-0.022563651 -0.09431736 0.009305522 0.09933175 0.10855746 -0.09913494 -0.0728161 -0.06346193
0.043791234 0.013999537 0.07087475 -0.10912612 0.038196728 -0.124515 -0.015381262 -0.077631846
0.09271002 0.10405736 0.022925854 0.03754504 -0.0012568682 0.068007454 0.05446312 -0.051066265
0.09010582 -0.029659703 0.0024033487 -0.018882215 0.07451978 0.07297391 -0.047782704 0.044684872
-0.020879418 -0.08558157 0.06801434 -0.005774379 -0.00033907592 0.03516282 -0.044982985 0.037417993
0.030068621 0.1180549 -0.045095593 0.021822527 -0.06950711 -0.10163309 0.075512454 0.1155889
-0.07881302 -0.04018782 -0.0733196 0.10005216 0.06983602 0.020227328 0.086250335 0.087641984
-0.08502197 -0.00031776726 0.10380155 -0.12011951 -0.07002309 0.031081557 -0.018975958 -0.07632004
-0.06011857 0.05216199 -0.04751563 -0.10249071 -0.086953595 -0.016092151 0.03163074 -0.08576132
0.10578403 -0.034294575 -0.061654225 -0.05597344 0.09634325 -0.10538581 0.05745606 -0.024853855
0.0116793215 -0.062567115 0.007583812 0.066398695 -0.08792107 0.062575564 -0.095056415 0.006251827
-0.027098894 -0.032131344 -0.032415003 -0.02694264 -0.07537699 0.07857382 -0.0755859 -0.053091556
0.124038786 0.07953857 0.034700125 -0.017330214 -0.027664527 -0.07596481 0.0399331 0.013761982
-0.103101596 0.0022668391 -0.10159466 0.101612374 -0.023598552 -0.039591327 0.036791757 0.005600199
-0.06797987 -0.04155521 -0.119139835 -0.07700142 0.07429646 -0.079534665 -0.034054726 -0.10312569
0.030827165 -0.10191949 0.00049071014 -0.086049005 0.068339646 -0.122483075 0.057948917 0.10824622
-0.03455235 -0.057860643 -0.09444864 0.0790427 0.10733345 0.08110896 0.1232463 -0.058153197
-0.10377985 0.06356396 0.09949812 -0.06426819 0.080225855 -0.076366305 -0.03881654 -0.08954847
0.07289688 0.0076506734 -0.040502116 -0.02825211 -0.018349394 -0.046656862 0.040486827 0.06675775
-0.12332852 -0.12437846 0.12276283 -0.0620517 -0.013084561 0.090304 -0.09862855 -0.004378155
0.073782116 -0.033520058 -0.005257368 -0.10890229 -0.04687102 -0.007858083 0.03154677 -0.056585252
-0.016094938 0.01985009 0.0044739097 0.11284126 0.04051198 0.069576114 -0.0015280545 -0.11777468
0.047272652 0.010683328 0.02453357 0.009982735 0.1199401 0.083351806 0.011243075 0.034250543
-0.026353091 0.025089577 0.026717678 0.08761585 0.11342266 0.10415703 -0.021134913 0.09753165
-0.0797489 0.10106553 0.122243375 0.112122014 0.10556419 0.089100435 0.03112474 -0.110973015
0.09593849 -0.0105253905 0.1192618 -0.08225341 -0.045475245 -0.013053775 0.09538053 -0.06600842
-0.023223966 -0.05219318 -0.04811038 0.061579093 -0.10702127 0.12406589 0.08305864 0.040596813
-0.023474261 -0.056847587 -0.0043067336 0.05576226 0.0050121397 0.05138503 0.051126376 0.05458717
-0.031176567 -0.10951905 -0.037368506 -0.123025894 -0.029161558 -0.067145005 0.08265744 0.10530381
-0.07373941 -0.12462951 0.02570264 -0.040871054 0.09277469 0.056016922 0.09515187 0.05424893
00000000: 9889 f93c d6fe a1bd 605b d53c b8ef 81bd
00000010: 84f0 65bd d038 6f3c a0f5 303c 80e1 c13a
00000020: f461 5a3d 34d1 e63d e65b 85bd 2adf a9bd
00000030: cc63 da3d fc5f a73d ccd0 21bd dcbe 40bd
00000040: 68d7 b8bc 7629 c1bd 3076 183c 726e cb3d
00000050: 6053 de3d 4207 cbbd 9c20 95bd 54f8 81bd
00000060: 705e 333d 505e 653c c826 913d 847d dfbd
00000070: 2c74 1c3d b801 ffbd b001 7cbc 72fd 9ebd
00000080: c0de bd3d 061c d53d 00cf bb3c d4c8 193d
00000090: 80bd a4ba 7e47 8b3d b814 5f3d dc2a 51bd
000000a0: 6689 b83d e8f8 f2bc 8081 1d3b e0ae 9abc
000000b0: d49d 983d 5873 953d ccb7 43bd 7c07 373d
000000c0: 500b abbc 6445 afbd 1a4b 8b3d 0037 bdbb
000000d0: 00c6 b1b9 e406 103d 1440 38bd 9c43 193d
000000e0: 7852 f63c c4c6 f13d 28b6 38bd 28c5 b23c
000000f0: be59 8ebd 0225 d0bd 46a6 9a3d e0b9 ec3d
00000100: b868 a1bd fc9b 24bd 9628 96bd 26e8 cc3d
00000110: 3006 8f3d c8b3 a53c 04a4 b03d a47d b33d
00000120: 0020 aebd 009a a6b9 e895 d43d 3801 f6bd
00000130: 4468 8fbd c09e fe3c 7873 9bbc ae4d 9cbd
00000140: e43e 76bd d0a7 553d c09f 42bd a6e6 d1bd
00000150: ba14 b2bd b0d3 83bc 3c8f 013d a2a3 afbd
00000160: 4ca5 d83d 7878 0cbd 2489 7cbd 6844 65bd
00000170: 9c4f c53d 84d4 d7bd 0c57 6b3d 509a cbbc
00000180: a05a 3f3c 3023 80bd a081 f83b 0afc 873d
00000190: f60f b4bd 9e27 803d f0ac c2bd 20dc cc3b
000001a0: 80fe ddbc 289c 03bd 98c5 04bd d0b6 dcbc
000001b0: 405f 9abd 50eb a03d c8cc 9abd 8876 59bd
000001c0: 0c08 fe3d 1ee5 a23d b821 0e3d 18f8 8dbc
000001d0: b8a0 e2bc 7093 9bbd e490 233d f079 613c
000001e0: ee26 d3bd 408f 143b dc10 d0bd 261a d03d
000001f0: c051 c1bc 842a 22bd f4b2 163d e081 b73b
00000200: 0839 8bbd cc35 2abd 96ff f3bd ecb2 9dbd
00000210: be28 983d 12e3 a2bd f87c 0bbd 9033 d3bd
00000220: 4089 fc3c 2abb d0bd 00a3 003a 763a b0bd
00000230: a8f5 8b3d 68d8 fabd d85b 6d3d 32b0 dd3d
00000240: c486 0dbd 48ff 6cbd 4a6e c1bd 24e1 a13d
00000250: a4d1 db3d 741c a63d 8e68 fc3d 0c32 6ebd
00000260: 888a d4bd d22d 823d acc5 cb3d 0a9f 83bd
00000270: 744d a43d f065 9cbd 18fe 1ebd 3065 b7bd
00000280: f64a 953d 80b2 fa3b 8ce5 25bd f870 e7bc
00000290: 7851 96bc 441b 3fbd 84d5 253d 4ab8 883d
000002a0: aa93 fcbd 22ba febd 146b fb3d ec29 7ebd
000002b0: a060 56bc 4ef1 b83d c4fd c9bd a076 8fbb
000002c0: 141b 973d 544c 09bd 0046 acbb 2a08 dfbd
000002d0: d4fb 3fbd 30bf 00bc 3037 013d f0c5 67bd
000002e0: 88d9 83bc a89c a23c e099 923b 5219 e73d
000002f0: e4ef 253d ec7d 8e3d 0049 c8ba da33 f1bd
00000300: f8a0 413d 2009 2f3c a0fa c83c a08e 233c
00000310: 28a3 f53d 5ab4 aa3d e034 383c 4c4a 0c3d
00000320: 70e2 d7bc a888 cd3c 08df da3c f06f b33d
00000330: 244a e83d 4850 d53d 2023 adbc acbe c73d
00000340: 6453 a3bd 72fb ce3d bc5a fa3d 3aa0 e53d
00000350: 0a32 d83d 4a7a b63d 50f9 fe3c d245 e3bd
00000360: 667b c43d b072 2cbc 883f f43d 7a74 a8bd
00000370: 4044 3abd 80df 55bc de56 c33d 6c2f 87bd
00000380: 3040 bebc 84c8 55bd 640f 45bd 5c3a 7c3d
00000390: f82d dbbd 4216 fe3d a61a aa3d d848 263d
000003a0: 184d c0bc 04d9 68bd 801f 8dbb f866 643d
000003b0: e03c a43b 1c79 523d e469 513d cc96 5f3d
000003c0: 0066 ffbc 864b e0bd b80f 19bd 00f5 fbbd
000003d0: 38e4 eebc 5283 89bd 4e48 a93d 86a9 d73d
000003e0: b004 97bd c23d ffbd 588e d23c 6868 27bd
000003f0: a800 be3d 0072 653d fcde c23d 2034 5e3d

recurrent.conv_x_r.ffn.bias f4 [64]
-0.08385365 0.041601196 -0.06839228 0.027469382 -0.020876095 -0.08851962 0.10041951 0.10945806
0.007620558 -0.07420771 0.12323122 -0.08477089 -0.07047126 -0.050768018 0.09102668 0.07891466
-0.09286849 0.03320621 0.044355795 -0.0557428 0.015538514 -0.042388096 0.009471998 -0.09852411
0.07910676 -0.057683468 -0.07155417 0.03852123 0.034704313 0.07427159 -0.012525573 -0.037518993
-0.083053276 0.11829068 0.10136275 -0.11406502 0.03109616 0.08704935 -0.016232938 0.11852443
0.060780123 0.121589124 -0.0396159 0.08899322 0.06532854 0.023299336 0.009421393 -0.056518123
-0.040175423 0.06307629 -0.0907087 0.04541555 -0.048515663 -0.028773159 0.11370702 0.09311676
0.06553374 -0.06261192 0.07439509 -0.006783247 -0.04798694 -0.10170683 0.031433716 0.11219989
00000000: 76bb abbd 0466 2a3d 4011 8cbd 7807 e13c
00000010: 5804 abbc c649 b5bd bea8 cd3d 8c2b e03d
00000020: e0b5 f93b 36fa 97bd a660 fc3d 5c9c adbd
00000030: 3c53 90bd 20f2 4fbd 326c ba3d 029e a13d
00000040: d631 bebd 3c03 083d 6cae 353d 9052 64bd
00000050: 4095 7e3c 249f 2dbd 7030 1b3c 02c7 c9bd
00000060: ba02 a23d 8045 6cbd fe8a 92bd 70c8 1d3d
00000070: 1c26 0e3d b41b 983d 1038 4dbc 84ad 19bd
00000080: d617 aabd 6242 f23d 4697 cf3d ec9a e9bd
00000090: 60bd fe3c ee46 b23d f0fa 84bc f0bc f23d
000000a0: 94f4 783d b803 f93d 4844 22bd 1442 b63d
000000b0: f8ca 853d 40de be3c 305c 1a3c 8c7f 67bd
000000c0: fc8e 24bd 242e 813d 7cc5 b9bd a805 3a3d
000000d0: 5cb8 46bd b0b5 ebbc 3adf e83d 00b4 be3d
000000e0: 8e36 863d ae3a 80bd 745c 983d 0046 debb
000000f0: f48d 44bd ac4b d0bd a4c0 003d 0ec9 e53d

recurrent.conv_x_h.V.weight f4 [64, 128]
-0.06779496 0.04544601 0.058633596 -0.07147075 0.043863863 0.07711967 0.07253613 0.04019296
-0.060338225 -0.0019965242 0.034977477 -0.035521798 -0.0656824 -0.022835176 0.025711313 0.04865116
0.040159315 0.03798206 -0.0783271 -0.035863698 -0.06192735 -0.029526465 -0.06932571 0.012503188
-0.0241281 0.04352637 -0.032948934 0.025088226 -0.058556423 0.051649563 0.0050307224 -0.022397162
0.028692055 -0.04289673 -0.08210082 -0.06555881 0.06419143 -0.082318835 -0.019202877 -0.055362225
0.030713065 0.01330244 -0.04952548 -0.05405057 0.07755135 0.07375453 0.054880787 0.094849214
-0.0027168551 0.10145357 0.06541013 -0.05076694 0.014570242 0.08961303 0.11572026 0.045300454
0.075519145 0.05788366 0.11312319 0.08132511 0.14334261 0.078325905 -0.025091749 0.07777179
0.028069453 0.05153778 0.03438006 0.07385104 -0.08720406 0.006918584 0.018281976 0.05693213
-0.05844263 -0.0060694306 0.072190754 0.055523552 0.06355093 -0.020277543 0.044215783 -0.045107294
0.0112973675 -0.08232526 -0.029727742 -0.07351783 0.05249042 -0.039907027 -0.010768941 0.00853835
0.041127075 0.051847883 0.045826245 0.03511353 0.016593035 -0.08568862 0.018443955 -0.0015722881
0.07396836 -0.0136488145 -0.08269021 0.029274695 -0.042801 -0.030257558 0.08056223 0.031816043
0.058419093 -0.051063046 -0.009007034 -0.0827289 0.07249654 0.08797251 -0.08477349 -0.061752245
0.076104164 -0.04146563 0.036666512 -0.085214056 0.0043147835 -0.08357568 -0.06629421 0.050255615
-0.030633941 0.013260842 0.020294528 0.027439421 0.044729427 0.0068830336 -0.011440993 -0.02696823
0.021999355 -0.07838597 0.0068185604 0.06423058 0.061145578 -0.012174531 -0.0013847633 -0.007436941
-0.0013894299 0.07237477 0.056794133 -0.018956248 -0.06066372 0.10329819 -0.021135569 0.07662771
-0.028463086 0.0059131435 0.08948944 -0.020730067 -0.05432874 0.05965286 0.047093622 0.07190248
0.06724583 0.011709199 0.05326128 0.011773301 0.011510149 -0.06900752 0.0048696627 -0.05532575
-0.022711039 0.06543292 0.03343576 -0.055006523 0.0642284 0.10477437 0.041301653 0.022798998
0.06305406 -0.017106017 0.083976634 -0.068490535 -0.046470787 0.02174618 0.04876927 0.016212184
-0.051281117 -0.039836567 -0.018182976 0.024987942 -0.04252728 -0.036239017 -0.09835414 -0.05362572
-0.060605593 -0.06002016 -0.013606883 0.03595055 -0.01043492 -0.03414831 -0.058803033 0.02542004
-0.080082804 0.033456538 0.0050176876 0.035151895 0.053654496 -0.021229103 0.056536995 0.06388381
0.03210023 0.0057354695 0.020245554 0.029162595 -0.080320805 -0.037019316 -0.055287328 -0.01951595
-0.044134315 -0.025948413 -0.08835578 0.0076905037 0.07464553 0.07144017 -0.046055935 -0.026314806
0.050811797 -0.015868584 -0.03817555 -0.05716847 0.018835416 0.073502004 -0.039018814 -0.08635085
0.031686075 -0.06496175 -0.0049710204 0.031030975 -0.0026697814 -0.026572956 0.049663696 0.04775297
0.03356653 0.062545985 0.079344876 -0.034514252 -0.054854777 0.024459902 -0.08296819 -0.04708648
0.017555669 -0.043665852 0.026706288 0.056670137 -0.052756432 -0.06449045 0.075672485 0.055069514
-0.0877747 0.017757015 0.043884046 -0.071292795 -0.061162263 0.050204262 -0.07948339 0.013292441
00000000: 16d8 8abd 9825 3a3d c829 703d 425f 92bd
00000010: 98aa 333d ebf0 9d3d d38d 943d 60a1 243d
00000020: 3725 77bd 1ed8 02bb 8b44 0f3d 4e7f 11bd
00000030: 7e84 86bd d610 bbbc 88a0 d23c 7046 473d
00000040: 187e 243d 1493 1b3d f569 a0bd d0e5 12bd
00000050: 88a7 7dbd 7ce1 f1bc a3fa 8dbd 2cda 4c3c
00000060: 4ba8 c5bc b548 323d 76f5 06bd d385 cd3c
00000070: dcd8 6fbd 7e8e 533d c2d8 a43b 417a b7bc
00000080: 9a0b eb3c 7bb4 2fbd 7a24 a8bd b343 86bd
00000090: cc76 833d c796 a8bd 5a4f 9dbc 80c3 62bd
000000a0: f799 fb3c 7af2 593c 3bdb 4abd 2164 5dbd
000000b0: 3ed3 9e3d 9d0c 973d adca 603d 4e40 c23d
000000c0: 440d 32bb e4c6 cf3d bff5 853d fff0 4fbd
000000d0: 06b8 6e3c 0987 b73d befe ec3d f88c 393d
000000e0: c8a9 9a3d 6b17 6d3d 22ad e73d c78d a63d
000000f0: 68c8 123e 5569 a03d 368d cdbc d146 9f3d
00000100: e9f1 e53c 4719 533d 1bd2 0c3d 373f 973d
00000110: 0b98 b2bd 4ab5 e23b 15c4 953c aa31 693d
00000120: 8a61 6fbd 13e2 c6bb bfd8 933d aa6c 633d
00000130: fd26 823d 171d a6bc 9c1b 353d 6dc2 38bd
00000140: 9818 393c 259a a8bd 9887 f3bc 8490 96bd
00000150: 3200 573d 8d75 23bd 3670 30bc 70e4 0b3c
00000160: dd74 283d 725e 543d 4db4 3b3d 34d3 0f3d
00000170: 1eee 873c 847d afbd c717 973c 3c15 ceba
00000180: b97c 973d 479f 5fbc 7c59 a9bd 7cd1 ef3c
00000190: 1a50 2fbd b3de f7bc cffd a43d 8a51 023d
000001a0: dc48 6f3d 7c27 51bd 3d92 13bc c56d a9bd
000001b0: 1179 943d ee2a b43d b99d adbd ecef 7cbd
000001c0: 80dc 9b3d ddd7 29bd a02f 163d b584 aebd
000001d0: 0763 8d3b ba29 abbd 42c5 87bd d5d8 4d3d
000001e0: 08f4 fabc 0144 593c b640 a63c a3c8 e03c
000001f0: 3436 373d 128b e13b 0173 3bbc 7aec dcbc
00000200: fe37 b43c d388 a0bd 3b6e df3b 538b 833d
00000210: c973 7a3d af77 47bc f280 b5ba 95b1 f3bb
00000220: 881d b6ba 3939 943d f7a0 683d 224a 9bbc
00000230: 857a 78bd 008e d33d 8024 adbc fdee 9c3d
00000240: 6b2b e9bc 0bc3 c13b 3d46 b73d 1ad2 a9bc
00000250: d087 5ebd 8f56 743d 3ee5 403d 9c41 933d
00000260: 2fb8 893d f1d7 3f3c 8028 5a3d cee4 403c
00000270: 1095 3c3c d153 8dbd b191 9f3b 419d 62bd
00000280: 800c babc b201 863d eff3 083d 854e 61bd
00000290: 2e8a 833d f293 d63d ec2b 293d f7c4 ba3c
000002a0: 7d22 813d eb21 8cbc f1fb ab3d c444 8cbd
000002b0: 2758 3ebd 0b25 b23c 49c2 473d 6acf 843c
000002c0: 260c 52bd ab2b 23bd 77f4 94bc 83b3 cc3c
000002d0: 1631 2ebd 5d6f 14bd e56d c9bd a5a6 5bbd
000002e0: 923d 78bd b3d7 75bd 67ef 5ebc e240 133d
000002f0: 3af7 2abc 19df 0bbd 73db 70bd b03d d03c
00000300: 7402 a4bd b909 093d 6a6b a43b 6ffb 0f3d
00000310: d1c4 5b3d a8e8 adbc 5693 673d 84d5 823d
00000320: 887b 033d 9bf0 bb3b 01da a53c 65e6 ee3c
00000330: 3c7f a4bd 91a1 17bd f774 62bd eadf 9fbc
00000340: 2fc6 34bd c491 d4bc e0f3 b4bd 9f00 fc3b
00000350: c1df 983d 394f 923d 26a5 3cbd 2692 d7bc
00000360: 0820 503d d5fe 81bc f75d 1cbd 7c29 6abd
00000370: bb4c 9a3c 3888 963d 31d2 1fbd b7d8 b0bd
00000380: 42c9 013d aa0a 85bd f1e3 a2bb ac34 fe3c
00000390: 80f7 2ebb 87af d9bc 296c 4b3d 9e98 433d
000003a0: 0f7d 093d 1c18 803d 917f a23d d15e 0dbd
000003b0: 67af 60bd 2260 c83c 3aeb a9bd c1dd 40bd
000003c0: e8d0 8f3c f7da 32bd 25c7 da3c f21e 683d
000003d0: 2117 58bd 9213 84bd 2dfa 9a3d 9290 613d
000003e0: 39c3 b3bd 2977 913c c2bf 333d f501 92bd
000003f0: 4885 7abd fca2 4d3d 30c8 a2bd 8ac8 593c

recurrent.conv_x_h.V.bias f4 [64]
-0.06200109 -0.11564852 0.035025876 -0.04076151 -0.010153833 -0.015130218 0.06938306 0.07062868
0.07855528 -0.010014157 0.029808931 0.041946076 0.07029398 -0.062016495 -0.00137261 -0.071155466
0.04943712 -0.060878493 0.047157314 0.0054697883 0.07755452 0.0486103 -0.025783181 0.061786335
-0.070568815 0.066625915 -0.006649084 0.010054242 -0.043087356 -0.05744905 -0.049000345 -0.02682915
-0.05602918 -0.0485733 -0.02095558 -0.07126703 0.004967803 -0.0002232015 0.05706503 0.03742563
-0.08237992 0.097613655 -0.023730872 -0.026215244 0.0045344303 0.08225091 0.09757191 0.09767655
-0.047834564 0.044719476 -0.008455179 0.0042754924 -0.04989904 0.013250341 0.03628015 0.033648454
-0.023511939 -0.076070055 0.08938807 -0.03625448 0.023741633 -0.00532721 0.10114093 -0.05574656
00000000: dbf4 7dbd 22d9 ecbd 4b77 0f3d 8bf5 26bd
00000010: 435c 26bc bce4 77bc b518 8e3d c5a5 903d
00000020: 97e1 a03d 6b12 24bc dc31 f43c a6cf 2b3d
00000030: 4af6 8f3d 0205 7ebd 26e9 b3ba f5b9 91bd
00000040: 947e 4a3d ba5b 79bd 0728 413d e93b b33b
00000050: e7d4 9e3d 981b 473d 4037 d3bc ab13 7d3d
00000060: 6286 90bd 2b73 883d 8fe0 d9bb 8cba 243c
00000070: 5e7c 30bd b24f 6bbd 96b4 48bd cec8 dbbc
00000080: da7e 65bd ccf4 46bd 09ab abbc 73f4 91bd
00000090: f4c8 a23b 320b 6ab9 05bd 693d 9e4b 193d
000000a0: ceb6 a8bd abe9 c73d 3f67 c2bc 5ac1 d6bc
000000b0: 8f95 943b 2a73 a83d c8d3 c73d a50a c83d
000000c0: 2dee 43bd c52b 373d 9787 0abc 6e19 8c3b
000000d0: f062 4cbd f517 593c 7f9a 143d f6d2 093d
000000e0: 1c9c c0bc 9eca 9bbd 1811 b73d 947f 14bd
000000f0: d07d c23c e08f aebb fa22 cf3d 8156 64bd

recurrent.conv_x_h.ln.weight f4 [64]
0.9931184 0.9762969 0.97859305 0.976248 0.9288106 1.0203062 1.0020772 1.0120826
0.9988086 1.0096563 1.0116794 1.0072674 0.98147476 0.97055924 1.0090731 0.9620157
0.95062804 1.004052 1.0405306 0.9419254 1.0176312 0.95956975 0.949721 0.9795983
0.9777119 0.9835009 0.972126 1.0008782 0.94368064 0.9570409 0.9513443 1.032698
0.9654066 0.99653256 0.94879305 0.98272365 0.941784 0.96600425 0.95976704 0.958446
0.97307044 0.98798096 0.9500168 1.0176065 0.95871234 0.9725755 0.9490174 0.9638477
0.96504813 1.0187216 1.0204396 0.9666128 0.9841583 1.0004448 0.98587936 0.96809655
0.97757727 1.042614 1.0048541 0.9526877 1.0347795 0.9897496 0.9919217 1.0283375
00000000: 023d 7e3f 98ee 793f 1385 7a3f 64eb 793f
00000010: 88c6 6d3f 6599 823f 1144 803f ec8b 813f
00000020: ecb1 7f3f 6b3c 813f b67e 813f 23ee 803f
00000030: ee41 7b3f 9276 783f 4f29 813f a946 763f
00000040: 5c5c 733f c784 803f 1b30 853f 0622 713f
00000050: bd41 823f 5da6 753f ea20 733f f4c6 7a3f
00000060: 544b 7a3f b7c6 7b3f 40dd 783f c71c 803f
00000070: 0e95 713f a200 753f 4d8b 733f 732f 843f
00000080: e324 773f c21c 7f3f 1ae4 723f c793 7b3f
00000090: c218 713f 0e4c 773f 4bb3 753f b85c 753f
000000a0: 251b 793f 52ec 7c3f 4d34 733f ee40 823f
000000b0: 2c6e 753f b5fa 783f cef2 723f b9be 763f
000000c0: 650d 773f 7865 823f c49d 823f f073 773f
000000d0: ccf1 7b3f 930e 803f 9762 7c3f 2dd5 773f
000000e0: 8142 7a3f 6074 853f 0f9f 803f 57e3 733f
000000f0: a873 843f 3b60 7d3f 95ee 7d3f 90a0 833f

recurrent.conv_x_h.ln.bias f4 [64]
0.0056629833 -0.029130809 0.00013497937 0.0041839946 -0.0348376 0.03510904 -0.0129554905 -0.013593546
0.008929751 0.0163202 0.0011083293 -0.013751622 0.0011545861 -0.024426656 -0.0002046795 0.009923147
0.022674961 -0.04839217 -0.009306948 0.042266905 0.013584434 -0.053752962 0.01290878 -0.014219016
0.019407658 -0.024035037 -0.04149918 0.004726913 0.0053058625 -0.009783278 -0.013393577 0.037929818
0.0025832257 -0.0099720685 2.0629956e-05 0.044799324 -0.019194027 0.030991225 -0.015335211 -0.01930241
0.0069846157 -0.010484207 0.02536054 -0.06335167 0.05572473 0.0059550214 0.050248783 -0.0208204
-0.041033793 0.017966108 0.0407974 -0.013596619 -0.012626489 0.014020925 0.06096517 -0.023607578
0.008315386 -0.06622119 0.013223528 0.02491253 0.014685327 0.009219034 0.06320816 0.038192537
00000000: 8c90 b93b bca3 eebc 4089 0d39 e419 893b
00000010: dfb1 0ebd 7fce 0f3d 4443 54bc 77b7 5ebc
00000020: 174e 123c f1b1 853c 5c45 913a 7c4e 61bc
00000030: 7b55 973a 691a c8bc 3c9f 56b9 b294 223c
00000040: d7c0 b93c de36 46bd 2b7c 18bc 1020 2d3d
00000050: 3f91 5e3c 112c 5cbd 597f 533c e0f6 68bc
00000060: cffc 9e3c 20e5 c4bc 0bfb 29bd 38e4 9a3b
00000070: cddc ad3b 0b4a 20bc bc70 5bbc 4c5c 1b3d
00000080: 564b 293b e361 23bc 7e0e ad37 7f7f 373d
00000090: cb3c 9dbc 4fe1 fd3c 8940 7bbc 1620 9ebc
000000a0: 34df e43b f4c5 2bbc e8c0 cf3c 85be 81bd
000000b0: 9d3f 643d 5722 c33b abd1 4d3d 8b8f aabc
000000c0: 0d13 28bd a92d 933c 2d1b 273d 5ac4 5ebc
000000d0: 55df 4ebc 06b8 653c 9db6 793d ae64 c1bc
000000e0: 423d 083c fa9e 87bd 7fa7 583c 5d15 cc3c
000000f0: ba9a 703c 6e0b 173c 4873 813d c76f 1c3d
