DCRNN_pearsons_global_best_model.pth (torch, 31980 bytes, 7 tensors)

recurrent.conv_x_z.weight f4 [2, 1, 36, 32]
0	0x3cd4dd0c	0.02598431
1	0xbd56c7ca	-0.052436627
2	0x39644d96	0.00021772677
3	0x3d696ba2	0.056987412
4	0xbc5dc88a	-0.013536582
5	0xbcd4bf54	-0.025970139
6	0xbdabe5d6	-0.08393447
7	0xbc58cf98	-0.013233088
8	0x3d1db729	0.038504753
9	0xbd18b400	-0.037281036
10	0x3c091a9f	0.008368163
11	0xbd89dcab	-0.06731542
12	0xbce0b6cf	-0.02743092
13	0xbba5a2b6	-0.005054797
14	0x3c47f121	0.012203486
15	0x3c75bb5c	0.014998283
16	0xbd12a8a2	-0.035805352
17	0xbd0353ea	-0.03206245
18	0xbd7efe31	-0.062254135
19	0x3be91a2c	0.0071137156
20	0x3d7c5035	0.06159993
21	0xbc1ba80c	-0.009500515
22	0x3d1ea079	0.038727257
23	0x3d4b2e65	0.049604792
24	0x3c95dfa3	0.018295115
25	0xbc24d7a0	-0.010061175
26	0x3ca27a84	0.01983381
27	0x3d0448a3	0.032295834
28	0xbd00f820	-0.03148663
29	0xbcccc99f	-0.024998484
30	0xbb9ef89e	-0.004851415
31	0xbd21c1ad	-0.039491344
32	0xbcce24c0	-0.025164008
33	0x3cce49bf	0.02518165
34	0xbc058ce8	-0.00815127
35	0xbbc22c51	-0.005925693
36	0xbb83dac3	-0.004023881
37	0xbc9cc897	-0.019138617
38	0xbd20af61	-0.039229754
39	0x3c0bf328	0.00854186
40	0x3d8218bf	0.06352376
41	0x3c96a1b3	0.018387651
42	0x3c8afbf1	0.016965838
43	0x3c84a33c	0.016191117
44	0xbc025a1c	-0.007956054
45	0x3c98f284	0.018670328
46	0xbc66da3a	-0.014090115
47	0x3d5385a3	0.051641118
48	0xbcb1759c	-0.021662526
49	0x3be91ad8	0.0071137957
50	0xbcb7bd35	-0.022429088
51	0xbd553220	-0.052049756
52	0xbd094179	-0.033509705
53	0x3c16d745	0.009206598
54	0xbb220f72	-0.0024728444
55	0x3d2c524d	0.042070676
56	0xbd058382	-0.03259612
57	0x3d24847b	0.040165406
58	0xbc42e561	-0.0118955085
59	0x3abfaa3e	0.001462288
60	0xbc0584b0	-0.008149311
61	0x3c662198	0.014046095
62	0xbc3a485a	-0.011369789
63	0xbaa40358	-0.0012513204
64	0xbca68bb6	-0.020330291
65	0xba299680	-0.00064692646
66	0x3bf33349	0.007421885
67	0xbc7fd001	-0.015613557
68	0x3d3a1ff7	0.04544064
69	0x3d16c0e4	0.03680505
70	0x3cd49010	0.0259476
71	0xbd429cee	-0.04751294
72	0x3d1322c0	0.035921812
73	0x3cf3eaad	0.029774988
74	0xbc631913	-0.013860959
75	0x3af78a15	0.0018885756
76	0x3c93912e	0.018013563
77	0xbade5fe5	-0.0016965835
78	0xbd10275f	-0.035193797
79	0xbd4298e0	-0.047509074
80	0x3cf1fcb0	0.029539436
81	0xbccb29f3	-0.024800276
82	0xbc1e77c2	-0.009672107
83	0xbcf913e1	-0.030404987
84	0x3d2cc5d5	0.042180855
85	0x3d35f71e	0.044425122
86	0x3bd52372	0.0065044696
87	0x3cfcf738	0.030879602
88	0x3cdf0eb1	0.027228685
89	0x3d417173	0.047227334
90	0x3d2dd6bc	0.042441115
91	0xbc3a1f2e	-0.011359973
92	0x3d13a290	0.036043704
93	0x3c341112	0.010990398
94	0x3c6437ec	0.013929348
95	0x3d0ed2ce	0.034869008
96	0x3caf4c6e	0.02139875
97	0xbb95f684	-0.004576506
98	0xbd2c4485	-0.042057533
99	0xbcfb04ee	-0.030642
100	0xbd2a51a6	-0.041581772
101	0xbcdaca78	-0.026707873
102	0x3cef9e2e	0.02925023
103	0xbc4f3d9b	-0.012648965
104	0x3d022e58	0.031782478
105	0xbc81b363	-0.015832609
106	0x3cddd3b5	0.027078489
107	0x3c4ab917	0.01237323
108	0x3d3a70b3	0.045517635
109	0x3ca996b1	0.020701738
110	0x3d25f48d	0.040516425
111	0xbcfa0367	-0.0305192
112	0xbc0ee6fb	-0.008722062
113	0x3a58eec9	0.0008275328
114	0x3d15ffdc	0.03662096
115	0x3b7de4c6	0.0038741096
116	0xb87672f2	-5.875802e-05
117	0xbcd16472	-0.025560591
118	0xbbcd84ed	-0.0062719495
119	0xbc12394f	-0.008924796
120	0xbd74ad49	-0.05973557
121	0x3d2e0bce	0.042491727
122	0x3cd3265b	0.025775125
123	0xbcca0177	-0.024658902
124	0x3ae1779b	0.0017201783
125	0xbc27154f	-0.010197951
126	0xbd1d4c0e	-0.03840261
127	0xbaf300f6	-0.0018539715
128	0x3d89f3c1	0.067359455
129	0xbd231d71	-0.039823
130	0xbd6ad694	-0.057333544
131	0xbbda04e7	-0.0066534164
132	0xbd1d27e8	-0.038368136
133	0x3c9122d1	0.017716797
134	0xbd0f875d	-0.0350412
135	0xbcb14ada	-0.021642137
136	0x3c2023f2	0.009774195
137	0xbca63f83	-0.020293957
138	0xbce1e748	-0.027576104
139	0xbbcdd357	-0.006281297
140	0xbba9f7c6	-0.0051870076
141	0x3cf07612	0.029353175
142	0xbd894b87	-0.06703859
143	0x3d08b7f1	0.033378545
144	0x3cb93808	0.022609726
145	0x3c2086ff	0.009797811
146	0x3ce98da7	0.028509928
147	0x3bca1ea6	0.0061682044
148	0x3ca486a6	0.020083737
149	0xbb229d97	-0.002481317
150	0xbc6ec579	-0.014573448
151	0xbc6d563f	-0.014485895
152	0xbd2e13ed	-0.04249947
153	0xba6a48c5	-0.0008937235
154	0x3ca6dc90	0.020368844
155	0x3c17cacb	0.009264658
156	0x3bc33b65	0.005958008
157	0x3d43cc99	0.04780254
158	0xbd700eb0	-0.058607757
159	0x3ce1f5b7	0.027582986
160	0x3cff900e	0.03119662
161	0x3ac9e436	0.0015403095
162	0xbc4507d5	-0.012025793
163	0x3d1e4f25	0.038649697
164	0xbd02f8d7	-0.031975593
165	0xbd5dcc13	-0.0541497
166	0x3cf42f6f	0.029807774
167	0xbbd3b862	-0.006461189
168	0xbc91df97	-0.017806811
169	0xbc236526	-0.009972846
170	0xbad3e3b2	-0.0016165881
171	0x3cc47b79	0.023984658
172	0xbc84da71	-0.016217442
173	0x3c1d96ec	0.009618502
174	0xbd258243	-0.04040743
175	0xbc0ca594	-0.008584399
176	0xbc67d3e1	-0.014149637
177	0xbc4eef79	-0.012630337
178	0x39b4440a	0.00034382968
179	0x3a7ec8bc	0.0009719243
180	0x3d70c543	0.058781873
181	0x3d6f11e2	0.058366664
182	0xbbbf9e87	-0.0058477554
183	0xbd7c4f75	-0.061599214
184	0x3d4b0ee8	0.049574763
185	0xbcfc94a8	-0.030832604
186	0x3d772792	0.06034047
187	0x3d36d505	0.044636745
188	0xbd5496d7	-0.051901665
189	0xba87f7fa	-0.0010373585
190	0xbc3927db	-0.011301006
191	0xbcff247b	-0.031145325
192	0x3c6ac530	0.01432924
193	0xbd6b0740	-0.05737996
194	0x3d8309bb	0.0639834
195	0x3d232957	0.039834347
196	0xbcc946c4	-0.024569876
197	0x3d05ccf4	0.03266616
198	0xbc673d16	-0.014113685
199	0x3cca0ac6	0.02466334
200	0x3ce66819	0.02812581
201	0xbc61128c	-0.013737332
202	0xbc8eb3d0	-0.017419726
203	0x3d2364d4	0.03989108
204	0xbd82af34	-0.063810736
205	0xbd2b6bf6	-0.041851006
206	0x3da83dae	0.082148895
207	0xbb7f5428	-0.0038960073
208	0xbcac432e	-0.021028128
209	0x3c699f41	0.0142591605
210	0xbcd974da	-0.026544977
211	0x3cde0a97	0.027104659
212	0x3cc0721f	0.023491917
213	0xbd9059cb	-0.07048377
214	0xbb84e1f6	-0.004055257
215	0xbc8f37af	-0.017482607
216	0x3c2ec6a0	0.010667473
217	0x3d199775	0.037497956
218	0xbcae1467	-0.021249963
219	0xbcfebba1	-0.031095328
220	0xbbe0d9c1	-0.006861896
221	0xbcffd432	-0.031229112
222	0xba5a5c96	-0.00083298364
223	0xbbbdb61e	-0.0057895323
224	0xbd176752	-0.03696377
225	0xbd3a0d8c	-0.045423076
226	0x3c4e6887	0.012598163
227	0xbc063fbd	-0.008193907
228	0xbcc5ad45	-0.024130473
229	0xbc027fc1	-0.007965029
230	0xbc8e2916	-0.017353576
231	0x3cc0b76c	0.023524962
232	0x3c5dd992	0.013540642
233	0xbc808773	-0.015689587
234	0x3d69979e	0.05702936
235	0x3c56cb6f	0.013110026
236	0xbd699333	-0.057025146
237	0xbbb4f028	-0.005521793
238	0x3d2e2612	0.042516775
239	0x3c9819fa	0.018567074
240	0x3ade1304	0.0016942923
241	0xbbf6ff50	-0.00753776
242	0xbd6226b4	-0.05521269
243	0xbd2f61a8	-0.04281774
244	0xbc75bf80	-0.01499927
245	0xbbe38039	-0.0069427756
246	0xbd948249	-0.072514124
247	0xbc858d9e	-0.01630288
248	0xbc9e7a94	-0.01934556
249	0x3c7046a1	0.014665277
250	0xbb4b2a5b	-0.0031000588
251	0xbc9d04bf	-0.019167302
252	0xbd2ec867	-0.042671587
253	0xbd20e2ba	-0.039278723
254	0x3c490f2c	0.012271684
255	0xbd02d2bb	-0.03193925

recurrent.conv_x_z.bias f4 [32]
0	0xbcfadc49	-0.030622618
1	0xbd22175a	-0.03957305
2	0xbd02c2a3	-0.0319239
3	0xbc62064d	-0.013795448
4	0xbb912476	-0.0044293953
5	0xbc479b76	-0.012183061
6	0xbd316b48	-0.043315202
7	0xbc0d6591	-0.008630172
8	0x3c1c8790	0.009553805
9	0xbbf839b6	-0.007575239
10	0xbd0698ed	-0.032860685
11	0x3bb99811	0.0056638797
12	0xbc560658	-0.013063036
13	0xbc7eff67	-0.015563822
14	0xbcf1f990	-0.029537946
15	0xbc7e20b4	-0.015510727
16	0xbc5c7f7a	-0.013458127
17	0xbd2cb6d1	-0.042166535
18	0xbb491d21	-0.0030687528
19	0xbc32e2aa	-0.010918299
20	0xbcac116d	-0.021004403
21	0xbc8033c2	-0.01564968
22	0xbd158113	-0.036500048
23	0xbd219007	-0.039443996
24	0xbd0a0a26	-0.033701085
25	0xbcf7ce54	-0.030249752
26	0xbc14ab7e	-0.00907409
27	0xbb72aec0	-0.0037030429
28	0xbcb7dbb1	-0.022443624
29	0xbcebd5a7	-0.0287884
30	0xbd029732	-0.031882472
31	0xbc8dcf3b	-0.01731073

recurrent.conv_x_r.weight f4 [2, 1, 36, 32]
0	0xbd30a0af	-0.04312199
1	0xbc4963ba	-0.012291843
2	0xbc957404	-0.018243797
3	0xbc05c791	-0.008165256
4	0x3b5a5f49	0.0033320955
5	0x3c4b074d	0.012391877
6	0x3c3f554c	0.011678051
7	0x3a42a265	0.00074247114
8	0xbcae5e56	-0.021285217
9	0xbcaac6ee	-0.02084681
10	0x3a8f0da6	0.0010914102
11	0x3d00b141	0.031419042
12	0x3d1a1c1c	0.037624463
13	0x3d64964a	0.05580739
14	0xbd35adf1	-0.044355337
15	0x3cb07fbf	0.02154529
16	0xbc4a05a9	-0.012330451
17	0xbd1ba5b3	-0.03799982
18	0x3cadf039	0.021232711
19	0x3be14773	0.0068749725
20	0xbc8aa94a	-0.016926426
21	0x3c7f6d89	0.01559008
22	0x3d04a6d9	0.03238568
23	0xb974364d	-0.00023289882
24	0x3d1b5b54	0.037928894
25	0xbcf9b614	-0.03048233
26	0x3b7899ca	0.0037933462
27	0x3d0d2910	0.03446299
28	0x3cfef399	0.031122016
29	0xbc3af18c	-0.011410128
30	0x3ca89917	0.020580811
31	0x3bc3036e	0.0059513366
32	0x3cc5c8e4	0.024143644
33	0x3c40ced1	0.011768059
34	0x3c7b0132	0.015320109
35	0xbd266f20	-0.04063332
36	0x3c4b7e09	0.012420186
37	0x3d75dc2f	0.060024437
38	0x3cd5793b	0.026058784
39	0xbd81e21e	-0.063419566
40	0xbd7c8663	-0.0616516
41	0x3c00c4b8	0.007859401
42	0x3cb52ce8	0.02211614
43	0xbd5663f3	-0.052341413
44	0x3c36039d	0.01110926
45	0x3cacb9d3	0.021084702
46	0x3cd453df	0.0259189
47	0xbc8493e9	-0.01618381
48	0x3ca85816	0.020549815
49	0xbc935764	-0.017986007
50	0x3bac9834	0.0052671675
51	0x3da6d843	0.081467174
52	0xbbc44009	-0.005989079
53	0x3d9d7469	0.07688219
54	0x3d2e579f	0.04256403
55	0x3d1f8e6f	0.038954195
56	0xbb67b7ae	-0.0035357284
57	0x3c3c699a	0.011499787
58	0xbbc1ad7b	-0.005910573
59	0xbd11ad5c	-0.03556572
60	0x3c00536b	0.007832388
61	0xbcd199b8	-0.025585994
62	0x3c5bf2fa	0.013424629
63	0x3d35bbde	0.044368617
64	0x3d373ebf	0.044737574
65	0xbcf26892	-0.029590879
66	0xbd803f0f	-0.062620275
67	0xbd96faaf	-0.07372033
68	0x3cc5a415	0.024126092
69	0x3bc0c40d	0.005882746
70	0xbcafd5eb	-0.021464309
71	0xbcb5a6ea	-0.022174317
72	0xbc9df03c	-0.019279592
73	0x3c6ec2f3	0.014572847
74	0xbc55a162	-0.013038965
75	0xbceddd7a	-0.029036272
76	0xbcbf3471	-0.023340436
77	0xbb768b97	-0.0037619823
78	0x3b62f5e4	0.0034631426
79	0x3da246a6	0.07923631
80	0x3d7a674a	0.06113366
81	0x3d354667	0.044256594
82	0x3d20079c	0.039069757
83	0xbd8390dc	-0.06424114
84	0xbb94fb83	-0.004546584
85	0x3c5b8599	0.013398551
86	0x3d62544d	0.055256177
87	0x3cd21658	0.02564542
88	0x3bae5be8	0.0053210147
89	0x3a54db4d	0.00081198366
90	0xbc822518	-0.015886828
91	0x3d3947c1	0.045234445
92	0x3d1d5d36	0.03841897
93	0x3c5767e4	0.013147328
94	0xbd84c0a5	-0.064820565
95	0x3d5114bf	0.051045176
96	0xbaa09fd0	-0.0012254659
97	0x3c5c6a5a	0.013453091
98	0xbcd57e51	-0.026061209
99	0xbd4f5069	-0.050613794
100	0xbc8d9fba	-0.017288078
101	0x3cbf729b	0.023370078
102	0x3ae26068	0.0017271163
103	0xbc9d748c	-0.019220613
104	0xbd790c1b	-0.06080256
105	0x3d01d278	0.03169486
106	0x3bbf2d8e	0.005834288
107	0xbd3af226	-0.045641087
108	0xbb3f83ca	-0.002922284
109	0x3d3b5497	0.045734968
110	0xbcb7c400	-0.022432327
111	0xbb24329d	-0.0025054582
112	0xbc8f1d1f	-0.01746994
113	0x3b21083b	0.0024571556
114	0xbce7b52f	-0.028284637
115	0xbae6b8ae	-0.0017602646
116	0x3d05bc2e	0.032650165
117	0x3c15d1ab	0.009144227
118	0x3c7cb8fc	0.015424963
119	0x3c85b0dd	0.016319687
120	0xbac5d1d0	-0.0015092436
121	0x3ac8f350	0.0015331302
122	0x3cbc17f4	0.02296064
123	0xbc0d37e3	-0.008619281
124	0x3d8f56bb	0.069989644
125	0xbc92b1b1	-0.017906995
126	0xbd146a34	-0.036234096
127	0xbc1a8b61	-0.009432645
128	0xbd233c57	-0.039852466
129	0x3ca9a507	0.020708574
130	0xbc72effb	-0.014827724
131	0xbc6e1593	-0.014531511
132	0xbca1dd2e	-0.019758787
133	0x3cd580d6	0.02606241
134	0xbc7b810c	-0.015350591
135	0xbc3d103b	-0.011539514
136	0xbd144bf9	-0.036205266
137	0xbd489454	-0.04896958
138	0xbbe79530	-0.007067345
139	0x3c7d6f57	0.01546844
140	0xbca43138	-0.020043
141	0x3d12b331	0.03581542
142	0xbd2809f2	-0.04102511
143	0x3d3b5af4	0.045741037
144	0x3ca4b12a	0.02010401
145	0xbca1b1e7	-0.01973815
146	0x3d54f3ec	0.051990435
147	0xbc8357af	-0.016033022
148	0x3ca64664	0.020297237
149	0x3b94dd61	0.004542992
150	0x3d26c3ff	0.04071426
151	0x3cd91def	0.026503531
152	0xbcc116d2	-0.023570452
153	0x3c06d148	0.0082286075
154	0xbd0f20a7	-0.03494325
155	0x3d68158a	0.056661166
156	0x3bf544e7	0.0074850204
157	0xbd10eb45	-0.03538062
158	0xbca045ad	-0.019564474
159	0x3c636a28	0.01388029
160	0x3c6c4cae	0.014422579
161	0x3caa8cf4	0.020819165
162	0xbca107fd	-0.01965713
163	0xbc94f21e	-0.018181857
164	0xbc77dd4b	-0.015128444
165	0x3d0ae1ac	0.033906624
166	0xbb58e865	-0.0033097502
167	0x3ca26f9d	0.019828612
168	0xbd231794	-0.039817408
169	0xbb976b17	-0.0046209204
170	0x3cf874e3	0.030329173
171	0xbc1fee55	-0.009761413
172	0x3d791578	0.06081149
173	0x3c15e303	0.009148362
174	0xbb802ec9	-0.003911827
175	0x3cf97b30	0.030454248
176	0x3d0e54ed	0.03474896
177	0x3cd9d3c3	0.026590234
178	0x3d6ca8e9	0.057778273
179	0xbc6c4da4	-0.014422808
180	0xbcf7b179	-0.030235993
181	0x3c10ddda	0.008841956
182	0xbce3b185	-0.027794609
183	0x3cc7c069	0.02438374
184	0x3b9edd8d	0.0048481883
185	0xbc27b58e	-0.010236157
186	0xbcca28da	-0.024677683
187	0x3d797768	0.06090489
188	0x3cbb2f12	0.022849593
189	0xbd3d02ec	-0.046145365
190	0xbab8b8eb	-0.0014093196
191	0x3ca946f7	0.020663721
192	0xbc84f92f	-0.016232101
193	0xbcb39108	-0.021919742
194	0x3d346800	0.044044495
195	0xbc85b70f	-0.01632264
196	0x3cecbc91	0.02889851
197	0xbcbc3540	-0.02297461
198	0xbc144f80	-0.009052157
199	0x3d006b87	0.031352546
200	0x3d3494f0	0.04408735
201	0x3c54eb86	0.012995606
202	0xbc59c769	-0.013292172
203	0x3c9a8038	0.018859968
204	0x3ba59f9c	0.0050544273
205	0x3ccecdcc	0.025244616
206	0xbb9be727	-0.00475778
207	0xbc9a3b06	-0.018826973
208	0x3bcfc342	0.006340415
209	0x3d1fddea	0.039029993
210	0x3c46e9c5	0.012140696
211	0x3b8996cb	0.004198884
212	0xbc90e466	-0.017687034
213	0x3d236964	0.03989543
214	0xbd003319	-0.03129873
215	0x3c780d38	0.01513987
216	0x3d2181f3	0.03943057
217	0x3c0ec45a	0.008713806
218	0x3d15169b	0.03639851
219	0xbcd187fe	-0.025577541
220	0x3cca163e	0.024668809
221	0x3d6b31ac	0.057420418
222	0x3d1dd6e2	0.038535006
223	0xbd0716be	-0.032980673
224	0xbd09521b	-0.033525568
225	0xbcd6371a	-0.026149321
226	0x3cc48741	0.023990275
227	0xbcdfd5dd	-0.027323658
228	0xbb0bdff4	-0.0021343203
229	0x3d42aef1	0.04753012
230	0x3d576cfe	0.052594177
231	0x3b22ec94	0.002486025
232	0xbb564b1d	-0.003269858
233	0x3c7bef5b	0.015376891
234	0xbd1a8a17	-0.03772935
235	0x3c52adf1	0.012858854
236	0x3d163f1a	0.036681272
237	0x3d19b954	0.03753026
238	0xbb0ff922	-0.0021968563
239	0x3c6cadaf	0.014445706
240	0xbc0bdfcf	-0.008537247
241	0xbbff1d94	-0.0077855084
242	0xbcbadd30	-0.022810549
243	0x3c9aa4ca	0.018877406
244	0xbcfa1880	-0.03052926
245	0x3c7a5666	0.015279388
246	0xb9151d2a	-0.00014220612
247	0x3d370870	0.04468578
248	0x3c5786b4	0.013154674
249	0xbd75a259	-0.05996928
250	0x3bb0a44c	0.0053906795
251	0xbc7a9fba	-0.015296871
252	0x3d90ecb2	0.07076396
253	0x3ce61f20	0.028091013
254	0x3d2092ac	0.039202377
255	0x3d7fa49a	0.062412836

recurrent.conv_x_r.bias f4 [32]
0	0x3c90b76f	0.017665593
1	0x3ccfda4f	0.025372652
2	0x3cc3e2fe	0.02391195
3	0x3d78fdd3	0.06078894
4	0x3d3265dd	0.043554176
5	0x3d57f348	0.052722245
6	0x3d203567	0.03911343
7	0x3d2e6b7b	0.04258297
8	0x3d74594b	0.05965547
9	0xbbd4c3f5	-0.0064930865
10	0x3c841eb4	0.016127922
11	0x3ce7752c	0.028254114
12	0xbbcc1bdf	-0.0062289084
13	0x3ccc6363	0.024949735
14	0x3d1d12bf	0.038347956
15	0x3d113591	0.035451476
16	0x3d6111bf	0.054948565
17	0x3d42d144	0.047562853
18	0x3cae450f	0.021273164
19	0x3cca0cc0	0.024664283
20	0x3c347b6f	0.011015757
21	0x3d1ea367	0.03873005
22	0x3cfe1136	0.031014066
23	0x3d115b52	0.03548748
24	0x3d1bdb98	0.038051218
25	0x3cce9345	0.025216708
26	0x3d810ee7	0.063016705
27	0x3d392b03	0.045207035
28	0x3cc99a2a	0.024609644
29	0x3cc21656	0.023692291
30	0x3d2723b4	0.040805534
31	0x3d10b281	0.035326485

recurrent.conv_x_h.weight f4 [2, 1, 36, 32]
0	0x3bd871f5	0.0066053816
1	0x3d66f022	0.056381352
2	0xbd0e8722	-0.03479684
3	0x3d5cd707	0.053916004
4	0x3c9243a9	0.017854529
5	0xbc0bc388	-0.008530505
6	0xbb87e087	-0.004146639
7	0xbbd1fc57	-0.006408255
8	0xbb34b844	-0.0027575651
9	0x3c22368f	0.009900703
10	0xbcd9c451	-0.026582869
11	0xbca878a2	-0.020565335
12	0x3cfa69ef	0.030568091
13	0x3be685cb	0.0070349923
14	0xbd56ce88	-0.052443057
15	0x3cb8808d	0.022522235
16	0x3c962ce2	0.018331949
17	0x3d68126e	0.0566582
18	0xbc13665a	-0.0089965705
19	0x3c6ef5d1	0.014584974
20	0x3d37ede2	0.044904597
21	0x3d0a025d	0.03369366
22	0xbd0a7090	-0.033798754
23	0xbd2debf0	-0.042461336
24	0xbd0e96d4	-0.03481181
25	0xbd4aec92	-0.049542017
26	0xbaab889a	-0.0013086975
27	0x3cad6f8b	0.021171352
28	0x3cf7d67b	0.03025364
29	0x3d3402a7	0.043947842
30	0xbcbf7b51	-0.023374232
31	0x3cdf0eb4	0.02722869
32	0xbd62d561	-0.055379275
33	0xbc658300	-0.014008284
34	0x3d265195	0.040605146
35	0xbd07e2fa	-0.033175446
36	0x3c4dfd29	0.012572565
37	0xbb73c1f4	-0.0037194462
38	0x3ce453d0	0.027871996
39	0xbc122d51	-0.008921937
40	0xbcf66b4a	-0.030080456
41	0x3c0e0a64	0.0086694695
42	0xbb17cfbe	-0.0023164595
43	0x3af5950a	0.0018736434
44	0xbc464c64	-0.012103174
45	0x3cc75409	0.024332063
46	0x3bf3f4f4	0.007444972
47	0xbcb26f1d	-0.021781499
48	0xbc674f32	-0.014118003
49	0xbd9584d4	-0.073007256
50	0xbcd0657c	-0.025439017
51	0x3c24e1d8	0.010063611
52	0x3d228641	0.039678816
53	0xbae74646	-0.0017644844
54	0x3c973610	0.018458396
55	0xbbe86856	-0.007092516
56	0x3d32b145	0.04362609
57	0x3d99df6e	0.07513319
58	0xbc5513ac	-0.013005178
59	0xbcdf8fcf	-0.027290253
60	0x3d161455	0.036640484
61	0xbb7cf33b	-0.0038597125
62	0x3d466300	0.048434258
63	0x3d0f248a	0.034946956
64	0xbd187c33	-0.03722782
65	0xbda00710	-0.07813847
66	0x3d7be18b	0.06149439
67	0x3cda2cdf	0.026632724
68	0x3c705082	0.014667632
69	0x3bbe8d8b	0.005815213
70	0x3d3d33f1	0.046192113
71	0x3d53ab46	0.05167701
72	0xbbb9a932	-0.0056659216
73	0x3d2e130f	0.042498644
74	0xbb8c22f9	-0.00427663
75	0x3c555ada	0.013022149
76	0x3cf0c4cd	0.029390717
77	0x3aead0a9	0.0017914969
78	0x3d513708	0.051077873
79	0xbb4553b5	-0.0030109708
80	0x3b5d4e86	0.0033768727
81	0xbd81af59	-0.06332273
82	0x3c015968	0.007894851
83	0x3aa80039	0.0012817449
84	0x3d3e1f2b	0.046416443
85	0x3d091a7f	0.033472534
86	0xbc51c7ad	-0.012803954
87	0x3cf86c9b	0.030325225
88	0xbd041ec3	-0.0322559
89	0x3cebdc8e	0.028791692
90	0x3c3c62fe	0.011498211
91	0x3b8eab81	0.004353941
92	0x3cd29766	0.025706958
93	0xbd512902	-0.0510645
94	0xbcd4e9dd	-0.025990421
95	0x3cc70774	0.024295546
96	0xbd8bbc10	-0.068229795
97	0xbc22702c	-0.009914439
98	0x3d398a04	0.045297638
99	0x3d44b3df	0.0480231
100	0xbc0345d8	-0.0080122575
101	0x3cadf985	0.021237144
102	0x3d0c73c6	0.034290098
103	0x3d889b29	0.066702195
104	0xbd0e53fd	-0.034748066
105	0xbc9f9fca	-0.019485373
106	0x3d481b42	0.04885412
107	0x3cf61b06	0.030042183
108	0x3d4121ff	0.04715156
109	0x3c9739e6	0.018460225
110	0xbcc0e1e1	-0.023545207
111	0xbc924079	-0.017853009
112	0x3ad4d21d	0.0016236935
113	0xbc33e24f	-0.010979249
114	0xbc8c5e94	-0.017134942
115	0x3d49691a	0.0491725
116	0xbd8efe0b	-0.069820486
117	0x3bcd4b3a	0.006265071
118	0xbd31ea18	-0.04343614
119	0x3ca821de	0.020523962
120	0xbb808b58	-0.003922861
121	0x3d2b7a5d	0.04186474
122	0xbc393a8f	-0.011305465
123	0xbca08c91	-0.019598277
124	0xbb9396a5	-0.004504042
125	0xbd98e939	-0.07466359
126	0x3d18cb83	0.03730346
127	0x3c0102eb	0.007874231
128	0x3d4e4f2a	0.050368465
129	0x3d417d9c	0.04723893
130	0xbba1f29b	-0.004942251
131	0x3cff6567	0.031176282
132	0xbb7f2fa1	-0.00389383
133	0xbd619ea8	-0.055082947
134	0xbd7405eb	-0.059575956
135	0xbd18e37c	-0.03732632
136	0x3cc0e1cf	0.023545174
137	0xbd284703	-0.041083347
138	0xbd4b4d9c	-0.04963456
139	0xbb12abbc	-0.0022380194
140	0x3cecfd35	0.028929332
141	0xbd043204	-0.03227426
142	0xbb7bcca5	-0.0038421538
143	0xbcde6699	-0.027148532
144	0xbd83b3dc	-0.0643079
145	0x3c19bf74	0.009384025
146	0xbcecce2d	-0.028906906
147	0xbcff2737	-0.031146629
148	0x3d6857b7	0.056724276
149	0xbc94e462	-0.018175308
150	0xbc4144a9	-0.011796155
151	0xbca45e4b	-0.020064494
152	0xbbd994fd	-0.0066400752
153	0xbb953758	-0.0045537166
154	0xbd819eef	-0.06329142
155	0xba351cd3	-0.0006908897
156	0x3c2c8981	0.01053083
157	0x3d574b08	0.05256179
158	0x3cffff9f	0.03124982
159	0xbba3554a	-0.0049845325
160	0x3d0b241b	0.03396998
161	0x3d20279c	0.039100274
162	0xbd122ef7	-0.03568932
163	0x3d84a8e8	0.06477529
164	0x3b8fccb8	0.004388418
165	0xbd02e8c4	-0.031960264
166	0xbbce9f88	-0.0063056387
167	0xbcfcd237	-0.030861957
168	0xbd1a10fc	-0.037613854
169	0xbac891bb	-0.001530222
170	0xbd38213a	-0.044953562
171	0xbc33b87e	-0.010969279
172	0x3c948dae	0.018133964
173	0xbcd87ce0	-0.026426733
174	0xbd014f40	-0.03156972
175	0xbd4ff567	-0.050771143
176	0xbc888396	-0.016664308
177	0x3d893f4c	0.06701526
178	0xbd04aa92	-0.03238923
179	0x3c3017e6	0.010747885
180	0x3c5b307b	0.013378258
181	0x3aa09eb8	0.0012254333
182	0x3c67de3c	0.014152106
183	0x3cd69ffd	0.026199335
184	0xbce53752	-0.02798048
185	0xbd75a635	-0.05997296
186	0xbd7431c9	-0.05961779
187	0xbcf2e785	-0.029651413
188	0x3cc48d86	0.023993265
189	0x3c9839ad	0.01858219
190	0x3bf138c6	0.0073615042
191	0xbc408379	-0.0117500955
192	0x3c8a884a	0.01691069
193	0xbc726165	-0.0147937285
194	0x3d56ca1b	0.052438837
195	0x3cf222e2	0.029557649
196	0xbc1ef463	-0.009701821
197	0xbd5d6d6d	-0.054059435
198	0x3bd00645	0.0063484036
199	0x3d92351b	0.07139035
200	0xbd105c82	-0.035244472
201	0x3c92f300	0.017938137
202	0x3d04a093	0.032379698
203	0xbcf76aa9	-0.030202227
204	0x3c267e65	0.010161971
205	0x3cd9838e	0.026551988
206	0x3c7a089c	0.015260842
207	0xbc3d56eb	-0.011556367
208	0x3bf47f09	0.007461433
209	0x3d2b3a85	0.041803855
210	0x3b53628a	0.0032254779
211	0x3be4946d	0.0069757015
212	0xbd185b3a	-0.037196375
213	0x3be4cc41	0.006982357
214	0x3d1dbc74	0.0385098
215	0x3c92436f	0.01785442
216	0x3d889199	0.066683955
217	0x3ce469e4	0.027882524
218	0x3ca48e7e	0.020087477
219	0xbc5233f6	-0.012829771
220	0x3d0d905a	0.034561493
221	0xbd5a6101	-0.053315166
222	0x3d97e624	0.07416943
223	0xbd1543ae	-0.036441498
224	0x3cd34102	0.025787834
225	0x3d9cbc80	0.07653141
226	0x3d951007	0.072784476
227	0x3d14777d	0.036246765
228	0xbd73a0b0	-0.059479415
229	0xbce0333c	-0.02736818
230	0x3d340081	0.043945793
231	0x3d603033	0.054733466
232	0xbd50e2f1	-0.05099768
233	0xbd3b8f6d	-0.04579108
234	0x3c8e613c	0.01738035
235	0xbc7577ce	-0.014982177
236	0x3d74a054	0.059723213
237	0x3cf2a808	0.02962114
238	0x3c074eb7	0.008258513
239	0xbc80208b	-0.015640518
240	0xbc2a6c42	-0.010401787
241	0x3c8ab20e	0.016930606
242	0xbd072ca0	-0.033001542
243	0xbd53189f	-0.051537152
244	0x3d205caa	0.03915087
245	0xbd7fc26e	-0.062441282
246	0x3c615b28	0.0137546435
247	0x3d327895	0.043572027
248	0x3d45b479	0.048267815
249	0x3d8c0e1d	0.068386294
250	0xbd504895	-0.05085047
251	0xbc6608d6	-0.014040193
252	0x3ceef80d	0.029171014
253	0x3d559370	0.05214256
254	0x3d991439	0.0747456
255	0x39d2de52	0.00040219963

recurrent.conv_x_h.bias f4 [32]
0	0x3d6b6dc3	0.057477724
1	0x3d635fe6	0.055511378
2	0x3d4a48da	0.049385883
3	0x3d86fb35	0.06590883
4	0xbd183f19	-0.03716955
5	0xbd3a7523	-0.045521867
6	0xbcd2a5e6	-0.025713872
7	0x3d40f375	0.04710718
8	0xbcea7afe	-0.0286231
9	0xbca65e6e	-0.0203087
10	0x3d2f8a3c	0.04285644
11	0xbcc7ca26	-0.024388384
12	0xbc5ab189	-0.013347992
13	0xbc9b72aa	-0.018975575
14	0x3d35556a	0.04427091
15	0xbd3f7228	-0.046739727
16	0xbcf32fe4	-0.029685922
17	0x3d7bc7ca	0.06146983
18	0xbd08871a	-0.033331968
19	0xbd2b70e7	-0.04185572
20	0x3b1b624c	0.0023709713
21	0xbd14d5fc	-0.036336884
22	0x3d4393bc	0.047748312
23	0x3d3f5bf1	0.04671854
24	0x3d3d15f5	0.046163518
25	0x3d1ff2b7	0.03904983
26	0xbcc58490	-0.024111062
27	0xbce31642	-0.027720574
28	0xbc98ca65	-0.018651197
29	0x3d4e2d57	0.05033621
30	0x3d47eeb3	0.048811626
31	0xbcb404c7	-0.021974934

linear.weight f4 [1, 32]
0	0x3da653eb	0.08121475
1	0x3e336266	0.17518005
2	0x3e0000ff	0.1250038
3	0x3dcd4ac5	0.10024027
4	0xbdc2bcee	-0.09508692
5	0xbdb4ce75	-0.08828441
6	0xbde4f450	-0.111794114
7	0x3de4d875	0.111740984
8	0xbe135b23	-0.14390235
9	0xbda4ed95	-0.08053128
10	0x3da1cca3	0.079003595
11	0xbe1be003	-0.15222172
12	0xbe0ea977	-0.13931833
13	0xbe24ca58	-0.16092813
14	0x3e0ba5c8	0.1363746
15	0xbcd9cae6	-0.026586007
16	0xbe068ad7	-0.131389
17	0x3dc071cc	0.09396705
18	0xbd31df13	-0.04342563
19	0xbcde4504	-0.027132519
20	0x3d03dd35	0.03219338
21	0xbdb66270	-0.08905494
22	0x3d4f0465	0.0505413
23	0x3e56acca	0.20964351
24	0x3e0b1af7	0.13584505
25	0x3dd59d07	0.10430341
26	0xbe21810c	-0.15771884
27	0xbe01f491	-0.12690951
28	0xbe0b6e45	-0.13616283
29	0x3db83d7e	0.08996104
30	0x3e14b95a	0.14523831
31	0xbe40783f	-0.1879587
