DCRNN_pearsons_global_cpu.pth (torch, 29592 bytes, 7 tensors)

recurrent.conv_x_z.weight f4 [2, 1, 33, 32]
00000000: c3b5 50be df7c 523f f73b 393e 0a9c ba3e
00000010: f2ae 0e3f da3d 323f ea0b 543f ea09 59be
00000020: 57ea 10bf c9e0 d1be 1ea4 523f b7e5 b83e
00000030: f198 61be 77f1 bebe 6345 d93e 4612 343f
00000040: 7cda 14bf a5bd 5cbe 5658 cabe 8c00 ff3e
00000050: 9735 063f b36e 75be 219c 58be b6b9 d43e
00000060: 4b6c 17bc 7af0 543e 70ad a43e 597d 223e
00000070: fff8 b23e 1d7a 5fbe 1872 8c3f 0b77 31be
00000080: 6ad7 b9bb efde 2c3e 4680 a33d 4aaa 793d
00000090: bc33 033d 5df8 6f3c cd87 8c3e 986b 3abd
000000a0: 8a59 6abe fbdc f5bc 9188 3c3d e1ad ddbb
000000b0: 8043 cb3b af5b 3fbe dfc3 023e ff60 2f3d
000000c0: 04a3 81be 6a7e c73c a9d4 75be 0017 803c
000000d0: 2a0f 11be 8ded f8bd d809 90bd f79a 77bd
000000e0: 4505 563e da62 9ebe c475 933d 7f07 47bd
000000f0: 320f ee3c ceee 453d a5fb a8be 4c8c 85bc
00000100: 2257 573b 3ef8 ebbd 4494 69bd e0f4 293c
00000110: 31b1 843c 5cb6 503c 002e 49be 528f b9bb
00000120: b309 813e b73f 89bc 6e50 cebd 7c8f 313c
00000130: 4cd4 183d ab97 113e bdc4 e2be abe6 02bd
00000140: cf5f 723e c519 cabc 836c ce3d ab89 5c3d
00000150: 337c 393d 969a d8bd fee6 65bc 8658 efbc
00000160: 620d 55be 891e 19bc 004d 15bd 00b2 1e3e
00000170: 3717 f93d 3c89 0dbc 959f d1bc 2e92 b4bc
00000180: fe83 0bbe a2ec 1fbe 4cd4 0ebe 774f 0bbd
00000190: a080 57be fa68 18bd d817 6fbe d00a d0bd
000001a0: d8a4 843e 0edd 3cbc 7d09 08be fbfb 76bd
000001b0: 0c74 04be dc69 0b3e 2905 84be 385a 86bd
000001c0: 54cd 953e 86bd bdbd 4e05 553e 0e4d b83c
000001d0: d6c1 43bd 4aa2 13be 2380 48bd a790 7fbd
000001e0: 240a e3be 8df6 f8bb c004 20be 19ac 4bbe
000001f0: fa97 5ebd e17a c4bd 0663 8b3a 0339 99bd
00000200: 3f6b e4bc b0bd 57bd a45f cfbd 8afa 59bd
00000210: 52af 89be 878b 553d 40c7 0cbe 587d b9bd
00000220: 45c6 aa3e cf9d a13c ff5f 6cbd 737c 493c
00000230: 5193 f0bc 9d61 b63d 43c8 f3bd f703 37bd
00000240: f8c7 a73e 6cff 96bb 1a23 303e 9ec2 2e3d
00000250: 8ffd a53d 19c7 a53d 6fff 2c3c b696 de3d
00000260: d9fe 8fbe aa69 183e 777a 24bd 9522 a1bc
00000270: a417 c2bb c3ed f4bc 57dc 673e 8b14 063c
00000280: 4573 b6bd e506 11bf 2984 10bf f1a5 6ebe
00000290: c886 983e cc57 82be c4f8 0ebf 1a46 4fbd
000002a0: e3c1 babd d00b 22be 0777 17bf 30f6 33be
000002b0: 2fb0 82bc 3d9a 103e 4bc6 fcbe f980 c4be
000002c0: d37e 93bc e2c0 1cbc 0c02 013d d26b 6bbe
000002d0: fc64 443e 93f9 bcbe 36ec 02be 0047 97be
000002e0: 3bcb 51bf 9730 92be eb78 e9be 51ee e23e
000002f0: f94e b6bd 8b9b 06be 8021 e93d 32b4 e8bd
00000300: d80f 2bbd d588 ddbd 96cb 19be 3f9b 48bd
00000310: 5507 ad3d b582 4b3d ed8b 8dbe 26e0 603c
00000320: 4110 4f3e 8c95 973d e6d0 cdbd c417 04bd
00000330: f0ec bc3c 6877 543e 010c c03c 257e cabd
00000340: 25e2 6c3e c601 0e3c 0142 553e 7e5d 033c
00000350: b695 463d efa0 10bd 0440 b93c 871f 9b3d
00000360: 15e3 b5be e4e6 b9bd 578f a7bd e084 503d
00000370: 08b4 9f3d 30bb df3d e32f a93d 0789 163c
00000380: 55c5 083e 221c 52bf 781a a1be 5e5a 49bd
00000390: 0c43 2bbe 1165 82be f6d4 e6bd 6e37 563e
000003a0: f7ba a2bd 02b4 2c3e 1db9 40bf 8cb1 49bd
000003b0: 54f5 bc3c c20b c23e 09bd f0be 4ffa ebbe
000003c0: 6428 283e 9258 ee3d 511b 333e 1d45 a43b
000003d0: ff89 afbd 8986 14bf 40e4 4e3d 3c67 a4bd
000003e0: a304 1bbe 49b6 e3be c5cf cbbe 4308 92be
000003f0: cbc1 793d 363f aabc 378f 48bf 7efb cbbd
-0.20381837 0.8222179 0.18089281 0.36447173 0.55735695 0.6962563 0.8283068 -0.21195188
-0.56607574 -0.4099181 0.8228167 0.3611276 -0.22030999 -0.37293598 0.4243575 0.70340383
-0.5814588 -0.21556719 -0.3952052 0.49805105 0.5242552 -0.2396801 -0.21153308 0.41547936
-0.009242128 0.2079486 0.32163572 0.15868129 0.34955594 -0.21823926 1.0972319 -0.17330568
-0.0056714313 0.16881917 0.079834506 0.060953416 0.03203176 0.014646617 0.27447358 -0.045512766
-0.22885719 -0.030012598 0.046028677 -0.0067651127 0.006203115 -0.18687318 0.12770031 0.042817112
-0.25319684 0.024352271 -0.24006905 0.015635967 -0.14165941 -0.12154684 -0.070331275 -0.06045052
0.20900448 -0.30934793 0.072001964 -0.048591133 0.02905998 0.048323445 -0.3300449 -0.01630225
0.0032858332 -0.11521958 -0.057026163 0.010373324 0.016197773 0.01273879 -0.19646454 -0.005662837
0.25202712 -0.016754014 -0.100739345 0.010837432 0.037311837 0.14218013 -0.44290724 -0.031958263
0.2366936 -0.024670491 0.10079291 0.053842228 0.04528446 -0.1057636 -0.014032124 -0.029217016
-0.20805886 -0.009345659 -0.036450386 0.15497589 0.12162631 -0.008638676 -0.02558879 -0.02204236
-0.1362457 -0.15617612 -0.13948172 -0.03401133 -0.2104516 -0.03720949 -0.2334894 -0.10158312
0.25907016 -0.011527313 -0.1328487 -0.0602989 -0.12934893 0.13614601 -0.25785187 -0.065601766
0.29258215 -0.09264664 0.20802805 0.02249768 -0.04779228 -0.14417377 -0.048950326 -0.06239381
-0.44343674 -0.0075977505 -0.15626812 -0.19889869 -0.054344155 -0.0959375 0.001063437 -0.07481577
-0.02788317 -0.052671134 -0.10125664 -0.05321745 -0.2689157 0.052135017 -0.13747883 -0.090571105
0.33354393 0.01972857 -0.057708737 0.012297737 -0.029367121 0.08905337 -0.11903431 -0.044681516
0.32769752 -0.0046080854 0.1720089 0.04266607 0.08105003 0.080946155 0.010558947 0.108685896
-0.2812412 0.14884058 -0.040155854 -0.01966981 -0.0059232283 -0.02989853 0.22642647 0.008183609
-0.08908705 -0.56651145 -0.5645166 -0.23305489 0.2979033 -0.2545761 -0.55848336 -0.050603963
-0.09119012 -0.15824819 -0.59165996 -0.17574382 -0.015953152 0.14121337 -0.49370036 -0.38379648
-0.01800481 -0.009567471 0.031496093 -0.22990349 0.19179147 -0.3690916 -0.1278542 -0.29546356
-0.8195073 -0.28552696 -0.45600066 0.44322446 -0.089017816 -0.13145272 0.11383343 -0.113624945
-0.041763157 -0.10817114 -0.15019068 -0.04897618 0.08448664 0.0496852 -0.27645817 0.013725316
0.20221044 0.07401571 -0.1004961 -0.032249227 0.0230622 0.20748675 0.023443224 -0.098873414
0.23133142 0.008667415 0.2082596 0.008017896 0.04848262 -0.03530973 0.022613533 0.07574373
-0.35524812 -0.09077242 -0.08181637 0.05090797 0.0779801 0.10924375 0.08261087 0.009187943
0.13356526 -0.8207418 -0.31465507 -0.049158446 -0.16724795 -0.25467733 -0.11271088 0.20919582
-0.07945817 0.16865543 -0.7528246 -0.049241588 0.0230662 0.37899595 -0.47019222 -0.46089408
0.16421658 0.11637987 0.17490889 0.0050131218 -0.085712425 -0.58017784 0.050510645 -0.08027503
-0.15138488 -0.4447501 -0.39806953 -0.28521928 0.06097583 -0.020782094 -0.7834353 -0.09960078

recurrent.conv_x_z.bias f4 [32]
00000000: a357 0e3e 1c08 6fbe 31ab a83d 6960 1a3e
00000010: 5c4b 063f b3da c5be d3a7 27bf 58ae de3d
00000020: 8cc2 69bf 7e8f 2dbe 5cdf c4be 92d4 f3bd
00000030: cc57 643e e536 50bc 3e2f 953f 2bab d9bd
00000040: 7c3f 52bf 7ae2 573e a757 61be 28dd a6bd
00000050: 7ac4 02be 6179 65bd 7bad 133d 6fad b6bd
00000060: fd86 02c0 1771 c1bf a7e7 f93d b6c8 653f
00000070: 6175 0cbe 2e85 193f 86c7 3ebf 001a 203e
0.13900618 -0.23342937 0.08235777 0.1507584 0.5245874 -0.38643417 -0.65490454 0.10873097
-0.9131248 -0.16949269 -0.3845166 -0.11905779 0.22299117 -0.0127084 1.1655042 -0.10628351
-0.8212812 0.21082488 -0.22006093 -0.08147651 -0.12770262 -0.05602396 0.036054116 -0.089197986
-2.039489 -1.5112637 0.12202387 0.89759386 -0.13716651 0.5996884 -0.745232 0.15634918

recurrent.conv_x_r.weight f4 [2, 1, 33, 32]
00000000: 175c d4bd bd4f 973d 0f2d 33be 6f09 91bd
00000010: 5823 a7bd d96c ca3d 5dae 8d3e 7abe 84bc
00000020: a8b8 62bd fd96 1e3e 8aec be3d 5a58 03be
00000030: 39d7 1dbe 72a7 88bd 1512 6ebc 3270 41bd
00000040: 45c2 60be ed00 13be 5529 41be 19c1 c5bd
00000050: 98df 993d 29b1 01be c391 a3bd 16c9 64bc
00000060: 7826 08be 0054 a13e 7798 e5bd dbf1 b8be
00000070: 88e6 51be ffdf dcbd 322e 683e 0f08 dabd
00000080: 4b18 54bd 3e70 f83c 3b97 d9ba d22b 05bd
00000090: 4f19 2ebc f89c e73d fd09 923c c8ac c0bb
000000a0: 18c4 083e bad2 ed3d d30a ba3d ede0 273d
000000b0: b9ac 87bc b681 a43b 817f ecbd 7efe 483d
000000c0: 77bf f23d 8483 01bd 442d 853d 9fc1 10bc
000000d0: e6d6 093b 5870 473d e62c bc3b fcd9 90bc
000000e0: 7c4a 3dbe b0bc 263e 6816 24bd 742e b13b
000000f0: 9042 dd3c 984c b83d c0a8 c63d 52ff b3bc
00000100: 7fcd b6bc b2b1 20bd 4059 4dbc 1ee9 83ba
00000110: 1e78 073d 5123 52bd b871 72bd 81ab 5c3c
00000120: 6ba2 99bc 8602 8ebd d244 d2bd 413f 31bd
00000130: 3c57 59bd 44a3 66bb e854 303e 8b6b 47bd
00000140: cf6f acbd 0545 88bb a69f 3abd 5217 00bd
00000150: 574c 30bd bf79 71bd 3c29 13bd cbb3 babc
00000160: ee11 273e 8f5e 093e 8043 06bd 2e4e 85bd
00000170: 838f 2abd d0f1 30bd cf3f c9bd 7cfa 12bd
00000180: 168f c53c f67f 7ebd bc1a 513c 640a 513c
00000190: 2fd0 413b 8fa5 e0bd e3a5 cdbd 7a90 b6bc
000001a0: 67f8 d4bd 14e5 d1bd 092c e2bd e8b5 82bd
000001b0: 545e a83c dd50 13bd 318c 123e 9087 dcbb
000001c0: acb6 cebd c2a6 25bc 0fbe 1bbc a07e 80bd
000001d0: 4c3b c3bd 0eb1 47bd a658 b83c 5579 5abd
000001e0: 95f0 bc3d 7afe 663d ec49 9536 cb7b a73b
000001f0: 2f5b c73c ca3b a4bd 4124 f9bd 2133 97bc
00000200: 4f5e 503c b181 aabd a4c8 96bc fb79 a33b
00000210: 0428 3f3c d5bf 2fbd 9f88 48bd f66b 53bd
00000220: a394 b6bd fd9e dcbd affe 9dbd 25bd c13b
00000230: 25fa 63bc 2df1 c9bc 3d6f c23d 1c1e 61bd
00000240: e3e3 a3bd ce44 403d fe3e dcbc be2e 4dbd
00000250: f5d5 c2bd 8c10 973c 3f94 11bd 6b85 4fbd
00000260: cae5 c83d fb72 893c d7a0 80bc be75 dcbc
00000270: 049f af3c 6d3b 85bb 92e1 debd 46c3 fb3c
00000280: 9667 0c3e 5354 853c eb60 843d a278 133e
00000290: db0b 4a3e 6aaf 013e 65fa 123e dd27 343e
000002a0: 60c4 1b3e c562 1ebd e110 0e3e 86da 253e
000002b0: d151 f13d 5e12 273e d66e 4c3d aece aa3d
000002c0: 3075 523e b5c6 d43d 6803 013e 665c c23d
000002d0: aeb0 283e 666d e53d f605 c83d bcfc 363e
000002e0: 66a0 433e 8816 0e3e 0846 b33d 1bf3 4d3e
000002f0: f9ed 933d 73ee 803d 5264 8d3e b1e1 a33d
00000300: fa46 f73c f145 d3bd 99c0 303b 124f c2bb
00000310: 309f 843c 76e6 c1bd 738e 54bd 08de 9bbc
00000320: 56ea debc 408d b4bd 9741 d9bd 3f3f 52bc
00000330: 0a2e 74bd 3088 cb3c 4a52 233e f107 ddbc
00000340: 0b30 d6bc 626e 28bd 1e3d f3bc 10df 11bd
00000350: 3ed9 55bd 82ef 5cbd 22ba 1c3c 9890 e1bc
00000360: 7132 233e c934 853d 4199 75bd fc91 d3bc
00000370: 2a53 69ba eea2 40bd 146c afbd 21dc 98bc
00000380: d41c d33d f6c0 763d 9da3 283e 67ef d73d
00000390: 2238 213e 1ce3 2b3e 7575 9a3d 961d d03d
000003a0: a9b8 89bc 8e86 803d 6898 9a3d 645e 303e
000003b0: 08b8 713e 531c 023e 793e a93d 54ec 3f3d
000003c0: 29f6 1d3d 0cd3 f53d 070b 4d3e 1a77 053e
000003d0: f99b d73d c1d5 323e 8bce a13d 199c 0e3e
000003e0: 6418 123e cb4e 153e 911c 283e dd0e 373e
000003f0: 1126 693e 9586 e9bc 4d0a 233e 0b19 4e3e
-0.10369127 0.07388256 -0.17497657 -0.070818774 -0.08161038 0.09884042 0.2767209 -0.016204108
-0.055351883 0.15487285 0.0932246 -0.12826672 -0.15414132 -0.06672563 -0.014530678 -0.04722614
-0.21949108 -0.14355822 -0.18863423 -0.09655971 0.0751335 -0.12665237 -0.07986786 -0.013963958
-0.13295925 0.315094 -0.11210721 -0.3612202 -0.20498097 -0.10784911 0.22673872 -0.10646068
-0.05178098 0.030326959 -0.0016600856 -0.032512493 -0.010626151 0.11309236 0.017827028 -0.005879972
0.13356054 0.116124585 0.09084096 0.04098599 -0.016561853 0.0050203456 -0.11547757 0.049070828
0.11852925 -0.031619564 0.06502774 -0.008835225 0.002103263 0.048691124 0.005742657 -0.017682068
-0.18485445 0.16282916 -0.04006043 0.005407149 0.027009279 0.08998984 0.09700155 -0.021972332
-0.022314785 -0.039231963 -0.012533486 -0.0010063981 0.033073537 -0.05130321 -0.059190482 0.013468624
-0.018754205 -0.06934075 -0.10267033 -0.043273214 -0.05306171 -0.0035192529 0.17219889 -0.048686545
-0.08419763 -0.0041586184 -0.04556241 -0.03127224 -0.043041553 -0.058953997 -0.035927996 -0.02279081
0.16315433 0.13414977 -0.032779217 -0.06509052 -0.04164077 -0.04319936 -0.09826624 -0.03588341
0.02411608 -0.06213375 0.012762722 0.012758825 0.002957355 -0.10969078 -0.10041406 -0.022285689
-0.103989415 -0.10248771 -0.11043555 -0.06382352 0.020552792 -0.03596579 0.14311291 -0.0067300275
-0.10093436 -0.010110559 -0.009505763 -0.06274152 -0.09532794 -0.048752837 0.022503208 -0.053338367
0.09225575 0.05639503 4.4491517e-06 0.005111193 0.024335472 -0.08019216 -0.12165118 -0.018456997
0.012717797 -0.08325518 -0.01840622 0.0049889064 0.011667255 -0.042907555 -0.048958417 -0.05161663
-0.08915069 -0.10772512 -0.07714593 0.0059124404 -0.01391462 -0.024651134 0.09493873 -0.054960355
-0.0800245 0.046940617 -0.026885506 -0.050093405 -0.09513465 0.018440507 -0.03554177 -0.050664347
0.09809454 0.01677846 -0.015701694 -0.026911613 0.02143813 -0.004065922 -0.10882868 0.030732762
0.1371139 0.01627556 0.06463798 0.14401487 0.19731085 0.12664571 0.1435333 0.17593332
0.1521163 -0.038668413 0.13873626 0.16196641 0.11783183 0.163156 0.04991039 0.08340202
0.20552516 0.10389463 0.12598956 0.0949028 0.16473648 0.11202507 0.09766762 0.17869848
0.19104156 0.13875782 0.08753592 0.20112269 0.07223124 0.062954806 0.276156 0.080020316
0.030185211 -0.10316075 0.0026970266 -0.005929836 0.016189188 -0.09467785 -0.051893663 -0.019026771
-0.02721135 -0.08816004 -0.106082134 -0.012832462 -0.05961422 0.024845213 0.1594936 -0.026981326
-0.026145956 -0.041120894 -0.029692229 -0.03561312 -0.05220913 -0.05393935 0.009565862 -0.027534768
0.1593721 0.065042086 -0.059960607 -0.025826447 -0.0008900637 -0.04703038 -0.08565536 -0.018659653
0.10308233 0.060242616 0.16468664 0.10543709 0.15744069 0.16785854 0.075419344 0.10161893
-0.016811686 0.06275664 0.075486004 0.17223507 0.23605359 0.12706117 0.08263869 0.04685624
0.038564835 0.120031446 0.20023738 0.13033715 0.10527796 0.17464353 0.07900723 0.13926734
0.14267117 0.14580838 0.16417147 0.17876764 0.22768427 -0.028506557 0.15921898 0.2012674

recurrent.conv_x_r.bias f4 [32]
00000000: c666 68bd 512a a0bd af21 f6bc 78a6 fcbb
00000010: 41db 17be 4496 96bd a1f7 a3bd 38c5 8cbd
00000020: 7b7a f1bd 9b08 21bd 9f0b b9bd 5255 6abd
00000030: a7b2 2f39 617e 89bd 3a8a a3bd 1ba6 73bd
00000040: 64ef 0fbe fe4e cd38 afcb 7dbd 414f 7ebd
00000050: a906 a4bd 11cc 7dbb dba9 82bd fa0f 19be
00000060: 3c01 32be 5e04 713c 2e26 b7bc de42 cbbd
00000070: 4abf 5dbd f48a 0abd dd39 e6bd b026 96bc
-0.056738637 -0.07820571 -0.030045358 -0.0077102743 -0.14829732 -0.0735288 -0.08006216 -0.06873554
-0.117909394 -0.039314847 -0.0903542 -0.057210274 0.00016755854 -0.06713558 -0.07985349 -0.059484582
-0.14056164 9.789875e-05 -0.061961826 -0.0620873 -0.08009083 -0.003872637 -0.063800536 -0.14947501
-0.17383283 0.014710514 -0.022357073 -0.09924863 -0.054137506 -0.033823922 -0.11241505 -0.018328995

recurrent.conv_x_h.weight f4 [2, 1, 33, 32]
00000000: b6d8 4e3e d80a 2fbe d313 5ebe 5fdb 5fbe
00000010: ddcf f5bd 9383 31be fb55 52be 013c 583e
00000020: 16d7 923d 4503 003e fbca 14be 0ab4 59be
00000030: 7924 6f3e 6f6d 343e 5510 8fbd d72b 5dbe
00000040: 1371 343e efde 543e ac69 653e 8fea 2fbe
00000050: 3af0 48be 383d 513e 4a6e 6a3e 45bb 1dbe
00000060: 9ed3 debd 92d8 9f3c f309 67be 8959 4c3e
00000070: 1b65 3fbe 52f3 4d3e ad73 82be 2e14 573e
00000080: 1da1 1abd faaf dcbc 32f0 0fbd c0f3 cc3c
00000090: 03ae f2bd 57a8 7e3c 31ad 393c 83e4 28bc
000000a0: 554e edbc 950e 7f3c eadf 0ebd 24fb c03a
000000b0: 1594 85bd f8a3 97bd fdef 303c 72d6 3b3d
000000c0: d7f9 46bd 2845 95bd f067 d3bd 218f 14bd
000000d0: a9ae a7bc 0e03 9abd 5b91 b9bc f0ad b0bd
000000e0: f120 dd3d 4b65 0a3e 10fb 113d 81af c9bd
000000f0: e25d 57bd f883 e3bd c3c1 393d 433e 9fbd
00000100: 1b4f 863b cdaa c7bd 15dc 3ebd 62bb 0fbd
00000110: 32dc 863d 2bb1 6c3a a711 a93d ad7d 8fbc
00000120: 7c84 d53d 820d 0c3d 1ee8 1fbc 7cde 86bc
00000130: 7d9a 013c 0922 0abc edc3 1e3e 5080 b6bc
00000140: 1613 c83d b7a1 8dbb 6e35 3cbc acf7 1fbd
00000150: 4035 b7bd 4349 20bc 332b 7a3b 80a5 2fbb
00000160: bf6b bbbd 8f5c 30bd 1f13 dbbc 66f8 373d
00000170: 9777 6ebd 0b89 17bd 74cc 2dbd 32f9 3dbd
00000180: f50b 2d3c 875a 4e3d 61bc 243d 3e01 18bd
00000190: cffc 833d f1f4 ba3c 9d2b c83d acd4 59ba
000001a0: 06e9 8f3d d15a b13c e103 b7b9 da97 273d
000001b0: eddb 7abb 1119 af3c 3c63 323d f770 383c
000001c0: 55f2 5d3d 547b 553c aafe 143c fc23 8f3b
000001d0: a25e 163d 42b1 793d 6e34 213d c300 cb3d
000001e0: 6fbd 623b 3098 e3bd 7efa f33c 6185 9d3b
000001f0: a94f 283d 2fdc 203d 78e1 42bc f59e 8cbc
00000200: 60a7 a63c 6b44 c93c e51c fa3c 099a b53c
00000210: be62 b83d dfc8 d23b 08da 9e3d 9936 2fbd
00000220: f878 633c 77f7 d5bc 325a 123d d596 bb3c
00000230: 8d0c 1b3d 6c68 5abd 7afe 8c3d 921a 25bc
00000240: d7ab 9b3d bae8 31bc 9666 16bb 4a61 4538
00000250: 226d 7e3d 84ed f23b a0dc 233d 9c02 833d
00000260: b946 8dbd cc43 f2bd 3cf6 d33c 17f1 933d
00000270: 4466 e83c e912 163c b131 9d3c 85a2 25bd
00000280: ae40 833d 06aa 103d 7bf4 73bd a7e2 12bd
00000290: 569a 05be 5cd4 d5bc 2119 87bd 824f fe3d
000002a0: b090 99bd 7549 153d 8e70 383c 43f8 06bd
000002b0: 1f43 ba3d 0710 c23d 4fad d43d dc9e 03bd
000002c0: 5ea6 86bd a564 aa3d ac6e 48bc 2040 53bc
000002d0: 9eb7 8ebd d966 c03d dec1 813d 18be d4bd
000002e0: 9322 88bd f56a adbd f622 78bd 5518 8dbd
000002f0: 1871 90bd 1310 95bc 7266 2c3c 4cfe 6f3d
00000300: 713c bebc ced6 70bd 864e 29bd 2bc9 7fbd
00000310: 7189 f0bc 122b c9bd f954 cb3d b668 a53c
00000320: d6a3 e33d ff21 1ebd 3e5b 8fbd d36a edbd
00000330: a0af aabc 2e03 c3bb c87a eb3d ec82 84bd
00000340: 3d0c 493d 1272 a3bc e33a 483d badb d6bd
00000350: 5f55 b2bd 4c74 c23c 5e7b 6e3b 5962 babc
00000360: 9f69 8dbd 1080 6fbd 5bba 03bd 665f 0fba
00000370: a530 b5bd 36a5 68bc e1ab 7ebd 8321 c8bc
00000380: 77b3 18bd 84cf 4fbe 1813 17be 07f4 aabd
00000390: 10e4 c6bd 5c94 38be 190d 18be 15a5 57bd
000003a0: 9ff0 08be b20c b7bd 3609 4fbe 5b75 e0bd
000003b0: 3a3d ac3c 7898 2ebd a3e7 a7bd 5b49 a1bd
000003c0: 0a06 7fbd bd5d adbc 9735 2a3d b111 fdbd
000003d0: 9ec4 b6bd 86c7 eeba d510 c9bc f8f5 a1bd
000003e0: 66fd 24be 9e44 bcbd 0a82 92bd 0e41 91bd
000003f0: 29a8 42be ec55 793d d3a2 a0bd 0301 af3c
0.20199856 -0.1709398 -0.2168725 -0.21861027 -0.120025374 -0.17335348 -0.20540611 0.2111664
0.07169931 0.12501247 -0.14530556 -0.21260086 0.23353757 0.1761987 -0.06985537 -0.21598755
0.1762126 0.20788167 0.22403592 -0.17179321 -0.19622889 0.2043351 0.22893634 -0.15403469
-0.108802065 0.019512448 -0.22562389 0.1995603 -0.18690912 0.2011235 -0.2547888 0.21003792
-0.037751306 -0.02693938 -0.035141177 0.025018573 -0.11849596 0.015543065 0.011332796 -0.010308388
-0.028968016 0.0155674415 -0.03488151 0.0014723283 -0.06522385 -0.074043214 0.010799405 0.045858808
-0.04857811 -0.07288581 -0.10322559 -0.03626931 -0.020469027 -0.07520114 -0.022652319 -0.08626926
0.10797299 0.13515203 0.035639822 -0.09847928 -0.052579768 -0.111091554 0.0453508 -0.07775547
0.0040987856 -0.097493745 -0.046596605 -0.03509081 0.06584968 0.00090290856 0.0825532 -0.017515982
0.1042566 0.03419257 -0.009759931 -0.01646351 0.007910368 -0.008430966 0.15504427 -0.022277981
0.09769265 -0.0043222564 -0.011487348 -0.039054558 -0.089457035 -0.009783092 0.0038172721 -0.0026801527
-0.0915141 -0.04305702 -0.026742516 0.044914626 -0.05821952 -0.03699593 -0.04243131 -0.04638023
0.010561933 0.050379302 0.040218715 -0.03711056 0.06444704 0.022821875 0.097739436 -0.00083095836
0.070268676 0.02164975 -0.0003490737 0.0409163 -0.0038278059 0.021374257 0.04355167 0.011257402
0.054186184 0.013029892 0.00909392 0.0043683033 0.036711343 0.06096006 0.03935664 0.09912255
0.0034597775 -0.11113012 0.02978253 0.00480716 0.041091595 0.039272483 -0.011894576 -0.01716564
0.020343482 0.024568757 0.030531356 0.022168176 0.090032086 0.006432637 0.0775643 -0.042776678
0.013883822 -0.026118977 0.03573055 0.02289907 0.037853766 -0.05332224 0.06884475 -0.010077136
0.07601135 -0.010858709 -0.002294933 4.7059068e-05 0.062115796 0.007413568 0.040005326 0.06396982
-0.06898255 -0.118293375 0.02587425 0.072237186 0.028369077 0.009159782 0.019188734 -0.040438194
0.06408821 0.035318397 -0.059559327 -0.035860684 -0.13047156 -0.026102237 -0.0659659 0.12417509
-0.074983 0.036447007 0.011257304 -0.032951605 0.090948336 0.09475713 0.103846185 -0.032133922
-0.06574701 0.08319978 -0.0122334175 -0.012893707 -0.06968616 0.09394617 0.06335805 -0.1038782
-0.066472195 -0.08467666 -0.060580216 -0.068894066 -0.07052821 -0.018196141 0.010522472 0.058592126
-0.02322218 -0.058798604 -0.04133465 -0.062447708 -0.029362412 -0.09822668 0.099283166 0.020191532
0.111152336 -0.03860664 -0.06999825 -0.11592641 -0.020835698 -0.005951307 0.11498028 -0.06470284
0.049083937 -0.019951854 0.048884284 -0.10491128 -0.087076895 0.023737095 0.003638945 -0.022751974
-0.06904911 -0.05847174 -0.032160144 -0.00054692326 -0.08847169 -0.014199546 -0.062175635 -0.024430042
-0.037280526 -0.20294005 -0.14753377 -0.08347326 -0.09711468 -0.18025345 -0.14848746 -0.05264767
-0.1337304 -0.08937968 -0.20218357 -0.10959884 0.021025289 -0.042625874 -0.08198478 -0.078753196
-0.06226162 -0.021162862 0.041555014 -0.1235689 -0.089242205 -0.0018217422 -0.024544159 -0.07908243
-0.16112289 -0.09192775 -0.07153709 -0.07092486 -0.1900946 0.060872957 -0.07843556 0.021362787

recurrent.conv_x_h.bias f4 [32]
00000000: faaa 8a3d 868b 113c f698 fa3c 6a77 1bba
00000010: eecc 173b 3ab0 843d dc88 e63c ff42 ae3d
00000020: a266 aa3d edf7 5ebc 437c 373d 7620 6f3d
00000030: ee13 ddba 2bf3 fc3c c682 173c b126 223d
00000040: 3668 a33d 1385 e1bc c4a5 303c 295f 803d
00000050: c0b8 983d 717a a3bb e8fd 7a3d da7b f7bc
00000060: 81ef c73d 5d5e f0bd 079a 4a3c 1cf1 5e3c
00000070: 6a20 683d a564 15bd 443c ff3d a2bd 143c
0.067708924 0.008883363 0.030590516 -0.0005930575 0.002316292 0.06478925 0.028141432 0.08508872
0.08320357 -0.013608915 0.04479624 0.058380567 -0.0016866901 0.03087767 0.009247487 0.03958768
0.07978861 -0.027529275 0.010781709 0.0626815 0.07457113 -0.0049889614 0.0612773 -0.030210424
0.097624786 -0.11736748 0.012365825 0.01360729 0.056671537 -0.036472935 0.12462667 0.009078415

linear.weight f4 [1, 32]
00000000: 3db2 c13e f939 12be f158 31be c3d3 c4bd
00000010: e4da cebe dc65 5ebe 36bc 71be dd4d bb3e
00000020: 2cf4 793e 224e b43e 72aa 57be 8547 85be
00000030: 316c 9c3e 924e ac3e 0981 7abe 5027 0fbe
00000040: b5c6 333e 6dc0 a13e 70f0 6f3e f6fa 5cbe
00000050: 3332 94be d8ce 973e 3f92 c03e 72fd b9be
00000060: 5fd7 c7bd c108 123e 1ab9 03be 2d5f b73e
00000070: 7044 7fbe 5ea2 d13e 2f9a 03be 344c b63e
0.37831298 -0.14279927 -0.17319085 -0.09610703 -0.40401375 -0.21718544 -0.23606953 0.36582842
0.2440955 0.3521586 -0.21061113 -0.26031128 0.30551293 0.33653694 -0.24463286 -0.1397984
0.1755627 0.31592122 0.23431563 -0.21580109 -0.2894455 0.29649997 0.37611577 -0.36326176
-0.09757876 0.14261152 -0.1286358 0.358148 -0.2492845 0.4094419 -0.12851785 0.35605013
