dcrnn_best_model.pth (torch, 201196 bytes, 7 tensors)

recurrent.conv_x_z.weight f4 [2, 1, 128, 64]
0.04921086 0.038724076 0.066639975 0.04487038 0.079393186 0.09122941 -0.06788108 0.06473497
-0.040804807 0.06028366 -0.0831631 -0.046704553 0.10170376 -0.095402 -0.033124335 0.105695315
-0.054046873 0.034812536 -0.023033747 0.08611104 0.029064745 0.035308056 0.07879947 0.015951045
-0.055703074 -0.041867167 0.07910978 0.008051841 -0.00554593 -0.00040468923 0.04722763 -0.072975
0.084381655 0.029683113 0.0961159 -0.052793577 0.0751168 0.011486797 -0.0340715 0.077849865
0.086753085 0.055719867 0.11087508 0.033829715 0.029614625 0.029156007 0.0536942 0.0489544
-0.03800746 0.06523666 -0.064598866 0.030851662 0.08425974 0.01744163 0.03469879 -0.009616477
-0.062313393 0.048559103 0.06990742 0.074697375 0.07941377 0.06767866 0.06620107 -0.04947553
0.06931954 0.034736503 0.075564496 0.050286517 0.05199647 0.061724816 -0.06458511 0.04488064
-0.048708312 0.043893393 -0.0943536 -0.046689283 0.080101244 -0.076950535 -0.035019554 0.1092331
-0.05467629 0.029410958 -0.0025298842 0.08434438 0.024658266 0.02932155 0.08886948 0.035006642
-0.030007647 -0.056466885 0.07971471 0.026297284 0.015746357 -0.0076082516 0.049146954 -0.07155225
0.078246914 0.012539024 0.083968766 -0.059598178 0.054080587 0.032275036 -0.04620617 0.08342463
0.08175313 0.070172854 0.091032684 0.05495236 0.027744599 0.06186645 0.052520484 0.059475012
-0.029036473 0.08503519 -0.045113873 0.04291143 0.07894811 0.03089291 0.028382216 -0.026350439
-0.0700868 0.02929098 0.05598412 0.0733218 0.06913532 0.06301235 0.05243504 -0.070141755
0.050999165 0.047410555 0.085833475 0.04604495 0.07846746 0.095091216 -0.06704129 0.059183095
-0.06882496 0.02969891 -0.09516665 -0.06980224 0.11330797 -0.092618026 -0.038206287 0.12872371
-0.045829322 0.04099073 -0.010142995 0.090068445 0.023026275 0.03655192 0.1084915 0.030645628
-0.067721754 -0.05963718 0.08049233 0.023741502 -0.010486696 0.01259903 0.051796097 -0.09659666
0.07711804 0.02538127 0.10184638 -0.05009194 0.10301353 0.03679606 -0.032653518 0.08692323
0.07547799 0.06894341 0.09720559 0.05084986 0.04209733 0.030467913 0.07190199 0.0600435
-0.062211826 0.07342901 -0.058481783 0.029419353 0.07387693 0.04407702 0.020374333 0.0028311438
-0.07210977 0.0389947 0.078803435 0.06736236 0.100143425 0.077299826 0.0831547 -0.053332187
0.0546934 0.034651786 0.06858686 0.03923087 0.046132486 0.0605658 -0.045900103 0.0477784
-0.05921286 0.037256565 -0.09881157 -0.064546056 0.052457888 -0.079900265 -0.042941954 0.111900344
-0.06595291 0.036887575 -0.0035736088 0.08117 0.02273813 0.033805218 0.06058509 0.02408451
-0.036334697 -0.06822907 0.0758816 0.025723195 0.032483388 0.010251392 0.048547883 -0.08794944
0.06458051 0.008167706 0.06573288 -0.033232454 0.06975684 0.025987253 -0.033467054 0.08158224
0.07760803 0.064842865 0.057490982 0.062054403 0.04657142 0.041717645 0.041919567 0.043739393
-0.03630046 0.07196143 -0.06490611 0.050582293 0.06951294 0.027881058 0.04409794 -0.055352584
-0.06984413 0.0331497 0.045630094 0.08312747 0.041698 0.06271645 0.05683928 -0.07588814
00000000: 5491 493d 239d 1e3d 8a7a 883d 01ca 373d
00000010: e598 a23d 7cd6 ba3d 3c05 8bbd c593 843d
00000020: f122 27bd 00ec 763d 6a51 aabd 464d 3fbd
00000030: 104a d03d 2062 c3bd 62ad 07bd c976 d83d
00000040: 4160 5dbd 9797 0e3d 45b1 bcbc fc5a b03d
00000050: 3019 ee3c 2e9f 103d 9e61 a13d c4ab 823c
00000060: e828 64bd e87c 2bbd 4f04 a23d deeb 033c
00000070: a2ba b5bb 782c d4b9 c271 413d eb73 95bd
00000080: 4ad0 ac3d 002a f33c 6ad8 c43d 143e 58bd
00000090: d6d6 993d 1e33 3c3c 8f8e 0bbd c06f 9f3d
000000a0: 9aab b13d 843a 643d 7912 e33d 0791 0a3d
000000b0: 5f9a f23c 94d8 ee3c 73ee 5b3d 6984 483d
000000c0: b6ad 1bbd cc9a 853d 694c 84bd a0bc fc3c
000000d0: 5f90 ac3d c0e1 8e3c 5220 0e3d 6e8e 1dbc
000000e0: 543c 7fbd e9e5 463d 9f2b 8f3d f0fa 983d
000000f0: b0a3 a23d 1c9b 8a3d 6d94 873d daa6 4abd
00000100: 67f7 8d3d dd47 0e3d 8fc1 9a3d 3cf9 4d3d
00000110: 40fa 543d 29d3 7c3d 3345 84bd c3d4 373d
00000120: 5e82 47bd 8fc9 333d 763c c1bd 433d 3fbd
00000130: 1f0c a43d 3e98 9dbd aa70 0fbd 9bb5 df3d
00000140: 3ff4 5fbd 40ef f03c 6acc 25bb bfbc ac3d
00000150: 2200 ca3c bf33 f03c 3401 b63d 2063 0f3d
00000160: 99d2 f5bc d249 67bd 7741 a33d 676d d73c
00000170: 81fe 803c a44e f9bb 514e 493d fc89 92bd
00000180: eb3f a03d 7b70 4d3c d1f7 ab3d 381d 74bd
00000190: 9b83 5d3d d432 043d ae42 3dbd 88da aa3d
000001a0: 2f6e a73d c9b6 8f3d 586f ba3d ba15 613d
000001b0: a448 e33c ad67 7d3d b81f 573d 129c 733d
000001c0: e6dd edbc ee26 ae3d 53c9 38bd e5c3 2f3d
000001d0: 8caf a13d 2113 fd3c d281 e83c e0dc d7bc
000001e0: ab89 8fbd a3f3 ef3c 9b4f 653d bd29 963d
000001f0: d296 8d3d 9e0c 813d 20c6 563d 7ba6 8fbd
00000200: 80e4 503d 9231 423d 76c9 af3d a199 3c3d
00000210: 8cb3 a03d 2fbf c23d f24c 89bd f969 723d
00000220: 1af4 8cbd 214b f33c bce6 c2bd 7af4 8ebd
00000230: 020e e83d 85ae bdbd 327e 1cbd 26d0 033e
00000240: 87b7 3bbd e5e5 273d ce2e 26bc ce75 b83d
00000250: 99a1 bc3c 77b7 153d cb30 de3d 8a0c fb3c
00000260: b4b1 8abd 1e46 74bd 2ad9 a43d 8a7d c23c
00000270: 64d0 2bbc 296c 4e3c 2528 543d 78d4 c5bd
00000280: 10f0 9d3d 62ec cf3c d694 d03d 352d 4dbd
00000290: c2f8 d23d 77b7 163d b2bf 05bd ce04 b23d
000002a0: 3494 9a3d 3432 8d3d b913 c73d f147 503d
000002b0: 406e 2c3d d897 f93c 5a41 933d 2cf0 753d
000002c0: d4d1 7ebd f361 963d 988a 6fbd db00 f13c
000002d0: ca4c 973d 1b8a 343d 13e8 a63c b68a 393b
000002e0: 49ae 93bd e8b8 1f3d b263 a13d 47f5 893d
000002f0: ff17 cd3d 5f4f 9e3d 034d aa3d da72 5abd
00000300: 3006 603d 08ef 0d3d 4577 8c3d 8cb0 203d
00000310: 6bf5 3c3d d813 783d bf01 3cbd 49b3 433d
00000320: 2f89 72bd 579a 183d b85d cabd b930 84bd
00000330: 15de 563d c0a2 a3bd e7e3 2fbd 022c e53d
00000340: 5212 87bd 6d17 173d 3533 6abb 753c a63d
00000350: 5145 ba3c 5777 0a3d 1228 783d e14c c53c
00000360: b1d3 14bd afbb 8bbd d067 9b3d 73b9 d23c
00000370: 4d0d 053d 74f5 273c 25da 463d d61e b4bd
00000380: c942 843d d8d1 053c f69e 863d c11e 08bd
00000390: addc 8e3d 38e3 d43c c014 09bd 9714 a73d
000003a0: f5f0 9e3d 56cc 843d aa7b 6b3d c22c 7e3d
000003b0: acc1 3e3d 1fe0 2a3d dab3 2b3d 1428 333d
000003c0: cbaf 14bd 8460 933d 7fed 84bd 612f 4f3d
000003d0: cd5c 8e3d d166 e43c 0ba0 343d 64b9 62bd
000003e0: 700a 8fbd fbc7 073d 9fe6 3a3d bc3e aa3d
000003f0: 86cb 2a3d 7b71 803d 4ed0 683d 3e6b 9bbd

recurrent.conv_x_z.bias f4 [64]
0.1370016 0.13378222 0.11752951 0.091240056 0.10098648 0.08371501 0.08309676 0.1277965
0.102555454 0.06394589 0.14143729 0.1434373 0.095798895 0.17375077 0.064028315 -0.14708674
0.11785362 0.115260646 0.06378132 -0.13707238 0.07434559 0.13091727 0.09027733 0.060116556
0.1567945 0.045348283 0.1186679 0.13554157 0.15437207 0.18496156 0.1860005 0.12258379
0.12801504 0.050915893 0.08490631 0.18399115 -0.123952 0.10750128 0.08301576 0.15281816
0.12435434 0.13197844 0.0886203 0.14074795 0.12709384 0.25438446 0.10421366 0.09419936
0.16181433 0.1023412 0.14855926 0.083026186 0.11628076 0.10788149 0.09908771 -0.023870775
0.17628312 0.1560554 0.092399694 -0.012297951 0.07894562 0.10990761 -0.084577896 0.0728109
00000000: 264a 0c3e 35fe 083e 50b3 f03d 11dc ba3d
00000010: 00d2 ce3d c672 ab3d a22e aa3d 16dd 023e
00000020: 9808 d23d 10f6 823d f0d4 103e 3ae1 123e
00000030: 3632 c43d b9eb 313e 4721 833d e89d 16be
00000040: 3d5d f13d c60d ec3d c89f 823d b45c 0cbe
00000050: 8042 983d 2d0f 063e 52e3 b83d c73c 763d
00000060: bd8e 203e 1fbf 393d 2808 f33d 69cb 0a3e
00000070: b613 1e3e 9066 3d3e ea76 3e3e 360d fb3d
00000080: 6016 033e 2f8d 503d 5ce3 ad3d 2d68 3c3e
00000090: 8cda fdbd a229 dc3d 2b04 aa3d 5d7c 1c3e
000000a0: 7dad fe3d 5b25 073e 8f7e b53d 3b20 103e
000000b0: e324 023e ae3e 823e f96d d53d 98eb c03d
000000c0: a8b2 253e 4398 d13d eb1f 183e a209 aa3d
000000d0: 9b24 ee3d f8f0 dc3d 7fee ca3d a58c c3bc
000000e0: 9083 343e fdcc 1f3e 0d3c bd3d 587d 49bc
000000f0: 3eae a13d 3e17 e13d 2d37 adbd e21d 953d

recurrent.conv_x_r.weight f4 [2, 1, 128, 64]
0.0039541572 0.011985242 -0.010516085 0.004264539 -0.004843265 0.005499931 0.00065052696 0.0030325204
0.002099283 0.002577465 -0.004692562 -0.012675174 0.0005276762 0.014803786 -0.012010954 -0.010649348
-0.003782371 0.008585773 -0.009500869 0.008520924 -0.009783316 0.0015114993 -0.0028936714 -0.014529321
-0.011259342 0.0019090176 -0.010309588 0.009532198 0.011294391 0.010151532 0.0039432775 0.015416108
-0.0036001615 0.013363108 0.0140478 -0.010911992 0.007388359 -0.0126466695 -0.006075915 -0.0102162305
0.01273578 -0.0041230656 -0.013221212 0.013343727 0.0053043924 -0.0037965458 0.013218582 0.0029593557
0.014932236 -0.0032362975 -0.006487772 -0.0010041073 0.009626964 -0.00016723946 -0.0143317785 0.013674732
-0.0037819222 0.001853764 0.011281518 -0.011480238 -0.015521137 -0.013852788 0.0034078509 0.014158977
0.015236421 0.0137993 0.007555155 0.0023904182 0.00019293278 0.007578118 0.0036228225 0.0040575285
0.012089459 0.0073437598 0.012490638 0.0034816712 0.005298514 0.0074423235 0.0015430842 -0.010586111
-0.0013480037 0.010189492 0.003125459 0.0022997651 -0.00456072 -0.0045425333 -0.014758825 -0.011452112
0.0026279893 0.0030476134 -0.012118528 -0.0052112527 -0.013102297 -0.013960678 0.0069222655 0.014625233
0.011054952 -0.015046248 0.013191028 -0.013563475 -6.5343454e-05 0.012066454 0.00653865 0.0011844914
0.001968922 -0.0058476236 -0.014059421 -0.01042483 -0.0031476542 -0.014496401 -0.003809236 -0.013623735
0.008275244 0.012071196 -0.0022814404 0.01529401 -0.0009441301 0.007284023 0.012387911 -0.012169264
-0.0063894037 -0.0043621454 0.00077018514 0.008234877 0.0070014466 0.001426328 -0.0031532142 -0.0069753826
-0.0024143439 0.014640212 0.0035012476 0.009501297 -0.01198253 -0.006098017 -0.0013302397 0.0062301867
0.012854371 -0.006212035 -0.0061083343 -0.009817589 0.012170976 0.0029617026 0.002859315 0.0064025726
-0.0023070443 -0.0069511514 0.01539672 -0.0050831567 0.0065888446 -0.006304931 -0.013463667 0.012854727
0.009448571 -0.0059275497 0.014646545 -0.0018730592 -0.00033937953 -0.013390582 -0.0062422752 0.0150343515
0.0005707722 -0.011286799 0.0023809485 0.000107094646 0.0065311287 0.0067265406 0.015616292 -0.012101468
-0.0041322056 -0.0026566368 -0.0054409746 -0.0050820615 0.0014494993 -0.010317534 -0.00010862015 0.003358839
0.00010544993 -0.0034869537 -0.0054777134 0.009078519 -0.012982547 0.013502633 0.013548996 -0.007919181
0.002407506 -0.006282175 -0.014244214 0.005437311 0.008765604 -0.008417502 0.012367431 -0.005992716
-0.014397541 0.009164732 0.0058815684 -0.005895866 0.0046535283 -0.008124873 0.010182455 0.012399506
0.00032641925 -0.0070146825 0.008208152 0.00680911 0.015312485 0.0005108677 -0.0044357274 0.011326641
-0.0066096336 -0.010735519 -0.014968311 0.0073432904 -0.010751775 -0.0036225803 0.009677777 0.008999078
0.008273497 0.0042384304 0.0046420917 0.0045523327 -0.0072267 0.007248195 -0.0058095623 0.007213142
-0.007401811 -0.015509654 0.004350355 -0.014413388 -0.0010745004 -0.006700285 -0.008693308 -0.0076047964
0.008599043 0.010549808 -0.00090812147 -0.007097952 -0.0024155974 0.010414114 0.0048439912 0.0023319554
0.008461153 -0.002532849 -0.0058031883 0.004879942 0.014787341 0.013607442 0.010605263 0.005381763
-0.0020139404 -0.013405742 -0.007894481 0.015028095 -0.00698174 0.0067866966 -0.008327236 0.013474597
00000000: e091 813b c05d 443c a84b 2cbc 8cbd 8b3b
00000010: 40b4 9ebb c438 b43b 2088 2a3a 40bd 463b
00000020: 2094 093b b0ea 283b 10c4 99bb 88ab 4fbc
00000030: c053 0a3a 948b 723c 98c9 44bc 9a7a 2ebc
00000040: a8e1 77bb 58ab 0c3c 88a9 1bbc 589b 0b3c
00000050: 344a 20bc 801d c63a c0a3 3dbb 640c 6ebc
00000060: 1a79 38bc 0038 fa3a 8ce9 28bc f02c 1c3c
00000070: 1c0c 393c 9c52 263c 9c36 813b d893 7c3c
00000080: b0f0 6bbb f0f0 5a3c be28 663c 36c8 32bc
00000090: 0c1a f23b fa33 4fbc 7818 c7bb fa61 27bc
000000a0: bca9 503c c81a 87bb c89d 58bc a69f 5a3c
000000b0: 78d0 ad3b 78cf 78bb c092 583c c0f1 413b
000000c0: 56a6 743c 1018 54bb 6097 d4bb 409c 83ba
000000d0: 6aba 1d3c 005d 2fb9 d6cf 6abc fc0b 603c
000000e0: 20da 77bb 00fa f23a 1ed6 383c 9c17 3cbc
000000f0: 5e4c 7ebc cef6 62bc 4056 5f3b 0efb 673c
00000100: 2ea2 793c 7616 623c 3c91 f73b 90a8 1c3b
00000110: 004e 4a39 dc51 f83b e06c 6d3b 04f5 843b
00000120: de12 463c eca3 f03b 88a5 4c3c c02c 643b
00000130: 289f ad3b bcde f33b 5041 ca3a 5e71 2dbc
00000140: 80af b0ba d4f1 263c 80d4 4c3b a8b7 163b
00000150: 1872 95bb 88d9 94bb 00cf 71bc a4a1 3bbc
00000160: 583a 2c3b 78ba 473b ca8c 46bc 28c3 aabb
00000170: 04ab 56bc 54bb 64bc 2cd4 e23b ac9e 6f3c
00000180: d41f 353c 8a84 76bc 2e1f 583c 5639 5ebc
00000190: 0009 89b8 60b2 453c 2c42 d63b f040 9b3a
000001a0: 0809 013b 6c9d bfbb 7c59 66bc e8cc 2abc
000001b0: e048 4ebb 5082 6dbc 60a4 79bb 1636 5fbc
000001c0: e494 073c 44c6 453c 3884 15bb ba93 7a3c
000001d0: 807f 77ba d0ae ee3b aaf6 4a3c 9861 47bc
000001e0: 345e d1bb 54f0 8ebb 40e6 493a 94eb 063c
000001f0: 646c e53b a0f3 ba3a 28a6 4ebb c091 e4bb
00000200: f839 1ebb 80dd 6f3c 3075 653b 54ab 1b3c
00000210: 6052 44bc e0d1 c7bb 705b aeba 9826 cc3b
00000220: 249b 523c 548e cbbb 6c28 c8bb f4d9 20bc
00000230: c668 473c 2019 423b 5863 3b3b accc d13b
00000240: c831 17bb 7cc6 e3bb 8642 7c3c 9c90 a6bb
00000250: 3ce7 d73b 9899 cebb b696 5cbc a29c 523c
00000260: 2ece 1a3c e43b c2bb 10f8 6f3c 7081 f5ba
00000270: c0ee b1b9 2c64 5bbc 008c ccbb a452 763c
00000280: e09f 153a 44ec 38bc b009 1c3b 0098 e038
00000290: 1403 d63b 506a dc3b 7adb 7f3c 3c45 46bc
000002a0: 7467 87bb f81a 2ebb 344a b2bb 6c87 a6bb
000002b0: 20fd bd3a e00a 29bc 00cb e3b8 f81f 5c3b
000002c0: 0025 dd38 6085 64bb 647e b3bb 12be 143c
000002d0: c0b4 54bc 263a 5d3c 9cfc 5d3c 74bf 01bc
000002e0: 40c7 1d3b b4da cdbb 9060 69bc 782b b23b
000002f0: 9c9d 0f3c 90e9 09bc c4a0 4a3c 8c5e c4bb
00000300: aae3 6bbc ac27 163c 2cba c03b 1c32 c1bb
00000310: a07c 983b 301e 05bc 50d4 263c 4c27 4b3c
00000320: 4023 ab39 6cdb e5bb 7c7b 063c f41e df3b
00000330: 38e1 7a3c c0eb 053a 9459 91bb 6093 393c
00000340: a095 d8bb 08e4 2fbc a63d 75bc fc9f f03b
00000350: 3628 30bc d068 6dbb 8a8f 1e3c de70 133c
00000360: 908d 073c 88e2 8a3b b01c 983b bc2b 953b
00000370: f4cd ecbb 4482 ed3b 245e bebb 385c ec3b
00000380: e48a f2bb 341c 7ebc 6c8d 8e3b 2226 6cbc
00000390: 40d6 8cba 108e dbbb 606e 0ebc a831 f9bb
000003a0: 00e3 0c3c 1ad9 2c3c 000f 6eba f095 e8bb
000003b0: 004f 1ebb f69f 2a3c 58ba 9e3b b8d3 183b
000003c0: a6a0 0a3c 28fe 25bb ac28 bebb ece7 9f3b
000003d0: 9a46 723c c0f1 5e3c b2c1 2d3c 8059 b03b
000003e0: 50fc 03bb c2a3 5bbc da57 01bc 6638 763c
000003f0: 14c7 e4bb f062 de3b f66e 08bc 8ec4 5c3c

recurrent.conv_x_r.bias f4 [64]
0.0 0.0 0.0 0.0 0.0 0.0 0.0 0.0
0.0 0.0 0.0 0.0 0.0 0.0 0.0 0.0
0.0 0.0 0.0 0.0 0.0 0.0 0.0 0.0
0.0 0.0 0.0 0.0 0.0 0.0 0.0 0.0
0.0 0.0 0.0 0.0 0.0 0.0 0.0 0.0
0.0 0.0 0.0 0.0 0.0 0.0 0.0 0.0
0.0 0.0 0.0 0.0 0.0 0.0 0.0 0.0
0.0 0.0 0.0 0.0 0.0 0.0 0.0 0.0
00000000: 0000 0000 0000 0000 0000 0000 0000 0000
00000010: 0000 0000 0000 0000 0000 0000 0000 0000
00000020: 0000 0000 0000 0000 0000 0000 0000 0000
00000030: 0000 0000 0000 0000 0000 0000 0000 0000
00000040: 0000 0000 0000 0000 0000 0000 0000 0000
00000050: 0000 0000 0000 0000 0000 0000 0000 0000
00000060: 0000 0000 0000 0000 0000 0000 0000 0000
00000070: 0000 0000 0000 0000 0000 0000 0000 0000
00000080: 0000 0000 0000 0000 0000 0000 0000 0000
00000090: 0000 0000 0000 0000 0000 0000 0000 0000
000000a0: 0000 0000 0000 0000 0000 0000 0000 0000
000000b0: 0000 0000 0000 0000 0000 0000 0000 0000
000000c0: 0000 0000 0000 0000 0000 0000 0000 0000
000000d0: 0000 0000 0000 0000 0000 0000 0000 0000
000000e0: 0000 0000 0000 0000 0000 0000 0000 0000
000000f0: 0000 0000 0000 0000 0000 0000 0000 0000

recurrent.conv_x_h.weight f4 [2, 1, 128, 64]
0.025903087 0.0078781685 -0.011574426 -0.008170087 -0.051488962 -0.064721756 0.0029297213 -0.00084006274
-0.028074862 -0.004537551 -0.046445552 0.02224772 -0.053530384 0.06959242 -0.005374042 -0.075424425
0.013313037 -0.013933773 0.083330855 -0.08731152 0.008410886 0.007861268 -0.045710657 0.008401103
0.102542736 -0.002005294 -0.019706162 0.023709211 0.008915995 -0.01631807 0.023689346 0.0034916783
-0.0046615396 0.017856482 -0.047555372 -0.037970666 -0.08319323 0.0030739943 -0.008690887 0.022639718
-0.002420303 -0.0059360527 -0.039856996 0.0105620315 0.017320542 -0.077678405 -0.027500462 -0.012424343
-0.01763384 -0.038519617 0.01603234 0.00048647696 -0.03082897 0.0038840277 0.008245002 -0.011297647
0.0152307665 0.03184336 -0.06060355 -0.08697364 -0.050732378 -0.02707266 -0.06595895 0.05464025
0.030530557 -0.0044280314 -0.000616986 -0.00085953134 -0.03208948 -0.015311845 -0.0006088138 0.0064671864
-0.028428577 0.008507728 -0.037073653 0.033465482 -0.009484998 0.06047458 -0.0045121787 -0.068232775
-0.016893731 0.00044032835 0.07783197 -0.06528613 -0.009785765 -0.00037217702 -0.034413118 -0.00845816
0.06347964 0.017117664 -0.012744577 0.028472573 -0.011443169 -0.00813852 0.024581011 -0.00095547864
0.028776746 0.027726341 -0.0064573972 -0.037672315 -0.05973753 0.0091641955 0.016270813 0.014475019
0.02140642 -0.018560013 -0.029794909 -0.0025219582 0.02229963 -0.05628353 -0.003323517 0.0056926324
-0.036786973 0.0006298242 -0.014567237 -0.00054583914 0.012418341 0.02800143 0.0018775655 0.016377522
-0.0026735172 0.016199125 -0.027581058 -0.06323491 0.000439621 -0.008725206 -0.03926621 0.068438336
0.030192183 -0.00681368 -0.005419101 -0.00835844 -0.06072243 -0.06010859 -0.003771802 -0.002170889
-0.01776942 -0.0033723935 -0.041627605 0.035994906 -0.039595716 0.089495346 -0.00057823583 -0.101258256
-0.010762542 -0.0029813892 0.078845054 -0.089361526 0.0074296854 0.0143869 -0.0411756 0.017805956
0.08233515 -0.0068333913 -0.009719402 0.04745864 0.014212479 -0.003305049 0.04094933 0.0082143415
0.010327016 0.0068236976 -0.06418145 -0.023796707 -0.07871752 0.0019621777 0.0036191947 0.011730693
-0.022419892 -0.005588751 -0.046158303 -0.0007036491 0.028449843 -0.053504936 -0.014732641 -0.0038303672
-0.008856559 -0.041625444 -0.0041119633 0.012370539 -0.020104818 0.011849282 -0.0049332287 -0.011220478
0.015711816 0.03278624 -0.051159814 -0.08286956 -0.054223098 -0.04388565 -0.052660473 0.054851625
0.026259117 -0.0027292361 0.019838752 0.0069467286 0.013274736 0.0235874 0.009103965 -0.017676026
-0.035032168 0.0023144204 -0.03729657 0.023836758 0.015824888 0.07280983 0.008780833 -0.029774098
-0.00064203027 -0.0017679358 0.078938425 -0.020578874 -0.0049770866 0.016591787 0.014797442 -0.002375624
0.033160836 0.001577737 0.006711164 0.020962521 -0.030228285 -0.007148726 0.02793069 -0.016292356
0.041357204 0.04647003 0.024302235 -0.036259886 -0.037592158 -0.0035759944 0.0018297959 0.007861604
0.040013935 -0.017154792 0.030508887 -0.018777695 0.0057122926 -0.07268189 0.036608208 -0.00021058046
-0.054558314 0.029589789 -0.02120358 -0.0037959479 0.03320601 0.033277348 -0.0017201487 0.06439858
0.0034819266 0.002426793 -0.017728087 -0.06155822 0.030822057 -0.00053468934 -0.034694597 0.088211715
00000000: b632 d43c 6f13 013c a9a2 3dbc d4db 05bc
00000010: 17e6 52bd d78c 84bd 9100 403b a837 5cba
00000020: 41fd e5bc bdaf 94bb b13d 3ebd da40 b63c
00000030: ad42 5bbd 7886 8e3d bb18 b0bb 1f78 9abd
00000040: ed1e 5a3c 7b4a 64bc 5ea9 aa3d 62d0 b2bd
00000050: d0cd 093c 8ccc 003c 193b 3bbd c8a4 093c
00000060: ed01 d23d 406b 03bb d16e a1bc d239 c23c
00000070: 6514 123c 79ad 85bc 2910 c23c a4d4 643b
00000080: d4bf 98bb c247 923c 6cc9 42bd 2187 1bbd
00000090: 3661 aabd 1175 493b 3964 0ebc ee76 b93c
000000a0: f29d 1ebb 3883 c2bb 1741 23bd 5f0c 2d3c
000000b0: cfe3 8d3c db15 9fbd a648 e1bc 798f 4bbc
000000c0: d874 90bc bfc6 1dbd 4156 833c d50d ff39
000000d0: 098d fcbc 2c8b 7e3b 0b16 073c c419 39bc
000000e0: 778a 793c 2f6e 023d 6e3b 78bd 3c1f b2bd
000000f0: c1cc 4fbd 7cc7 ddbc 7c15 87bd 74ce 5f3d
00000100: 381b fa3c 0519 91bb 3bbd 21ba 2c52 61ba
00000110: 4270 03bd 88de 7abc cd98 1fba b1ea d33b
00000120: 0ce3 e8bc ff63 0b3c 8bda 17bd 1a13 093d
00000130: f766 1bbc 31b4 773d e6da 93bb a0bd 8bbd
00000140: b964 8abc dfdb e639 5e66 9f3d bcb4 85bd
00000150: 7954 20bc c120 c3b9 c5f4 0cbd 1894 0abc
00000160: 9d01 823d 583a 8c3c a1ce 50bc 503f e93c
00000170: 217c 3bbc 6d57 05bc 1e5e c93c 1679 7aba
00000180: 36bd eb3c 5a22 e33c 9398 d3bb 494e 1abd
00000190: 57af 74bd 6c25 163c 5e4a 853c a128 6d3c
000001a0: 845c af3c 2b0b 98bc 7414 f4bc 7047 25bb
000001b0: b7ad b63c 8f89 66bd 5dcf 59bb 4389 ba3b
000001c0: f0ad 16bd c91a 253a 6cab 6ebc a516 0fba
000001d0: 4c76 4b3c 4163 e53c a518 f63a 272a 863c
000001e0: 2d36 2fbb 07b4 843c acf1 e1bc 4e81 81bd
000001f0: ef7c e639 2bf4 0ebc 9bd5 20bd 6629 8c3d
00000200: 9955 f73c 4a45 dfbb b792 b1bb d7f1 08bc
00000210: 15b8 78bd 6d34 76bd 5630 77bb 7945 0ebb
00000220: 2d91 91bc 6003 5dbb b581 2abd 656f 133d
00000230: 1e2f 22bd 5649 b73d c094 17ba 7d60 cfbd
00000240: 5f55 30bc 6963 43bb 8479 a13d 2d03 b7bd
00000250: b874 f33b 08b7 6b3c bfa7 28bd ccdd 913c
00000260: 559f a83d a4ea dfbb 203e 1fbc fe63 423d
00000270: 75db 683c 8599 58bb 7cba 273d 7295 063c
00000280: a532 293c 5399 df3b 9071 83bd 50f1 c2bc
00000290: a736 a1bd e197 003b 0330 6d3b 1832 403c
000002a0: eca9 b7bc d721 b7bb 7d10 3dbd 1775 38ba
000002b0: a50f e93c fe27 5bbd 2d61 71bc e606 7bbb
000002c0: 1a1b 11bc 717f 2abd a6bd 86bb cdad 4a3c
000002d0: dcb2 a4bc 7e23 423c eca6 a1bb 19d6 37bc
000002e0: 11b6 803c dd4a 063d f48c 51bd 84b7 a9bd
000002f0: 0a19 5ebd 70c1 33bd 82b2 57bd 19ac 603d
00000300: 5c1d d73c fcdc 32bb e184 a23c 62a1 e33b
00000310: 477e 593c 5d3a c13c cc28 153c 50cd 90bc
00000320: e47d 0fbd 88ad 173b 4ac4 18bd 4e45 c33c
00000330: 32a3 813c 521d 953d 7cdd 0f3c cfe8 f3bc
00000340: ec4d 28ba 15ba e7ba 78aa a13d 0795 a8bc
00000350: d416 a3bb 80eb 873c f870 723c 5bb0 1bbb
00000360: a8d3 073d 12cc ce3a 53e9 db3b 98b9 ab3c
00000370: 4fa1 f7bc dc3f eabb e7ce e43c 8c77 85bc
00000380: 2c66 293d 5c57 3e3d 7b15 c73c 3f85 14bd
00000390: 3cfa 19bd 3b5b 6abb c3d5 ef3a f5cd 003c
000003a0: a7e5 233d 3588 8cbc c6ed f93c aed3 99bc
000003b0: 2f2e bb3b 3eda 94bd 7df2 153d 43cf 5cb9
000003c0: 8a78 5fbd 4966 f23c 21b3 adbc 70c5 78bb
000003d0: 0603 083d d44d 083d 9d76 e1ba 67e3 833d
000003e0: 0931 643b d50a 1f3b 7e3a 91bc 7924 7cbd
000003f0: 8a7e fc3c 652a 0cba ec1b 0ebd 58a8 b43d

recurrent.conv_x_h.bias f4 [64]
-0.09535598 -0.04865277 0.022114718 -0.09174336 0.06386687 0.10274014 -0.09439138 -0.11276241
-0.15177147 -0.09907735 0.014971855 -0.060814142 0.084056005 -0.09167805 -0.094933175 0.23518658
-0.13422407 -0.12791239 -0.13603595 0.2301373 -0.06998877 -0.10172958 0.102059595 -0.03344631
-0.14081568 -0.011828624 0.008110394 -0.17296106 -0.1170659 -0.07660243 -0.14653993 -0.07121649
-0.005078203 0.014397307 0.11786738 -0.112509675 0.21587169 -0.048139997 -0.10852788 -0.068347715
0.039813757 -0.042981084 0.122811735 -0.1270331 -0.06818346 -0.23425892 0.0414138 -0.057630647
-0.09251423 0.061948713 -0.14808844 -0.06971521 0.05181675 -0.12871253 -0.06432436 0.14793843
-0.13342075 -0.16516672 0.07676346 0.11754948 0.11095518 0.062435724 0.17351641 0.028858766
00000000: ff49 c3bd 2148 47bd ed29 b53c f1e3 bbbd
00000010: a2cc 823d 6c69 d23d 4550 c1bd faef e6bd
00000020: fb69 1bbe 11e9 cabd 834c 753c 4018 79bd
00000030: 8e25 ac3d b4c1 bbbd 536c c2bd c0d4 703e
00000040: 0972 09be 77fb 02be 024d 0bbe 1da9 6b3e
00000050: 4656 8fbd 9957 d0bd 9f04 d13d fffe 08bd
00000060: fc31 10be d8cc 41bc 75e1 043c b41c 31be
00000070: 3fc0 efbd bce1 9cbd 900e 16be f3d9 91bd
00000080: 0e67 a6bb afe2 6b3c 7464 f13d 796b e6bd
00000090: 780d 5d3e 722e 45bd dd43 debd e3f9 8bbd
000000a0: c013 233d ef0c 30bd b884 fb3d f714 02be
000000b0: c5a3 8bbd 92e1 6fbe 84a1 293d 1d0e 6cbd
000000c0: 1a78 bdbd efbd 7d3d 7fa4 17be d9c6 8ebd
000000d0: cd3d 543d 38cd 03be 7dbc 83bd 2c7d 173e
000000e0: 739f 08be 7721 29be 2936 9d3d c8bd f03d
000000f0: 783c e33d 9abc 7f3d 49ae 313e 3869 ec3c

linear.weight f4 [1, 64]
0.0070213024 0.0052791303 0.01275918 0.001234792 0.03072565 0.051703233 0.00027934817 0.0041420157
-0.019675037 -0.0010134829 0.016308105 0.0044502043 0.04269306 0.0049933456 -0.00041057382 0.050861903
-0.0010211341 -0.0006241545 -0.0155887315 0.020602392 -7.3688476e-05 1.2905033e-05 0.048603322 -0.00013161305
-0.0319437 0.013170481 0.007880884 0.0013604145 -0.02646228 -0.014057482 0.0029429428 0.015866391
0.009258926 0.01956997 0.047661 0.010465061 0.018726688 0.00031183532 -1.2494711e-06 0.0028724011
0.016387941 0.0022675665 0.05585712 -0.0040393495 0.0101585705 -0.037186347 0.0092615895 0.004409388
-0.037540697 0.017984552 -0.046492796 -0.00045698887 0.015740063 0.0009748149 -0.0005073953 0.018357864
-0.0045688427 0.0035408102 0.015797012 0.05129234 0.049723152 0.01475714 0.023674987 0.03112528
00000000: f412 e63b 8efc ac3b e10b 513c bfd8 a13a
00000010: 5cb4 fb3c c5c6 533d 7a75 9239 bfb9 873b
00000020: 8b2d a1bc d8d6 84ba 9398 853c 05d3 913b
00000030: ebde 2e3d 389f a33b 4942 d7b9 9254 503d
00000040: 93d7 85ba 4d9e 23ba e167 7fbc 59c6 a83c
00000050: 3389 9ab8 b282 5837 4714 473d 9c01 0ab9
00000060: 66d7 02bd 00c9 573c d31e 013c f04f b23a
00000070: 6cc7 d8bc 5a51 66bc 63de 403b 3cfa 813c
00000080: c0b2 173c 3451 a03c 2e38 433d a675 2b3c
00000090: b668 993c d47d a339 80b3 a7b5 e53e 3c3b
000000a0: 0140 863c 749b 143b 6fca 643d 855c 84bb
000000b0: 2270 263c b650 18bd ecbd 173c a17c 903b
000000c0: 46c4 19bd 5754 933c 3b6f 3ebd 0298 efb9
000000d0: 4ef1 803c b88a 7f3a b902 05ba 3b63 963c
000000e0: 3bb6 95bb f00c 683b bc68 813c eb17 523d
000000f0: 81aa 4b3d eec7 713c 0cf2 c13c 71fa fe3c
