dcrnn_best_model.pth (torch, 199660 bytes, 7 tensors)

recurrent.conv_x_z.weight f4 [2, 1, 127, 64]
-0.009484504 0.015270296 0.013421773 0.0064358455 -0.0025138878 -0.0074166083 -6.919615e-05 -0.0043217596
-0.011232515 -0.008506685 0.0061661107 7.6698445e-05 -0.0031842587 0.011813798 -0.001330081 0.005184866
0.014670498 -0.0023063612 0.010029468 -0.0032268546 0.009023481 -0.001614525 0.015436809 0.014250465
0.012690932 -0.0011076451 0.0114931725 0.00883346 0.011458092 -0.0025458063 0.013978579 -0.013524544
0.009977378 -0.002935821 -0.0044191605 0.00450312 -0.005969804 0.0061834753 -0.010104442 0.004368922
-0.00906955 0.008043489 -0.010298005 0.009764727 0.0005403747 0.010132646 -0.008963723 -0.00094627467
0.008535288 -0.0025477698 0.012636296 -0.0016173486 0.0023314392 -0.003186959 0.0133219445 -0.006268577
0.00014182368 0.0021357045 0.0018771053 -0.0010779426 -0.0069426154 -0.007818105 -0.0008703411 0.0035914828
0.015338929 -0.009745615 -0.0009834776 0.015650803 0.006380502 -0.0021339299 0.008638511 0.013609712
-0.0016380997 0.008270873 -0.010292198 0.010994564 -0.013553742 -0.003838432 -0.0061073806 -0.003224551
-0.00523307 0.0049438574 0.0045587365 0.00527152 -0.000703127 -0.01248034 -0.009581781 -0.00028605774
0.0067649744 -0.0070127873 -0.0015856809 0.002555433 -0.007364756 -0.015112237 -0.0075439173 0.009393549
0.0035293177 0.0067993496 0.008975792 0.007868219 -0.0056316024 -0.0070864432 -0.0018353603 -0.009095407
-0.0051786858 0.009193311 0.012926948 0.007582743 0.0056304596 -0.002514647 0.0006901756 -0.012230732
-0.007896673 -0.0043066596 0.007984793 0.001041942 0.01362765 -0.0011929828 0.013832443 0.009340324
-0.013785711 0.010868257 0.012135174 -0.010732955 0.010472914 0.009582729 0.0037668461 0.014017001
-0.007511901 -0.0010187115 -0.013894133 0.0074148728 -0.014447304 0.0018358316 -0.014808171 -0.0046637817
-0.001953398 -0.00022060712 -0.012082284 -0.013512175 0.0045294752 -0.0045287777 0.0038173033 -0.0026327597
-0.0022361982 -0.0095814895 0.0005134622 -0.015254848 0.003028977 -0.007526667 -0.01189095 -0.0009432753
-0.0073379274 0.0140512865 0.0015037708 0.010872296 -0.009305564 -0.014956032 0.0024167171 -0.0058867456
-0.012105718 -0.008160581 0.015114619 -0.0075044124 -0.01271761 -0.011678234 0.009749509 -0.0037722073
-0.01223514 -0.015288552 -0.00014113927 0.008113875 0.013503466 -0.0011181823 0.005047446 -0.015323769
0.009239606 -0.0029502327 -0.013104137 0.010100991 0.006941764 -0.0018061253 0.0111668585 -0.014543302
-0.0040380303 -0.015325832 0.010986716 -0.0076943072 0.013924834 0.00048300234 0.013308522 0.0101531735
-0.012897276 -0.013650746 -0.0038805623 0.0075069796 -0.0149784675 -0.0014345523 -0.004274872 0.0011986862
0.0031440116 -0.008937866 -0.007747315 -0.012640148 -0.0055797463 0.014102573 -0.00513773 0.001450301
0.0076019457 0.009186159 -0.013097385 0.010964715 -0.008008295 0.013936806 -0.0023122851 -0.0030843727
0.013787083 0.013110323 0.002028335 0.0006962287 -0.014685289 0.0009965132 -0.0010701654 0.011225016
-0.0004469625 0.007033647 -0.009161696 0.007061221 0.0027006113 0.0030173345 0.009970109 0.0022512665
-0.015093113 -0.0033351574 0.014237129 0.012985273 0.009662775 -0.0066759847 0.007883383 0.0118443575
0.0035895398 0.0091211265 0.0064049726 -0.0101605505 -0.015169162 0.013454016 -0.0074531343 -0.012288227
-0.0076942733 -0.014150036 -0.0019589332 -0.0014781355 -0.006706596 -0.003437205 -0.0049336045 0.0058403853
00000000: e564 1bbc 4330 7a3c ffe6 5b3c c9e3 d23b
00000010: 0ac0 24bb 0507 f3bb 661d 91b8 8c9d 8dbb
00000020: 9508 38bc 9f5f 0bbc 160d ca3b 2ad9 a038
00000030: ffae 50bb a98e 413c 1d56 aeba cfe5 a93b
00000040: 875c 703c 5226 17bb a352 243c a379 53bb
00000050: 39d7 133c 789e d3ba abea 7c3c c87a 693c
00000060: a0ed 4f3c 672e 91ba dc4d 3c3c 37ba 103c
00000070: b9ba 3b3c 8bd7 26bb 6906 653c 0d96 5dbc
00000080: 2878 233c e766 40bb 9bce 90bb e98e 933b
00000090: 589e c3bb c09e ca3b 1a8d 25bc 2d29 8f3b
000000a0: 7398 14bc d7c8 033c f7b8 28bc 3cfc 1f3c
000000b0: efa7 0d3a 6603 263c 94dc 12bc 6b0f 78ba
000000c0: 98d7 0b3c 7cf8 26bb 7808 4f3c 37fd d3ba
000000d0: 0fcb 183b 4ddc 50bb 4944 5a3c a368 cdbb
000000e0: 81b6 1439 2df7 0b3b 3409 f63a c049 8dba
000000f0: e17e e3bb 8217 00bc 9a27 64ba 155f 6b3b
00000100: 2250 7b3c 12ac 1fbc 08e8 80ba 1d36 803c
00000110: 8813 d13b 67d9 0bbb 8b88 0d3c 45fb 5e3c
00000120: 81b5 d6ba 8e82 073c 9ba0 28bc 8b22 343c
00000130: 8410 5ebc 348e 7bbb 6c20 c8bb fd52 53bb
00000140: 2c7a abbb 1500 a23b 7461 953b b7bc ac3b
00000150: 0e52 38ba 577a 4cbc e7fc 1cbc 05fa 95b9
00000160: b8ac dd3b 86cb e5bb 9fd6 cfba 0d79 273b
00000170: 0d54 f1bb 5199 77bc f732 f7bb 66e7 193c
00000180: 204c 673b 14cd de3b 330f 133c b4e9 003c
00000190: 4e89 b8bb 6535 e8bb 7990 f0ba e704 15bc
000001a0: f7b1 a9bb 8b9f 163c 8dcb 533c a978 f83b
000001b0: b87f b83b c7cc 24bb e7ec 343a 6863 48bc
000001c0: 0c61 01bc e11e 8dbb a6d2 023c c691 883a
000001d0: 8246 5f3c dc5d 9cba 79a1 623c 2908 193c
000001e0: 76dd 61bc c610 323c 9cd2 463c 47d9 2fbc
000001f0: 9696 2b3c e100 1d3c 31dd 763b 90a7 653c
00000200: 6526 f6bb 4986 85ba 38a4 63bc 76f8 f23b
00000210: 63b4 6cbc 49a0 f03a f99d 72bc a3d2 98bb
00000220: 9504 00bb c652 67b9 c6f4 45bc 2b62 5dbc
00000230: fe6b 943b 2466 94bb b92b 7a3b 618a 2cbb
00000240: 2e8d 12bb aefb 1cbc dd99 063a 78ef 79bc
00000250: cd81 463b 42a2 f6bb 42d2 42bc 2246 77ba
00000260: ff72 f0bb 5e37 663c 2d1a c53a b721 323c
00000270: 5d76 18bc 250a 75bc c961 1e3b 9ae5 c0bb
00000280: 1057 46bc f5b3 05bc 4fa3 773c 93e7 f5bb
00000290: 865d 50bc 1056 3fbc 68bc 1f3c 2337 77bb
000002a0: e675 48bc d67c 7abc c9fe 13b9 0ff0 043c
000002b0: a43d 5d3c f98f 92ba 0c65 a53b 8c10 7bbc
000002c0: b761 173c b158 41bb bcb2 56bc a17e 253c
000002d0: bd77 e33b 82bb ecba 33f5 363c 0847 6ebc
000002e0: 7451 84bb 3319 7bbc a001 343c 8720 fcbb
000002f0: fd24 643c 7a3b fd39 fd0b 5a3c 7f59 263c
00000300: 194f 53bc 61a7 5fbc 0851 7ebb 1cfd f53b
00000310: 3f68 75bc 9607 bcba 3a14 8cbb 3c1d 9d3a
00000320: c30b 4e3b 2170 12bc 30dd fdbb a018 4fbc
00000330: 4ed6 b6bb 7a0e 673c 675a a8bb 0718 be3a
00000340: be19 f93b 8b81 163c 6a96 56bc 59a5 333c
00000350: 3935 03bc 3357 643c b589 17bb 3023 4abb
00000360: 38e3 613c aecc 563c d0ed 043b 1e83 363a
00000370: 919a 70bc 6f9d 823a cb44 8cba 21e9 373c
00000380: 4b56 eab9 827a e63b f01a 16bc d161 e73b
00000390: bdfc 303b 79be 453b ab59 233c fc89 133b
000003a0: 1b49 77bc a892 5abb d942 693c 2fc0 543c
000003b0: 9e50 1e3c 38c2 dabb 4e29 013c d60e 423c
000003c0: 7c3e 6b3b c770 153c cee0 d13b 7078 26bc
000003d0: 1488 78bc 3c6e 5c3c 6c39 f4bb 8f54 49bc
000003e0: 3e20 fcbb 8dd5 67bc 7261 00bb ffbd c1ba
000003f0: 01c3 dbbb bb42 61bb 13aa a1bb b460 bf3b

recurrent.conv_x_z.bias f4 [64]
0.0 0.0 0.0 0.0 0.0 0.0 0.0 0.0
0.0 0.0 0.0 0.0 0.0 0.0 0.0 0.0
0.0 0.0 0.0 0.0 0.0 0.0 0.0 0.0
0.0 0.0 0.0 0.0 0.0 0.0 0.0 0.0
0.0 0.0 0.0 0.0 0.0 0.0 0.0 0.0
0.0 0.0 0.0 0.0 0.0 0.0 0.0 0.0
0.0 0.0 0.0 0.0 0.0 0.0 0.0 0.0
0.0 0.0 0.0 0.0 0.0 0.0 0.0 0.0
00000000: 0000 0000 0000 0000 0000 0000 0000 0000
00000010: 0000 0000 0000 0000 0000 0000 0000 0000
00000020: 0000 0000 0000 0000 0000 0000 0000 0000
00000030: 0000 0000 0000 0000 0000 0000 0000 0000
00000040: 0000 0000 0000 0000 0000 0000 0000 0000
00000050: 0000 0000 0000 0000 0000 0000 0000 0000
00000060: 0000 0000 0000 0000 0000 0000 0000 0000
00000070: 0000 0000 0000 0000 0000 0000 0000 0000
00000080: 0000 0000 0000 0000 0000 0000 0000 0000
00000090: 0000 0000 0000 0000 0000 0000 0000 0000
000000a0: 0000 0000 0000 0000 0000 0000 0000 0000
000000b0: 0000 0000 0000 0000 0000 0000 0000 0000
000000c0: 0000 0000 0000 0000 0000 0000 0000 0000
000000d0: 0000 0000 0000 0000 0000 0000 0000 0000
000000e0: 0000 0000 0000 0000 0000 0000 0000 0000
000000f0: 0000 0000 0000 0000 0000 0000 0000 0000

recurrent.conv_x_r.weight f4 [2, 1, 127, 64]
-0.008855807 0.013516049 0.014130563 0.0041934727 0.0048617995 -0.005970219 -0.0052647977 0.013455445
-0.0064516747 -0.008370193 0.013990083 0.0135688195 0.0035762556 0.014875256 -0.007382741 0.010955781
-0.0060045402 -0.0010091785 0.013590457 -0.0057437196 -0.0008077141 -0.012524595 -0.014021504 -0.007854166
0.0032795728 0.00029432672 -0.005298191 0.005779857 0.012342316 -0.005894899 -0.012138009 0.0057088765
-0.0033238928 -0.0043798913 -0.0036905422 -0.011066323 0.005882456 0.013469111 0.014832844 0.002369622
0.006283677 -0.010408235 0.004660941 0.0022493124 0.00033922642 -0.003965322 -0.0037131838 0.0064273523
-0.013912577 -0.012929306 0.0075950623 -0.005768222 0.015350665 -0.012560763 0.0061899847 0.015191724
0.0013193513 0.007904453 -0.0034543339 0.012759609 -0.0028076742 -0.008338351 0.013316298 -0.008562745
0.013871414 -0.010837454 -0.005740984 -0.0025655737 0.0073554865 0.009704186 -0.01046507 -0.0070309374
0.004534915 -0.0127656795 -0.01299811 0.012058263 0.012857423 -0.011040565 -0.013211625 0.009373321
0.00025927238 -0.0016353807 0.0040124115 -0.006618055 -0.015454663 0.008353021 0.010685561 0.0004197134
-0.011402917 -0.013389877 -0.011000199 0.0072071683 0.012084908 -0.0030547376 -0.0024936213 0.0076704426
-0.0026232342 0.00643561 -0.013732852 0.0064061917 0.0129251 -0.0061163157 0.0007996209 0.011341944
-0.013440286 -0.005173665 0.0023724458 -0.0077869375 0.007567888 0.00017154675 -0.004907027 -0.0070631364
-0.011339072 0.0031144773 0.011967846 -0.0027405424 -0.0024872932 0.008924175 0.011307508 -0.007234896
-0.012359041 0.010103514 -0.003348898 0.008465202 -0.0088761 0.0008767999 -0.014491303 0.01230751
0.012237582 0.0049598473 -0.002336206 -0.011674905 -0.0082308 -0.008361813 0.015110122 -0.0021682025
0.0015513913 0.012185525 -0.009878496 -0.00042132905 0.0031748435 0.014596417 -0.0007225148 0.0003376781
0.012450934 -0.015667934 -0.012934563 0.013365141 0.004105545 0.0146587 -0.0005876287 -0.015646514
0.0068945703 -0.00014231548 -0.013177494 0.009000489 0.014783636 0.0035639363 0.012334155 0.014323062
0.015359654 0.01163609 -0.008116362 -0.0026451163 -0.007565771 0.008701928 0.008890886 0.0034835483
0.0058785086 2.5639076e-05 -0.01125162 -0.014683576 -0.0073333965 0.009189732 0.013509523 -0.0073129
0.014363468 0.008082137 0.011128161 0.01107742 -0.009619673 0.012004445 0.013173833 0.013704558
0.00075330003 0.0048116003 0.013582078 0.006347879 -0.0020643056 -0.00625286 0.008729553 -0.0115837045
0.004156887 0.012187062 0.0017963453 -0.00060705387 -0.004132334 -0.0022106303 0.0019926485 0.010719284
-0.0021648293 -0.004970639 -0.009861272 -0.0014064934 0.009069392 -0.0048861317 0.00016599109 0.010241185
-0.010619987 -0.0067789895 -0.012157898 0.0011551441 -0.007367389 0.0061168727 -0.0002887 0.014926303
0.004049549 -0.015496906 0.009198136 -0.012742907 0.013758993 -0.012475691 0.0056168744 -0.010980085
0.013665099 0.0038479145 0.0016433785 0.010873747 0.0006309165 0.0049237516 -0.010926267 0.007999339
-0.015086104 0.0025674773 -0.012038807 -0.0018963006 0.01565893 -0.008745561 -0.009734095 0.0072039817
-0.0050986847 0.0052222298 0.013662559 0.0030805974 -0.0053736595 -0.013450468 -0.00823275 0.014488685
0.0072603202 0.013567873 -0.0148723675 -0.0007650228 -0.0022315402 -0.008241773 -0.0104594715 -0.006930229
00000000: f217 11bc 6b72 5d3c e083 673c 6669 893b
00000010: bb4f 9f3b d4a1 c3bb 5384 acbb 3a74 5c3c
00000020: 9268 d3bb 2223 09bc a936 653c c14f 5e3c
00000030: 9d5f 6a3b 59b7 733c ecea f1bb e07f 333c
00000040: bcc1 c4bb 6946 84ba 82aa 5e3c d035 bcbb
00000050: c7bc 53ba f533 4dbc 73ba 65bc c3ae 00bc
00000060: 1aee 563b dd4f 9a39 739c adbb f464 bd3b
00000070: 6d37 4a3c ff29 c1bb 80de 46bc 8711 bb3b
00000080: abd5 59bb 3185 8fbb 06dd 71bb 864f 35bc
00000090: 9ec1 c03b 8cad 5c3c 7505 733c a94b 1b3b
000000a0: 4ee7 cd3b 4d87 2abc cfba 983b 3369 133b
000000b0: 33da b139 88ef 81bb e358 73bb 8a9c d23b
000000c0: 94f1 63bc 71d5 53bc 00e0 f83b 5a03 bdbb
000000d0: 5b81 7b3c a9cb 4dbc 5bd5 ca3b b5e6 783c
000000e0: 15ee ac3a ae81 013c 1b62 62bb ae0d 513c
000000f0: f500 38bb 949d 08bc 9a2c 5a3c c14a 0cbc
00000100: ed44 633c 948f 31bc dd1e bcbb 2f23 28bb
00000110: 4b06 f13b 4efe 1e3c af75 2bbc c763 e6bb
00000120: a099 943b 2427 51bc 06f6 54bc 0590 453c
00000130: f1a7 523c 7ce3 34bc 9275 58bc 8f92 193c
00000140: f3ee 8739 455a d6ba 8c7a 833b 45dc d8bb
00000150: 8e35 7dbc 1cdb 083c 7e12 2f3c fb0c dc39
00000160: 4dd3 3abc 3761 5bbc 2e3a 34bc 1c2a ec3b
00000170: c7ff 453c fe31 48bb 066c 23bb 5658 fb3b
00000180: 91ea 2bbb cfe1 d23b c2ff 60bc 08eb d13b
00000190: ccc3 533c 606b c8bb a69d 513a 90d3 393c
000001a0: a534 5cbc d987 a9bb 097b 1b3b 9129 ffbb
000001b0: 0cfc f73b 3be1 3339 20cb a0bb e271 e7bb
000001c0: 84c7 39bc 421c 4c3b c914 443c ac9a 33bb
000001d0: db01 23bb b436 123c 2043 393c b512 edbb
000001e0: 937d 4abc 3689 253c 2f79 5bbb a1b1 0a3c
000001f0: 106d 11bc 0cd9 653a ee6c 6dbc 70a5 493c
00000200: 2480 483c 3786 a23b 081b 19bb 1a48 3fbc
00000210: 7ada 06bc fcff 08bc 7290 773c 6718 0ebb
00000220: 0e58 cb3a cca5 473c 6ad9 21bc d4e5 dcb9
00000230: 0911 503b cf25 6f3c 2667 3dba 630a b139
00000240: 01ff 4b3c 0a5a 80bc 7deb 53bc 77f9 5a3c
00000250: cf87 863b 0b2b 703c 180b 1aba 1e2d 80bc
00000260: d9eb e13b 853a 15b9 6ae6 57bc c976 133c
00000270: 1037 723c ee90 693b 3215 4a3c 47ab 6a3c
00000280: 0fa7 7b3c 4da5 3e3c 7dfa 04bc b059 2dbb
00000290: 4aea f7bb 8892 0e3c 14ab 113c 3e4c 643b
000002a0: 81a0 c03b 7f13 d737 b758 38bc 6293 70bc
000002b0: fd4c f0bb 8890 163c 0c57 5d3c 0da1 efbb
000002c0: c054 6b3c f16a 043c e452 363c 117e 353c
000002d0: d59b 1dbc 4bae 443c 0fd7 573c 1589 603c
000002e0: 1c79 453a a1aa 9d3b 5d87 5e3c de01 d03b
000002f0: 4d49 07bb cbe4 ccbb 6606 0f3c 94c9 3dbc
00000300: 7f36 883b 3eac 473c 5973 eb3a b222 1fba
00000310: 8868 87bb 39e0 10bb 1897 023b f09f 2f3c
00000320: cfdf 0dbb bee0 a2bb 2c91 21bc 165a b8ba
00000330: ca97 143c d81b a0bb e50d 2e39 a5ca 273c
00000340: 74ff 2dbc 4922 debb ec31 47bc 3468 973a
00000350: 236a f1bb 0c70 c83b a85c 97b9 748d 743c
00000360: 14b2 843b bce6 7dbc c7b3 163c a0c7 50bc
00000370: 666d 613c d766 4cbc c20d b83b d0e5 33bc
00000380: 94e3 5f3c 4b2d 7c3b a266 d73a cd27 323c
00000390: 1764 253a 6c57 a13b 1604 33bc a90f 033c
000003a0: b52b 77bc 1f43 283b 6b3e 45bc 4a8d f8ba
000003b0: 2847 803c 8b49 0fbc c17b 1fbc 610f ec3b
000003c0: de12 a7bb 3d1f ab3b edd8 5f3c d9e3 493b
000003d0: 8615 b0bb 5a5f 5cbc a8e2 06bc f361 6d3c
000003e0: fbe7 ed3b c94b 5e3c 3bab 73bc d08b 48ba
000003f0: 083f 12bb 8008 07bc 345e 2bbc f916 e3bb

recurrent.conv_x_r.bias f4 [64]
0.0 0.0 0.0 0.0 0.0 0.0 0.0 0.0
0.0 0.0 0.0 0.0 0.0 0.0 0.0 0.0
0.0 0.0 0.0 0.0 0.0 0.0 0.0 0.0
0.0 0.0 0.0 0.0 0.0 0.0 0.0 0.0
0.0 0.0 0.0 0.0 0.0 0.0 0.0 0.0
0.0 0.0 0.0 0.0 0.0 0.0 0.0 0.0
0.0 0.0 0.0 0.0 0.0 0.0 0.0 0.0
0.0 0.0 0.0 0.0 0.0 0.0 0.0 0.0
00000000: 0000 0000 0000 0000 0000 0000 0000 0000
00000010: 0000 0000 0000 0000 0000 0000 0000 0000
00000020: 0000 0000 0000 0000 0000 0000 0000 0000
00000030: 0000 0000 0000 0000 0000 0000 0000 0000
00000040: 0000 0000 0000 0000 0000 0000 0000 0000
00000050: 0000 0000 0000 0000 0000 0000 0000 0000
00000060: 0000 0000 0000 0000 0000 0000 0000 0000
00000070: 0000 0000 0000 0000 0000 0000 0000 0000
00000080: 0000 0000 0000 0000 0000 0000 0000 0000
00000090: 0000 0000 0000 0000 0000 0000 0000 0000
000000a0: 0000 0000 0000 0000 0000 0000 0000 0000
000000b0: 0000 0000 0000 0000 0000 0000 0000 0000
000000c0: 0000 0000 0000 0000 0000 0000 0000 0000
000000d0: 0000 0000 0000 0000 0000 0000 0000 0000
000000e0: 0000 0000 0000 0000 0000 0000 0000 0000
000000f0: 0000 0000 0000 0000 0000 0000 0000 0000

recurrent.conv_x_h.weight f4 [2, 1, 127, 64]
-0.008529317 -0.015026593 0.0023843853 0.015437645 0.00082019984 -0.004941576 0.001762772 0.0051953397
0.0011229694 0.0032288013 -0.001013096 -0.014857124 -0.0055816295 0.010556451 0.0008633418 0.0033410534
-0.008273559 0.0031007181 0.011110598 0.004423136 -0.0037052438 0.009556202 0.006319863 0.004631306
-0.0020265304 0.0036665897 0.012460903 -0.00082128815 -0.011453204 -0.008113263 0.0053771953 0.012162395
0.0072162114 -0.007027863 -0.0037783089 0.0015306739 0.011194621 -0.0013482422 -0.0041014967 0.00017336062
0.010737185 0.011523289 -0.001345583 0.009299462 0.005555313 -0.0038681456 -0.009613775 0.0052156867
-0.0114280945 0.014442835 -0.0059813657 -0.004834824 -0.007749312 0.0058452194 0.00058041996 0.0047141644
0.008899136 -0.010521373 0.0029863063 -0.015222252 0.0024881908 0.012241336 0.0010967338 0.011506937
-0.0044958983 0.00098747 0.0019308669 0.0096827205 0.007835547 0.010052627 -0.0059820875 0.00067311036
-0.012087836 -0.003527962 0.0048404075 -0.0017770099 0.012165241 -0.011136393 -0.012010928 0.011686917
-0.0044559706 -0.0072636283 -0.005802947 0.011678413 -0.006820946 -0.013514895 0.015171788 0.014083748
0.010945073 0.011514426 -0.004142587 -0.004428557 0.003387193 -0.007404401 -0.0004340579 -0.010726962
0.0010509086 -0.0052114343 -0.0040334095 -0.0064088376 0.01342618 0.011979246 -0.011447588 0.005458494
0.0028580716 0.007457824 0.0017597259 -0.015038005 -0.009073148 0.010473541 0.003324753 0.010682921
0.0049906084 -0.002929162 0.005363126 0.0010993293 0.0029588235 0.0074768057 -0.012375025 0.0064496645
-0.009612705 -0.015159833 0.012544322 0.012912827 0.00020733787 0.010085929 -0.004914815 -0.0020677182
0.003852378 -0.010485346 -0.010352481 0.008887066 -0.002503575 -0.0020743005 -0.014513078 -0.009367009
0.006851804 -0.006550682 0.0024539144 -0.00065122807 0.0045631966 0.009281566 -0.011297864 0.00819126
-0.012032564 0.0013605596 -0.0026410024 -0.007162267 0.010834745 0.009164878 0.013088394 0.008007378
0.013467901 -0.0044471165 -0.011646072 0.011727919 8.3839834e-05 -0.007183633 0.0040564644 -0.002635458
-0.0053095194 -0.0003728409 0.008345281 0.008523359 -0.006989078 0.0060556033 -0.0005673508 -0.008475729
-0.010813241 -0.015300985 0.005785242 0.0052091004 -0.011744507 0.0019477264 0.0046408805 -0.003972282
0.0018797831 0.013151797 -0.0038975659 -0.011943077 0.015634317 0.014839423 0.014896738 -0.009441081
-2.7752136e-05 0.0034317467 0.012894868 0.015327102 0.0078121484 0.00076805777 0.009390507 -0.0055255997
0.0027145948 -0.004230343 -0.015608422 0.0026827774 -0.007387799 0.004583108 0.014641797 0.0053346558
0.010333296 0.013715816 0.009412291 -0.0062451446 0.0065494757 -0.0118959835 0.01526346 -0.0017112078
-0.0070325173 -0.00933167 0.011405383 -0.0034509418 0.011125597 -0.00122118 0.013644353 0.0026579087
0.015365782 -0.005952374 -0.0015289704 -0.0121417 0.015009118 -0.0034311502 -0.0019740537 0.0071917656
0.0007996452 -0.01492775 0.0036853717 -0.00062971783 0.0091781365 -0.005318924 0.0009826268 -0.00014311208
0.001836112 -0.008401004 -0.0071975156 0.0013592917 0.010612635 -0.0016804431 -0.015565279 0.0013122921
-0.00829718 0.001186451 -0.006962016 0.0002435067 -0.012633626 -0.0043537156 -0.00022457706 0.0031739739
0.0029161284 -0.011879975 -0.014209372 -0.0026800698 0.012621576 -0.010532387 0.010162775 0.015677426
00000000: 8cbe 0bbc 1932 76bc 5943 1c3b 2dee 7c3c
00000010: ae02 573a f2ec a1bb d00c e73a ab3d aa3b
00000020: 9a30 933a 4c9a 533b dcc9 84ba 4b6b 73bc
00000030: 1ae6 b6bb f7f4 2c3c e351 623a 93f5 5a3b
00000040: d28d 07bc 6b35 4b3b 3a09 363c f4ef 903b
00000050: add3 72bb 9e91 1c3c da16 cf3b 36c2 973b
00000060: 8acf 04bb 2b4b 703b d128 4c3c b74b 57ba
00000070: 38a6 3bbc 7eed 04bc 2f33 b03b c844 473c
00000080: f875 ec3b fd49 e6bb 819d 77bb e5a0 c83a
00000090: a569 373c 80b7 b0ba d965 86bb 23c8 3539
000000a0: 05eb 2f3c 2dcc 3c3c 465e b0ba c55c 183c
000000b0: 5809 b63b b780 7dbb 1883 1dbc 5ae8 aa3b
000000c0: e73c 3bbc a4a1 6c3c 55ff c3bb 716d 9ebb
000000d0: f1ed fdbb 4189 bf3b 5327 183a 4779 9a3b
000000e0: afcd 113c d661 2cbc e8b5 433b c166 79bc
000000f0: ea10 233b e28f 483c 48c0 8f3a 9887 3c3c
00000100: 5452 93bb ff6d 813a 2415 fd3a 46a4 1e3c
00000110: ab60 003c c6b3 243c 6305 c4bb ac73 303a
00000120: 0f0c 46bc 6135 67bb 489c 9e3b 8fea e8ba
00000130: b850 473c 6b75 36bc 7cc9 44bc 7c7a 3f3c
00000140: 6403 92bb bb03 eebb a626 bebb d056 3f3c
00000150: 3e82 dfbb 946d 5dbc 1793 783c 85bf 663c
00000160: f752 333c 01a7 3c3c 8abe 87bb 6e1d 91bb
00000170: abfb 5d3b 9ea0 f2bb 4492 e3b9 24c0 2fbc
00000180: a4be 893a aec4 aabb b12a 84bb 3a01 d2bb
00000190: 7bf9 5b3c 9944 443c aa8e 3bbc 2bdd b23b
000001a0: 7c4e 3b3b c360 f43b 9aa6 e63a f761 76bc
000001b0: 8aa7 14bc 3799 2b3c 19e4 593b 6b07 2f3c
000001c0: 4288 a33b 2ff7 3fbb 29bd af3b 5f17 903a
000001d0: d2e8 413b feff f43b 9ec0 4abc b557 d33b
000001e0: 9b7e 1dbc f360 78bc b386 4d3c 5290 533c
000001f0: d668 5939 743f 253c 750c a1bb 8e82 07bb
00000200: 2e78 7c3b bbca 2bbc 749d 29bc 0e9b 113c
00000210: 0513 24bb fdf0 07bb 43c8 6dbc 1578 19bc
00000220: 1985 e03b 1aa7 d6bb dad1 203b 2db7 2aba
00000230: de86 953b b611 183c ad1a 39bc a234 063c
00000240: 3b24 45bc ce54 b23a ab14 2dbb 73b1 eabb
00000250: 3784 313c 4928 163c b470 563c 6131 033c
00000260: 79a8 5c3c 1eb9 91bb 2bcf 3ebc 7526 403c
00000270: 2bd3 af38 ae64 ebbb 17ec 843b a6b7 2cbb
00000280: 7afb adbb dc79 c3b9 a5ba 083c 8fa5 0b3c
00000290: a304 e5bb 156e c63b 45ba 14ba c9dd 0abc
000002a0: 052a 31bc fcb0 7abc 2192 bd3b 1ab1 aa3b
000002b0: 086c 40bc da4a ff3a 8712 983b eb29 82bb
000002c0: 0e63 f63a a27a 573c 4e6e 7fbb e5ac 43bc
000002d0: 8a13 803c 0d21 733c 7311 743c c4ae 1abc
000002e0: 42cd e8b7 28e7 603b ff44 533c 861e 7b3c
000002f0: 0dfd ff3b 7c57 493a a4da 193c 1710 b5bb
00000300: 58e7 313b b09e 8abb 78ba 7fbc 89d1 2f3b
00000310: 5a15 f2bb e52d 963b 26e4 6f3c 56ce ae3b
00000320: fc4c 293c 4db8 603c 0336 1a3c 12a4 ccbb
00000330: fc9c d63b 5fe7 42bc 9713 7a3c 9b4a e0ba
00000340: 0871 e6bb dce3 18bc a5dd 3a3c 3229 62bb
00000350: 2348 363c 0010 a0ba 908c 5f3c 4f30 2e3b
00000360: c3c0 7b3c 220c c3bb bc67 c8ba fbed 46bc
00000370: cee8 753c 26dd 60bb 205f 01bb e7a8 eb3b
00000380: 489f 513a 8693 74bc 4786 713b a613 25ba
00000390: e55f 163c 5e4a aebb 7ccb 803a 5b10 16b9
000003a0: b2a9 f03a 5da4 09bc 23d9 ebbb 432a b23a
000003b0: 9ee0 2d3c 5042 dcba 8305 7fbc 3701 ac3a
000003c0: e5f0 07bc b082 9b3a a021 e4bb d555 7f39
000003d0: 45fd 4ebc 9da9 8ebb 727c 6bb9 7202 503b
000003e0: 841c 3f3b 3aa4 42bc 6dce 68bc 1ca4 2fbb
000003f0: baca 4e3c 0890 2cbc c581 263c f26d 803c

recurrent.conv_x_h.bias f4 [64]
0.0 0.0 0.0 0.0 0.0 0.0 0.0 0.0
0.0 0.0 0.0 0.0 0.0 0.0 0.0 0.0
0.0 0.0 0.0 0.0 0.0 0.0 0.0 0.0
0.0 0.0 0.0 0.0 0.0 0.0 0.0 0.0
0.0 0.0 0.0 0.0 0.0 0.0 0.0 0.0
0.0 0.0 0.0 0.0 0.0 0.0 0.0 0.0
0.0 0.0 0.0 0.0 0.0 0.0 0.0 0.0
0.0 0.0 0.0 0.0 0.0 0.0 0.0 0.0
00000000: 0000 0000 0000 0000 0000 0000 0000 0000
00000010: 0000 0000 0000 0000 0000 0000 0000 0000
00000020: 0000 0000 0000 0000 0000 0000 0000 0000
00000030: 0000 0000 0000 0000 0000 0000 0000 0000
00000040: 0000 0000 0000 0000 0000 0000 0000 0000
00000050: 0000 0000 0000 0000 0000 0000 0000 0000
00000060: 0000 0000 0000 0000 0000 0000 0000 0000
00000070: 0000 0000 0000 0000 0000 0000 0000 0000
00000080: 0000 0000 0000 0000 0000 0000 0000 0000
00000090: 0000 0000 0000 0000 0000 0000 0000 0000
000000a0: 0000 0000 0000 0000 0000 0000 0000 0000
000000b0: 0000 0000 0000 0000 0000 0000 0000 0000
000000c0: 0000 0000 0000 0000 0000 0000 0000 0000
000000d0: 0000 0000 0000 0000 0000 0000 0000 0000
000000e0: 0000 0000 0000 0000 0000 0000 0000 0000
000000f0: 0000 0000 0000 0000 0000 0000 0000 0000

linear.weight f4 [1, 64]
0.052342594 -0.032910317 -0.055402726 4.248321e-05 -0.0128219575 0.061124325 -0.09071067 0.020170808
-0.02052173 0.08573149 0.03704852 0.03093125 0.093676224 -0.00056654215 -0.066821575 -0.12087318
-0.06885336 0.037542045 -0.05282952 -0.022368252 -0.08539358 -0.03704323 -0.12319222 0.089949414
-0.0028029382 0.048732057 -0.09576684 0.11322419 -0.088174775 0.09669165 -0.10615316 -0.10639675
0.0034187138 -0.10306218 0.12091774 0.111706495 0.1077093 -0.03205934 -0.035373196 0.012657732
0.102660716 -0.015683487 0.023440912 -0.047361836 -0.05584477 -0.050807863 0.020454586 0.11203855
0.045756564 -0.05962026 0.047213808 0.0634761 -0.09689759 -0.027082384 0.050655708 0.02709362
0.04505013 -0.032524973 -0.024257928 0.054628998 -0.0797773 0.05902873 0.0808415 -0.009992823
00000000: 3065 563d f8cc 06bd f8ed 62bd 0030 3238
00000010: 3013 52bc 805d 7a3d 84c6 b9bd 403d a53c
00000020: 301d a8bc fe93 af3d 30c0 173d 8863 fd3c
00000030: 52d9 bf3d 0084 14ba c0d9 88bd 5c8c f7bd
00000040: fe02 8dbd b0c5 193d c463 58bd a03d b7bc
00000050: d4e2 aebd a4ba 17bd 344c fcbd 6637 b83d
00000060: 80b1 37bb 449b 473d 6821 c4bd 16e2 e73d
00000070: fa94 b4bd 4606 c63d d466 d9bd 8ae6 d9bd
00000080: 800c 603b 4412 d3bd b8a3 f73d 60c6 e43d
00000090: b296 dc3d a850 03bd 7ce3 10bd 6062 4f3c
000000a0: c83f d23d a87a 80bc 2807 c03c 7cfe 41bd
000000b0: 7cbd 64bd e81b 50bd 6090 a73c 7874 e53d
000000c0: 3c6b 3b3d 6034 74bd 4463 413d c2ff 813d
000000d0: 3e72 c6bd e0db ddbc 5c7c 4f3d 70f3 dd3c
000000e0: 7c86 383d e838 05bd 90b8 c6bc a8c2 5f3d
000000f0: 4862 a3bd 1cc8 713d 3a90 a53d f0b8 23bc
