DCRNN_mi_local.pth (torch, 29396 bytes, 7 tensors)

recurrent.conv_x_z.weight f4 [2, 1, 33, 32]
000000 03 57 5b 3e e5 90 c8 bb 07 c6 dc be 70 b7 37 3c
       0.21419911 -0.0061207884 -0.43119833 0.0112131685
000010 1c 0a fa bd 09 7a 5a 3e 2d a2 c4 be e5 68 44 bf
       -0.122089595 0.21335615 -0.3840498 -0.76722556
000020 a0 bd 1f bf 1c c6 03 bf 9c b1 55 3e b2 c9 33 bf
       -0.6239872 -0.51474166 0.20868534 -0.7022964
000030 c0 34 0e 3e ed b1 2d bf 78 06 d4 bd 6c 47 7e bd
       0.1388731 -0.6784962 -0.10352796 -0.062079832
000040 9e 13 6d 3e 5e 44 7d 3e 3b 77 1a 3e 93 84 3b 3d
       0.23152015 0.24733111 0.15084545 0.04578073
000050 7b bc ed be 29 59 0c 3f 87 9a 01 bf 95 15 93 bd
       -0.46432862 0.5482355 -0.50626415 -0.07181851
000060 ce 63 ea be 1a 26 31 3e 37 0f e2 be 55 d1 f3 3c
       -0.4577927 0.17299691 -0.44152233 0.029762903
000070 a6 3f fa be 53 09 19 bf 68 13 6c bf d9 ef 12 3f
       -0.48876685 -0.5977985 -0.9221711 0.5739723
000080 ab ca b2 3d de 47 fc 3d 94 2d d1 3d 65 e8 88 3e
       0.08730062 0.12318395 0.102137715 0.26739803
000090 ed 3a 19 bd c5 ac 92 bd d5 2b 47 3e 8e 67 3f bd
       -0.03740971 -0.071618594 0.19450314 -0.046729617
0000a0 93 49 b2 3d c8 c0 20 3d df 68 85 be cc 72 e0 3d
       0.087054394 0.03924635 -0.26056573 0.10959396
0000b0 5c 5b 44 3e 38 35 e4 3c b6 41 17 bd 1f 40 70 3e
       0.19175476 0.027857408 -0.0369279 0.2346196
0000c0 8b f8 ee bb a3 5b 6f 3d 06 77 5a 3b 65 66 a0 3e
       -0.007292812 0.058437 0.0033335104 0.3132812
0000d0 a1 b7 ff 3d 58 9c a3 3e 42 c1 93 3d 75 e6 21 3e
       0.12486196 0.31955218 0.072145954 0.15810569
0000e0 12 b1 86 3d 79 fb a9 bd f4 34 23 3f 23 15 11 3f
       0.06576742 -0.08299918 0.63752675 0.5667288
0000f0 59 b5 08 3e ea d1 e8 3c 09 f2 51 be 7c 0e 1a 3f
       0.13350429 0.028420407 -0.20502485 0.6017835
000100 8d ca c2 bd b2 9e 57 bd 80 7e 13 3e 54 8a 84 bc
       -0.0951129 -0.052641578 0.14403725 -0.016179241
000110 99 00 a9 bc f2 0c 9b be f3 00 84 3c 9b 36 2a 3e
       -0.020630168 -0.30283314 0.016113734 0.16622393
000120 40 de fa 3d 76 6a 7c 3c 50 9f 5e be 17 a0 a7 be
       0.12249422 0.015406242 -0.2174046 -0.32739326
000130 c9 fc 49 bd e2 f8 09 3e df 57 9e 3e f5 cb 15 bd
       -0.04931334 0.13473848 0.30926415 -0.03657146
000140 57 6b 92 be 5e 78 9e bd 8a 49 6b be 16 88 f9 bd
       -0.2859752 -0.07737802 -0.22977272 -0.121841595
000150 d0 72 29 3e 91 c9 b6 bc b1 5c 87 3d 76 db b7 bd
       0.16547704 -0.022312911 0.06609476 -0.08977406
000160 3c f9 aa 3d da 2e 68 be 05 ea 8a 3d 1a a7 58 be
       0.08348319 -0.22674122 0.06782917 -0.21157494
000170 b4 28 90 3d aa 0f ef 3d 1e 7a 0a 3e c4 ff b9 bd
       0.070390135 0.116729096 0.13523147 -0.090819865
000180 0c 84 28 3d 8d 95 48 3d 93 7b 36 bd 0e c6 c4 bc
       0.041141555 0.048970748 -0.044551443 -0.024020221
000190 f2 dc aa 3c 0f c5 8b 3e 5f 8c ba 3d 13 e4 e1 bd
       0.020857308 0.2729878 0.09108805 -0.1102983
0001a0 07 41 92 bd dd 23 d8 3b 6f d4 6a 3e 95 15 f2 3c
       -0.07141309 0.006596072 0.229326 0.029551307
0001b0 10 9f c9 bd 79 6d 98 bd 39 30 34 be 50 39 7c bd
       -0.09844792 -0.07442755 -0.1759652 -0.061578095
0001c0 31 99 86 3e 3e b5 8b 3c 25 60 5b 3e 2e d0 49 bd
       0.2628875 0.017054196 0.21423395 -0.0492708
0001d0 b4 83 c3 bc 61 85 8c bd 29 0a 30 bb 0a c5 8b 3d
       -0.023866512 -0.068613775 -0.0026861525 0.068246916
0001e0 2b c2 91 3d fb 92 69 3e f2 dc 56 be c6 a4 e5 3c
       0.07117113 0.22809975 -0.20982721 0.028032672
0001f0 c5 4d 2b 3d 9a e1 17 bd f0 60 35 be cf ee ce bd
       0.041822214 -0.037080385 -0.1771276 -0.10104143
000200 c9 da f8 bd 33 b3 43 3b f7 1d 4d 3e 42 a7 98 3e
       -0.12151105 0.002986145 0.20030962 0.29815108
000210 9a 8b 16 bd 94 47 62 be 09 da 90 3b 0e 31 9e bd
       -0.03675423 -0.22097617 0.004420523 -0.077242
000220 aa b2 17 3e 20 de f2 bc b6 37 a3 bd 6b 0a 65 3e
       0.14814249 -0.029646933 -0.079696104 0.22367255
000230 01 72 15 3e 06 e6 33 3d 8b e7 76 be 03 40 0d 3e
       0.1459427 0.04392054 -0.24111764 0.1379395
000240 9c 5a 77 be 2f 4f 96 bd c6 69 3b be 95 29 76 3e
       -0.24155658 -0.07339322 -0.18302068 0.240393
000250 f8 1f c8 3d 06 a5 6a 3e 2d f1 36 3e ba 56 33 3c
       0.097717226 0.22914514 0.17865439 0.01094597
000260 aa 00 b8 bb 97 3f 28 be 5c 72 70 3e b6 09 ad 3e
       -0.0056153135 -0.16430508 0.23481125 0.3379647
000270 d6 31 3e bc 11 4d 9e 3d db 35 58 bc 23 ee 0b 3f
       -0.0116085615 0.07729543 -0.013196434 0.5466024
000280 7e 08 bd bd 64 b7 9e bd a5 c6 aa 3d 00 08 e6 bc
       -0.092301354 -0.07749823 0.0833867 -0.028079987
000290 bb 7a f4 bc aa fd 9e be f2 d5 d5 bc 98 0e 36 3e
       -0.029843679 -0.31052905 -0.026102994 0.17779005
0002a0 b8 7e 9c 3d d2 74 ba bb 6d 7a 41 be eb 9b a3 bd
       0.07641357 -0.0056901956 -0.18894358 -0.07988723
0002b0 44 97 be bc 82 d4 a3 3d 68 51 52 3e 5d 28 46 bb
       -0.023265488 0.07999517 0.20538867 -0.003023646
0002c0 67 00 86 be 3c 11 31 39 07 ec 7e be f0 12 b8 bd
       -0.26172182 0.00016886456 -0.24894725 -0.08987987
0002d0 d0 60 98 3d fa 9a 88 3d bc 60 56 3c c6 f8 c0 bd
       0.074403405 0.066701844 0.013084587 -0.0942245
0002e0 38 05 f5 3c fe 06 82 be 54 ed 80 3e 5a e0 c5 bd
       0.029909715 -0.2539596 0.25181067 -0.09661932
0002f0 d4 06 da bc b6 71 ce 3c 58 00 42 3e af be dc bc
       -0.026614584 0.025200706 0.18945444 -0.026946394
000300 4c 0b a1 bc 95 18 14 be ad 24 db 3d eb f0 0a bc
       -0.019658707 -0.14462502 0.10700355 -0.008480291
000310 7d e5 93 bc 85 43 81 be ab 43 85 bd 78 b0 40 3e
       -0.018053764 -0.25246826 -0.06507047 0.18817317
000320 62 dc 0b 3e 89 c2 ff bc 07 f5 29 be 98 99 e9 be
       0.13658288 -0.031220691 -0.16597377 -0.45624995
000330 d3 45 02 be 5c e6 08 3e be ec aa 3e 7b 50 0c be
       -0.12721948 0.13369125 0.33383745 -0.13702576
000340 a7 24 85 be 9c 62 9a bd 12 ac 49 be 11 8d 8d be
       -0.26004526 -0.075383395 -0.19694546 -0.27646688
000350 b8 c6 86 3d b7 d3 03 be b3 07 b4 3c f4 42 bd bd
       0.06580871 -0.12873732 0.021976328 -0.09241286
000360 69 c2 45 bd 51 f9 89 be d4 26 33 3d 1b db 81 be
       -0.048281107 -0.26948026 0.0437382 -0.25362477
000370 b1 f0 92 3c d6 ef 33 3d cf ad 06 3e 1d 33 5b be
       0.017937036 0.043929897 0.1315224 -0.21406217
000380 6a 63 41 3d 17 51 b2 3d 42 0d 77 bc e6 f8 8e bd
       0.04721395 0.08706873 -0.0150788445 -0.06981067
000390 70 8b 74 3d 40 25 9b 3e 24 88 1b 3d 3f bd 1c be
       0.05970329 0.30301857 0.03797163 -0.15306567
0003a0 d2 8f 7c bd 1a c6 c2 3b c9 5d 4d 3e 35 3f 15 be
       -0.061660595 0.0059440257 0.20055307 -0.14574893
0003b0 d3 f7 f7 bc 69 fb 44 bd 35 b5 53 be 42 98 a1 bc
       -0.030269539 -0.048091326 -0.20674594 -0.019725922
0003c0 71 cb 90 3e e1 bc 81 bc 1c 33 37 3e fe ce 98 bd
       0.28280213 -0.015837135 0.1789059 -0.074613556
0003d0 ed 3b a7 bc 95 95 2a bd 08 1f fa bc 95 34 a4 3c
       -0.020414317 -0.04164656 -0.030532375 0.020044604
0003e0 ec 34 41 3d 42 3e 94 3e 77 8c a9 be e4 a9 27 bc
       0.04716961 0.2895375 -0.3311498 -0.010233376
0003f0 dd 94 11 3d c9 b5 98 bc c7 cd 55 be a7 c8 bb bd
       0.035542358 -0.01864137 -0.20879279 -0.09169131

recurrent.conv_x_z.bias f4 [32]
000000 ec f0 9f 3d fe 15 4a 3b 33 02 96 3d 83 dd af be
       0.07809624 0.0030835862 0.07324638 -0.34348688
000010 40 59 42 3e 44 8d b4 3d 9d 76 13 3e bd 75 f3 be
       0.18979359 0.08816007 0.14400716 -0.47550765
000020 64 fe b5 bc 95 a6 4a bd 23 ed d3 3c d8 63 3c bf
       -0.02221603 -0.04947527 0.025869912 -0.7358985
000030 20 a9 37 3d f0 38 a3 bd ab 01 57 3e bb 46 a0 be
       0.044839025 -0.07969844 0.2099673 -0.31303963
000040 d7 d9 96 3c 40 16 1a 3e 48 da d1 3d f2 9a 0d bf
       0.018414421 0.1504755 0.10246712 -0.5531455
000050 e8 95 3e 3d fe 7b f6 be b0 27 13 3d d8 fb 87 bd
       0.04652968 -0.48141474 0.03592652 -0.06639832
000060 2f 13 29 3e 80 19 cb 3c 37 70 0d bf ab 48 b8 be
       0.16511224 0.024792433 -0.5524935 -0.3599294
000070 1e a5 b6 3d 12 09 80 bd 7a 0c 34 bf 0b cc a3 3c
       0.08918212 -0.0625173 -0.7033154 0.019994756

recurrent.conv_x_r.weight f4 [2, 1, 33, 32]
000000 55 70 93 be 17 b6 a1 3d ed db 06 3e d5 49 aa bd
       -0.2879664 0.07896059 0.13169833 -0.083148636
000010 27 83 f5 3d a1 94 dd 3d 4e f7 0a 3e 54 c8 2c be
       0.11987906 0.10819364 0.13570902 -0.16873294
000020 10 3d c0 3c bb 31 5f bc 0b b7 5e be 98 0e 60 be
       0.023466617 -0.0136226965 -0.21749513 -0.21880567
000030 a3 46 fd 3d d8 6b 27 be 9d b9 11 3e e5 f0 8d 3d
       0.123669885 -0.16349733 0.14230962 0.069307126
000040 c2 53 0a 3d e8 f4 09 be a2 69 ce 3d 63 4e 99 3d
       0.033771284 -0.1347233 0.100787416 0.07485654
000050 a9 99 f8 3d d9 e1 c7 bd fb ab b6 3d fb 7d 90 3d
       0.12138683 -0.09759874 0.089195214 0.07055279
000060 c1 d0 4f 3e 62 55 d0 3d ec 27 93 be be 87 a2 be
       0.20294477 0.101725355 -0.28741395 -0.31744188
000070 95 66 fa 3d f0 05 aa 3b 35 be aa be 93 23 b4 3a
       0.12226597 0.005188696 -0.3334824 0.0013743512
000080 77 ea 2a bd fc 16 2d 3c e9 3b 63 bc 08 0f b3 bc
       -0.04172751 0.010564562 -0.013869264 -0.021857753
000090 42 ec a2 3d 24 11 83 3d 4e 44 11 3d f3 c7 83 3c
       0.07955219 0.06399754 0.03546553 0.016086554
0000a0 a8 78 86 3c 6d 08 6e 3d 52 30 06 3e a8 3b 01 be
       0.016414955 0.058113504 0.1310437 -0.12620413
0000b0 cf e3 9d 3c c2 a8 0a 3d fa b7 6e 3d 04 33 93 3d
       0.019273667 0.033852346 0.058280922 0.07187465
0000c0 32 e5 9c bc 12 4b 95 bd 7e af a8 3c de 70 91 3c
       -0.019152258 -0.07289709 0.020591494 0.017754015
0000d0 51 88 c8 3d 2e 6d 5b bd d3 bf 1c bc e8 f6 cf 3c
       0.09791625 -0.05357092 -0.009567219 0.025386289
0000e0 f0 03 0c 3d 5d 16 ba bc fa 60 01 bd 82 37 b0 bd
       0.034183443 -0.022715742 -0.031586625 -0.08604337
0000f0 3b 89 19 3d b0 cb 9e 3c 9d 50 15 3e fa ff 65 bd
       0.03748439 0.019384235 0.14581533 -0.05615232
000100 4e db bf bc ff cf 4f bd 3c 31 a7 bc 71 5d 6b 3d
       -0.023420002 -0.05073547 -0.020409219 0.05746216
000110 e4 67 9a bd d8 b1 c0 bd b7 ac c0 bd 4e 9d c6 3d
       -0.07539347 -0.09408921 -0.09407943 0.09697972
000120 2e c1 7b 3d 97 b9 7a 3c a9 5f e2 bc eb 6a a2 3d
       0.061463527 0.015303037 -0.027633505 0.07930549
000130 46 62 d8 bc 53 2c 8b 3d ed 8e da bd 46 fa 3c bd
       -0.026414048 0.067955635 -0.10671792 -0.046137117
000140 0b 4a 63 bd 52 a2 0e 3d e6 b4 84 bd 26 b0 10 bb
       -0.055490535 0.03482277 -0.06479816 -0.002207765
000150 b0 84 e6 bd dc 8f e8 3b 58 6c 86 bd 48 0c 9f bd
       -0.11255777 0.0070972275 -0.06563634 -0.07766014
000160 3c dd 7b bd ca a6 c6 bd 76 88 63 bd 5a 1a 06 bc
       -0.061490282 -0.09699781 -0.05555006 -0.008184994
000170 4e 17 1d bd 1e f7 28 3b 3c 99 ef 3b 99 14 ab 3d
       -0.038352303 0.002578206 0.007311968 0.08353538
000180 55 55 11 bd ad 68 55 3d d1 71 da 3a a1 45 92 bd
       -0.03548177 0.05210178 0.0016666 -0.07142187
000190 00 99 17 3d 4f d1 dc 3d 7b 04 3e 3d 1a 61 e9 bb
       0.037011147 0.1078211 0.04639099 -0.007122171
0001a0 3b 9c 57 bd 5f 65 58 bd b7 55 1a bb d6 e9 2d bc
       -0.052639227 -0.05283105 -0.0023549625 -0.010614833
0001b0 6e ca 0e 3d 22 a3 a4 bd 23 0e da 3d bb 4a e3 3d
       0.03486102 -0.080389276 0.106472276 0.11098238
0001c0 6e 3d 7c 3d 13 cd 9a bd bf 16 26 3d 9f 50 b0 3c
       0.06158202 -0.07558646 0.040549036 0.021522818
0001d0 67 b3 d5 3d ad b8 b2 bb 7d 3b 39 3d da 15 8b 3d
       0.10434609 -0.005454144 0.045222748 0.06791277
0001e0 a1 51 ba 3d e8 c2 ec 3c 89 5d 18 3d b5 d1 12 3c
       0.09097601 0.028901532 0.037198577 0.008961131
0001f0 da 69 e3 bb ec ed e6 bc 36 ad d4 3d c9 53 97 bd
       -0.0069401087 -0.028189622 0.103846 -0.073890276
000200 18 27 e5 3c c9 66 89 bd 8d d6 de bd 65 81 1c 3e
       0.027972743 -0.06709058 -0.10880766 0.15283735
000210 d7 b0 df bc 54 8d 13 bc 7c e9 11 bd df 83 92 3c
       -0.027306003 -0.009005863 -0.03562306 0.017885147
000220 57 60 97 3d b2 13 e7 3d 61 58 9c 3d d0 ce b2 3d
       0.07391422 0.112830535 0.076340444 0.087308526
000230 b2 c2 82 bd 13 b7 ed 3d 1c 6c f0 bc 90 8a 0b be
       -0.063847914 0.11607184 -0.029348426 -0.13627076
000240 d3 75 97 bc 6d 04 c0 3d ca 92 59 bd 2a a1 8e bd
       -0.0184888 0.09375844 -0.053118505 -0.06964333
000250 b2 15 82 bd 33 cb 65 bd 63 74 86 3c 30 34 a5 bd
       -0.06351794 -0.05610199 0.01641292 -0.080665946
000260 9f 93 cb 3c 4f 07 2d 3b ea 25 cd 3d f8 d2 47 3c
       0.024850665 0.0026402061 0.10016997 0.012196295
000270 ac a0 dd bc 01 24 3e 3d c4 9d 03 be 28 20 f3 3d
       -0.027054153 0.046421055 -0.12853152 0.11871368
000280 85 80 b4 bc e4 7d 22 bd c7 ff 28 bb 4c 6b 21 3c
       -0.02203394 -0.03967084 -0.002578722 0.009852242
000290 35 13 81 bd 84 d7 cc bd 85 59 38 bc 95 4b 66 3d
       -0.063024916 -0.10002044 -0.011251812 0.056224424
0002a0 be fb ac 3a aa 33 ae 3c dd bc 53 3c a0 a1 08 3d
       0.0013197584 0.02126487 0.0129234465 0.033357263
0002b0 9e df 04 bd a4 48 9d 3c 38 89 a5 bd 2d 71 e0 bd
       -0.03243982 0.019199677 -0.08082813 -0.109590866
0002c0 95 8d dd bd 6d d3 5b 3c 10 d7 c8 bd 2e 0b 0d 3d
       -0.1081802 0.013417107 -0.09806645 0.03443449
0002d0 88 56 87 bd b0 8c 56 bc 28 af 17 3c f4 4f dc bd
       -0.066083014 -0.013095066 0.009258069 -0.10757437
0002e0 e0 b0 4b bd eb c3 50 bd 2d 72 d7 bd 1b c1 30 3d
       -0.049729228 -0.050968092 -0.10519824 0.04315291
0002f0 63 ab 28 bd 2d bb bd 3d 4f 33 e9 bb 43 c8 6c 3d
       -0.041179072 0.092642166 -0.007116712 0.057808172
000300 c7 f8 d1 3b 1e 9a 6f bd ff 5f 9a bd bf 4d 3d 3c
       0.0064078304 -0.058496587 -0.07537841 0.011554181
000310 72 a8 8f bd 87 76 5c bd 29 12 34 bd 85 3f 89 3d
       -0.0701455 -0.053823974 -0.04396263 0.067015685
000320 cc c8 d5 3c 74 03 df 3c 1c 58 c6 3c c5 c0 2d 3d
       0.026096724 0.027223326 0.024211936 0.042420167
000330 3d 40 1e bd 05 46 8d 3b a8 07 ed bd be 62 d9 bc
       -0.03863548 0.0043113255 -0.11573726 -0.026536342
000340 d6 a3 c0 bd f1 21 e0 bc 5b ba 30 bd cf 0b 0b bb
       -0.09406249 -0.027359935 -0.043146472 -0.0021216755
000350 10 5e 83 bd 01 4a ff b9 e8 db 1d bd ff 33 66 bd
       -0.064144254 -0.00048692527 -0.038539797 -0.05620193
000360 0e 32 c9 bd 32 72 a9 bd 4f 93 c8 bd 60 b1 0e 3d
       -0.09824 -0.08273734 -0.09793722 0.034837127
000370 a0 79 81 bd a1 92 5c 3d 0a 3b 09 bd 34 2d bd 3d
       -0.06322026 0.053850774 -0.03350357 0.092371374
000380 ed c8 1b 3a ae dd 68 3d 23 ef 35 3d 06 e6 c0 bd
       0.0005942721 0.056852035 0.04441751 -0.094188735
000390 1d 15 03 3d 90 42 10 3d 23 56 a4 3d 4a 22 d7 bd
       0.032002557 0.03521973 0.08024242 -0.10504587
0003a0 34 63 89 bd 69 db 2f bd 20 9e 5f bc 91 3d 2a 3c
       -0.067083746 -0.042933855 -0.01364854 0.010390655
0003b0 74 58 89 3d 5d 6c 8c bc 7f d3 a8 3d 74 d6 af 3d
       0.06706324 -0.017141515 0.08243465 0.085858256
0003c0 ad 1c 28 3d 3b 73 2b bd 11 a4 9d 3d 52 a2 b2 3c
       0.041042972 -0.04185794 0.07697309 0.021805916
0003d0 14 22 df 3c 9a fb 6c bd f1 29 04 3c 80 c0 9b 3d
       0.02723793 -0.057857133 0.00806664 0.07605076
0003e0 1a b1 7f 3d 1b bf 88 3d ab 9e c8 3d fd 84 f4 3c
       0.062424757 0.066770755 0.097958885 0.02984857
0003f0 62 52 77 3b 70 d4 9f bd f5 97 43 3d ce 2b db bd
       0.0037738313 -0.07804191 0.04775234 -0.107017145

recurrent.conv_x_r.bias f4 [32]
000000 ed 9d 8f bd 31 6d d6 bc 78 34 a2 bd 81 54 0a bd
       -0.07012544 -0.026175113 -0.07920164 -0.033771995
000010 fd c3 8d bc d1 e3 d1 bc 70 34 fa bc 0f d1 0b be
       -0.017305369 -0.025621327 -0.030542582 -0.13653968
000020 5d 16 03 be 10 89 02 be 7a 48 0d be b1 76 88 3e
       -0.128015 -0.12747598 -0.13797179 0.26653054
000030 69 f8 5a bd 3e 3e 19 be f1 26 5a bd 73 f0 91 bd
       -0.05345956 -0.1496515 -0.053259794 -0.0712594
000040 5f 75 cf bb ba 3e 6a bd 72 9f 7d bb 2a e7 a9 bd
       -0.0063311304 -0.057188727 -0.0038699773 -0.08296044
000050 7e db 22 bd aa 44 68 be ee e7 da bd 64 3c 26 bd
       -0.039760105 -0.22682443 -0.10688768 -0.040584937
000060 f7 34 b6 bd 4a f4 e2 bc 53 79 14 3e 86 08 c5 3b
       -0.08896821 -0.027704377 0.14499407 0.006012979
000070 99 7b e7 bd 18 46 0c be 8b 55 46 3e 88 10 9f be
       -0.11302871 -0.13698614 0.1936857 -0.310673

recurrent.conv_x_h.weight f4 [2, 1, 33, 32]
000000 66 14 a7 3d 0f 5c 2a be c5 45 4c 3e 5c 64 a5 bc
       0.081581876 -0.1663668 0.1994849 -0.020189457
000010 52 2b 1a be 02 54 57 be 65 85 33 3e 51 b3 44 3e
       -0.15055588 -0.2102814 0.17531355 0.19209029
000020 f2 18 55 3e e8 7c 3d 3e 4a 5e 5d bd 11 16 12 be
       0.20810297 0.18504679 -0.054045 -0.1426623
000030 7d 74 13 be 2f 4a 57 3e db 7c 71 bd a2 97 3e be
       -0.14399906 0.21024393 -0.058956962 -0.18612531
000040 f6 84 2c be 8f b4 0a 3e 08 23 40 be a8 26 35 be
       -0.16847596 0.1354544 -0.18763363 -0.17690527
000050 e0 a1 31 3e 66 2d 6a be f3 85 7c 3e ba 20 5d be
       0.17346907 -0.2286888 0.24660473 -0.21594515
000060 68 02 23 3e 72 26 5d be d8 8a b2 bc c9 08 0e 3d
       0.15918887 -0.21596697 -0.021794721 0.034676347
000070 7b 81 20 3e 40 27 5e 3e 9e 73 90 3e c9 45 16 be
       0.15674393 0.2169466 0.2821321 -0.14675058
000080 31 f3 90 bd ee 95 b8 bd 61 dd e3 3d e7 e6 54 3d
       -0.07077635 -0.09012972 0.11126209 0.051978018
000090 01 ef 3d bd df 3e ba bd 2c 1b a1 3d 01 a9 73 bd
       -0.04637051 -0.09094023 0.07866511 -0.059487347
0000a0 8c 74 5f 3d 19 dd 05 3d 11 28 c4 bd b0 02 f8 bc
       0.054554507 0.03268156 -0.095779546 -0.030274719
0000b0 60 35 3c bd ec cc 5a 3b 56 3f d9 b9 e0 20 13 be
       -0.04594934 0.0033386303 -0.00041436654 -0.1436801
0000c0 19 57 f6 bd 92 8f 8e bd 20 b0 55 bd 58 f6 d6 bc
       -0.12028331 -0.069609776 -0.05216992 -0.026240513
0000d0 c5 25 0a 3e 77 65 93 3b ea 9c a2 3d c3 3f dc bd
       0.1349097 0.0044981795 0.07940085 -0.10754349
0000e0 7f 49 b7 3d 7b 53 ad bd 6e bb 1b bd bd a4 66 be
       0.08949565 -0.08463188 -0.038020544 -0.2252378
0000f0 4d fb 41 3c 2a 4e a6 38 d1 7a 85 bd 48 6c c4 bd
       0.0118397 7.930056e-05 -0.06517566 -0.095909655
000100 71 98 3b 3d 2e c7 00 3d dc 1f ad bd 38 fd 13 3d
       0.045799676 0.031439953 -0.08453342 0.03613016
000110 e0 57 91 3d bb 2e 87 3d 8c 0a ee bd 47 b4 86 bd
       0.07096839 0.0660071 -0.116231054 -0.06577354
000120 ec c0 a4 bd 77 26 91 bd 00 44 72 3c 4a 8d 16 3e
       -0.080446094 -0.07087415 0.01478672 0.14702335
000130 2c f4 f8 3b 1b 68 8d bd 57 06 0d 3d 58 2f 8b bc
       0.007597467 -0.06904622 0.034429874 -0.016990349
000140 18 15 dc bb 65 ce a2 3d 0e d8 6c 3d 50 bc 7f 3c
       -0.0067163818 0.07949523 0.057823233 0.015608862
000150 59 06 c7 bd f0 ec 97 bb eb 16 b3 bc 57 11 42 3d
       -0.097180076 -0.0046363994 -0.021861514 0.047379818
000160 da 51 d3 bd 0a 4b 2a 3c 13 8f 7b 3e f8 3d 46 be
       -0.10318346 0.010393867 0.24566297 -0.19359577
000170 82 35 c5 bd c7 5a b6 bd f8 66 6e bd c4 a1 2f 3b
       -0.096293464 -0.08904033 -0.058203667 0.00267993
000180 77 d9 67 bd c8 5f a4 bd d2 5b 99 3c 2e 72 66 bd
       -0.056603875 -0.08026081 0.018720541 -0.056261234
000190 9e 8c 21 bd fe c0 5d bd fa d3 0a 3e be 85 23 3d
       -0.039440744 -0.05413913 0.13557425 0.03992247
0001a0 26 c0 a7 3d 00 a1 73 3d 31 7e 4b 3d da 26 b0 bd
       0.08190946 0.059479713 0.049680892 -0.0860116
0001b0 84 8d e0 bc c5 19 86 3d 71 4a 80 bd 8f 8a 68 3c
       -0.02741123 0.06547884 -0.062641986 0.014193191
0001c0 fb b5 33 bd 13 9e c0 bd 6d af 9c bd 31 68 1e 3d
       -0.043874722 -0.0940515 -0.07650647 0.038673583
0001d0 d3 3a 19 3d f8 e4 99 bc 76 e6 d1 3d 5c 1b d3 ba
       0.037409615 -0.018785939 0.10249035 -0.0016106176
0001e0 fa 57 81 3d 54 57 2b 3b 6b fc 6b be 3b 4c 20 3e
       0.06315608 0.002614458 -0.23045509 0.1565408
0001f0 fb f3 9f 3d 7e 66 55 3d da a5 b0 3d 62 64 1a bd
       0.078102075 0.052099697 0.08625384 -0.03769339
000200 8d 85 bf 3d b3 e6 01 be 47 ce 00 3e 0d 0b 13 be
       0.09351645 -0.12685661 0.12578689 -0.14359684
000210 68 b2 23 bd 46 19 f2 bd 9b 75 03 bd c8 f1 c7 3b
       -0.039965063 -0.11821227 -0.03209458 0.0061018206
000220 be c4 03 3e cb 1c 67 3c b8 75 28 bd 28 9c d5 3d
       0.1286802 0.014105986 -0.04112789 0.10430175
000230 59 71 0c bc e5 fd 06 3e 4b c1 86 3c 1d ac 71 be
       -0.008571946 0.1318279 0.016449591 -0.23600812
000240 f0 aa 02 be 44 0b 81 3d c7 a5 1a be 55 e8 04 be
       -0.1276052 0.06300977 -0.15102302 -0.12979253
000250 6f f6 82 3b ed e4 91 3b 3a 44 fb 3d 31 7e df bd
       0.0039966623 0.004452339 0.122688726 -0.10912741
000260 0f cf ba 3c 30 80 07 be 22 8b c4 3d 3e 79 15 be
       0.022803811 -0.13232493 0.0959685 -0.14597031
000270 22 15 84 bc 90 4d 05 3d 42 45 25 be 46 e5 50 bd
       -0.016123358 0.032544672 -0.16139701 -0.050999902
000280 02 d4 79 3d ca 85 29 3c 9d 6f e9 bc 6a e8 9a 3d
       0.060993202 0.010346839 -0.028495604 0.07563861
000290 8f b4 05 bd 46 04 86 3c b1 35 f9 bd 86 d3 20 bd
       -0.032642897 0.01635946 -0.12168444 -0.039264224
0002a0 7b 62 91 bc 49 45 fa bd 3c b0 0a bd 8c 2f e1 3d
       -0.017747154 -0.12220246 -0.033859476 0.10995397
0002b0 0a 8d ca 3c 23 99 a9 bd 09 6a 4b 3d d1 b4 ad bd
       0.024725456 -0.08281162 0.04966167 -0.084817536
0002c0 0a e7 ff 3c 3d 9e 9a 3d ec df 7d bc 73 3d 92 bc
       0.031238098 0.07549713 -0.015495282 -0.017851567
0002d0 7f e7 99 bd e9 9e 7b 3c 4f 4c fe bc b9 51 85 3c
       -0.075148575 0.015357711 -0.031042246 0.01627432
0002e0 6a ed 05 be 28 da 09 bd d7 9b 77 3e 8c 38 04 be
       -0.13078848 -0.033655316 0.24180542 -0.12912196
0002f0 8e c6 76 bd 20 c1 c3 bd 3b d9 5f bd 8a f8 1f bc
       -0.06024795 -0.0955832 -0.054650526 -0.009763846
000300 84 0f d0 3d 63 fc d1 b8 86 f5 10 bd 38 c8 a0 3d
       0.10159209 -0.00010012907 -0.0353904 0.07850689
000310 b6 06 75 3c ef 94 0a bc 8d 61 bf bd 24 f9 27 b9
       0.014955213 -0.00845836 -0.09344778 -0.00016019173
000320 bd a3 96 bd 34 a4 8a bd 04 a1 60 bc 26 81 93 3d
       -0.07355449 -0.067696005 -0.013710264 0.072023675
000330 9a 0f 86 3c 69 4a 97 3b 31 aa 17 3d 77 93 a9 bd
       0.016364861 0.0046170247 0.03702754 -0.0828008
000340 6f cf 36 3c 25 21 a2 3d 81 76 f7 3b 49 cf d9 bc
       0.011157854 0.07916478 0.0075519686 -0.0265881
000350 e2 38 a1 bd b9 08 ca bb 55 b5 99 bd 0c fb 7c bc
       -0.07872178 -0.0061655906 -0.075052895 -0.015440714
000360 6e 3c ce bd d6 e8 ab bc 1d e5 4e 3e a6 87 00 be
       -0.1007012 -0.020985048 0.20204587 -0.12551746
000370 aa b4 b3 bd 6b 18 f2 bc 88 fd 9b 3b a5 3e 44 bd
       -0.08774693 -0.029552659 0.004760448 -0.047911305
000380 6f 76 38 bd 36 dd 40 3d 17 a0 59 bc fb f4 a2 3c
       -0.045034822 0.047085963 -0.013282797 0.019892206
000390 9d 57 1d 3c 77 c9 3e bd c7 e0 a2 3d 66 f5 bd 3d
       0.009603408 -0.04657885 0.07953029 0.09275322
0003a0 58 a0 ff 3c ad 19 db 3d 17 28 48 3d 11 b9 a3 bd
       0.031204388 0.10698257 0.048866358 -0.07994283
0003b0 73 22 a1 3c 0a f9 28 3c 9f c4 5d bd ed d7 9a 3d
       0.019669747 0.010313282 -0.05414259 0.07560716
0003c0 64 37 31 3d 07 69 f1 bd 25 19 3a bd a7 26 87 3d
       0.043265715 -0.117876105 -0.045434136 0.06599169
0003d0 3b e0 94 3d e1 95 66 3d 5d 4a 86 3d f3 8a 69 3d
       0.07269331 0.05629528 0.065571524 0.057017278
0003e0 ca 67 d3 3d 4d a4 be bc 7b 9a 68 be 3e 4e 1d 3e
       0.103225306 -0.023271704 -0.2271518 0.15361878
0003f0 fc d6 ac 3d 08 d9 f8 3c 92 88 a8 3d e6 a0 99 3b
       0.084394425 0.030376926 0.08229174 0.00468837

recurrent.conv_x_h.bias f4 [32]
000000 e7 b0 8c bd 71 9a ad 3d 3e 91 8d bc b1 8c 6e 3d
       -0.06869679 0.08476723 -0.017281171 0.058239643
000010 16 61 bb 3b 43 fc 8a 3d 41 7a 50 3d ed a1 98 3d
       0.0057183607 0.06786396 0.05089784 0.0745276
000020 d4 8f dd ba 36 95 8d 3d cf 41 86 bd ab ff 03 be
       -0.0016903826 0.06913225 -0.06555521 -0.12890498
000030 e7 3f 4d 3b be f6 25 bb 03 07 d4 3b b1 8c 59 3e
       0.0031318606 -0.0025324072 0.0064705624 0.21245076
000040 3a 7c f4 3d f7 c8 79 bd c1 f9 74 3d db 10 b3 3c
       0.11937757 -0.06098267 0.059808496 0.021858623
000050 36 b6 7c 3d fe 5e b2 3c 9d e6 2a bd ec 9b 1d 3e
       0.061697207 0.021773811 -0.041723836 0.1539151
000060 0d 75 b0 3d d9 a1 ca 3d 13 f2 6a be 7c 74 2c 3d
       0.08616076 0.09894151 -0.22943906 0.042103276
000070 81 e2 c8 3d a2 81 aa 3c 90 24 a3 3e 35 c6 15 bc
       0.09808827 0.020813767 0.31863832 -0.0091414945

linear.weight f4 [1, 32]
000000 f8 19 30 bd 5f 02 97 be a0 85 4f 3e 46 be e7 bd
       -0.042993516 -0.29493997 0.20265818 -0.11315589
000010 22 46 31 be 97 34 ae be 83 46 67 3e c7 c3 7c 3e
       -0.1731191 -0.34024498 0.22585492 0.24684058
000020 04 16 3c 3e 34 ff a1 3e 91 55 df bd cb 53 11 be
       0.18367773 0.31640017 -0.10904992 -0.1419212
000030 49 9e 2b be 85 36 3e 3e 5c 54 c3 bc 1d a6 9e be
       -0.167596 0.18575485 -0.023843937 -0.3098611
000040 64 28 ac be 82 fe d2 bc bb 6a 99 be 8c 0d 90 be
       -0.33624566 -0.025756124 -0.2996424 -0.28135335
000050 0e 4c 95 3e 70 4f 00 bf 84 43 34 3e 61 ea 8b be
       0.29159588 -0.5012121 0.1760388 -0.27327254
000060 95 9d a8 3e 8a 3d be be 5a 6b a5 bb 8a 13 06 3e
       0.32932726 -0.37156326 -0.0050481977 0.13093391
000070 e2 d5 a9 3e dc 38 4b 3e 2b 34 90 3e 8d 0a 43 be
       0.33170992 0.19845909 0.281648 -0.19046994
