DCRNN_mi_local.pth (torch, 29396 bytes, 7 tensors)

recurrent.conv_x_z.weight f4 [2, 1, 33, 32]
000000 05 74 33 3f a0 c9 ab be 10 6b 56 3f ec 5b 6e 3f
       0.70098907 -0.33552265 0.83757114 0.9310901
000010 e8 9f f9 be 0b 7c f6 3e 33 25 ee 3d 0f 0f d8 3e
       -0.4875481 0.48141512 0.11628189 0.4219899
000020 3e 8f 80 bf a0 75 44 3f 70 8d 39 3f e4 1d 11 bf
       -1.0043714 0.7674198 0.7248144 -0.56686234
000030 06 87 25 bf c7 27 86 3f 32 7e 2f be b7 4a 9d 3f
       -0.64659154 1.0480889 -0.17137983 1.2288426
000040 25 2e 59 3f 97 83 12 3f 4f 5c 18 3f 9b 38 99 be
       0.84836036 0.5723204 0.5951585 -0.29926
000050 6a 0d dc be 19 6e 58 bf 63 96 09 bf fb 9d e4 be
       -0.42978984 -0.84542996 -0.53745097 -0.4465178
000060 2a ef 36 bf 41 66 76 3e e0 8d a5 be 9c 79 41 be
       -0.71458685 0.24062444 -0.32334805 -0.18894047
000070 04 00 76 3e 0e 81 bf be 75 5c 99 3f 88 45 85 be
       0.24023443 -0.37403148 1.1981341 -0.2602961
000080 49 a5 f9 3d 8b fd c3 3e 4e bd ea 3d 20 f1 4d be
       0.12189729 0.38279375 0.11461888 -0.20111513
000090 8a b4 cc 3e 5e bc 84 bb 65 98 56 bf 85 5d 60 3d
       0.3998149 -0.0040507754 -0.83826286 0.054776687
0000a0 b4 1e 30 3f 96 b9 55 3d 37 58 cf bd cc 63 5a 3d
       0.6879685 0.05217894 -0.101242475 0.05331783
0000b0 5b fc 12 bc f3 a5 02 be 13 85 0b 3f 97 56 5d be
       -0.008971299 -0.12758617 0.5449993 -0.21615063
0000c0 ca 93 1a bd 17 6e 3a be 59 7a 82 be 4a eb 8c 3e
       -0.0377386 -0.18206058 -0.2548397 0.2752326
0000d0 51 a3 ca 3e b7 30 ee 3e bb f2 95 bd 8b c1 a9 bd
       0.39577726 0.4652154 -0.07321688 -0.082888685
0000e0 12 24 27 3f f5 38 5a bd 14 2b 8a 3e ef 4b 15 bf
       0.65289414 -0.053276975 0.2698599 -0.5831899
0000f0 d9 05 15 3f c7 31 37 3f 64 7e 71 be cd 09 e0 be
       0.5821205 0.7156033 -0.2358337 -0.43757477
000100 fb 44 43 3d 02 ef 2c be 0e 9a 5a bd 18 03 db be
       0.047673207 -0.16888049 -0.053369574 -0.42775798
000110 f5 f0 bd be 8b c9 2e be 1f ad 10 bf e9 fd 3a be
       -0.37097898 -0.1706907 -0.5651416 -0.18260922
000120 db 78 00 3d 30 8e bf 3e 63 2b 4d 3e 64 38 6e be
       0.031365257 0.37413168 0.20036082 -0.23263699
000130 de d3 0a bf a4 2f 8a be aa bc 04 bf b0 79 00 be
       -0.54229534 -0.26989472 -0.5185038 -0.1254642
000140 84 53 a1 3e 14 97 9b 3e 59 b4 65 3e b2 fc 92 be
       0.3150903 0.303887 0.22432078 -0.28708416
000150 4e 38 4a bf 71 55 43 bb 33 3f 9c be dd cb c3 be
       -0.78992164 -0.0029805566 -0.30516967 -0.38241473
000160 83 91 cc be 2f 70 8b be 3d 57 e2 be 10 7a ee be
       -0.39954767 -0.27234027 -0.44207183 -0.465775
000170 32 07 87 3d 3a 8e 3b bf c3 12 1b 3e 23 5d 1f bf
       0.06593169 -0.73263896 0.15143876 -0.6225149
000180 b9 37 4f be 92 c4 ca 3e e0 af ef 3d 2a 5f 31 be
       -0.202361 0.39603096 0.11703467 -0.17321458
000190 ef a8 93 3e 0e ed c4 3c 81 fe 5b bd 17 b3 bb bd
       0.28839824 0.024038818 -0.05370951 -0.09165018
0001a0 91 08 30 3f 60 8a 64 3d 3d ce c4 3c be d2 0d 3e
       0.6876307 0.055796027 0.024024123 0.13849923
0001b0 79 24 8d 3d 59 e3 8c be 14 08 01 3f e4 86 85 be
       0.06891722 -0.27517202 0.5040295 -0.26079476
0001c0 86 95 fc bd 7c 86 ec bd 31 1b 91 be 44 22 95 3e
       -0.12333207 -0.11549088 -0.28341058 0.29127705
0001d0 39 6e 6f 3e 76 a0 ce 3e f7 ad 88 bd 0e 22 33 be
       0.2338189 0.40356797 -0.06673806 -0.1749346
0001e0 88 50 07 3f 33 fd 2e be 00 5e bf 3e cc 2b 0d be
       0.52857256 -0.17088775 0.37376404 -0.13786238
0001f0 52 c9 fd 3e 9b 33 07 3f 28 de b8 be a6 d5 6c be
       0.49567658 0.5281312 -0.36106992 -0.23128375
000200 40 0b 5c be 4b 9e 7b 3e 98 84 8b 3d b4 fa f3 bd
       -0.21488667 0.24572103 0.068123996 -0.11913052
000210 15 1b 88 3e 63 4c b2 bc c8 26 bb 3d 89 ce 9d bd
       0.26583162 -0.02176494 0.09138256 -0.07705409
000220 80 e5 06 3f eb f6 a5 bc c0 5f 3b bd 1a 78 7b 3d
       0.5269394 -0.020259341 -0.04574561 0.061393835
000230 5e 82 79 3d 53 d8 87 be 13 ff be 3e 74 25 45 bd
       0.060915343 -0.2653223 0.3730398 -0.04813142
000240 16 ba b4 bb 8f e1 25 be f8 28 72 be 21 d6 af 3e
       -0.0055153472 -0.16199325 -0.23648441 0.34343055
000250 7b 11 7d 3e 21 2c a8 3e 5d 6c 58 bc 94 2e 20 be
       0.247137 0.32846168 -0.01320943 -0.15642768
000260 52 6d fc 3e a4 c4 1c be b0 3b bb 3e 2a 55 ae be
       0.49302155 -0.15309387 0.36568975 -0.3404935
000270 9c 72 c1 3e 06 93 1a 3f 8d 70 bd be 92 04 81 be
       0.37782753 0.6038059 -0.36999932 -0.251988
000280 d1 fb 8e 3e de 2f 02 3e 54 a6 42 3f 0e e8 c4 3e
       0.27926496 0.12713572 0.76035047 0.38458294
000290 fd 15 aa 3d a7 b8 1f 3f bd cc 00 bf 0d ae 1d bf
       0.08304975 0.6239113 -0.50312406 -0.61593705
0002a0 a1 f6 b0 be 01 39 5b 3f af b5 21 3f 19 7c 7a be
       -0.34563163 0.85633856 0.6316785 -0.24461402
0002b0 35 8b 3e 3d 1c e9 80 3f f4 ed d2 3e 10 e5 16 be
       0.046519477 1.0071139 0.4119717 -0.14735818
0002c0 13 df f2 3e 88 7f c1 be 32 86 8c 3e 28 02 d6 be
       0.47435817 -0.3779261 0.27446133 -0.4179852
0002d0 ac 05 e1 bc 00 82 3f 3d a9 cc 24 3e ff ae 9f 3e
       -0.027468525 0.046754837 0.16093697 0.311882
0002e0 b2 cb 95 be 81 62 68 be a1 ec bc be ec c4 0e 3d
       -0.2925697 -0.22693826 -0.36899284 0.034855768
0002f0 74 af b2 bc 31 79 dd be 54 16 9a 3f 8c 56 ba bd
       -0.021812178 -0.43256524 1.2038064 -0.09098539
000300 00 0b 97 be 40 4d c2 3e 42 e7 e6 bc 30 1b ac be
       -0.2950058 0.37949562 -0.028186444 -0.33614492
000310 86 53 41 3e a0 7c 48 be 49 a4 7b be 07 4f 1a 3d
       0.18879518 -0.1957879 -0.24574389 0.037673023
000320 60 07 4b 3f 06 50 98 3c 6b 49 23 bb b3 87 f5 3d
       0.7930813 0.018592846 -0.0024915587 0.11988773
000330 46 e1 c4 3d a9 76 09 bf 9e 58 ae 3e ae 61 58 be
       0.0961328 -0.53696686 0.34051985 -0.21131012
000340 b9 88 b1 be bd 6e f4 bc 6c e9 88 be 24 92 bb 3e
       -0.34674624 -0.02983796 -0.26740587 0.36634934
000350 ea bc 9d 3e 51 5d d8 3e 2e fd 4c 3c 6d 3a 60 be
       0.30808192 0.42258695 0.012511535 -0.21897288
000360 a4 89 28 3f f8 c8 c4 bd f5 cc ba 3e 46 4b a1 bd
       0.6583502 -0.09608644 0.36484495 -0.078756854
000370 76 39 c0 3e a9 99 0c 3f 21 14 f2 be b4 37 ca bd
       0.3754384 0.54921967 -0.47280982 -0.09873906
000380 a1 f1 02 bf 90 d2 49 3e f0 81 39 bf 39 2b 24 bf
       -0.51149946 0.1970923 -0.72463894 -0.6412845
000390 eb 0f 82 be 6d 09 2c bf 09 f1 31 be 7b 79 b3 3e
       -0.2540277 -0.6720188 -0.17377104 0.3505362
0003a0 fc 1e 6a 3f 68 1b 0d bf d6 c3 e3 be 99 de b9 3d
       0.9145353 -0.55119944 -0.44485348 0.0907566
0003b0 cd 39 4b bd 08 ba 91 bf af 2b 5b 3e fd b7 35 be
       -0.04961567 -1.1384897 0.21403383 -0.17745967
0003c0 ef 88 31 bf 59 62 6f 3d 7d 20 ab be 7c 19 50 3e
       -0.6934957 0.0584434 -0.33423224 0.20322222
0003d0 d5 85 0a 3e 50 e6 96 3e 3d 5e a2 be d0 d2 8b be
       0.13527615 0.2947259 -0.31712523 -0.27309275
0003e0 f4 7e 1e 3f 79 76 9f 3c fd cb 93 3e 04 ec a9 be
       0.61912465 0.019465672 0.28866568 -0.33187878
0003f0 bb 31 f0 3e 3f c8 03 3f a1 78 8d bf e1 80 af be
       0.4691294 0.51477426 -1.1052438 -0.34278014

recurrent.conv_x_z.bias f4 [32]
000000 df f1 16 3a 45 19 d0 3d c4 4c 0e 3f b6 99 0e 3f
       0.00057580875 0.1016107 0.55585885 0.55703294
000010 86 5d f6 be dd 83 07 3f a0 6d bd 3e 00 6f 35 be
       -0.48118228 0.5293558 0.369977 -0.17718124
000020 b4 10 23 bf 02 5e 76 3e 65 16 47 3f 49 0a e1 3e
       -0.6369736 0.24059299 0.77768546 0.4395316
000030 5b d1 38 3f 3b 28 24 3f 42 f2 cd bd 76 36 3c bf
       0.7219445 0.64123887 -0.10055973 -0.735206
000040 cd 4b d0 3d db 04 0d bf 47 02 0d 3f b3 79 2e 3d
       0.10170708 -0.55085534 0.550816 0.04259653
000050 64 ad 7c bc e6 75 64 bf c8 a8 9a be ae 04 70 3e
       -0.015422199 -0.892424 -0.30206895 0.23439285
000060 c3 32 33 be 3b 9e 19 3f f4 1c 3f 3e 8d 6a 86 3f
       -0.17499833 0.60007066 0.18663388 1.0501267
000070 6c ae d0 3e 22 ad e9 3e cf bb c0 3e 3d e8 74 3f
       0.40758073 0.45639902 0.37643287 0.9566687

recurrent.conv_x_r.weight f4 [2, 1, 33, 32]
000000 46 7b 6c 3e 43 8c d2 be 22 15 5a be e6 28 4a be
       0.230939 -0.41122636 -0.21297124 -0.19742164
000010 49 2a 30 bf bb 3e b9 be ac c6 17 bf f9 e5 65 3c
       -0.6881452 -0.36180672 -0.59287524 0.014031881
000020 3d f7 24 bf b0 d3 a3 be a3 06 87 3e fe 91 d6 be
       -0.64439756 -0.31997442 0.2637225 -0.41908258
000030 1e 34 30 bf 31 c6 3d bc bd a5 24 bf 88 84 c8 3e
       -0.68829525 -0.011582897 -0.64315397 0.39163613
000040 ee 80 05 3f 96 9f f1 bd 10 a9 e1 be 3d 81 9b 3e
       0.52149856 -0.11798017 -0.44074297 0.30372038
000050 9c 1a f2 be 15 c3 26 bf 3c d6 3f bf cf b4 0b bf
       -0.47285926 -0.6514142 -0.7493627 -0.54572767
000060 ed 8e cf be ef 96 dd be e1 53 69 be 7c 8c eb be
       -0.4053873 -0.43279216 -0.22785904 -0.4600562
000070 99 4c 6f be 82 70 d9 bd b9 2b 0c 3e 7b 8d 02 bf
       -0.23369063 -0.10617162 0.13688554 -0.5099713
000080 84 92 55 3e 95 06 44 be 3e 60 91 3d 4b 90 16 3d
       0.20856673 -0.19143136 0.07098435 0.036758702
000090 ba ef 76 3e d6 c4 df 3c 5c 45 2a 3e 73 eb 81 bd
       0.24114886 0.027315538 0.16628021 -0.063437365
0000a0 28 4b 67 3e 64 ef cb 3c 6a b1 8d bd 04 f0 e1 3e
       0.22587264 0.024894424 -0.06918605 0.4412843
0000b0 97 7d 44 3e ab cb 09 bd 90 c3 8c 3e 05 34 97 3d
       0.19188534 -0.0336415 0.27492952 0.07382969
0000c0 ad 48 8f 3d e9 e1 d4 3d e1 8e 74 3e fd 2f 0c 3d
       0.06996284 0.103946514 0.23882629 0.034225453
0000d0 a1 73 c8 3d c7 57 20 3e 34 08 26 3e 64 c4 c8 3d
       0.097876795 0.15658484 0.16214067 0.098030835
0000e0 78 65 b7 3d af 5b 1d 3c b7 a3 88 3e 99 f6 1a 3e
       0.089549005 0.009604379 0.26687405 0.15133132
0000f0 77 aa 06 3e 53 ad 99 3e 6e 92 03 bd 2e de 1a 3e
       0.13150965 0.30015048 -0.032122068 0.15123817
000100 37 3d 71 3e 23 52 8c 3d 79 f2 45 3d 88 ab 69 3d
       0.23558508 0.06851604 0.048326943 0.05704835
000110 bc de 00 3e 09 66 14 3e 0a 53 4a bd 59 64 b7 bc
       0.12584966 0.14492048 -0.0493956 -0.022386717
000120 17 be 3a 3e e7 53 a3 3d af a3 83 bd 05 02 26 3e
       0.18236576 0.079749875 -0.064277045 0.16211708
000130 4e 77 22 3e 2a 1c 3d 3d 6f 6f 09 3e 11 74 95 3e
       0.15865824 0.046169437 0.13421415 0.29190114
000140 3f 9e be bd 63 16 b2 bd 48 5d 70 bd 6a fb 31 3e
       -0.09307527 -0.08695676 -0.05868271 0.17381063
000150 94 cc 63 bd 89 06 c5 3d b6 7d 24 3e fd 1e 99 3c
       -0.055615023 0.09620387 0.1606358 0.018691534
000160 9c ee f6 3b 3f ac 8a 3d 0e bd 37 bd 16 7d 14 3d
       0.0075357687 0.067711346 -0.04485803 0.036252104
000170 8e 0e f2 3c f5 be a0 bc 21 8f 08 bd c9 e2 04 3e
       0.029547956 -0.019622305 -0.033339623 0.12977137
000180 f9 c3 3c bd 27 6d 11 bd 69 a8 f3 bc e7 07 5c bc
       -0.04608533 -0.035504486 -0.02974339 -0.013429618
000190 dc 40 a4 3d 6e 76 c6 3b df eb 81 3e c8 d2 57 bd
       0.080201834 0.0060565984 0.25375268 -0.05269125
0001a0 0b 32 f6 3d 0f e5 01 bc f4 45 6a be 58 5e 3a 3d
       0.12021264 -0.007928147 -0.22878247 0.04550013
0001b0 97 54 7e 3c 94 de f3 bd 66 b5 f7 3b 9c 1a 87 bd
       0.0155230975 -0.11907688 0.007559466 -0.06596872
0001c0 06 20 cc 3d 95 ab 49 3b 0b 1d 90 3d 12 cb e0 3d
       0.099670455 0.0030772437 0.070367895 0.109762326
0001d0 be e8 17 bd 13 13 e0 3d ed 79 c4 3d fd 5f a3 bd
       -0.037087195 0.10941138 0.09593568 -0.07977293
0001e0 e9 d9 ac bb 22 6b 3c bc 5f 26 83 bd e4 ff 27 bd
       -0.0052750004 -0.011500152 -0.06403803 -0.04101552
0001f0 79 f5 82 bc ae 3b cb bc d2 d9 3f bd f5 72 de bc
       -0.015986191 -0.02480873 -0.04683859 -0.027154425
000200 97 0b 68 be 6d 0a ca 3d 88 70 4b bd dd c4 b1 3c
       -0.22660671 0.0986527 -0.049667865 0.021700317
000210 7c bb 6d 3d 7c b5 15 bc 53 78 84 3e 66 a9 b1 bd
       0.058040127 -0.0091375075 0.2587305 -0.08674888
000220 d2 01 d3 3d 96 36 b1 3b 23 96 5f be 58 98 27 3d
       0.103030816 0.0054081185 -0.21834616 0.04091677
000230 6b 28 96 3d b4 f7 9f bd c0 8c a0 bd 75 24 54 be
       0.07331928 -0.078109175 -0.07839346 -0.20717032
000240 0d 4f 11 be c8 96 85 3c d1 48 96 3d e0 89 af 3b
       -0.14190312 0.01630725 0.073381074 0.005357012
000250 35 53 22 bd 51 1d cf 3d ab d5 cf 3c 19 6d a9 bd
       -0.039630134 0.101130135 0.02537044 -0.08272762
000260 dc d1 b2 3d 78 a7 7a bd f3 2d af bd cc af 98 3d
       0.08731434 -0.061194867 -0.08553686 0.074554056
000270 e9 13 87 bd 66 3e 32 3c e2 f7 c5 bd 11 9e 61 3d
       -0.065955944 0.010879135 -0.096664205 0.055082384
000280 dc 49 7a 3c 4b 0d 79 3d 1c 34 39 bd 36 ce d6 bd
       0.0152763985 0.060803693 -0.04521571 -0.1048855
000290 fd 36 25 bc 9e fa c7 bc 53 91 89 bd f6 d7 78 be
       -0.010083911 -0.024411496 -0.067171715 -0.24301133
0002a0 5a 3d 3c 3d 0b a3 ed bd 18 d8 32 3e d9 96 01 be
       0.045956947 -0.116033636 0.17465246 -0.126552
0002b0 56 41 cf bd 0d 13 81 bb e7 c4 92 3d 4c 56 5a 3c
       -0.10119884 -0.0039390386 0.071664624 0.013326239
0002c0 f1 6c 09 3e 14 f4 40 be 31 60 b4 bd 52 79 82 3e
       0.13420464 -0.18843108 -0.088074096 0.25483185
0002d0 c0 6a 04 bd 34 db 25 bc bf bd 44 3d 00 75 ea 3c
       -0.032328367 -0.010123063 0.04803252 0.028620243
0002e0 83 96 b4 bd f0 90 0e be 03 70 cf ba 6c dd 0c bc
       -0.0881777 -0.13922477 -0.0015826229 -0.008597713
0002f0 e9 9b 2b bd 9d 91 9e bb f7 18 c6 bc 35 f9 d4 bc
       -0.041896734 -0.004839136 -0.024181826 -0.025997737
000300 c9 98 ef bd e1 87 23 bc 12 e9 25 bc 05 05 de bc
       -0.11699063 -0.0099811265 -0.010126369 -0.027102003
000310 4f 97 03 3e d8 29 33 3d a3 16 9e 3e b0 cc 13 bd
       0.12850688 0.043741077 0.30876645 -0.036083877
000320 8a e5 2f 3e c4 a4 e3 bc 3e a7 dc bd ac 6b 97 3d
       0.17177406 -0.027788527 -0.107740864 0.07393584
000330 e6 cc d0 3d d6 94 9d bd 98 eb 4d bd a7 76 b5 bd
       0.10195331 -0.07694404 -0.050273508 -0.08860522
000340 12 f7 10 bd b6 d1 4a 3d be d9 88 3d 1f 40 eb 3c
       -0.035391875 0.049516402 0.06682156 0.028717099
000350 1c e4 70 bc 66 63 2f 3e 8a e2 be 3d 26 ea 83 bd
       -0.014702823 0.17127761 0.09320553 -0.06441145
000360 a5 85 4a 3d 0a 56 86 3c fb b5 13 3c 11 8e 5e 3c
       0.04944386 0.016398448 0.0090155555 0.013583676
000370 af 08 0c bc 75 ef 02 bd 36 1e 9a bd 37 63 0f 3d
       -0.008546992 -0.031966645 -0.075252935 0.035006728
000380 a6 71 a5 3d 3e 8b 69 3e 74 f8 cc 3d 01 2d 57 3e
       0.08078317 0.22807023 0.10008326 0.21013261
000390 32 e4 76 3e 04 54 01 3d 65 f2 f7 3e 1b 39 94 3e
       0.24110487 0.031574264 0.4842712 0.28949818
0003a0 3e 11 81 3e f4 66 e6 3d df 71 e7 3c 75 05 8f 3e
       0.25208467 0.112501055 0.02825254 0.2793385
0003b0 e0 61 c4 3e a9 84 87 3d 62 84 0d 3e 1e ba bc 3d
       0.38355923 0.066171 0.13820031 0.092151865
0003c0 42 67 53 3e 86 6e ce 3e 71 d3 a0 3e 39 e4 2b 3d
       0.20644858 0.40318698 0.31411317 0.041965697
0003d0 c5 ac 54 3e bd f7 88 3e 6a 6e 13 3e 1a e1 5c 3d
       0.20769031 0.2675151 0.14397588 0.05392561
0003e0 42 2c bd 3e 94 3a c8 3e 4f 1e 41 3e 6c e6 91 3e
       0.3694783 0.39107192 0.18859218 0.2849611
0003f0 90 9b ac 3e 8d ad 37 3e 4a d6 53 3d 28 a8 90 3e
       0.33712435 0.17937298 0.051718034 0.28253293

recurrent.conv_x_r.bias f4 [32]
000000 c9 4a 44 be f1 40 82 be 41 31 73 be d7 b3 97 be
       -0.19169153 -0.2544017 -0.23749258 -0.29629394
000010 f6 28 1c be 0a b2 d8 be 03 a4 f6 be ac 0b b0 be
       -0.1525 -0.42323333 -0.48172006 -0.34383905
000020 e0 a2 99 be 98 f7 8d be 96 ba 02 be 3b 38 cc be
       -0.30007076 -0.27727962 -0.1276649 -0.3988665
000030 79 bf ab be e0 a2 9b be 34 d5 7e bd 49 7a f8 bd
       -0.3354452 -0.303977 -0.062215045 -0.12132699
000040 ae 03 ea 3b bf 41 bd be d8 19 a9 be c9 dd 18 be
       0.007141552 -0.36964223 -0.3302753 -0.14928354
000050 a3 ab 36 be ab e8 a1 be ab 42 ae bd 3f 7b 88 3c
       -0.17838912 -0.31622824 -0.0850881 0.01666033
000060 a9 bb b1 be a7 38 9e be ae 71 8b be 24 30 98 be
       -0.34713486 -0.30902597 -0.27235168 -0.29724228
000070 38 0c 9e be ae 8b 8d be 02 85 74 be d8 59 c5 be
       -0.30868697 -0.2764563 -0.23878863 -0.38545108

recurrent.conv_x_h.weight f4 [2, 1, 33, 32]
000000 26 38 76 bd 5f 17 29 3e 60 ef 91 be ca 8f 74 be
       -0.06011214 0.16512822 -0.2850294 -0.23882976
000010 60 e5 b0 3e c4 28 99 be 5e 02 5f be ce a8 2b be
       0.3455 -0.29913914 -0.21778247 -0.16763613
000020 bc 2f fc 3e 5a b1 9d be ef 6c ad 3b fe 41 03 3e
       0.49255168 -0.3079937 0.005292527 0.12818143
000030 19 ec 20 3e 45 a5 8f be 63 17 70 3e 8b 87 3a be
       0.15715064 -0.28055778 0.23446421 -0.18215768
000040 49 0e 32 be 33 b1 b6 bd 18 f9 ac 3d 11 42 2a 3e
       -0.17388262 -0.08920517 0.08445948 0.16626765
000050 19 d8 ae 3e 24 1e e9 3e 4f 62 be 3e 11 b8 81 3e
       0.34149244 0.45530808 0.37184379 0.25335744
000060 ce df e2 3e c2 01 d4 bd 05 56 01 3e 65 eb 27 3e
       0.44311374 -0.10351898 0.1263047 0.1639839
000070 1f 99 eb bd 27 a8 40 3d 33 5e 96 be 4f 84 f6 3d
       -0.11503815 0.047035363 -0.29368743 0.120369546
000080 e8 a7 09 bf 2d a1 74 3e 32 88 0b be 3b 5b a3 bd
       -0.5377183 0.23889609 -0.13626173 -0.07976385
000090 91 c4 50 3d 09 e5 42 be 23 91 2f be 27 d2 96 bd
       0.05096871 -0.19032682 -0.17145209 -0.07364302
0000a0 d8 54 7a bc 98 4f eb bd e5 a2 de bc 1b 5f e6 3e
       -0.015279017 -0.11489791 -0.027177284 0.44994435
0000b0 6d 71 a6 3d d0 87 0e be 3c b0 e7 3b 9e 41 96 3d
       0.08127103 -0.13918996 0.0070705693 0.07336734
0000c0 a3 a4 d3 bb c3 e9 56 bd 08 ac 9d bc e1 ce 23 be
       -0.006458835 -0.052469026 -0.01924707 -0.15996887
0000d0 f0 c3 81 bc 02 96 15 bd d0 76 1d 3d aa 4f ba 3d
       -0.0158405 -0.03652001 0.038443387 0.09097226
0000e0 9e a5 58 bd f1 6d b2 3c c9 3f 14 bd 65 c3 05 3f
       -0.05289232 0.02178094 -0.036193643 0.52251273
0000f0 0b f4 1d be fc ca 94 be a2 32 0c be 8a dc a9 bd
       -0.15425126 -0.29061115 -0.1369119 -0.082940176
000100 8b f6 b9 be 1b f5 09 bf 1a 2a 2a bb 07 69 87 3e
       -0.3632091 -0.53889626 -0.0025965036 0.26447317
000110 51 b7 e3 bc ea 82 7d bd 59 29 ca 3d 52 58 1a 3e
       -0.027797373 -0.061892428 0.09871168 0.15072754
000120 ee 51 0d bc b9 9c bc bd cb 87 58 3e 56 ad 24 bd
       -0.008625491 -0.0920958 0.21145551 -0.04020437
000130 a0 63 14 be 20 eb 06 bd b7 9a df bd c0 de 02 bd
       -0.14491129 -0.032939076 -0.109181814 -0.031950712
000140 88 be 2b be 9b 5a ad 3e 5e 79 4d 3d 3a b5 6a bb
       -0.167719 0.3385819 0.050164573 -0.0035813586
000150 27 f6 85 bd 09 a0 5d bd a6 3f aa bd b1 39 d3 bd
       -0.065410905 -0.0541077 -0.08312921 -0.10313738
000160 8a c1 d6 bd 77 57 fb 3c a0 27 f0 bd 16 dd 83 3d
       -0.104861334 0.030681355 -0.11726308 0.06438653
000170 db 1e b2 3d b1 7b 27 be 9f 30 5a bd ba 54 19 be
       0.086972915 -0.16355778 -0.053269025 -0.14973727
000180 e7 c1 29 3e 2d af 50 3d 02 a4 21 bd e5 ee 43 bd
       0.16577874 0.05094831 -0.03946305 -0.04783525
000190 50 6a ed 3d e8 7f 5b bd 25 bb b3 3c 44 20 ac 3d
       0.11592543 -0.053588778 0.021939823 0.08404592
0001a0 fb 92 ac bd 37 29 1c bd de bc 1f bc f3 f5 a0 3d
       -0.08426472 -0.038125243 -0.009749619 0.07859411
0001b0 14 af 9c 3d f3 4f ef bc 5b 9c f7 3d 5d 22 9b 3d
       0.07650581 -0.029212927 0.12090369 0.07574914
0001c0 ab ac bd 3d 29 aa 6a 3b 1b 95 f3 3c f7 aa 18 bc
       0.092614494 0.003580699 0.029734185 -0.009318105
0001d0 30 c2 da 3d 1c 95 57 3a c3 81 27 3e 9e 8e 1c 3e
       0.106815696 0.0008223818 0.16358094 0.15288779
0001e0 2b 26 ca bd e9 3f 11 3c 0a d9 df 3d 82 06 f3 3c
       -0.09870561 0.008865335 0.10930069 0.02966619
0001f0 36 c5 0b 3d 6a bf 61 3d 83 b8 c2 bc d9 ca d9 3b
       0.034123622 0.055114187 -0.023769623 0.006646496
000200 28 33 31 3e 12 36 05 be 45 d7 3f bd fb 02 04 be
       0.17304671 -0.13008907 -0.046836156 -0.12891762
000210 1a 73 36 3d fc d1 ee 3c a9 46 8c 3d ea b4 ef 3c
       0.044543363 0.029152863 0.06849415 0.029261071
000220 22 b3 96 bd 3c 41 58 bd bb 9a 47 3e 83 41 43 3d
       -0.073583856 -0.052796587 0.19492619 0.0476699
000230 47 32 7e 3c a2 b4 cc 39 6b 3d 28 3e 1a 80 c0 3d
       0.015514917 0.00039044494 0.16429679 0.093994334
000240 84 c9 14 3e 02 91 cf bb 58 ed 42 3d 28 bd 64 3e
       0.14529997 -0.006334425 0.04758963 0.22337782
000250 9e 63 e3 3d 24 10 25 bb 94 74 88 3d 24 7e 36 3e
       0.11102985 -0.0025186623 0.066628605 0.17821556
000260 1a d1 c5 bc 3e c4 8e 3c 12 72 de 3a f0 7e 35 be
       -0.024147559 0.01742756 0.0016971251 -0.17724204
000270 a5 d3 70 bc de cc 40 be 17 95 27 3d 06 24 ed bc
       -0.0146988975 -0.1882815 0.040913668 -0.028947841
000280 c1 8f c7 bc b4 bf 31 be 56 3a 6c 3c 54 8c cd 3d
       -0.02436054 -0.17358285 0.014418205 0.10036531
000290 f5 c4 44 be fe 21 f9 bc 09 70 df bd 74 3b de 3c
       -0.19215758 -0.030411717 -0.10910041 0.027127959
0002a0 44 20 cc bd 8a 7d a4 3d 78 b0 03 3e d7 7b 41 be
       -0.09967092 0.08031757 0.12860286 -0.18894897
0002b0 6a 6e cb bd b3 03 b4 bb 39 ed 32 be 62 10 08 3e
       -0.09933169 -0.005493605 -0.17473306 0.132875
0002c0 22 de 14 3e 39 09 7d 3d 99 fc 07 be bd 1f 8a bd
       0.14537862 0.061776374 -0.13279952 -0.06744335
0002d0 d9 24 33 be 5c 6b 2e be 85 45 2c be a2 95 07 be
       -0.17494525 -0.17033142 -0.16823395 -0.13240674
0002e0 18 7d fa bd a7 36 1f 3e aa e2 72 bd 5a b7 1a be
       -0.12230891 0.15548192 -0.059298195 -0.15109006
0002f0 60 0d ef 3d f2 20 b3 bc cf ba 3b 3d d7 c2 0a be
       0.11672473 -0.021866295 0.04583245 -0.13550888
000300 00 a5 f7 3d fb 53 07 3d 4b b7 2f 3d c3 46 23 3d
       0.12092018 0.033039074 0.04289941 0.039862406
000310 05 00 07 3e 01 69 ae bb 63 55 3f 3d ee 1d ce 3d
       0.13183601 -0.005322576 0.04671229 0.100643024
000320 3e 57 93 bd a8 24 6a ba 27 cf a1 bd 5a c9 8b 3d
       -0.071943745 -0.0008931854 -0.07900839 0.06825514
000330 77 89 d9 3d 50 57 77 3d 33 39 e1 3d 97 fc f7 3c
       0.106219225 0.060386002 0.10997238 0.030271811
000340 3f f0 d9 3d af d3 a8 3d d1 f5 59 3d 72 df 61 3d
       0.106415264 0.082435004 0.053212944 0.055144735
000350 c3 a0 32 3e 3e d1 88 3c a7 9e 00 3e eb 67 13 3e
       0.17444138 0.016701337 0.12560521 0.1439511
000360 68 1a cb 3b 03 84 20 bc c5 a8 cc 3d 5b 92 2e 3d
       0.006198216 -0.009797099 0.09993128 0.042620044
000370 04 9e 26 3d 5c 7b 8b 3d ca 1f 1b bc 28 51 48 3d
       0.04067804 0.06810638 -0.009468028 0.04890552
000380 ad 88 8f bd 90 b8 96 3d 2f af b6 bd ae db f5 bd
       -0.07008491 0.07359421 -0.08920132 -0.12004791
000390 3d 58 67 3e 83 41 08 be e8 c4 6b be 98 23 74 3d
       0.22592254 -0.1330624 -0.23024333 0.059604257
0003a0 1b 33 c7 bb b3 25 c6 bd 17 14 1f be 5d e7 98 bd
       -0.0060790903 -0.09675159 -0.15535007 -0.07466004
0003b0 40 b1 f4 3c 0b c4 b5 bd 90 af 6c b8 6c b2 95 3d
       0.029869676 -0.08875283 -5.643029e-05 0.07309422
0003c0 d4 8e a5 bd a4 38 d7 3d b9 ff 28 be 9b 96 74 3d
       -0.08083883 0.1050885 -0.165038 0.05971394
0003d0 b6 a3 42 3e 86 6b 2f 3e 3b 72 6a 3e 0d 81 1a 3e
       0.19007763 0.1713086 0.22895138 0.15088291
0003e0 2b d4 41 3d 72 99 15 bc 8e 2f 6d 3d 20 a8 09 be
       0.04732148 -0.0091308225 0.05790668 -0.13443041
0003f0 bb be f8 3c 8e 8a 0d 3d d7 bf 00 be 2f cc b7 bd
       0.030364385 0.034555964 -0.12573181 -0.08974492

recurrent.conv_x_h.bias f4 [32]
000000 54 76 18 3d 15 53 b7 be 84 3c e3 3d 32 08 19 3e
       0.03722222 -0.35805574 0.11095527 0.14944533
000010 8e 70 9d be 6f 51 c9 bc ef 0b b6 bc 71 ff 51 3e
       -0.30749935 -0.024574963 -0.022222487 0.205076
000020 8e 00 e7 bd a6 1d f9 3d 53 1e 03 3d e5 8f d3 be
       -0.11279403 0.12163858 0.03201134 -0.4132072
000030 74 07 d5 be 93 2e 5f 3d 67 ec e8 be 19 22 9f 3e
       -0.4160725 0.054487776 -0.4549286 0.31080702
000040 30 44 d2 3d 85 bb 32 3e 1d 04 0e be 7c 42 c6 be
       0.10266912 0.17454346 -0.13868757 -0.387226
000050 b9 a2 eb be da f0 e3 bd f9 23 b9 be 19 c7 04 bf
       -0.46022585 -0.11129923 -0.36160257 -0.518663
000060 99 12 5f be 26 92 13 3e 65 76 b6 be 6a 8e bb be
       -0.21784438 0.1441122 -0.35637203 -0.3663209
000070 81 1e e5 3d 86 b9 d3 bc 56 8d aa 3d ee a3 ac be
       0.11187459 -0.0258453 0.08327739 -0.33718818

linear.weight f4 [1, 32]
000000 0d d7 37 be e1 d9 16 3e 37 05 83 be b9 67 08 be
       -0.17953129 0.14731552 -0.25589916 -0.13320817
000010 76 6f 83 3e 2d 29 a5 be d6 7e 02 bf 31 2c 8c be
       0.25670975 -0.32257977 -0.50974786 -0.27377465
000020 34 42 d4 3e a1 ef 61 be 54 fa a8 3c 02 d6 f9 3d
       0.4145676 -0.22064067 0.020627178 0.12199022
000030 23 d3 09 3e c8 74 c5 be ff eb 50 3e 5e f9 eb bd
       0.13459449 -0.3856566 0.20402525 -0.115221724
000040 9e 58 7b be 4c 74 48 bd f4 80 d9 3b db 7e bd 3e
       -0.24545524 -0.048939034 0.006637687 0.37010846
000050 96 10 83 3e 09 97 d4 3e de f4 a1 3e 73 19 64 3e
       0.25598592 0.4152148 0.3163213 0.22275333
000060 dc 66 c1 3e 86 77 86 3c cc 9b 0f 3e 22 86 ff 3d
       0.37773788 0.016414415 0.14024276 0.12476756
000070 ae bf 7c 3c fd b1 9f 3b 01 d5 c9 be c6 62 05 3e
       0.015426559 0.004873513 -0.39420322 0.1302596
