DCRNN_mi_global.pth (torch, 29408 bytes, 7 tensors)

recurrent.conv_x_z.weight f4 [2, 1, 33, 32]
000000 1a be 22 3d 32 0e 0f bd e2 17 6e bd da d6 08 bd
       0.039732076 -0.034925647 -0.058128245 -0.033408023
000010 ae d4 dc bc 89 f6 f7 3b ab 54 76 bd 15 0f ff bc
       -0.026956882 0.007567231 -0.06013934 -0.031135121
000020 e3 c1 87 3d d4 93 77 bd b5 e4 f4 bc 05 4f 29 bd
       0.06628778 -0.060443714 -0.029894212 -0.041335125
000030 86 fb 39 3c 37 84 16 bd 0e 18 10 3b b7 c3 88 bd
       0.011351472 -0.036747184 0.0021986994 -0.06677955
000040 8c e3 d8 bc 66 b3 c2 bb b4 21 45 3d 53 dd 6a bc
       -0.02647569 -0.005941796 0.048127845 -0.014334994
000050 89 fb 4c 3d d6 cd 1e bd b7 f2 99 3b f6 54 f9 3b
       0.05004457 -0.03877052 0.0046981233 0.007609005
000060 30 58 c1 bb af 17 5a 3d 10 a0 09 3c dc de 04 bd
       -0.0059004053 0.053245243 0.008399978 -0.032439098
000070 1e 68 f9 3c 12 a6 49 bd 12 d1 4a bd e7 10 40 bd
       0.030445155 -0.049230643 -0.04951579 -0.04689112
000080 29 55 fe 3c be ee f4 bc b0 c0 58 3b 84 9a 30 bb
       0.031046467 -0.029898997 0.0033073835 -0.0026947567
000090 5c 33 9b 3c 7e 91 09 bd b8 7d 15 bc 0e 89 4d 3d
       0.018945388 -0.033586018 -0.009124212 0.050179534
0000a0 36 f1 5e bc c9 31 83 3d 4c c7 f2 bc fe a3 a8 3b
       -0.013607314 0.0640598 -0.029636048 0.0051465025
0000b0 00 98 25 3a 5e 2e 0d 3b 2f 7d 71 bc ce 23 9f bb
       0.00063169 0.002154253 -0.014739319 -0.004856563
0000c0 02 95 8a 3d be ca 8b 3c ab a4 f7 3c 59 19 93 3c
       0.06766702 0.017064448 0.030229887 0.017956423
0000d0 0b e6 a4 3b 2c 28 97 3a 10 44 8d 3d 96 66 36 3d
       0.005032306 0.0011532358 0.068977475 0.044531427
0000e0 0f 34 95 3d f8 84 26 3c a9 53 3d 3c e9 8d c7 3c
       0.0728532 0.010163538 0.011555591 0.02435966
0000f0 15 5f e6 3c 14 9a 6f 3d 4b 55 e6 3b 64 aa 67 bc
       0.02812151 0.05849655 0.0070292107 -0.014139745
000100 3e b6 11 3d bb 23 e7 bc 36 dc 64 bb 56 49 fd 3c
       0.03557419 -0.02821528 -0.0034921295 0.030918758
000110 32 67 b1 3c b6 97 3e bc f2 e3 70 3d bd 0e 4e bc
       0.021655653 -0.01163285 0.058811136 -0.012576756
000120 5f a8 88 bd 0b 1a c3 3c dc 7e d1 bb 74 83 da bc
       -0.06672739 0.02381613 -0.0063932966 -0.02667401
000130 5e 3d 26 3b ea 92 f5 3c 47 14 f6 bc 32 6c dd 3c
       0.0025366168 0.02997728 -0.030038966 0.02702913
000140 7d f4 8a bb 8c e6 f7 3c 6b 5c 82 3c c0 b6 7c 3d
       -0.004240571 0.0302613 0.015913209 0.06169772
000150 95 ef 59 bc 7c f7 03 3d b0 d3 7c 3c c4 bc 08 3d
       -0.01330175 0.03221844 0.01543133 0.033383146
000160 20 b0 e0 3c ae 28 86 bd 2a bb 7d 3b 06 22 11 3c
       0.027427733 -0.06550728 0.0038716295 0.0088582095
000170 72 72 25 3d 76 04 17 3d b0 2b fa 3c e0 db 85 ba
       0.040392347 0.03686949 0.03053841 -0.0010212623
000180 15 d7 44 3c 7b 58 44 bd 93 20 91 bd f0 56 c8 3b
       0.01201417 -0.047935944 -0.07086291 0.0061138794
000190 58 73 05 3d 1e f6 7f bc 80 d8 65 bb 72 4f 54 bd
       0.032580703 -0.015622644 -0.003507167 -0.051833577
0001a0 38 fb 6e 3d 22 9b 66 bd e0 81 ee 3b 38 6a 20 bc
       0.05834505 -0.05630029 0.007278666 -0.0097909495
0001b0 0f 8e 81 bd fa 84 16 bd ce 7d 8e 3c 8a 92 0d 3c
       -0.06325924 -0.03674791 0.017393973 0.008640895
0001c0 0c 02 b6 bc 41 d4 80 3c 64 ec 0a 3d a3 6f 63 bd
       -0.022217773 0.01572621 0.033916846 -0.055526387
0001d0 9e 81 e5 bb f0 06 45 3d 9a e5 26 3c 33 53 2c bd
       -0.007003977 0.04810232 0.010186577 -0.042071532
0001e0 7e 27 0a 3c 00 99 a4 ba 44 af 83 bd 98 ba 4d bd
       0.008432267 -0.0012557805 -0.06429914 -0.050226778
0001f0 44 47 0c 3d 30 e6 97 bd 90 59 24 bc a5 87 ec 3b
       0.03424765 -0.07416952 -0.010031119 0.0072183185
000200 37 1b 0a bd 9e 3e aa bc 44 aa 27 3d da 90 4b bc
       -0.03371736 -0.020781811 0.040933862 -0.012424672
000210 9e 68 20 bd e6 9f 08 3d 6f e4 4d 3d b8 62 58 3d
       -0.03916227 0.033355616 0.05026668 0.05282852
000220 1c 13 81 bc 6b 1f 84 3d cd e6 bc bb 85 47 25 3d
       -0.015756182 0.06451305 -0.0057648183 0.04035141
000230 b5 5c 7f 3d 10 0d 16 3d 72 bb 67 bc e8 4a 4e 3d
       0.06234427 0.03663355 -0.014143812 0.050364405
000240 32 e3 90 3d fa 9a 1b bb 1d 3b f1 bc a4 1d 9c bc
       0.07074584 -0.0023743496 -0.029447133 -0.019057103
000250 78 47 1c 3d 9d 9c fa bc ec 10 29 3d 9b 16 72 3d
       0.038154095 -0.030592257 0.041275904 0.05910359
000260 34 d4 14 bc 62 fb 7a bd ea e7 d9 3c 2e f1 3f 3d
       -0.009083796 -0.061274894 0.026599843 0.046860866
000270 74 ff 47 bc 91 17 ea 3c a5 55 1a bc 2e bb b1 3c
       -0.012206901 0.02857569 -0.009419833 0.0216957
000280 4f b1 74 3d c4 fa 39 3b 9a 7e ea 3c 19 b8 58 3d
       0.059739407 0.0028378228 0.028624821 0.052909944
000290 e0 71 11 3d 90 1d 1c 3d 0e 66 11 3d d6 d9 0f bb
       0.03550899 0.03811413 0.035497718 -0.0021949909
0002a0 50 41 8c bb 92 b3 06 bc d9 5f 91 3d a0 dd 48 3d
       -0.004280247 -0.008221524 0.070983596 0.049039483
0002b0 46 e8 1d 3d 05 a2 02 3c 36 2d fa 3c e0 92 ac 3c
       0.03855159 0.007973199 0.030539136 0.02106613
0002c0 2d 1a c9 3c 4c 7b 63 bb 19 a6 2c 3d bc 60 75 3d
       0.024548614 -0.0034710942 0.04215059 0.059906706
0002d0 9e a0 1a bd 9d 38 2b bd 92 d4 65 3c c4 9e 65 3d
       -0.037750833 -0.041802038 0.0140277315 0.056059614
0002e0 bf 7b 0d 3d 02 46 49 3d c8 26 58 bc 78 2b 25 3d
       0.03454184 0.04913903 -0.01319284 0.04032466
0002f0 81 23 f3 3c b4 4d 34 3d 70 60 84 bc 54 69 c8 bc
       0.029680016 0.044019416 -0.016159266 -0.024464287
000300 be 6a 1e 3d 54 50 1f 3c 9c 7e ce 3c 3c e3 10 3c
       0.038676016 0.009723742 0.025206856 0.008843239
000310 98 25 0d bb 42 74 78 3c 12 a6 c8 3b 9e bf 85 3c
       -0.00215373 0.015164437 0.0061233127 0.016326722
000320 4c f1 cd bb 07 d8 61 3c 36 98 f0 3c 3d af de bc
       -0.0062848683 0.013784415 0.029369455 -0.02718317
000330 4e ff df 3c f9 ea 4e 3d c7 c8 2e bd c0 d2 2a 3c
       0.027343418 0.050517056 -0.042671945 0.010426223
000340 b1 fd ca 3b 3c bc 94 3c 84 ed c0 ba 80 92 16 b9
       0.006194793 0.018156163 -0.0014719223 -0.0001435969
000350 64 5c 0e 3d 11 93 3c bd 73 25 20 3d 06 24 1b 3c
       0.03475608 -0.04603869 0.039098214 0.009469038
000360 b0 e7 3d 3d 2a 59 ee bc 23 22 11 3d 4a dc ae 3c
       0.046363533 -0.029095251 0.035432946 0.021345276
000370 1a 01 01 bd 1f d2 8b 3d 9b de 2b 3d 3b eb 92 3b
       -0.03149519 0.06827187 0.04196034 0.004483608
000380 28 d2 d1 3b f6 d9 60 bd 41 80 07 3d b9 81 92 bc
       0.0064032264 -0.054895364 0.033081297 -0.017884122
000390 19 27 46 bd 72 86 8e bb ac 8e d5 ba 70 23 0b bd
       -0.04837713 -0.004349523 -0.001629313 -0.033969343
0003a0 15 74 e3 bc c9 eb af 3c cd f1 b6 bb f6 37 67 bd
       -0.027765313 0.021474736 -0.005583024 -0.056449853
0003b0 86 76 b1 bc 93 1a 06 bd 64 ff f6 ba 54 7d 00 bc
       -0.021662962 -0.032740187 -0.0018844423 -0.007842381
0003c0 80 4f 34 ba c8 88 2a bc e2 0b 24 bd da b5 0b bc
       -0.00068783015 -0.010408588 -0.040050395 -0.0085272435
0003d0 bb 0c f6 3b 84 29 c1 3c bf 80 c0 3c 4e 68 12 bd
       0.007508842 0.023579367 0.02349889 -0.035744004
0003e0 8b 33 30 3c de f2 61 bd f2 86 1e bd 5c 74 52 3b
       0.010754476 -0.055163257 -0.038702913 0.0032112813
0003f0 46 5d 45 bd 24 c4 0b 3d 3b 0a 8b bb 28 60 26 bd
       -0.048184656 0.0341226 -0.004243163 -0.040619045

recurrent.conv_x_z.bias f4 [32]
000000 04 96 12 bd 1c ed 13 bd 01 af 12 bd 0f 5e 0b bd
       -0.035787597 -0.036114797 -0.035811428 -0.03402525
000010 be 17 4e 3c b9 cf 12 bd 01 bd a1 bb b7 e2 d8 3b
       0.012578903 -0.03584263 -0.004935861 0.0066188234
000020 d4 5b 09 3d 74 35 0a bd c8 e2 0a bd f8 d0 13 bd
       0.03353484 -0.033742383 -0.03390768 -0.03608796
000030 34 18 09 bd ea 43 0f bd ac 63 e6 3c ad 73 0c bd
       -0.033470348 -0.034976877 0.0281237 -0.034290005
000040 74 cf 3b bb 50 b0 12 bd 31 72 14 bd 3b e5 01 bd
       -0.0028657587 -0.035812676 -0.036241714 -0.03171275
000050 cf 9a 07 bd d6 e5 a4 3c 68 e2 4a 3c 88 03 03 bd
       -0.03310662 0.020129126 0.012383081 -0.03198579
000060 5d 35 0c bd 37 9d ac 3c d0 e4 cf bb 0b 7e 0a bd
       -0.03423058 0.02107106 -0.0063444152 -0.03381161
000070 8e c0 10 bd 3e ce 0c bd 78 c1 09 bd f8 8d 4f 3b
       -0.035339884 -0.034376375 -0.03363177 0.0031670313

recurrent.conv_x_r.weight f4 [2, 1, 33, 32]
000000 d9 f1 92 3c e5 d1 a0 bb 80 2b 6f bc 20 cd fd 3a
       0.017937588 -0.004907834 -0.014597774 0.00193635
000010 dd 35 86 3c 92 38 05 3d b8 a8 25 bc 82 60 35 3b
       0.016383106 0.032524653 -0.0101110265 0.0027675931
000020 89 5a 53 bd 3d 14 0e 3c 8d ed 82 3d bc cd 8e 3c
       -0.051600013 0.008671817 0.063929655 0.017432086
000030 68 09 eb 3c d1 c7 2c 3d 03 eb c6 bc ce 1d 75 3d
       0.028691009 0.042182747 -0.024281984 0.059842877
000040 10 03 a9 3a 01 a4 e9 3c 39 f3 46 3c 79 aa 1b 3d
       0.001289459 0.028520586 0.01214295 0.038004372
000050 60 66 53 3b 7e 9d 01 bb 55 84 78 3d 2c ae 8f ba
       0.0032257065 -0.001977771 0.060673077 -0.0010961941
000060 17 ed 0b 3d be d4 27 bd b5 f2 0e bd 7c 93 10 3d
       0.034161653 -0.04097437 -0.034899432 0.035296902
000070 21 3c f8 3b 60 c6 6f 3d 78 4e 8e 3d 3f a7 03 3d
       0.0075755273 0.058538795 0.069485605 0.03214192
000080 43 48 e0 bc 9d 4b 6d bd a8 22 de bc ce 3f 77 bd
       -0.027378207 -0.05793344 -0.027116135 -0.060363583
000090 10 1b d7 3a ae 0d 57 bc b0 49 8c 3d b5 05 27 bd
       0.0016411263 -0.01312582 0.06849992 -0.040776927
0000a0 07 43 92 3d 70 0b 21 bd 91 7b 11 bd 88 00 dc 3c
       0.07141691 -0.03931755 -0.035518233 0.026855722
0000b0 ba 18 c0 bc 16 33 80 bc 8f c6 93 bb 6a 5d 79 bd
       -0.02344929 -0.01564936 -0.004509754 -0.060880102
0000c0 e1 a2 04 bc 58 40 dc bc 1a 79 22 3c 85 da 13 bd
       -0.008095474 -0.02688615 0.009916568 -0.03609707
0000d0 15 12 1a bd 40 16 d6 3c 1e 63 08 bd 1c a1 83 bc
       -0.0376149 0.026133657 -0.03329765 -0.016068034
0000e0 c4 04 34 3c 15 b9 32 bd f3 5a 07 3d a6 13 46 bd
       0.010987464 -0.04363354 0.03304572 -0.048358582
0000f0 f4 cb fd 3a c8 56 09 3c a7 04 0b bc ae e0 48 3d
       0.0019363151 0.008382507 -0.008484996 0.049042396
000100 c1 83 16 3c 8e 22 9a bd c0 5b 6d bc 25 c7 6e bd
       0.009186686 -0.07526122 -0.014487207 -0.058295388
000110 79 11 d2 bc b0 6a ab bc b0 2c b0 3c 48 7e 7d bb
       -0.025643097 -0.020924896 0.021505684 -0.0038680006
000120 ea 17 82 3d 38 fa ef 3c 9e ba a6 bc fc 71 47 3c
       0.063522175 0.029294118 -0.020352658 0.012173172
000130 5e 1e 15 bc 97 5f d5 bc fa 5b 14 3d ee 00 82 bd
       -0.009101478 -0.026046557 0.03622053 -0.063478336
000140 73 66 cc bc 3e 0a 39 3b 6f 0d c3 bb 96 89 81 bc
       -0.024951195 0.0028234865 -0.005952529 -0.015812676
000150 82 67 70 bb 02 ee b1 bc ff 1e 4f bc 9e 31 d3 bb
       -0.003668279 -0.021719936 -0.012641667 -0.006445124
000160 7d a8 d4 bb e4 59 05 3d 8c 1f 53 3c 0a c2 ad 3c
       -0.006489812 0.03255643 0.012885939 0.02121069
000170 bc 09 b7 bc 55 74 30 bd 0c 88 28 bd 2d 9a 00 3d
       -0.022343509 -0.043079693 -0.04114537 0.031397033
000180 3f d8 73 3d 70 04 f6 3c 78 5b 8c 3c 9f e1 59 3d
       0.0595324 0.030031413 0.01713346 0.053193685
000190 25 fa d6 3c 88 69 52 3c e8 74 86 bd 23 be e3 3c
       0.026242325 0.012842543 -0.06565267 0.027800625
0001a0 3b a6 95 3b 31 fc 15 3d fc 83 0f 3d 50 e5 aa bc
       0.0045669354 0.03661746 0.03503798 -0.020861298
0001b0 68 ee 90 3d 82 3a 80 3c b4 48 78 bd 1b 71 95 3d
       0.070767224 0.015652899 -0.06061621 0.07296964
0001c0 c2 59 5e 3c 06 fb a7 3c a0 a0 c7 bc 2e 2d 5b 3d
       0.013571205 0.02050544 -0.024368584 0.053509884
0001d0 7e 30 82 3c 6e c7 b7 bc 19 f2 48 bc 2c 1c 40 3d
       0.015892264 -0.022433963 -0.012264752 0.046901867
0001e0 57 1a db 3c b9 34 60 bc 55 69 fe 3c 5e ad 0a bd
       0.026745958 -0.013684445 0.031056086 -0.033856742
0001f0 52 bb e0 3b 9b fb 2b 3d cf 94 8f 3d 04 99 dd bc
       0.006858268 0.041987997 0.07010805 -0.027050503
000200 1b 38 fc 3b 76 48 74 bd 26 f5 43 bc 94 8e 98 bd
       0.007697118 -0.059639417 -0.011960303 -0.074490696
000210 58 b4 34 3c 03 0c a7 bc 7a 37 74 3b cc 54 86 bc
       0.011029325 -0.02039147 0.0037264512 -0.016397856
000220 1e 06 8e 3d c4 3b 03 bd 01 e6 28 3c 58 37 5a bd
       0.069347605 -0.03203942 0.010308743 -0.053275436
000230 52 13 3c bc ec e8 f1 bc 58 55 cf 3b 92 43 90 3b
       -0.011479216 -0.029530011 0.0063273124 0.0044025863
000240 ba 8d 66 bd a0 49 24 3b 80 1e e8 bc a7 f3 03 bd
       -0.056287505 0.0025068298 -0.028334856 -0.032214787
000250 5b 2c 10 bd 0b 58 f7 bb f0 3f 51 bc 0d 1d 64 bd
       -0.03519855 -0.0075483373 -0.012771592 -0.055691767
000260 52 2b c5 3b 04 c8 0e 3d 9d ec dc 3c 21 6c 44 3c
       0.006017127 0.03485872 0.026968295 0.011988671
000270 57 9a 27 bc b0 14 e3 bb 88 0a 48 ba 2c 99 ca bb
       -0.010229669 -0.0069299564 -0.0007630964 -0.0061828103
000280 59 39 32 bd a8 bd 74 bb 7a f3 0f bd be 4d 37 bd
       -0.043511722 -0.003734449 -0.035144307 -0.044751875
000290 18 05 37 3c 6f e3 da 3c 8e 17 ad bc d8 e8 d0 3c
       0.011170648 0.026719777 -0.021129396 0.025501654
0002a0 aa c5 a5 bc 5a 4d 29 bb c2 18 2e bc 98 47 41 3a
       -0.020235855 -0.0025833459 -0.01062602 0.0007373034
0002b0 16 ce a1 bc 52 50 f8 bc 7c 19 52 3b 4a bd 2e bd
       -0.01975159 -0.030311737 0.0032058647 -0.04266099
0002c0 22 5a 41 bd 10 b3 3f bc 20 eb 18 bc cb ad 44 bd
       -0.047205098 -0.011700407 -0.009333402 -0.048017304
0002d0 b4 d9 70 3c cb 0b 0d bc 18 4f 0d 3d 37 3f 40 bd
       0.014700342 -0.008608769 0.034499258 -0.046935286
0002e0 1e 36 8d bb bd 2a 6b 3d 16 b8 4d 3b aa b3 34 bd
       -0.00430943 0.057413805 0.0031390241 -0.044116654
0002f0 f6 24 44 bd cc 2c 9e bc b4 8a 20 bb 45 a1 b0 bc
       -0.04788681 -0.01930847 -0.0024496736 -0.021561274
000300 4e 66 94 bd 27 bf c0 bc c4 0d c0 bc 55 b0 d9 bb
       -0.072460756 -0.023528649 -0.023444064 -0.006643335
000310 4d 37 b0 bc aa 93 03 bd 92 dd 3f 3d 4c 31 8e 3b
       -0.021510744 -0.032123245 0.046842165 0.0043393727
000320 28 a2 2a 3d 68 15 53 bd d1 66 cb bc a8 ca 5a 3c
       0.04165855 -0.051534086 -0.0248293 0.013353981
000330 c6 b8 82 bd fe a7 80 3b ac 06 58 3d 00 30 5a bd
       -0.06382899 0.003926276 0.052740738 -0.053268433
000340 94 c6 55 bd 34 85 4b bc 82 97 4c bd 09 91 f8 bc
       -0.052191332 -0.012421895 -0.049949177 -0.030342596
000350 88 43 00 bd b7 40 c2 bc a8 d9 85 3c 82 36 4a bd
       -0.031314403 -0.023712499 0.016339138 -0.04936839
000360 08 11 0c bd 9f 5c d6 bc 3a 39 06 bd c1 a7 33 bd
       -0.03419593 -0.026167212 -0.03276942 -0.043861154
000370 47 c0 56 bd 3a d2 30 3c 0c 29 37 3b b9 e4 f2 bc
       -0.052429464 0.010792309 0.002794805 -0.02965008
000380 13 89 29 3d 00 e3 bd 3a 04 c7 27 3d 41 6f 85 bc
       0.04139049 0.0014487207 0.04096128 -0.016288402
000390 b5 74 84 bc 69 4b 28 bd 58 38 ac bc 70 fa 3c 3c
       -0.016168931 -0.04108754 -0.02102296 0.011534318
0003a0 98 b1 c4 bc 3e a1 c0 3c 88 f7 df bc 3c 1c 6b 3b
       -0.024010465 0.023514386 -0.027339712 0.0035874983
0003b0 f3 0f 0f 3d 81 59 82 3c 56 e4 f2 bb 6c 3e 50 3d
       0.03492732 0.01591182 -0.0074124737 0.05084078
0003c0 ac 57 08 3d e8 c7 f3 3b 56 5e c0 bb ab e1 a3 bb
       0.033286735 0.007439602 -0.0058706207 -0.005001267
0003d0 25 f5 18 3d 73 eb c3 3b 3e fc 72 bd 96 48 94 bc
       0.037343163 0.0059789955 -0.05932259 -0.018101018
0003e0 58 7e 46 bc 06 c0 75 bd a5 07 86 3d 7c b7 7d 3d
       -0.012115084 -0.05999758 0.06544427 0.061942562
0003f0 ca 2e 38 3d 6c a6 52 3b 7c 9e 7c 3c 85 79 84 3d
       0.044966497 0.0032142652 0.015418645 0.064684905

recurrent.conv_x_r.bias f4 [32]
000000 5a 90 28 3c 5c 9c 3c 3c cc c1 0a 3d c8 c5 49 3c
       0.010288322 0.011511888 0.033876225 0.012315221
000010 cf d7 6e bc cc c9 f1 ba 6c 0a 2e bc e7 3c 06 3d
       -0.01457782 -0.0018446981 -0.010622602 0.032772925
000020 10 82 c2 3b da 42 01 3d 56 69 04 3d b9 49 08 3d
       0.005935915 0.031557895 0.03232702 0.033273432
000030 36 23 2a 3c 00 4c 06 3d 4d ef fa bc d4 7d 06 3d
       0.0103843715 0.032787323 -0.030631686 0.032834843
000040 71 ad 43 3c ec 4d 27 3c 36 6d 02 3d 40 c0 01 3d
       0.011943207 0.010211449 0.031842433 0.031677485
000050 a0 8f ee bb 0d 5e 8d bc cd 8b 9b bb ce 17 3c 3c
       -0.007280305 -0.017256761 -0.00474689 0.011480285
000060 5c 58 3c 3c e0 96 e5 bc f1 53 29 bc 42 f1 31 3c
       0.011495676 -0.028026044 -0.010334955 0.010860743
000070 9e d3 11 3c 83 0a d3 bb 6e 08 50 3b 34 9e 2a 3c
       0.008900551 -0.006440462 0.0031743306 0.010413695

recurrent.conv_x_h.weight f4 [2, 1, 33, 32]
000000 0e 41 97 bd 08 37 7c bd d9 fa 91 3d f4 97 5a bd
       -0.07385455 -0.06157592 0.071279235 -0.05336757
000010 30 02 07 3c 4b 34 99 bd fe dc f3 3b b8 28 4d bd
       0.008240268 -0.07480677 0.007442116 -0.05008766
000020 a2 46 e7 3c 27 40 8d 3d d3 bb 3c bd 9c 38 9e bd
       0.028231923 0.06897002 -0.04607756 -0.07725641
000030 b0 61 09 bd a0 d8 22 3d d9 f1 72 bc d3 ed 92 3d
       -0.033540428 0.03975737 -0.014828169 0.071742676
000040 7e 1d 0a bd 14 31 59 bd 16 bd 5b bd 42 02 cc bc
       -0.033719532 -0.05302532 -0.053647123 -0.02490342
000050 90 5e 44 bc ca 8e 2e 3d aa 17 16 bc 90 b4 08 bd
       -0.011985436 0.042616643 -0.009160915 -0.033375323
000060 61 53 16 3d 3c 18 84 bc 22 7b c7 3c b2 59 54 bd
       0.03670061 -0.016124837 0.024350706 -0.051843353
000070 8e 9b 39 bd 57 e2 7d 3d dd 47 85 3d 6c 18 5d bb
       -0.045314364 0.061983433 0.065078475 -0.003373648
000080 be 07 23 3b d7 3e 1c 3d 68 bc 83 bd bd e2 fd bb
       0.002487644 0.038145866 -0.0643242 -0.0077479766
000090 38 25 e1 3c 98 51 05 3a 42 2e 72 bd ea c3 0c 3d
       0.027483568 0.0005085706 -0.059126146 0.034366526
0000a0 ad f9 b3 3b 1e 02 9c bc f2 78 1c 3c 57 da 65 3d
       0.00549241 -0.019043978 0.00955032 0.05611643
0000b0 20 2e 4b 3c 3d fd 1c bd fb 14 7a bc b5 99 95 bd
       0.012401134 -0.038327444 -0.015263791 -0.07304708
0000c0 b2 b7 02 bc 8d 55 bf 3c 84 40 ac ba bf 07 8d 3c
       -0.007978367 0.023356223 -0.0013141786 0.017215608
0000d0 6a fc 76 bb d3 0f 27 3c ee e0 82 3c 3c 0e a5 3a
       -0.0037687072 0.010196644 0.015976395 0.0012592743
0000e0 3c ba 47 bd 37 44 70 3d b1 e2 1b bd 11 71 7e 3d
       -0.04876159 0.058658805 -0.038057987 0.062119547
0000f0 65 67 39 3d 8c 17 b9 bc 34 7f d0 bc 14 8c 8a bd
       0.04526462 -0.022594236 -0.02545128 -0.06764999
000100 2d 40 ab 3b 67 6a 53 3d 85 bc 10 bd da 91 84 3d
       0.005226156 0.051615145 -0.035336036 0.064731315
000110 b8 c0 e3 3c 62 b2 5c 3d 2a 65 a3 bb f4 89 59 3d
       0.027801856 0.053881057 -0.004986425 0.053110078
000120 0f 3a 88 bc f6 ae 76 bd 22 7e 67 3d 02 4c 01 3d
       -0.016629247 -0.06022545 0.056516774 0.031566627
000130 f8 ba f7 3c c0 91 3d 39 47 5c 5b 3d 45 04 8c bd
       0.03024052 0.0001807874 0.0535548 -0.06836752
000140 45 8a 15 3d 7a c5 34 3d 66 e6 a3 3c 22 db 40 3d
       0.036508817 0.04413364 0.020007323 0.04708398
000150 58 5d e0 3a 05 ff 94 bb 90 a2 17 ba 08 7f 40 3d
       0.0017117662 -0.0045470023 -0.00057844166 0.046996146
000160 a0 a9 96 bd 2d 52 76 3d b9 a2 97 bd a0 c5 0b ba
       -0.07356572 0.060136963 -0.07404084 -0.00053318776
000170 ed 98 f9 3b b7 19 21 bd b6 e4 88 bd ca ec 56 bd
       0.007617107 -0.039331164 -0.06684248 -0.052471913
000180 44 e5 15 bd 14 d9 dc 3b 94 d8 45 3d e4 10 26 bd
       -0.036595598 0.006739745 0.048302248 -0.040543452
000190 ea 34 0e 3c 68 5b 4c bd f0 62 f1 3c f2 ec 43 bc
       0.008679608 -0.04989186 0.029466122 -0.011958348
0001a0 90 ef b4 b9 bc 09 c8 3c 7c 88 73 bd 5e 7a 0a bd
       -0.00034510763 0.024418704 -0.059456334 -0.033808105
0001b0 83 7d aa 3b 4f cf 6f 3d a4 b2 fa bb 05 29 9b 3d
       0.0052029504 0.058547314 -0.00765069 0.07576183
0001c0 53 d7 b2 bc 5c 16 dd ba 8f ff 91 bd 16 be b6 bc
       -0.02183119 -0.0016867626 -0.07128822 -0.022307437
0001d0 4a 3e e6 bc ba b8 45 3d ae 3c 68 3d d4 76 0c bd
       -0.028105874 0.048271872 0.056698494 -0.03429301
0001e0 56 77 82 3c e3 f8 7a bd 4a 0d 4a 3d 36 73 e4 bc
       0.015926044 -0.061272513 0.04932908 -0.027886968
0001f0 f4 3f 93 bd a4 26 ab 3b b0 e5 d9 39 f6 92 6f 3d
       -0.071899325 0.005223112 0.00041560596 0.058489762
000200 88 63 96 3b a8 25 00 3d 94 76 9e bb f1 a2 85 3d
       0.004589502 0.03128591 -0.004835913 0.06525219
000210 fe a0 5e 3d 7a ba cb 3c f0 e8 72 3b da 81 52 3c
       0.054352753 0.024869192 0.003706511 0.012848342
000220 ec 6b 23 3d b7 f8 95 bd 04 d5 27 3d 28 3b 28 3d
       0.039897844 -0.07322829 0.040974632 0.04107204
000230 ac b1 15 3d 16 98 9c bd 04 c6 7e 3c 0f cd d0 bc
       0.036546394 -0.076461956 0.01555014 -0.025488405
000240 ea 18 0f bd 1f a8 46 3c 20 b9 1f 3a 8c 17 92 3d
       -0.03493587 0.012125044 0.00060929544 0.071333975
000250 f9 73 02 3d c2 40 2c bd 7a 2c 54 3b 2b c4 eb 3c
       0.03184888 -0.042053945 0.0032375143 0.028780064
000260 2a 2a 91 bd fc 56 18 3d b5 80 9d bd 40 2a 80 b8
       -0.0708812 0.03719233 -0.076905645 -6.111385e-05
000270 98 12 16 3d ee 14 42 bd ec f1 69 bc 86 38 43 bd
       0.036638826 -0.04738324 -0.01427887 -0.047661327
000280 12 fa fb 3c 84 b9 1e 3d 42 13 a9 3c fa 4a 69 bc
       0.030758891 0.03875114 0.020639066 -0.014239067
000290 da 58 91 bc 90 79 32 3d 00 9f 3e bc 97 f4 52 3d
       -0.017742563 0.043572962 -0.011634588 0.05150279
0002a0 95 4c e8 3b 2b 47 12 bd 8f 31 4a 3d 80 6f 2a bc
       0.0070892074 -0.035712402 0.04936367 -0.01040256
0002b0 4a f7 7c 3c 11 ff 04 bd 78 4d 22 bd e5 e4 07 3c
       0.015439818 -0.032469813 -0.03962466 0.008294319
0002c0 5d 1b 46 3d 67 9a 0c bc ae e7 9b bc a6 ac 14 3d
       0.04836594 -0.008581734 -0.019031372 0.036297463
0002d0 2c 16 95 bc 76 c6 07 bd 90 78 25 3d 19 a7 4d 3c
       -0.018199049 -0.03314825 0.04039818 0.012552046
0002e0 d2 ac 3a bc c0 61 46 bd 88 8e 1d bd 3d d6 21 3d
       -0.011393743 -0.048433065 -0.038466007 0.039510954
0002f0 58 fe eb bc 56 f6 2e bd 4a 4d 55 bd 84 a7 b6 ba
       -0.028807804 -0.042715393 -0.05207566 -0.0013935422
000300 fc ac 4a 3b 62 42 1f 3c e4 14 88 bc 92 bc 31 3d
       0.003092586 0.009720417 -0.016611524 0.043392725
000310 ed ad e0 3c f8 42 c9 3c b2 6d 12 bd d6 44 92 bc
       0.027426684 0.024568066 -0.035749145 -0.01785509
000320 66 fc ac bc 6b 2e 2a bd 87 b0 85 3d fb 87 05 3d
       -0.021116447 -0.041548174 0.065278105 0.032600384
000330 a0 c3 c5 bb 4c db b8 3b 11 e1 26 bc b8 d5 ec 3b
       -0.006035283 0.0056413766 -0.010185496 0.0072276257
000340 e6 42 9a 3b 33 9b f7 bb 16 46 7e 3c 50 c5 84 3d
       0.004707682 -0.007556343 0.0155196395 0.06482947
000350 64 e2 3a 3d 6a cb 8a bc 9a 4f 44 bd a2 bb 78 3d
       0.04562606 -0.016942699 -0.047927476 0.060725816
000360 1e c9 bf bb aa 2e 8a 3d 88 4e a0 bd 86 a4 dc 3c
       -0.0058528325 0.06747182 -0.07827479 0.02693392
000370 b8 11 7f 3c 62 c6 98 bd f0 68 89 bd 61 a1 8c bd
       0.015568189 -0.074597135 -0.06709468 -0.06866718
000380 5a 97 94 3c 42 b7 e9 bc da d8 b6 bc 02 75 b6 bb
       0.018138576 -0.028529767 -0.0223202 -0.0055681476
000390 93 99 da 3c a8 df 1f bd 5f 74 7a bc d2 fe 10 bd
       0.026684558 -0.039031655 -0.015286534 -0.035399266
0003a0 ae f0 db 3c 27 20 08 3d e4 d0 d8 3c a2 a0 98 bc
       0.026848163 0.033233788 0.026466794 -0.018631283
0003b0 18 51 d1 3c 42 a6 10 3c 13 50 c0 3c 9e a9 b9 3c
       0.025551364 0.008828701 0.023475682 0.022663888
0003c0 4f cf ed bc 14 50 a8 bc cc 08 e4 bc a9 da 02 3d
       -0.029029517 -0.020545997 -0.027836226 0.03194681
0003d0 4e f1 1a 3c 59 dd 77 3d 11 01 0b 3d c4 e9 07 3c
       0.009456946 0.060513828 0.033936564 0.00829548
0003e0 b3 7f a1 bc f4 12 cd 3c 54 b4 50 3c 49 8f 15 3d
       -0.019714212 0.025033452 0.012738306 0.0365136
0003f0 ad a0 e6 3c f6 2c 25 3d 02 d0 25 3d cf 70 16 bd
       0.028152788 0.04032608 0.040481575 -0.036728676

recurrent.conv_x_h.bias f4 [32]
000000 8c 0d 2b 3c 86 ed 3a 3c 7c 3d 1d 3d 08 03 32 bc
       0.010440242 0.011409169 0.038388714 -0.0108649805
000010 cc 0b 7a bc a4 1a aa 3c 98 4e 09 3c a0 e4 16 bd
       -0.015261602 0.020764656 0.008380555 -0.036839128
000020 82 ae 45 bc 3a c1 1c 3d b0 b3 69 3b 6d cc e9 3b
       -0.012065532 0.038270213 0.003566008 0.007134965
000030 d2 70 1d 3c cc 1f 1d 3d 29 7c 90 bc b7 c3 1a 3d
       0.009609418 0.038360402 -0.01763733 0.037784304
000040 b5 1a 1c bd bd 49 3d 3c 87 5c 9e 3c ed 06 2f bc
       -0.038111407 0.011553225 0.01933123 -0.010682804
000050 74 8f c6 3c d2 92 60 3c a5 e0 cb bc 47 1d ca 3b
       0.024238326 0.01370688 -0.024887392 0.006168041
000060 7b fd 1d 3d 45 f9 ae bc 8e 47 37 3c bc cc 0a 3c
       0.038571816 -0.021359095 0.011186494 0.008471664
000070 47 3e 87 3c 18 55 1e 3d ae 99 18 3d 9c 95 03 3c
       0.016509188 0.03865537 0.037255935 0.008031275

linear.weight f4 [1, 32]
000000 52 4e 26 be 95 87 43 be 70 02 17 3e 0c 72 90 bd
       -0.16240814 -0.19094689 0.14747024 -0.07053003
000010 48 29 46 3b 11 ba 41 be cb 53 25 3e b9 4f 79 bc
       0.0030237008 -0.18918635 0.16145246 -0.015216761
000020 b0 35 3c bc 16 66 2d 3e 38 d9 25 be 3d 66 e7 bd
       -0.0114874095 0.16933474 -0.16196144 -0.11298797
000030 2b 3f 1d be 37 bd 2e 3e d2 97 04 be de 48 ce 3d
       -0.15356128 0.17064367 -0.1294854 0.10072492
000040 8e 16 3b 3c e2 f9 13 be a7 b9 51 be 8b 18 81 bd
       0.011418952 -0.14450791 -0.20480977 -0.06303509
000050 c4 9f 31 be 67 c7 9d 3c 54 4a 0f 3e b4 a6 07 be
       -0.17346102 0.019260122 0.13993198 -0.13247186
000060 b2 b8 48 3e 14 9e 08 be 84 bd 81 3d a9 40 9d bd
       0.19601706 -0.13341552 0.06334975 -0.076783486
000070 7f 34 00 be f3 fa 1c 3e 5f 73 94 3d 3a 62 dc 3c
       -0.12520026 0.15330105 0.07248568 0.026902307
