DCRNN_pearsons_global.pth (torch, 29480 bytes, 7 tensors)

recurrent.conv_x_z.weight f4 [2, 1, 33, 32]
-0.6683571 0.32971132 -0.5425227 0.2106804 -0.5377034 0.1751578 0.21740696 0.30866432
0.23557052 0.2840135 0.24023165 0.19566758 -0.6031192 -0.27141133 -0.6234084 -0.44882688
0.27136356 0.22346462 -0.5473482 0.29207456 -0.46379653 -0.5527966 0.169486 0.09158394
0.28088924 0.08979474 -0.3646704 -0.7550309 0.19504867 0.28375816 -0.40831938 -0.5610245
-0.1530727 0.23445328 -0.050614864 0.111668654 -0.079181366 -0.1313059 -0.095203295 -0.21795309
-0.17654656 -0.13994414 -0.1036815 -0.08316748 -0.2042177 -0.03741682 -0.31430864 -0.11490846
-0.11394834 -0.11920203 -0.23946838 -0.15691727 -0.16289802 -0.13487968 -0.07175379 0.062509425
-0.18163188 -0.107441165 -0.057656374 -0.14089349 0.10674864 -0.16983563 -0.034031693 -0.13382447
0.18091772 0.006489359 0.057556164 -0.080693565 0.022408348 -0.29868975 -0.31765395 -0.39544356
-0.46810973 -0.2360662 -0.38474947 -0.26600063 0.18734117 0.5251116 0.33997577 -0.057826653
-0.28581053 -0.3859608 0.17002417 -0.33272228 -0.11939742 0.35175028 -0.3284908 0.117132924
-0.54504025 -0.21150638 -0.48038295 0.24620274 0.028541883 -0.3103414 -0.13543887 0.14933726
-0.24615976 0.26464626 -0.10747561 0.10716526 -0.031134965 -0.06571831 -0.006036243 -0.07920391
-0.10649866 -0.07718166 -0.042501565 -0.055401504 -0.19588384 -0.09171702 -0.3810358 -0.100157626
-0.086799555 -0.10171021 -0.2771497 -0.0882934 -0.1337012 -0.19148262 -0.010559083 0.11375026
-0.093457766 0.038113937 0.014811331 -0.20055537 0.12785706 -0.07435997 -0.08800946 -0.16738428
-0.2870133 0.19409612 -0.11941376 0.100942135 -0.018014919 0.25269037 0.3252093 0.36634
0.5648907 0.25355935 0.33826882 0.31632492 -0.25046846 -0.040031917 -0.3464512 -0.089365885
0.3050356 0.25553143 -0.24877965 0.37028182 -0.046776306 -0.35842064 0.25725818 0.059777953
0.44383883 0.3482079 0.16745846 -0.24147516 0.12899457 0.3414903 -0.0934954 -0.2533603
-0.16495703 0.22964 -0.06315255 0.09414217 -0.027208624 -0.0715375 -0.083513156 -0.07109996
-0.027963638 -0.09449942 0.0075548626 -0.025679387 -0.21823849 -0.051523596 -0.27931955 -0.1026762
-0.052374523 -0.054686792 -0.20298846 -0.04476114 -0.112757966 -0.18292777 -0.041686874 0.06437367
0.015581352 0.011158622 0.022814656 -0.16423655 0.07117296 -0.05814255 -0.026027843 -0.111976
0.17251074 -0.2964836 0.13067527 -0.1830058 0.0696863 -0.060272075 -0.031729575 -0.04089345
-0.012337854 -0.029720966 -0.06848443 -0.082411796 0.1952763 0.048613314 0.32700652 0.08157368
-0.021163423 0.028247144 0.22710909 -0.052284956 0.09013134 0.16804045 -0.06718592 -0.1926622
-0.05006689 0.00045148304 0.1632729 0.12745367 -0.18245438 -0.0049322257 0.003947893 0.16470106
0.13600583 -0.29467964 0.10123477 -0.18351802 0.07249851 -0.032901082 -0.053158365 -0.0056798416
-0.011638905 0.007518175 -0.07279214 -0.07302087 0.24925366 0.02468284 0.34726575 0.11241095
-0.00940053 -0.018973678 0.18553083 -0.0023451445 0.06430184 0.17853282 -0.024966922 -0.18899027
-0.019199708 -0.0025792106 0.103814654 0.08387752 -0.17601295 -0.041854806 0.018719787 0.116868
00000000: 7319 2bbf eccf a83e c5e2 0abf 9abc 573e
00000010: eea6 09bf 915c 333e ee9f 5e3e 4009 9e3e
00000020: 6639 713e 386a 913e 49ff 753e 155d 483e
00000030: 0566 1abf 6df6 8abe b197 1fbf a3cc e5be
00000040: 2af0 8a3e e9d3 643e 031f 0cbf cc8a 953e
00000050: bd76 edbe 1484 0dbf bd8d 2d3e 5c90 bb3d
00000060: b7d0 8f3e 4ee6 b73d 14b6 babe b449 41bf
00000070: d7ba 473e c048 913e 3d0f d1be 4d9f 0fbf
00000080: 17bf 1cbe 8514 703e 8851 4fbd 89b2 e43d
00000090: d729 a2bd 0e75 06be f2f9 c2bd 182f 5fbe
000000a0: 9fc8 34be 844d 0fbe f756 d4bd b653 aabd
000000b0: 721e 51be 6142 19bd 10ed a0be 2055 ebbd
000000c0: bf5d e9bd 3220 f4bd 3337 75be ecae 20be
000000d0: bdce 26be e61d 0abe a7f3 92bd f104 803d
000000e0: b5fd 39be 1d0a dcbd 1729 6cbd 6246 10be
000000f0: 089f da3d 64e9 2dbe d164 0bbd 4809 09be
00000100: 7f42 393e b0a4 d43b 03c0 6b3d ab42 a5bd
00000110: b691 b73c dded 98be 8aa3 a2be 9477 cabe
00000120: 14ac efbe 57bb 71be e2fd c4be 3c31 88be
00000130: 5dd6 3f3e b76d 063f 4e11 ae3e a4db 6cbd
00000140: c255 92be a79c c5be d11a 2e3e 935a aabe
00000150: a286 f4bd 9d18 b43e f22f a8be 63e3 ef3d
00000160: c287 0bbf 2195 58be c1f4 f5be 921c 7c3e
00000170: abd0 e93c 11e5 9ebe 7db0 0abe deeb 183e
00000180: 4e11 7cbe b77f 873e 2c1c dcbd 7679 db3d
00000190: c10e ffbc 5297 86bd adcb c5bb a935 a2bd
000001a0: f81b dabd 6b11 9ebd 1f16 2ebd b0ec 62bd
000001b0: c695 48be 22d6 bbbd 2017 c3be 711f cdbd
000001c0: f7c3 b1bd 714d d0bd 91e6 8dbe 2cd3 b4bd
000001d0: f8e8 08be 0514 44be 0100 2dbc e5f5 e83d
000001e0: c966 bfbd 5c1d 1c3d 3aab 723c 635e 4dbe
000001f0: f6ec 023e 0a4a 98bd 4e3e b4bd c966 2bbe
00000200: 68f3 92be 22c1 463e 348f f4bd c0ba ce3d
00000210: 0694 93bc a260 813e d581 a63e eb90 bb3e
00000220: ad9c 103f 88d2 813e 9231 ad3e 57f5 a13e
00000230: 673d 80be 82f8 23bd 0d62 b1be 7605 b7bd
00000240: a02d 9c3e 04d5 823e 18c0 7ebe 9495 bd3e
00000250: 8398 3fbd e982 b7be 58b7 833e bad9 743d
00000260: d83e e33e 4e48 b23e 3b7a 2b3e 4445 77be
00000270: 2717 043e d1d7 ae3e 847a bfbd 71b8 81be
00000280: 7fea 28be c026 6b3e 2056 81bd 9ccd c03d
00000290: 9fe4 debc 4182 92bd f208 abbd db9c 91bd
000002a0: 0014 e5bc e988 c1bd c88e f73b 945d d2bc
000002b0: e979 5fbe 680a 53bd f902 8fbe e647 d2bd
000002c0: ab86 56bd 42ff 5fbd 35dc 4fbe 7557 37bd
000002d0: a6ed e6bd 6b51 3bbe dbbf 2abd 58d6 833d
000002e0: ed48 7f3c a7d2 363c cde5 ba3c a02d 28be
000002f0: 21c3 913d e226 6ebd 5838 d5bc ac53 e5bd
00000300: a8a6 303e b3cc 97be bdcf 053e df65 3bbe
00000310: b1b7 8e3d dadf 76bd dff6 01bd e47f 27bd
00000320: b624 4abc 6279 f3bc 9141 8cbd 84c7 a8bd
00000330: 83f6 473e c11e 473d 666d a73e 1a10 a73d
00000340: ea5e adbc 8e66 e73c 498f 683e c028 56bd
00000350: c896 b83d cc12 2c3e c698 89bd 3d49 45be
00000360: f012 4dbd 07b5 ec39 0331 273e 3783 023e
00000370: 52d5 3abe 829e a1bb 545d 813b 65a7 283e
00000380: 1d45 0b3e 40e0 96be 2d54 cf3d 26ec 3bbe
00000390: 197a 943d 49c3 06bd 96bc 59bd f71d babb
000003a0: 1bb1 3ebc 065b f63b 0c14 95bd f78b 95bd
000003b0: 5a3c 7f3e ab33 ca3c d1cc b13e b637 e63d
000003c0: ae04 1abc b06e 9bbc cbfb 3d3e ffb0 19bb
000003d0: afb0 833d 4fd1 363e 6e87 ccbc aa86 41be
000003e0: b548 9dbc f907 29bb c79c d43d fac7 ab3d
000003f0: bd3c 34be f26f 2bbd 3d5a 993c 7d58 ef3d

recurrent.conv_x_z.bias f4 [32]
-0.5262264 0.21790767 -0.39162692 0.105644666 -0.40051147 -0.2822426 -0.21190844 -0.41454372
-0.3394885 -0.43669498 -0.27352497 -0.3714262 -0.47952077 -0.61156094 -0.21628942 -0.3085362
-0.44488314 -0.14849623 -0.3778559 -0.48502216 -0.22020201 -0.40441346 -0.182802 -0.23517443
-0.14200233 0.021916257 0.43333784 -0.45631677 -0.023329027 -0.3471958 -0.33962947 -0.37087354
00000000: c6b6 06bf 3023 5f3e 5383 c8be 3b5c d83d
00000010: d70f cdbe 1a82 90be 87fe 58be 133f d4be
00000020: 70d1 adbe 7c96 dfbe 770b 8cbe 932b bebe
00000030: bf83 f5be 428f 1cbf f97a 5dbe 75f8 9dbe
00000040: b9c7 e3be 650f 18be 5476 c1be d354 f8be
00000050: a37c 61be 480f cfbe 7330 3bbe 91d1 70be
00000060: 0f69 11be b989 b33c 75de dd3e 5aa2 e9be
00000070: 841c bfbc a6c3 b1be eae3 adbe 23e3 bdbe

recurrent.conv_x_r.weight f4 [2, 1, 33, 32]
-0.009266282 -0.08871933 0.081800215 -0.14882587 -0.13038686 0.1668904 0.17539842 0.13465537
0.19186066 0.17236976 0.13307469 0.15290892 -0.011116191 -0.24807137 -0.15275955 0.14063692
0.18408877 0.122879155 0.029698677 0.17565961 0.16140555 0.013310336 0.08915157 -0.120945565
0.07898735 -0.078425586 -0.039094694 -0.01178485 -0.18315628 0.16567414 0.13890986 0.06743291
-0.08657465 -0.152102 -0.052989226 0.009497525 -0.078792006 -0.0393814 -0.018891584 -0.024260228
-0.04941372 -0.011029931 -0.056368563 0.013281797 -0.050105304 -0.028962597 0.0879988 -0.060338736
-0.011266336 -0.05505034 -0.04411392 -0.015478481 -0.04862875 -0.050170988 -0.031155093 -0.02798377
-0.009367918 -0.038050566 -0.057721682 -0.0130912 0.019566786 -0.04602764 -0.016199177 -0.024781309
0.07443841 0.13922608 -0.0003403961 0.07970976 0.13403232 0.040749248 0.051153082 0.041248985
0.10685915 0.06881875 0.103422284 0.01533914 0.10276164 0.19943778 -0.057667933 0.04459422
0.0933413 0.026305834 0.017191272 0.043236 0.06996016 0.0888007 0.029902605 0.08485206
0.022902297 0.12794282 0.013789363 0.039247423 0.06828598 0.09885832 0.014243628 0.07373526
-0.05280806 -0.22482896 -0.09210054 0.033872794 -0.10516299 -0.05605709 0.006247709 0.040563922
-0.037526827 -0.02103063 -5.606941e-06 -0.013990969 -0.07084147 -0.01672668 0.0903495 -0.0090352865
-0.019377561 -0.00096105505 -0.045453098 -0.058865093 -0.016482713 -0.12754774 -0.08066437 -0.030346096
-0.06372598 -0.015104717 -0.077515155 -0.05017115 -0.02337279 0.029680908 -0.051790293 -0.016202087
-0.021884466 -0.01203596 -0.090577126 0.012276224 -0.14357685 -0.04302707 -0.027463378 -0.019647071
-0.019843508 -0.04329188 -0.084940076 -0.072909564 -0.11064552 -0.10316316 0.04678031 -0.07689972
-0.029008042 -0.07860392 -0.030878348 -0.03879393 -0.095003895 -0.09392745 -0.12268353 -0.058760077
-0.11678722 -0.120655835 -0.13119063 -0.12658961 0.026088275 -0.04188744 -0.0854225 -0.09119802
-0.032596253 -0.15692501 -0.037548207 0.022504548 -0.13135111 -0.0024377457 -0.05213962 -0.015882133
-0.07754042 -0.068190165 -0.06700822 -0.016494917 -0.035199743 0.015323474 0.09689061 -0.07038852
-0.07575533 -0.08612365 -0.08113269 -0.020627458 -0.099790856 -0.054697823 -0.04581891 -0.03370078
-0.04759799 -0.030337093 -0.02823043 -0.033016752 -0.0035710111 -0.03834397 -0.06586131 -0.029134037
0.037785247 0.18822038 0.0816971 0.021781217 0.16552718 -0.020594776 -0.012146293 -0.058508668
0.012444797 0.013044023 0.021136424 0.046430755 0.113891885 0.13617885 -0.025848303 0.02866889
-0.0042806673 -0.0010031558 0.024936808 0.046149954 -0.039006554 0.11796107 0.06903584 0.14785373
-0.015589028 0.030183196 0.0861353 0.08666396 0.04825291 -0.062753215 -0.034626517 0.05006982
0.023725033 0.123993985 0.07329534 0.037379473 0.1325358 -0.026839966 0.035536885 -0.041442502
0.03826143 0.03244035 -0.03595783 0.048768923 0.048972245 0.10864471 -0.045596354 -0.028786544
-0.048852947 0.02469619 0.085814096 -0.010966753 0.018904202 0.1325216 0.046073742 0.11987601
0.026470779 0.032217704 0.08294896 0.037155174 0.016387872 -0.042229854 0.028095342 -0.0063767624
00000000: 9bd1 17bc 7bb2 b5bd df86 a73d cf65 18be
00000010: 2284 05be 51e5 2a3e a59b 333e 19e3 093e
00000020: 1f77 443e b381 303e bb44 083e 2894 1c3e
00000030: af20 36bc 6c06 7ebe 006d 1cbe 2003 103e
00000040: c481 3c3e 11a8 fb3d a44a f33c 1de0 333e
00000050: 7f47 253e 9813 5a3c 1995 b63d 4fb2 f7bd
00000060: 1fc4 a13d 989d a0bd c221 20bd 3e15 41bc
00000070: 528d 3bbe 7ba6 293e 633e 0e3e 441a 8a3d
00000080: 0d4e b1bd a0c0 1bbe 3b0b 59bd 829b 1b3c
00000090: b45d a1bd 644e 21bd 86c2 9abc 63bd c6bc
000000a0: 0a66 4abd e2b6 34bc b9e2 66bd e59b 593c
000000b0: 383b 4dbd f842 edbc b738 b43d c025 77bd
000000c0: 7096 38bc 777c 61bd ccb0 34bd 7499 7dbc
000000d0: f12e 47bd 1880 4dbd f738 ffbc 383e e5bc
000000e0: e57b 19bc e9da 1bbd 926d 6cbd 797c 56bc
000000f0: 864a a03c 7b87 3cbd 23b4 84bc 2c02 cbbc
00000100: 2a73 983d 4891 0e3e 3177 b2b9 df3e a33d
00000110: c53f 093e afe8 263d e585 513d b2f4 283d
00000120: f8d8 da3d d8f0 8c3d 10cf d33d 0451 7b3c
00000130: b274 d23d 6b39 4c3e 3635 6cbd 6ea8 363d
00000140: b929 bf3d 557f d73c b6d4 8c3c 3b18 313d
00000150: 4647 8f3d 24dd b53d 4ff6 f43c ebc6 ad3d
00000160: 999d bb3c 7103 033e c8ec 613c e8c1 203d
00000170: 85d9 8b3d 3b76 ca3d 1b5e 693c 8302 973d
00000180: 444d 58bd 9039 66be 359f bcbd 33be 0a3d
00000190: b25f d7bd 1f9c 65bd 95b9 cc3b 5b26 263d
000001a0: bbb5 19bd 6e48 acbc 4223 bcb6 613a 65bc
000001b0: 5515 91bd 6406 89bc 2909 b93d bd08 14bc
000001c0: b1bd 9ebc 50ef 7bba 072d 3abd 861c 71bd
000001d0: c106 87bc e09b 02be 5c33 a5bd 6098 f8bc
000001e0: c482 82bd c679 77bc 44c0 9ebd 4480 4dbd
000001f0: 4b78 bfbc 6025 f33c 0f22 54bd 3dba 84bc
00000200: 0d47 b3bc 7a32 45bc 8080 b9bd 3722 493c
00000210: cf05 13be 273d 30bd e1fa e0bc e5f2 a0bc
00000220: da8e a2bc d452 31bd 10f5 adbd 9c51 95bd
00000230: 1e9a e2bd 3547 d3bd b69c 3f3d 9a7d 9dbd
00000240: 46a2 edbc 18fb a0bd 97f4 fcbc 62e6 1ebd
00000250: 6791 c2bd 095d c0bd 8141 fbbd 68ae 70bd
00000260: 232e efbd 681a f7bd d656 06be b5a0 01be
00000270: 14b7 d53c 2a92 2bbd fef1 aebd 07c6 babd
00000280: a683 05bd f3b0 20be 26cc 19bd 755b b83c
00000290: e880 06be 96c2 1fbb 5b90 55bd 3f1b 82bc
000002a0: 83cd 9ebd 49a7 8bbd 9b3b 89bd 5920 87bc
000002b0: 9b2d 10bd 4f0f 7b3c 966e c63d db27 90bd
000002c0: 9c25 9bbd 9961 b0bd e528 a6bd eafa a8bc
000002d0: 265f ccbd d30a 60bd 9cac 3bbd d409 0abd
000002e0: 1cf6 42bd 7f85 f8bc 8143 e7bc 933c 07bd
000002f0: a007 6abb 910e 1dbd 4be2 86bd 81aa eebc
00000300: b4c4 1a3d d8bc 403e cf50 a73d 866e b23c
00000310: f57f 293e 60b6 a8bc 3f01 47bc c9a6 6fbd
00000320: 43e5 4b3c 99b6 553c 4b26 ad3c 2d2e 3e3d
00000330: 2640 e93d 7872 0b3e d2bf d3bc 05db ea3c
00000340: d744 8cbb 537c 83ba 4748 cc3c bc07 3d3d
00000350: 56c5 1fbd 9395 f13d aa62 8d3d f866 173e
00000360: 1f69 7fbc c042 f73c b467 b03d e07c b13d
00000370: d8a4 453d c284 80bd 89d4 0dbd 0316 4d3d
00000380: 005b c23c 8ff0 fd3d de1b 963d 381b 193d
00000390: 77b7 073e 7ddf dbbc 208f 113d 9dbf 29bd
000003a0: 04b8 1c3d 2ce0 043d 8448 13bd ecc1 473d
000003b0: 1f97 483d 1e81 de3d 3ec3 3abd c2d1 ebbc
000003c0: 071a 48bd aa4f ca3c 4dbf af3d e5ad 33bc
000003d0: fcdc 9a3c beb3 073e d2b7 3c3d 8e81 f53d
000003e0: 3fd9 d83c b6f6 033d 25e1 a93d 0630 183d
000003f0: dc3f 863c 36f9 2cbd 3428 e63c 29f4 d0bb

recurrent.conv_x_r.bias f4 [32]
-0.01025129 -0.23307234 -0.056348767 -0.03670452 -0.15778813 -0.00863328 -0.02012613 -0.004870292
-0.099730395 -0.024313647 -0.053138718 -0.022988081 -0.081420034 0.008439211 0.091546774 -0.07246413
-0.050998792 -0.020402504 -0.031838205 -0.012569238 -0.06627036 -0.09866533 -0.008819758 -0.0071434197
-0.009645028 0.006165926 -0.07861238 0.007305859 -0.08857242 -0.03667557 -0.07036487 -0.06278381
00000000: 07f5 27bc 84aa 6ebe f7cd 66bd 7b57 16bd
00000010: 3693 21be 9a72 0dbc 8edf a4bc f896 9fbb
00000020: 733f ccbd 6a2d c7bc fca7 59bd 8051 bcbc
00000030: 8cbf a6bd 9e44 0a3c e07c bb3d 1368 94bd
00000040: 1ce4 50bd 2723 a7bc c768 02bd 35ef 4dbc
00000050: c1b8 87bd 0c11 cabd bf80 10bc 5913 eabb
00000060: 2e06 1ebc 890b ca3b 87ff a0bd fd65 ef3b
00000070: 7565 b5bd 1f39 16bd 751b 90bd cc94 80bd

recurrent.conv_x_h.weight f4 [2, 1, 33, 32]
0.19020768 -0.05596049 0.18693388 -0.016189443 0.131534 -0.13031198 -0.15091409 -0.17514929
-0.09502245 -0.14516573 -0.1670683 -0.124748975 0.18576457 -0.16146353 0.16752103 0.18661958
-0.17885531 -0.14648154 0.14358073 -0.14455315 0.1937639 0.12140599 -0.16332935 -0.03915474
-0.14760107 0.08753961 0.016872795 0.18564211 0.0057595763 -0.14126617 0.14578652 0.14705023
-0.094864964 -0.012283269 -0.077580065 0.14769875 -0.020360185 0.0067042233 0.07033244 0.05248135
-0.016545223 0.00979202 0.033731196 0.0058954773 -0.06892101 -0.13789268 -0.10098164 -0.058577456
0.025126044 0.07973883 -0.022378152 0.077420376 -0.08951013 -0.06297117 0.0709466 -0.017381456
0.010965883 -0.050349027 0.024267485 -0.11637771 -0.004944399 0.052544814 -0.019718815 -0.064226545
-0.011367684 -0.19831112 -0.055796556 -0.06981811 -0.035774756 0.059794586 0.06874817 -0.02646211
0.03545852 -0.02894684 0.015443507 -0.006612731 0.01041284 0.10209468 0.08796029 -0.012235125
0.04201146 0.051584415 -0.039355513 0.030213695 0.05447633 -0.040886164 0.014295976 0.038195297
0.058649283 -0.006637291 0.0992083 0.029690377 -0.07834229 0.020748464 -0.0022414078 -0.022062361
-0.07667474 0.0018538488 -0.00032500597 0.054587796 -0.020738572 0.003376598 -0.0032982198 0.017990548
0.06308224 0.031276423 -0.009863349 -0.0046651713 -0.020306239 -0.043658454 0.024853198 -0.06754897
0.00045296835 0.06840266 -0.0002725938 0.043502916 -0.021943234 0.013264747 0.011667929 -0.03366331
0.04271952 -0.047389694 0.051547628 -0.06750949 -0.04047169 0.06248137 -0.025094563 -0.00587268
-0.1056625 -0.18105562 -0.08176511 -0.11184963 -0.028740074 0.033098694 0.034443155 -0.01201828
0.03096316 0.013738551 0.046191905 -0.0021710435 -0.04830294 0.14281273 -0.06648586 -0.053962715
0.027976008 0.020673212 -0.065091394 -0.0008779161 -0.07898508 -0.038744695 0.016533883 0.12615266
0.039469067 -0.012817139 0.11425548 -0.1591747 -0.07651656 -0.002739906 -0.07046786 -0.10875017
-0.04933483 -0.011067805 -0.059027944 0.120892964 -0.021018084 -0.01910334 -0.043416828 -0.014844711
-0.012894719 -0.062554464 -0.037314225 -0.044675454 -0.057991117 -0.16924204 -0.06358753 -0.07598458
-0.066302985 -0.0146651035 -0.061066367 0.019695962 -0.11758145 -0.060056895 0.013149271 0.0342108
-0.041634046 -0.019430926 -0.0017875922 -0.1065281 -0.065331586 -0.038823586 0.021057539 -0.027465397
-0.04306138 -0.04232676 -0.068027124 -0.030617807 -0.057223022 0.010161304 -0.031612623 -0.025691675
-0.035198417 -0.033294246 -0.00553217 -0.048096843 -0.016039556 0.014560115 -0.06316146 0.02779123
-0.038545836 -0.052079983 -0.08599622 -0.017314868 0.023091476 -0.061632376 -0.053470466 0.002821304
-0.012403814 0.10784709 -0.101953484 0.052502036 0.047662854 -0.0018674766 -0.067229055 0.018692948
-0.058838982 0.027481496 -0.07767096 -0.04822225 -0.040823415 -0.06148645 -0.00544866 -0.008432271
-0.03725273 -0.0003560923 0.013584069 -0.0077402913 -0.035298374 0.08581127 -0.06793107 -0.05955831
0.014965404 0.015156897 -0.05794699 -0.057544522 0.012168954 -0.052970078 -0.038382746 0.04941443
-0.082634695 0.08872413 -0.016062403 0.007324867 0.033654768 -0.032201167 -0.091461964 -0.0191098
00000000: cdc5 423e d436 65bd 986b 3f3e b99f 84bc
00000010: d9b0 063e 8170 05be 3989 1abe 565a 33be
00000020: 219b c2bd 53a6 14be f413 2bbe 647c ffbd
00000030: 1139 3e3e b256 25be a28a 2b3e 3419 3f3e
00000040: d925 37be 42ff 15be d406 133e be05 14be
00000050: 0b6a 463e b4a3 f83d cf3f 27be b860 20bd
00000060: bc24 17be f847 b33d d138 8a3c f718 3e3e
00000070: d4ba bc3b 14a8 10be 1049 153e 5694 163e
00000080: 9048 c2bd c43f 49bc 4ce2 9ebd 573e 173e
00000090: 67ca a6bc 1aaf db3b 740a 903d aff6 563d
000000a0: d989 87bc b56e 203c b929 0a3d d92e c13b
000000b0: 7526 8dbd bd33 0dbe 76cf cebd eaee 6fbd
000000c0: 22d5 cd3c 1d4e a33d 6352 b7bc 938e 9e3d
000000d0: 1651 b7bd 07f7 80bd 734c 913d 8e63 8ebc
000000e0: 3faa 333c c83a 4ebd 9bcc c63c 7057 eebd
000000f0: a004 a2bb 3b39 573d 5a89 a1bc 3589 83bd
00000100: 863f 3abc 1212 4bbe ee8a 64bd ccfc 8ebd
00000110: 8d88 12bd 2beb 743d d7cb 8c3d 11c7 d8bc
00000120: f43c 113d ec21 edbc c306 7d3c 9caf d8bb
00000130: 9e9a 2a3c 0417 d13d 8624 b43d d575 48bc
00000140: 3514 2c3d 2e4a 533d 3f33 21bd b682 f73c
00000150: 9222 5f3d 4078 27bd ab39 6a3c ac72 1c3d
00000160: 3b3a 703d a27d d9bb b92d cb3d 3c39 f33c
00000170: ec71 a0bd aff8 a93c 95e4 12bb 20bc b4bc
00000180: a507 9dbd d8fc f23a 9065 aab9 7497 5f3d
00000190: f0e3 a9bc ea49 5d3b f226 58bb ea60 933c
000001a0: 4331 813d b51b 003d e299 21bc 4bde 98bb
000001b0: 4559 a6bc 35d3 32bd ef98 cb3c 1d57 8abd
000001c0: 627c ed39 b216 8c3d ecea 8eb9 1d30 323d
000001d0: 4cc2 b3bc 6254 593c d72a 3f3c 8ae2 09bd
000001e0: aafa 2e3d b21b 42bd 9b23 533d 6a42 8abd
000001f0: a5c5 25bd 77ec 7f3d 1d93 cdbc 9c6f c0bb
00000200: 9565 d8bd a566 39be 7774 a7bd 6b11 e5bd
00000210: 4e70 ebbc 7f92 073d 4414 0d3d 52e8 44bc
00000220: 74a6 fd3c a917 613c b933 3d3d 1148 0ebb
00000230: 4ed9 45bd 803d 123e bd29 88bd 0208 5dbd
00000240: f12d e53c de5a a93c a34e 85bd f423 66ba
00000250: eec2 a1bd c2b2 1ebd 1172 873c 2a2e 013e
00000260: 51aa 213d fafe 51bc c7fe e93d b1fe 22be
00000270: b7b4 9cbd ff8f 33bb 7451 90bd 69b8 debd
00000280: 5213 4abd bd55 35bc 49c7 71bd bb96 f73d
00000290: 1e2e acbc 9c7e 9cbc d8d5 31bd 3b37 73bc
000002a0: 5f44 53bc 8e1c 80bd cdd6 18bd 9cfd 36bd
000002b0: 1888 6dbd c94d 2dbe 2e3a 82bd ce9d 9bbd
000002c0: dcc9 87bd e745 70bc ba20 7abd 6d59 a13c
000002d0: 8bce f0bd 38fe 75bd 0a70 573c a020 0c3d
000002e0: 7688 2abd 9b2d 9fbc a44d eaba 682b dabd
000002f0: 91cc 85bd 7b05 1fbd dc80 ac3c 1dff e0bc
00000300: 2161 30bd d35e 2dbd ce51 8bbd 32d2 fabc
00000310: b062 6abd 997b 263c 3d7c 01bd 5977 d2bc
00000320: 372c 10bd 8c5f 08bd 3547 b5bb 3201 45bd
00000330: 6365 83bc 8c8d 6e3c cc5a 81bd 6faa e33c
00000340: 3de2 1dbd d251 55bd c91e b0bd e9d7 8dbc
00000350: 562a bd3c 3b72 7cbd d903 5bbd a0e5 383b
00000360: 5e39 4bbc efde dc3d fdcc d0bd 600c 573d
00000370: 203a 433d 1ec6 f4ba 63af 89bd f421 993c
00000380: 2501 71bd e020 e13c f411 9fbd b284 45bd
00000390: 7436 27bd 37d9 7bbd ac8a b2bb 8227 0abc
000003a0: 5296 18bd e6b1 bab9 b78f 5e3c 45a2 fdbb
000003b0: 0795 10bd d2bd af3d 721f 8bbd 6af3 73bd
000003c0: 7431 753c a254 783c d359 6dbd ceb3 6bbd
000003d0: 4b60 473c 27f7 58bd 3a37 1dbd c966 4a3d
000003e0: 613c a9bd ffb4 b53d 4d95 83bc 7005 f03b
000003f0: 95d9 093d 5fe5 03bd 6950 bbbd 288c 9cbc

recurrent.conv_x_h.bias f4 [32]
-0.05885168 -0.038232967 0.06722979 -0.013205208 0.023507887 0.10086628 0.09473878 0.17058167
0.054383267 0.14912574 0.08245254 0.09669178 -0.0028743 -0.1735562 -0.071261354 -0.018620076
0.16106148 0.072941065 0.00035423867 0.16406234 -0.05728906 0.023111418 0.08086378 -0.017483959
0.057703163 -0.08035505 -0.0776515 -0.09794355 -0.051104806 0.1541573 0.0553533 0.015145987
00000000: 760e 71bd 2c9a 1cbd c6af 893d a85a 58bc
00000010: 9d93 c03c fb92 ce3d 6806 c23d f6ac 2e3e
00000020: fdc0 5e3d 6bb4 183e e1dc a83d 5706 c63d
00000030: c05e 3cbb b7b8 31be 79f1 91bd 2189 98bc
00000040: 4ded 243e 2062 953d 1cb9 b939 f5ff 273e
00000050: efa7 6abd 2854 bd3c e99b a53d 853a 8fbc
00000060: 275a 6c3d 3091 a4bd c007 9fbd a196 c8bd
00000070: 4653 51bd 69db 1d3e 24ba 623d e026 783c

linear.weight f4 [1, 32]
0.22830346 -0.16892792 0.35603112 0.048742566 0.28332236 -0.30312458 -0.33229417 -0.3973136
-0.30686393 -0.40158543 -0.30222967 -0.36676073 0.30101022 -0.17552906 0.33993834 0.26094735
-0.37867254 -0.29846907 0.31637138 -0.33706248 0.2311038 0.32784653 -0.23895015 -0.14501628
-0.23575056 0.026444772 0.21577609 0.22924231 -0.1231814 -0.3559612 0.3304473 0.25871325
00000000: 62c8 693e 71fb 2cbe b649 b63e 49a6 473d
00000010: a10f 913e 2533 9bbe 7622 aabe b06c cbbe
00000020: 451d 9dbe 9b9c cdbe d9bd 9abe 10c8 bbbe
00000030: 031e 9a3e e4bd 33be 660c ae3e e49a 853e
00000040: 5ee1 c1be f0d0 98be 6efb a13e 7493 acbe
00000050: 79a6 6c3e 80db a73e 59af 74be 267f 14be
00000060: 9868 71be b5a2 d83c 68f4 5c3e 7fbe 6a3e
00000070: 8846 fcbd 8c40 b6be 6330 a93e 1076 843e
