DGRNN_mi_local_best_model.pth (torch, 71749 bytes, 40 tensors)

recurrent.conv_x_z.lambda_q1 f4 [32]
00000000: 8d60 843c 4fda 50bc 0794 ba3d 2687 fcbd
00000010: 7685 2d3d 208b 06be e659 a43d c314 713c
00000020: f7f9 81bd b496 2c3e 9734 60bb c4e6 52bd
00000030: 203a 9dbd 7fb8 19be 0572 403e b77a 3c3e
00000040: 12d8 27be f33c 8bbc 5274 0bbc 9285 90bb
00000050: 7069 fb3b 69fb 77bc 290d c23c e628 f7bd
00000060: 916a 9abd 83f0 3ebe 8f00 36be 1bfc 3f3e
00000070: a7fa a73c cb0d d4bd 712d 293d c8db 513d
0.01615932 -0.012747361 0.09110265 -0.12330465 0.042363606 -0.1313901 0.08024959 0.014714423
-0.06346505 0.16854364 -0.0034211033 -0.051489606 -0.07677102 -0.15011786 0.18793495 0.18406187
-0.16391018 -0.016996836 -0.00851162 -0.004410454 0.0076724812 -0.015135624 0.023687916 -0.12068348
-0.07539857 -0.18646435 -0.1777365 0.18748514 0.020505263 -0.10354193 0.041303102 0.05123499

recurrent.conv_x_z.lambda_k1 f4 [32]
00000000: 36eb 23bd 5ba3 3f3e b30b bebd 8fb8 35be
00000010: cbae 96be 5e4a 323d c05a 60bd b56e 07bd
00000020: 03ca d8bc 70f5 a83d ebf5 f13d 864a 893e
00000030: 2044 033e 7444 cbbc 1f3d 9b3c 1a73 963c
00000040: b3d1 7b3e c0cf 723c c4fe 99bd 98bd d33c
00000050: ae26 1e3d e03c 28be 12e2 cbbb cf78 f33d
00000060: 8f57 0b3e 3b67 753d cb92 d1bd 2c4d f03d
00000070: 8e28 7abd 35e0 193e 5af3 34bc 84d9 a9bd
-0.040019237 0.18714659 -0.09279575 -0.17746185 -0.2943023 0.043527953 -0.054774046 -0.033064563
-0.026463514 0.082499385 0.11814483 0.2681467 0.12818956 -0.024812914 0.018950043 0.018365432
0.24591713 0.014820039 -0.07519296 0.025847241 0.038611107 -0.16429472 -0.006222018 0.11888277
0.1360762 0.0599129 -0.10233077 0.11733469 -0.061073832 0.15026934 -0.011044348 -0.08293441

recurrent.conv_x_z.lambda_q2 f4 [32]
00000000: 564e 87bc 1b92 d4bd 8e86 afbc a118 2fbe
00000010: 7ca3 6dbc 8f5a 4b3e 6e77 283d f091 c1bd
00000020: 78da 78bd ab8f f73c e667 213d 0b74 1fbe
00000030: 5a45 67bc 0e8c 8b3c 825a 093e cddf e7bd
00000040: e4ee 933d 1dc8 4abd 3a0d 9a39 3994 d83d
00000050: c149 e3bc b0f8 6a3b dce7 3dbe 7c34 2bbc
00000060: 0ccd df3d 4ee9 7c3e 2b6c bdbc 941d 1fbd
00000070: 5f02 95be da75 8d38 a6cf 903d 8bf6 3e3d
-0.016516846 -0.1037943 -0.021426465 -0.17099239 -0.01450431 0.19858764 0.041129522 -0.094516635
-0.060755223 0.030219873 0.039405726 -0.1557161 -0.014115656 0.017034557 0.13413432 -0.113219835
0.07223299 -0.04950725 0.00029383024 0.10575146 -0.02774513 0.0035853796 -0.18545479 -0.010449525
0.109277815 0.24698374 -0.023122868 -0.038846567 -0.29103372 6.7453555e-05 0.07070856 0.04662184

recurrent.conv_x_z.lambda_k2 f4 [32]
00000000: 1343 203b 9583 3fbe 4090 753d 6331 2bbe
00000010: 95d5 933c cabc adbd 2053 dc3d 75b6 88bc
00000020: 5c51 8abd da72 be3c cdd6 ba3c 9cd4 d2bd
00000030: 92f2 3cbc b0b0 b43c fec3 863d ced4 a6bd
00000040: acc6 233e 01ac 59bd 2491 41bc ff1b bf3d
00000050: 5e34 af3c 40f0 813b 1b2d b2bd 5b12 15bc
00000060: 83eb 573d 5f01 1abd 0c4c c23d c4d0 65bc
00000070: 3a63 f7bc d116 0ebe 1f49 cdbd 193a 16bc
0.0024454042 -0.18702538 0.05995202 -0.16718058 0.01804618 -0.08483274 0.10758042 -0.016688565
-0.06753799 0.023248125 0.022807503 -0.10294458 -0.011532443 0.022056907 0.06580351 -0.08146058
0.15993756 -0.05314255 -0.011814389 0.09331512 0.021387275 0.0039654076 -0.087000094 -0.009098615
0.052714836 -0.037598964 0.09487161 -0.014026824 -0.030198682 -0.13875891 -0.10023712 -0.009169125

recurrent.conv_x_z.Q.weight f4 [32, 36]
00000000: f477 fabd 7d02 f3bd 2b06 6fbd 8f06 ae3d
00000010: 556c 46bd 8fa1 b1bd 8fd0 c4bd 569b 3ebe
00000020: 5a12 fbbd 4567 6ebc c285 02be 9fd1 19be
00000030: f761 a13d bacd 7c3d 3fbb 7f3d 0c6c cc3d
00000040: 1d3c a9bd ba79 39bc b223 15be 1386 193e
00000050: e1c8 a9bd 4f8f 603d 7bdc b0bd ffaf b73d
00000060: 780b 0a3e 2d04 6d3d 8733 dbbd a11d cd3d
00000070: 4a3b 153e 63c9 85bd 5c33 8cbd fff2 8dbd
00000080: 52d8 01bc 5c61 2ebe c0af cd3d 7b75 af3d
00000090: 6034 823d b8eb f13d e112 04bd d4e9 03be
000000a0: 4b47 ecbd 8c77 e7bc 0eb0 13be 075e edbd
000000b0: 5a9c 10be 6368 8fbd 29f8 9f3d c852 0e3c
000000c0: 82ce e83d 3143 2cbe 96ad e8bd 6bc9 ad3c
000000d0: d6cb e9bd f24d 26bd 9192 2d3e f07a c2bd
000000e0: 9639 c3bd e4c6 aa3d a44e 083e 932b 073d
000000f0: a01b a03d f75d b0bd 21ac ed3d cd5d 073d
00000100: ece1 233e cf08 0f3e d1e2 b5bc 3890 263d
00000110: 6f43 fcbd f3cd 103e fae3 633c 099f da3c
00000120: bf85 dd3d 553e aabd e64d b93c 8718 bebd
00000130: c29c 7fbd 043e b8bd c3ae 233e c909 2abe
00000140: 3fe1 66bc f263 90bc 00c5 adbc 6dc5 39bd
00000150: 6935 cb3d 89fb 213e 625c d2bc 7786 26bd
00000160: c407 32be 1d18 da3d b9b7 c33d 174b f7bd
00000170: 2ecc 0bbd a8c4 1e3d cb87 963d 8807 1ebd
00000180: a4d8 80bd aab8 53bd ee9c 30be c169 2b3e
00000190: 26f5 013e f3c3 2c3d 5f85 8fbd a588 aa3d
000001a0: a1e0 0cbe ec5f b03d ad9b e2bd 7196 523d
000001b0: 67b3 d93d 8a25 1e3e 5989 1fbe f49e cebd
000001c0: 23f6 ad3c 0c6e 093e fda3 a9bd 138b d73d
000001d0: 0959 dc3d 6213 0abe 570f b3bd 4fd6 f8bd
000001e0: 694f 033e 0587 f73d 6ecf 18be 5e61 f4bd
000001f0: 0b57 9abc 01ef b8bc 3fa6 7bbc 87a3 9c3d
00000200: 08ae f13d b7fe 7e3d 4cb3 c53d 3b9d 063e
00000210: eb15 203d 389c 10be 4aa8 4cbd fa6a ff3d
00000220: c7c2 dbbd 1bd8 013e 2b23 c53d 8061 ddbc
00000230: 462a 35be 3421 a03d c0ad 173e b71b 23be
00000240: c7c3 903b 6bce 07be cccc 293e d30c 133e
00000250: ec40 6bbd 689a 8ebd 2ce3 3cbd 371d c3bd
00000260: 1dc9 0d3e 10e8 07be 9f0a f2bc 88e8 d63d
00000270: 6e81 b5bd f3c7 c8bd fbd9 adbc e564 0abe
00000280: 64d4 cabd ae8c 313e d380 1bbd ab5c 5e3d
00000290: 8d33 19be 6d3c d1bd 38e0 35be 0b49 36be
000002a0: a3ce 9dbd c29c cf3d 8bd0 873d 2506 4a3d
000002b0: 5168 22be 0bd5 edbd 07ed aa3c b59e adbd
000002c0: bd4d 18bd 759e b93b 5ea3 c63d 67a2 e4bd
000002d0: dd93 0f3d 47cd a9bd 0435 f63c 8102 67bd
000002e0: 1c17 72bd ffe5 7fbd bd4a debd a875 2e3c
000002f0: 7347 f4bd b0bc edbd 64c6 53bd a4ee d23d
00000300: 3ab0 e2bd 7a06 2ebe 79ae 4ebd 3570 413c
00000310: 9ed1 073e 7bd9 e73b 714d cc3d eae4 fcbd
00000320: ce95 383c b989 483d afd9 76bd 9402 953d
00000330: 2570 79bc 6328 bcbd 088c aabc de67 5ebc
00000340: 6bb7 a9bb b33d ac3d 6dfd 39bd 62b7 e63c
00000350: 0eba 97bd 7ca9 e2bc 20be 0cbe ebf4 74bc
00000360: cfce 233e ab02 e93d ef82 51bd 962b dc3b
00000370: 8805 32bb b2e3 213d 809c 63bd ba6b fbbd
00000380: 7f5f 2ebe 14ad b43d f4f6 1b3e 405a 733d
00000390: a741 163d e343 133e d443 b7bd 3bd9 2b3d
000003a0: 43ff 8dbd 5c26 bcbd 69ff 0bbe 36ee 0bbe
000003b0: ebeb 34be 535f fe3c a563 e93b 6025 023e
000003c0: 9cc3 753d 09e6 e73d 9327 cfbc 46b7 12be
000003d0: 1577 5ebd 212f 07be 409f 673d 90ca 7ebd
000003e0: 016a 873d 23ba 0c3e c210 0a3e 5fc5 0d3e
000003f0: 5668 083e 506f 1c3c a1b4 923d 555c b0bd
-0.122299105 -0.11865709 -0.05835549 0.08497345 -0.048443157 -0.08673393 -0.09610092 -0.18613943
-0.1225936 -0.014550989 -0.12746337 -0.1502137 0.078800134 0.061719634 0.06243443 0.09981546
-0.08263419 -0.011320526 -0.14564398 0.14992552 -0.08290268 0.05482417 -0.08635803 0.089691155
0.13480937 0.05786531 -0.107031874 0.10015417 0.14573398 -0.06532552 -0.068457335 -0.069311135
-0.00792511 -0.17029327 0.10043287 0.085673295 0.06357646 0.11812538 -0.032244567 -0.12882167
-0.115370356 -0.028255247 -0.14422628 -0.115902 -0.14122143 -0.07002332 0.07811005 0.008686729
0.11367513 -0.16822506 -0.11361234 0.021214208 -0.11415832 -0.04060168 0.16950442 -0.09496105
-0.09532468 0.083387166 0.13311249 0.03300054 0.07817769 -0.08611672 0.116050966 0.03304844
0.16004151 0.13968204 -0.022202881 0.04066488 -0.123175494 0.14141063 0.013909334 0.026687162
0.10816526 -0.0831267 0.022620153 -0.09282022 -0.062405355 -0.089962035 0.15984635 -0.16605295
-0.014091789 -0.017625783 -0.021212101 -0.045354296 0.099222966 0.1581861 -0.025678817 -0.04065558
-0.17385775 0.106491305 0.09556527 -0.12074869 -0.034130268 0.038761765 0.07350119 -0.0385814
-0.06291321 -0.05168978 -0.17247364 0.1673956 0.12691173 0.04217906 -0.070078604 0.08326844
-0.13757564 0.08612046 -0.11064849 0.051413003 0.106299214 0.15444008 -0.15579738 -0.10088912
0.021235531 0.13420886 -0.082832314 0.10524573 0.107591696 -0.13483956 -0.0874316 -0.12150251
0.12823261 0.120863 -0.14922878 -0.11932634 -0.018840333 -0.022574903 -0.01535946 0.07648378
0.11800772 0.062254634 0.09653339 0.13145916 0.039083403 -0.14122093 -0.04996518 0.12471576
-0.1073051 0.12680094 0.096258484 -0.02702403 -0.17691907 0.07818833 0.14812374 -0.15928541
0.0044178697 -0.13262336 0.1658203 0.14360361 -0.05743496 -0.069630444 -0.046115085 -0.09527057
0.1384625 -0.13272119 -0.02954608 0.104935706 -0.088625774 -0.09803762 -0.021222105 -0.1351505
-0.099037915 0.17338821 -0.037964653 0.054287594 -0.14961071 -0.102166034 -0.17761314 -0.17801301
-0.077054285 0.10137321 0.06631573 0.049322266 -0.15860106 -0.116129 0.020864977 -0.084775366
-0.037183512 0.0056646415 0.096991286 -0.11163788 0.035053123 -0.08291107 0.030054577 -0.056398872
-0.05910407 -0.0624752 -0.10854099 0.010648169 -0.1192769 -0.11608255 -0.051702872 0.10299423
-0.11068769 -0.16994658 -0.05045936 0.011806537 0.13263556 0.0070754862 0.09975708 -0.123483494
0.011266185 0.048959468 -0.060266193 0.07275882 -0.015224491 -0.09187391 -0.020818725 -0.013574569
-0.005179336 0.08410206 -0.0454077 0.028163616 -0.07408534 -0.027668707 -0.13744402 -0.014950971
0.1599686 0.11377462 -0.05115026 0.006719063 -0.0027163941 0.039523788 -0.055569172 -0.122764066
-0.17028616 0.088220745 0.15230924 0.05941224 0.036683705 0.14381365 -0.08948484 0.041955214
-0.06933453 -0.09187004 -0.1367165 -0.13665089 -0.1766812 0.031051314 0.0071224743 0.1270957
0.060001 0.113231726 -0.025287425 -0.14327726 -0.054312784 -0.13201572 0.056548357 -0.062204897
0.066120155 0.1374288 0.13482955 0.13844822 0.13321051 0.009548023 0.071633585 -0.08611361

recurrent.conv_x_z.Q.bias f4 [32]
00000000: 4a3e 893d 1da6 f83d ecce 3e3e a245 4f3e
00000010: 5925 19be 102d 9e3d f518 2d3d d277 11be
00000020: 5d30 01be deb9 07be bbc0 d03d 2bde e8bd
00000030: 8801 26be a41d 2dbe 2b32 1bbd cff9 f8bd
00000040: 66cf 4a3d ba4b c9bd 18c6 3dbe d370 08bd
00000050: 6bce eebd b788 03be 7ea4 cb3d 43bf bcbb
00000060: f7d2 86bc 426a 9ebd 89ec 7c3d 8f6f aa3d
00000070: a19d fcbd a90d 043e 84f1 ce3c 75c7 18be
0.06701334 0.121410586 0.18633622 0.20241407 -0.14955653 0.07723439 0.04226013 -0.14205864
-0.12616105 -0.13254496 0.101930104 -0.113705 -0.16211522 -0.16905838 -0.03788964 -0.12157022
0.049514197 -0.09828897 -0.18532598 -0.033310723 -0.11660465 -0.12845121 0.09943484 -0.005760105
-0.016458018 -0.07735111 0.061749015 0.08322059 -0.12334753 0.12895836 0.025261648 -0.14919837

recurrent.conv_x_z.K.weight f4 [32, 36]
00000000: 1924 2fbd 940c bfbd 13fd 413d 586c 15be
00000010: 2634 8dbd 3e6c e03a e63f 293e caec 1cbd
00000020: e154 ee3b 20a5 1d3e 9c49 8dbc 6a30 40be
00000030: 5fd2 12be 576b c4bd bc3f 513d 73d8 11be
00000040: 11a1 37be 0621 9e3d 0484 903d a26f 05be
00000050: 1229 05be 6d51 893c 8a79 bcbd 22ae 103d
00000060: f559 6f3d 37fe 4a3c ce07 633d a75b d43d
00000070: 3665 3ebe dd76 fabd 9531 50bd c27f 05be
00000080: 83d1 53bd 66de 183e 1320 263d 2eb4 323d
00000090: 10e0 a73d 7656 f6bd e6c4 153d 2728 073d
000000a0: 2880 8bbd 0421 10bc 6775 d0bd 71b7 89bb
000000b0: ee97 30bd d226 5d3d 9dbb c4bd 622e b8bd
000000c0: 2515 49bc e32e 32be 5301 d9bd 140e aabc
000000d0: ab86 c8bd 3f5b 2a3c 01bf d63d 8909 18be
000000e0: 51cc 88bd 5926 373e c6e7 cd3d 3713 d6bd
000000f0: 9629 f93d 7f4a febd 3e15 0cbd 2d69 ea3c
00000100: 2205 debc b164 8e3d f01d 153e 5c69 d03c
00000110: a054 023d 618c 973d 15a1 323e a8be f73d
00000120: 22a3 bfbd 4ae7 e93b 6c58 f1bd 5591 24be
00000130: 9b1b 1abe 13e5 0d3e 56d7 9c3d 9ed6 bdbd
00000140: d1a9 013e bcef 0cbe a19c 47bc df41 47be
00000150: 80ad f03d 1d23 91bd 900d e63a e0d1 45be
00000160: 8bc2 503d adda 063e 95cf c3bd 4243 ca3d
00000170: a008 b7bd 28c3 66bd 9163 06be 3346 37bd
00000180: 57d9 15bd 8b53 15bd 2c31 bbbd 234b 95bd
00000190: d695 1cbe e117 fabd cfe5 bcbd 17ad dabd
000001a0: ffa5 97bd 16f9 973d 787c a1bd 5534 b6bd
000001b0: f0df a4bd 8b55 f6bd 1778 afbd 8d7e 11be
000001c0: 3a8b 5bbe ed11 213c 34ea 81bd b345 3b3d
000001d0: c2db 3f3d bd88 f03c fc26 06be e3da 123e
000001e0: a596 64bc 63ec 8fbd 0783 58be 873e 63bd
000001f0: 897c c5bd 3ece 8e3d a9da 213c b250 d7bc
00000200: 9bf2 0d3e e22a 143c 246b 1dbd 4d9a 213e
00000210: 9429 06bc 7664 c5bd 8550 38bd 5401 333e
00000220: 0308 cebd 91e8 b7bd 59a9 b9bd a3d5 08be
00000230: 2011 343e 1ec7 663d d920 d43c 57b0 923c
00000240: 24f5 d2bd c711 f43d 40c1 9ebd 2422 353e
00000250: ff18 7bbd bb4e d5bd 0600 4dbe cf86 173e
00000260: c7bb 09be 0611 9fbd e23f 02bd 3107 42bd
00000270: 92ca 8e3c 425d fb3d 8dd7 f93d 4d96 d53d
00000280: 064b 9b3d 9360 2d3e 4438 e3bd 9f00 8b3d
00000290: eb63 e9bd bc54 8fbd e2a2 a13d ab6a ff3d
000002a0: d435 efbc 004c 9ebd 536d 70bc ef57 833d
000002b0: 78e7 4d3e 2ef2 37be 2fde 17be 8f33 283d
000002c0: 9785 3a3e f689 d03a dfc6 6dbd 69a9 1c3e
000002d0: c03c 95bd 4ff9 0dbd 4173 593d a02b e5bc
000002e0: 1778 04be 22b9 9f3d 1489 c5bd aaee a93d
000002f0: 98b8 1dbd 0627 e83c 1bc7 98bd 459f 04be
00000300: bfd0 6f3d 5ed4 87bc 0dc5 d3bd d98c d6bc
00000310: 8a81 04be 8937 293e 09d4 a7bc 121b a53d
00000320: f7e4 2e3e 05ab 8abd 1801 edbd 0688 3fbc
00000330: a7ae 773c f151 02be 5c79 02be 7632 8abd
00000340: 621e 3cbe 1aa4 d93d ac47 07be e432 2f3c
00000350: e22f 64bc e626 3d3e b09e e8bd 2702 f43c
00000360: 164f 1dbe 2739 a73c aa00 2a3e 9f3f e2bd
00000370: a6b2 19bd a53b 18bd c05c 51bb 94cd a53d
00000380: cd99 b93d 14e0 aa3c 6a02 013e 5b8a d33d
00000390: cef2 ce3c 4f50 be3c 78ee 8d3d 8736 aabd
000003a0: 561d bf3d 5d51 c33d eb0e 113e ae95 08be
000003b0: 9be4 b1bd e07f 5e3d 5e1e fdbd fa86 3cbe
000003c0: 86f8 593d f124 f9bd 9722 28bd 49f3 4bbe
000003d0: 76b5 87bd c524 ce3d 04c0 d6bd 2b67 84bd
000003e0: 69fe 393d 4afa c4bd 48b0 36bd 9b65 0ebe
000003f0: e89d df3b 11a2 c73d 1a43 f1bd 1275 1f3e
-0.042759035 -0.09328571 0.04736049 -0.14592111 -0.06894712 0.0017122102 0.16528282 -0.038311757
0.007273302 0.15395021 -0.017247014 -0.18768468 -0.14338063 -0.09590786 0.051086172 -0.14242725
-0.17932536 0.077211425 0.0705643 -0.13030866 -0.13003948 0.01676246 -0.09202869 0.035322316
0.0584354 0.012389711 0.055427365 0.10369044 -0.18593296 -0.122297026 -0.050828535 -0.13037017
-0.051713478 0.14928588 0.040557932 0.043628864 0.081970334 -0.1202821 0.03656473 0.032997277
-0.06811553 -0.008796934 -0.10178643 -0.004202776 -0.04311364 0.0539921 -0.09606097 -0.08993222
-0.012273108 -0.17400698 -0.10595956 -0.020758666 -0.09791311 0.010397731 0.1048565 -0.14847387
-0.06679595 0.17885722 0.10053973 -0.10452884 0.12166135 -0.12416553 -0.034199946 0.028614605
-0.027102057 0.06952799 0.14562201 0.025440864 0.031818986 0.07399822 0.1744426 0.12096912
-0.09357287 0.0071381675 -0.11784443 -0.16071065 -0.15049593 0.13856916 0.076582596 -0.092694506
0.12662436 -0.13763326 -0.012183339 -0.19458722 0.117518425 -0.070867755 0.0017551649 -0.19318342
0.05096678 0.13169356 -0.095610775 0.0987611 -0.08937192 -0.05633846 -0.13123919 -0.04474468
-0.036584225 -0.036456626 -0.09140238 -0.07289722 -0.15291533 -0.12211586 -0.0922352 -0.106775455
-0.07404708 0.07420556 -0.07885069 -0.088967 -0.08050525 -0.12028035 -0.08567827 -0.14208432
-0.2143983 0.009830934 -0.06343499 0.045720767 0.046840437 0.029362077 -0.13100809 0.14341311
-0.013951932 -0.07027509 -0.21143733 -0.055479553 -0.09642894 0.06972931 0.009878793 -0.026283596
0.13862078 0.009043427 -0.038432255 0.15781517 -0.008188624 -0.09638302 -0.044998664 0.17480975
-0.10060122 -0.089799054 -0.090655036 -0.13362746 0.17584658 0.056342237 0.02589457 0.017906351
-0.10300663 0.11917453 -0.07751703 0.17688805 -0.061303135 -0.10415407 -0.2001954 0.14797519
-0.13450538 -0.07766919 -0.031799205 -0.04737014 0.017430577 0.12273647 0.12199316 0.10429058
0.07582669 0.16931371 -0.11094716 0.06787228 -0.11396011 -0.06998584 0.078923956 0.12471517
-0.029200472 -0.077293396 -0.014674502 0.064132564 0.2010783 -0.17963478 -0.1483085 0.041064795
0.18215023 0.0015910256 -0.058050986 0.15299 -0.07286978 -0.034661587 0.05308843 -0.027974904
-0.12936436 0.07798983 -0.09645286 0.08297475 -0.03850612 0.02833892 -0.07459851 -0.12951382
0.058548685 -0.016580757 -0.10340319 -0.026190208 -0.1294004 0.16525091 -0.020486848 0.08061804
0.1707953 -0.06770901 -0.11572474 -0.011690145 0.015117324 -0.1272657 -0.12741607 -0.06747906
-0.18370965 0.10627003 -0.13210934 0.010693286 -0.013927432 0.1847187 -0.11358392 0.029786183
-0.153622 0.020412995 0.16601816 -0.11047291 -0.037523888 -0.037166256 -0.0031946152 0.080958515
0.09062538 0.020858802 0.12598577 0.103291236 0.025262263 0.023231653 0.0693025 -0.083111815
0.09331767 0.09537003 0.14165847 -0.13338348 -0.08686181 0.05432117 -0.12359308 -0.18410864
0.053215526 -0.12165249 -0.041048612 -0.19917025 -0.06626408 0.10065607 -0.10485843 -0.0646499
0.04540864 -0.09618051 -0.04460171 -0.13905947 0.006824244 0.097477086 -0.11780377 0.15572003

recurrent.conv_x_z.K.bias f4 [32]
00000000: 8d48 023e c7e4 07be 17ba 8fbd 6e0e d5bd
00000010: 175b 44bd 9351 0bbd c1a3 f93d 077e e9bc
00000020: cc55 a73d b805 69bc c4a9 503d 2ec1 e33d
00000030: d22d 18bd 05a7 d8bd bee1 103e a6c6 d53d
00000040: b338 aebd 1604 d0bd 2b9b 0b3d b6a8 8a3d
00000050: 7758 c7bd a32c 1c3e bef1 06be 3689 a33d
00000060: e1e6 0c3e 91c0 183e 45c8 c6bd 2a46 b63d
00000070: 9fbc 81bc a288 06be ae30 27bc 4269 8cbd
0.12722988 -0.13270865 -0.07017916 -0.10403143 -0.047938433 -0.034013342 0.12189437 -0.028502477
0.08170661 -0.014222555 0.05094315 0.111208305 -0.037153073 -0.105787314 0.14148614 0.1043828
-0.08506908 -0.10157029 0.034083527 0.0677046 -0.0973367 0.15251403 -0.13178155 0.07985155
0.13759948 0.14917208 -0.09706167 0.089001015 -0.015837012 -0.13138059 -0.010204477 -0.06856014

recurrent.conv_x_z.V.weight f4 [32, 36]
00000000: ab68 c7bd 8599 b8bd 53ec 10bc 5cb1 a6bd
00000010: 5091 d83d aaa0 363e 61d0 143e f653 323e
00000020: d4cb 023e 38a7 e53d 4ec6 dfbc a4fb 0e3d
00000030: 85f0 6b3d 89bf 443e 6892 0f3e 93e6 2abe
00000040: c9d6 03be b5ca 2e3e 9a70 053e 2851 febd
00000050: 4098 e9bc af49 1a3d 1937 9a3d 119a ab3d
00000060: 10a5 ddbd f1d7 f83a 2131 24bd 191c febd
00000070: de66 dcbd e492 b6bd 1e21 193c 2267 c33d
00000080: 56b5 a43d 20b2 b6bd cd04 af3d 1c5f 3fbe
00000090: 3cf5 fdbd f3d5 a9bd bf04 743d eca0 34bd
000000a0: 5561 073c 08da 693c 0bfd 043e f718 e93c
000000b0: 5b19 083e 6e6a d7bd 6fb9 903d 082f db3d
000000c0: bba5 003e f03c 12be 167a d33d 47f2 a2bd
000000d0: 4776 883d 53a6 13be 539b 023e 91fb db3d
000000e0: a787 91bc 9080 b1bb 33ad ac3d ebfc 02be
000000f0: 3e6c 39be d726 b8bc 5428 043e 3782 99bc
00000100: 330f 443e 7bde 06be ddc2 e1bd 24a2 0a3e
00000110: 41d3 bfbd 1d71 fc3d 7409 ecbd d174 c1bd
00000120: 82ff 433d 46cf b2bb daf7 e73d 4811 203e
00000130: 8023 27be 944e 203d 7cb6 133e ae9b ecbc
00000140: 6839 2ebd de51 a4bb a591 ea3d 4347 89bd
00000150: 1f21 dfbd 7630 9dbc 9d47 833c 6026 473d
00000160: 313d bf3d 98ec 2d3d a1e2 c43d 25f7 24be
00000170: 1619 25bd 2888 943d f613 1dbe 2d5a 8c3d
00000180: a624 0c3b 2726 fcbb e669 c23d 9e67 153e
00000190: f130 afbd fe0f 1abe a66f 5e3d 42c6 5fbd
000001a0: 9080 e5ba db1e 093e f394 febd 62bc 69bd
000001b0: 74bb 403d 8c92 853c 2d19 203d 7140 bd3d
000001c0: 195e 473c 3985 0c3e db3e ccbd 0abc 0ebe
000001d0: 3201 b4bc 96b6 12be e791 0bbd 9baa 5abd
000001e0: 2da4 c83d 8069 313e b090 423e 3ea0 833c
000001f0: 2a21 eabd 0f1c eb3c e36e 6e3d f97e 1fbe
00000200: 01b5 36be 556d 003d 9350 963c 1e1d 3b3c
00000210: 88d0 42bd 9708 2e3d c64f f93d e0eb e83d
00000220: 77e1 14bd d8a3 993d dea2 133d 2a97 d6bd
00000230: 4c8f 8abc 3b4f 37be baef 103e 6e6b 873d
00000240: 845a 033e c054 803d 197c 11be e76e adbd
00000250: 03fd deba 8b1e 983d 9f63 12be 3bde c2bd
00000260: 8d68 e23d 0ca7 e0bd ea23 70bd 6299 a53b
00000270: 6f0f e5bd 1da6 083e 992a 163d e1aa 9a3d
00000280: bd74 273d 3757 e6bd 35da 293d d862 7fbd
00000290: 7352 72bd 08c2 4a3d 8cb0 febc 3f5e d3bd
000002a0: 3465 a63c 633b 0ebd edea f1bc 5c69 713d
000002b0: 3f4d 42be 45b5 a3bd 2070 0f3d 6fbc 80bc
000002c0: c112 40be e277 b53d 819d 15bd d559 11bd
000002d0: 8818 813d 1690 c3bd 9b7d c7bd dd98 233e
000002e0: e5b1 e63d a790 743d 0802 c2bd 8e47 cfbd
000002f0: 2396 863d 54e3 b6bc 2013 df3d 662e 96bd
00000300: d381 003e 5139 b23d 5e64 e1bd aeab 22bd
00000310: 2e7e fbbc eda8 bfbd a723 173e d548 723d
00000320: 63ee b5bd 7055 163e f79b 1d3e 839b df3d
00000330: 332a 813c f446 ffbd 65aa 6b3d 19c8 8ebd
00000340: e1e4 1ebe 5ddb adbc 4deb 47bd e361 48bd
00000350: f4e7 66bd b971 c9bc 9f3a 5e3d 3e2a 2c3e
00000360: 089d 38bd 7ec1 8dbc 5c9d 153e 42db a3bd
00000370: 8636 36be fc39 083d a943 58bd 6eea 75bc
00000380: 4c85 543c 9092 c53d 1ad2 243e cbf8 3a3d
00000390: 7ceb 163e ef6c b53d ead4 8cbd edac fabd
000003a0: eb78 8fbd 48e4 2abd 8893 153e 6741 533e
000003b0: cf75 fe3d cfb6 eabd 0503 883d 3f6c ce3d
000003c0: 7b03 ec3d 210b eb3d 3066 443c ea01 34bc
000003d0: 88c8 073e 357d 1f3e 519b 183e 0168 153e
000003e0: 32ec 083e e37f 1e3e 8c2d 963d f75c 1c3e
000003f0: de53 91bd 2073 08bd 49f6 87bd c513 99bd
-0.09736761 -0.090136565 -0.008845407 -0.08139297 0.10574591 0.17834726 0.14532615 0.17414841
0.12773067 0.11213535 -0.027316239 0.034907952 0.057602424 0.1921369 0.14020693 -0.1668952
-0.12874903 0.17069514 0.13031235 -0.12417823 -0.028514981 0.037667926 0.0753004 0.08378995
-0.10822499 0.0018985254 -0.040085915 -0.12407703 -0.10761808 -0.08914736 0.009346275 0.095411554
0.080423996 -0.089206934 0.085458376 -0.18688625 -0.1240029 -0.08292761 0.05957484 -0.04409878
0.008262952 0.014273174 0.12987153 0.028454287 0.13290922 -0.10518347 0.07066619 0.1070233
0.12563221 -0.14281058 0.103260204 -0.07956367 0.066631846 -0.14418916 0.12754564 0.10741342
-0.01776488 -0.005416937 0.08431473 -0.12791793 -0.18107697 -0.022479458 0.12906009 -0.01873885
0.19146423 -0.13170807 -0.11023495 0.13538414 -0.09366465 0.12326262 -0.115252405 -0.09446109
0.047851093 -0.005456838 0.11326571 0.15631592 -0.16322136 0.039137438 0.14425081 -0.028882828
-0.042535216 -0.005014642 0.11453561 -0.06703045 -0.10894989 -0.019188147 0.016025359 0.04862058
0.09337843 0.04246196 0.096135385 -0.16109903 -0.040307127 0.07252532 -0.15339646 0.06853137
0.002138415 -0.007694978 0.09492855 0.14590308 -0.08554257 -0.15045163 0.054305695 -0.054632433
-0.0017509628 0.13390677 -0.124307536 -0.05706442 0.04705377 0.01630523 0.03908651 0.09240807
0.012168431 0.13722695 -0.09972926 -0.13938919 -0.021973226 -0.14327464 -0.03407469 -0.05338536
0.09796939 0.17325401 0.19000506 0.01606762 -0.11432107 0.028699903 0.05821122 -0.1557578
-0.17842485 0.031354267 0.018348968 0.011420516 -0.047562152 0.04248866 0.12173419 0.113731146
-0.036347833 0.07501954 0.036043994 -0.10478051 -0.016914032 -0.17901318 0.14153948 0.066122875
0.12827498 0.06266165 -0.14207496 -0.084684186 -0.0017012659 0.074277006 -0.14295815 -0.09515043
0.11055098 -0.10969362 -0.058628 0.005053685 -0.11184584 0.13344617 0.036661718 0.07552124
0.040882815 -0.11247104 0.041467864 -0.062350124 -0.05916066 0.04950145 -0.031090043 -0.103207104
0.02031193 -0.034724604 -0.029530967 0.05893837 -0.1897478 -0.07993559 0.03501904 -0.015714852
-0.18757154 0.088607565 -0.03652716 -0.03548606 0.06303507 -0.095489666 -0.09740754 0.15976281
0.112643994 0.059708264 -0.09473044 -0.1012107 0.06571605 -0.022325195 0.1089232 -0.073330685
0.12549524 0.087023385 -0.11005472 -0.039714508 -0.030699816 -0.09358392 0.14759694 0.05915149
-0.08883359 0.1468103 0.15391527 0.109183334 0.015767192 -0.12464705 0.057535548 -0.06971759
-0.15516998 -0.021222765 -0.048808385 -0.048921477 -0.05637355 -0.02459036 0.054255124 0.16812989
-0.04507163 -0.017304178 0.14610809 -0.080008045 -0.17794237 0.033258423 -0.0527989 -0.015009506
0.012971234 0.09647095 0.16095772 0.045647424 0.14738268 0.08858668 -0.06876548 -0.12240014
-0.07005485 -0.041721612 0.1460706 0.20630418 0.12424814 -0.11460649 0.06641201 0.1007924
0.11524101 0.11476732 0.011987254 -0.0109867845 0.1326009 0.15575106 0.14902999 0.14590456
0.13371351 0.15478472 0.07332906 0.15269838 -0.070960745 -0.033312917 -0.06638772 -0.07474474

recurrent.conv_x_z.V.bias f4 [32]
00000000: 4e76 dd3d 6e31 153d 4ae4 8ebd bf17 d0bd
00000010: 3773 ecbc 8a50 8abc f5c1 853d e577 92bd
00000020: a6fb c1bc c411 c5bc cc1c 853d d2e6 1d3e
00000030: bdd4 96bd 1229 b3bd 4926 043e 3706 01be
00000040: 158f 043c d219 953d 8efb b6bd edc9 d33d
00000050: c031 4ebd 301a 263e 009a 79bb d417 e1bb
00000060: 3c9c 0fbd a344 85bd 5416 153e 7aa7 f4bd
00000070: 3296 623d 516e 81bd 36a7 c73c 8d6d 91bc
0.108135805 0.036424093 -0.069771364 -0.10160779 -0.028863532 -0.016884107 0.06531135 -0.07151774
-0.023679566 -0.024056323 0.06499633 0.15420082 -0.07364795 -0.08748068 0.1290523 -0.12600027
0.008090754 0.072803155 -0.08934699 0.10341249 -0.050340414 0.16220927 -0.0038086176 -0.0068692956
-0.035061106 -0.06507232 0.14559299 -0.11946006 0.05531902 -0.06319869 0.024371725 -0.017752433

recurrent.conv_x_z.ffn.weight f4 [32, 32]
00000000: 3f55 4f3e 4d61 6bbd 390b 973d e4e5 613d
00000010: 26de b8bd 1b2a 2e3d eddf fa3d 40d3 b2bc
00000020: 1e0b bfbd 54c2 043e be87 aabd bdd7 52be
00000030: 1b33 0b3c d85b 753d 30cd 41be b148 943d
00000040: c8a5 9abd afa7 27be e632 083d 364c 9a3c
00000050: 1078 09be ace6 483d 200f 1f3e 86c1 1abe
00000060: fc99 24be cd25 a0bd e70f ccbd 71f6 283a
00000070: 16b1 e4bc dd4f c4bc 1c4b 9b3c c632 163d
00000080: f909 b53d bae3 283e ad13 1bbe b5b7 bebd
00000090: b3ce c4bc 6387 9cbb 88a4 053e 9d93 4d3e
000000a0: 175c 483d fe7a d93d 027a 72bc 1010 00be
000000b0: 745a c6ba e351 563d 6c43 0abd 3e9a 3c3e
000000c0: b2cd cc3d 0921 04bd 37bf 263e 6649 7fbd
000000d0: 940f 6a3b 426d 0abe 1acc 95bd 330d 36bd
000000e0: 8847 32be a39e 0abe f51a 3abe ed44 16bd
000000f0: 63b0 12bb 79eb 513c ffce 28bd 8d06 bbbd
00000100: b81c a63d 333f fe3c 8b2d b63c e163 fb3c
00000110: 403e 2bbe 6df9 83bd 9f60 033d 9822 473d
00000120: 89c0 00bc fd64 713d 4da7 05bd 9880 3b39
00000130: 000e 34bd 5b77 ed3d 5cd2 943d 3fcf ee3d
00000140: b9ba 2bbd f7fb 2c3e a685 d8bd 4785 2ebe
00000150: 3f55 933d dcdf cdbc 0780 893d 0778 2e3e
00000160: 2e5b f9bd 9f1a 0abe 9f66 4cbe ab24 273d
00000170: d2c3 c73c 388d c93d 2457 91bd ab74 c53d
00000180: 5bbf 093d 42e8 f2bd cbd6 123e fa8b 29be
00000190: ebaf 303c b313 303d 4827 5a3d b7e7 69bd
000001a0: c2b2 16bd a055 b7bd 7f8f 0bbe 6fd2 07be
000001b0: 8d7c afbd f238 b73d eebc dabd 011d 043e
000001c0: 0061 153d 65cd 35be 7dfd 07bd 4146 40bd
000001d0: ee2f ebbd 3775 a03c 9bdf 1c3e 5d15 3fbd
000001e0: 3904 d73d 819d 17be db0c bbbd 9ad0 123e
000001f0: 5be6 1dbe faec 13be feba 0e3e 6906 093e
00000200: 38c1 14be f9a0 57bd f134 313d 136b 32be
00000210: 275c f43d bf72 49be 9687 403d 0665 073e
00000220: 6844 d5bd 4237 2abe 4fe0 a3bc 9e61 23be
00000230: 9ccc 63bd 886e 203e b7d1 e9bc 7d06 553e
00000240: 9b02 0bbe 91d7 0ebe 96ca 0bbd 2610 2ebe
00000250: 2def f23d 57bb 08be 1b54 d63d 23c2 16bd
00000260: f293 82bc 0109 9abd 851f 0ebe 3f7f c4bb
00000270: c982 f03d 5af5 1fbd c724 2f3e 6041 2f3e
00000280: 4267 f03c bf22 283e f713 04be 13e8 883d
00000290: 5f9c b2bd dcaf d7bd 4dff 22be 7b26 f53b
000002a0: 6783 663c b28a 1a3d 865b 073d 56f2 34be
000002b0: 99a4 ad3d 3cb7 13bd 39a8 693d 57d9 233d
000002c0: 11a3 d53d eee9 0c3e e0b8 f1bd 2765 9bbc
000002d0: 3610 d7bc 9360 723d ff04 ca3d 769a a9bd
000002e0: 90b4 d5bd a607 75bc e76b 5bbe 75c5 f9bc
000002f0: dc84 3a3d 4d6d d73d eea1 ee3d 1d5b 893d
00000300: 52b0 df3d 589d efbc e498 c93d d67f b2bd
00000310: 4e27 6a3e 3d24 2bbe be1a f93d 00f8 73bd
00000320: ecbf 893c 0ba6 603e 46ca b63d 564b 40be
00000330: 3b1a 53be a5b9 723e 9855 353e a0f2 163e
00000340: 2a0e 243e 25f7 5bbe 9b21 86bd 8556 3ebe
00000350: d2ac d7bd 1a2d b3bc bce6 18be 45fb 773c
00000360: 7d8c 673c 844e 90bd 873a 2dbe 6270 983d
00000370: 13eb 13be 9fb3 0c3e c5e3 503d c106 86bc
00000380: b415 7c3d abc3 103c b51e d23d c997 cabd
00000390: 2985 5e3c 7124 00be 6f4b 8a3d 6b94 a6bb
000003a0: 8dab b0bd c946 233e c2f1 3d3c 0a5c e4bd
000003b0: 70ad 403e 72ad 0c3e f7bc c8bc 513b 2cbe
000003c0: acbe febc ace5 ae3d 6dce 31bd 26ae 24be
000003d0: f066 c5bd 1647 03be feb7 653d 5fb3 313e
000003e0: da7b dd3d c90d e83d 150b 37be fcbc aa3d
000003f0: 7440 2bbe 372b a0bd 0a7c 19be 8790 04be
0.20247363 -0.05746584 0.073751874 0.05515088 -0.090267465 0.042520624 0.12249742 -0.021829247
-0.09328292 0.12964755 -0.08326672 -0.2059011 0.008496071 0.059902042 -0.18925929 0.07240427
-0.075511515 -0.1637256 0.033251666 0.018835168 -0.13424706 0.04904811 0.15533113 -0.15112886
-0.16074365 -0.0781971 -0.09963971 0.0006445414 -0.027916472 -0.023963863 0.018956713 0.036669515
0.08839793 0.16493121 -0.15144224 -0.09312383 -0.024024343 -0.0047768815 0.13051045 0.20075841
0.04891595 0.10619162 -0.014799597 -0.12506127 -0.0015133158 0.052324187 -0.033755705 0.18418214
0.10000171 -0.032258067 0.1628388 -0.062325858 0.0035714852 -0.13518241 -0.0731432 -0.04444618
-0.174101 -0.13537078 -0.18174346 -0.036686826 -0.0022382967 0.012812489 -0.04121303 -0.09132109
0.081109464 0.031035995 0.022238513 0.030687274 -0.16722965 -0.064440586 0.032074567 0.048616976
-0.007858404 0.0589342 -0.032630254 0.00017881615 -0.043958664 0.11595031 0.07266685 0.11660623
-0.04192612 0.16892992 -0.105723664 -0.17043029 0.07193994 -0.025131159 0.067138724 0.17037974
-0.12175594 -0.13486718 -0.19961022 0.040806454 0.024385367 0.098413885 -0.07096699 0.09641393
0.033629756 -0.11860706 0.1433975 -0.16557303 0.01078413 0.042987537 0.053260118 -0.057105746
-0.03679157 -0.089518785 -0.13628958 -0.13263868 -0.08568678 0.08946408 -0.10680567 0.12901689
0.03646946 -0.17754133 -0.03320073 -0.046942 -0.11483751 0.019587142 0.15319674 -0.046651233
0.10498852 -0.14806177 -0.09133311 0.14337388 -0.15419905 -0.14445868 0.1393852 0.13381352
-0.14526832 -0.05264375 0.04326338 -0.17423658 0.11931639 -0.19672678 0.047004305 0.13222131
-0.10413438 -0.16622642 -0.02000442 -0.15955207 -0.055615053 0.15667164 -0.028542383 0.20803256
-0.13575213 -0.1394942 -0.034128748 -0.16998348 0.118620254 -0.13352714 0.104652606 -0.036806237
-0.015939686 -0.075212486 -0.13879211 -0.005996614 0.11743695 -0.039052345 0.17103873 0.17114782
0.029346112 0.16419505 -0.12898241 0.0668489 -0.08721232 -0.105315894 -0.15917702 0.007481394
0.014069415 0.037729926 0.033046268 -0.17670569 0.0847866 -0.036063418 0.057045195 0.040002193
0.10431493 0.13761112 -0.1180284 -0.018969132 -0.026252847 0.05917413 0.09864234 -0.08281414
-0.1043483 -0.014955437 -0.2142788 -0.030489663 0.04553686 0.10518894 0.116519794 0.067068316
0.10922302 -0.029249832 0.09843615 -0.08715789 0.22866556 -0.16713043 0.12163304 -0.059562683
0.016815148 0.2193834 0.08925299 -0.18778738 -0.20615475 0.2370363 0.17708433 0.14740992
0.16021028 -0.21480997 -0.065493785 -0.18587692 -0.1053101 -0.021872092 -0.14931768 0.015135591
0.014132616 -0.07046226 -0.16916858 0.0744331 -0.14445142 0.13740395 0.050998468 -0.016360642
0.061544135 0.008835713 0.10259763 -0.09892232 0.013581553 -0.12513901 0.06752669 -0.005083611
-0.08626471 0.15944971 0.011593284 -0.111503676 0.18816161 0.13738039 -0.024504168 -0.16819502
-0.031096779 0.085399 -0.043409754 -0.16082057 -0.096387744 -0.12820086 0.05608367 0.17353581
0.108146384 0.11330754 -0.17875321 0.08336827 -0.16723806 -0.078207426 -0.14988723 -0.12945758

recurrent.conv_x_z.ffn.bias f4 [32]
00000000: 80df af3d 2578 22be b5a2 cc3d 319a 0c3e
00000010: 74f4 5cbd 82e5 06be 9c6b 043e 02fb c23d
00000020: cc0e 8dbd c4e0 8bbd ab98 173e aa5e 173e
00000030: 4ad5 c43d 0dc3 b8bc 9f87 133c 8538 ba3c
00000040: 57f0 1cbe 73fa ffbd 7b1e b53d 00e9 1c3e
00000050: f7de 293e 2c08 213e f73d 233e c30b 50be
00000060: 76ac 06be 3e12 1f3e 03e1 e2bd 507b 6c3d
00000070: 66f5 74bd 5516 c83d 1be8 2bbe 6bd7 853b
0.08587551 -0.15866144 0.099919714 0.13730694 -0.053944066 -0.13173488 0.12931675 0.09520532
-0.06887588 -0.0682998 0.14804332 0.14782205 0.09610994 -0.022553945 0.009004503 0.022732029
-0.15326057 -0.12498941 0.08843704 0.15323257 0.1658896 0.15725774 0.15941606 -0.20316987
-0.13151726 0.15534303 -0.11078074 0.057734787 -0.059804343 0.097698845 -0.1678776 0.0040845177

recurrent.conv_x_z.ln.weight f4 [32]
00000000: 0db4 783f 0e89 803f 1e39 813f ac50 813f
00000010: a6c1 843f 4160 853f 010f 823f a30b 803f
00000020: 774c 7f3f 97be 833f bb0a 893f c684 843f
00000030: 1985 863f 966b 863f 0523 813f f6c3 853f
00000040: 50c3 823f 7714 803f 2430 843f 83a0 843f
00000050: 7e9e 813f 48aa 843f 474a 813f dee3 893f
00000060: f9f8 853f 7c61 883f 5969 853f 0ea6 813f
00000070: 5be7 833f 621e 883f bce2 843f 5450 813f
0.97149736 1.0041826 1.0095556 1.0102744 1.0371597 1.0419999 1.0160829 1.0003551
0.9972605 1.0292538 1.07064 1.0353019 1.0509368 1.0501583 1.0088812 1.0450428
1.0215855 1.0006245 1.0327191 1.0361484 1.0126493 1.0364466 1.0100793 1.0772665
1.0466605 1.065475 1.0422775 1.0128801 1.0304979 1.0634272 1.0381694 1.0102639

recurrent.conv_x_r.lambda_q1 f4 [32]
00000000: 185a b9bd 7704 fcbd a2d2 d8bd 8b25 f6bc
00000010: 670d edbd d1cc f03d 4952 bfbb 5d99 18be
00000020: e75a b53c 3a68 26be 5a0b 743d 3745 073e
00000030: f614 8b3b 5f82 bdbb 3a6d 3cbe 3665 f2bd
00000040: e3bc d8bd 3d78 4cbc 1a8d 37be a6f5 4dbd
00000050: 98d3 963d 2d7e a6bd 645b 28be cd9f 1bbe
00000060: f1ba 523d 8da6 05bd 32a9 56bd 44ce 41bd
00000070: 82c8 29bd d2e2 2d3d 52e7 023d 5f7f 0ebe
-0.09050387 -0.12305539 -0.1058705 -0.030047199 -0.11574822 0.11757816 -0.0058386666 -0.14902253
0.022138072 -0.16250697 0.05958114 0.13209997 0.004244442 -0.0057833637 -0.18401042 -0.11835711
-0.10582902 -0.012479839 -0.1792492 -0.050283097 0.07364577 -0.08129535 -0.16441113 -0.15197678
0.051447812 -0.03262954 -0.05240745 -0.04731585 -0.041450985 0.04245264 0.031958885 -0.13915776

recurrent.conv_x_r.lambda_k1 f4 [32]
00000000: fe6f e0bd 2318 b1bd 970b 89bb d33f 013e
00000010: 0720 cd3d 7d3b 323d 442d 3f3d 9832 d5bd
00000020: 3ea0 12bd e14d 07be e207 a0bd 3370 79be
00000030: 5420 fc3b 207f fa3c d5be 203e 2c93 2bbd
00000040: 85b2 e43c 27d4 c43d f4b5 1abd 5536 ec3d
00000050: 3f51 dfbd 2a71 6e3e 17e5 0e3e d7ab 113d
00000060: 251e a33d 3095 da3d 59ce 703d c9b6 b439
00000070: fa3f f6bb 3009 983c 249e 373c a808 743d
-0.10958861 -0.08647182 -0.00418229 0.12622003 0.10015874 0.043513764 0.046674028 -0.104100406
-0.03579735 -0.13213302 -0.078140035 -0.24359207 0.0076942835 0.030578196 0.15697797 -0.0418884
0.027917156 0.09610777 -0.03777118 0.115338005 -0.10904168 0.23285356 0.13954578 0.03556427
0.07964734 0.106729865 0.05879054 0.0003446846 -0.007514951 0.018559068 0.011207137 0.059578568

recurrent.conv_x_r.lambda_q2 f4 [32]
00000000: 771c 6abc 4c13 13be 4f64 043e 5e8d 4c3d
00000010: 47fe a33b 92a5 023d a94a da3c 996c 2c3d
00000020: 4f4b 82bd be69 2ebc 4474 83bc 92cc cabd
00000030: 2bcf 50bd 1cd7 183d d0ba cebc 90ce 8abc
00000040: 0c86 d93c 0022 71bd fd20 c73d fbd6 77bd
00000050: 5cb9 0b3e fe2a 323d 5afe 153e a773 2a3e
00000060: ae53 bbbd 0e7b fd3d 2bfb 88ba 231f ca3d
00000070: 164e 253d 4181 a63d 42ba ae3d b8dc b0bd
-0.014289013 -0.1436283 0.1292889 0.049939506 0.0050046775 0.03189618 0.026646929 0.042095754
-0.0636202 -0.010645328 -0.01604665 -0.099023 -0.05097882 0.03731452 -0.025235564 -0.0169442
0.026553176 -0.058870316 0.09723089 -0.060507756 0.13644928 0.04349803 0.14647809 0.1664568
-0.0914682 0.123769864 -0.001045083 0.0986922 0.04035767 0.08130122 0.085316196 -0.08635849

recurrent.conv_x_r.lambda_k2 f4 [32]
00000000: 638c 073e d705 c13d 2325 db3d 9fe4 703c
00000010: 052d f0bd 5c6d 873d ba7d 14ba 7cfd 80bd
00000020: 1faf 083c 4adc 993d d26a f5bd 7d27 bfbc
00000030: 7b64 56be c84d 153d b4d7 533d 1e21 c2bd
00000040: 3176 3cbd a82f 073d ef6d 1d3d 1771 1cbe
00000050: 75fd 85bc bef7 4b3d a3b4 bb3d ab35 4b3d
00000060: edda 0ebe 389b 3b3e 0c44 4ebb 64f8 dd3d
00000070: a4a2 a2bd 370e 28be b71f b03d e7ef 9b3d
0.13237147 0.09424942 0.10700443 0.014702945 -0.11727337 0.066126555 -0.00056644867 -0.06298348
0.008342533 0.0751272 -0.11983265 -0.02333426 -0.20936768 0.03645113 0.051719382 -0.09478973
-0.046011154 0.033004433 0.03843492 -0.15277515 -0.01635621 0.049796812 0.09165313 0.04961173
-0.13950701 0.1832093 -0.0031473665 0.108383924 -0.079411775 -0.16411673 0.08599799 0.07614117

recurrent.conv_x_r.Q.weight f4 [32, 36]
00000000: 4edc e2bd 11f6 22be a151 af3d e479 ec3d
00000010: 053e b0bc 488c 33bd 79f1 333d 3778 70bd
00000020: e3ba aabd 7a40 263d 1992 56bd 1313 b43d
00000030: cac8 d03d 4d21 1b3e 2aef f5bd d5e7 f03d
00000040: feba 383c 6413 073e f9e4 00be 06c0 df3a
00000050: 14b9 f3bd 2972 b9bc f0c4 babd 1f51 ccbd
00000060: 35d2 943d befa f2bd 3035 cabd 643e e7bc
00000070: 5a18 82bd ec5b 63bd bad6 88bd 0f60 b9bd
00000080: cf6f 83bd fd0d 17bd 883a b53d 0a6a 98bd
00000090: 5382 75bc 7edd cb3a 778e 3a3d 8000 9bbd
000000a0: fdb9 12bd e7f3 24be 963d cfbd b892 d33d
000000b0: a130 bdbc 85bf f83d 77e1 e03c 2e34 20bc
000000c0: 41c6 31bc a58b 113e 4287 12be 9f6f 04be
000000d0: 01af 0b3c 02cb 373d 0a1f 6c3d 09ef 29be
000000e0: 4ac3 21be 2bc9 c0bd 2768 c23d 9a0a 4abb
000000f0: 2120 903d c8e5 ad3d b374 0fbe 546e 583d
00000100: 5943 273d e054 0bbe e0c6 09bd dc4e eebb
00000110: 0568 03be ce4e 8c3b 7e3e 21be 47cd be3c
00000120: f8c4 6ebd edf0 6fbd 39c2 f2bb 4015 033e
00000130: 0aba 1ebe 6e5b 523d 5017 e9bd 916f 02be
00000140: b0f3 2abe 47d8 a63c 3bdc 13bd ea39 093e
00000150: cdaf 26be 3c55 d43d d007 d73d 30a9 91bd
00000160: 312e de3d a9bd 073e bdc7 163d 7e65 133e
00000170: 2f11 893d b752 c43d 3291 c3bd 0f50 443d
00000180: 10ca 01be 9ace fbbd d7fa e13d 8cbb b03d
00000190: 7c4d 2bbe bc41 19be a1a1 4fbd 1f4d 213e
000001a0: 9d80 5dbd ad28 10be 3629 233e dddf 33be
000001b0: 64a9 253e e940 86bd 198e e6bd 6333 38bd
000001c0: 3fc3 92bd 6fc7 35bd 357f 003e 939d d2bd
000001d0: 0f88 813d d6ad 3dbe 0ef8 9c3d 13a7 533e
000001e0: 7dd5 dbbd bf7e aabd 43e4 1c3e 4596 72bd
000001f0: 18a5 a23d 4a8a 893d 4d02 823d 52fa 5abc
00000200: 975e 6f3d a24c 383e 501b 16bc f4df c23c
00000210: c59d 02bd 581c 2a3e 758b a93d 230f 90ba
00000220: c52b be3d ecc6 2bbd fa5c 07bd df13 8ebd
00000230: 55d3 c6bd 1c4f fab9 5509 fbbd ce1b cbbd
00000240: bbb3 97bd 2aa1 5b3a 3360 fd3d 1155 5ebd
00000250: 8ade f0bd 01a6 16be 5576 14bd 1051 e7bd
00000260: 31bc 2ebe 18c7 06be c251 2d3c 6a1f 043e
00000270: c615 94bd 53c3 033d a1c8 d3bd b318 cd3d
00000280: 3ac0 f23d 2ce0 24bd 3dd9 d4bc 7a3f 463d
00000290: 8848 19bd 4932 253e ac3e 093e 241b eb39
000002a0: 4974 61bd 5f26 95bd edb7 ba3d 190b ea3d
000002b0: 2a2a b43d 32cf 993d 3f70 04be 5980 75bc
000002c0: da35 f7bd 4244 afbd e206 e53c 7bd6 e0bd
000002d0: 9990 acbc 4940 bb3d ca77 92bd c5d9 10be
000002e0: 208d adbc 0050 82ba 84ea d0bd f62d 1bbe
000002f0: c96b 5cbd a86a a0bd ce6a 283d a0a8 39be
00000300: 66f9 d53d 22d9 e1bc 89a4 013b 0979 9d3d
00000310: 2242 e13d 4767 6e3d 21c2 db3d 3fa9 59bc
00000320: 0bb6 e73c 4d50 e6bc 627f 8a39 0c38 fc3d
00000330: c4ad b7bd 83c1 01be 3bfd c43c 81dc 82bd
00000340: 77c9 89bd ffcf af3b f360 ab3c 09a8 0cbd
00000350: 6fb0 08be e418 cb3c f7ee d6bd 8705 d63c
00000360: c27a b23c 3e73 b2bd 792d f33d 1c42 94bb
00000370: 93ff 363e 92d1 bc3c 1508 d0bd ca39 383d
00000380: 228f fbba 6f1b 0a3d c6a0 37bc 6a80 1fbe
00000390: ea7d 13be 73ad adbc 81ce acbd d07c b2bc
000003a0: 72f2 2dbe cddc 1ebd e4aa ec3d 299e 133d
000003b0: cb24 4dbe 8fbe 093e a6fe 0e3d d6ba f5bc
000003c0: b6b0 013e b1ad 2d3d 6a93 1e3e 992e 7e3d
000003d0: d5ea 3bbd 7cdb 8d3d c9a6 b9bd 0c0b 553d
000003e0: da71 eabd 42e4 fdbd 6d04 8e3d a66f ea3d
000003f0: 0544 633d c2f9 203d 6685 65bd c7e4 98bd
-0.11077176 -0.1591418 0.08560491 0.11546686 -0.021513948 -0.043834955 0.04393146 -0.058708396
-0.08336427 0.040588833 -0.052385423 0.087927006 0.101945475 0.15149422 -0.120085075 0.117629685
0.011275051 0.1319099 -0.12587346 0.0017070777 -0.11900535 -0.022637444 -0.09119594 -0.0997641
0.07266656 -0.118642315 -0.09873426 -0.028227992 -0.06352301 -0.055507585 -0.06681581 -0.09051525
-0.0641781 -0.036878575 0.088490546 -0.074421 -0.014984685 0.0015553681 0.04554602 -0.07568455
-0.035821903 -0.16108666 -0.101191685 0.10330719 -0.023094477 0.121459045 0.02745126 -0.009778066
-0.01085049 0.14213426 -0.1430941 -0.12933205 0.008525611 0.044871338 0.05764679 -0.16595091
-0.15797153 -0.0941337 0.09492522 -0.0030829073 0.07037378 0.08491093 -0.14009361 0.052839592
0.040835712 -0.13606596 -0.033636928 -0.0072725844 -0.12832649 0.004281855 -0.15746495 0.023291243
-0.058293313 -0.058579374 -0.007408407 0.12801075 -0.15500656 0.051356725 -0.113814 -0.12737872
-0.16694522 0.020366801 -0.0360987 0.13400999 -0.16278 0.1036782 0.10499537 -0.07112348
0.10848654 0.13255943 0.03681158 0.14394185 0.06692731 0.09586089 -0.09549178 0.047927912
-0.12674737 -0.122952655 0.11034172 0.08629522 -0.16728777 -0.14966482 -0.05069125 0.15752076
-0.054077733 -0.14078017 0.1593369 -0.17565866 0.16177899 -0.065553494 -0.11257572 -0.04497088
-0.071661465 -0.044379648 0.12548526 -0.10283961 0.06324779 -0.18523344 0.076645 0.20669203
-0.10734079 -0.08324956 0.1532145 -0.05922534 0.079416454 0.0671583 0.06348095 -0.013365345
0.058439817 0.17997983 -0.009161785 0.02378843 -0.031888742 0.16612375 0.082785524 -0.0010990839
0.09285692 -0.041937754 -0.033047654 -0.06937384 -0.09708277 -0.00047742657 -0.12257639 -0.09917413
-0.07407328 0.00083782023 0.12371864 -0.054280344 -0.11761196 -0.14711763 -0.036245663 -0.11294758
-0.17063977 -0.13161886 0.010578575 0.12902609 -0.072307155 0.032168698 -0.10341001 0.100144766
0.118530706 -0.04025285 -0.025982494 0.04840038 -0.037422687 0.16132464 0.13402814 0.00044842914
-0.05504254 -0.07282709 0.09117112 0.11427898 0.08797105 0.075102225 -0.12933443 -0.014984214
-0.12070818 -0.08557941 0.027957384 -0.10978409 -0.021065043 0.09143121 -0.07151754 -0.14145572
-0.021185458 -0.0009942055 -0.1020098 -0.15154251 -0.05381373 -0.07832843 0.041117482 -0.18130732
0.104479596 -0.027569357 0.0019781908 0.07689101 0.10998942 0.05820396 0.107303865 -0.01328498
0.028285047 -0.028114462 0.0002641632 0.123153776 -0.0896869 -0.12671475 0.024046531 -0.06389714
-0.067278795 0.0053653712 0.020920252 -0.03433994 -0.13348554 0.024792142 -0.10494798 0.026125683
0.021787051 -0.08713387 0.118739076 -0.0045244824 0.17870931 0.02304915 -0.101577915 0.044976987
-0.0019192437 0.03371757 -0.011207765 -0.1557633 -0.14403501 -0.021200871 -0.08437825 -0.02178803
-0.16987017 -0.03878479 0.11556032 0.036039505 -0.20033567 0.13451599 0.03491082 -0.029996317
0.12665066 0.042401973 0.15485922 0.062056158 -0.04587825 0.06926629 -0.09065015 0.05201249
-0.11447497 -0.12397052 0.06934438 0.114470765 0.05548479 0.039300688 -0.05603542 -0.07465511

recurrent.conv_x_r.Q.bias f4 [32]
00000000: 1043 4cbb 542e 5fbd 415c 16bd 274f ce3d
00000010: f45e bbbd 9b9b 09be c425 22be 4640 a03d
00000020: 1970 cb3d 20d5 843d 5429 d9bd a9bc 14be
00000030: 91d5 e2bd 18e9 1c3d 64dd 103b ba52 fa3d
00000040: 0afa d8bc 04ad ae3c f441 8b3d 6d9d d53d
00000050: 9d84 12be e1f7 94bc d787 ba3d 54ac eebd
00000060: 815c af3d 9b2e 8abd e4b6 8fbb 0312 113e
00000070: 2e0a bfbd e5b4 da3d 8d31 2dbd 8fec b3bd
-0.0031167902 -0.05448754 -0.036709074 0.10073691 -0.0914897 -0.13438265 -0.15834719 0.07824759
0.0993349 0.06485963 -0.10603586 -0.14525093 -0.11075891 0.038308233 0.0022104615 0.1222281
-0.026486415 0.021322735 0.06799689 0.10430417 -0.143084 -0.018184604 0.09107941 -0.11653963
0.085625656 -0.067471705 -0.004385816 0.14167027 -0.093281135 0.10679034 -0.042283583 -0.08785354

recurrent.conv_x_r.K.weight f4 [32, 36]
00000000: 0ec1 04be 14da 58bd 0eb1 4abd ac91 8e3c
00000010: 88fd b73d 1a04 f53c a2eb 9ebd 1e88 683d
00000020: 47a0 743c 59e3 1bbd c2b8 0e3e 9da6 96bc
00000030: 6b6c e53c c74e 9abc 54e2 363d 3072 1bbe
00000040: 3a9a 023d e81e cf3c 518e b7bd 0d2a 903d
00000050: 5ffa 063e b7a2 a93d 7303 dbbd f93c 4fbd
00000060: 7f5c f43d 9ac5 01bc d4aa cc3c 2d7d b9bd
00000070: fe0e 44bc 9b83 c23d 5c87 3dbe 2017 193d
00000080: c0d7 1d3e bf26 713d 8c15 d73d 651f cb3c
00000090: 6c97 3abe db71 043e c291 0b3e d095 113e
000000a0: 15c6 1c3e 3437 02be eb0d acbd 7ba9 103e
000000b0: 34b9 3bbd 2756 d53d 7f10 48be 7508 8d3d
000000c0: 57a0 e13d d4ce 123e 04b3 693d 209a 85bd
000000d0: 8a65 cdbd e03d c4bd 91eb 9c3d 5731 d1bc
000000e0: 76e3 19bd d246 9fbc 5d40 dfbd 35cc 87bd
000000f0: 85fb 26be 90ec c6bd abd7 84bd 54a2 053e
00000100: 2eb0 f3bd 1322 193e 564e 9e3d 88e4 a13c
00000110: 8096 e03c e4a3 d5bd c2b8 16be b875 0e3e
00000120: ab17 4ebe da1b 8ebd 156b 26be 7813 b8bc
00000130: 4340 8fbd 961c 413e de50 ea3d 84ff c0bd
00000140: 9de5 3ebe 6b87 0d3e a6ca 77bb 716d c5bd
00000150: abb7 59bd c6c2 c43d 7f44 203e d4a1 2cbe
00000160: ffc6 9f3d 3366 92bd f45a 58bd 8905 d2bd
00000170: df30 0e3b daba 0fbe 846e 1fbe ec8b 81bd
00000180: 20fc 1dbb cfaf 023e f472 583d 89b8 cabd
00000190: a709 823d d14a 1cbe bfbe e13d cd30 f33d
000001a0: 37c6 003e 1719 00be 4469 d3bd 3746 3f3d
000001b0: 10d1 16bd 5c54 493e 7031 263e 94f1 20be
000001c0: aff6 153e 735e 98bc 60f1 edbd aa72 4c3b
000001d0: 9180 f83d c1e6 f9bb 85fc 08bd 5eff 9bbd
000001e0: f620 3ebe 3025 61bb 1d2c 033e b065 a53d
000001f0: d7a5 fb3c 043b 1bbb 5f29 df3c 6bae 0fbe
00000200: d048 bb3c ffbe bfbd d0aa 66bd f52e f93d
00000210: 903a 03bd 3acb a53d 8331 5bbd 27c0 fdbd
00000220: 1cd3 95bd 468e 26bd 9d06 69bd eb04 7b3b
00000230: beaf eb3d e8a8 f93d 72b7 55ba 1b04 2b3d
00000240: 26b6 3ebe 8a24 8e3d 3421 bc3d 9343 20be
00000250: cbb4 a1bc e3c8 e13c 33c6 f5bd 607e 98bd
00000260: 7afe 2ebe ae62 1b3c 144f 34be f75e 293e
00000270: 5d1a 1fbc 7e21 653d 645c 113e b0ec db3d
00000280: b761 ab3d d477 ac3d 8086 debd 9a0c 3fbd
00000290: 163a e3bd d046 cc3d b667 bcbb 9af0 20be
000002a0: 4284 abbb 76cd 9bbc c677 88bd 89a4 8cbd
000002b0: 0dfc f23d 2c67 113e 8a98 3c3b be4d d03d
000002c0: 7e91 2abc 5a21 a1bd 657b 5e3b 58d0 20be
000002d0: fc92 ecbd d6ee 0ebe 55f9 0a3c a8b9 823d
000002e0: e70a 3ebe f86b 82bc 1e22 433c ca37 63bd
000002f0: b64d 263e 2099 193e ae19 1c3e e127 f03d
00000300: c751 f43c caea 01be 9b23 93bd 7f2f 1a3e
00000310: 763c 35be 4c5b a33d f44d 22bd 6e58 2d3e
00000320: 9443 b93c c3c9 8cbd 37eb 9ebd c0ab 0dbd
00000330: 9730 01be 4f6e da3d df41 573d 7c65 afbd
00000340: 7a40 0abe f9a9 a33c 29fe bd3d 8a4a 04be
00000350: abb9 50bd b6f9 f43d 2733 023d 0731 a93d
00000360: 76a9 e33d a010 e0bc 2005 8dbd bace 5a3d
00000370: 05f0 e93d 7a4b 8b3d e6b8 29be dac2 ebbd
00000380: fe35 e1bc 1aa4 55bc 6c3e d1bd fcc7 29be
00000390: ddc6 20bd d389 fe3c a391 cc3d 484a 2a3e
000003a0: 072f 0ebe 2626 343e 9fbd 8f3d f710 5f3d
000003b0: 7601 61bd fbdc b43d 2f1e c1bd 9388 28be
000003c0: 7ad4 e2bd bb45 1c3e 3982 2c3d f18c d23d
000003d0: d781 e4bd 80ec b93c 7770 063e 30f7 2ebd
000003e0: f954 da3d cce4 2f3e 75d7 d4bd 5761 f7bc
000003f0: 3ec5 abbd 6152 223e 8489 933c 0f9c d53d
-0.1296427 -0.05294235 -0.04948526 0.017403446 0.08983904 0.029909182 -0.07759787 0.056770436
0.014930791 -0.038058612 0.13937667 -0.018389994 0.0280058 -0.018836392 0.044649437 -0.15180278
0.031885363 0.025283292 -0.089626916 0.070392706 0.13181446 0.082829885 -0.10694017 -0.050595257
0.11931705 -0.007920647 0.024983801 -0.090570785 -0.011966465 0.09497758 -0.18508667 0.03737557
0.15414333 0.05887484 0.105021566 0.024795244 -0.18221825 0.12934057 0.13629821 0.14217305
0.15309937 -0.12716371 -0.08401092 0.14127152 -0.04583092 0.10416823 -0.19537543 0.06886379
0.110169105 0.14336711 0.05705549 -0.06523538 -0.10029133 -0.09582114 0.07662118 -0.025536222
-0.03757044 -0.01944295 -0.10900948 -0.06630746 -0.16306885 -0.097130895 -0.06486448 0.13050205
-0.11898838 0.14954405 0.07729785 0.019762293 0.027415514 -0.1043165 -0.14718917 0.13912094
-0.20126216 -0.06938906 -0.16251786 -0.02247022 -0.06994679 0.18858561 0.114412054 -0.09423736
-0.18642278 0.13821189 -0.0037809997 -0.09640015 -0.053153675 0.096074626 0.15651129 -0.16858608
0.07801627 -0.07148399 -0.052821115 -0.10254962 0.002169661 -0.14036122 -0.15569502 -0.06325516
-0.0024106577 0.12762378 0.052844003 -0.098984785 0.06349497 -0.15262915 0.1102271 0.118745424
0.12575613 -0.12509571 -0.10322812 0.04669782 -0.03682047 0.19661087 0.16229796 -0.15717155
0.14644884 -0.018599724 -0.11618304 0.0031196275 0.12133897 -0.007626385 -0.033443946 -0.07617067
-0.18567261 -0.003435444 0.12809797 0.08076036 0.030718727 -0.00236863 0.027241407 -0.14031379
0.022861868 -0.093626015 -0.056315243 0.121671595 -0.03203827 0.08095403 -0.053514015 -0.12390166
-0.073156565 -0.040663026 -0.056891073 0.0038302492 0.115081295 0.121904194 -0.00081526407 0.041751962
-0.18624172 0.06940563 0.091860205 -0.15650778 -0.01973953 0.02756161 -0.12000694 -0.07445979
-0.17089263 0.009483976 -0.17608291 0.16540132 -0.009710875 0.055940144 0.141954 0.10738504
0.08368247 0.08421293 -0.108654976 -0.046642877 -0.110950634 0.09974444 -0.005749668 -0.15716782
-0.005234272 -0.01901887 -0.0666347 -0.0686732 0.11864481 0.14199513 0.0028777444 0.10171078
-0.010410665 -0.078676894 0.003394806 -0.15704477 -0.115514725 -0.13958296 0.008482297 0.06383067
-0.18558846 -0.015920624 0.01190999 -0.055473126 0.16240582 0.14999819 0.15244171 0.11726356
0.02982415 -0.12687221 -0.071845256 0.15057181 -0.17698845 0.07976398 -0.039625123 0.16928264
0.022615232 -0.068744205 -0.077597074 -0.03458762 -0.12616192 0.10665571 0.052553054 -0.085642785
-0.13501158 0.01997851 0.09276993 -0.1291906 -0.050958317 0.11961691 0.031787064 0.08261304
0.111163065 -0.027351677 -0.06885743 0.053419806 0.11422733 0.068015054 -0.1657444 -0.11511774
-0.027491566 -0.013039613 -0.10216984 -0.16580194 -0.03925215 0.03107158 0.099887155 0.16629899
-0.13885127 0.17592677 0.07018589 0.05445954 -0.054933034 0.08831211 -0.09429585 -0.16458349
-0.11075683 0.15260975 0.042116378 0.10280789 -0.111575775 0.02269578 0.1312884 -0.042716205
0.106607385 0.17177123 -0.10392658 -0.030197782 -0.0838723 0.15851738 0.018009908 0.104301564

recurrent.conv_x_r.K.bias f4 [32]
00000000: a2cc e23c 79ff 873d 556b 1c3e 33b7 dd3c
00000010: ab52 acbd 1c70 663d f765 be3d 92cb 243d
00000020: 1e1a 9ebd bcfb bbbd 3b1a 1dbd 0ce2 0fbd
00000030: 2e15 a63c 85f2 273e 5be9 b23d f7df ccbc
00000040: 7473 8dbd 0fad 0c3d 5477 1c3e e06c 53bd
00000050: 6b9a 063e 30d2 b93d 6846 f73d dbe2 f7bd
00000060: 2b19 033e 34ad aebd 344c f53d 7a81 24bc
00000070: 0c73 933d 8e1a 013d 9c6e fa3d a921 0b3e
0.027685467 0.066405244 0.15275319 0.027064895 -0.08414205 0.05625926 0.09296792 0.040233202
-0.07719825 -0.09178874 -0.038355093 -0.035127684 0.020273771 0.16401108 0.08735915 -0.025009139
-0.069067866 0.03434473 0.15279895 -0.051617503 0.13144843 0.09073293 0.12073976 -0.12103816
0.1280257 -0.085291296 0.11977425 -0.010040635 0.07199678 0.031519465 0.12228128 0.13587059
