DGRNN_pearsons_local_fixed_attn_best_model.pth (torch, 72514 bytes, 40 tensors)

recurrent.conv_x_z.lambda_q1 f4 [32]
-0.09725029 -0.07688253 0.062253393 0.020848047 -0.14887013 -0.14265092 -0.08879806 -0.1133121
-0.119383015 -0.09698002 -0.043455075 -0.10150223 -0.053001102 -0.01854153 0.12462675 -0.042529274
-0.006486398 -0.044644665 0.04493951 -0.014044291 -0.0072504454 0.07734212 0.16904259 0.15881802
-0.06701418 -0.061514605 0.28807807 -0.10815215 -0.09129407 0.083971225 -0.016639005 -0.02285422
00000000: 292b c7bd 9674 9dbd 6afd 7e3d 86c9 aa3c
00000010: 6971 18be 1513 12be c2db b5bd 2d10 e8bd
00000020: 157f f4bd 769d c6bd f3fd 31bd 67e0 cfbd
00000030: af17 59bd 68e4 97bc 4f3c ff3d 2d33 2ebd
00000040: da8b d4bb 53dd 36bd 7e12 383d 071a 66bc
00000050: 2595 edbb 8c65 9e3d 8019 2d3e 31a1 223e
00000060: bb3e 89bd bdf6 7bbd f87e 933e e07e ddbd
00000070: 63f8 babd 1bf9 ab3d 864e 88bc c638 bbbc

recurrent.conv_x_z.lambda_k1 f4 [32]
0.01905692 -0.07358252 -0.03201995 -0.007429756 -0.05452898 0.042714488 -0.27455053 -0.105929606
0.11855968 0.008424207 -0.03883935 0.009356103 0.084573925 0.037568428 -0.11600564 -0.027308548
0.09481277 -0.16448328 0.054751176 0.01635435 0.11744149 0.3354782 0.07076781 -0.10847521
-0.01257066 -0.0071940417 -0.08312778 0.0042701527 -0.0404897 -0.02716719 -0.00024517774 0.004877917
00000000: 421d 9c3c 6fb2 96bd 5a27 03bd 5075 f3bb
00000010: c859 5fbd 63f5 2e3d e391 8cbe 9ff1 d8bd
00000020: 6bcf f23d af05 0a3c 0316 1fbd 574a 193c
00000030: 1835 ad3d 5ae1 193d 5d94 edbd 2db6 dfbc
00000040: 332d c23d 4e6e 28be c542 603d 8ff9 853c
00000050: 2a85 f03d ccc3 ab3e b7ee 903d 4028 debd
00000060: 2bf5 4dbc ffbb ebbb e63e aabd a3ec 8b3b
00000070: 87d8 25bd ba8d debc 338b 80b9 efd6 9f3b

recurrent.conv_x_z.lambda_q2 f4 [32]
0.04031713 0.058532055 0.036550473 -0.028654156 0.07425323 -0.13803577 -0.17522149 0.09253639
0.10127761 0.1105183 -0.15170686 0.013859679 -0.08752213 0.018374195 0.020535177 -0.02391669
-0.010126366 0.046836764 0.004291796 -0.034161642 -0.00061761565 0.07520202 0.02707152 0.1085868
-0.00595432 0.10114459 -0.12491157 -0.06552438 0.04197255 -0.066254154 -0.026786564 -0.0060809474
00000000: 9323 253d 4fbf 6f3d f3b5 153d 1fbc eabc
00000010: 1412 983d 4059 0dbe 436d 33be b883 bd3d
00000020: a36a cf3d 6b57 e23d 0b59 1bbe b513 633c
00000030: cd3e b3bd 7b85 963c 6339 a83c efec c3bc
00000040: 0fe9 25bc e8d7 3f3d 32a2 8c3b 14ed 0bbd
00000050: 7ce7 21ba 8403 9a3d 18c5 dd3c c262 de3d
00000060: 751c c3bb e524 cf3d a3d1 ffbd a531 86bd
00000070: 69eb 2b3d 42b0 87bd 7f6f dbbc af42 c7bb

recurrent.conv_x_z.lambda_k2 f4 [32]
0.18139069 0.029095381 0.0066940025 -0.01873083 -0.10751071 -0.017858487 -0.06460789 0.042623144
0.06181642 0.09472657 -0.09778821 0.12807547 0.016133761 0.11179521 0.059405953 0.019159444
0.16284563 -0.04184498 0.11134412 -0.07452465 0.15953821 -0.00027464013 0.06854014 0.07050602
-0.07774662 -0.11461196 -0.12433642 0.017198076 0.05331806 0.049879987 -0.104144715 0.18058197
00000000: 7bbe 393e 7059 ee3c 5d59 db3b 6671 99bc
00000010: 932e dcbd f64b 92bc 2451 84bd 9b95 2e3d
00000020: 3733 7d3d 0100 c23d 2f45 c8bd 3726 033e
00000030: f32a 843c e3f4 e43d a853 733d 44f4 9c3c
00000040: 01c1 263e a465 2bbd 6308 e43d 61a0 98bd
00000050: fc5d 233e 93fd 8fb9 c65e 8c3d 7665 903d
00000060: 9f39 9fbd adb9 eabd 18a4 febd fbe2 8c3c
00000070: 0a64 5a3d f54e 4c3d d349 d5bd 7bea 383e

recurrent.conv_x_z.Q.weight f4 [32, 36]
0.024190625 -0.039137565 -0.0736448 0.00023035209 -0.045428973 -0.0006585519 0.092308186 -0.031231403
-0.027155837 -0.018760126 0.10518885 -0.12849645 0.08349788 0.14694516 0.0889202 -0.04825338
-0.09643488 0.022949856 0.002305309 -0.037270747 0.12194308 0.107094824 -0.026432713 -0.04881426
0.09050226 0.097162366 0.06848165 -0.0635794 -0.0109848585 0.072012626 -0.099157095 -0.102315925
-0.121138215 -0.067634284 -0.045753837 0.0063812537 0.04878553 0.113085054 0.02579236 -0.117802784
0.016814848 -0.13153706 0.0074590445 0.15728359 0.09360568 -0.11273565 -0.13692652 0.015513997
-0.09231502 -0.033737563 -0.12815097 -0.06972049 -0.103041336 0.124254964 -0.103997335 -0.0925179
0.05863782 -0.14942583 0.066684864 -0.124016106 -0.063328706 -0.07068825 -0.06503588 -0.1047439
-0.16574043 -0.094944976 -0.047402166 -0.098938845 0.03151747 0.01123496 0.04434987 -0.15138529
-0.095688924 0.054336727 -0.090926394 -0.14162764 0.15991801 -0.02730165 0.0044933558 -0.16439769
0.08333989 -0.050592285 -0.0770129 0.073451005 -0.04136493 0.068192504 -0.12141844 0.13152874
0.047577858 0.060194194 -0.0075691342 0.031243702 0.029289305 0.12612793 -0.11531206 -0.05032321
-0.16241923 -0.09220769 0.14422885 0.1511625 -0.032728553 0.11306977 -0.095662236 -0.13872847
-0.05014847 -0.07869222 0.07070333 -0.063379966 0.056512915 -0.061537743 -0.0027628343 -0.025415381
-0.12901983 0.0530747 0.096035585 -0.16243735 -0.13285904 -0.0008299947 -0.07125032 -0.013934493
-0.022833169 0.11382705 -0.05013899 -0.14582857 -0.0045858426 -0.015885353 0.023208162 0.07128303
0.02181713 0.103377625 0.010168096 -0.088578105 0.14580998 0.057499986 -0.10137306 -0.12230178
-0.15246128 0.08932173 -0.012702823 0.13578877 -0.052682996 0.105224274 0.037936985 0.08090367
0.08054163 0.019508123 0.09545239 -0.119069695 0.012328168 0.02902339 0.04845075 0.060786806
-0.033713244 -0.06601691 -0.1610052 -0.035970986 -0.075901866 0.008102219 -0.10164839 0.049315076
-0.058575094 -0.040625416 0.109478615 0.060041033 -0.03629309 0.116375625 0.12293428 0.15772752
-0.01536721 -0.03217276 -0.15158534 0.13952243 0.13240066 -0.1566389 0.04150478 -0.11327754
-0.1411649 -0.12696755 -0.12172979 -0.045841716 -0.13970637 -0.0026922822 0.14966899 -0.02888624
-0.08944349 -0.037962914 -0.115240894 0.039574206 0.024894476 0.0012120208 0.1545623 -0.14554213
0.04856988 -0.037431657 0.10969695 -0.07000904 -0.06966033 -0.04383111 0.08810562 0.12729256
0.003983776 -0.108734846 -0.12951952 0.16656767 0.123671815 0.012842934 -0.08331442 -0.11200833
-0.056506675 0.006173452 0.0251774 0.06782192 -0.0026229422 0.011298537 0.08488961 0.119089805
0.047864776 0.024484556 -0.0759812 0.16543166 -0.1075214 0.00020353 -0.0018801491 0.05647741
0.09785174 0.060049556 -0.019090733 0.030400813 -0.03585152 0.13966185 -0.0923233 -0.13674822
-0.12389749 0.15995637 -0.07833388 -0.1337906 0.08631893 0.16321379 0.046203673 0.0010415118
0.049937986 -0.11340233 -0.04062798 -0.12078071 0.15013224 -0.031563044 0.1261473 0.050785147
-0.028899014 -0.0141196055 0.037654262 -0.15271929 0.02378734 -0.0073533854 -0.059854828 -0.079939485
00000000: 6b2b c63c b64e 20bd 16d3 96bd ab8a 7139
00000010: bb13 3abd aba2 2cba 130c bd3d 00d9 ffbc
00000020: eb75 debc d6ae 99bc 406d d73d 9394 03be
00000030: f000 ab3d cb78 163e cb1b b63d 56a5 45bd
00000040: a67f c5bd 5601 bc3c ab14 173b 36a9 18bd
00000050: 4bbd f93d 8854 db3d 6b89 d8bc 76f1 47bd
00000060: 4059 b93d 10fd c63d 1b40 8c3d eb35 82bd
00000070: d6f9 33bc 5b7b 933d e012 cbbd 038b d1bd
00000080: 5017 f8bd d883 8abd 6068 3bbd d619 d13b
00000090: 56d3 473d 2399 e73d 804a d33c 9642 f1bd
000000a0: 4bbf 893c a7b1 06be 006b f43b f30e 213e
000000b0: 56b4 bf3d f3e1 e6bd 7736 0cbe 6b2e 7e3c
000000c0: a80f bdbd 6630 0abd 023a 03be 9ec9 8ebd
000000d0: 5607 d3bd 6379 fe3d 8efc d4bd 067a bdbd
000000e0: 362e 703d 1603 19be 1392 883d 28fc fdbd
000000f0: 7bb2 81bd 00c5 90bd 8831 85bd f883 d6bd
00000100: dcb7 29be 8372 c2bd c628 42bd 73a0 cabd
00000110: 7618 013d d612 383c 36a8 353d bf04 1bbe
00000120: 8ef8 c3bd 3090 5e3d 9e37 babd d606 11be
00000130: 8cc1 233e b6a7 dfbc 003d 933b de57 28be
00000140: 1bae aa3d db39 4fbd f0b8 9dbd 7b6d 963d
00000150: 466e 29bd 83a8 8b3d 3baa f8bd 78af 063e
00000160: 00e1 423d 308e 763d 8006 f8bb cbf2 ff3c
00000170: 20f0 ef3c ae27 013e bb28 ecbd b61f 4ebd
00000180: 3a51 26be 63d7 bcbd bab0 133e 58ca 1a3e
00000190: 600e 06bd 2091 e73d 90ea c3bd d60e 0ebe
000001a0: 7b68 4dbd 6329 a1bd e8cc 903d 5bcd 81bd
000001b0: 167a 673d 000f 7cbd ab10 35bb eb33 d0bc
000001c0: c61d 04be db64 593d 4eae c43d fa55 26be
000001d0: 330c 08be 0094 59ba b0eb 91bd 804d 64bc
000001e0: a00c bbbc 281e e93d 8b5e 4dbd 1654 15be
000001f0: d644 96bb 0022 82bc 0b1f be3c d6fc 913d
00000200: d6b9 b23c a6b7 d33d 1698 263c 7068 b5bd
00000210: 364f 153e 1b85 6b3d ae9c cfbd 5b79 fabd
00000220: cf1e 1cbe 50ee b63d 801f 50bc 360c 0b3e
00000230: 20ca 57bd d37f d73d d063 1b3d d3b0 a53d
00000240: 03f3 a43d 80cf 9f3c 8b7c c33d d0da f3bd
00000250: 16fc 493c 76c2 ed3c 4b74 463d 96fb 783d
00000260: e616 0abd e033 87bd 8cde 24be 5056 13bd
00000270: 7072 9bbd 2bbf 043c 082d d0bd 9bfe 493d
00000280: 70ec 6fbd d666 26bd 5336 e03d 96ed 753d
00000290: 10a8 14bd 5856 ee3d f8c4 fb3d 5383 213e
000002a0: c0c6 7bbc 96c7 03bd 3039 1bbe f8de 0e3e
000002b0: 0a94 073e f365 20be eb00 2a3d 0efe e7bd
000002c0: 888d 10be c803 02be 784d f9bd 86c4 3bbd
000002d0: 300f 0fbe 0071 30bb d442 193e d6a2 ecbc
000002e0: 262e b7bd 007f 1bbd 6b03 ecbd 9018 223d
000002f0: 80ef cb3c abdc 9e3a 9445 1e3e ff08 15be
00000300: 36f1 463d f051 19bd cba8 e03d e660 8fbd
00000310: 13aa 8ebd 4088 33bd b870 b43d fb58 023e
00000320: 568a 823b 60b0 debd c4a0 04be b790 2a3e
00000330: a647 fd3d 2b6b 523c c0a0 aabd a064 e5bd
00000340: 8b73 67bd ab4a ca3b d640 ce3c 38e6 8a3d
00000350: abe5 2bbb 801d 393c 9bda ad3d 5be5 f33d
00000360: db0d 443d d693 c83c 089c 9bbd eb66 293e
00000370: 2e34 dcbd ab6a 5539 566f f6ba db54 673d
00000380: 7e66 c83d 86f6 753d 2b64 9cbc 200b f93c
00000390: 0bd9 12bd 8403 0f3e 0014 bdbd ba07 0cbe
000003a0: f8bd fdbd 9acb 233e 836d a0bd 6700 09be
000003b0: fbc7 b03d 8421 273e 1040 3d3d 5683 883a
000003c0: c68b 4c3d 7b3f e8bd 8669 26bd e05b f7bd
000003d0: 44bc 193e 4048 01bd c22c 013e 1604 503d
000003e0: a0bd ecbc eb55 67bc 5b3b 1a3d 7262 1cbe
000003f0: abdd c23c abf4 f0bb 562a 75bd 50b7 a3bd

recurrent.conv_x_z.Q.bias f4 [32]
0.040145755 -0.12662292 0.111129925 0.08399843 0.08176029 -0.11005305 -0.013914744 -0.0658685
-0.1418135 0.059254926 -0.016246876 0.13256648 0.115138315 0.048852306 -0.048455 -0.052007597
0.0526855 -0.08750819 0.04699423 -0.08941927 -0.040420037 0.05762629 0.12629387 -0.025125664
0.1487634 0.036094867 0.14866209 -0.1110044 -0.037928544 -0.0076956353 0.12579155 0.095406435
00000000: e06f 243d 70a9 01be 1698 e33d 5e07 ac3d
00000010: f071 a73d 7e63 e1bd abfa 63bc 10e6 86bd
00000020: 8f37 11be 4bb5 723d 2b18 85bc 82bf 073e
00000030: a3cd eb3d 5b19 483d c078 46bd eb05 55bd
00000040: c0cc 573d 7e37 b3bd 067d 403d 7321 b7bd
00000050: 7b8f 25bd 8b09 6c3d 2e53 013e 56d4 cdbc
00000060: 6f55 183e 36d8 133d e03a 183e 4656 e3bd
00000070: f65a 1bbd ab2b fcbb 80cf 003e 7364 c33d

recurrent.conv_x_z.K.weight f4 [32, 36]
-0.056583524 0.15485184 0.14191914 -0.06352091 0.1405946 0.05554722 -0.06608739 0.1394521
-0.006581843 -0.029359799 -0.046284974 0.077610254 0.08118912 0.06680685 -0.08572446 -0.15031737
-0.15894829 -0.14933011 -0.11054008 -0.13641827 0.036664885 0.15433548 0.018332642 -0.12889451
-0.13629393 0.13512096 -0.076353475 -0.1629229 0.114063405 0.13013363 0.083800375 -0.0043467684
-0.10838716 0.15784727 -0.11386339 -0.15158778 0.059154592 0.03820157 0.07479529 -0.08472439
0.12145209 0.013140003 0.078411326 0.063753426 -0.13273798 0.013997614 0.10769083 -0.12039524
0.09077984 -0.026705503 -0.08217949 0.12749863 0.07131851 0.09701987 -0.03188338 0.054360174
-0.08652215 0.008095086 0.16418841 0.041461788 0.028902492 -0.10836812 0.1124958 0.030412575
-0.16540015 0.15581553 0.08669917 0.07404713 0.01460437 -0.12855165 0.08672923 0.0890856
0.05699585 0.08125371 -0.0039155884 -0.14455587 -0.030172806 0.16066955 0.048399173 -0.05603405
0.039544642 0.09904393 -0.10965818 0.07167127 -0.0034851036 -0.1257467 0.07801364 0.07367246
0.010875722 -0.11328542 -0.10568094 0.10140296 -0.03375119 -0.04152938 0.14585501 -0.014374137
0.0144243445 -0.15667248 -0.0038854878 0.13033591 -0.036349874 0.04392823 -0.1490987 -0.019329747
-0.07428138 0.09208894 -0.0008564989 0.08070334 0.02661274 -0.09450859 0.11324497 0.13560757
0.09609163 0.017962655 -0.05373031 -0.13547157 0.034354985 0.1126654 -0.05195896 -0.0116415825
0.11362338 0.12297245 0.032523952 -0.076195024 -0.020842295 0.07104075 -0.037151 -0.1252254
0.097854435 -0.029402455 0.10610853 -0.012195389 0.078154825 -0.031391025 0.10552786 -0.09413642
0.010907194 -0.06817015 -0.043706857 -0.1472834 0.07420032 0.14035594 -0.079137884 -0.12116778
-0.0409681 -0.046530806 -0.099649355 -0.12052786 -0.014171302 0.05572301 0.1343637 0.022085708
-0.09862393 0.010159871 -0.101739645 -0.14686465 0.10811909 0.1057479 -0.05471921 -0.053238135
0.15727149 0.121809766 0.0031021636 -0.16340028 -0.014330586 -0.112269565 0.053188287 -0.1472427
-0.09542038 0.12098472 0.12675516 0.04125148 -0.033710103 0.107333265 -0.09861438 -0.049556654
-0.068422854 -0.06320624 0.13983321 0.11384177 -0.16510956 0.0387582 -0.1508793 0.11703323
0.14367828 -0.06093546 0.08717029 -0.047721904 -0.11112118 0.0376517 -0.15047479 0.14349173
-0.15417223 -0.06330693 -0.047958456 0.16383803 -0.13589257 0.1548252 0.00027312836 -0.057843685
-0.08747351 0.03824111 -0.07857126 0.047678553 -0.064643465 -0.02550906 0.14038762 0.034449995
0.003453096 -0.11074066 0.04891839 -0.05178591 0.11105728 -0.044385396 -0.03339708 -0.010327399
-0.023403823 0.16661534 0.051285606 0.15476058 0.09832339 0.050382357 0.03404836 0.16608612
-0.06948235 -0.13454148 0.05787335 0.078949355 0.055538476 0.1634842 0.10756056 -0.03416928
-0.094410464 0.0073488355 0.054765843 -0.16589114 0.044079743 -0.021547576 0.14047724 0.11252793
0.06765191 0.14284335 -0.12378447 -0.14781062 0.0073818965 -0.067070805 0.16475707 -0.14429516
0.084766805 -0.049427174 -0.049435537 0.079110384 -0.09966247 -0.15407771 -0.10147868 -0.15661904
00000000: 20c4 67bd 7b91 1e3e 4053 113e 4017 82bd
00000010: 08f8 0f3e 7b85 633d d358 87bd 88cc 0e3e
00000020: 80ac d7bb f683 f0bc 5095 3dbd 20f2 9e3d
00000030: 7b46 a63d 08d2 883d 4e90 afbd ccec 19be
00000040: 57c3 22be fee9 18be d662 e2bd 3bb1 0bbe
00000050: eb2d 163d 1f0a 1e3e 562e 963c ecfc 03be
00000060: a390 0bbe 265d 0a3e 365f 9cbd 43d5 26be
00000070: 139a e93d c041 053e 889f ab3d 566f 8ebb
00000080: 16fa ddbd b7a2 213e 3631 e9bd d439 1bbe
00000090: 164c 723d 4079 1c3d 462e 993d fb83 adbd
000000a0: e0bb f83d 2b49 573c 1e96 a03d 2891 823d
000000b0: 77ec 07be 4056 653c 038d dc3d c891 f6bd
000000c0: c8ea b93d 80c5 dabc b84d a8bd 008f 023e
000000d0: 700f 923d 5bb2 c63d 2698 02bd c6a8 5e3d
000000e0: 8632 b1bd 40a1 043c 0221 283e d6d3 293d
000000f0: ebc4 ec3c 1bf0 ddbd 3364 e63d cb23 f93c
00000100: a85e 29be 1b8e 1f3e 568f b13d 06a6 973d
00000110: 2b47 6f3c 0ba3 03be 189f b13d 8372 b63d
00000120: 7b74 693d 5868 a63d 564e 80bb 7406 14be
00000130: f62c f7bc 8f86 243e 363e 463d f683 65bd
00000140: 90f9 213d 8bd7 ca3d 7894 e0bd 63c8 923d
00000150: 5666 64bb bec3 00be 9ec5 9f3d 96e1 963d
00000160: 1630 323c 3002 e8bd 406f d8bd 5bac cf3d
00000170: b03e 0abd b61a 2abd 045b 153e 8081 6bbc
00000180: 1654 6c3c c06e 20be aba3 7ebb c776 053e
00000190: 9be3 14bd 16ee 333d 54ad 18be 6b59 9ebc
000001a0: d620 98bd 2099 bc3d ab86 60ba cb47 a53d
000001b0: f602 da3c b88d c1bd fbec e73d b6dc 0a3e
000001c0: b0cb c43d 6b26 933c 5014 5cbd 0fb9 0abe
000001d0: d0b7 0c3d 1ebd e63d ebd2 54bd 56bc 3ebc
000001e0: 60b3 e83d fbd8 fb3d d637 053d 230c 9cbd
000001f0: 76bd aabc d07d 913d a62b 18bd 163b 00be
00000200: e867 c83d 6bdd f0bc 6e4f d93d 2bcf 47bc
00000210: a30f a03d e093 00bd fe1e d83d 98ca c0bd
00000220: 16b4 323c cb9c 8bbd f605 33bd 76d1 16be
00000230: 56f6 973d 78b9 0f3e 0b13 a2bd d026 f8bd
00000240: 2bce 27bd 1697 3ebd f614 ccbd 50d7 f6bd
00000250: c02e 68bc d03d 643d a396 093e 16ed b43c
00000260: 58fb c9bd 9675 263c e05c d0bd b063 16be
00000270: 8b6d dd3d 5b92 d83d 4021 60bd 3b10 5abd
00000280: c70b 213e 6677 f93d ab4d 4b3b 6752 27be
00000290: d6ca 6abc 96ed e5bd f6db 593d cac6 16be
000002a0: c36b c3bd d6c6 f73d 1bcc 013e 50f7 283d
000002b0: 9b13 0abd 8bd1 db3d 56f6 c9bd ebfb 4abd
000002c0: 4821 8cbd 4672 81bd 7030 0f3e e025 e93d
000002d0: 7b12 29be ebc0 1e3d 1a80 1abe 1eaf ef3d
000002e0: 6620 133e 7697 79bd 5686 b23d 0b78 43bd
000002f0: 8093 e3bd ab38 1a3d 1016 1abe 7fef 123e
00000300: 53df 1dbe 10a7 81bd 1670 44bd 28c5 273e
00000310: 6c27 0bbe 7f8a 1e3e ab32 8f39 80ed 6cbd
00000320: 5025 b3bd b6a2 1c3d f8e9 a0bd 964a 433d
00000330: cb63 84bd 60f8 d0bc c6c1 0f3e 701b 0d3d
00000340: 564d 623b 00cc e2bd a65e 483d 761d 54bd
00000350: 0072 e33d 76cd 35bd 60cb 08bd 4034 29bc
00000360: 60b9 bfbc 369d 2a3e db10 523d 8f79 1e3e
00000370: c65d c93d bb5d 4e3d 4b76 0b3d 7b12 2a3e
00000380: c34c 8ebd 3ec5 09be 9b0c 6d3d 33b0 a13d
00000390: 507c 633d 6768 273e b648 dc3d 16f5 0bbd
000003a0: 465a c1bd 80ce f03b 2652 603d 5edf 29be
000003b0: f68c 343d 8b84 b0bc 44d9 0f3e 0b75 e63d
000003c0: 168d 8a3d 8745 123e b682 fdbd ab5b 17be
000003d0: d6e3 f13b 6b5c 89bd 14b6 283e 1cc2 13be
000003e0: 389a ad3d 2674 4abd eb7c 4abd a004 a23d
000003f0: d61b ccbd 8cc6 1dbe 0ed4 cfbd be60 20be

recurrent.conv_x_z.K.bias f4 [32]
0.11401135 -0.11370002 -0.10910225 0.031529527 0.056914747 -0.1447358 -0.16234711 -0.11441432
0.07490528 -0.011593084 0.014298618 0.09316077 0.043194037 0.07244103 -0.1629132 0.053649347
-0.15674125 0.06727859 -0.04208412 -0.045984767 -0.037076037 -0.09116703 -0.105018735 0.0752162
-0.08989074 0.0016208291 0.08521353 0.056984067 0.040958248 0.052826326 -0.11805602 -0.06680449
00000000: c87e e93d 8edb e8bd 0071 dfbd 1b25 013d
00000010: 701f 693d 9f35 14be 523e 26be 0e52 eabd
00000020: f067 993d ebf0 3dbc c044 6a3c 13cb be3d
00000030: 3bec 303d f65b 943d b8d2 26be 6bbf 5b3d
00000040: c780 20be 5bc9 893d 6660 2cbd 865a 3cbd
00000050: 0bdd 17bd c8b5 babd 1014 d7bd f30a 9a3d
00000060: a318 b8bd 0072 d43a 6e84 ae3d 2068 693d
00000070: d6c3 273d 6b60 583d 5bc7 f1bd cbd0 88bd

recurrent.conv_x_z.V.weight f4 [32, 36]
0.12198311 -0.12570105 -0.06673791 -0.060351532 -0.11916313 -0.16098239 -0.15129447 0.04056784
-0.097236834 -0.14611994 0.032946497 -0.11997523 0.06588072 0.041090354 -0.07675061 -0.13860834
0.07409135 -0.14686036 -0.10646508 0.16003917 -0.07628777 0.14936146 -0.08678872 0.1294715
0.17893888 -0.042165346 0.07513361 0.047421232 0.14555565 -0.091851935 -0.10628417 -0.0027192691
-0.056240257 0.030737054 -0.089820564 0.0030915926 -0.026396707 0.053776927 0.027458511 -0.058643598
0.015525549 0.027534146 -0.11462363 -0.0148453135 -0.12495994 -0.084639944 0.15589747 0.022948114
-0.018715031 0.16438718 0.09264887 0.019397905 0.10550053 0.0021821545 -0.14994466 -0.112429194
-0.12080943 0.14302774 0.10814287 0.07837184 0.12390755 -0.13665932 0.11917633 0.028990261
0.115986794 -0.02487722 -0.08530538 -0.07357389 0.044724293 -0.095028974 -0.052505903 -0.05378945
-0.17446639 -0.07422157 0.115015715 -0.05171082 -0.034823883 -0.0625631 -0.08991338 0.046932034
-0.16219732 -0.14264247 0.13113357 0.0785931 -0.01606249 -0.043922752 0.1433286 -0.066061586
-0.044548735 -0.15553463 -0.13920157 0.0046906713 0.122581966 0.124937944 0.15918614 -0.15970623
-0.12509482 0.14424163 -0.07271421 0.036416452 -0.10687577 -0.14371361 0.005639011 -0.09223238
-0.079461604 -0.13123891 -0.03247299 -0.17162517 0.11087066 0.0338957 0.12789981 0.14436392
0.07245502 0.1480086 -0.09094856 -0.13709992 0.15615024 -0.09340045 0.12286475 0.15191129
-0.10738869 -0.11749854 -0.119743966 0.121366635 0.049411695 -0.15264057 -0.032444857 0.07971038
0.041656073 -0.048541214 0.061255444 -0.08060109 0.010610767 0.021395108 0.10764019 0.04488152
0.005781122 0.10192467 0.1434941 0.13160063 -0.08136766 0.019974424 -0.041315887 0.019544097
-0.06656688 -0.10727854 -0.08910044 0.12975986 -0.006600478 -0.015077911 -0.06990854 -0.017482061
0.069868654 -0.07546293 0.111672394 -0.051279172 -0.012878156 0.11848509 0.07776094 -0.021202276
-0.11621145 0.011260237 -0.1069349 0.05639635 0.12768771 -0.1391582 0.091043115 -0.011865123
0.06852532 0.045770183 -0.0014645421 0.058807667 -0.12744518 0.06242901 -0.13267508 -0.08323016
-0.043062907 -0.12495944 0.117455974 -0.110910244 -0.018086514 0.038104042 -0.11340037 0.047314733
0.0866126 -0.099216305 -0.10921587 -0.062422317 -0.080065124 -0.14010146 0.020197349 -0.078169264
0.00021887093 0.09573259 -0.1480684 0.11740297 0.16273654 0.036186684 0.10377571 -0.17412068
0.038495038 -0.04535669 -0.058717564 0.15214549 0.09615619 -0.0005197232 0.12647581 -0.07643483
-0.022720871 -0.009985482 -0.01817641 -0.085318424 0.081441805 -0.11243072 0.17849436 -0.07587177
-0.13554488 -0.14838177 0.15401174 0.08449453 0.104373 -0.08887229 0.04237613 0.09871262
0.032628108 -0.12991576 0.041111033 -0.04721709 0.078882515 0.011213248 -0.040543813 -0.027477708
0.15094368 -0.07418872 -0.116550975 0.05543566 -0.04093558 -0.16064209 0.10481187 0.15172523
-0.056737293 -0.1373533 0.046158973 0.13211858 0.0989112 0.121432014 -0.11478212 0.04127925
-0.10308698 -0.10220691 0.13409801 -0.12056231 -0.113690205 0.03743491 -0.021246744 0.1158483
00000000: 48d2 f93d c7b7 00be e3ad 88bd 2b33 77bd
00000010: cd0b f4bd 91d8 24be f0ec 1abe 772a 263d
00000020: 1b24 c7bd 77a0 15be e8f2 063d 93b5 f5bd
00000030: 79ec 863d 5c4e 283d 6c2f 9dbd 58ef 0dbe
00000040: 35bd 973d 9062 16be 5d0a dabd 4fe1 233e
00000050: c33c 9cbd 36f2 183e 49be b1bd 2d94 043e
00000060: c13b 373e 92b5 2cbd a6df 993d c43c 423d
00000070: 8a0c 153e de1c bcbd 84ab d9bd c435 32bb
00000080: 2f5c 66bd 46cc fb3c d8f3 b7bd 519c 4a3b
00000090: e83d d8bc 3245 5c3d acf0 e03c 4534 70bd
000000a0: df5e 7e3c 4a8f e13c cbbf eabd c239 73bc
000000b0: ffea ffbd b557 adbd 96a3 1f3e affd bb3c
000000c0: 4450 99bc 1d55 283e b1be bd3d 5be8 9e3c
000000d0: a910 d83d 7a02 0f3b 188b 19be 4741 e6bd
000000e0: ef6a f7bd dd75 123e 027a dd3d 6a81 a03d
000000f0: 3ec3 fd3d 6cf0 0bbe b812 f43d fc7c ed3c
00000100: 7c8a ed3d 50cb cbbc 96b4 aebd e8ad 96bd
00000110: d230 373d 8d9e c2bd 6e10 57bd 5452 5cbd
00000120: 51a7 32be 7a01 98bd 5c8d eb3d bace 53bd
00000130: 7da3 0ebd 1521 80bd 8224 b8bd ce3b 403d
00000140: 0e17 26be de10 12be e147 063e 6bf5 a03d
00000150: 7c95 83bc 58e8 33bd bcc4 123e 4c4b 87bd
00000160: bc78 36bd 7844 1fbe db8a 0ebe 34b4 993b
00000170: 410c fb3d 77df ff3d b101 233e 088a 23be
00000180: db18 00be 14b4 133e 30eb 94bd 6b29 153d
00000190: afe1 dabd a929 13be 74c7 b83b 54e4 bcbd
000001a0: c4bc a2bd 7e63 06be 6602 05bd 82be 2fbe
000001b0: 2810 e33d 38d6 0a3d 2bf8 023e 23d4 133e
000001c0: 4c63 943d 918f 173e 3d43 babd ec63 0cbe
000001d0: d9e5 1f3e bc48 bfbd 84a0 fb3d a28e 1b3e
000001e0: 9aee dbbd 13a3 f0bd 533c f5bd 128f f83d
000001f0: eb63 4a3d cf4d 1cbe e6e4 04bd 323f a33d
00000200: 8f9f 2a3d 27d3 46bd fde6 7a3d 2f12 a5bd
00000210: c8d8 2d3c cb44 af3c 7672 dc3d afd5 373d
00000220: 916f bd3b e2bd d03d 1ef0 123e 51c2 063e
00000230: 16a4 a6bd 67a1 a33c d93a 29bd f11a a03c
00000240: 3754 88bd dab4 dbbd 4b7a b6bd c5df 043e
00000250: d348 d8bb 5809 77bc 352c 8fbd 8a36 8fbc
00000260: 4c17 8f3d 4f8c 9abd 7fb4 e43d 1c0a 52bd
00000270: e7fe 52bc 50a8 f23d 2141 9f3d 65b0 adbc
00000280: 4500 eebd db7c 383c af00 dbbd dcff 663d
00000290: 91c0 023e 7d7f 0ebe d074 ba3d ef65 42bc
000002a0: 0157 8c3d 8479 3b3d e1f5 bfba 4fe0 703d
000002b0: fd80 02be 90b5 7f3d fadb 07be 9374 aabd
000002c0: bb62 30bd bcea ffbd c28c f03d e924 e3bd
000002d0: 2b2a 94bc fc12 1c3d 743e e8bd 18cd 413d
000002e0: f261 b13d eb31 cbbd 92ac dfbd 8bae 7fbd
000002f0: 2ff9 a3bd c276 0fbe e974 a53c 3517 a0bd
00000300: b880 6539 730f c43d 3e9f 17be f870 f03d
00000310: 68a4 263e 7d38 143d 5c88 d43d b14c 32be
00000320: f9ac 1d3d f0c7 39bd d481 70bd 07cc 1b3e
00000330: 89ed c43d 093e 08ba e082 013e dd89 9cbd
00000340: 1f21 babc 269a 23bc b2e6 94bc 6dbb aebd
00000350: f6ca a63d 1442 e6bd 3ac7 363e a962 9bbd
00000360: 47cc 0abe 64f1 17be 41b5 1d3e 780b ad3d
00000370: 83c1 d53d ad02 b6bd 9892 2d3d d829 ca3d
00000380: 0da5 053d a308 05be 0b64 283d b566 41bd
00000390: 288d a13d c5b7 373c 4511 26bd ee18 e1bc
000003a0: fb90 1a3e 41f0 97bd 47b2 eebd 8110 633d
000003b0: 11ac 27bd 5c7f 24be 9ba7 d63d dc5d 1b3e
000003c0: 5d65 68bd 58a6 0cbe 3111 3d3d 184a 073e
000003d0: f591 ca3d 59b1 f83d e312 ebbd 6e14 293d
000003e0: 441f d3bd db51 d1bd fd50 093e 5fe9 f6bd
000003f0: 69d6 e8bd 5955 193d a70d aebc e041 ed3d

recurrent.conv_x_z.V.bias f4 [32]
0.073271886 -0.13525876 -0.0049636792 -0.0805915 0.04966967 -0.009155721 -0.11795201 0.15521976
-0.038270578 0.00440527 0.068303265 -0.1141717 -0.12640923 0.13809839 -0.055896934 0.062262405
-0.09934646 0.108667254 -0.15812463 -0.10515129 0.12581104 -0.096151575 0.08608429 0.11653356
-0.0400844 -0.1424625 -0.12161121 -0.0060402947 0.0066714566 0.11989157 -0.02035951 0.058978416
00000000: 920f 963d 4681 0abe 5ca6 a2bb 280d a5bd
00000010: 6d72 4b3d e101 16bc d390 f1bd eef1 1e3e
00000020: 9cc1 1cbd 155a 903b 95e2 8b3d dad2 e9bd
00000030: 6c71 01be aa69 0d3e 2ff4 64bd dd06 7f3d
00000040: 2876 cbbd f08c de3d 6ceb 21be 8f59 d7bd
00000050: 9cd4 003e 1eeb c4bd f64c b03d 26a9 ee3d
00000060: 8a2f 24bd b1e1 11be 4c0f f9bd aaed c5bb
00000070: 3c9c da3b b689 f53d fdc8 a6bc 5a93 713d

recurrent.conv_x_z.ffn.weight f4 [32, 32]
-0.015759617 0.12778233 0.101066455 -0.09051028 0.17427464 -0.008843552 -0.13287672 -0.003104852
0.04056922 0.1656272 0.16028467 0.12770519 0.14711851 -0.065216266 0.1570799 0.058392663
-0.07935012 0.021651696 -0.06683448 0.1509119 -0.11045026 0.14075151 -0.028402675 -0.16577116
0.12109417 -0.1143143 0.09745492 -0.16547795 0.14617509 -0.034523025 0.02690485 -0.15047213
-0.09380372 0.10118251 0.0675439 0.12892954 -0.10209342 -0.09464158 -0.16058192 0.06115112
0.08901768 0.007957864 0.14043684 0.125233 -0.0478848 0.13757549 -0.18068525 -0.05877573
0.061323043 -0.032119486 -0.15996177 0.036954675 0.057515893 -0.12790427 0.08800107 -0.003426807
-0.1118928 0.02673892 -0.0014115231 -0.057429865 -0.14184257 0.043841656 0.0161353 -0.13708486
0.07529098 0.08482844 0.014766876 -0.0365103 0.17445882 -0.13384254 -0.03961988 0.10106095
0.13141358 -0.11046018 0.12961505 0.09656652 -0.0016375929 0.04045248 0.06398607 -0.1580926
-0.020873979 -0.13004448 0.06291237 -0.12569197 0.12770605 -0.09569497 -0.016089607 0.13666418
-0.06763883 -0.1323019 0.037991684 -0.047421772 -0.11976483 0.1256488 -0.16672763 -0.067161225
0.08868101 0.14874974 -0.027761031 -0.1479347 0.06170766 -0.08190211 -0.1577378 0.055690784
-0.16981313 -0.026648566 0.09730693 0.0012564014 0.11160566 0.02286934 0.07535379 0.12280727
-0.028569141 -0.09231234 -0.039643057 -0.07962304 -0.051306035 -0.15181896 -0.12681143 -0.10930556
-0.11445815 0.056710213 0.080704816 -0.04243884 -0.103517 0.076585054 0.10109813 -0.05410451
0.05262171 0.11996529 -0.13451745 0.06200551 0.027717669 0.13228443 -0.0039878064 -0.09954588
0.029903792 -0.01564393 0.107026875 0.16442747 0.14977068 0.08447907 -0.11377404 0.14578296
0.04964208 -0.047117364 -0.042673822 0.0055919476 -0.045123924 -0.027788078 0.026230417 0.1337149
0.1517161 -0.029067062 0.11782676 0.11391103 0.08528388 0.08733586 0.03863247 0.03424892
-0.15962777 -0.1263079 -0.16878472 0.10640807 0.16294926 0.15227106 0.021200735 0.15686926
-0.046163164 -0.16770463 -0.01978295 0.12202006 0.077706 -0.02742509 -0.06856995 -0.059242234
-0.10848997 0.12297995 -0.076814435 0.13068645 -0.011671952 0.1505427 0.11202804 -0.030308766
-0.17181857 -0.0007131737 0.09058368 -0.15618409 -0.03181663 -0.12016174 0.040094376 -0.17143703
0.051041715 -0.06038382 -0.12911889 0.100400746 -0.06672904 0.067113794 0.14074719 -0.03610408
0.1240588 -0.13202976 0.00024059507 0.101234 0.14044443 0.087227285 0.07206841 0.08580701
0.111326285 0.040075053 0.114953704 -0.12633325 -0.1359578 0.14479238 0.15666993 0.14388895
0.15963726 0.1699381 -0.023046268 0.12012282 -0.07265912 0.009814519 -0.08577957 0.03467165
0.13599062 0.08955006 -0.11771108 -0.1697856 0.12446774 0.0536462 -0.064729005 0.03217452
0.15399267 0.095996395 -0.10736211 0.028358031 0.11006937 -0.14963862 0.16684406 0.02728234
-0.18583299 -0.027056525 -0.019783244 -0.16725256 -0.12676254 -0.12856387 -0.16096891 -0.13149649
0.087637216 0.07056869 -0.06705199 0.14244345 0.067960456 0.14570625 0.0004455159 0.066224724
00000000: 501a 81bc 5fd9 023e eefb ce3d 745d b9bd
00000010: 0d75 323e 8ce4 10bc d610 08be c67a 4bbb
00000020: e92b 263d 2d9a 293e aa21 243e 26c5 023e
00000030: 3ca6 163e 1b90 85bd 8ed9 203e 252d 6f3d
00000040: 5182 a2bd e65e b13c 84e0 88bd a688 1a3e
00000050: bf33 e2bd 2a21 103e baac e8bc eabf 29be
00000060: 3800 f83d 9e1d eabd 7296 c73d 0d73 29be
00000070: ecae 153e 0468 0dbd 8f67 dc3c 5e15 1abe
00000080: 2a1c c0bd c738 cf3d 7554 8a3d 1b06 043e
00000090: 5b16 d1bd 72d3 c1bd 966f 24be 9979 7a3d
000000a0: e74e b63d b361 023c adce 0f3e 143d 003e
000000b0: da22 44bd 97e0 0c3e 8e05 39be d2be 70bd
000000c0: df2d 7b3d b98f 03bd 05cd 23be c95d 173d
000000d0: c995 6b3d 56f9 02be e839 b43d 4894 60bb
000000e0: 0d28 e5bd 940b db3c db02 b9ba 943b 6bbd
000000f0: 2e3f 11be 4f93 333d 2d2e 843c f95f 0cbe
00000100: 2832 9a3d 88ba ad3d c4f0 713c d38b 15bd
00000110: 55a5 323e 050e 09be 7548 22bd 0bf9 ce3d
00000120: 4891 063e f238 e2bd cfb9 043e abc4 c53d
00000130: 80a4 d6ba 80b1 253d 210b 833d 07e3 21be
00000140: e8ff aabc 612a 05be 33d8 803d 65b5 00be
00000150: 60c5 023e b9fb c3bd 5ace 83bc b2f1 0b3e
00000160: 3a86 8abd 267a 07be 2b9d 1b3d 553d 42bd
00000170: 4347 f5bd 14aa 003e a6ba 2abe d38b 89bd
00000180: 649e b53d da51 183e 1a6b e3bc 327c 17be
00000190: 2cc1 7c3d 4bbc a7bd 0586 21be 051c 643d
000001a0: 7ee3 2dbe 184e dabc db48 c73d d6ad a43a
000001b0: 8291 e43d 7b58 bb3c 1653 9a3d 6182 fb3d
000001c0: d509 eabc 410e bdbd c260 22bd 6811 a3bd
000001d0: 4726 52bd 6e76 1bbe dbda 01be 98db dfbd
000001e0: 0969 eabd f848 683d 9148 a53d 59d4 2dbd
000001f0: b900 d4bd a0d8 9c3d 890c cf3d b19c 5dbd
00000200: dd89 573d 5db0 f53d f1be 09be 7df9 7d3d
00000210: 2a10 e33c 9275 073e 25ac 82bb b6de cbbd
00000220: ccf8 f43c b327 80bc e830 db3d ad5f 283e
00000230: 7c5d 193e 5d03 ad3d 5d02 e9bd 2148 153e
00000240: 7e55 4b3d 23fe 40bd bfca 2ebd a83c b73b
00000250: ddd3 38bd d3a3 e3bc 2ce1 d63c 8fec 083e
00000260: 775b 1b3e 0c1e eebc 284f f13d 304a e93d
00000270: 51a9 ae3d 25dd b23d 153d 1e3d 9848 0c3d
00000280: 7675 23be dc56 01be e7d5 2cbe 79ec d93d
00000290: 2cdc 263e f2ec 1b3e 2aad ad3c 56a2 203e
000002a0: 9615 3dbd c3ba 2bbe da0f a2bc a7e5 f93d
000002b0: 5324 9f3d 95aa e0bc 676e 8cbd fca7 72bd
000002c0: fd2f debd e9dc fb3d e350 9dbd abd2 053e
000002d0: b73b 3fbc de27 1a3e f56e e53d 174a f8bc
000002e0: 35f1 2fbe 47f4 3aba f083 b93d b9ee 1fbe
000002f0: 2852 02bd 5c17 f6bd 003a 243d 308d 2fbe
00000300: 1e11 513d 0655 77bd be37 04be e89e cd3d
00000310: 3ca9 88bd f572 893d 0820 103e dfe1 13bd
00000320: 8a12 fe3d cf32 07be 3f48 7c39 c553 cf3d
00000330: aad0 0f3e 38a4 b23d 9a98 933d 96bb af3d
00000340: 09ff e33d bd25 243d d96c eb3d 815d 01be
00000350: 8638 0bbe 7444 143e 156e 203e a057 133e
00000360: f377 233e 4104 2e3e 87cb bcbc f402 f63d
00000370: 4ece 94bd 14cd 203c 33ad afbd dc03 0e3d
00000380: 2041 0b3e 0666 b73d 8212 f1bd 47dc 2dbe
00000390: f1e8 fe3d 1ebc 5b3d a490 84bd 6ec9 033d
000003a0: 41b0 1d3e c299 c43d aae0 dbbd 1a4f e83c
000003b0: 0d6c e13d de3a 19be 2bd9 2a3e 377f df3c
000003c0: 014b 3ebe a5a5 ddbc 7810 a2bc 4144 2bbe
000003d0: 0ace 01be 3fa6 03be 09d5 24be 04a7 06be
000003e0: 247b b33d 5186 903d 8e52 89bd b2dc 113e
000003f0: da2e 8b3d 0534 153e 2294 e939 d4a0 873d

recurrent.conv_x_z.ffn.bias f4 [32]
-0.0675677 -0.02795299 0.059841167 0.013246151 -0.071133636 0.11258555 0.06766108 0.061893836
-0.1263075 0.13504662 0.0031197604 -0.072647475 -0.12655975 0.025004217 0.03423053 -0.12062894
0.06834857 0.061258018 -0.06430529 -0.1625085 -0.10136707 -0.09334274 -0.10007127 0.13294698
-0.12071427 0.064893596 0.1689736 0.150978 -0.06226225 0.019172221 0.030444436 0.1325891
00000000: ef60 8abd abfd e4bc 031c 753d 6206 593c
00000010: 83ae 91bd 4193 e63d e491 8a3d 6484 7d3d
00000020: c156 01be a949 0a3e e574 4c3b 33c8 94bd
00000030: e198 01be a5d5 cc3c 5035 0c3d 4e0c f7bd
00000040: 56fa 8b3d b0e9 7a3d 7eb2 83bd a168 26be
00000050: 8a99 cfbd 7a2a bfbd 2af2 ccbd 4123 083e
00000060: 0b39 f7bd efe6 843d 6a07 2d3e fa99 1a3e
00000070: b306 7fbd 100f 9d3c 9c66 f93c 70c5 073e

recurrent.conv_x_z.ln.weight f4 [32]
1.0043005 1.0133954 1.0096583 0.98155147 0.98879296 1.0216618 1.0111675 1.0033914
0.9978347 1.0004778 1.0103229 1.0103868 0.9921358 1.0010875 0.98734814 1.0016332
1.0110507 0.98918915 0.99742186 0.99169767 0.98626673 1.0100964 1.0088711 0.9953461
1.0083897 0.9936301 1.0096384 0.9865047 0.98722374 0.9976938 0.9814709 0.9930712
00000000: eb8c 803f f1b6 813f 7c3c 813f f546 7b3f
00000010: 8921 7d3f d0c5 823f f06d 813f 216f 803f
00000020: 1872 7f3f a80f 803f 4352 813f 5b54 813f
00000030: 9dfc 7d3f a323 803f d9c2 7c3f 8435 803f
00000040: 1c6a 813f 803b 7d3f 0a57 7f3f e6df 7d3f
00000050: fa7b 7c3f d74a 813f b022 813f 01cf 7e3f
00000060: ea12 813f 8b5e 7e3f d53b 813f 928b 7c3f
00000070: b2ba 7c3f dc68 7f3f ad41 7b3f ea39 7e3f

recurrent.conv_x_r.lambda_q1 f4 [32]
-0.05235603 0.087628245 -0.14919904 -0.12648793 0.06183004 0.105905116 0.097519465 -0.006575064
0.19070318 0.01114627 0.07270058 -0.1268938 0.06452271 -0.14640948 0.1723188 -0.01954857
-0.28601733 0.1958367 -0.025845436 0.019556928 0.072026186 -0.07055241 0.0414848 -0.010557231
-0.1706474 -0.05619037 -0.048387486 0.117722474 -0.060725626 0.05845621 0.13532521 0.078580044
00000000: 4773 56bd 7076 b33d a2c7 18be 0d86 01be
00000010: 7f41 7d3d c8e4 d83d 49b8 c73d a273 d7bb
00000020: b247 433e d89e 363c 0be4 943d 73f0 01be
00000030: 7c24 843d 5eec 15be 5774 303e 5324 a0bc
00000040: dd70 92be 6a89 483e cfb9 d3bc da35 a03c
00000050: 7782 933d c87d 90bd f7eb 293d 3cf8 2cbc
00000060: 31be 2ebe e027 66bd f531 46bd 7b18 f13d
00000070: 6fbb 78bd c76f 6f3d b192 0a3e 93ee a03d

recurrent.conv_x_r.lambda_k1 f4 [32]
-0.26651648 -0.0322255 -0.19006912 -0.008462342 0.22725444 -0.07189298 -0.12437371 0.050365865
0.12607895 0.19617139 -0.052186783 0.073265545 0.019376395 -0.13744736 0.05030463 0.120905496
0.067593925 -0.14657423 -0.03649338 0.058993924 0.0146021815 0.1133616 -0.04798126 -0.1359353
0.048931025 -0.056999054 0.09747289 -0.13940027 0.077262744 0.077301495 0.24509814 0.05454271
00000000: d974 88be e3fe 03bd 7ba1 42be a3a5 0abc
00000010: 63b5 683e a03c 93bd a5b7 febd 704c 4e3d
00000020: d71a 013e 27e1 483e cfc1 55bd 3f0c 963d
00000030: 3fbb 9e3c 00bf 0cbe 3a0c 4e3d 4d9d f73d
00000040: af6e 8a3d 8e17 16be 157a 15bd 9da3 713d
00000050: fd3d 6f3c 202a e83d ff87 44bd a032 0bbe
00000060: e66b 483d d777 69bd de9f c73d f2be 0ebe
00000070: ee3b 9e3d 3f50 9e3d 02fb 7a3e 2d68 5f3d

recurrent.conv_x_r.lambda_q2 f4 [32]
0.17448913 -0.07466754 -0.021360895 -0.038162142 0.07612787 0.069546275 -0.035461914 0.033377618
-0.024496542 0.07109932 0.21239567 -0.17994483 0.027104054 -0.062092718 -0.09171448 0.035884187
-0.04550914 0.07615933 -0.07700216 0.10544951 0.057602584 0.09399477 -0.069109164 -0.039607953
-0.06537438 -0.06957281 -0.15422148 0.014982129 0.045768395 -0.02575939 -0.037739906 0.06351356
00000000: 47ad 323e 4ceb 98bd 0bfd aebc e84f 1cbd
00000010: eee8 9b3d 476e 8e3d 8340 11bd f8b6 083d
00000020: f9ac c8bc 859c 913d 407e 593e 7543 38be
00000030: 5209 de3c ef54 7ebd cdd4 bbbd 4cfb 123d
00000040: cb67 3abd 6cf9 9b3d 4fb3 9dbd eaf5 d73d
00000050: b0f0 6b3d 5480 c03d 1b89 8dbd f33b 22bd
00000060: 01e3 85bd 307c 8ebd 3cec 1dbe 9b77 753c
00000070: a477 3b3d 5b05 d3bc 2995 1abd 6613 823d

recurrent.conv_x_r.lambda_k2 f4 [32]
-0.091130756 -0.11555687 -0.00568733 0.08497547 -0.12047131 0.17355825 -0.11742226 -0.05986948
0.029438814 -0.077185474 -0.04385442 0.010881027 0.12964956 -0.09757968 0.047379505 0.07564205
-0.056179583 0.12927689 0.034266073 -0.09670287 0.04750485 0.071733035 0.025764367 -0.052780576
-0.009129209 0.03986195 0.016714256 0.046909656 0.0521074 0.0489025 -0.028998597 -0.032226946
00000000: c3a2 babd 15a9 ecbd c85c babb 9f07 ae3d
00000010: aab9 f6bd 41b9 313e 157b f0bd b339 75bd
00000020: ab29 f13c 6b13 9ebd b1a0 33bd 5646 323c
00000030: dbc2 043e dbd7 c7bd 0311 423d 38ea 9a3d
00000040: 901c 66bd 2961 043e 955a 0c3d 280c c6bd
00000050: 7294 423d c5e8 923d cb0f d33c 7230 58bd
00000060: ae92 15bc 4946 233d 56ec 883c 5724 403d
00000070: 926e 553d fd4d 483d 778e edbc 6700 04bd

recurrent.conv_x_r.Q.weight f4 [32, 36]
-0.062305134 -0.054413956 0.09121122 0.06609142 -0.08532874 0.071546316 0.013601443 -0.14999321
0.06993707 -0.003563881 0.027115822 0.019706845 0.039493702 -0.11577898 -0.16259035 -0.037337445
-0.1011589 0.12188321 -0.117606126 0.13073036 0.16516796 0.12711398 0.06378323 0.13061011
-0.059990548 -0.10970956 0.11959492 0.08214625 -0.106652796 0.028532585 0.12217885 0.010264656
-0.07414836 -0.09378656 -0.14649558 -0.16557482 0.123493895 -0.0068769455 -0.020574193 -0.1476855
-0.049034975 -0.13673016 -0.08785778 0.053039752 -0.08012086 -0.097666524 -0.15206778 -0.10001707
-0.110107064 -0.014432232 0.16536266 0.16609508 0.015276134 0.15127629 0.08312778 -0.027154267
0.13279895 0.14152627 -0.14891976 0.0594003 -0.13708732 -0.055392563 -0.083001435 0.13223146
-0.11675036 0.024567049 0.15785079 0.11668414 -0.00065455836 -0.02985537 0.04769669 0.043765765
-0.0075435243 -0.054660045 0.076274455 0.1528415 -0.098773085 -0.13613074 -0.14821355 -0.03713272
-0.12895611 -0.09581405 0.07439707 0.084906064 -0.07167324 0.09826102 0.012027144 0.09946718
0.15693705 -0.08594229 -0.11816268 0.033608418 -0.018554967 -0.11124897 0.108358346 0.063022316
0.052342296 -0.1285705 0.08218557 0.011057576 -0.13607681 -0.045668207 -0.1458447 0.016974052
0.12910716 0.12287919 -0.15634409 -0.10447781 0.1550835 0.0065924525 0.11359422 -0.08158555
-0.06414543 -0.14552897 -0.019767404 0.094242394 -0.045763455 0.1097883 0.026375612 -0.05044812
-0.16449097 -0.14203799 0.13020693 0.155657 -0.13346869 -0.10033554 0.02585294 -0.088979505
-0.011456966 -0.008494219 -0.005538305 0.13002746 -0.03538122 0.1112811 0.08033504 -0.005250275
0.104826294 0.09735441 0.11953038 -0.12250911 0.1395314 -0.107744455 0.0040768585 -0.11775434
-0.09287529 -0.15455976 0.03945009 0.04892228 0.13625197 -0.00021898746 0.15365341 -0.1536023
-0.057840407 -0.14740539 0.0979303 0.07784927 -0.044510387 -0.11816768 0.15142027 0.13908474
-0.055214226 -0.094975375 -0.15178338 -0.0330653 0.064025424 -0.15985623 -0.08104055 -0.054579258
-0.102246486 0.017389258 -0.052724265 -0.010580699 0.08737972 -0.0858842 0.035784226 -0.031760834
-0.06782381 -0.052884698 -0.004855275 0.069116734 -0.0059121056 -0.008606374 -0.075358376 -0.14180735
-0.03599606 0.101423845 0.15026128 -0.15987432 -0.12901717 -0.0481206 0.07195681 -0.09873152
0.064360365 -0.083287284 0.052036665 0.1119799 0.096123956 -0.060231984 0.018909931 0.06774008
-0.15788043 0.031769656 -0.16180602 0.05961418 0.11265884 -0.09765357 -0.1628484 -0.08023292
-0.13258353 0.11018088 0.14961313 0.1261166 -0.13930488 -0.1125053 -0.16408959 0.0440647
-0.114433214 0.09584858 0.06551405 0.016310116 0.0388098 -0.00977703 0.028226137 0.08590271
0.1353707 -0.12297706 0.10539099 -0.12222618 -0.10264846 0.08460939 -0.13044214 -0.11744531
-0.095042214 0.07021324 -0.14432359 -0.052428365 0.07665865 0.1651488 0.0032555661 0.03468456
-0.040735286 -0.14264071 0.042230807 0.15947726 -0.13668948 -0.116666935 -0.10965793 -0.12378522
-0.026050529 0.093968116 -0.12951976 -0.020421486 -0.05837109 0.089345716 -0.0747998 -0.10908002
00000000: ab33 7fbd 2be1 5ebd f3cc ba3d f05a 873d
00000010: d6c0 aebd e086 923d 96d8 5e3c d297 19be
00000020: 2b3b 8f3d 0090 69bb 0022 de3c 4070 a13c
00000030: 26c4 213d 881d edbd 167e 26be 26ef 18bd
00000040: 662c cfbd e89d f93d 7bdb f0bd 2ede 053e
00000050: ca21 293e 2b2a 023e c8a0 823d a8be 053e
00000060: a6b8 75bd 68af e0bd 2eee f43d 4b3c a83d
00000070: c86c dabd 2bbd e93c e838 fa3d 162d 283c
00000080: 18db 97bd 2b13 c0bd f002 16be 728c 29be
00000090: 5eea fc3d 0058 e1bb 368b a8bc de3a 17be
000000a0: e6d8 48bd fe02 0cbe c8ee b3bd 3640 593d
000000b0: 6816 a4bd 6305 c8bd a8b7 1bbe c0d5 ccbd
000000c0: d07f e1bd 2b75 6cbc d454 293e d414 2a3e
000000d0: c048 7a3c 2ce8 1a3e e63e aa3d a072 debc
000000e0: 73fc 073e 43ec 103e 6c7e 18be bb4d 733d
000000f0: 9e60 0cbe 50e3 62bd a8fc a9bd af67 073e
00000100: d01a efbd d640 c93c a3a3 213e 18f8 ee3d
00000110: ab96 2bba 4093 f4bc 9b5d 433d bb43 333d
00000120: ab2f f7bb 36e3 5fbd c835 9c3d 7b82 1c3e
00000130: 8b49 cabd db65 0bbe 4bc5 17be 7b18 18bd
00000140: 120d 04be 283a c4bd 7e5d 983d 3be3 ad3d
00000150: 6bc9 92bd 133d c93d 800d 453c 73b5 cb3d
00000160: 1bb4 203e 8302 b0bd 46ff f1bd fba8 093d
00000170: 9600 98bc 80d6 e3bd fbea dd3d d811 813d
00000180: e064 563d fca7 03be e850 a83d d62a 353c
00000190: b857 0bbe 960e 3bbd 5058 15be 2b0d 8b3c
000001a0: ab34 043e 16a8 fb3d aa18 20be 76f8 d5bd
000001b0: 36ce 1e3e 8005 d83b 16a4 e83d 5316 a7bd
000001c0: ae5e 83bd 8c05 15be 40ef a1bc 2802 c13d
000001d0: 7672 3bbd b0d8 e03d ab11 d83c b0a2 4ebd
000001e0: 5270 28be 6872 11be f754 053e 8c64 1f3e
000001f0: 04ac 08be b87c cdbd 8bc9 d33c e33a b6bd
00000200: 00b6 3bbc 562b 0bbc ab7a b5bb eb25 053e
00000210: e6eb 10bd 58e7 e33d b386 a43d 800a acbb
00000220: 2baf d63d c061 c73d 58cc f43d 0ee6 fabd
00000230: 52e1 0e3e 20a9 dcbd 2b97 853b 3029 f1bd
00000240: 6635 bebd ea44 1ebe 6b96 213d bb62 483d
00000250: a385 0b3e 00a0 65b9 5257 1d3e ec49 1dbe
00000260: 10ea 6cbd 70f1 16be ae8f c83d 706f 9f3d
00000270: 8650 36bd e601 f2bd ea0d 1b3e 3b6c 0e3e
00000280: 5028 62bd 7382 c2bd 1a6d 1bbe 7b6f 07bd
00000290: c31f 833d 5ab1 23be 96f8 a5bd 808e 5fbd
000002a0: 9b66 d1bd eb73 8e3c 66f5 57bd ab5a 2dbc
000002b0: 23f4 b23d 0ee4 afbd 7b92 123d a617 02bd
000002c0: 36e7 8abd a09d 58bd 0019 9fbb 138d 8d3d
000002d0: 56ba c1bb c001 0dbc 7e55 9abd f235 11be
000002e0: 9b70 13bd 4eb7 cf3d 18de 193e 18b6 23be
000002f0: 141d 04be 1b1a 45bd 185e 933d c033 cabd
00000300: 5ecf 833d 8692 aabd 6624 553d b855 e53d
00000310: a3dc c43d d0b5 76bd 00e9 9a3c 50bb 8a3d
00000320: 68ab 21be e620 023d 7ab0 25be 002e 743d
00000330: aeb9 e63d 98fe c7bd bbc1 26be 2851 a4bd
00000340: fac3 07be 83a6 e13d 2f34 193e b624 013e
00000350: f0a5 0ebe 2e69 e6bd 1a07 28be 307d 343d
00000360: f65b eabd 434c c43d 3b2c 863d cb9c 853c
00000370: 06f7 1e3d d62f 20bc 803a e73c c3ed af3d
00000380: 9e9e 0a3e 66db fbbd 3bd7 d73d b851 fabd
00000390: 5b39 d2bd b047 ad3d a092 05be 2b87 f0bd
000003a0: 7ea5 c2bd f6cb 8f3d 90c9 13be 20bf 56bd
000003b0: 36ff 9c3d c41c 293e 565b 553b 6611 0e3d
000003c0: 0bda 26bd 6810 12be 36fa 2c3d 024e 233e
000003d0: 54f8 0bbe 13ef eebd 5694 e0bd 1b83 fdbd
000003e0: eb67 d5bc 5b72 c03d d4a0 04be f64a a7bc
000003f0: 8616 6fbd e3fa b63d a330 99bd 5865 dfbd

recurrent.conv_x_r.Q.bias f4 [32]
0.04171143 -0.15195423 -0.0034193597 0.07391244 -0.12602687 0.001293242 0.099491715 0.04393528
0.14709389 0.15357165 -0.06062901 -0.13648611 0.026361903 0.12742615 0.11791285 0.1300703
-0.0056248903 0.13679038 -0.08797014 -0.07941985 -0.13447925 0.13456342 0.10238024 -0.15702973
-0.032969058 0.14439885 -0.09059779 0.04094535 -0.09181589 -0.081008814 -0.1635299 0.1542091
00000000: 9bd9 2a3d e499 1bbe 5617 60bb 685f 973d
00000010: 300d 01be 0082 a93a 50c2 cb3d 7bf5 333d
00000020: c89f 163e e341 1d3e 2056 78bd 04c3 0bbe
00000030: ebf4 d73c 007c 023e 4b7c f13d 2631 053e
00000040: 0051 b8bb c712 0c3e b029 b4bd e0a6 a2bd
00000050: eeb4 09be feca 093e bbac d13d 67cc 20be
00000060: 900a 07bd 4bdd 133e 568b b9bd 50b6 273d
00000070: f809 bcbd f3e7 a5bd 6274 27be fee8 1d3e

recurrent.conv_x_r.K.weight f4 [32, 36]
-0.12891772 0.054661952 0.09084004 -0.13459313 -0.029676259 -0.01438725 -0.06133318 0.043946527
0.04059909 0.02392912 0.058232844 0.08843156 -0.12684816 0.16543828 -0.14437503 0.08489001
-0.048188727 0.02501313 -0.14624923 0.060289603 0.0570155 0.12897846 -0.03153068 0.0667669
0.1378848 0.09716692 -0.12808055 -0.03452482 0.08695911 0.029914102 -0.082172476 0.1128097
-0.035152398 0.113467276 -0.101925254 0.11141203 0.14700536 0.1207762 0.023271322 -0.054609895
0.0311205 0.14073817 -0.024410984 0.001113236 -0.06947039 -0.12771933 0.13555267 -0.15416406
-0.095932685 0.050696433 -0.12173879 0.08580484 -0.08420634 -0.10297696 0.092825815 -0.033348165
0.14238513 0.07959696 -0.08417996 0.1400461 0.04527877 -0.1240839 -0.05139631 0.017554741
-0.16360712 0.14977634 -0.12657395 -0.067554615 -0.024102172 0.13037914 0.023703834 0.08086173
-0.13158111 0.03910343 0.09801984 0.05329172 0.026663443 0.10191359 0.117574856 0.12598512
0.079755686 -0.07998103 -0.16053426 -0.16546766 0.009682298 -0.15976253 0.021925708 -0.06845256
-0.07904345 0.15599905 -0.098437294 0.15709224 -0.16078632 0.00801607 -0.08131027 0.038712423
-0.07861682 -0.12986621 0.10456668 -0.062106848 -0.07601144 -0.045810938 -0.15156165 -0.06816374
-0.064562425 0.08117998 0.103570625 0.0059080524 -0.1406675 0.13561067 0.11784983 -0.012631556
0.0056127906 -0.014368137 0.057488345 -0.16512138 0.16525249 0.019102097 0.12494149 -0.11564326
0.08450999 0.047917448 0.10287168 -0.039818704 0.017817259 -0.05389164 0.13870965 0.014118652
0.021960378 0.11251253 0.06981212 -0.116451286 -0.01147155 0.13442278 0.13106215 0.0027450523
0.06195885 0.087292455 -0.060064852 -0.10933906 -0.015666645 -0.055972617 0.13540426 0.097141564
0.014181396 0.00511841 -0.104243875 -0.06972089 -0.1220279 0.12501512 -0.043584548 0.16141817
0.12703037 0.09051269 0.08134876 0.06752813 0.14409193 0.038918257 -0.07173755 -0.10339763
-0.14114833 -0.1128728 0.05493194 0.10398227 -0.07828395 0.16352516 0.14093342 0.07753861
-6.302198e-05 0.09502898 -0.013616304 0.16215593 -0.13058564 0.14350617 0.13056439 -0.033966742
-0.062251687 0.033337038 -0.15105751 0.15977202 0.16082542 -0.01684193 -0.077980936 -0.11246818
0.13103816 -0.034531556 -0.010492763 0.13838944 -0.14270687 -0.10052991 -0.028436622 -0.014700791
-0.06688182 -0.10679545 -0.116383314 0.0050308704 0.15105145 0.036308527 -0.11422946 -0.12659745
-0.1287232 -0.08580834 0.12406832 -0.1618343 0.13415258 -0.15555422 0.10940997 0.14351937
0.15556431 -0.11563049 0.012328367 -0.04511082 -0.057402693 -0.058698736 -0.105201185 0.14746815
-0.108905576 -0.15516643 -0.009048998 0.15793805 0.11336186 0.06343196 0.102166176 0.14079069
0.100368224 0.12888527 -0.014879882 0.14582035 -0.14036304 -0.13798426 0.09969078 -0.13136786
-0.16568023 -0.011998415 -0.015063624 -0.13217866 0.16249345 0.11449759 -0.0709516 0.023126185
-0.08736309 0.13586901 0.143312 0.015517513 0.06787048 0.10517584 0.05171778 0.153827
-0.017109554 0.15453377 0.020643434 0.046533108 0.0014397502 0.16128914 0.10108771 0.09917524
00000000: 0203 04be 36e5 5f3d 580a ba3d c8d2 09be
00000010: a01b f3bc 80b8 6bbc 8038 7bbd 4601 343d
00000020: 3b4b 263d 0007 c43c 9085 6e3d 9b1b b53d
00000030: 7ce4 01be a768 293e 0cd7 13be d0da ad3d
00000040: 8b61 45bd 56e8 cc3c 5cc2 15be 3bf2 763d
00000050: 1689 693d ee12 043e 5026 01bd 16bd 883d
00000060: ac31 0d3e 73ff c63d 8c27 03be e669 0dbd
00000070: 9e17 b23d 6b0e f53c 0b4a a8bd c608 e73d
00000080: f6fb 0fbd 8861 e83d 30be d0bd fe2b e43d
00000090: 9388 163e 8359 f73d 80a3 be3c a0ae 5fbd
000000a0: 6bf0 fe3c ab1d 103e 8bf9 c7bc 00ea 913a
000000b0: 7e46 8ebd dbc8 02be 52ce 0a3e 2fdd 1dbe
000000c0: 5b78 c4bd 10a7 4f3d 3052 f9bd 73ba af3d
000000d0: 6074 acbd 96e5 d2bd 761b be3d 1698 08bd
000000e0: 68cd 113e bb03 a33d 8b66 acbd 3f68 0f3e
000000f0: 3b76 393d b31f febd f084 52bd f6ce 8f3c
00000100: a088 27be f85e 193e 9a9c 01be 135a 8abd
00000110: eb71 c5bc 1c82 053e 8b2e c23c d69a a53d
00000120: 33bd 06be eb2a 203d a0be c83d 6b48 5a3d
00000130: 4b6d da3c 13b8 d03d 16cb f03d 3e02 013e
00000140: f356 a33d 18cd a3bd 1863 24be 5b70 29be
00000150: 80a2 1e3c ca98 23be 8b9d b33c db30 8cbd
00000160: 88e1 a1bd 37be 1f3e 7e99 c9bd cadc 203e
00000170: 2ba5 24be d655 033c 0086 a6bd eb90 1e3d
00000180: db01 a1bd a6fb 04be 0e27 d63d c063 7ebd
00000190: e3ab 9bbd 40a4 3bbd fa32 1bbe 6e99 8bbd
000001a0: 4e39 84bd b041 a63d d61c d43d 5698 c13b
000001b0: 240b 10be 86dd 0a3e 405b f13d 96f4 4ebc
000001c0: 80eb b73b 5668 6bbc e678 6b3d 9415 29be
000001d0: f337 293e 007c 9c3c 53e1 ff3d 60d6 ecbd
000001e0: 9313 ad3d 1645 443d 63ae d23d f018 23bd
000001f0: 80f5 913c 7bbd 5cbd e709 0e3e eb51 673c
00000200: 40e6 b33c f86c e63d a8f9 8e3d 037e eebd
00000210: 2bf3 3bbc 20a6 093e 2835 063e 56e6 333b
00000220: 90c8 7d3d 63c6 b23d 9006 76bd 28ed dfbd
00000230: 5657 80bc 8b43 65bd 6aa7 0a3e 28f2 c63d
00000240: 1659 683c 56b8 a73b d07d d5bd d3c9 8ebd
00000250: c3e9 f9bd f703 003e b685 32bd ce4a 253e
00000260: 4014 023e b85e b93d 2e9a a63d 304c 8a3d
00000270: d68c 133e c068 1f3d 23eb 92bd 23c2 d3bd
00000280: 3089 10be db29 e7bd 5000 613d a8f4 d43d
00000290: 5653 a0bd 2473 273e da50 103e 90cc 9e3d
000002a0: ab2a 84b8 8e9e c23d eb16 5fbc 340c 263e
000002b0: 3eb8 05be 48f3 123e acb2 053e b620 0bbd
000002c0: a0fb 7ebd 6b8c 083d d2ae 1abe 479b 233e
000002d0: 6baf 243e 16f8 89bc 78b4 9fbd b855 e6bd
000002e0: de2e 063e f670 0dbd d6e9 2bbc f6b5 0d3e
000002f0: c021 12be a0e2 cdbd ebf3 e8bc 96db 70bc
00000300: 56f9 88bd 93b7 dabd 605a eebd 00da a43b
00000310: 3bad 1a3e 40b8 143d 23f1 e9bd c3a2 01be
00000320: 04d0 03be 48bc afbd 8817 fe3d e4b7 25be
00000330: 4b5f 093e 9b49 1fbe 5612 e03d bef6 123e
00000340: 404c 1f3e aecf ecbd ebfc 493c 20c6 38bd
00000350: 161f 6bbd 166e 70bd b873 d7bd e401 173e
00000360: e309 dfbd f3e3 1ebe 4042 14bc 83ba 213e
00000370: 432a e83d 9ee8 813d 803c d13d 6f2b 103e
00000380: db8d cd3d 80fa 033e c0ca 73bc ee51 153e
00000390: 54bb 0fbe bf4b 0dbe ae2a cc3d 4c85 06be
000003a0: 14a8 29be 0095 44bc 6bcd 76bc d859 07be
000003b0: af64 263e b67d ea3d 134f 91bd 2073 bd3c
000003c0: 6beb b2bd 3f21 0b3e 62c0 123e 2b3d 7e3c
000003d0: aeff 8a3d 6e66 d73d 06d6 533d d384 1d3e
000003e0: 5629 8cbc 1a3e 1e3e 6b1c a93c 8099 3e3d
000003f0: 00b6 bc3a fb28 253e 1307 cf3d 631c cb3d

recurrent.conv_x_r.K.bias f4 [32]
-0.13887861 0.023255747 -0.11149441 0.13158034 -0.029180825 0.092346415 -0.1602796 0.09806075
-0.076731846 -0.10284891 -0.07894133 -0.15492243 -0.029594004 -0.12710586 0.078065954 0.012172441
0.11388117 -0.12676983 0.14161597 0.08386707 0.043607138 -0.071650684 -0.1400654 -0.13794343
0.09249487 -0.10183172 -0.07475805 -0.14883074 0.05338657 -0.0427773 -0.057301383 -0.12045169
00000000: 3236 0ebe d682 be3c 2e57 e4bd ffbc 063e
00000010: a00c efbc 1e20 bd3d 5620 24be 13d4 c83d
00000020: 9625 9dbd 73a2 d2bd feab a1bd fca3 1ebe
00000030: 206f f2bc 0a28 02be 0be1 9f3d eb6e 473c
00000040: 883a e93d f3cf 01be c703 113e 80c2 ab3d
00000050: 669d 323d 98bd 92bd 4e6d 0fbe 0b41 0dbe
00000060: f36d bd3d 268d d0bd c01a 99bd 1667 18be
00000070: e0ab 5a3d 4037 2fbd dbb4 6abd 60af f6bd
