DGRNN_mi_global_diff_attn.pth (torch, 33117 bytes, 16 tensors)

recurrent.conv_x_z.lambda_q1 f4 [32]
-0.100083284 -0.06580282 -0.08486616 -0.16333242 0.12502263 0.03142686 0.05189116 -0.027726922
0.06794677 -0.0534027 0.0925642 0.12170201 -0.022381498 -0.18338308 0.10602475 0.072628446
-0.08817099 0.08006243 0.25339857 -0.19630992 0.03505062 0.1749488 -0.055369783 -0.10814503
-0.04602107 -0.085507736 0.08192997 -0.06998672 0.135596 0.001783696 -0.03326454 -0.08825283
00000000: 77f8 ccbd a1c3 86bd 4fce adbd 9d40 27be
00000010: ef05 003e 73b9 003d d38b 543d 9223 e3bc
00000020: ad27 8b3d cabc 5abd 4d92 bd3d e73e f93d
00000030: 6759 b7bc c6c8 3bbe 8123 d93d 39be 943d
00000040: fe92 b4bd c5f7 a33d 75bd 813e 7805 49be
00000050: 3d91 0f3d c725 333e 6dcb 62bd 247b ddbd
00000060: 9780 3cbd ae1e afbd e6ca a73d 3355 8fbd
00000070: aed9 0a3e e8ca e93a 6640 08bd e6bd b4bd

recurrent.conv_x_z.lambda_k1 f4 [32]
0.13887763 -0.15413673 -0.120745204 -0.16863506 0.12109151 -0.070102654 0.19792783 0.14040065
0.18695536 -0.08428054 0.12339937 0.043331914 -0.016011778 -0.15852219 0.2264907 -0.18990684
-0.08948472 0.048065323 0.15598577 -0.05446506 0.198199 0.19642507 0.11819314 0.13632311
-0.030861696 -0.03462853 0.03258128 0.0073988745 0.15115644 -0.09150586 -0.1351558 -0.09849518
00000000: f035 0e3e 05d6 1dbe 4349 f7bd abae 2cbe
00000010: d3fe f73d fb91 8fbd 98ad 4a3e 30c5 0f3e
00000020: 3a71 3f3e 479b acbd cfb8 fc3d ce7c 313d
00000030: 222b 83bc a453 22be 2eed 673e f076 42be
00000040: c443 b7bd 25e0 443d bcba 1f3e c116 5fbd
00000050: aef4 4a3e a723 493e 3f0f f23d 4998 0b3e
00000060: abd1 fcbc a5d6 0dbd f373 053d 4272 f23b
00000070: c1c8 1a3e 6d67 bbbd 4866 0abe d7b7 c9bd

recurrent.conv_x_z.lambda_q2 f4 [32]
-0.16979563 0.086282976 -0.14050865 0.12698603 -0.057812113 -0.2504379 -0.06342659 0.1125352
0.29159024 -0.14841488 -0.070721366 0.1158176 -0.054394618 -0.030748956 -0.11782451 0.057727076
-0.12144787 0.043367352 -0.075494096 -0.16388899 -0.22953 0.14213693 -0.21844552 0.07890295
0.07693874 -0.07601917 0.004596797 0.03687916 0.1814461 0.06806522 -0.018409932 0.17496517
00000000: e8de 2dbe 21b5 b03d 80e1 0fbe a008 023e
00000010: 65cc 6cbd 6539 80be cde5 81bd db78 e63d
00000020: 514b 953e 12fa 17be 5dd6 90bd c731 ed3d
00000030: e4cc 5ebd 3ce5 fbbc fa4d f1bd 3a73 6c3d
00000040: a9b9 f8bd f7a1 313d a69c 9abd 84d2 27be
00000050: ea09 6bbe 588c 113e 2fb0 5fbe df97 a13d
00000060: 0f92 9d3d f0af 9bbd baa0 963b 9a0e 173d
00000070: 02cd 393e c765 8b3d 6dd0 96bc 122a 333e

recurrent.conv_x_z.lambda_k2 f4 [32]
-0.03397625 -0.05163259 0.17994776 0.11978798 -0.033033125 0.08464442 0.15785494 -0.007649892
-0.20058636 0.18704414 0.11514409 -0.06476923 -0.16878253 0.19076961 0.19399229 -0.18944515
0.18560684 -0.14514498 0.028105877 0.10197321 0.22520988 -0.06633745 0.040662512 -0.088714294
-0.07778699 0.02694304 0.038352676 -0.08801365 0.08071479 0.021207426 -0.0017469916 -0.036421895
00000000: ae2a 0bbd b27c 53bd 3a44 383e 6753 f53d
00000010: be4d 07bd 0e5a ad3d baa4 213e f2ab fabb
00000020: 8366 4dbe 8088 3f3e aad0 eb3d bba5 84bd
00000030: 54d5 2cbe 1c59 433e eaa5 463e e9fd 41be
00000040: b80f 3e3e e3a0 14be 4c3e e63c 55d7 d03d
00000050: 6b9d 663e eedb 87bd bc8d 263d d7af b5bd
00000060: c94e 9fbd a6b7 dc3c b217 1d3d 8040 b4bd
00000070: cc4d a53d 32bb ad3c 50fb e4ba 202f 15bd

recurrent.conv_x_z.Q.weight f4 [16, 33]
0.15990946 -0.075509764 0.1386058 0.13525598 0.10095642 -0.083929814 0.16660166 -0.18041329
0.025904547 0.15917 -0.042131357 0.034913216 0.10194269 0.111732095 -0.06264481 0.109941944
0.054065198 -0.11035479 0.066312104 0.052717287 0.07636808 0.016365997 -0.07451106 0.10933064
-0.07596248 -0.105308704 0.03498467 -0.13505161 0.17695877 0.13233134 0.012434069 0.16032085
0.0950801 0.13724914 0.09475163 0.14775458 0.12296909 0.14358115 0.18479398 0.03823444
-0.043190032 0.08318185 -0.0056439373 0.15574947 -0.06708213 0.0038057244 0.14932558 -0.0489078
-0.090253145 -0.0002835244 -0.13257357 -0.042780563 -0.12021607 -0.090634674 -0.0572366 -0.15376495
-0.01950844 -0.09482235 -0.100073405 -0.14200139 -0.16691022 0.112917215 -0.046214506 -0.18790907
-0.008627067 -0.020553345 -0.015796002 0.106884465 0.017503105 0.07595175 0.057744235 -0.064803116
-0.15199026 0.14628522 0.074441984 -0.018010592 -0.06357386 0.17268811 0.1253842 -0.08123449
0.07295246 0.123058714 -0.14218973 0.12757328 0.12500659 -0.10896593 0.048347406 0.02868405
-0.007820951 -0.011254359 0.06554417 -0.18145952 0.011714838 0.04501726 0.036814235 0.087147914
0.09089117 0.10406779 0.080849156 0.05402832 -0.04831919 0.1577514 -0.09884708 0.07692753
-0.08239141 0.15465446 -0.09585804 0.10089693 -0.0005704202 0.10037611 0.10419234 0.19581482
-0.10360717 0.12006234 -0.08853825 -0.06392752 -0.04442763 -0.0516216 -0.13770989 -0.06509966
-0.16283037 0.09953437 -0.055467125 -0.20473531 0.12852146 0.09449467 -0.031053139 -0.09535095
-0.07094212 -0.08646564 0.004495159 0.1319942 -0.053132363 0.06243056 0.13769212 -0.11376967
-0.11375199 0.038669717 -0.18389046 0.108887546 -0.105436414 0.14602424 -0.037431538 0.040455744
0.133178 0.12217883 0.100204065 -0.069795206 0.09191896 0.01683132 0.124172255 0.037595667
-0.072957665 -0.05999972 0.10090289 -0.09840112 -0.054403186 0.05418252 0.11681659 0.096292645
0.057286244 0.077818714 0.14997782 -0.15709023 0.14511974 -0.11408861 0.00398831 0.009227363
-0.13693984 0.093523465 -0.078891195 -0.12526055 0.0003749528 -0.06282662 0.00954792 0.092319794
0.061293248 0.08586021 -0.02244377 0.05802117 0.044032667 0.09960485 -0.014933899 0.025306456
-0.051747303 0.16074006 -0.037217982 0.033000857 -0.1705153 0.13428187 0.078746036 -0.048299674
0.047155537 0.09278943 -0.0134711545 -0.050602682 0.08385648 -0.035387773 -0.11983752 0.14045735
0.04288112 -0.045300115 -0.18851835 0.036511723 0.10173935 -0.033420734 -0.078007855 0.122829415
0.15927044 0.04894942 0.10829289 -0.11428398 -0.14168178 -0.11017769 -0.03301914 0.15871178
-0.09108651 0.09950989 -0.009771787 -0.01982993 -0.099673934 -0.13920198 -0.12951581 0.17499907
-0.13599478 -0.09234372 -0.0917908 -0.0670034 0.04427508 -0.12228695 -0.12440562 -0.004569088
0.037489668 0.14969212 0.05130739 0.0790547 0.089885704 0.17080975 -0.1392669 0.14162806
-0.020812243 0.13253066 -0.014447066 0.007826179 0.16084184 0.0013474947 0.093404196 -0.09276223
0.13678639 -0.005692012 -0.05440255 0.13951832 -0.009740856 0.084450625 -0.0037154944 -0.19874041
00000000: 4ebf 233e dda4 9abd aeee 0d3e 8b80 0a3e
00000010: 3dc2 ce3d 65e3 abbd a099 2a3e 43be 38be
00000020: c635 d43c 76fd 223e ee91 2cbd 2901 0f3d
00000030: 54c7 d03d ccd3 e43d ec4b 80bd 3e29 e13d
00000040: 7873 5d3d b101 e2bd a4ce 873d 15ee 573d
00000050: de66 9c3d fc11 863c 4199 98bd bee8 df3d
00000060: 3792 9bbd 17ac d7bd 164c 0f3d f84a 0abe
00000070: ae34 353e de81 073e 44b8 4b3c 262b 243e
00000080: 5bb9 c23d 0a8b 0c3e 250d c23d fa4c 173e
00000090: 38d7 fb3d f006 133e a23a 3d3e b79b 1c3d
000000a0: 08e8 30bd 3f5b aa3d c7f0 b8bb ca7c 1f3e
000000b0: 5b62 89bd 7669 793b cee8 183e 8c53 48bd
000000c0: a4d6 b8bd 00a6 94b9 5ec1 07be ac3a 2fbd
000000d0: d833 f6bd ac9e b9bd ed70 6abd 8f74 1dbe
000000e0: 2ad0 9fbc 3832 c2bd 49f3 ccbd d068 11be
000000f0: 83ea 2abe 2441 e73d 6c4b 3dbd 3c6b 40be
00000100: 8b58 0dbc 7d5f a8bc 9e66 81bc 3ee6 da3d
00000110: ac62 8f3c 978c 9b3d 3885 6c3d 7fb7 84bd
00000120: 56a3 1bbe cbcb 153e 0a75 983d f38a 93bc
00000130: 0333 82bd 27d5 303e b764 003e 455e a6bd
00000140: 1968 953d 3506 fc3d 2f9a 11be 92a2 023e
00000150: ba01 003e 8829 dfbd ee07 463d d0fa ea3c
00000160: 7223 00bc 3464 38bc 063c 863d 86d0 39be
00000170: 98ef 3f3c 0564 383d 86ca 163d 9b7a b23d
00000180: 2625 ba3d 7e21 d53d 3e94 a53d cd4c 5d3d
00000190: 58ea 45bd 9589 213e 5670 cabd 2e8c 9d3d
000001a0: d4bc a8bd bd5d 1e3e 3851 c4bd 0da3 ce3d
000001b0: 4088 15ba fd91 cd3d cb62 d53d ae83 483e
000001c0: ff2f d4bd 3ee3 f53d 8b53 b5bd 6eec 82bd
000001d0: bff9 35bd 2c71 53bd d203 0dbe f852 85bd
000001e0: 01bd 26be add8 cb3d 7f31 63bd 22a6 51be
000001f0: 219b 033e 6c86 c13d 2763 febc 5c47 c3bd
00000200: 1a4a 91bd e614 b1bd 204c 933b 7d29 073e
00000210: 52a1 59bd 30b7 7f3d 2aff 0c3e 1300 e9bd
00000220: cef6 e8bd 2364 1e3d c84d 3cbe 6f00 df3d
00000230: 0cef d7bd 6187 153e d051 19bd ecb4 253d
00000240: d05f 083e e538 fa3d ca37 cd3d caf0 8ebd
00000250: 0240 bc3d d6e1 893c 064e fe3d eafd 193d
00000260: d46a 95bd 44c2 75bd 2da6 ce3d 8786 c9bd
00000270: e0d5 5ebd 7dee 5d3d 893d ef3d 1435 c53d
00000280: fba4 6a3d 6b5f 9f3d c993 193e 43dc 20be
00000290: 459a 143e 4aa7 e9bd 5fb0 823b 5e2e 173c
000002a0: f539 0cbe 3b89 bf3d b591 a1bd 4d44 00be
000002b0: 5095 c439 3eab 80bd e16e 1c3c 2912 bd3d
000002c0: a10e 7b3d 7ad7 af3d ffdb b7bc 9ba7 6d3d
000002d0: 995b 343d a1fd cb3d 50ad 74bc 7c4f cf3c
000002e0: fbf4 53bd 0b99 243e e271 18bd e82b 073d
000002f0: 909b 2ebe 3081 093e 9a45 a13d e1d5 45bd
00000300: 2a26 413d 6208 be3d 1eb6 5cbc c244 4fbd
00000310: f2bc ab3d c5f2 10bd 606d f5bd 0dd4 0f3e
00000320: 1da4 2f3d 9d8c 39bd f40a 41be 518d 153d
00000330: b85c d03d 2ee4 08bd 95c2 9fbd fd8d fb3d
00000340: ca17 233e 307f 483d aac8 dd3d b80d eabd
00000350: 0715 11be d7a4 e1bd 143f 07bd 5785 223e
00000360: 908b babd d7cb cb3d d819 20bc 6172 a2bc
00000370: d921 ccbd f78a 0ebe cb9f 04be f532 333e
00000380: 3742 0bbe b41e bdbd d1fc bbbd 1439 89bd
00000390: c959 353d 9571 fabd 60c8 febd 4ab8 95bb
000003a0: c48e 193d e448 193e b327 523d 6ee7 a13d
000003b0: ff15 b83d c0e8 2e3e fb9b 0ebe f206 113e
000003c0: 707e aabc 1eb6 073e 63b3 6cbc 6039 003c
000003d0: b9b3 243e 6b9e b03a b34a bf3d 20fa bdbd
000003e0: bb11 0c3e 0f84 babb 35d5 5ebd e4dd 0e3e
000003f0: 1c98 1fbc 73f4 ac3d a77f 73bb 9b82 4bbe

recurrent.conv_x_z.Q.bias f4 [16]
0.037358247 -0.110583074 -0.0669554 0.04786331 0.13092577 -0.12794584 -0.06497422 0.20416237
0.18250695 0.022672493 0.18242867 -0.10574257 0.17061348 0.10682015 -0.021525642 0.12967579
00000000: f604 193d 6179 e2bd ea1f 89bd 510c 443d
00000010: 6811 063e 3c04 03be 3411 85bd f10f 513e
00000020: 1ae3 3a3e aabb b93c 95ce 3a3e 8f8f d8bd
00000030: 4db5 2e3e 86c4 da3d 8b56 b0bc bbc9 043e

recurrent.conv_x_z.K.weight f4 [16, 33]
-0.076720126 -0.13792458 -0.056150846 0.20614882 -0.023826098 -0.10572169 -0.07625206 -0.12216981
0.11833415 -0.057635605 0.09499074 0.1885406 -0.08505924 0.053335562 -0.08712989 0.026267182
0.08501832 -0.043906864 0.107610196 0.11870074 0.12524231 0.1314401 0.030489681 0.09387026
0.1847052 -0.09609692 0.1491286 0.11399673 0.122085795 0.07016462 0.04270085 0.10809308
0.14837515 -0.050178044 -0.035999518 -0.13084324 0.19234294 0.16755682 -0.16780165 -0.1613393
-0.14185251 -0.06637289 0.059959404 0.01092512 -0.10453591 0.012750137 -0.07485698 -0.1439543
0.033286244 0.03408069 -0.052590884 -0.011161348 -0.063135475 0.1109371 -0.16989525 -0.015968796
-0.0072158896 0.13292232 0.035764426 -0.07183646 -0.037085973 -0.019944152 -0.06086093 -0.020822175
0.061011154 -0.107480094 0.061769597 0.14011958 0.14072175 -0.11504798 -0.12641014 0.06473046
0.01682355 0.013257943 0.14592232 -0.10713085 -0.15028365 0.109408334 -0.028762443 0.098210216
-0.13321292 -0.18744989 -0.0781807 0.15158387 0.15406564 0.17677794 0.009772752 0.0643598
0.17051403 -0.1539239 -0.18413112 0.03498444 -0.033502895 -0.15468588 -0.062116053 -0.10901114
0.03494855 0.052927792 -0.05616055 -0.19795972 0.10287289 -0.08721491 0.11983338 -0.1417664
-0.16506548 0.13840276 0.15958247 0.097957894 -0.1578047 -0.14461245 0.0076120533 -0.14417252
-0.15912195 -0.077578895 0.101476304 -0.061543267 0.16149236 -0.0066925776 -0.019479087 0.1653675
-0.12770772 -0.09594722 0.09083697 -0.07557868 -0.07194282 0.1352858 0.18298449 -0.03712375
0.14962056 0.060692605 0.009284335 0.16050081 0.0319385 -0.057438225 0.13616447 0.08535315
-0.061491396 0.072935075 -0.072367966 0.11095572 0.11983736 -0.01547331 0.16724825 0.12985165
-0.17058308 0.0066283033 -0.039818704 0.1677041 0.074634105 0.124001294 0.0449861 -0.16636118
-0.0120337065 0.08439445 -0.11494818 0.01955293 0.19827285 -0.056957275 -0.080079034 -0.097522706
-0.17070554 0.054845043 0.17980458 -0.026474673 -0.1276058 0.05624642 0.06339664 -0.13788381
-0.060869403 0.055493355 0.124869205 0.06461966 -0.052567665 0.16808346 0.015063062 0.0965401
0.08944512 -0.086283356 -0.015173154 0.023609724 0.102505974 -0.0028156524 -0.07753729 -0.09038473
0.059953716 0.087130204 -0.124369435 0.0806118 0.066737086 -0.10966909 -0.10034722 -0.022731725
-0.19112644 0.16692074 -0.14792061 -0.006474428 0.0987238 -0.17880003 -0.0038870815 0.141345
0.13146926 -0.0939267 -0.16696607 0.16346325 0.046928845 0.043700416 -0.10930062 0.036615506
-0.013779541 0.1263184 0.12665477 0.013205422 0.10751418 0.12174107 0.015241584 -0.13352346
-0.07640445 -0.11447481 -0.106184885 -0.1658889 -0.08342085 0.10259248 -0.022707691 0.14580628
0.04540446 -0.113991044 0.015305422 0.062883295 -0.08705062 0.032992158 -0.08293301 -0.18279122
-0.056808855 -0.15597057 0.029159125 0.1719623 -0.046988137 -0.0493676 0.19234848 -0.03397478
-0.07520975 0.15540554 0.036607172 0.07639738 0.0056274473 -0.04695394 0.19285713 -0.055235445
0.1710322 -0.0987117 -0.07120144 0.04456839 -0.11658979 -0.1480565 0.07336141 0.110220335
00000000: 711f 9dbd 1a3c 0dbe 6efe 65bd ad18 533e
00000010: f32e c3bc 9d84 d8bd 0a2a 9cbd 2a34 fabd
00000020: 2d59 f23d 5013 6cbd 818a c23d c910 413e
00000030: 8a33 aebd 6476 5a3d 2871 b2bd 462e d73c
00000040: 161e ae3d afd7 33bd bc62 dc3d 6019 f33d
00000050: 853f 003e 3c98 063e 7fc5 f93c 0d3f c03d
00000060: 5c23 3d3e 76ce c4bd 2bb5 183e 1e77 e93d
00000070: 1e08 fa3d 78b2 8f3d 16e7 2e3d e85f dd3d
00000080: a8ef 173e 7e87 4dbd 3b74 13bd c5fb 05be
00000090: 8cf5 443e 0494 2b3e 32d4 2bbe 2136 25be
000000a0: c941 11be 82ee 87bd fe97 753d 46ff 323c
000000b0: ec16 d6bd f3e5 503c 9e4e 99bd c268 13be
000000c0: 2857 083d 3298 0b3d 8a69 57bd 16de 36bc
000000d0: 2c4d 81bd fe32 e33d 05f9 2dbe fed0 82bc
000000e0: 4573 ecbb ca1c 083e b87d 123d fe1e 93bd
000000f0: 76e7 17bd eb61 a3bc 4f49 79bd 4493 aabc
00000100: d5e6 793d 861e dcbd 1e02 7d3d 827b 0f3e
00000110: 5d19 103e 469e ebbd a971 01be 6791 843d
00000120: 8bd1 893c d837 593c a96c 153e 6b67 dbbd
00000130: f5e3 19be 7a11 e03d 379f ebbc 7022 c93d
00000140: f868 08be ddf2 3fbe 341d a0bd cd38 1b3e
00000150: 62c3 1d3e 4705 353e e51d 203c 12cf 833d
00000160: 3b9b 2e3e 3a9e 1dbe de8c 3cbe d84b 0f3d
00000170: 553a 09bd fa65 1ebe 676d 7ebd 3c41 dfbd
00000180: 3626 0f3d d0ca 583d 9b08 66bd f4b5 4abe
00000190: 06af d23d bb9d b2bd 346b f53d 362b 11be
000001a0: ed06 29be 74b9 0d3e 9669 233e 269e c83d
000001b0: 8e97 21be 4915 14be 886e f93b f6a1 13be
000001c0: ddf0 22be afe1 9ebd cfd2 cf3d cb14 7cbd
000001d0: 415e 253e 694d dbbb 9b92 9fbc 1956 293e
000001e0: d0c5 02be fa7f c4bd bc08 ba3d ffc8 9abd
000001f0: c256 93bd 5c88 0a3e 4960 3b3e 130f 18bd
00000200: 2236 193e cf98 783d 531d 183c 535a 243e
00000210: f2d1 023d 5844 6bbd b36e 0b3e a2cd ae3d
00000220: 67de 7bbd fc5e 953d a835 94bd c13c e33d
00000230: 4a6d f53d c483 7dbc 2043 2b3e d5f7 043e
00000240: 55ad 2ebe 3d32 d93b f018 23bd a0ba 2b3e
00000250: c4d9 983d 64f4 fd3d 5843 383d 965a 2abe
00000260: 0629 45bc ffd6 ac3d f469 ebbd 772d a03c
00000270: 0a08 4b3e 084c 69bd 7a00 a4bd fcb9 c7bd
00000280: 6fcd 2ebe 32a5 603d b11e 383e 6ae1 d8bc
00000290: 18ab 02be a562 663d 19d6 813d 6a31 0dbe
000002a0: 3252 79bd 004d 633d 6dbb ff3d 5057 843d
000002b0: 3151 57bd 121e 2c3e 10cb 763c d1b6 c53d
000002c0: 012f b73d 54b5 b0bd d298 78bc 2e69 c13c
000002d0: a7ee d13d cf86 38bb dfcb 9ebd a11b b9bd
000002e0: 0792 753d 5271 b23d 67b5 febd cd17 a53d
000002f0: 74ad 883d 309a e0bd d882 cdbd e237 babc
00000300: a6b6 43be 45ed 2a3e 8078 17be 7027 d4bb
00000310: b42f ca3d 5b17 37be 68be 7ebb bebc 103e
00000320: e19f 063e a45c c0bd 27f9 2abe e962 273e
00000330: 7638 403d 35ff 323d 01d9 dfbd 24fa 153d
00000340: 95c3 61bc 9c59 013e cab1 013e 8e5b 583c
00000350: 6530 dc3d 6253 f93d d6b7 793c 60ba 08be
00000360: f079 9cbd c571 eabd 7677 d9bd c8de 29be
00000370: 8dd8 aabd 021c d23d 7b05 babc 3e4e 153e
00000380: 07fa 393d 2374 e9bd 98c3 7a3c f5c8 803d
00000390: 9847 b2bd c922 073d c8d8 a9bd 9f2d 3bbe
000003a0: 67b0 68bd c0b6 1fbe 1edf ee3c e316 303e
000003b0: a276 40bd ae35 4abd 00f7 443e 2429 0bbd
000003c0: 9207 9abd a122 1f3e 67f1 153d 3b76 9c3d
000003d0: 7366 b83b c652 40bd 577c 453e 903e 62bd
000003e0: 1123 2f3e 5c29 cabd 10d2 91bd 588d 363d
000003f0: a1c6 eebd 209c 17be 823e 963d 33bb e13d

recurrent.conv_x_z.K.bias f4 [16]
0.012681709 0.032879427 0.04971809 -0.04149791 -0.1047081 0.08082563 -0.062356587 -0.14248122
0.012646316 -0.056528475 0.028338647 0.050426394 0.027478179 -0.105948895 0.08638363 0.05163634
00000000: f1c6 4f3c 94ac 063d 32a5 4b3d b6f9 29bd
00000010: 3371 d6bd e887 a53d 9f69 7fbd 99e6 11be
00000020: 7e32 4f3c 678a 67bd 7326 e83c e88b 4e3d
00000030: eb19 e13c bcfb d8bd e7e9 b03d a080 533d

recurrent.conv_x_z.V.weight f4 [32, 33]
0.01215447 0.17683545 0.023576673 0.1031324 -0.040674794 0.031587336 0.09927479 -0.09053829
-0.13311885 0.0457956 -0.040113676 0.061500125 -0.12130527 0.013282394 0.020662908 -0.15963195
-0.105203845 -0.0148403905 0.10214825 0.05368877 0.0156652 -0.0809187 0.028831596 0.07975662
-0.060156602 -0.008807207 0.09223146 -0.10525009 -0.05996874 0.02687089 0.08121441 -0.10385066
0.16995864 0.04447224 0.10735898 0.13311648 0.08303614 0.067259714 -0.14204577 0.044713795
0.18054065 -0.052358165 -0.1233197 -0.08790377 -0.09302582 0.009890887 0.09165891 0.07106678
0.12734914 0.15546161 0.03256589 -0.029749565 0.049522307 0.083422795 -0.0025582416 0.09311199
0.06396158 0.061738037 0.09915317 0.04896292 0.040485315 -0.16581653 0.08393772 0.08313563
0.029616022 0.110905014 -0.04039101 0.062305946 0.050565463 -0.082962856 0.083129935 -0.087065
0.02518341 -0.025752887 -0.10435206 0.022759505 -0.059969477 0.10523095 -0.010530496 -0.14963457
-0.049003344 0.10787571 0.020533776 -0.1246523 -0.084002584 -0.068767615 -0.0011424567 0.033635072
-0.066893995 0.07343516 -0.103215925 0.16629669 0.06418873 -0.051540177 -0.16969943 -0.16795857
0.12642589 -0.008299402 -0.10644936 0.13802895 0.053142827 0.014423009 0.03711174 0.021649465
-0.057449065 0.031693585 -0.03966241 -0.15137056 0.078193754 -0.061077885 0.16320837 0.045734838
-0.1114614 0.11825909 -0.030855142 -0.057708632 0.14459063 -0.07162401 -0.05399704 0.13743988
-0.12448451 -0.023794886 0.15267058 0.11234673 0.061392613 0.20020302 0.19462788 0.06554097
0.061407723 0.16412295 -0.16585238 -0.054406736 0.09359554 -0.16072868 0.04654426 -0.051270843
-0.1049783 0.08381297 0.0861883 -0.08038082 -0.047621023 -0.0030734818 0.040475845 0.074670546
0.058309544 -0.0030084904 0.09742626 0.13562348 0.042831484 -0.098361485 0.00038262364 -0.16437481
0.11275181 0.16983125 -0.11192235 -0.022693174 0.077931315 -0.15202892 0.11275501 -0.13084868
-0.20100866 0.10115199 0.18507154 -0.15901981 0.010021379 0.00958176 0.17451331 0.11995935
0.07554476 -0.049496442 -0.021803627 -0.13047546 0.014122135 -0.124415904 0.065583766 -0.08226048
-0.14398696 0.0042502005 -0.11148399 0.098922454 0.16483402 -0.05582902 -0.07481217 -0.03989477
-0.14929879 -0.12171644 0.0015168133 0.050226666 -0.11431384 -0.010950548 -0.054146323 0.14567547
0.0765447 0.058027554 -0.048361935 0.02645092 0.11330924 -0.0936364 -0.02118751 -0.13050647
-0.00080800103 -0.010644353 0.13521762 0.024322918 0.096253 0.16871183 0.04641208 0.16804999
0.17465983 0.026265824 0.028209232 -0.11107151 -0.016001083 -0.14192845 -0.124148436 -0.058120325
0.05172017 0.031634822 -0.0048871352 0.0018552514 0.07066944 -0.028059047 0.05027114 0.11302854
-0.022352064 0.061049484 -0.024853613 -0.053378444 -0.095153056 0.18670548 -0.097896226 0.1626069
-0.032740407 0.07493029 -0.019603465 -0.19445546 0.08621551 0.09203382 0.04670996 -0.07029066
0.12746088 -0.10388116 -0.04841282 -0.045895066 -0.11983175 0.14797291 -0.039024606 -0.08250672
-0.056634653 0.012916626 0.13140199 0.07948261 0.048172697 -0.16043052 0.0421416 0.08167698
00000000: 8b23 473c 5a14 353e de23 c13c 1437 d33d
00000010: 9d9a 26bd b961 013d 9550 cb3d 246c b9bd
00000020: 4f50 08be 2b94 3b3d 3d4e 24bd 8ee7 7b3d
00000030: e66e f8bd 669e 593c 4245 a93c 8f76 23be
00000040: 1d75 d7bd 1c25 73bc 1a33 d13d c1e8 5b3d
00000050: 4e54 803c b4b8 a5bd 3d30 ec3c 7057 a33d
00000060: c566 76bd 1b4c 10bc d9e3 bc3d 5c8d d7bd
00000070: c8a1 75bd 5720 dc3c be53 a63d a8af d4bd
00000080: a309 2e3e 8628 363d 06df db3d b04f 083e
00000090: da0e aa3d 76bf 893d 7274 11be d025 373d
000000a0: a6df 383e 8475 56bd 0a8f fcbd e406 b4bd
000000b0: 5284 bebd 630d 223c abb7 bb3d 768b 913d
000000c0: d067 023e 5431 1f3e d063 053d 5cb5 f3bc
000000d0: e7d7 4a3d 92d9 aa3d 2ca8 27bb 80b1 be3d
000000e0: 4afe 823d 06e1 7c3d d110 cb3d 588d 483d
000000f0: eed3 253d cfcb 29be 8ae7 ab3d 0343 aa3d
00000100: 4d9d f23c 2b22 e33d 0b71 25bd 8534 7f3d
00000110: bb1d 4f3d 6ee8 a9bd 0740 aa3d 224f b2bd
00000120: 704d ce3c b8f7 d2bc 88b6 d5bd 2472 ba3c
00000130: 8ea2 75bd 5383 d73d 1a88 2cbc ce39 19be
00000140: bbb7 48bd f1ed dc3d 7336 a83c b449 ffbd
00000150: 8c09 acbd 09d6 8cbd 7cbe 95ba eec4 093d
00000160: b8ff 88bd 2c65 963d df62 d3bd ae49 2a3e
00000170: 6275 833d cb1b 53bd b0c5 2dbe 55fd 2bbe
00000180: ca75 013e 37fa 07bc 1f02 dabd 7657 0d3e
00000190: 4bac 593d 7c4e 6c3c 7b02 183d 385a b13c
000001a0: b64f 6bbd 22d1 013d 0d75 22bd e200 1bbe
000001b0: 0c24 a03d ce2c 7abd 1820 273e 7454 3b3d
000001c0: e045 e4bd d231 f23d ecc3 fcbc e35f 6cbd
000001d0: 910f 143e 9caf 92bd 002c 5dbd 0abd 0c3e
000001e0: bcf1 febd 7eed c2bc ad55 1c3e 0b16 e63d
000001f0: d276 7b3d 0502 4d3e 884c 473e 583a 863d
00000200: aa86 7b3d d90f 283e 35d5 29be 99d9 5ebd
00000210: 05af bf3d 0f96 24be 32a5 3e3d 6001 52bd
00000220: ddfe d6bd 22a6 ab3d 7e83 b03d b39e a4bd
00000230: 430e 43bd 786c 49bb 00ca 253d dfec 983d
00000240: fdd5 6e3d 182a 45bb 6b87 c73d e2e0 0a3e
00000250: 1170 2f3d bf71 c9bd e09a c839 df51 28be
00000260: 6cea e63d 3ee8 2d3e 8c37 e5bd 09e7 b9bc
00000270: 749a 9f3d 78ad 1bbe 19ec e63d 32fd 05be
00000280: 37d5 4dbe c628 cf3d 6583 3d3e 17d6 22be
00000290: b630 243c d0fc 1c3c 9eb3 323e 3fad f53d
000002a0: 36b7 9a3d c8bc 4abd 859d b2bc 5c9b 05be
000002b0: 8760 673c c4cd febd c850 863d 2f78 a8bd
000002c0: 5171 13be 4445 8b3b b851 e4bd db97 ca3d
000002d0: 40ca 283e f8ac 64bd 1f37 99bd b368 23bd
000002e0: c8e1 18be 7846 f9bd cfcf c63a 7aba 4d3d
000002f0: 601d eabd ed69 33bc 89c8 5dbd f32b 153e
00000300: 78c3 9c3d 4dae 6d3d 2a17 46bd 9aaf d83c
00000310: ad0e e83d 71c4 bfbd 6e91 adbc 7da3 05be
00000320: 08d0 53ba a765 2ebc 7d76 0a3e db40 c73c
00000330: 4b20 c53d cbc2 2c3e 981a 3e3d 4c15 2c3e
00000340: 07da 323e 6d2b d73c 0c17 e73c 7679 e3bd
00000350: b414 83bc b155 11be 8941 febd 940f 6ebd
00000360: 87d8 533d 8493 013d 4324 a0bb e82b f33a
00000370: 24bb 903d 16dc e5bc 1ce9 4d3d 827b e73d
00000380: ad1b b7bc 060f 7a3d ce99 cbbc 5ba3 5abd
00000390: 9bdf c2bd b92f 3f3e d17d c8bd 6c82 263e
000003a0: ce1a 06bd 0d75 993d 7297 a0bc 551f 47be
000003b0: c291 b03d 3a7c bc3d f152 3f3d 8df4 8fbd
000003c0: 1b85 023e a5bf d4bd 854c 46bd 77fc 3bbd
000003d0: 596a f5bd 3686 173e 44d8 1fbd 49f9 a8bd
000003e0: bdf9 67bd 42a0 533c 3e8e 063e c7c7 a23d
000003f0: bc50 453d e647 24be ac9c 2c3d 4346 a73d

recurrent.conv_x_z.V.bias f4 [32]
-0.116590954 0.09340896 -0.020894893 0.011933386 0.0929341 -0.13309313 -0.1137627 0.19211033
-0.073028274 -0.06842978 0.07329552 0.03790726 0.13243482 -0.061761357 -0.12713479 -0.07060631
0.18567567 -0.017378677 -0.16097783 -0.03866399 0.07880011 -0.0511802 -0.10329428 0.1014121
-0.042513903 -0.059121862 -0.15860108 0.08106023 0.0064957635 -0.102513984 0.09200596 -0.13089152
00000000: 3dc7 eebd 324d bf3d c42b abbc 4084 433c
00000010: 3c54 be3d 9149 08be 6bfc e8bd 92b8 443e
00000020: d98f 95bd ea24 8cbd f61b 963d a544 1b3d
00000030: fe9c 073e 7af9 7cbd 9f2f 02be 0b9a 90bd
00000040: c321 3e3e ba5d 8ebc 5fd7 24be 225e 1ebd
00000050: f461 a13d 54a2 51bd f48b d3bd 26b1 cf3d
00000060: 0f23 2ebd c429 72bd 5268 22be e802 a63d
00000070: 6ada d43b daf2 d1bd 9f6d bc3d 6d08 06be

recurrent.conv_x_z.ln.weight f4 [32]
0.9740536 0.9640644 0.9971948 0.9652444 0.9658395 0.9629463 0.9990332 1.0359528
1.031712 0.9888774 1.0304954 0.99075085 0.9939901 0.98886013 0.9951545 0.9728236
1.0256823 1.0342844 0.99770904 1.0036336 1.0297893 0.9876725 0.96730727 0.96235603
0.96763605 0.9817878 1.0343771 0.98811364 0.9739704 1.0379742 1.0236223 0.969664
00000000: 945b 793f edcc 763f 2948 7f3f 421a 773f
00000010: 4241 773f a683 763f a4c0 7f3f 1a9a 843f
00000020: 240f 843f 1227 7d3f 46e7 833f d9a1 7d3f
00000030: 2376 7e3f f025 7d3f 72c2 7e3f f80a 793f
00000040: 8f49 833f 6e63 843f dc69 7f3f 1177 803f
00000050: 23d0 833f 1bd8 7c3f 73a1 773f f75c 763f
00000060: ffb6 773f 7256 7b3f 7866 843f 04f5 7c3f
00000070: 2056 793f 57dc 843f 0e06 833f e63b 783f

recurrent.conv_x_r.weight f4 [2, 1, 33, 32]
-0.04475199 -0.004775332 0.03613452 0.050334916 -0.030682223 -0.02390856 -0.0010983692 -0.047687218
-0.047785185 0.0019872058 -0.011273354 0.047789685 0.0062881727 0.0055141747 -0.04465887 -0.0569661
-0.011274861 0.059928365 -0.021027569 0.0316018 -0.011759233 0.045628533 -0.012219897 0.01387395
0.047178432 0.0694625 0.044238582 0.018002113 -0.014408376 0.03309231 0.01862362 -0.015323013
-0.05867539 0.0037039295 -0.07467044 -0.04037185 -0.035624016 0.007815873 0.011160788 -0.007443447
-0.029560193 -0.02502334 -0.013477639 -0.07335628 0.018592509 0.026005374 0.0063885488 -0.04693463
0.02338619 0.035738014 -0.046398375 -0.026955957 0.035597183 0.017753609 -0.043300804 -0.033986628
0.022122558 -0.03812649 -0.041102074 0.012415287 -0.052116215 -0.053631153 0.052423537 -0.007528241
-0.00502887 -0.01588213 0.050135266 0.033239212 -0.0041932333 0.0029980135 -0.014175998 0.026934704
-0.028553061 -0.031126473 0.014946361 -0.020980528 -0.06074078 0.010539418 0.030113023 -0.04184791
-0.05684893 0.016910475 -0.05023515 -0.0069555133 0.02045803 0.05505776 0.013261721 -0.0028326623
0.035443254 0.028289463 0.024501052 -0.00594298 0.015601147 -0.010821426 -0.010155015 0.01500983
0.06638314 -0.0057132477 -0.013708892 0.0052194623 -0.01013927 -0.0033428636 0.012738708 0.052988563
0.040125623 0.04928699 0.012092682 -0.03688108 0.031673253 -7.439917e-05 0.011231065 0.027993582
0.06113456 -0.041047595 0.015291102 0.0020617368 -0.013924607 -0.007430682 0.038413674 0.027713154
-0.059159294 -0.060989194 0.011708196 -0.035519093 -0.044951104 0.0059483913 0.029384457 0.027386196
0.035957016 -0.03770577 0.028218165 -0.048871372 0.022104379 0.01170769 -0.0001680078 0.019050036
-0.009093415 0.061447427 -0.001273822 -0.006216244 0.05894676 -0.037724324 0.048090007 0.034656588
0.044846352 -0.047255985 0.045312636 0.023174785 -0.010693838 -0.05070326 0.0117733255 -0.045869492
-0.012631256 -0.002646559 0.033183284 -0.053360138 -0.026898235 0.0270995 0.01518387 0.0147611415
-0.027922377 0.02589483 -0.028290639 0.0137711745 -0.013024492 0.013118311 -0.026617005 -0.0254392
-0.029759169 -0.034326285 -0.020046797 -0.0047543063 -0.056875307 0.031457055 -0.047120772 -0.0084274355
-0.0637135 0.04798499 -0.044288225 0.047975738 -0.036455978 0.03483904 -0.046320338 0.04844549
0.013875098 -0.009498 -0.027353588 -0.004456786 0.020551179 0.03593691 0.031293094 -0.029460808
-0.023211505 0.018019471 -0.015786005 0.025282439 0.028127596 -0.0014761491 -0.030712117 -0.04190581
-0.0009339601 0.00046775956 -0.02627926 -0.05797535 -0.07178782 0.033358473 -0.015426186 -0.0107539715
-0.035540655 -0.013800149 0.010113096 -0.0075835846 0.005312656 -0.020305121 -0.002890456 -0.037628435
0.04990663 0.013634466 -0.018614786 0.013851188 0.0018095993 0.014116906 -0.020481892 -0.03542163
0.0075035538 -0.030038837 -0.053914517 -0.019547738 -0.004167224 0.03388553 -0.012062075 -0.060986806
-0.018739035 0.023915634 -0.021288216 -0.073774055 -0.03965488 -0.011011286 -0.05527973 0.0053585693
-0.016434118 -0.027351098 0.028306205 0.010052163 0.022871388 -0.052434664 0.037404977 0.0056756465
-0.0064411676 0.019898474 0.009955578 -0.02393981 -0.030483106 -0.021435369 0.004749461 0.009897207
00000000: dd4d 37bd 637a 9cbb ca01 143d fc2b 4e3d
00000010: 4959 fbbc e2db c3bc 28f7 8fba ac53 43bd
00000020: 66ba 43bd c83b 023b e0b3 38bc 1ebf 433d
00000030: 040d ce3b 40b0 b43b 38ec 36bd 4955 69bd
00000040: 32ba 38bc 7277 753d 0242 acbc e470 013d
00000050: cca9 40bc fce4 3a3d f635 48bc 904f 633c
00000060: 2c3e 413d 5b42 8e3d 8433 353d 2b79 933c
00000070: 1c11 6cbc cd8b 073d 9090 983c 600d 7bbc
00000080: 9b55 70bd a0bd 723b d1ec 98bd f45c 25bd
00000090: 7dea 11bd 260e 003c bddb 363c 29e8 f3bb
000000a0: 3828 f2bc bffd ccbc 51d1 5cbc d13b 96bd
000000b0: 514f 983c 3909 d53c 0857 d13b 873e 40bd
000000c0: 6594 bf3c 0662 123d 390c 3ebd bdd2 dcbc
000000d0: 5ace 113d 0470 913c 2f5c 31bd 9035 0bbd
000000e0: 5e3a b53c 862a 1cbd a65a 28bd 7d69 4b3c
000000f0: d077 55bd 57ac 5bbd 10ba 563d 76af f6bb
00000100: 38c9 a4bb 3e1b 82bc a35a 4d3d d725 083d
00000110: 6467 89bb 527a 443b 7242 68bc 2ba6 dc3c
00000120: 1ce8 e9bc f2fc febc 95e1 743c 5bdf abbc
00000130: 53cb 78bd 86ad 2c3c 96af f63c b768 2bbd
00000140: 6cda 68bd d687 8a3c 5fc3 4dbd 13eb e3bb
00000150: 9997 a73c 3f84 613d b047 593c 30a4 39bb
00000160: f22c 113d 4ebf e73c 6eb6 c83c 54bd c2bb
00000170: f49b 7f3c 5a4c 31bc 3861 26bc caeb 753c
00000180: e2f3 873d 3236 bbbb 439b 60bc 0608 ab3b
00000190: 2e1f 26bc f213 5bbb 04b6 503c 890a 593d
000001a0: c45a 243d 28e1 493d 6220 463c 9e10 17bd
000001b0: d0bb 013d c006 9cb8 8002 383c cc52 e53c
000001c0: 3b68 7a3d 8621 28bd 8887 7a3c 341e 073b
000001d0: 0924 64bc 147d f3bb a857 1d3d b206 e33c
000001e0: 0451 72bd cecf 79bd bcd3 3f3c 787c 11bd
000001f0: a61e 38bd b9ea c23b acb7 f03c 0459 e03c
00000200: aa47 133d 5e71 1abd c829 e73c 592d 48bd
00000210: 3e14 b53c 9cd1 3f3c 402b 30b9 d20e 9c3c
00000220: 8cfc 14bc 4cb0 7b3d 60f6 a6ba a2b1 cbbb
00000230: 2872 713d d284 1abd 07fa 443d 11f4 0d3d
00000240: cfb0 373d 7e8f 41bd be99 393d 0cd9 bd3c
00000250: 3535 2fbc 39ae 4fbd e8e4 403c a6e1 3bbd
00000260: 54f3 4ebc e471 2dbb 32eb 073d 2990 5abd
00000270: b059 dcbc c5ff dd3c c4c5 783c b7d8 713c
00000280: 78bd e4bc 6521 d43c c5c1 e7bc 7ea0 613c
00000290: ae64 55bc 2fee 563c e80b dabc df65 d0bc
000002a0: 80c9 f3bc b899 0cbd 2e39 a4bc 03ca 9bbb
000002b0: 15f6 68bd 1dd9 003d b601 41bd 3a13 0abc
000002c0: 397c 82bd e98b 443d 9267 35bd 3582 443d
000002d0: dd52 15bd 62b3 0e3d 65ba 3dbd c76e 463d
000002e0: 6154 633c 809d 1bbc a214 e0bc 3b0a 92bb
000002f0: f25a a83c 9532 133d 302d 003d cb57 f1bc
00000300: 0e26 bebc 929d 933c a751 81bc 1e1d cf3c
00000310: d86b e63c 587b c1ba fa97 fbbc 6da5 2bbd
00000320: 00d5 74ba a03d f539 9a47 d7bc 9077 6dbd
00000330: 7e05 93bd e5a2 083d 1dbe 7cbc 6d31 30bc
00000340: 1493 11bd 051a 62bc 66b1 253c b87f f8bb
00000350: ca15 ae3b ed56 a6bc ce6d 3dbb 4620 1abd
00000360: e56a 4c3d 1863 5f3c 097e 98bc 18f0 623c
00000370: 1430 ed3a 984a 673c a4c9 a7bc 4516 11bd
00000380: 5fe0 f53b 0214 f6bc 78d5 5cbd 9422 a0bc
00000390: 358d 88bb 8ecb 0a3d 02a0 45bc 4dcd 79bd
000003a0: 9b82 99bc b8ea c33c a064 aebc da16 97bd
000003b0: 286d 22bd ae68 34bc 006d 62bd f096 af3b
000003c0: d8a0 86bc 690f e0bc 6ae2 e73c d4b1 243c
000003d0: c75c bb3c bbc5 56bd f635 193d c6fa b93b
000003e0: 6e10 d3bb 2002 a33c b81c 233c 6c1d c4bc
000003f0: b5b7 f9bc 3a99 afbc 5ea1 9b3b e527 223c

recurrent.conv_x_r.bias f4 [32]
-0.026201878 0.012858845 0.034887303 0.03441348 0.012070786 -0.013230343 0.009109346 -0.002597039
-0.0059739784 -0.019613454 -0.0022875569 0.03221721 -0.02306212 0.009183793 -0.0048664873 -0.000447731
-0.0005911144 0.033935204 -0.023018183 0.036109988 -0.0042368737 0.036140766 -0.027368424 0.0096592745
-0.010333052 0.03415949 0.03213905 0.011600332 0.011761641 0.03304757 0.0057915035 -0.030727845
00000000: 52a5 d6bc e8ad 523c fde5 0e3d 26f5 0c3d
00000010: 8cc4 453c 15c4 58bc 5e3f 153c 1633 2abb
00000020: 5dc1 c3bb 65ac a0bc d6ea 15bb 31f6 033d
00000030: c5ec bcbc 9f77 163c 0e77 9fbb 70bd eab9
00000040: 04f5 1aba a4ff 0a3d a190 bcbc 11e8 133d
00000050: 79d5 8abb 5708 143d bf33 e0bc ef41 1e3c
00000060: f64b 29bc d2ea 0b3d 3da4 033d 520f 3e3c
00000070: e6b3 403c e45c 073d a7c6 bd3b f6b8 fbbc

recurrent.conv_x_h.weight f4 [2, 1, 33, 32]
0.019860322 0.050417848 -0.043687757 -0.06477674 0.0014860639 -0.0020495064 -0.075704135 0.0013048025
0.06605381 -0.011740238 -0.016286656 0.059877336 -0.00072157383 -0.010515362 -0.015866533 -0.03127752
-0.036633953 0.048761167 0.037803363 -0.016506823 0.0044718916 0.0091576725 -0.0074460655 -0.04237959
0.027836591 -0.038337752 -0.01810034 0.048328154 -0.069674656 -0.07550439 -0.023664244 -0.037698228
0.0006920232 0.0019927854 0.02919941 0.019617414 -0.04188752 -0.053048644 -0.042981114 -0.009157565
-0.049036767 -0.02767772 0.02518465 -0.011203621 0.034170054 -0.014648175 -0.018319381 -0.031052344
-0.03139497 -0.00035610143 -0.03592233 0.024368 -0.028115861 0.06708778 -0.04742061 -0.013232243
-0.0022304095 0.037958723 -0.0073808082 0.022321409 0.026436852 -0.054597024 -0.02937322 -0.045793768
-0.0027040956 -0.006547806 -0.02402541 -0.075337924 0.050193127 0.026150828 -0.06314508 -0.004687546
0.04134571 -0.019465871 0.013734635 0.038395178 0.012264897 -0.05052213 -0.02655068 0.019187456
0.019512191 0.026820267 0.0044566337 0.0037498581 0.02649469 0.0041379477 -0.06328204 -0.033426035
0.04598213 -0.013717901 -0.044950183 0.06325868 -0.011494454 -0.0061472813 0.021309799 0.012661923
0.052547995 -0.0019404665 0.0019657775 0.039473705 -0.031496942 0.048337687 0.021124752 0.048907172
-0.011257325 -0.007818015 -0.023657952 -0.06901524 -0.028360916 0.048439715 0.0702657 0.009593377
0.025789704 -0.07766971 -0.054671418 0.023993468 0.015520899 0.026665386 0.0671574 0.04652806
-0.005042489 -0.0013088533 0.05154464 -0.070927046 0.0690755 0.056803778 -0.019964939 0.0073655695
0.057893418 -0.0014210353 -0.0026286724 0.012810657 -0.05653117 0.04769267 0.044269986 0.06332946
0.00058131944 0.03808909 -0.030923648 -0.056565784 -0.015708365 0.05387929 0.07772702 0.0031666113
-0.02224649 -0.06301781 -0.07495807 0.02627095 0.006783439 -0.01686252 0.072405994 0.003169164
0.0069193295 0.03285723 -0.0041767964 -0.045110952 0.067242175 0.04107423 0.010142957 0.00081916293
-0.027519546 0.01195208 -0.030276153 -0.002755357 -0.0034118462 -0.004655784 -0.042782303 -0.02517402
0.002943934 -0.031641476 -0.016544895 0.015409477 0.06138183 -0.030313475 -0.0020411261 -0.016745184
0.008193382 0.068753615 0.03419411 -0.034284677 0.03328949 -0.037404045 -0.023982797 -0.035730153
0.029744036 0.015569558 -0.0347455 0.047909617 -0.07288188 -0.058045216 -0.028818894 0.02496227
-0.049431156 0.018006515 0.05904989 -0.03378837 0.04708071 -0.03742201 -0.053667452 -0.058932614
0.029928192 -0.01748737 0.058067106 0.03883004 0.013066468 -0.0009862585 -0.05475926 -0.035011616
-0.016173882 0.045219626 0.034817778 -0.0092352005 -0.018062517 -0.0057297554 -0.01249289 0.0059263012
-0.006678495 -0.0039554965 0.0047227363 0.033443123 0.0066292677 0.0009172631 -0.03600612 -0.050532635
-0.039140496 -0.04700481 0.016530776 -0.01833351 0.01415976 0.024540344 -0.0067636822 0.013099566
0.0075832177 0.005844691 0.03265012 -0.044228364 -0.036937952 -0.020857126 0.00025091972 -0.0109720845
-0.017532233 -0.012050169 -0.051769298 0.025282102 -0.023088366 0.004683466 0.0025038403 0.045314603
-0.073554195 0.020616459 -0.014477262 -0.05501865 0.02795723 0.009373063 -0.05117197 -0.045534458
00000000: 1db2 a23c f282 4e3d eff1 32bd aba9 84bd
00000010: 08c8 c23a 0351 06bb c50a 9bbd e805 ab3a
00000020: 3847 873d 215a 40bc 986b 85bc f041 753d
00000030: 0028 3dba a048 2cbc 88fa 81bc db1c 00bd
00000040: 7c0d 16bd cab9 473d b3d7 1a3d 5139 87bc
00000050: f288 923b 100a 163c 20fe f3bb 3996 2dbd
00000060: 9009 e43c 0c08 1dbd 2a47 94bc bef3 453d
00000070: 96b1 8ebd 0ca2 9abd 84db c1bc 7569 1abd
00000080: e468 353a 6499 023b 9a33 ef3c b3b4 a03c
00000090: 4092 2bbd 8949 59bd f70c 30bd 9d09 16bc
000000a0: c7da 48bd 63bc e2bc 0a50 ce3c 648f 37bc
000000b0: e6f5 0b3d e6fe 6fbc 8712 96bc 7c61 febc
000000c0: 0398 00bd 20b3 bab9 4b23 13bd 669f c73c
000000d0: 3c53 e6bc 5165 893d 1d3c 42bd 0dcc 58bc
000000e0: 102c 12bb 9b7a 1b3d b5da f1bb 63db b63c
000000f0: 1992 d83c 21a1 5fbd 1ba0 f0bc 3f92 3bbd
00000100: 3237 31bb fa8e d6bb f0d0 c4bc c54a 9abd
00000110: 4f97 4d3d 433a d63c 3552 81bd fc99 99bb
00000120: 1f5a 293d e476 9fbc 3c07 613c 4344 1d3d
00000130: b5f2 483c 4bf0 4ebd d080 d9bc 032f 9d3c
00000140: 08d8 9f3c 2db6 db3c f408 923b 2ec0 753b
00000150: 640b d93c 9f97 873b 049a 81bd bde9 08bd
00000160: c257 3c3d 0cc1 60bc af1d 38bd c48d 813d
00000170: 3c53 3cbc 226f c9bb e391 ae3c f473 4f3c
00000180: 913c 573d 4057 feba 46d4 003b 2eaf 213d
00000190: f002 01bd bdfd 453d d10d ad3c e352 483d
000001a0: a570 38bc 2217 00bc 52ce c1bc dd57 8dbd
000001b0: 2755 e8bc b968 463d 77e7 8f3d 8a2d 1d3c
000001c0: ee44 d33c 4c11 9fbd 23ef 5fbd f38d c43c
000001d0: 5e4b 7e3c 5e71 da3c d289 893d 3594 3e3d
000001e0: 773b a5bb d48d abba 7920 533d 3342 91bd
000001f0: 7577 8d3d 14ab 683d 838d a3bc e05a f13b
00000200: a621 6d3d 0842 baba ce45 2cbb cae3 513c
00000210: 3a8d 67bd 6459 433d 7254 353d e0b2 813d
00000220: b063 183a 4e03 1c3d 9753 fdbc 86b1 67bd
00000230: d4ae 80bc 88b0 5c3d 582f 9f3d ec86 4f3b
00000240: 453e b6bc 7b0f 81bd 9e83 99bd 2d36 d73c
00000250: 9c47 de3b 4423 8abc 9849 943d c0b1 4f3b
00000260: 8bbb e23b 4e95 063d 82dd 88bb 43c6 38bd
00000270: 44b6 893d 743d 283d a52e 263c 18bd 563a
00000280: ac70 e1bc a8d2 433c b205 f8bc 3893 34bb
00000290: 4899 5fbb 8c8f 98bb 7f3c 2fbd bf39 cebc
000002a0: 04ef 403b 7e9a 01bd 2989 87bc 0878 7c3c
000002b0: 846b 7b3d f753 f8bc 6ac4 05bb 322d 89bc
000002c0: 893d 063c b2ce 8c3d 200f 0c3d 176e 0cbd
000002d0: 8f5a 083d fc34 19bd 9277 c4bc c859 12bd
000002e0: c4a9 f33c 7617 7f3c 4c51 0ebd e03c 443d
000002f0: 1843 95bd d2c0 6dbd 9a15 ecbc ad7d cc3c
00000300: 5378 4abd 6682 933c 4cde 713d ad65 0abd
00000310: b4d7 403d d247 19bd 67d2 5bbd 5363 71bd
00000320: f82b f53c ac41 8fbc c6d7 6d3d 3f0c 1f3d
00000330: bd14 563c 5845 81ba 3f4b 60bd 5768 0fbd
00000340: 177f 84bc 3738 393d 169d 0e3d 3d4f 17bc
00000350: d8f7 93bc acc0 bbbb faae 4cbc 6b31 c23b
00000360: 47d7 dabb 1c9d 81bb 2fc1 9a3b a8fb 083d
00000370: 543a d93b 7c74 703a 277b 13bd 4ffb 4ebd
00000380: c951 20bd 1e88 40bd 8d6b 873c 2830 96bc
00000390: 57fe 673c d508 c93c e1a1 ddbb 909f 563c
000003a0: a47c f83b d284 bf3b 22bc 053d cd28 35bd
000003b0: 404c 17bd 90dc aabc e08d 8339 42c4 33bc
000003c0: c29f 8fbc 126e 45bc 0b0c 54bd 691c cf3c
000003d0: d023 bdbc c377 993b 7817 243b ce9b 393d
000003e0: 95a3 96bd d9e3 a83c 0a32 6dbc 3c5b 61bd
000003f0: 9006 e53c 7a91 193c b399 51bd 5782 3abd

recurrent.conv_x_h.bias f4 [32]
-0.023795888 0.0384558 -0.038939282 0.0011672247 0.037481774 -0.021822782 -0.027737964 -0.035113845
0.03727078 -0.021761663 -0.038038053 0.03853133 0.01041533 -0.02014725 -0.026492108 -0.022145893
-0.023435738 0.0387309 0.0023044469 -0.039330214 -0.019967858 -0.037620425 -0.03337843 0.016589122
0.032060787 -0.03882791 0.015606042 0.03850062 0.011220837 0.025348527 -0.018324824 -0.018345593
00000000: 98ef c2bc d483 1d3d cc7e 1fbd 90fd 983a
00000010: 7d86 193d b1c5 b2bc ba3a e3bc 89d3 0fbd
00000020: 3fa9 183d 8445 b2bc cacd 1bbd 07d3 1d3d
00000030: 0fa5 2a3c d80b a5bc fa05 d9bc 4e6b b5bc
00000040: 4efc bfbc 4ba4 1e3d 3406 173b b818 21bd
00000050: a293 a3bc e017 1abd d2b7 08bd e9e5 873c
00000060: 2c52 033d 040a 1fbd 7cb0 7f3c d3b2 1d3d
00000070: 9ad7 373c b7a7 cf3c f11d 96bc 7f49 96bc

linear.weight f4 [1, 32]
-0.043951225 0.15422685 0.031609 -0.110321134 0.07459039 -0.026511207 -0.14467266 -0.08000487
0.07702168 -0.037751786 0.019512456 0.20543502 0.07031413 -0.025330335 -0.10335729 -0.143487
-0.036973704 0.14987032 0.09781107 0.05676171 -0.061313923 0.06300353 -0.039251503 -0.15796116
0.03644122 0.009420051 -0.104740225 0.15993461 -0.1293046 -0.16406845 -0.053990096 -0.13642727
00000000: 3306 34bd a5ed 1d3e 7078 013d 0cf0 e1bd
00000010: d9c2 983d 082e d9bc 1225 14be 98d9 a3bd
00000020: 8bbd 9d3d 9ea1 1abd 96d8 9f3c 8f5d 523e
00000030: db00 903d 9081 cfbc fdac d3bd 42ee 12be
00000040: bd71 17bd 9b77 193e 2c51 c83d f87e 683d
00000050: 4f24 7bbd ff07 813d 2fc6 20bd 92c0 21be
00000060: 6443 153d 8f56 1a3c 0b82 d6bd e6c5 233e
00000070: 6d68 04be 8f01 28be b824 5dbd 97b3 0bbe
