DGRNN_mi_global_fixed_attn_best_model.pth (torch, 72289 bytes, 40 tensors)

recurrent.conv_x_z.lambda_q1 f4 [32]
000000 c8 25 82 3d 43 66 ee bd 96 c1 b0 3c 12 06 ba bd
       0.063548625 -0.116405986 0.021576684 -0.09083189
000010 4d 5c fc 3d bf 96 06 3e 98 c8 60 bd 55 aa fc bd
       0.123222925 0.13143443 -0.0548788 -0.12337176
000020 6e 96 20 3d 2a b2 3d be 1d 74 6a bd 5b 2e 36 3e
       0.03920596 -0.18524995 -0.05723964 0.1779112
000030 aa be e9 bc fc 50 34 3e 45 64 55 3d 07 3c b5 3d
       -0.028533299 0.17609018 0.052097578 0.0884934
000040 cb 78 ed bd b2 dc c3 bd 0a 2a 97 bd bd 51 00 3e
       -0.11595305 -0.09563579 -0.07381065 0.1253118
000050 5a db 38 3c b7 45 4e bd 25 56 07 be f0 63 0d 3b
       0.011282766 -0.050359454 -0.13216455 0.002157446
000060 6a 22 ec bd ea d8 19 be 52 ce 21 bd 6b ad 7b 3c
       -0.115300015 -0.15024152 -0.039503403 0.01536117
000070 4a f6 75 3d 73 df 6d 3d 2b e3 4f be 85 ec 3c 3e
       0.060049333 0.058074426 -0.20301501 0.184496

recurrent.conv_x_z.lambda_k1 f4 [32]
000000 9d 6d 61 bb e3 eb 3d be 97 c1 bf 3d 5c 4b 49 be
       -0.003439761 -0.18547015 0.09363096 -0.19657654
000010 43 05 7a 3c bf 15 90 bd 10 af af 3c c2 88 b3 bb
       0.015260044 -0.07035398 0.021445781 -0.0054789493
000020 10 37 ab bc 45 81 86 bd 1d 7d 02 be af 4b 9f bc
       -0.02090028 -0.06567625 -0.1274304 -0.019445268
000030 e0 4f 07 be 83 16 1f 3b 40 ea df bb 8b 8b 73 3d
       -0.13214064 0.0024274893 -0.0068333447 0.05945925
000040 ee 29 2b bd 36 b7 4b bd 14 b9 0f 3e f0 ff 70 be
       -0.041788034 -0.04973527 0.14035445 -0.23535132
000050 03 ed 1e 3d 3b f6 4f be 38 2d d2 bd 8b da 1a 3e
       0.03880025 -0.20308773 -0.10262531 0.1512243
000060 23 f5 2e be 60 54 2a 3e 63 c4 e2 3d b2 8f d8 bc
       -0.170857 0.16633749 0.11072614 -0.026435707
000070 17 36 b5 3c ff 6d 7e 3c 13 8d 90 bd ca 7b 95 bd
       0.022120519 0.015529155 -0.07058158 -0.072990015

recurrent.conv_x_z.lambda_q2 f4 [32]
000000 ad 4c 2f 3e 60 da bf bd 4b fb 2e 3d 8f e5 94 bd
       0.17119093 -0.093678236 0.04272012 -0.07270347
000010 ee d6 81 3e d0 7d a9 bc 63 32 0d 3e 65 ea 1d 3d
       0.2535929 -0.020689875 0.13788752 0.038553614
000020 44 d2 3a bd 97 c6 38 be dd d3 ec 3d 66 d7 06 bd
       -0.04561068 -0.18044506 0.11563847 -0.032920264
000030 5f a8 e8 bd 3d e8 5d bd 32 8c 8c 3e f9 5c c6 3d
       -0.11360239 -0.054176558 0.2745071 0.09685702
000040 9f 97 0c be 2a 59 1e 3e 55 1f ba 3d 88 c0 cb bd
       -0.13729714 0.15463701 0.09088007 -0.09948832
000050 ef 8f be bd 92 3e f9 bc 8d b7 48 be a9 ee 1b 3d
       -0.09304797 -0.030425344 -0.19601269 0.0380694
000060 b2 a8 6d bd f8 c3 2a 3e 89 d6 2c be b6 5f bc 3d
       -0.05802221 0.16676319 -0.16878714 0.09197943
000070 94 f4 1d be 7f d1 a5 3d f3 1d 8a 3d c3 cd b6 bd
       -0.1542533 0.08096599 0.067439936 -0.08925965

recurrent.conv_x_z.lambda_k2 f4 [32]
000000 f6 72 9a 3b ff dc 49 bd f7 c1 44 bd b7 81 12 3e
       0.0047134114 -0.049283024 -0.04803654 0.14307295
000010 f2 bb 92 3d ce 57 37 3e 82 12 d2 bd 5d 2a 7f 3d
       0.07164754 0.17904589 -0.10257436 0.06229626
000020 1f bc b7 bd 45 4f d6 3d 37 26 80 bd 1b 14 fe bd
       -0.08971428 0.10464338 -0.06257289 -0.124061786
000030 33 d2 3b be 5a 22 84 bd 1b 91 02 3e df af c2 bd
       -0.18341903 -0.064518645 0.12750666 -0.09506201
000040 e9 09 41 3e bf 37 03 be 7b 66 91 3e 83 93 af 3d
       0.18851437 -0.12814234 0.283985 0.085730575
000050 77 60 90 3d c7 ef 9a 3d 3a 82 ae bd f6 cb b7 bd
       0.07049649 0.07565265 -0.085209325 -0.08974449
000060 8e 5f 08 be 12 5d bb bb f9 7a af bd b8 54 d3 bd
       -0.13317701 -0.005717882 -0.08568377 -0.10318893
000070 12 57 83 3c b7 48 d4 3d 3a 7b 05 bd 4a c4 ce 3d
       0.01603273 0.10365432 -0.03258822 0.10096033

recurrent.conv_x_z.Q.weight f4 [32, 36]
000000 c6 d3 c5 3d f0 14 25 3d 9b 88 ce bd a6 3e 9c bd
       0.09659533 0.04030317 -0.10084649 -0.07629137
000010 16 fd 70 bc db a3 e3 3d 98 81 95 bd 06 7b 86 3d
       -0.014708778 0.11115237 -0.07300109 0.065664336
000020 b6 49 87 bd d7 9e 1a 3e 10 fa 2a 3d ba e5 23 be
       -0.06605856 0.15099655 0.041742384 -0.16005602
000030 76 58 ac 3d 6f 77 1d be cb ec c0 3d 46 ba 5e bd
       0.0841531 -0.15377592 0.09420165 -0.054376863
000040 f6 61 13 3e 16 0b 3f bc a6 e9 37 3d 30 86 0f 3e
       0.14392838 -0.011660358 0.04490056 0.14016032
000050 c8 17 1c 3e ab e0 fe ba 06 ec a5 bd 70 17 09 be
       0.15243447 -0.0019445618 -0.081016585 -0.13387847
000060 50 ff 18 bd 96 ae 3f bd e0 56 23 be eb 2a 74 3c
       -0.03735286 -0.046797357 -0.15951109 0.014902811
000070 d0 8e 37 bd 7b c9 1c bd ab 86 f9 bd 4b eb a1 3c
       -0.04481393 -0.038278084 -0.12183889 0.019765517
000080 12 c9 0b 3e 4e 75 ac bd a0 cb d1 bd 16 77 b9 bc
       0.13650921 -0.084208116 -0.102439165 -0.022639792
000090 14 4d 28 3e 36 c7 1b be ce 68 b6 3d d6 ca 88 bc
       0.16435653 -0.15212712 0.08906709 -0.016698282
0000a0 50 4e 71 bd e0 c1 43 3d ab df 81 bb 50 8a 1b 3e
       -0.058912575 0.047792315 -0.003963431 0.15189481
0000b0 08 ba 82 3d a3 07 1f 3e 8b 97 cc bd e4 f7 15 3e
       0.06383139 0.15530257 -0.09989842 0.14645344
0000c0 ab 58 d5 3c d6 28 ab bd f4 5f 13 3e ab 1c 2d 3d
       0.026043257 -0.08357398 0.14392072 0.042263668
0000d0 db df 2e bd 0e a3 ba bd 2b 2f 8f 3b 00 41 af bc
       -0.042693954 -0.091131315 0.0043696365 -0.0213933
0000e0 56 7e 02 bd 5e 7c 24 3e 98 05 83 3d 26 ce 8a 3d
       -0.031858765 0.16063067 0.06397551 0.06777601
0000f0 eb 44 d9 3d 28 81 b7 bd b6 b3 73 bd 7f ba 04 3e
       0.10608848 -0.089601815 -0.059497558 0.12961768
000100 5c 9b 14 3e 56 58 ed bd 6f 5d 24 3e f0 70 77 bd
       0.1451239 -0.11589114 0.16051267 -0.06041044
000110 9f 2e 04 be 4e 65 c2 3d d3 22 f9 3d 2b 17 e6 3d
       -0.1290841 0.094919786 0.12164845 0.11234888
000120 b6 7a 40 bd 76 0a 9c bd 73 f5 ce 3d bb 35 4e 3d
       -0.046992026 -0.07619183 0.101054095 0.05034421
000130 c3 04 fa 3d 03 ec 1c 3e 92 f4 0e be 8a 5c 00 3e
       0.122079395 0.15324406 -0.13960484 0.12535301
000140 f0 56 0e be 00 9b 00 3b 23 2e cd 3d a4 80 01 3e
       -0.13900352 0.0019623637 0.100185655 0.12646729
000150 f4 c2 01 3e 7b 7a 43 bd 73 d3 ff 3d 48 ad ee bd
       0.12672025 -0.04772423 0.124915026 -0.116541445
000160 20 39 bc bd 47 9a 23 3e 9b 46 de bd 3b c5 27 be
       -0.09190583 0.15976821 -0.10853311 -0.16383831
000170 16 4b 50 bc 66 0f ef bd 96 b2 66 bd ab f3 79 3c
       -0.012713214 -0.11672859 -0.056322657 0.015255849
000180 60 c0 69 bd 3c 83 0a be 26 f6 1e bd 3f 08 27 be
       -0.05706823 -0.13526624 -0.038808964 -0.1631174
000190 92 79 17 be c2 e6 0a 3e 3e fe 03 be 1e 81 c3 bd
       -0.14792469 0.1356459 -0.12889954 -0.095461115
0001a0 60 88 f8 3d 26 aa 61 bd 2b 71 0e be 7b 30 18 be
       0.121353865 -0.055093907 -0.13910358 -0.14862244
0001b0 3e e9 0b be e0 2c 0f bd a0 6e 57 3d a0 79 b1 3d
       -0.13663194 -0.034954906 0.052595735 0.08665776
0001c0 c8 17 bf 3d 40 8d 72 3d e3 b0 ec 3d 00 94 82 bc
       0.09330708 0.059216738 0.11557176 -0.015939713
0001d0 46 6d 73 bd 48 61 d4 3d 8b 21 f7 3d bc c2 08 3e
       -0.059430383 0.103701174 0.12066945 0.13355535
0001e0 a6 d2 e0 3d 2b 32 af bc a6 f1 cb bd 6b a7 4e 3d
       0.10977678 -0.021386227 -0.099582 0.05045263
0001f0 88 d4 82 bd 0f d6 26 3e 87 d0 01 be d6 49 25 bc
       -0.06388193 0.16292594 -0.12677203 -0.010088405
000200 ab 57 fb 3d bb 29 3d 3d 80 52 af 3d 23 68 fa bd
       0.12272581 0.046182375 0.085606575 -0.12226894
000210 76 89 74 3d 2e 25 bd bd a3 94 f6 3d df 12 1b 3e
       0.059701405 -0.09235607 0.12040069 0.15143918
000220 e0 e1 48 bd d6 cb 5a bd 80 03 46 bd eb ed 95 3c
       -0.049043536 -0.05341705 -0.04834318 0.018301925
000230 db 44 16 bd a6 1c a5 bd f0 5e 67 3d de a8 cb 3d
       -0.03668676 -0.08062105 0.056487024 0.09944318
000240 d3 a5 25 be 3b 86 aa bd 2c aa 1b 3e e7 0a 13 be
       -0.16176538 -0.08326384 0.15201634 -0.14359628
000250 c6 7d 46 3d 33 41 e7 bd 8b 08 44 3d aa f8 06 3e
       0.04845979 -0.11291733 0.04785971 0.13180795
000260 cb 81 4d bd 60 3e 92 bc a8 57 84 3d 03 b0 e9 bd
       -0.05017261 -0.017852008 0.064620316 -0.11410525
000270 e0 f3 15 3d 53 7c de 3d e0 7b bb 3d 20 34 a5 bc
       0.03660953 0.10863557 0.09154487 -0.020166457
000280 e8 19 b3 3d 13 a5 85 3d d0 a3 63 bd 92 35 21 be
       0.087451756 0.06525626 -0.055576146 -0.15743092
000290 6b 2b f6 bc 5b 60 d8 3d 94 16 01 be 38 04 a0 3d
       -0.03005 0.10565253 -0.12606269 0.07813305
0002a0 0f 94 10 be a0 d5 d4 bc 18 80 c5 bd 98 67 ed 3d
       -0.1411898 -0.02598077 -0.096435726 0.115920246
0002b0 cb a6 c2 bd f3 ed f5 bd 0b dd 0c 3d 16 ce 7a 3d
       -0.095044695 -0.12008276 0.03439049 0.061231695
0002c0 ab da 5a 3c 06 b5 95 3d db 98 c9 bd 08 be f1 3d
       0.013357799 0.07309918 -0.09843608 0.11803824
0002d0 20 69 ca 3d 00 8f eb 3b 26 81 6e bd ce fc bd 3d
       0.09883332 0.007188678 -0.058228634 0.09276734
0002e0 20 12 f2 3c 06 ca 78 bd 56 88 b1 bd eb 81 ab bc
       0.029549658 -0.06073954 -0.08668582 -0.020935973
0002f0 6e 34 f1 bd 2b 58 2d 3d b3 c9 11 3e de 32 1b be
       -0.11777578 0.04232041 0.14237098 -0.15156123
000300 a6 2f 14 be 9e 1d 99 bd 23 77 03 3e 00 2e 2c bc
       -0.14471301 -0.07476352 0.12838416 -0.010509014
000310 db 06 0c bd 44 65 02 be 7b 84 24 3e 2e a0 be 3d
       -0.034186225 -0.12733942 0.16066162 0.093078956
000320 00 18 b3 3b cf 6f 15 be e6 d4 0c 3e d6 63 fc 3d
       0.0054655075 -0.14593433 0.1375309 0.1232373
000330 58 11 fa bd 68 92 f3 3d e0 c3 f5 bd 66 33 b4 3d
       -0.12210339 0.11893159 -0.12000251 0.08798866
000340 7b b8 44 3d de 88 be bd 87 8b 11 3e e6 20 ce bd
       0.048027497 -0.09303449 0.14213382 -0.10064869
000350 ce e8 d4 bd c6 4c 69 bd 1b 9b 2a 3d 60 a9 bd bc
       -0.103959665 -0.056957982 0.041651826 -0.023152053
000360 00 a0 f4 3b 6b 77 26 3e 96 8f 69 3d 9b 81 b5 3d
       0.0074653625 0.16256492 0.0570217 0.08862611
000370 06 88 e8 bd de 87 97 bd 00 66 9e ba 40 71 6c 3d
       -0.113540694 -0.073989615 -0.0012084842 0.05772519
000380 73 10 04 3e 4b 8f 3b 3d d3 29 06 be 68 7d 07 3e
       0.128969 0.04579095 -0.13101892 0.13231432
000390 5b 74 db bd c8 17 c7 3d 53 8b da bd 16 04 02 bc
       -0.107155524 0.09721333 -0.10671105 -0.0079355445
0003a0 80 6a 6a 3c 56 ca 21 3e 2f 88 18 3e b8 96 29 3e
       0.014307618 0.15799841 0.148957 0.16561401
0003b0 53 a3 af bd 16 76 03 bc ea 58 08 3e 1b fb c9 3d
       -0.085760735 -0.008023759 0.13315168 0.09862348
0003c0 30 63 22 3e 56 bc 51 3b 10 25 39 3d c0 cb 06 bd
       0.1585815 0.0032003126 0.04520136 -0.032909155
0003d0 16 3c f7 3c cb 66 78 bd b8 26 01 3e 46 44 5e bd
       0.030180018 -0.060644906 0.12612426 -0.05426433
0003e0 6b 13 68 3c 20 c0 e2 3d 66 ec 7f bd f6 0d a5 bc
       0.014164786 0.11071801 -0.062481306 -0.020148259
0003f0 c0 7c cf 3d 0e 25 fa bd b7 c4 28 be 0e 3c 98 3d
       0.10131216 -0.12214099 -0.16481291 0.074333295

recurrent.conv_x_z.Q.bias f4 [32]
000000 86 1f 64 3d 63 48 ee 3d 03 b9 80 3d d0 c3 d3 3d
       0.055694126 0.116349004 0.06285288 0.10340083
000010 70 04 c9 3d 56 6c 83 3d eb 17 56 3d 73 ef b5 3d
       0.098152995 0.06417148 0.052268904 0.08883562
000020 b6 1d bf 3d f6 4c 8b 3c 50 8e 1b be ae 2b e1 3d
       0.09331839 0.017004471 -0.15191007 0.10994659
000030 17 c8 08 3e 8e f1 fb 3d d4 b3 12 be e0 b8 81 bd
       0.13357578 0.12301932 -0.14326411 -0.0633409
000040 56 e4 8c 3b 68 88 cf 3d b6 4d de bd e0 2d 9b bd
       0.0042996807 0.10133439 -0.10854666 -0.07577109
000050 96 92 39 3d 56 38 ff 3c 33 bc bb 3d a6 d2 ba bd
       0.04530581 0.031154793 0.091667555 -0.09122209
000060 ec 87 18 be f3 5b d4 3d bb a3 6d bd f0 b4 94 3d
       -0.148956 0.103691004 -0.058017474 0.072610736
000070 d8 22 c4 bd 50 9b ce 3d 16 0d 7e bc 2e 8a af bd
       -0.095769584 0.10088217 -0.01550605 -0.085712776

recurrent.conv_x_z.K.weight f4 [32, 36]
000000 96 03 1e 3e 67 21 1e 3e ab 44 07 3e 16 9c ec 3d
       0.15431055 0.1544243 0.13209789 0.115532085
000010 a6 b9 2d bd d0 18 fe 3d e0 54 8c 3c 96 1e 63 3d
       -0.042413376 0.12407076 0.017130315 0.05544909
000020 56 65 83 3a f6 ef da 3d 8b 2d b7 bd de 35 87 3d
       0.0010024707 0.106903 -0.089442335 0.06602071
000030 3e c5 ca bd 63 a9 d2 bd 48 d8 11 3e 46 79 0c 3d
       -0.09900902 -0.10286214 0.14242661 0.034295343
000040 00 84 b1 3b b3 d7 18 be 6e d0 a6 3d 80 4c 2a 3d
       0.005417347 -0.14926033 0.081452236 0.041576862
000050 67 12 02 be 8b f6 f3 bd 2b 04 74 bd bb 28 86 bd
       -0.12702332 -0.11912259 -0.059574287 -0.065507375
000060 90 37 d8 3d fb 70 42 3d 4b 05 87 3c 3b 98 df 3d
       0.10557473 0.047471028 0.016482016 0.109177075
000070 2b 9c 7e bc 8c 11 20 3e b0 33 27 bd e6 e2 f8 3d
       -0.015540163 0.15631694 -0.040820777 0.121526524
000080 18 4c c4 3d 0e f8 97 bd 5f 64 18 3e 98 99 fa 3d
       0.09584826 -0.074203596 0.14882039 0.12236327
000090 00 c6 57 bd 4b 1c 22 bd 78 e4 99 3d 58 6e d5 3d
       -0.052679062 -0.039577764 0.0751428 0.10421437
0000a0 b3 f1 d2 3d 96 6c 91 bd 86 40 d2 3d 7a 03 1d 3e
       0.10300007 -0.07100789 0.10266213 0.15333357
0000b0 c0 a2 34 3d 26 2f 30 3d 2b 13 81 3d 70 85 78 3d
       0.044100523 0.043013714 0.06302484 0.06067413
0000c0 eb 3f 44 3d 00 35 03 3b cb 67 4d 3d 36 bb 6d 3d
       0.04791252 0.0020020604 0.050147813 0.058039866
0000d0 8b e9 97 bc 00 78 14 be 58 b4 bf bd 1b a1 96 bd
       -0.01854398 -0.14498901 -0.0936057 -0.07354947
0000e0 ab 9a 0c 3b e4 82 02 3e 08 7a b1 3d 16 0e 06 3c
       0.0021454494 0.12745243 0.08665854 0.008182069
0000f0 c6 78 0c 3e 68 3c 82 bd b6 d5 ea bc b0 24 12 be
       0.13717946 -0.06359178 -0.028666358 -0.14271808
000100 38 d3 15 be 4e f8 d7 3d ab 53 7f 3d e6 a8 ff bd
       -0.14631355 0.10545407 0.06233565 -0.12483387
000110 c8 8a 00 3e d3 33 ee bd f6 ce 50 bd bb 1a 14 bd
       0.12552941 -0.116309784 -0.050978623 -0.036158305
000120 fa f8 1e be 66 31 19 bd 68 a1 a9 bd 88 2a 08 be
       -0.15524665 -0.037400626 -0.08282739 -0.13297474
000130 9b 6a 40 3d 16 72 2d 3c b0 41 99 bd eb 17 75 3c
       0.046976667 0.010586282 -0.07483232 0.014959316
000140 80 6b 24 bc eb 7e 63 3c 70 ca 16 3d 5e 52 f1 3d
       -0.010035396 0.01388524 0.036814153 0.117832884
000150 40 48 d0 3d 8a 85 1b be 40 09 07 3e fb cb ab bd
       0.101700306 -0.1518766 0.13187122 -0.083885156
000160 ae c6 d6 3d 16 03 7f 3c eb 86 01 bc e0 bd bd 3d
       0.10487114 0.015564701 -0.007905702 0.092647314
000170 e0 fb 1c 3e 00 70 3b bd 7a da 09 be 50 82 43 3d
       0.15330458 -0.04576111 -0.13462248 0.047731698
000180 77 c6 1d 3e 7b 85 2e bd 26 10 dd bd bb 90 22 3e
       0.1540774 -0.042607766 -0.10794096 0.15875523
000190 e3 4b d2 3d a0 de ea 3d ee 25 cc bd 6e 48 16 3e
       0.102683805 0.114682436 -0.09968172 0.14676067
0001a0 6b e1 97 bd fa b4 08 3e e3 dd 15 3e 76 b9 b9 3d
       -0.07416042 0.13350287 0.14635424 0.09068577
0001b0 1e 24 c4 bd b0 8f bd bd 36 1c 4e bd 26 23 0e bd
       -0.09577201 -0.09255922 -0.050319873 -0.03470149
0001c0 aa d5 21 be ab 4f 07 3d 50 a7 d0 3d 8b 40 2e 3d
       -0.15804163 0.03303496 0.10188162 0.04254202
0001d0 e8 aa 85 3d a3 4f e4 3d b6 f8 75 3d ce df dc bd
       0.065267384 0.11148002 0.060051642 -0.10784875
0001e0 b8 65 e8 bd eb e4 0e bd 63 a3 17 3e 96 14 d8 3c
       -0.11347526 -0.034886282 0.14808421 0.026377004
0001f0 82 89 1a 3e 60 61 d2 3d e8 78 f7 3d 66 9b 90 3d
       0.15091518 0.10272479 0.12083608 0.0706089
000200 16 64 5a 3d 16 8c 4a bc c0 47 30 bd a0 8c b4 3d
       0.053318106 -0.012362501 -0.043037176 0.088158846
000210 33 75 91 3d eb 01 b5 3c 86 52 89 bd e3 de 00 be
       0.07102432 0.022095641 -0.06705193 -0.12585025
000220 86 ad 0d 3e 40 d4 fc bd 13 f0 f3 bd 78 34 a5 3d
       0.13835725 -0.12345171 -0.11911025 0.08066648
000230 00 32 fe 3d eb c5 ff bc d0 c3 ce bd 3b 53 67 3d
       0.124118805 -0.031222304 -0.10095942 0.05647586
000240 96 37 6a 3c d6 44 67 bc 50 1d 71 bd 48 e6 e9 3d
       0.014295479 -0.014115533 -0.058865845 0.11420876
000250 96 cf 69 3d 53 7c fc 3d 5b fe 43 3d bb a1 1e be
       0.057082735 0.123284005 0.047849994 -0.15491383
000260 86 56 a8 3d 30 6b 53 3d 90 52 d7 3d 40 a8 ca bd
       0.08219628 0.051615894 0.105137944 -0.098953724
000270 4a 75 12 3e e8 9a d0 3d 56 1c 04 3c 2b 05 59 3c
       0.14302555 0.10185796 0.008063396 0.013245861
000280 ce 4b 22 be 96 05 71 3c 56 19 2d bc e8 8d 1e be
       -0.1584923 0.014710804 -0.010565123 -0.1548382
000290 33 91 f2 bd e3 27 b0 bd d6 20 f6 bd 63 5f ca 3d
       -0.11844101 -0.08601358 -0.12017982 0.09881475
0002a0 20 fe 29 3e 00 a8 b8 3b 7b 24 2a 3e 53 b5 8e 3d
       0.16600847 0.0056352615 0.16615479 0.069681786
0002b0 56 3f 59 bd 70 a3 33 3d 48 0f e8 bd 60 6f da 3c
       -0.053038917 0.043857038 -0.1133104 0.026664436
0002c0 a6 10 15 be 10 46 1f 3d 76 2b 97 3c 96 19 fa 3c
       -0.14557132 0.038885176 0.018453341 0.030529778
0002d0 00 19 76 bc 40 2c 0b be f6 dd a2 bd 68 e5 f8 bd
       -0.015020609 -0.13591099 -0.07952492 -0.12153131
0002e0 7b da 41 3d 50 ba 64 3d a0 66 3e bd db 20 d5 3d
       0.0473275 0.055841744 -0.04648459 0.10406657
0002f0 d8 f2 21 3e 67 4f 25 3e 76 64 cc bc 96 48 ce bd
       0.15815294 0.16143571 -0.024950247 -0.100724384
000300 98 25 df 3d e6 58 33 3d 8f 6b 29 3e 26 9a 32 3d
       0.10895842 0.043785952 0.16544937 0.04360404
000310 0b 7a ce bd 2b 5e 4c bc 02 17 10 be 43 59 f8 3d
       -0.100818716 -0.012473623 -0.14071277 0.121264
000320 f4 51 02 3e a6 30 f5 3d eb 63 06 bd c8 e4 ed 3d
       0.12726575 0.119721696 -0.032810133 0.11615902
000330 d2 43 28 be eb 91 3d bc 18 a4 80 3d 8b d5 8f 3c
       -0.16432121 -0.011570434 0.062812984 0.01755788
000340 eb 2d c8 3c 66 1a 9d bd c6 39 79 bd 6b 2f 73 3c
       0.024435958 -0.07671051 -0.060846113 0.014842848
000350 00 20 1c 3d 76 e3 c5 3d c6 3f 31 bd 48 9b e6 bd
       0.038116455 0.09662525 -0.04327371 -0.11260086
000360 78 3b 85 3d de 18 a3 bd ab 4e 3f 3b 00 6a e7 bc
       0.065054834 -0.079637274 0.0029191177 -0.028248787
000370 28 79 95 bd a0 48 f7 3c 60 92 79 3d dc f0 0d be
       -0.07298499 0.030185997 0.06093061 -0.13861412
000380 40 55 d5 3c f6 b4 e0 3d 16 70 4c bc 80 41 09 3c
       0.026041627 0.109720156 -0.012477895 0.008377433
000390 4b 3c b6 3c 53 af d6 bd 5b cb af bd 00 b0 65 b9
       0.022245547 -0.10482659 -0.08583709 -0.00021904707
0003a0 a0 d2 9f bc 0e 94 92 bd e0 ed 10 bd c0 4e 49 3c
       -0.019509614 -0.071571454 -0.035383105 0.012286842
0003b0 76 83 1c be 76 ac d1 bd 1b c7 26 3d 10 96 a4 bd
       -0.15284523 -0.102379724 0.040717226 -0.08036435
0003c0 58 f4 8f bd f8 d6 a8 3d 56 4e 15 3b 3b cb 8c 3d
       -0.07029027 0.08244127 0.0022782288 0.06874701
0003d0 28 b0 bc bd ee c8 d2 bd 30 e6 26 bd d0 8a 49 3d
       -0.09213287 -0.102922305 -0.040746868 0.049204648
0003e0 ae 58 b0 bd 5e 14 93 3d ce 5c af 3d e6 cd d4 3d
       -0.08610664 0.07181619 0.08562623 0.103908345
0003f0 d3 55 b2 bd ab d4 32 bd eb 31 7d bd 3b 53 d8 bd
       -0.08707776 -0.043659847 -0.061815184 -0.1056275

recurrent.conv_x_z.K.bias f4 [32]
000000 66 59 81 bd 1b 91 e5 3d 4c 8b 17 3e de 83 07 be
       -0.063158795 0.11209317 0.14799231 -0.13233897
000010 56 7c 61 bb c0 23 fa 3d b8 35 83 3d 06 39 98 3d
       -0.0034406385 0.1221385 0.064067304 0.07432751
000020 c8 d3 0e 3e a6 2d 44 bd 78 5c b0 bd d3 2f 1f be
       0.13947976 -0.047895096 -0.08611387 -0.15545587
000030 04 b3 16 be 98 69 c1 bd 00 18 b8 3c d3 0e b3 bd
       -0.14716727 -0.094439685 0.022472382 -0.08743062
000040 70 94 40 3d ca 6f 26 be 8e 52 cf bd ab f7 87 bc
       0.04701656 -0.16253582 -0.10123168 -0.01659759
000050 f3 55 1f be 43 94 c9 bd cb e0 44 3d 7b 53 ff 3d
       -0.15560131 -0.09842732 0.04806594 0.124670945
000060 a3 6e f4 bd 3b 1f d1 3d 40 63 99 3c a0 95 8e bc
       -0.11935165 0.10211035 0.018724084 -0.017405331
000070 cf d1 03 3e 2a 61 14 3e 84 91 17 3e d8 76 02 3e
       0.12873004 0.1449019 0.14801604 0.12740648

recurrent.conv_x_z.V.weight f4 [32, 36]
000000 59 a1 ab bd 0b 7c 2b bb db 61 b5 3d 6f 84 1a be
       -0.08380384 -0.0026166465 0.08856555 -0.15089582
000010 89 65 24 3b 3d 29 94 3d 3f 8b 9d bd a2 20 f0 3d
       0.0025084934 0.07234428 -0.07692575 0.11724974
000020 f3 67 5c bd 83 17 2d 3d 91 16 3d 3d 51 95 12 3e
       -0.05381007 0.04225875 0.0461641 0.14314772
000030 ac 3e 34 3d 00 51 92 bd d1 5b 99 bd 24 68 0e be
       0.04400508 -0.07144356 -0.07488216 -0.13906914
000040 5d 15 22 3c 4e f1 8b bd a7 9a 38 3c 43 7a 4a bd
       0.009892789 -0.068331346 0.011267341 -0.049433004
000050 a9 33 ca 3d ff 68 eb 3d 9f 64 f7 3c f0 f6 85 bd
       0.09873135 0.11494636 0.030199347 -0.0654124
000060 f2 e0 70 3a f5 03 09 3d 44 79 23 be 92 83 b0 bd
       0.0009188793 0.03345104 -0.15964228 -0.08618845
000070 1b 80 0f 3d b7 8d e0 bd 8c 20 04 3e 1f 7c b0 bd
       0.03503428 -0.1096453 0.1290304 -0.08617424
000080 1d 25 10 3e 72 aa 1b be 41 20 52 3d 95 fc 01 3e
       0.14076658 -0.15201738 0.05130029 0.12694009
000090 db e7 83 3d 4d 2e 7f bd 67 e3 db 3d aa 51 0d 3e
       0.06440707 -0.062300015 0.10736733 0.13800684
0000a0 75 1f 1e 3e c8 fc 06 3e 8f 78 18 be 97 3a 48 3d
       0.15441687 0.13182366 -0.1488974 0.048884
0000b0 2e 8c a7 3d 95 1e 68 3d a9 22 2c 3d f9 45 48 3d
       0.08181034 0.05666979 0.042025242 0.048894856
0000c0 ae c6 d9 3c c2 98 b6 3d c0 cc 56 bc 35 b6 98 bd
       0.026583996 0.08915855 -0.01311034 -0.07456628
0000d0 8f 34 5e bd 3d 71 f2 bd a1 f2 21 be c1 b0 83 3d
       -0.054249343 -0.11838005 -0.15815212 0.064301975
0000e0 4a 5b e9 bd ad be 40 bd e1 1a 07 be 5c d1 87 bd
       -0.11394365 -0.047056843 -0.13193847 -0.06631729
0000f0 05 9e db 3d 28 5e f0 3c d6 9e c1 bd 92 fd 09 be
       0.10723499 0.029341772 -0.09454124 -0.13475636
000100 7e 2e 18 bd 70 a1 d4 bd e0 57 9f 3b ac 1f f4 3c
       -0.037153713 -0.10382354 0.0048627704 0.029800259
000110 7e 46 5d 3d 1f cc f2 3d d1 f8 68 3c 24 e0 fd bc
       0.054022305 0.11855339 0.014219479 -0.030990668
000120 52 70 14 bd a6 16 31 bb 32 69 12 be 64 a0 b7 3d
       -0.03623993 -0.0027021556 -0.14297941 0.08966139
000130 86 de df 3d 7a a6 b9 3d c1 d4 21 be 2e 40 c5 3d
       0.10931115 0.09064956 -0.15803815 0.09631382
000140 d6 93 03 be 22 55 93 3d 9e b9 cb 3c 09 a2 07 bd
       -0.12849364 0.07193972 0.024868783 -0.033113513
000150 41 44 44 bd ac c1 8d 3d b2 b7 9f bd 87 fc c0 bc
       -0.047916654 0.069217056 -0.07798709 -0.023557914
000160 c5 86 00 be 51 c8 d9 bc f0 15 18 be ef e6 16 bd
       -0.1255141 -0.026584776 -0.14852118 -0.03684133
000170 24 b9 db 3d 6b 97 fd bd ff 4f e0 3c 06 7c a2 bd
       0.10728672 -0.12382396 0.027381895 -0.07933812
000180 c7 2b 4b bd 75 ba 90 bd 69 92 42 bc b5 d2 af bc
       -0.049602296 -0.07066814 -0.011875727 -0.021462778
000190 70 e7 01 3e 72 a9 1e 3e 02 50 16 3e b4 30 cf 3b
       0.12685943 0.15494326 0.14678958 0.0063229445
0001a0 9d e5 cf bd d0 41 c9 bd 9c d4 af bb 9d b6 0c be
       -0.10151217 -0.09827006 -0.005365921 -0.13741536
0001b0 f0 01 07 be 63 a1 9d 3c 38 13 ed bc cc 93 25 be
       -0.13184333 0.019241994 -0.028939828 -0.16169661
0001c0 34 1f 01 bd 02 01 27 bd 74 d4 6c bd 37 f6 14 3e
       -0.0315239 -0.040772445 -0.0578198 0.14547049
0001d0 e5 88 0d be f5 af af 3d 66 a1 b1 bd 31 53 87 bd
       -0.13821752 0.08578483 -0.086733624 -0.066076644
0001e0 eb 5a dd 3c fb 39 ee bd f7 c2 ed 3d 0c d6 c4 bd
       0.027020892 -0.11632153 0.11609452 -0.09611139
0001f0 4e 4a 98 3d e9 af 11 3e 80 2c ef 3d 4e d6 c6 bd
       0.074360475 0.1422726 0.116784096 -0.09708844
000200 91 fb a3 bd 1a ea 2a bc 15 b0 c3 bd 0e 6a 81 3d
       -0.08006967 -0.010431791 -0.09555069 0.063190565
000210 17 4b e8 bd bf 68 ce bd 6d 89 1c be 1c bb 60 3d
       -0.11342447 -0.100785725 -0.15286799 0.05486594
000220 6e 8d 0d 3e c3 55 81 bd f6 a2 d8 3d 0b 1a 05 be
       0.13823482 -0.06315186 0.10577957 -0.12998216
000230 d9 8f 9d bc e0 6b b2 3b b2 00 04 be cd 88 b8 bd
       -0.019233631 0.0054449886 -0.1289089 -0.09010468
000240 06 51 df bd bd 46 f9 3d ce 1a 11 3e ef be 00 3e
       -0.10904126 0.121716954 0.14170381 0.12572835
000250 fe 6c b0 3d de ca b7 bd 2e 12 95 bd 4c 60 8e 3d
       0.086145386 -0.08974241 -0.07278858 0.06951961
000260 df fe 73 bd 5f 8a 99 bd dc 99 11 3e 65 49 6d 3d
       -0.059569236 -0.07497095 0.14218849 0.057931323
000270 85 b6 14 be b6 fb 21 be 41 cb 15 be 6c 9d 33 3d
       -0.1452275 -0.15818676 -0.14628316 0.0438513
000280 41 9d 13 3e 8c e4 3d 3c 89 0f 6d 3d a4 2e 35 bd
       0.14415456 0.011590134 0.057876144 -0.044233933
000290 ff 72 0f 3e 98 9f 1f be 7b b4 ad 3d 7c bd bd bd
       0.14008711 -0.15588224 0.084816895 -0.09264657
0002a0 a0 2c 18 3d 61 cc 95 3d 7f 54 34 3d 71 1a 7f bd
       0.037151933 0.07314373 0.044025894 -0.062281076
0002b0 3a cb ad bd bd 8e 6a bd 08 31 15 3e 1a 3d c5 bd
       -0.08486028 -0.057265032 0.14569485 -0.09630795
0002c0 bb 79 fc 3d c0 17 fe bd 14 9f 7e bd 54 ee 85 3d
       0.12327906 -0.12406874 -0.062163427 0.06539598
0002d0 2d 7b 13 be c0 9e 94 bd 28 f3 e5 bd cc 41 a9 3d
       -0.14402457 -0.07256842 -0.11228019 0.08264503
0002e0 dd 1e 2d 3d c6 4d e3 bd fb 55 1c 3e f1 05 f3 3d
       0.04226576 -0.110988185 0.15267174 0.118663676
0002f0 b0 7b dd bd f1 50 92 3d 83 9a 42 3d a8 ff 21 be
       -0.10814607 0.071443446 0.047510635 -0.15820181
000300 f4 fb 83 bd 37 ed 11 bd d4 9e ee bd c9 db 93 3c
       -0.064445406 -0.035626616 -0.11651388 0.018049138
000310 70 54 fa bd 6d 15 e5 3c 44 d7 a3 bd b0 bd 16 be
       -0.122231364 0.027964318 -0.08000043 -0.14720798
000320 9d dd 65 bc 87 fa 3b bd a2 73 1f be 67 83 00 bc
       -0.0140298875 -0.04589322 -0.15571454 -0.007843829
000330 74 6e 79 bd 62 53 59 3c 08 fa d2 3d 5b 72 65 3c
       -0.060896352 0.013264509 0.10301596 0.014004315
000340 0e 9d 01 bd 5f 00 cb 3d ec 36 2d 3e 36 3f 3b bd
       -0.03164392 0.0991218 0.16915482 -0.04571458
000350 5e 73 0e be 03 8d 27 3e 7c 25 6f bd d6 7b 20 3e
       -0.13911197 0.16362385 -0.058385357 0.1567224
000360 61 20 0a 3d c9 08 a4 bd ca e4 fb 3c ef 39 01 3c
       0.033722285 -0.08009488 0.030748744 0.007887348
000370 89 d5 b6 bd 6a e0 04 3d 3f 7e 40 3d 9b 03 ea bd
       -0.08927447 0.03244058 0.046995398 -0.11426469
000380 5c bd 0a 3e 8f 34 ef bd d8 9e 20 be 31 8b 33 be
       0.13548797 -0.11679947 -0.15685594 -0.17533566
000390 ef 5c 3e bd 1f 20 e9 bd 5e 38 87 bd a4 1a 2c 3a
       -0.046475347 -0.1138308 -0.06602548 0.0006565249
0003a0 a2 a3 11 be 90 8a 91 bc 38 bd 14 3e b0 4f 3e bd
       -0.14222577 -0.017766267 0.14525306 -0.046462715
0003b0 52 d3 f4 3d 26 fb f3 3d 4d 61 14 3e 79 41 c1 bd
       0.11954369 0.11913137 0.14490242 -0.09436316
0003c0 fa f3 42 3d b1 7f 74 3d 48 b6 f4 3b 4e 2a 29 3e
       0.047595955 0.05969209 0.0074680187 0.16520044
0003d0 0b d0 1b 3e 64 6d 01 be ad d2 e9 3d 53 70 45 bd
       0.15216081 -0.12639385 0.11417136 -0.048202824
0003e0 aa fd 9e bd f0 c6 df bd c3 52 0b be 8e 28 29 3e
       -0.07763226 -0.10926616 -0.1360579 0.16519377
0003f0 59 f7 a7 bd d6 ac a0 3c 81 8f a8 bc a5 fc a9 3d
       -0.08201475 0.019613665 -0.02057624 0.08300141

recurrent.conv_x_z.V.bias f4 [32]
000000 d6 4f 11 bd 73 b3 57 3d 60 22 0b 3e c7 d1 0a 3e
       -0.035476528 0.05266137 0.13587332 0.13556586
000010 3c 7d 16 be 36 83 f9 bc fc 7f 34 be fb c4 dc 3d
       -0.1469621 -0.030458074 -0.17626947 0.107797585
000020 ac 4c b5 bd a8 99 7f 3d 5c 52 82 bb dc d1 92 3d
       -0.088525146 0.062402397 -0.003977103 0.07168934
000030 0a f1 b3 bd e4 9d 54 bd 8b cd 6f 3d b0 3f 08 be
       -0.08786209 -0.05190839 0.05854563 -0.13305545
000040 10 b5 e4 3d 94 23 5f bd 96 f5 be 3d 9b 60 14 3d
       0.111673474 -0.05447729 0.093241856 0.036224943
000050 b1 3d 93 bd d2 30 1f 3e b9 db b6 3c 0e 6f ff 3d
       -0.07189501 0.15545967 0.022321569 0.12472354
000060 f8 25 02 3e eb 31 36 bd 8a b2 ed 3d de 1b b2 bd
       0.12709796 -0.0444812 0.11606319 -0.086967215
000070 bd ba 42 bd df e0 4f bd b9 7a 8b bd 00 89 8d bd
       -0.04754137 -0.050751563 -0.06810517 -0.06910896

recurrent.conv_x_z.ffn.weight f4 [32, 32]
000000 2c 61 a3 3b 2f f9 2a be 82 90 fb bd 5f 73 2c be
       0.004985949 -0.16696618 -0.12283422 -0.16840886
000010 16 e7 c1 bd b8 14 0c be 0a e9 37 3d da 3e ac bc
       -0.09467904 -0.13679779 0.044899978 -0.021026064
000020 9a 61 fe 3b 83 d6 02 be 61 87 01 3e eb fe 5d bd
       0.0077631 -0.12777142 0.12649299 -0.054198187
000030 2f 31 ab 3d 8f 90 1b be 56 49 9b bd 2b a9 ae bd
       0.083589904 -0.15191863 -0.07582347 -0.0852836
000040 12 72 16 be 03 23 f3 3c d8 b6 f0 3d a5 d4 24 3e
       -0.14691952 0.02967978 0.11753625 0.16096742
000050 d9 76 2d be c6 35 0f 3e 0b 3f 02 3e b5 06 1e bd
       -0.16939868 0.13985357 0.12719361 -0.038580615
000060 02 7b 17 be cb 18 e1 3d 35 ee d0 3d 62 87 62 3d
       -0.14793018 0.10991057 0.102016844 0.055304892
000070 79 a2 f2 bd 88 a4 02 be 2e c2 9d 3c 6c af dd bd
       -0.118473954 -0.12758076 0.019257631 -0.10824475
000080 4d 06 35 be b8 78 0e be a2 13 15 3d 18 8e 7e bd
       -0.17678185 -0.13913238 0.036395676 -0.06214723
000090 63 db 73 ba a1 01 1f bc 17 b0 31 3d 77 49 c0 bd
       -0.00093024055 -0.009704978 0.043380823 -0.09389012
0000a0 f4 a1 c9 3d e9 db c7 bd b8 e6 e1 3d cf 57 f1 bd
       0.09845343 -0.097587414 0.11030334 -0.11784326
0000b0 c2 fe 03 bd b7 5a 22 3e 52 07 82 3d 0e 36 c3 bd
       -0.032225378 0.15854917 0.063490525 -0.095317945
0000c0 6d f2 d8 3c d5 9a 9b 3d bf 75 07 3d 2c 41 7e 3b
       0.026482785 0.07597891 0.033071276 0.003879617
0000d0 fc b9 29 bc 74 d6 93 bd 88 df cc 3d 16 84 91 3d
       -0.010359284 -0.07218638 0.10003573 0.071052715
0000e0 84 05 dc 3d 82 2b c3 3d c9 81 0c bd 0a 25 77 bc
       0.107432395 0.09529783 -0.03430346 -0.015084514
0000f0 b5 60 e1 3d 08 64 d7 3d 85 23 08 3d d0 ca 95 bd
       0.110047735 0.10517126 0.033237 -0.07314074
000100 fb 62 19 be 49 00 20 3e 26 58 13 be 70 2e 19 3d
       -0.14979164 0.15625109 -0.14389095 0.037397802
000110 da f8 09 be 4f 51 17 3e 5e e1 5f bd 0a 00 4b bd
       -0.13473836 0.1477711 -0.054658286 -0.049560584
000120 fb ec bd 3d f7 e4 38 bd c2 6b df 3d 95 fd 03 ba
       0.09273716 -0.045140233 0.10909225 -0.000503504
000130 8e d9 1b be 7f 9c 31 bd 43 83 29 3e 7a b4 99 3c
       -0.1521971 -0.043362137 0.16553979 0.018762816
000140 0b 08 20 be 07 84 6c bd 2b 06 16 be bb 27 bd bb
       -0.15628068 -0.0577431 -0.1465079 -0.0057725585
000150 a0 ed 0a be fe 41 9e bd b7 4e 33 be db 16 03 bd
       -0.13567209 -0.07727431 -0.17510496 -0.03200422
000160 a2 5e f3 bd a6 63 25 be 92 2c 11 3d 27 fd e8 39
       -0.11883284 -0.16151294 0.035442896 0.00044439101
000170 ae 13 09 3e 58 c2 16 3e b3 2d 2d be 07 56 2e 3d
       0.13386413 0.14722574 -0.16911964 0.04256251
000180 8b e6 85 bd fe 8b 0f bc 28 71 98 bd eb a5 34 bc
       -0.06538113 -0.008761404 -0.07443458 -0.011025886
000190 68 41 d4 bd 30 f7 1e 39 78 7c 06 3d 02 8d 3c bc
       -0.10364038 0.00015160139 0.032833546 -0.011508228
0001a0 5c b3 a5 bd ff 4c 1e be 28 4b 0b 3c 47 bf 29 3d
       -0.08090851 -0.15459059 0.008501805 0.041442182
0001b0 7d b1 97 3d 16 f2 0c bd 63 7d ff 3d cd b8 88 3d
       0.074069 -0.03441056 0.124750875 0.06675873
0001c0 46 07 1b 3e 8c d1 28 be 3a b5 1f be 0d b8 70 bd
       0.15139493 -0.16486186 -0.15596476 -0.058769275
0001d0 79 87 24 3e c0 9a 22 be ac 04 8d 3d 10 3a 88 3d
       0.16067304 -0.15879345 0.06885657 0.066516995
0001e0 ae 86 e7 bd a4 05 08 be 0a 5c cb 3d 67 72 28 3e
       -0.11304985 -0.13283402 0.099296644 0.16449891
0001f0 fa 5e b3 3d ee 96 23 3c 3e a9 48 bd 1f e7 34 3e
       0.0875835 0.009984715 -0.048989527 0.1766629
000200 0a b2 a4 3d 8e d1 c2 bc 7a 83 e8 3d 12 28 5f 3b
       0.08041771 -0.023781564 0.11353202 0.0034050983
000210 19 a5 31 3e ee c1 f1 bd 19 af 28 3d 8d f7 d6 3b
       0.17348136 -0.11804567 0.04118261 0.006560272
000220 4c 3a fe 3d 3e bf df bd a2 17 44 3d 51 e8 f1 bc
       0.12413463 -0.109251484 0.0478741 -0.029529722
000230 9e cc cd 3d 79 1a e2 3d 44 fe 07 bc b6 9c 95 bd
       0.10048793 0.110402055 -0.008300368 -0.07305281
000240 4a 1a 52 bd 32 63 e4 3d f7 05 2a be 45 76 4b bd
       -0.051294602 0.111517325 -0.16603838 -0.049673337
000250 13 8d 64 3d 04 55 46 3d 0f e3 2d bc 91 5b e3 3d
       0.0557986 0.04842092 -0.010613217 0.11101449
000260 92 0f 18 3e bf 5a 60 3d b8 98 1a 3e 91 fd 1a be
       0.1484969 0.054774042 0.1509732 -0.1513579
000270 15 6b c7 bd 2a fd 6e 3d c1 d8 c8 3c 64 1e 20 be
       -0.09737221 0.058346905 0.024517419 -0.15636593
000280 40 8b 13 3e d9 9d 0d be 77 7d 33 3b f0 87 23 be
       0.14408588 -0.13829745 0.0027388015 -0.15969825
000290 06 65 18 be 9d 46 0e bc 84 8f f4 3d 27 da db 3b
       -0.14882287 -0.008683828 0.11941436 0.0067093554
0002a0 83 cd 0f be a0 94 c5 bd aa f9 1b 3d cb aa 31 3e
       -0.1404324 -0.096474886 0.038079895 0.17350309
0002b0 aa 41 40 3d 1f 0b ec bd 97 26 05 3e 17 04 d0 3d
       0.046937622 -0.11525559 0.13003002 0.1015703
0002c0 60 a2 02 be 61 ea 13 3e 2f 1f 22 bc ec 80 64 3b
       -0.12757254 0.14444877 -0.00989513 0.0034866882
0002d0 5c 17 87 3c df a2 8e bd e1 34 1d be da 85 8b 3d
       0.01649063 -0.06964659 -0.15352203 0.068126395
0002e0 43 f5 06 bd a7 dc 23 3d 27 e5 cb bc 00 a0 a9 bd
       -0.032948744 0.040005352 -0.024889542 -0.08282471
0002f0 ee 08 74 3d dc 90 cb 3c fc 6a 8b bd 0a 5a d9 bd
       0.05957883 0.024849348 -0.06807515 -0.10612877
000300 cf b0 22 be 2f 04 bb 3c 65 3d 12 3d 34 89 49 bd
       -0.1588776 0.022829143 0.03570308 -0.049203113
000310 37 97 f1 bd cf ce b3 bd cc 76 06 3e 60 d8 92 bd
       -0.1179642 -0.0877968 0.13131255 -0.071701765
000320 b7 52 06 3d 28 18 e0 3d 9c 61 f7 3c 58 64 f3 3d
       0.032793727 0.109421074 0.030197911 0.118843734
000330 d3 1f 99 3d d3 be 5e bd 1b 65 84 3d b4 14 b6 bd
       0.07476773 -0.054381203 0.06464597 -0.088906676
000340 8d b5 4a 3b 3d 74 cb 3d 8e f6 65 3d 0c 2a 79 bd
       0.0030930967 0.0993428 0.056143336 -0.060831115
000350 32 b8 8b 3d f0 d3 ec bd 61 8c 28 be 1f a5 9c 3b
       0.06822242 -0.11563861 -0.164598 0.004780426
000360 b4 94 98 3d 08 9c 18 be 71 ce 39 bc 0b 42 00 be
       0.07450238 -0.14903271 -0.011340723 -0.12525193
000370 51 a6 39 3d 78 6b 01 be dd 69 97 3d 7e 28 ce bd
       0.045324627 -0.12638652 0.07393239 -0.10066317
000380 1f 41 0a 3e 84 2f 18 3d 83 09 18 be 15 83 38 3e
       0.13501404 0.03715469 -0.14847378 0.18018754
000390 9b ac 0f 3d 49 6f 01 3d fc ff 9b 3d b2 12 09 be
       0.03507672 0.03160027 0.076171845 -0.13386038
0003a0 e7 c9 24 be 47 24 86 3b d7 72 36 3e 03 ae 73 bd
       -0.16092645 0.00409368 0.17817245 -0.059492122
0003b0 bc 3a c8 3d 82 74 b1 bd 96 6d aa 3d 97 83 d8 3c
       0.09776828 -0.086648 0.08321683 0.026429934
0003c0 58 3f 09 bd 2f 5a 1d bd 9f 7e f5 bd 79 7f f3 bc
       -0.033507675 -0.038416084 -0.11987042 -0.02972387
0003d0 0d 72 ea 3d 93 8f ae 3c 3d d6 0e be e7 91 fc bc
       0.11447535 0.021308696 -0.13948913 -0.03083129
0003e0 97 a3 02 3e 3c fd 13 3d 0a e3 14 3e 05 e1 ef 3d
       0.12757717 0.036130175 0.14539734 0.11712841
0003f0 8f e4 39 bd fd 9b f8 3d 21 34 1d be 4e 1e 27 bb
       -0.045383986 0.121391274 -0.15351917 -0.002550024

recurrent.conv_x_z.ffn.bias f4 [32]
000000 f7 34 39 3d 6d c3 c8 3c 9a c0 59 3d ee ca e3 3d
       0.045216527 0.024507249 0.053162195 0.1112269
000010 c5 d5 38 3d 22 e3 47 3b c8 2b 2a 3e 62 b2 af bd
       0.04512574 0.0030500372 0.16618264 -0.08578946
000020 70 1b 2b be 7f cd 3b be ca 21 fe bd 1b d9 02 bd
       -0.16709685 -0.1834011 -0.124087885 -0.03194533
000030 d6 57 96 bd ce 4c 9b bd 96 0d b3 3d a1 f9 29 3e
       -0.07340972 -0.07583009 0.08742826 0.16599132
000040 b7 a5 e4 3c 25 2b af bd b4 ee 57 3a 1e 7c e7 bc
       0.02791105 -0.08553151 0.00082371687 -0.028257426
000050 a3 e5 10 be 7f ce f5 bd bd e8 90 bd 57 71 50 bd
       -0.141501 -0.12002277 -0.07075641 -0.05088934
000060 0d bb ec bd 94 d9 87 3d cb 05 8f bd a4 c4 59 bd
       -0.115591146 0.066332966 -0.06983527 -0.053166047
000070 ee 39 c3 bc 24 f0 51 3d b3 47 2c be 7b db d2 bd
       -0.023831334 0.051254407 -0.16824226 -0.10295769

recurrent.conv_x_z.ln.weight f4 [32]
000000 bf 21 80 3f 81 f4 80 3f 3d fb 7f 3f 28 cb 81 3f
       1.0010298 1.0074617 0.99992734 1.0140123
000010 90 f9 7f 3f da 72 7d 3f f5 8d 82 3f 0d d0 7d 3f
       0.9999018 0.99003375 1.0199572 0.99145585
000020 1a ce 80 3f 5a 45 7f 3f f9 5d 7a 3f a1 42 80 3f
       1.0062897 0.997152 0.9779964 1.0020334
000030 c9 4a 80 3f f3 f5 7e 3f a2 0b 80 3f 8d 16 82 3f
       1.0022823 0.9959404 1.000355 1.0163132
000040 f1 f8 7e 3f cc 54 81 3f 6f 1c 7f 3f d1 2c 7d 3f
       0.99598604 1.0104003 0.9965276 0.9889651
000050 46 ac 7d 3f 27 18 80 3f a9 2b 80 3f 80 ad 7f 3f
       0.99090993 1.0007371 1.0013324 0.99874115
000060 8d 30 81 3f 87 d9 7e 3f b2 f3 80 3f ff d3 7f 3f
       1.0092942 0.9955067 1.007437 0.99932855
000070 28 0f 81 3f 2d f0 80 3f 50 50 81 3f 32 3a 7c 3f
       1.008275 1.0073296 1.0102634 0.985263

recurrent.conv_x_r.lambda_q1 f4 [32]
000000 6b cd 80 bd a9 e8 a5 3c be aa cc bd f7 67 ce bd
       -0.0628918 0.020252543 -0.09993504 -0.100784235
000010 d8 a8 f3 bd 60 93 ba bc f7 cf 68 3e 25 2c 1d 3d
       -0.11897439 -0.022775352 0.22735582 0.038372178
000020 50 8a 60 bd 83 64 c7 bd db 7d 10 3c bb 46 85 bd
       -0.054819405 -0.09735968 0.008819069 -0.065076314
000030 73 6e aa bd 0b 54 33 3e 1e c1 0e be 7e 2f 85 3d
       -0.08321848 0.17512529 -0.13940856 0.06503199
000040 7b 01 04 bc 0a 16 1c be bb 5f 81 3b a6 88 01 be
       -0.008056994 -0.15242782 0.0039481795 -0.12649783
000050 47 fb fa bd bf 8a e5 bb c9 e5 12 ba 19 b0 a2 3d
       -0.122549586 -0.007005065 -0.00056036987 0.07943744
000060 1b 67 92 bd 9f f0 a0 bd 8a 94 d4 3c 90 9a cd bc
       -0.07148572 -0.07858395 0.025949735 -0.025098115
000070 82 12 e6 3c bf 32 bb 3d 6a ac 06 3d 22 16 c7 3d
       0.028084997 0.091405384 0.03287927 0.097210184

recurrent.conv_x_r.lambda_k1 f4 [32]
000000 d4 8d 84 3d 42 c1 db 3d a7 32 c9 3d b7 1d 91 bd
       0.06472364 0.107302204 0.09824114 -0.07085746
000010 8a aa b1 3d 2d 5d 24 be b3 a2 c7 3c bd 10 43 3e
       0.08675106 -0.16051169 0.024369573 0.19049354
000020 b6 eb b8 bd d3 77 ed 3d 63 29 4c bc 70 bb 13 bc
       -0.09029333 0.1159512 -0.012461039 -0.009016857
000030 17 a4 c1 3b 88 46 b2 bb 15 6c 59 3e 3d 61 d8 3c
       0.0059094536 -0.005440537 0.21232636 0.026413554
000040 9f 75 c3 bd c0 fd 51 bd 7d 93 0c 3e 43 0c 30 be
       -0.09543919 -0.051267385 0.13728137 -0.17192177
000050 32 7b 0b 3e 45 fd da 3d 70 5f f2 bd 19 99 c2 bc
       0.13621214 0.106928386 -0.118346095 -0.023754643
000060 f0 d1 26 be b0 82 0f be 2b de 86 bd 14 55 a2 bd
       -0.16291022 -0.14014697 -0.06585344 -0.079263836
000070 1b 44 97 bd bb 1f 54 3c 7f 80 61 bd 15 8f 99 3d
       -0.07386037 0.012947018 -0.055054184 0.07497994

recurrent.conv_x_r.lambda_q2 f4 [32]
000000 2d be 03 3d 5b c9 60 bd 5d 7b 5d bd 5f f6 05 bd
       0.032163788 -0.054879528 -0.054072727 -0.03270566
000010 03 47 44 bb 9e 3a bd bd 6b e3 ca bc 80 22 e7 3c
       -0.0029949553 -0.09239696 -0.024766644 0.028214693
000020 3f 12 8e 3c 61 4b 32 bd 98 d1 df 3d ff 06 f4 3d
       0.017342685 -0.04352892 0.10928649 0.11915397
000030 32 8d 89 3d b4 12 82 be c7 1d fc bc 98 61 bc bc
       0.06716384 -0.25404894 -0.030775918 -0.022995755
000040 9a 46 07 bd ab 14 fc 3c f2 11 62 bd 96 1e a8 3c
       -0.033026315 0.030771574 -0.055192895 0.020522397
000050 ad 64 dd bd ba c1 71 3d 65 72 ce bc ba b3 74 3d
       -0.10810218 0.059022643 -0.025201032 0.059741713
000060 7b bb bb bd 87 ae 2b 3d 09 12 95 bd df 27 10 be
       -0.091666184 0.04191449 -0.072788306 -0.1407771
000070 55 fb a2 bd 90 13 65 3d a0 86 00 3e 6e 28 42 3d
       -0.07958094 0.05592686 0.12551355 0.047401838

recurrent.conv_x_r.lambda_k2 f4 [32]
000000 50 33 3a 3d 45 34 d7 bc f3 92 2e 3a b7 ac aa 3d
       0.04545909 -0.026270041 0.00066594704 0.08333724
000010 59 92 06 bd 64 6e 80 bd ab 16 92 3d 4b 70 e1 bd
       -0.03285441 -0.06271055 0.0713323 -0.11007746
000020 76 6c bd 3c f8 73 4e be 6d 47 14 3e 77 39 3f be
       0.023123007 -0.20161426 0.14480372 -0.18674265
000030 65 05 0c b9 1d 6d 5f 3e bf ae 7e be b2 96 6d be
       -0.0001335345 0.21818967 -0.24871348 -0.23202017
000040 50 da 62 be 37 db 20 3e 28 79 cd 3d 2a e8 50 3d
       -0.22153592 0.15708624 0.10032874 0.05100266
000050 71 0d c1 bd a0 a5 87 3e 8a 35 ac bd 76 1b 08 bc
       -0.09426392 0.2649355 -0.08408649 -0.008307328
000060 23 35 f8 bd c2 73 3d bd cd 2a 46 bc be 5c 0c 3d
       -0.1211951 -0.046252973 -0.012095165 0.034268133
000070 c8 46 39 be f5 65 f9 3d eb 93 0f bb 67 9a 89 bd
       -0.18093407 0.1217765 -0.0021908234 -0.06718903

recurrent.conv_x_r.Q.weight f4 [32, 36]
000000 86 7b 34 bd 30 c0 d0 bd 13 fb 9e 3d 83 62 d7 bd
       -0.044063114 -0.10192907 0.07762732 -0.105168365
000010 1b 9a e9 bd ab 90 12 be 30 8d 2e bd e0 3f 03 3d
       -0.114063464 -0.14312999 -0.042615116 0.032043338
000020 d8 c3 05 be cb 1c 51 3d 2b 99 6b 3d 1f b8 0c 3e
       -0.1306299 0.05105285 0.05751912 0.13742112
000030 26 e6 d6 3d da 31 29 3e 8e bc 8c 3d ac ec 12 be
       0.10493116 0.16522923 0.068719015 -0.14348096
000040 cb d2 81 bd 88 1d 25 be ea bf 21 3e 5b 86 05 3e
       -0.06339034 -0.16124547 0.15795866 0.13039534
000050 06 e6 51 3d 40 c5 91 3d 16 57 0b 3d 1f fa 03 be
       0.051244758 0.071177006 0.0340186 -0.12888382
000060 f8 2f 04 3e 46 25 28 3d 80 5e 13 3e eb 96 04 bd
       0.12908924 0.04105117 0.14391518 -0.03237049
000070 0b 3d 5e bd 48 47 ba 3d 20 42 84 bd b6 b3 d6 bd
       -0.054257434 0.09095627 -0.06457925 -0.10483496
000080 23 35 f4 bd 20 9f a4 3c d6 62 e5 3b 4b bb 9e bc
       -0.119241975 0.020095408 0.0070003076 -0.019376418
000090 ee c9 d0 3d 86 a1 18 3e cb 3b 2e bd 2b 4e 2f 3d
       0.10194765 0.14905366 -0.04253749 0.042799156
0000a0 8b c5 24 3d 33 c3 16 be f3 0d c0 3d 0b 72 cc bd
       0.040227454 -0.147229 0.093776606 -0.099826895
0000b0 ab 98 df 3d 96 37 cd bd c0 98 e2 bd d6 73 da 3c
       0.10917791 -0.10020368 -0.11064291 0.026666563
0000c0 e8 ae f3 3d c0 77 0f 3e c0 56 3e bc 68 91 cf bd
       0.11898595 0.14010525 -0.0116173625 -0.10135156
0000d0 eb 97 36 3d 83 78 d5 3d 08 c3 a0 3d 00 79 13 bb
       0.044578474 0.104233764 0.07849699 -0.0022502542
0000e0 9b 5b 5b bd c0 13 fd bd 16 04 5d 3d 9f b3 09 be
       -0.05355416 -0.12357283 0.053958975 -0.13447426
0000f0 ee 89 8c 3d 5e b6 9d 3d 3b 30 11 be 3c 60 01 be
       0.068622455 0.077007994 -0.14178555 -0.12634367
000100 2b 19 34 bc 8a cd 06 3e da e6 03 be 28 f8 da bd
       -0.010992329 0.13164344 -0.12881032 -0.10691863
000110 7e ed d3 3d f8 54 13 3e e0 8c b0 bc d0 39 64 3d
       0.103480324 0.14387882 -0.02155155 0.055719197
000120 eb 6a f9 bd 78 78 e8 3d e8 fc fc bd 70 c6 9a 3d
       -0.12178596 0.113511026 -0.123529255 0.0755738
000130 50 b5 6d bd 26 6b b4 3d 50 63 ca bd 40 b6 de 3c
       -0.05803424 0.088094994 -0.098822236 0.027186513
000140 00 7e ad ba f3 92 28 3e 7e 04 ea bd dc a4 1c 3e
       -0.0013236403 0.16462307 -0.11426638 0.15297264
000150 5e 98 d6 bd 40 9c 7d bc 63 9c c9 bd 2b 9c d4 3b
       -0.104782805 -0.015479147 -0.098442815 0.0064883432
000160 0e a0 c8 3d 4b 48 be bc 02 f4 17 3e 76 ca 04 3e
       0.09796153 -0.023227831 0.14839175 0.12967858
000170 be 10 98 bd 20 37 be 3c 68 7d a5 bd 5b 03 5c bd
       -0.07425068 0.023219645 -0.0808056 -0.053714138
000180 1e be b7 3d db 18 15 bd 8e 24 ee bd c0 44 09 3d
       0.08971809 -0.036400657 -0.11628066 0.03351283
000190 23 08 e9 bd 20 6b 12 3e 9e ab 82 3d 6b 4c be 3d
       -0.11378505 0.14298677 0.0638039 0.09291919
0001a0 a3 39 85 bd 96 04 64 3c 97 6f 11 3e db eb 4a bd
       -0.06505134 0.013917109 0.14202724 -0.049541336
0001b0 c3 7c b5 3d 0b 5f 86 3c 8b ed e4 bc 17 c1 1c be
       0.08861687 0.016402742 -0.0279453 -0.15308033
0001c0 98 3a ae 3d 7b da b9 bd 7c f8 1b 3e 03 0e 23 3e
       0.085072696 -0.09074875 0.15231508 0.15923314
0001d0 d0 c8 86 bd ab 5b 47 3d 48 0d d8 bd 88 96 af 3d
       -0.06581271 0.048671406 -0.10549408 0.085736334
0001e0 76 a2 b3 bc cb 6c ac 3c cb 51 4a 3d 26 6a f6 bd
       -0.021928053 0.02104797 0.04939441 -0.12031965
0001f0 ab 28 f2 3b 16 03 ac bc db 77 af bd 6e 11 a8 3d
       0.007390102 -0.020997565 -0.085677825 0.082064494
000200 23 ae d6 3d 96 4e 0e be 36 ae 5a bd fe 4b 87 3d
       0.10482433 -0.13897166 -0.053388797 0.06606291
000210 fe 22 cb 3d cb 71 e2 3c 2b 76 68 3d cb 98 9f bd
       0.099187836 0.027642151 0.05675332 -0.07792815
000220 ef 65 22 3e ab ee cb bb 48 53 bd 3d 78 53 14 be
       0.15859197 -0.00622352 0.092444 -0.14484966
000230 d8 a1 ec bd ab 12 3b bc 56 7f 9d bb 5a 5b 12 3e
       -0.11554307 -0.011418025 -0.0048064394 0.1429266
000240 ee 5e a2 3d cb a2 5a bd b6 07 b1 3c 70 99 14 be
       0.07928263 -0.053377908 0.021610122 -0.14511657
000250 db b6 ff bd de 25 e2 3d 36 a8 6c bd 96 e5 71 3d
       -0.12486049 0.11042379 -0.057777606 0.05905684
000260 7e 77 0c 3e e3 ab f1 3d 8f 77 16 3e 08 45 13 3e
       0.13717458 0.11800363 0.14694045 0.14381802
000270 33 e0 fd 3d 68 7e e2 bd 60 72 26 bd 00 73 bb 3c
       0.12396278 -0.11059266 -0.04063642 0.022881985
000280 c0 0b 61 3d 00 56 e2 3d 48 78 06 be ce 75 c7 3d
       0.054942846 0.110515594 -0.13131821 0.09739266
000290 30 08 ed 3d 13 a1 f2 bd 37 eb 09 be c7 89 1b be
       0.11573827 -0.11847129 -0.13468634 -0.15189277
0002a0 80 6f 5b 3d c6 05 4e 3d 9a 3b 0a 3e b0 32 73 bd
       0.05357313 0.050298475 0.13499299 -0.05937451
0002b0 ce c8 12 be d0 60 66 3d a0 34 18 be 6f 52 21 be
       -0.14334413 0.05624467 -0.14863825 -0.15754102
0002c0 56 91 1a 3c 8e a9 11 3e 4b 95 57 3d 28 0c c3 bd
       0.009434065 0.14224836 0.05263261 -0.09523803
0002d0 7b 79 f4 bd 2b 5f a4 3c 2b 04 f1 3b ab aa 09 bc
       -0.11937233 0.02006491 0.007355233 -0.008402507
0002e0 2b 2e 1d be f4 8f 10 3e fb 47 c4 bd de 1f ab bd
       -0.15349643 0.14117414 -0.09584042 -0.083556876
0002f0 77 db 0d 3e 2b 6d 80 3c e3 56 d5 3d e8 f1 87 bd
       0.1385325 0.015677055 0.10416963 -0.06637937
000300 8e a1 09 be 36 d1 ec bc c8 21 ce 3d 6e 8d e9 bd
       -0.13440534 -0.028908353 0.10065037 -0.11403929
000310 a0 c6 bb bd 13 f2 28 3e c3 98 0d be 56 44 d4 bb
       -0.09168744 0.16498594 -0.13827805 -0.006477873
000320 db 84 b2 bd 56 09 6f 3a 56 df ff ba 00 65 4f 3b
       -0.087167464 0.00091185176 -0.0019521515 0.0031645894
000330 90 42 8d 3d cc c2 20 be 73 3c 0d 3e 6a 60 1d be
       0.068974614 -0.15699309 0.13792591 -0.1536881
000340 f0 dc 47 3d 96 58 57 bc c3 1e ad 3d a6 c5 77 bd
       0.048794687 -0.013143679 0.08453133 -0.060491227
000350 d3 cc f4 3d 6b 4b 4b 3d c6 af 45 bd fe 41 d0 3d
       0.119531296 0.04963247 -0.048263334 0.10168837
000360 cb 1d f6 bc cb 89 e5 3d f6 3b 26 be 56 d9 9b 3d
       -0.030043503 0.112079225 -0.16233811 0.07609813
000370 36 62 13 3e 13 14 c8 3d 53 69 c5 3d 4b 86 4b 3d
       0.14392933 0.09769454 0.096392296 0.04968862
000380 40 db ea 3c 8b 53 46 bd c6 da 04 3e 00 78 01 bc
       0.028669 -0.048419517 0.1297408 -0.007902145
000390 2a b2 1f be 36 04 44 bd 36 7e ea 3d ab 11 76 3d
       -0.15595308 -0.04785558 0.11449854 0.060075443
0003a0 c0 0a e8 3d 38 83 1e be c0 76 ca bd ac 75 00 be
       0.113301754 -0.15479743 -0.09885931 -0.12544888
0003b0 80 c4 a6 bb ab 6e 71 bc 0b 28 99 3d e3 5b e5 bd
       -0.0050893426 -0.014735858 0.07478341 -0.111991666
0003c0 8b 22 d8 bc 4b d3 75 bd ae d3 b8 3d 6b fe b4 bd
       -0.026383659 -0.060015958 0.0902475 -0.08837589
0003d0 93 00 29 be 56 19 79 bc 1b 85 4e bd 46 09 2e bd
       -0.16504125 -0.015203794 -0.050419908 -0.042489313
0003e0 ae b4 97 3d 4b 64 c5 3c 66 21 06 3d 8e 27 c2 bd
       0.07407509 0.024095675 0.032746695 -0.09480201
0003f0 e8 08 96 bd a0 eb c8 3c 3e e2 1b 3e 48 e2 dc bd
       -0.073259175 0.024526417 0.15223023 -0.10785347

recurrent.conv_x_r.Q.bias f4 [32]
000000 8e c7 fe 3d 2b d0 8f 3c f0 b0 f8 3d ab 7e 51 bc
       0.12440406 0.017555317 0.12143123 -0.012786548
000010 60 0a b8 3d 4c 32 13 be 8b 42 42 3d c0 0c 86 3d
       0.08986354 -0.14374655 0.04742674 0.065454006
000020 8b 22 41 3d ab ab ac 3b a8 4a 09 3e e2 59 06 3e
       0.047152083 0.005269488 0.13407385 0.13120225
000030 8b 68 8f 3d f0 4e 2d bd 4b 69 be 3d 78 0c 19 be
       0.07002362 -0.04231161 0.09297427 -0.14946163
000040 54 91 20 be e4 17 0f be a6 6b 2b bd 13 39 a8 3d
       -0.15680438 -0.13973957 -0.04185071 0.08214011
000050 46 38 52 bd ab 44 e3 3d e0 7f 90 bc 87 54 02 3e
       -0.051323198 0.11097082 -0.0176391 0.12727557
000060 56 68 c1 bd b0 d7 50 3d cb 79 e2 bd 28 c5 c3 3d
       -0.094437286 0.050986946 -0.110583864 0.09559089
000070 5b fd 82 bd ab 9c de 3b 76 7b 4d 3d a0 bd da 3c
       -0.0639598 0.0067935786 0.05016657 0.026701748
