DGRNN_mi_global_best_model.pth (torch, 71794 bytes, 40 tensors)

recurrent.conv_x_z.lambda_q1 f4 [32]
00000000: a7aa 1bbc 5961 c23d 9a96 86bd e6fc 873c
00000010: 23f7 2e3d 9984 2abe 7ebb 5a3d d1f6 c73d
00000020: 2706 8d3c d7d6 e4bc 9b7d 8e3d cd16 9bbc
00000030: d7aa eebd 1978 5bbd 7ba0 16bd 6ed0 b2bd
00000040: 2269 283d 634f a53d d6ad 05be e0c9 473d
00000050: 9b10 443c 2383 ec3d 1e4b 3b3d 3e61 8d3d
00000060: f8b5 e43c c27d 83bc cdf6 02bd 6efc d4bc
00000070: 1560 b1bd 4a5f 53be b259 a13c 9a0a d3bc
-0.009501136 0.09491224 -0.06571694 0.016600084 0.042716157 -0.16652144 0.053401463 0.09763873
0.017214848 -0.027934475 0.06957551 -0.01893177 -0.11653679 -0.05358133 -0.03677414 -0.08731161
0.041115887 0.080717824 -0.13054594 0.048776507 0.01196685 0.1154845 0.045725934 0.06903313
0.0279188 -0.016051177 -0.03197365 -0.025999274 -0.08660904 -0.20641819 0.01969609 -0.025761891

recurrent.conv_x_z.lambda_k1 f4 [32]
00000000: b09c 2dbe 11ab a4bc 84ff 343e b79c d0bc
00000010: 7fd9 b3bc 873b 45bd 67cb 02bd a898 553d
00000020: 4805 75be bdf3 d03c d7d5 033e 74e2 c5bd
00000030: 211d d83d 6b21 cdb9 1415 92bd e064 51bb
00000040: b4be d33d 270f a03d 56a0 92bd 1223 0e3c
00000050: 7264 cabd c6e5 e43d a967 8dbd ef6b 243e
00000060: d56d 6cbe f713 18be 4112 8b3c 3565 a43d
00000070: eb66 18be 32d0 3fbd 9d16 f13a 8d86 16be
-0.16954303 -0.020101102 0.17675596 -0.025465352 -0.021954296 -0.048152473 -0.03193226 0.052147537
-0.23927796 0.025506848 0.12874542 -0.09662333 0.10552431 -0.00039125545 -0.071329266 -0.0031950995
0.10339108 0.0781539 -0.07159488 0.008675354 -0.0988244 0.11176638 -0.06904537 0.16056798
-0.23088773 -0.14851366 0.016976478 0.08027116 -0.1488301 -0.04682941 0.001839358 -0.14699765

recurrent.conv_x_z.lambda_q2 f4 [32]
00000000: 0351 86bb 6180 753e 3660 18be 3658 f6bd
00000010: 0c02 1d3e db7d 50bd 033a 91bd bd0e aabd
00000020: e3b3 1cbd ccca 95bd d167 a9bd d42f 98bc
00000030: 4b59 873d cd16 50bd 3488 1cbe ddec 26bd
00000040: 7fcd b33d d7d4 a2bd ee1e 3cbe 3b63 223d
00000050: 6c0b 4bbd 629c f0bc 92e3 143d 9270 31be
00000060: 92cd 2d3d 83dc 59be 6e22 7ab9 18b5 ce3d
00000070: cf22 95bd 79e1 973d f26c 4cbe a29e fbbb
-0.004099013 0.23974754 -0.14880452 -0.12028544 0.15332812 -0.050901275 -0.07091143 -0.08303592
-0.03825749 -0.07314071 -0.082717545 -0.018577494 0.06608828 -0.050802995 -0.15286332 -0.040753234
0.0877943 -0.07950752 -0.18371174 0.039645415 -0.04957144 -0.029371444 0.03634984 -0.17328098
0.042432375 -0.21275525 -0.00023854684 0.10093135 -0.0728203 0.07416052 -0.19963434 -0.0076788226

recurrent.conv_x_z.lambda_k2 f4 [32]
00000000: 94a4 953c ac40 493d 7995 f2bd ab16 9bbe
00000010: 521d 68be 7a6a 8fbd 93df f83b eff3 773c
00000020: d5fe 78bd 91f2 3abc 4848 9dbd 574b 90bc
00000030: d036 cd3c de24 883d f05a 3ebe 23cc b3bd
00000040: bba5 1e3d f129 5fbe 3ee2 953d 9b9f bb3d
00000050: 5483 2cbd 7fed 4c3e da0a 42be 9372 783d
00000060: f66c 04be 7fe2 b5bc a906 b3b8 dc80 c9bd
00000070: 343b a4bb 10ba c5bc 1355 423e 360c 563d
0.018266954 0.04913394 -0.11844916 -0.30290732 -0.22667435 -0.07002731 0.0075950115 0.015133842
-0.0607899 -0.011410371 -0.07679802 -0.01761405 0.02505055 0.06647657 -0.18589377 -0.0877917
0.03873227 -0.21793343 0.07318543 0.09161302 -0.04211743 0.20012473 -0.18949452 0.06065614
-0.1293219 -0.022202728 -8.536626e-05 -0.09839031 -0.0050119404 -0.024136573 0.18977766 0.05225774

recurrent.conv_x_z.Q.weight f4 [32, 36]
00000000: c1a7 33bd c75d 2fbe 54cc 06be f329 1fbe
00000010: 111b dd3c c233 db3d e0f9 97bd 7872 27be
00000020: 45ec 893d e399 b43d 8594 d1bd b124 f2bd
00000030: 2c94 0dbe 942b 9dbd 6302 ff3c f0fc dfbd
00000040: 832c 513b fad5 e4bd ee50 e9bc cefd 8bbd
00000050: 10d5 c23d 5147 cc3c 3a8a 80bd 7525 9ebc
00000060: e178 f63c 4e0f b43d 4cac 233e f091 22bd
00000070: 8be1 fa3d ee5b 99bc 5d1e e2bd 0a06 ed3d
00000080: a1c5 bfbc b6c4 ba3c c225 ae3d c094 b8bd
00000090: ee0b 0cbe e1f3 03be 606d 19be 4594 d53d
000000a0: 09b3 2b3d 3ead 26be dd71 1b3e 64b0 a0bd
000000b0: 6f9d 27be 7427 8abd 6ace af3d 1f31 0b3e
000000c0: bb62 8f3c fc97 0f3e 7970 0f3e 5703 0c3e
000000d0: 9f50 3cbd 87d1 8fbd 4c0c 303e 8fc6 933d
000000e0: 257e d2bd 4c0d c43d c3cf ea3c 1013 eb3c
000000f0: ed13 d63d 4018 183d d062 1b3c 047c 16bb
00000100: 1302 493d 0414 143d 6784 b3bc 7689 b5bd
00000110: 4406 253d 91fe 243e e569 16be 4cb0 cc38
00000120: 5112 13be 70a9 643d bc41 793d e6d2 003e
00000130: 1605 1f3e 97cf 03be 91b1 f53d 4cd1 113e
00000140: 0c8f 3cbc f349 08be 88c7 ef3d d2f4 0b3d
00000150: 26e3 e33c b9e8 01be 07f3 a5bd 765d 21be
00000160: a612 33be 53af 8f3d 15f9 69bd 4883 a0bd
00000170: 12c2 d23d 4967 dd3d 50ca c6bd 6be6 cc3c
00000180: 899f dcbc 10aa e03d 319b c43d 35ee 083e
00000190: 2933 25be e557 f13d 81f0 bfbd 489c 99bc
000001a0: 67f7 1dbe e7ba 393d 2dc4 b53d d65e 9d3b
000001b0: 4b76 13bc 4137 dc3d 00f7 433d a390 003e
000001c0: 6923 97bd 3009 bcbd c78b 7a3b 0134 073e
000001d0: be88 93bc 467f 09be 327b 173e 9ee8 8a3c
000001e0: 39a0 e8bd 5397 98bd f761 f8bd 5128 823d
000001f0: b094 72bc 47de 263e e31a f2bd 4107 2b3d
00000200: 74d6 9d3d 750c 7dbd d232 0dbd afc8 4b3c
00000210: 1c8e c8bd 3048 93bd db64 ccbd f583 4d3c
00000220: aed9 213e a7a3 d23d 25de b4bd 4751 823d
00000230: 488a c8bd b639 75bc 6b39 3b3e d22f 21be
00000240: b379 d33c 8cde 1dbe d7ae 6f3d c755 0abe
00000250: f7b5 05be 808f 2c3e c49c 603d fb0c e23c
00000260: a34e 16be 6581 173e 872a 48bb 0da5 16bb
00000270: c36c 923d 321d 7dbd 879f 1abe 4fd8 f3bd
00000280: 7c54 8f3b 3dd4 823b 076b bcbd 7aac dcbd
00000290: d2d8 fd3c 75af b7bd c638 503d 6eb5 a2bd
000002a0: 705c 683d 8722 133e 41bb 2fbd ee29 23be
000002b0: 55f8 1c3d 2350 0bbe 3142 0bbd 80d6 323d
000002c0: 2e5b 093d 5314 243e 3a83 f43d ebd8 f93b
000002d0: 158d b63d 6a74 603c 57cf 013e 3882 bf3d
000002e0: d05f 2e3e 6ad8 16bc 1bec 3ebc 99e8 19be
000002f0: 160c 02be 266c 1c3e 0dd2 16be fd69 083e
00000300: 7d29 9a3c 9767 1ebd c25f 12be 0ff5 143c
00000310: c1b4 07be 2a1e c33d 4976 f13d b0f7 fdbd
00000320: 9be2 04bd 9961 073d 6a50 21be 27a5 713c
00000330: d792 02bd 75e4 1abe c137 81bd fbdd f4bd
00000340: fe2a 4bbd 50e9 25bd ce49 983c d680 1cbe
00000350: 23c4 8abd a637 693d ba00 cb3d 4ade a13b
00000360: 942c ce3d 66c5 443d 8365 173e 51d6 f9bd
00000370: 3b96 e0bd 039f 13be a3a4 2ebd 36e6 0abd
00000380: b4a1 143c 5bdb 943a fb31 dfbd 1542 1abe
00000390: 4b86 773d f5b4 ffbd 50fd 1cbe cb8e 1bbe
000003a0: 2392 aabd d349 27be 5c95 4e3d 1f7f 75bd
000003b0: 25bb 8a3b 6e10 5fbd c94b 57bd 8d6f 283e
000003c0: 8fca 0cbe 7fcc 86bd 0c9b b8bd cd71 ab3c
000003d0: be82 90bd ec49 7d3c 8104 afbd 35c1 14be
000003e0: 89b3 163d db72 a43d e77d 6a3d 2f80 cd3d
000003f0: 9853 0d3e 9899 ecbd ef21 483d 1168 1fbe
-0.043861154 -0.17125617 -0.13163882 -0.15543346 0.026990445 0.107032314 -0.07420707 -0.1635226
0.06734518 0.08818414 -0.10233406 -0.118234046 -0.13826054 -0.076743275 0.031129068 -0.10936916
0.00319174 -0.11173625 -0.028480973 -0.06835519 0.09513295 0.02493635 -0.062763646 -0.01930497
0.030086936 0.08791982 0.15983695 -0.039689958 0.1225005 -0.018720593 -0.110409476 0.115734175
-0.023409666 0.022798877 0.085032955 -0.09012747 -0.13676426 -0.12886001 -0.1498313 0.10428671
0.041918788 -0.16277024 0.15180154 -0.07846144 -0.1636865 -0.06745806 0.08584292 0.13592957
0.017503133 0.14022821 0.14007749 0.13673149 -0.045975324 -0.07022386 0.17192191 0.072156064
-0.102779664 0.09572849 0.028663522 0.028695613 0.10453019 0.0371325 0.009484008 -0.0022962103
0.049074244 0.0361519 -0.02191372 -0.08864109 0.04028918 0.16112734 -0.14688833 9.760316e-05
-0.14362456 0.05582565 0.060853705 0.12580451 0.15529284 -0.12872158 0.11996759 0.14239997
-0.011508714 -0.1330946 0.117079794 0.034169026 0.027818274 -0.12686433 -0.081029944 -0.15758309
-0.17487583 0.07015862 -0.05712231 -0.0783754 0.10290922 0.10810716 -0.09706557 0.025012216
-0.026931541 0.10969937 0.09599913 0.13372119 -0.16132797 0.11784343 -0.09372044 -0.018751279
-0.15426408 0.04534426 0.08875308 0.004802565 -0.009000371 0.10752726 0.04784298 0.12555175
-0.07379801 -0.0918144 0.0038230286 0.13203432 -0.01800954 -0.13427457 0.14793089 0.016956624
-0.11358685 -0.07450738 -0.1212806 0.06355346 -0.014805958 0.1629573 -0.118215345 0.041754965
0.07706919 -0.061779458 -0.034472294 0.012437983 -0.0979273 -0.07191503 -0.09980174 0.012543668
0.15805694 0.102851205 -0.08831433 0.06363159 -0.09792 -0.014967373 0.18283622 -0.15740898
0.025814867 -0.15416926 0.05851635 -0.13509284 -0.13057695 0.16851616 0.054837003 0.02759408
-0.14678435 0.14795454 -0.0030542926 -0.0022986562 0.07149651 -0.06179542 -0.15099917 -0.11906492
0.004374085 0.003992586 -0.09200101 -0.10775085 0.030987177 -0.08969013 0.050835393 -0.07944761
0.05672878 0.1436864 -0.04290319 -0.15933964 0.038322765 -0.13604788 -0.033998672 0.043661594
0.03353422 0.16023378 0.11939092 0.0076247356 0.08913628 0.01369963 0.1267675 0.09351009
0.17028737 -0.009206871 -0.011652972 -0.15030135 -0.12699923 0.1527563 -0.14728566 0.13321681
0.018818611 -0.03867301 -0.14294341 0.00909163 -0.13252546 0.09527238 0.11790139 -0.12400758
-0.03244267 0.03305206 -0.15753332 0.014748848 -0.03187832 -0.15126212 -0.06309462 -0.11956402
-0.049601547 -0.040505707 0.01858988 -0.15283522 -0.06775691 0.056937836 0.09912248 0.004939829
0.10067096 0.048039816 0.14784817 -0.12199081 -0.10966154 -0.14416127 -0.04263748 -0.033910953
0.009071756 0.0011356877 -0.10898205 -0.15064271 0.060430806 -0.12485687 -0.15331006 -0.1519119
-0.083286546 -0.16336755 0.05043541 -0.059935685 0.004233735 -0.054459028 -0.05256251 0.16448803
-0.13749145 -0.06581973 -0.09013948 0.020928288 -0.07056187 0.015459519 -0.08545781 -0.14526828
0.03679231 0.080297194 0.057248976 0.10034215 0.1380142 -0.11552733 0.048860487 -0.15567042

recurrent.conv_x_z.Q.bias f4 [32]
00000000: 1f38 bf3d b9ce 023b f3c4 153e 479a 07be
00000010: b050 26be 33ed bfbd dd8c 04bd 2d73 03be
00000020: 84d6 16bc ddd3 8c3d af64 36bc 7644 dc3d
00000030: 21b7 52bc ed88 ccbd 5670 963d abc9 e23d
00000040: 5b27 cabd 3d2b 14be 2579 21bd 4b9a 7b3d
00000050: a421 183e ab15 d2bd bde9 683d 5179 2ebe
00000060: 4815 93bd cd95 9d3d 9780 ea3d 89f0 69bd
00000070: e410 923d fc0e b63d 62da fd3d c5b7 94bb
0.09336876 0.0019959642 0.14625911 -0.13242446 -0.16241717 -0.09371414 -0.0323609 -0.12836905
-0.009206418 0.06876347 -0.011132403 0.107552454 -0.012861044 -0.09987054 0.07345645 0.11073621
-0.09870788 -0.14469619 -0.039422173 0.061426442 0.14856583 -0.10258039 0.056863535 -0.17038466
-0.071817935 0.07694588 0.11450308 -0.057114158 0.07132128 0.08889577 0.12395169 -0.0045385086

recurrent.conv_x_z.K.weight f4 [32, 36]
00000000: 8f3b 553c ee59 873d 8655 e53c d736 b5bc
00000010: 0b26 f43d 361a cd3d f3bc f93d fda2 c3bd
00000020: 7357 c43d c2b0 953d 0055 ebbb 2da8 e43d
00000030: 3af3 dcbd f5d6 a3bd c4e7 aabd 05cd f5bd
00000040: 92d5 2abe 3a9a fdbd 5490 9bbd 84c7 1bbd
00000050: 4fce e9bd 93df ff3c 320e 553d e5be 01be
00000060: b698 673d e190 b43d 4842 61bd 8f88 d93d
00000070: cefc 6bbd 0886 ac3c f4af 09be 0d63 093e
00000080: 4dbc dbbd cfa5 0a3d 3e5b 2dbd a2be c5bd
00000090: 9e7b 35bd 7e38 703d 6d6c 1f3e 13ae b3bd
000000a0: b599 ac3d 9390 e2bd eae4 9ebd 6763 d0bd
000000b0: eb42 b13d d6a5 16be 2d94 bb3d 3748 593d
000000c0: 0e4d b53c 290c 023e bc45 dd3d e73e ccbc
000000d0: 07cf 513d fc47 92bc 814c b73d 3006 f83d
000000e0: 3007 593d 36c8 cf3d 0eb6 febd bfd3 a2bd
000000f0: ae8d 823b d799 143e 5a30 fcbd d05c b43d
00000100: ba74 bcbc 0383 0e3c 4162 163c 85a0 a13d
00000110: 6c63 0b3e a6ae 93bd 36c7 25bd 7310 693c
00000120: 92da 7f3d 5bfc cd3d 76cf 9e3d 8ae0 9e3c
00000130: 36db d33d baa5 8fbd ac75 4abb e1b8 25bc
00000140: 0718 0fbe 0a63 233e c792 e7bd 1d14 933d
00000150: 2318 cb3d e5fc a03d 1a2f 12be cd34 533d
00000160: b988 243e 704a 103e e902 023d 7814 9e3d
00000170: bb07 1b3e d4a6 e1bd 796d a4bd 5ef8 c53d
00000180: 9dfe 2d3d a1df ddbd 87bd 90bd a6a6 4f3d
00000190: 9a75 a63d 66bb 9d3d 98e6 8c3d 88b2 993d
000001a0: 8c48 80bc 36ef d73d 9feb 3e3d 8721 ea3d
000001b0: 9458 bd3d 69c1 10be 9748 8ebd ab88 3ebd
000001c0: 8b1c d1bd 5571 fd3d f312 41bc 310d c0bd
000001d0: d2b9 03be cca8 a13d b312 02be c8e4 d73c
000001e0: 40ca 16be 83e4 063e 9a9e feb9 c7de fc3d
000001f0: 4378 743d 9f11 f4bc fba1 8c3c a5f7 1f3d
00000200: 1dae a13d 4e7f eb3d cdd0 1d3e d833 e0bd
00000210: afdc 90bd c0c3 033e 53c0 da3c 8f10 9f3d
00000220: e2b7 043e 2580 babd 6b12 ca3d d757 103e
00000230: d3e1 b03a 3a47 84bc 42c5 b8bc 2c4e c33d
00000240: 578a 0f3e 4c77 ccbd 9106 bbbd ce91 b2bd
00000250: c7fa d43d aaa0 dfbd 06b3 8dbd ad26 9b3d
00000260: 0d55 1fbb af00 01be d513 843d 97f9 cebd
00000270: fbb4 6abc 950c 1d3e abbd 743d 4ce1 10be
00000280: e189 ab3d 5ce6 193d 4b52 fcbc 597b 1fbd
00000290: 7bce 7f3d f672 bebd 6f78 053e 0655 3f3d
000002a0: b96c 94bd 961e 8bbd 399f 603c b69c e6bd
000002b0: 1bd9 20be 4f7b cdbd 8fda 14be 98c1 0bbc
000002c0: eac6 813b 9b00 e63d 79dd 11be 703a 7c3d
000002d0: f5b5 d13d ba85 c4bd 76d4 153e 89ca 8c3c
000002e0: 87d2 7039 3897 6ebc acbb 8abd b17d 273d
000002f0: 5b05 583d 2b3b e7bc 8340 53bd 4897 01be
00000300: 83f0 0e3e 0a47 61bc 0471 e538 55e6 af3b
00000310: 14ea 20bd 9dbe 133e 6e08 42bd e80b 063e
00000320: bf45 2abc 5237 953d 5e77 ad39 863c d3bd
00000330: 84d1 ecbd 72d9 843d 7c3d 023e 5d00 1a3e
00000340: 9285 193e b9d2 1abe f0e2 fc3c 07d4 85bd
00000350: b970 16bd 75f2 183e d6ab b23d d047 3cbc
00000360: 367d e5bd 7d60 6f3d 3c84 1abe 8f4a 2ebe
00000370: aaff 03bd b189 c03d f065 c7bd 9672 74bd
00000380: c7d3 1e3e abbd 733d 5eed 1fbc ab08 e43c
00000390: 115c 183d aa88 3d3d c764 4b3c 6e54 edbd
000003a0: e035 7cbd e396 113a fe64 cbbc df82 e43d
000003b0: 8f04 183c 959d 23be a9fe 14be 0ac9 ad3d
000003c0: 51cb 0fbe 5948 05bd 46f0 e4bc 202d 003e
000003d0: 2eb6 0e3e 1a5e afbd 760e 9ebc cfcd 43bd
000003e0: 582f 843c b3ef 913c 5410 c03d 0530 02bd
000003f0: c417 c8bc 2148 243e 5bd6 313e 06e6 d53c
0.013014688 0.066089496 0.027994882 -0.022120876 0.119213186 0.10014765 0.12194242 -0.09552572
0.09586992 0.073091045 -0.0071817636 0.111648895 -0.10788579 -0.07999984 -0.08344987 -0.12001995
-0.16683033 -0.12382932 -0.07595888 -0.03803207 -0.11416303 0.031234538 0.05201549 -0.12670477
0.05654212 0.08816696 -0.05499485 0.106217496 -0.05761414 0.021060005 -0.13446027 0.13416691
-0.10729275 0.033849534 -0.042323343 -0.09655501 -0.044307344 0.058647625 0.15568705 -0.087734364
0.08427755 -0.110627316 -0.07758506 -0.101752095 0.08655342 -0.14711699 0.09159122 0.053047385
0.02213147 0.12699951 0.108043164 -0.024932338 0.051222827 -0.01785659 0.08950139 0.12110555
0.05298537 0.10145609 -0.12437068 -0.079505436 0.0039841747 0.1451181 -0.1231391 0.08806765
-0.023004878 0.008698228 0.009178699 0.07891945 0.13612145 -0.07211046 -0.040473185 0.014225113
0.062464304 0.100578986 0.07754414 0.019394178 0.103445455 -0.07014032 -0.0030892892 -0.010114879
-0.1397401 0.15955749 -0.113072924 0.07181571 0.09916713 0.07860736 -0.1427578 0.051564027
0.1606778 0.14090896 0.031741057 0.07718748 0.15139668 -0.11018148 -0.08028693 0.09666513
0.042479146 -0.108336695 -0.070673995 0.050696038 0.081278995 0.07701759 0.0687992 0.07504755
-0.015659593 0.10543673 0.046611425 0.11432176 0.092454106 -0.1413628 -0.06947439 -0.046517055
-0.10210522 0.12375132 -0.011784303 -0.09377516 -0.12863854 0.078935236 -0.12702446 0.026354209
-0.1472559 0.13173108 -0.00048564823 0.12347179 0.059685003 -0.029793559 0.017167082 0.03905453
0.078945376 0.11498891 0.15411682 -0.109473884 -0.07073342 0.12867641 0.026703035 0.0776683
0.1296077 -0.09106473 0.09866794 0.14096008 0.0013495035 -0.016147245 -0.022554997 0.095363945
0.14017616 -0.099836916 -0.09132112 -0.08719216 0.103993945 -0.10919316 -0.06918912 0.07575736
-0.0024312169 -0.12597917 0.06449095 -0.10106199 -0.014325376 0.15336831 0.059751194 -0.14148444
0.08375908 0.037573203 -0.03080096 -0.038935993 0.062452774 -0.09299271 0.13034223 0.046711944
-0.072473 -0.06792943 0.013709837 -0.11260359 -0.15707819 -0.10033285 -0.14536498 -0.008530043
0.00396048 0.11230584 -0.14244641 0.061579168 0.10239784 -0.09595819 0.14631829 0.01718642
0.00022966611 -0.014562421 -0.06774077 0.040891353 0.052739482 -0.028226456 -0.051575195 -0.12655365
0.13958935 -0.013749847 0.00010940622 0.005368034 -0.039285734 0.14428182 -0.04737132 0.1309048
-0.010392605 0.07285942 0.00033086067 -0.10314278 -0.115633994 0.06486787 0.12718767 0.15039201
0.1499236 -0.15119447 0.030869931 -0.06534582 -0.036728594 0.1493624 0.08724181 -0.011491731
-0.11205523 0.058441628 -0.15089506 -0.1702063 -0.032226242 0.094012626 -0.0973624 -0.05967959
0.15510474 0.059507053 -0.009761183 0.027836164 0.037197176 0.04627291 0.012414164 -0.11588369
-0.061574817 0.0005553795 -0.02482843 0.11157774 0.009278431 -0.15978082 -0.1455027 0.08485611
-0.14042403 -0.0325397 -0.027946603 0.12517214 0.13936684 -0.0856287 -0.019294005 -0.047803696
0.016135857 0.017814493 0.09378114 -0.031784076 -0.024425395 0.1604314 0.17366926 0.02611066

recurrent.conv_x_z.K.bias f4 [32]
00000000: b366 bcbd 24cb 813d e654 1f3e 0218 a13c
00000010: 5b64 cd3d 3aa3 133d 28ab 26be d918 143d
00000020: db4b c1bd 0836 453c d2da 22bc feec 323d
00000030: d071 0dbe f4dc 10be a841 053e e1fc f9bd
00000040: b508 1b3e 40c0 f53b 0ef9 223e 63ea 203e
00000050: f25b 003b 57b4 cbbc c255 423d 6a4e 2d3d
00000060: 28e2 1ebc 3c65 06be 822a 5a3d a611 cc3c
00000070: 6949 463d d4ab 1f3e 94b9 33bd 5043 2dbd
-0.09199276 0.06337574 0.1555973 0.019664768 0.10028907 0.036044337 -0.16276228 0.03615651
-0.094382964 0.012036808 -0.009939866 0.043683045 -0.13812947 -0.14146787 0.13013327 -0.12206436
0.1514004 0.0074997246 0.1591532 0.15714411 0.0019586054 -0.024866266 0.047445066 0.04231111
-0.009697475 -0.13124555 0.053263195 0.02491076 0.048409853 0.15592891 -0.043878153 -0.042300522

recurrent.conv_x_z.V.weight f4 [32, 36]
00000000: 12cc 7dbd 4426 c2bc 85f5 1abe 2147 e93d
00000010: 94c2 cfbc 1771 453d 17f4 93bc 48c5 1cbe
00000020: fe40 94bd dd7a 26be ea77 b53d 0416 9fbd
00000030: ccec 383d c593 30be a3fc 3a3d 226f fdbd
00000040: d0c5 0fbe 33cc f9bd cdac b63d 8e4e c73c
00000050: c25d cbbc 6da3 aebd 9913 dcbd be3b cbbd
00000060: 7604 7bbd 3321 533d 770d dc3d 3bba 17be
00000070: 81b7 21be dfea 8bbd 0f24 523d 3260 cf3d
00000080: 199a d5bd f0c5 113e f97b cb3c 61c8 4e3d
00000090: d18e e13d 69f0 04bd 508c 27be 06c0 a33d
000000a0: be3b df3d d9bc 28be a3dc 903d 3dae 84bd
000000b0: 6ca1 fc3d acd9 b7bd 3498 bbbd c38a 903d
000000c0: 8daf f03b 6bf0 293d 2cde d73d 330b 56bd
000000d0: 6385 c6bd b486 61bb 19b8 c93d 501d 79bb
000000e0: f400 a9bd 468c 1e3e 4b44 ce3d 29c2 2e3d
000000f0: c918 703d 2d8d 8bbd 0750 3a3c e540 e4bd
00000100: 4079 733d 212d da3d c65a 00be b7b2 d6bd
00000110: 43ce bd3d 195b a33d e65e bcbd 111b 19be
00000120: 92c6 983d 5eb0 a53d cd7d a23d d98a 31bd
00000130: b7b4 abbd 1de5 eabd 4d2e 8b3b ce6e 993c
00000140: 67d7 e1bd 7e8d 8ebd e5aa cbbc d090 08be
00000150: a33a 1b3c cd1c abbd 7fd7 9cbd 204d 573c
00000160: d432 123d 82e5 0bbe 6008 c63d b339 84bd
00000170: 9650 32bd 9683 ebbd 83bf abbb 1c97 083d
00000180: d86f 043e 4051 bfbd a638 6f3d af00 f43d
00000190: b53c 46bd 499a e03c 065c 21be 43e9 ccbb
000001a0: 7dd6 7a3d 71cb 863c 10d0 c83d aa9e a53d
000001b0: 98e1 8cbb bc72 683d b770 ee3d 8dc6 c93d
000001c0: 9e86 023e 44b6 1ebe 2b52 9f3d e757 27be
000001d0: 10f3 1c3d 0dfa 17be 9453 0dbd 2e54 1bbe
000001e0: d8a5 b83d 3b09 9d3d c2a3 1f3e fb2d bb3c
000001f0: 98af 473d 723f 653d 00d9 f5bd 277a 04be
00000200: a98c cf3d e1e8 37bd 569b 233e 410d b33c
00000210: 5682 f839 8b5b c3bd f77b 25be aa13 1abc
00000220: 2b83 1cbe 0677 803b 056a 853d 09c1 ff3d
00000230: 9f5d 103e cae0 a03d 3618 873d 5851 e9bd
00000240: 4684 033e 0831 03be 8440 d4bd f192 953d
00000250: de08 943c 7e38 b5bd 215d 11be b504 b1bd
00000260: 4425 ba3c bb8d ecbd aa98 083e af3b 283e
00000270: 4987 dc3d 5246 103e e2db 553d 2fbb d93d
00000280: b932 353b 3740 29be 866f cdbb c889 333c
00000290: 7354 19be 147c 4ebd 5395 e53d 5046 bf3d
000002a0: 6b75 e4bc 27e0 36bd ef35 103e a9e6 0bbd
000002b0: 9901 e6bd 38a5 043d 9be6 ee3d da2f d0bd
000002c0: 5c61 b8bd dd20 98bb 20d2 bebb a730 f5bb
000002d0: 81e4 b5bd e245 d9bd d749 b73d a3b7 94bd
000002e0: a9bb cd3d 905e fcbd e67c 7bbd a5ed 9a3d
000002f0: 0fc0 43bd 3608 123e 06fc 313d ec0f 1a3d
00000300: 0f5a b8bd cfad cabd c81b 983d b6ab 0bbe
00000310: 4ac7 cebd 3349 a7bd 65b5 dcbd 4e55 e7bd
00000320: 9224 99bd 9595 17be 32d5 0ebe c355 91bd
00000330: 1e56 603d 0a86 513d 5560 b33b 75e6 99bd
00000340: 01e3 223e 3399 90bd f6da af3a a4ad 2ebc
00000350: 18c0 f23d 6aa9 a03d 7a3e 2c3d 7190 13be
00000360: 26e7 133e 2b44 ff3d 526a 44bc c5bc 143e
00000370: 6c4d b93d 1233 803d 08ea 1bbd 9c86 5fbc
00000380: af5d 663c 155c f33d 6237 f6bd 420f 16be
00000390: 9b2b f4bd afbd 9b3d 73a4 0b3e 14e0 90bd
000003a0: 910a 7f3c ea15 1bbe 2dd0 e4bd 7eaa c6bc
000003b0: 2e8a 9dbc 2782 21be 42d8 a23c 9743 04be
000003c0: a3a6 d83d 02b8 42ba 5273 91bc e31b a73d
000003d0: 556c adbd ae0f 4c3d b27c 97ba f969 43bc
000003e0: efa7 1ebe 1131 54bd dfeb 793d 4361 e73d
000003f0: 58cf cabd 4513 053d 2acb 153e dace f93d
-0.061962195 -0.023699887 -0.15132721 0.1139052 -0.025361337 0.048203554 -0.018060727 -0.15309632
-0.07238959 -0.16257806 0.088607624 -0.07767871 0.045147702 -0.1724387 0.04565109 -0.123747125
-0.14040303 -0.12197151 0.08919678 0.02432945 -0.02482498 -0.08527265 -0.107459255 -0.09923504
-0.06128355 0.051545333 0.10744756 -0.14817135 -0.15792657 -0.068319075 0.05130392 0.1012577
-0.104297824 0.14235663 0.024839388 0.050484065 0.11013568 -0.032455835 -0.16362119 0.0799561
0.10900067 -0.1647829 0.07073333 -0.06478546 0.12335476 -0.089770645 -0.0915989 0.07057717
0.007345146 0.041489046 0.10540423 -0.052256774 -0.0969341 -0.0034412565 0.09849567 -0.0038011856
-0.08252135 0.15483198 0.100716196 0.042665634 0.058617387 -0.068140365 0.011371619 -0.1114519
0.059441805 0.10653139 -0.12534627 -0.10483306 0.09267857 0.0797636 -0.09197788 -0.14951731
0.07459749 0.0809028 0.07934151 -0.043345306 -0.08384078 -0.11469481 0.004247463 0.018729594
-0.11027413 -0.06960581 -0.024861762 -0.13336492 0.009474429 -0.08355103 -0.0765829 0.013140947
0.035693005 -0.13661769 0.09669566 -0.06456318 -0.043533884 -0.114997074 -0.005241336 0.033347234
0.1293329 -0.09341669 0.058403634 0.11914193 -0.04839774 0.027417319 -0.1575776 -0.006253393
0.06123971 0.01645443 0.0980531 0.080869034 -0.004299354 0.056750044 0.116425924 0.09852324
0.12746665 -0.15499216 0.07779344 -0.16342126 0.03831774 -0.1484148 -0.034503534 -0.15168831
0.09016007 0.07667776 0.15589812 0.022849074 0.048751444 0.05596871 -0.1200428 -0.12937222
0.10134251 -0.044899825 0.15977225 0.021856906 0.00047399354 -0.09538945 -0.1616057 -0.009404102
-0.15284412 0.0039204387 0.06514362 0.124879904 0.14098214 0.07855375 0.06596415 -0.11392468
0.12843427 -0.12811673 -0.10363868 0.073034175 0.018070634 -0.08848666 -0.14195682 -0.08643476
0.022722848 -0.115504704 0.13339487 0.16429017 0.10767991 0.14089325 0.05221165 0.106314056
0.0027648641 -0.16528402 -0.006269398 0.010958143 -0.14973621 -0.0504113 0.11210122 0.09339583
-0.02788802 -0.044647362 0.14083074 -0.03415552 -0.112307735 0.032384127 0.11665078 -0.10165377
-0.09002945 -0.0046425895 -0.0058233887 -0.0074826065 -0.08881474 -0.10609032 0.08949631 -0.072615884
0.10045559 -0.12322724 -0.06139841 0.07564858 -0.047790583 0.14260945 0.04345324 0.03761284
-0.09001552 -0.098964326 0.07427174 -0.13639721 -0.10096605 -0.081682585 -0.10776786 -0.112955675
-0.07477678 -0.14803155 -0.13948515 -0.07096436 0.054769628 0.05115322 0.00547413 -0.07514659
0.15906908 -0.070604704 0.0013416696 -0.010661516 0.11853045 0.07844813 0.04205177 -0.14410569
0.14443645 0.12464174 -0.011988239 0.14525135 0.0904797 0.06259741 -0.038064986 -0.013642933
0.014060422 0.11882798 -0.12022282 -0.14654258 -0.119223796 0.07604539 0.13636951 -0.070739895
0.015566484 -0.15145078 -0.11172519 -0.024251219 -0.019230928 -0.15772305 0.01987851 -0.12916408
0.105786584 -0.0007427932 -0.017755184 0.08159616 -0.08467928 0.04981964 -0.0011557548 -0.011927121
-0.15493749 -0.051804606 0.06101596 0.11297848 -0.09902829 0.03248908 0.14628282 0.12197657

recurrent.conv_x_z.V.bias f4 [32]
00000000: 164b 6bbd 2188 4e3d d3e9 1a3b f9b2 a53d
00000010: 5c32 623d c5ab 573c 46ae a63d 3216 d5bd
00000020: fbe6 c03c f600 49bd 2190 e2bd 7e2a cbbd
00000030: 8df5 1b3e 9b95 e7bd 0e62 a13d f516 a43c
00000040: 6bd7 e63c f4e9 d13d dc28 173e 25f9 303c
00000050: 4df4 863a 2858 773b e5ec c0bc 5c49 0c3d
00000060: d1ec 3a3d 646a 033e 1191 3e3d 4b5f b6bd
00000070: 20cf 8fbd f417 e93c 9e17 813d 0cb1 42bc
-0.057444654 0.05042279 0.0023637905 0.08090777 0.055223808 0.013163512 0.08138709 -0.10404624
0.02354764 -0.049073182 -0.11062647 -0.09920214 0.15230389 -0.11307832 0.078800306 0.020030478
0.028178891 0.10249701 0.1476168 0.010801588 0.0010296196 0.0037741754 -0.02355046 0.03424965
0.045636002 0.12833554 0.046525065 -0.089048944 -0.07021928 0.028453805 0.06303333 -0.011883032

recurrent.conv_x_z.ffn.weight f4 [32, 32]
00000000: 25ae 003e a04c 83bc 0cc6 8abd 3742 7abc
00000010: 4d79 a7bc 2701 ae3d df55 fa3c b88a 72bc
00000020: a2bf 243e 2354 f03d 9bf8 c13d 30e5 64bd
00000030: cded 763c 6620 fd3d 341d 593c 5eb0 d93d
00000040: 191b 883b ad49 05bd fc55 9cbd 8f42 e63d
00000050: 636e 1abe 2879 e83d 35c3 24be 35a6 533d
00000060: 45d7 0fbe c5b8 af3d 5a86 09bd e72f 123e
00000070: 2694 013e 9045 393d b538 04be 24db 3fbd
00000080: f54c 0e3e cd22 cfbd 419e 8ebd 6f5c 963c
00000090: 61dc 17be 9f3c 1b3e 328d f1bc 980b 843d
000000a0: 03d7 f3bd a2a5 21bd ffed ce3d 1b89 31bd
000000b0: 8112 39be 21f8 19bd d193 f33d 5d36 a13d
000000c0: 1ae6 fb3c fa72 a73d eb5b 0d3c 3f12 43bd
000000d0: 2538 ff3d 9710 a33d 7192 f13d 9130 f43d
000000e0: 1c3a ddbd 6c1f c03c f3b4 513d bfcb 2dbd
000000f0: d9b7 503c bcac 763d 881b 0a3e 9344 623d
00000100: 6dfa e3bd aeda 67bd 4926 95bc 76f9 14be
00000110: d3ee 03be 8c18 5f3d 99c1 c6bd 9609 b73d
00000120: ea61 08be 64eb e43a 0012 403d f9f6 1e3e
00000130: ae88 1c3e 44a3 3bbe 5214 8d3d 9381 f23d
00000140: 2a25 2cbe 79ce be3d 5915 bebc bb10 ae3d
00000150: d049 d4bc ee3a 3e3d c47c 7cbd 2e59 fb3d
00000160: 3707 cc3d f036 febd e399 943d a708 4b3d
00000170: 5023 7dbc 5654 933d 14e4 8a3c fd33 d93d
00000180: 6670 113d 8ca8 64bc a73d 06be 1ee4 33be
00000190: abac 2cbd 8841 973d bf57 32bd ad5e d9bd
000001a0: fc8b 363d cb28 1f3e 303b 3dbe bacc 0d3d
000001b0: 7112 0abe 7527 013e cc09 adbc ec7b 033e
000001c0: 2d10 fdbd 5041 8f3d 4155 9ebd 3009 213c
000001d0: 6b72 cdbd bcc8 513c 9f07 4dbd 1e86 9bbd
000001e0: d5ce e9bd b2f6 be3d 717c a73b f37f 06bd
000001f0: 67c8 523d 6f56 1abe f44a 543c 6365 03be
00000200: 4c74 bc3d c00a fc3d 5ebf 1ebd 52c3 9abd
00000210: 6359 a0bc 0f79 373c 4f7a fc3d ea6b f9bc
00000220: aa91 57bd 832a 073e 6b85 febb 20c8 02be
00000230: fecf 0ebe 1f90 acbd ef75 34bd ca94 043d
00000240: f748 323e 03a1 593d 07ef 1dbc 0070 1fbe
00000250: 8c86 7abd 99d5 16be 48b5 903d dfbd 28be
00000260: bb9b 203e c9c1 34be 704d 59bd 116a fe3c
00000270: c9a8 00be 824b 1d3e 2133 21be 60da 14be
00000280: ddee 053e 4ce0 da3c be29 16be c448 4a3d
00000290: 1101 673d a645 e13d c57f 04be 8e4c 9a3d
000002a0: 9513 f0bd 2c97 13be edec 04be 637d 0a3d
000002b0: a947 b1bc 042e 0ebe 2e8b e83d bec5 05be
000002c0: 888f d0bc 4b5f 1bbe 4d27 b63d 0bb7 183e
000002d0: cdac 44bd 22f7 b93d 9c64 743c 0b87 f53d
000002e0: ff1e 403d c871 39be 78ac 53bd 9111 313e
000002f0: 99e1 ccbd 675e 3a3e fc29 a13d 83b8 24bd
00000300: 85dc eabc f17c aabd c007 723d 9c8f 03be
00000310: 0d7f cb3b e6f0 5c3d f901 85bc 8bde 073e
00000320: cfd8 db39 62cf 02bd 4480 a6bc a1f4 3f3d
00000330: 2381 a4bd b06f 5a3d 69b4 913d 2feb ba3c
00000340: ffec 103e ca66 243e 9d6f bbbd 2a33 cf3c
00000350: b916 0dbe b93b 09be 2581 fdbd 8476 373e
00000360: 62a9 b1bd 7d2e a13d 97bc 1abe 5bed 3e3c
00000370: efa5 213d 871e 423d 5ed9 a2bd 4603 f1bd
00000380: 3012 23be 5edf f93b 6474 e6bd 23a8 a53d
00000390: f49f 1f3d fedf af3b c876 273e c445 143e
000003a0: 111c e13c c66a 033e 0acd 223e 5aa3 44bd
000003b0: bce7 7c3b 5c11 8d3d f5a9 0abc be6a b0bd
000003c0: 6a16 3bbc e744 473d fe80 f6bc 681f 7abd
000003d0: 00c2 d8bd 6853 c3bd ed6f b1bd c7c9 a83c
000003e0: 6fdf 2cbe 2496 1e3e 82d4 98bd 04b7 a03d
000003f0: 4504 9dbd f127 adbd f5d7 443e b5c6 923d
0.12566431 -0.016027749 -0.06776056 -0.015274576 -0.020443583 0.084963135 0.030558525 -0.014803581
0.16088727 0.11734798 0.09471246 -0.055882633 0.015071345 0.12359695 0.0132515915 0.106293425
0.004153621 -0.032540966 -0.07633588 0.11243164 -0.15081172 0.11351234 -0.1609009 0.05167218
-0.14046963 0.08580164 -0.033575393 0.14276086 0.1265417 0.045232356 -0.12912257 -0.04683985
0.13896544 -0.101140596 -0.06963778 0.018354623 -0.14830162 0.15159844 -0.029486272 0.06447524
-0.119062446 -0.0394646 0.10103988 -0.043343645 -0.18073465 -0.03759015 0.11893428 0.07871697
0.03074937 0.08176227 0.008627872 -0.047624823 0.124618806 0.07962149 0.117955096 0.11923326
-0.10802099 0.023452483 0.051197957 -0.042430636 0.012739145 0.060223326 0.13487065 0.05524118
-0.11131749 -0.056605034 -0.018206732 -0.14548287 -0.12884073 0.05446677 -0.097048946 0.08937375
-0.13318601 0.0017465171 0.046892166 0.155239 0.15286514 -0.18324 0.068886414 0.118411206
-0.16811052 0.09316725 -0.023203539 0.08499285 -0.025914103 0.04644292 -0.061642423 0.12272869
0.099623136 -0.12412822 0.07255914 0.0495688 -0.015450314 0.0719382 0.01695446 0.10605619
0.035507582 -0.0139562 -0.13109456 -0.17567489 -0.042156857 0.07385546 -0.043540712 -0.10613761
0.044567093 0.15542905 -0.1847961 0.03461907 -0.13483597 0.12612708 -0.021122836 0.12840241
-0.12356601 0.06994879 -0.07731105 0.009828851 -0.10031589 0.012804206 -0.050056096 -0.0759394
-0.11416403 0.09324397 0.00511127 -0.032836866 0.05146065 -0.15072034 0.012957323 -0.12831645
0.09201869 0.12306738 -0.03875672 -0.07556786 -0.019573873 0.011198296 0.12328016 -0.030446965
-0.05262915 0.1319981 -0.0077673695 -0.12771654 -0.1394653 -0.084259264 -0.044057783 0.03236846
0.17410646 0.05313207 -0.009639508 -0.15570068 -0.06116347 -0.14729919 0.07065827 -0.1647868
0.15684406 -0.17652048 -0.053052366 0.031056436 -0.12564386 0.15360835 -0.1574216 -0.14536428
0.130794 0.026718281 -0.14664361 0.0493858 0.0563975 0.109996125 -0.12939365 0.07534133
-0.11722485 -0.14413136 -0.12981005 0.033810984 -0.021640616 -0.13884741 0.113546714 -0.13063714
-0.025459066 -0.1517307 0.08894215 0.14913575 -0.04801636 0.0908034 0.014916565 0.11988648
0.04690456 -0.1810981 -0.05167815 0.17291857 -0.10003967 0.18200074 0.07869336 -0.040215027
-0.028669605 -0.08324612 0.059089422 -0.12847751 0.006210214 0.053940676 -0.016236292 0.13268487
0.0004193247 -0.031936057 -0.020324834 0.046864156 -0.080324434 0.05332917 0.07114489 0.022817222
0.14152907 0.16054836 -0.09152148 0.025292952 -0.137782 -0.13401689 -0.12378148 0.17916304
-0.08674885 0.07870195 -0.15111004 0.01165327 0.039464887 0.047392394 -0.07951616 -0.117682025
-0.15924907 0.0076255044 -0.112526685 0.0808871 0.038970903 0.005367278 0.16353905 0.14479738
0.027479203 0.128337 0.15898529 -0.048007347 0.0038590273 0.06888077 -0.0084633725 -0.086141095
-0.011418918 0.048649695 -0.030090805 -0.061065108 -0.105838776 -0.09537393 -0.08663926 0.020604027
-0.16882108 0.15486962 -0.07462408 0.078474075 -0.0766683 -0.08454884 0.19223006 0.071668066

recurrent.conv_x_z.ffn.bias f4 [32]
00000000: 2fc0 0c3e ea6d f23b 2219 16be 7d2f c5bd
00000010: 406e 283e 7498 edbd 9e40 f83d 4c9f 2f3d
00000020: 22e9 233e 0266 f43d 75bd 4e3d 02f6 02be
00000030: 0fe1 5abd df95 e43d deb6 abbd 4d35 1fbe
00000040: d778 bcbb dab7 8b3c 0a36 9dbd 5c70 d5bc
00000050: 6623 ed3d c96c d4bd 1261 16be 0d89 d8bc
00000060: 0e4c 033e 1062 1f3e 4434 813c 2a98 4dbd
00000070: 04c3 22bb 806b b4b6 39d1 d2bd f67c 0ebe
0.13745187 0.0073983567 -0.14658025 -0.09628198 0.16448307 -0.11601344 0.121217 0.042876527
0.16006902 0.11933519 0.05047365 -0.12789157 -0.05343729 0.11161398 -0.083844885 -0.15547676
-0.00575171 0.01705544 -0.07676323 -0.026054554 0.11579017 -0.103723116 -0.14685467 -0.026432538
0.12821981 0.15564752 0.015771993 -0.050193943 -0.0024835477 -5.3769327e-06 -0.10293812 -0.13914856

recurrent.conv_x_z.ln.weight f4 [32]
00000000: 449c 7f3f 3009 7f3f fc02 7d3f a2a8 813f
00000010: f741 833f 3df8 7d3f 994c 7f3f 845b 823f
00000020: 56f0 7a3f fbdb 7a3f d45f 803f bb26 813f
00000030: d0a8 7f3f 9555 813f 78b4 813f 5c96 7f3f
00000040: b33e 823f 5c3a 803f b7e9 803f d0ad 803f
00000050: 53c9 803f d6b1 7e3f 2c46 7f3f af3d 7f3f
00000060: 9d85 7e3f da7e 813f d39d 7d3f 6fbc 803f
00000070: a4d2 7f3f d4b2 7f3f d9cc 823f 7212 7d3f
0.9984782 0.99623394 0.9883268 1.0129588 1.0254506 0.99206907 0.99726254 1.0184178
0.98022974 0.97991914 1.0029244 1.0089945 0.9986696 1.0104243 1.01332 0.99838805
1.0175384 1.001781 1.0071324 1.0053043 1.0061439 0.99490106 0.9971645 0.99703497
0.9942263 1.0116837 0.99068946 1.0057505 0.9993079 0.99882245 1.0218765 0.9885627

recurrent.conv_x_r.lambda_q1 f4 [32]
00000000: 0c44 463d 3b43 65bd 47a3 bc39 600b 8b3c
00000010: 7244 a2bd f042 a73d 6cfd b93d e244 cfbc
00000020: 7dd2 2fbc 0c46 2ebe 86e3 e4bd 7ec9 a3bd
00000030: 6a92 1f3e 7586 4fbd 062d 4e3d bdef 67bd
00000040: 3c00 6fbd b5a2 ce3d 1157 2cbe 50bf 0cbe
00000050: 8f4d 013e 7b19 803d 0396 453d ae8b 073e
00000060: 8724 633b 7207 09bc e90b de3c 18b2 263c
00000070: c76c 15be 45c0 a5bc e401 88bd eb58 163c
0.04840474 -0.05597232 0.00035979805 0.016973197 -0.07923211 0.08167064 0.090815395 -0.0253014
-0.010731337 -0.17018908 -0.11176209 -0.07997416 0.15583196 -0.050665338 0.050335906 -0.056625117
-0.058349833 0.10089628 -0.16830088 -0.13744855 0.12627243 0.0625486 0.048238765 0.13236877
0.0034659223 -0.0083635915 0.027105289 0.010174297 -0.14592277 -0.020233283 -0.066409856 0.009176473

recurrent.conv_x_r.lambda_k1 f4 [32]
00000000: ee43 09bd 6549 873d 3119 00bd 09d0 c1bd
00000010: e005 293d c052 483d 0433 a63d fa59 19bd
00000020: b688 ea3d 0992 26bd 2eb8 d6bc 8b29 0ebd
00000030: f83b cfbd 9e3b eebc b836 bcbd c0be 9bbd
00000040: d4d5 ed3d ebac 5ebd ed70 1c3e 77a5 84bd
00000050: e44b 7d3c d72b 733d efd6 84bd 9e87 28bd
00000060: 56b1 643e 988e 16be 9099 b63d a37e 983d
00000070: c3fc 56be 8bc7 983d 3761 0cbc cd5e 923d
-0.03351205 0.06605796 -0.031274024 -0.09463508 0.04126537 0.04890704 0.08115199 -0.037439324
0.11451857 -0.040666614 -0.02621087 -0.034707587 -0.1011886 -0.029081162 -0.09190124 -0.07604742
0.1161305 -0.054364126 0.15277453 -0.064768724 0.015459988 0.05936798 -0.06486308 -0.04114496
0.22333273 -0.14702833 0.089160085 0.07446029 -0.20994858 0.07459935 -0.0085681 0.07146988

recurrent.conv_x_r.lambda_q2 f4 [32]
00000000: cc36 ff3d 075f 7abc 5000 cbbc d384 28be
00000010: 97c4 c03d 26f3 1f3e 02f9 893d 34b1 dd3d
00000020: 7951 91bd f668 0bbd ef75 0fbe f896 b8bd
00000030: ede3 133e b56f 02bd 303b 58bc dc0f 8ebd
00000040: 87ac 8b3d 7f71 42bc 2ca3 4d3d 0f15 42bb
00000050: 8e5a 2a3e 41fb 65bc 6051 04be 6e35 72bc
00000060: 5ecd 8f3d 42f4 51bd 046c 7e3e c83e 773d
00000070: d989 2c3d 4c95 9d3d 6817 7b3d cecb 0e3d
0.124616235 -0.015281445 -0.024780422 -0.16456918 0.094124965 0.15620098 0.067369476 0.108248144
-0.07095618 -0.034035645 -0.14009832 -0.0901317 0.14442416 -0.031844813 -0.013197705 -0.06936619
0.06820016 -0.01186788 0.05020444 -0.0029614603 0.16636106 -0.014036954 -0.12921667 -0.014783246
0.070215926 -0.051258333 0.24845892 0.060362607 0.04212365 0.07694492 0.06130162 0.034862332

recurrent.conv_x_r.lambda_k2 f4 [32]
00000000: 911b ed3d 8ba4 503c eaca 593d 38cb adbd
00000010: be50 5d3c fff9 c33d 8401 c33d c2b1 793d
00000020: 7f2a 093e 6e96 163e 74f1 a03d 23bd 903d
00000030: 1218 0fbd 291a cebd d4d4 483d 77f3 073e
00000040: 1ef3 333d f12f f8bb 16fb 263d dd39 53bc
00000050: 531b 4fbe b9aa a4bd 1b3e 59bc 3937 6c3d
00000060: 2706 babd 2b7a fc3d fe15 25be d898 393e
00000070: ae01 33bd 3eb5 323c 5bb4 96bc e7c6 5d3d
0.115775235 0.012734543 0.05317203 -0.084860265 0.01350802 0.09569167 0.095217735 0.06096054
0.13395117 0.14705822 0.078585535 0.07067325 -0.034935065 -0.100635834 0.049031094 0.13276468
0.043933026 -0.0075740744 0.040766798 -0.012892214 -0.20225267 -0.08040375 -0.013259436 0.057669852
-0.09083205 0.12327989 -0.1612167 0.18124712 -0.043702774 0.010907469 -0.018396547 0.054144766

recurrent.conv_x_r.Q.weight f4 [32, 36]
00000000: 8854 62bd 425a 0f3e c1e7 7f3d 13ba b6bd
00000010: d2ee 8f3d 7792 033e efd5 e73d 32fa 39bc
00000020: 22a6 0dbe 3c46 213e 4b41 67bd 542d 5dbd
00000030: d9a5 87bd d386 03be ab9c 493d cfc0 b9bb
00000040: eb73 25be b6b8 69bc 7a06 c13c ef05 f3bd
00000050: 41ca 7d3c 0706 99bd 8be4 0cbe 8f03 2ebd
00000060: dd9e f4bb 6d8f f6bd d7d0 04be e731 d43d
00000070: f622 cdbd 58f8 31be 6bfa 07be 5856 b43d
00000080: ffb1 6a3d 2f54 d13d adff ff3d 9666 193d
00000090: eb0d a3bd e1d7 1d3d 0a4d a7bd ebf1 df3d
000000a0: fa98 febd 85cc 1e3e 800f d8bd 50be 96bd
000000b0: 94c5 94bd c50e 253e ba21 81bd 1b52 77bd
000000c0: 82d4 733d 5d28 f9bc 3c2c 9e3d 625f 613d
000000d0: 4da0 53bc d425 60bd f1e7 95bc 1eb9 983c
000000e0: 3352 3c3d 8516 e83b fe2a 02be d42e 273e
000000f0: 3708 27be dc24 6f3d a152 eebc d576 b6bd
00000100: 7553 1dbe 7ecd 1d3e cad7 ad3d ebc8 dcbd
00000110: b005 f83c 2acb ac3d d440 5cbc b559 c6bc
00000120: 6951 aabd 5606 2abe 55cf 29be 3290 123e
00000130: 839a 30bc 63bd afbd c5ed 1bbe 67dd a93c
00000140: f4a6 003e 74b9 45bd 47b4 863d 9363 e0bc
00000150: a20d 263e ec1b 7d3d c6f5 69bb 0a19 6ebd
00000160: a4ee ad3d fd54 bbbc 9188 2d3b c7b0 2b3d
00000170: 238a d9bc 70fe 22be c8d4 4dbd 4ac7 d93c
00000180: b573 733d 9988 5f3d df15 a2bb 25f2 ecbd
00000190: 5da1 b43d 2c90 b3bd e11a 0cbe e110 e43d
000001a0: a81d 093e fb23 e63d 836f d7bb 58bc 27bd
000001b0: b46e 063e f159 9bbd 6241 6e3d 3cc4 7e3d
000001c0: b227 14be 68a2 1bbe e8e1 2b3c 3503 eabd
000001d0: ed0d 10be 62be 31bc fc06 e6bc b460 37bd
000001e0: 6f67 08be ad5c 163e 904e 913d f050 f63d
000001f0: bbe1 b53d 6c1e 25be 1cf9 afbc 2b9b f03d
00000200: 65e7 123d c0f0 4dbd 027d 18be 4f6f 44bc
00000210: f8dd 4bbd c390 91bd e469 12be 194b 1fbe
00000220: b11c 233d 6e5f 053e b51c 343d a4e8 9d3d
00000230: ed2f a3bd 5663 f73d d9db 0e3e b434 0cbe
00000240: 2646 c2bd 65d6 3d3d ad3a 043e 8605 1d3e
00000250: 98cf 403d 3e3f 193e acd1 58bd 4882 debb
00000260: 37d7 e23c cfc2 f63d 071a d4b8 0739 c23d
00000270: 4d0f 9f3c ec8a 13bd 5342 2bbd 6d43 003e
00000280: 87a9 c2bc 6660 dc3d 3bf8 aabd 609f 143e
00000290: aaa2 13be 6dd5 903d 54f6 0cbe e683 423c
000002a0: 4e63 0c3e 1aa5 c2bd de3c cb3b bce4 463d
000002b0: 345b 02be 93f0 523d 64e7 443b d640 8ebd
000002c0: 0eaf fc3d 9733 463c 9997 69bc 782d 153d
000002d0: 591f 763d 84eb 253d 4f73 c33d 5b3c 753d
000002e0: 842a 11be 8bb3 06bd 33c6 2fbe 153f 513d
000002f0: 844f 06be abbf 75bd 5dc3 16be 9bb4 56bc
00000300: 7fc0 0d3e 61e9 efbc d9d1 77bd 06d8 263e
00000310: e4a9 393c 08c9 15be 4114 99bd dd06 72bd
00000320: 46a4 fd3d 7e85 a5bd 9c6d 90bd 8070 1c3e
00000330: b7eb 08bd 161f bdbd c5d5 14be 001f a13c
00000340: 812b c1bc 310e 02be 97dd 29bd cf7b 0f3e
00000350: d023 093e 351c 123e 9bea f43d 13ce c6bd
00000360: 2431 c23d 7fc7 f5bd ed13 c2ba 19b3 e93b
00000370: 863f 06be 1201 12be 2291 303d d953 2e3c
00000380: 6ea2 6a3d 39d4 eebd a9c8 cfbb eda8 173d
00000390: 2f2c 783d 28bf 07ba 9e94 46bd 7ce4 0e3e
000003a0: 25a6 f33d c5a0 1a3e 6a09 92bd 1205 0a3e
000003b0: 8471 2fbd 65c2 e53c 05c1 2a3d a808 6ebd
000003c0: 8d35 003e 733b 8bbd 3f84 2dbd ec67 2cbe
000003d0: d662 783d b8be 053e fd22 953d f19e 0dbe
000003e0: a7d9 7d3c a38b cf3d 5ef4 193e 8098 89bd
000003f0: c211 e73c b601 6c3d b865 013e 7805 df3c
-0.055256397 0.13999274 0.062476877 -0.089222096 0.07027973 0.1284884 0.113201015 -0.011351155
-0.13832906 0.15749449 -0.056458753 -0.053998306 -0.0662343 -0.128444 0.049221676 -0.0056687365
-0.161575 -0.01426523 0.023562659 -0.11866366 0.015490116 -0.07471853 -0.13759057 -0.042483862
-0.007465227 -0.12039075 -0.12970291 0.103610806 -0.10016434 -0.17379892 -0.1327912 0.08805531
0.057298657 0.10221135 0.12499938 0.03745135 -0.07961639 0.038535956 -0.08168991 0.10934814
-0.12431522 0.15507706 -0.105498314 -0.07360518 -0.072642475 0.16118915 -0.06305261 -0.060381036
0.059528835 -0.030414755 0.07723281 0.055022605 -0.012916637 -0.054723576 -0.018299075 0.018642958
0.04597683 0.0070827627 -0.12711713 0.16326457 -0.16311727 0.05838476 -0.029092135 -0.08909384
-0.15363868 0.1541042 0.08488424 -0.107805096 0.03027615 0.08437188 -0.013443191 -0.024212698
-0.08316309 -0.1660398 -0.16582997 0.14312819 -0.010779026 -0.085810445 -0.1522742 0.020735456
0.12563688 -0.048272565 0.06577354 -0.02739123 0.16216138 0.061794207 -0.003569947 -0.058129348
0.08492783 -0.022867674 0.0026479105 0.041916635 -0.026555127 -0.15917373 -0.050251752 0.026584286
0.05943652 0.05457363 -0.004946455 -0.11569623 0.0881984 -0.08767733 -0.13682128 0.11136032
0.13390219 0.112373315 -0.0065745725 -0.040951103 0.13128167 -0.07585514 0.058167823 0.062198862
-0.14468268 -0.15198672 0.010490872 -0.11426393 -0.14067812 -0.010848613 -0.028079502 -0.044769958
-0.13320707 0.1468379 0.07095063 0.12027156 0.08880945 -0.16124886 -0.02148109 0.11748346
0.035865206 -0.050278425 -0.14891437 -0.011989429 -0.049772233 -0.07107689 -0.14298207 -0.15555991
0.039822284 0.13024685 0.04397269 0.07710388 -0.079681255 0.12079494 0.13951053 -0.1369198
-0.09486036 0.04634704 0.12913008 0.15334138 0.047072977 0.14965531 -0.052934334 -0.006790433
0.027690513 0.120488755 -0.00010113796 0.09483533 0.019416476 -0.036021158 -0.0418113 0.12525721
-0.023762478 0.10760574 -0.083481275 0.14513922 -0.1441752 0.07071958 -0.13765842 0.011872267
0.13709757 -0.09504147 0.0062023243 0.04855798 -0.12730104 0.05149896 0.0030045146 -0.0694596
0.123380765 0.012097261 -0.014257335 0.036420316 0.06008849 0.04050781 0.09543478 0.059872013
-0.14176375 -0.03288607 -0.17165451 0.05108555 -0.1311627 -0.059997242 -0.14722963 -0.013104583
0.13842963 -0.029286088 -0.06050286 0.16293344 0.011332009 -0.14627469 -0.07474566 -0.059088577
0.12384848 -0.08082102 -0.07052156 0.1527729 -0.03342792 -0.09234445 -0.14534672 0.019668102
-0.023580315 -0.12700726 -0.04147109 0.14012073 0.13392568 0.14268573 0.1195881 -0.09707274
0.09482029 -0.120009415 -0.0014806964 0.007131946 -0.1311017 -0.14258221 0.04310716 0.010640108
0.05728381 -0.11661572 -0.006341059 0.037026335 0.06058901 -0.0005178326 -0.048481576 0.13954347
0.11896924 0.15100391 -0.07130702 0.13478497 -0.042832866 0.028046796 0.041687984 -0.058113724
0.12520428 -0.067984484 -0.042362448 -0.16836518 0.060641132 0.13061035 0.07282064 -0.13830163
0.015493787 0.101340555 0.15034625 -0.0671854 0.02820671 0.05761882 0.12636459 0.027224287

recurrent.conv_x_r.Q.bias f4 [32]
00000000: a9ef 63bd 7d35 b13d 43ce be3d f000 1abd
00000010: e272 283c f02d 313c cee2 ae3d 0bd6 873d
00000020: a287 d63d 274f f93d fe50 e6bd ee34 323e
00000030: 85fb a43d c852 6bbd 0c01 9a3d f339 6abd
00000040: 0521 7cbd 1f86 14be 1f00 6f3d 2c32 453d
00000050: f4ec 0d3e 644d b1bd e314 f7bc d010 2dbb
00000060: e2c6 903c e923 143e 6608 8abd 2f5d 063e
00000070: c5fc c8bd c2a3 08bd 6f1d 84bc 638e 04be
-0.05564848 0.0865278 0.09316685 -0.03759855 0.010281296 0.010814175 0.08539353 0.06632622
0.10475089 0.121733 -0.11245917 0.17403004 0.08055786 -0.057451993 0.07519731 -0.05718417
-0.061554927 -0.14504288 0.058349725 0.04814355 0.13859922 -0.08657339 -0.030161327 -0.0026407726
0.01767296 0.14466824 -0.06739883 0.13121484 -0.09813837 -0.033359297 -0.016127316 -0.12944941

recurrent.conv_x_r.K.weight f4 [32, 36]
00000000: 4ea7 333e c892 543d 7b21 613d ceed fe3d
00000010: e4b7 b33d 9311 2e3e edd8 fa3d 60d0 533d
00000020: 5d58 033e cce8 ab3d 1774 013e a611 ea3d
00000030: 7273 c6bd b297 17bd 5a67 0e3d 10f7 473d
00000040: 2635 25be 7911 ccbc 2508 033e b6f7 35be
00000050: e030 37bc bac5 8dbd 4006 cbbc 16a1 2b3e
00000060: b77a 1e3e 9450 133e 44c0 a4bd 2b50 f4bd
00000070: 4279 05be d9f4 44bc 6745 1bbe a2cc 353d
00000080: 9e5a 56bd c9a7 263e 8677 85bd 9e70 e43c
00000090: a3c2 a83d 97bd 13be aa7e f63d 13ec d73d
000000a0: c4e0 883b 2be9 f4bc b5f0 49bd 6f88 f93d
000000b0: 820c ebbd 7556 483d 761a b13d 7345 123e
000000c0: 1025 cf3d 2506 ca3d 2c62 19bd eb4f 2bbe
000000d0: 74ac d43a 55c6 973b c5c6 b93d e8a9 213e
000000e0: 2592 26be 5d75 723d d089 cabc bb33 393d
000000f0: 5d64 a63d aa65 1dbe 328a 5e3c 2f1d 99bd
00000100: 1e9e 313d 47bc 723d c015 963d ba7d 67bb
00000110: e17f cb3d 669d a63d 59ff 5f3d 94e0 3bbd
00000120: f302 8e3d 8594 123e e7b2 0c3e 2f32 0cbe
00000130: 3133 23be 2046 91bd 514f 243e e1ee 013d
00000140: 4dff 323d ff6e 2bbe fe38 1bbe ec7b b5bd
00000150: 990f 5bbd 46ce b23d 2fbc a2bd 76dd 32bd
00000160: 21ba 2c3e 9b0d d33d 7a1b b23d 2b1e 263e
00000170: 137b 6b3c 54dc 04be 6d6c 39bd f444 a1bd
00000180: 90c8 f2bd 5c82 373b 4b18 d33d e2d5 b93d
00000190: 7525 a33c 516c 993d 60b5 893d c0af 02bd
000001a0: eb8f 22bd 1985 173d 6cf3 1f3d db10 f83d
000001b0: ec68 63bd 0ed2 28bd bdab bc3d 85a1 02bd
000001c0: 13e4 c53d 40d8 83bd 4370 73bd ff26 133e
000001d0: 27b4 e9bb 07da 01be 61b5 743c fef7 d53d
000001e0: 7486 d93c e41f 953d eba0 86bd e642 bbbd
000001f0: 9e9e e83d 295c 92bc 6cf3 7fbd 8079 283e
00000200: 309c f03b b6fc d1bb 2e50 a4bd f606 d03c
00000210: 866b f9bd 9c06 373c 83d9 88bd e312 2abd
00000220: b9aa cbbd 46ba 69bd b141 333e 41a2 11be
00000230: d854 103d d519 c6bd b675 2e3d eff8 0abe
00000240: 12ab e73d be87 ba3d 8eda 18be 4f51 113e
00000250: 00ac be3d a706 e1bc 6844 e3bd 5aff 0a3e
00000260: 5aee a33b 912a 1bbd 4457 3f3d 891b bb3d
00000270: d342 0b3e baa6 68bd 8bac 27be aa4c d3bc
00000280: 680e 1ebd b4e3 893d 77d5 063d 9ca6 74bd
00000290: 5958 ccbd b2ae 8dbc a765 dbbd ff6f f4bd
000002a0: 06d4 c43c 2008 e33d bb6f 2b3e c0d6 233d
000002b0: 9d60 1fbe 3b2c 2b3d f78c db3d 7c6d e83c
000002c0: 5bbb efbb 2053 d73d df30 83bc d533 113e
000002d0: 4f0c 41bd 0f06 adbd 91f8 c83d 140c 07be
000002e0: fa7a 6c3d 4d1b a4bd 4d75 b33d 056e d93c
000002f0: 038b 163d a8b8 e3bd 1b8d 23be 906f cabd
00000300: 66f8 df3b 53f4 1b3e 92f9 863d 4715 ea3c
00000310: c7aa 11be a89b 08be cae4 cfbc 7abf 1ebe
00000320: b975 26be 9eca 433d 2647 0f3c 65d6 c1bc
00000330: 9021 23be e98d 2e3e 4a25 20be f64d a03d
00000340: d6d3 7e3d ce2f 56bd 4ea7 873d ba4d 873c
00000350: 352a e83d ff19 583c 966e 6dbd 9606 273e
00000360: f310 c0bc c8a2 aa3c ac30 47bc 3f53 943d
00000370: 83a4 203e c69a a53c b4bf f8bd 1c03 16be
00000380: 05f0 2b3e 6ff6 e2bd 66e8 15be 675d b93d
00000390: fe3a bebd 44a4 21bd 3a5b c43d 9284 95bc
000003a0: e843 babd 61cd cc3c c7a1 16be f0db cebd
000003b0: 7f4a e3bd 69dc bbbc e666 1ebe f5da c33a
000003c0: 3e51 c23c a17c 2ebe b142 51bd fd94 2a3d
000003d0: f893 c33a 53b0 213d 6985 01be 30df 1abe
000003e0: c403 09be c49c 143c aac5 87bc 1d47 ac3d
000003f0: 8c33 483d 8ead 183c f666 11be 9562 00be
0.1754429 0.051897794 0.05496357 0.124477014 0.08775309 0.16998892 0.122484066 0.051712394
0.12826677 0.08394012 0.12641941 0.114291474 -0.09689988 -0.037009902 0.034766532 0.0488196
-0.16133556 -0.024910675 0.12796076 -0.17770275 -0.011181086 -0.06922479 -0.024783254 0.16760668
0.154765 0.14386207 -0.08044484 -0.11929353 -0.13034537 -0.012021267 -0.15163194 0.044384606
-0.052332513 0.16274942 -0.06516938 0.027885731 0.08240249 -0.14427792 0.12035878 0.105430745
0.004177185 -0.02989634 -0.04930182 0.12184226 -0.11476995 0.048910577 0.08647625 0.14284305
0.10114491 0.09864453 -0.03744714 -0.16729705 0.0016225711 0.0046317973 0.090711154 0.1578747
-0.16266687 0.059193958 -0.024723917 0.04521535 0.081246115 -0.15370813 0.013582753 -0.074762695
0.043363683 0.059261587 0.07328367 -0.0035322742 0.099365 0.0813549 0.054686878 -0.04586847
0.06934156 0.14314468 0.13740121 -0.13691019 -0.15937497 -0.070934534 0.16045882 0.031721953
0.043700505 -0.1674156 -0.1515846 -0.08861527 -0.053481672 0.0873075 -0.079460494 -0.043668233
0.16867878 0.103053294 0.08696647 0.16222446 0.014372605 -0.12974674 -0.04526942 -0.0787448
-0.118546605 0.0028001284 0.10307368 0.09073998 0.019915322 0.07491363 0.06724048 -0.03190589
-0.039688032 0.036992166 0.039050505 0.1211259 -0.055519983 -0.04121595 0.09212444 -0.03189232
0.09662642 -0.06437731 -0.059433233 0.14370345 -0.0071320715 -0.12680827 0.014935822 0.104476914
0.02655337 0.07281473 -0.065736614 -0.09143619 0.11358379 -0.017866211 -0.062488005 0.16452599
0.0073428378 -0.0064082993 -0.080231056 0.025393944 -0.121787116 0.011171009 -0.06682112 -0.041521918
-0.09944672 -0.05706241 0.17505528 -0.14222051 0.035237163 -0.09672896 0.042592727 -0.13571523
0.11311926 0.09107922 -0.14927122 0.14191173 0.0931015 -0.027468992 -0.11097032 0.13573971
0.005002779 -0.03788239 0.046714082 0.09136111 0.1359971 -0.056799628 -0.16374414 -0.025793392
-0.038587958 0.06732884 0.03291842 -0.059729204 -0.099777885 -0.017295215 -0.10712748 -0.11935424
0.024026882 0.11085534 0.1674184 0.039999723 -0.15564199 0.04179023 0.10720246 0.028372519
-0.0073160357 0.10513902 -0.016014514 0.14179929 -0.04713088 -0.08448421 0.09813035 -0.13188201
0.057734467 -0.0801302 0.08762608 0.02654172 0.036753666 -0.11119205 -0.15971796 -0.0988456
0.0068350313 0.15229921 0.065905705 0.028574599 -0.14225303 -0.13340628 -0.02537765 -0.1550273
-0.16255845 0.047800653 0.00874499 -0.023661802 -0.15930772 0.17046322 -0.15639225 0.0782737
0.06221374 -0.052291684 0.06623708 0.016516555 0.11336175 0.013189792 -0.05796679 0.16311106
-0.023445582 0.020829573 -0.0121576 0.072424404 0.15687756 0.020215403 -0.121459395 -0.14649624
0.16790779 -0.1108216 -0.14639434 0.09051018 -0.092885956 -0.039463297 0.095877126 -0.018251691
-0.09094983 0.025000276 -0.1471015 -0.101005435 -0.110981934 -0.022932248 -0.1546894 0.0014942574
0.02372038 -0.1703973 -0.051088993 0.041645993 0.0014921417 0.039474797 -0.12648548 -0.15124202
-0.13380343 0.009070579 -0.016573746 0.08412001 0.048877284 0.009318722 -0.14199433 -0.12537606

recurrent.conv_x_r.K.bias f4 [32]
00000000: 9972 6d3d 8393 e03d 449c f0bd 38fa 033e
00000010: 1a72 9b3d 4d4f 9b3d a45d 293e a2b2 b0bd
00000020: 6bbb 16bd 63e2 1ebd a6b6 a33c 3215 0fbe
00000030: d945 bfbd 0005 1d3e ed5a ff3d abef b0bb
00000040: 046b 64bd e682 7bbd 770a 463c fee3 283e
00000050: 00ae c7bd 9671 6cbd 1c56 f6bd bb3a c33d
00000060: f8ba f93c 0f79 2b3d 14d5 f13d 3482 133d
00000070: df84 183b 7b5b 603d 1be6 18be 6d5b a63d
0.057970617 0.10965636 -0.11748555 0.1288842 0.075901225 0.07583485 0.16539627 -0.086278215
-0.03679983 -0.038790118 0.019984554 -0.13972929 -0.09339494 0.15333939 0.124685146 -0.0053996644
-0.05576612 -0.06140413 0.012087456 0.16493222 -0.09749985 -0.05772551 -0.12028143 0.09532686
0.030484661 0.041863497 0.118082196 0.036012843 0.0023272557 0.054774743 -0.14931528 0.08122907
