DGRNN_pearsons_global_fixed_attn_best_model.pth (torch, 72559 bytes, 40 tensors)

recurrent.conv_x_z.lambda_q1 f4 [32]
00000000: 4575 13bd 9ae0 cfbd e2d8 c7bd 9f69 0bbd
00000010: 0ea9 123e eeba 8ebc 1d1f 0d3e 650c 4c3e
00000020: 6bb2 a93d 5bad 043e 6a45 00bd 8f62 bf3d
00000030: 7750 433d 9259 7d3c fd84 93bd a2b3 763d
00000040: ba29 96bd 223f a0bc a12f 3ebd cb18 9e3d
00000050: 7d4f 353e 0f31 0ebe 8142 8dbd 9295 3cbc
00000060: 77c9 ecbc efc2 c93c 49b8 06be 1b63 10bd
00000070: 3198 39be 0d75 933d 7173 9bbd af86 10bd
-0.03600051 -0.10150261 -0.09758164 -0.034036275 0.14322302 -0.01742312 0.137814 0.19926603
0.08285984 0.12956755 -0.0313162 0.093449704 0.04768416 0.01546325 -0.072031 0.060229905
-0.073321775 -0.019561354 -0.04643214 0.07719573 0.17706104 -0.13885902 -0.0689745 -0.01151027
-0.02890466 0.024629084 -0.13156237 -0.035250764 -0.18124463 0.0720006 -0.07590378 -0.035284694

recurrent.conv_x_z.lambda_k1 f4 [32]
00000000: dd0c ed3d f7df b53d 5734 d9bd b5f1 c93d
00000010: b781 9abd 0787 e13d 02b9 d2bd c81b ea3d
00000020: 37c9 e83d c727 943d 2c20 2a3c ec22 af3c
00000030: 451b 5d3e b725 9b3d 1b4a dbbd 8903 bc3c
00000040: 935c dfbd c013 673b c726 72bd 7f25 b63a
00000050: 7b35 42be 1f3f 013b 2054 27bd 3da5 313d
00000060: de1b 173d 5bbb 0fbd b9da a33d 3883 febd
00000070: 6d50 dabd 15df 7ebd 3bc5 1fbd 03a1 efbd
0.11574719 0.088806085 -0.10605686 0.09860555 -0.075442724 0.110120825 -0.10289194 0.1143108
0.11366504 0.072341494 0.010383647 0.021378957 0.21592434 0.07575553 -0.10707494 0.022950904
-0.10906329 0.0035259575 -0.059119012 0.0013896673 -0.18965714 0.001972146 -0.040851712 0.043370474
0.03689181 -0.035090785 0.080007024 -0.12427372 -0.10659871 -0.062224466 -0.039006453 -0.117006324

recurrent.conv_x_z.lambda_q2 f4 [32]
00000000: 1a85 8fbb 706e 7abd 9f67 063e 9fbf 06be
00000010: c1e8 103e fba1 883c 0d3b bebc cad5 c2bc
00000020: e0ef de3d 909a 2f3e f2a1 69bd a71d bbbd
00000030: 7ad6 e13c b7c6 9a3d c6b2 23bd 2fb8 53bd
00000040: a645 0cbe a610 bbbd 3629 893e f101 473d
00000050: 6f84 00bd 251f 023e 9a56 503d 63e4 8f3d
00000060: be3f 173d ebe1 d0bc d5af 8cbc 83cd 0dbd
00000070: 8f7f 3b3e f839 ddba 6f7a 8f3d 2527 e6bc
-0.0043798806 -0.061140478 0.13125466 -0.13159035 0.14151289 0.0166788 -0.023221517 -0.023783583
0.10885596 0.17148805 -0.05703921 -0.09136515 0.02756809 0.07557433 -0.039965414 -0.051689323
-0.13698444 -0.09134035 0.26789254 0.048585836 -0.0313763 0.12707193 0.05086384 0.07025983
0.036926024 -0.025498351 -0.017173687 -0.03461982 0.18310378 -0.0016878238 0.07005774 -0.028094837

recurrent.conv_x_z.lambda_k2 f4 [32]
00000000: 187c 0a3e 9daf 3a3d 7382 37bd f484 0d3e
00000010: fa53 ddbd 547b 1e3e 7390 a2bd ed5b f23d
00000020: ffbd 4bbc 43db 10be f332 443d 2a4b 883d
00000030: 5ae2 1d3b bb94 38bd 4115 aebc fb6a a23b
00000040: 11b2 af3c 9fee 9cbb db6f 13bd b4ae 823d
00000050: 8b91 05be ef78 37bd 07b6 3ebd 9219 8dbc
00000060: d526 323b abb8 c8bd 0a82 013e e101 25bd
00000070: 63b0 693e bbef 293d db0f 273e 832e daba
0.135239 0.045577634 -0.04480214 0.13820249 -0.10807033 0.15476733 -0.07937708 0.1183394
-0.012435435 -0.14146142 0.04790015 0.066549614 0.0024091215 -0.045063715 -0.021250369 0.0049566007
0.021447213 -0.004789188 -0.035995346 0.06380978 -0.13043801 -0.044793066 -0.046560314 -0.017224107
0.002718379 -0.098008476 0.12647262 -0.040284995 0.22821192 0.04148839 0.16314642 -0.0016645942

recurrent.conv_x_z.Q.weight f4 [32, 36]
00000000: 0302 f23d 607b 2cbd 80f3 cdbb 13b3 04be
00000010: c3b0 923d 936d 07be 8fb0 183e 501a 633d
00000020: eb79 c2bc 80a3 ecbb 2a0e 05be 5ef4 05be
00000030: 36fc b5bc 0b75 17bd 26b1 c13d 466e 1d3e
00000040: 7641 f13d 2602 72bd debe 98bd 9e22 c53d
00000050: 80d4 243c f068 323d 68e8 9b3d 7846 073e
00000060: a318 d93d b082 c1bd c094 80bd 4b7a adbd
00000070: fb93 ecbd 7ee3 c03d c7b6 00be b6c3 51bd
00000080: 9fa2 05be eb2a 08be abc4 073b c0cf f9bc
00000090: e8dc f9bd 3841 163e 56b7 0a3e 3f40 1c3e
000000a0: abbd 063e 5f6d 0bbe 8b5b 23be 4e38 a53d
000000b0: 78de f33d fb33 353d 764b ccbd f60f d93d
000000c0: d61b a5bd 10b2 e7bd 165d 12bd fe77 ba3d
000000d0: c039 2c3d 8060 9abd 48a1 a53d 7cc0 14be
000000e0: 8062 463c eb91 fe3d fb18 64bd 6030 803c
000000f0: f828 193e 0647 fb3d 0085 4bbb 1be4 c7bd
00000100: 0b14 c5bc a08f 23be e0f7 a9bc 4bab d2bc
00000110: 40e0 b93d 8021 1f3d d3b4 003e 7612 fdbd
00000120: e097 393d 064d 99bd 9034 a3bd eb33 3cbc
00000130: 80ea b6bb 33e6 f2bd e876 823d 1bf1 853d
00000140: d6b9 efbc a066 75bd 2e5e b93d 2626 063d
00000150: e84c 8d3d 2b92 10bd 968b f2bc eaed 053e
00000160: c38b 193e f0ef 23bd eb20 52bd a627 94bd
00000170: fe43 f43d f341 073e 8395 883d f624 063e
00000180: cba1 2f3d f72e 293e 3bb0 67bd ba13 1e3e
00000190: 40be 1c3c 326b 27be f09b 46bd 56d3 783d
000001a0: 274d 183e 2bb0 d73c 960b fc3d 76da 6dbd
000001b0: 9e2b 063e 108a 28be a097 f43d 9b12 9e3d
000001c0: 060b 5ebd 5647 f5bb 9c7e 243e a042 8a3d
000001d0: 6f38 26be a64e e6bd f6fa 4bbd 3b30 03bd
000001e0: b8c8 bbbd 1ee9 b73d aae5 1f3e 56ff 423c
000001f0: eb64 dbbc f746 0e3e a429 1c3e 2b8a b8bd
00000200: ec05 0fbe c464 0b3e cee4 b43d 7e94 d83d
00000210: 56a5 dfbc 3257 1cbe 72c7 19be c712 23be
00000220: eb55 613d 4029 4fbc 1898 853d 0019 d83c
00000230: 7b67 e33d 26f2 debd 3686 8ebc ae64 cd3d
00000240: cb19 28bd deeb 83bd 5ea4 1bbe b678 1bbe
00000250: 2bcc d3bc f782 1a3e c3ca 92bd c385 e0bd
00000260: 8b28 96bd d64d 4f3c 6eb5 f8bd 43b0 c23d
00000270: 5615 1a3b 76cc 25be cecf f43d 1bfa cc3d
00000280: 400e 79bd 2b9f 093c 16a2 9e3d 6bf9 32bd
00000290: e877 d7bd eba2 223e e66c 33bd 409d ff3c
000002a0: 6b3d 573d 36a1 183d f82f ab3d 7f7a 08be
000002b0: 4fa9 2abe 2290 003e 5001 133d 4ee7 80bd
000002c0: c65e d4bd 0621 283d 5663 bfba eb3a 7c3d
000002d0: a3a4 1bbe fa8e 113e d795 02be bbf6 b63d
000002e0: ebbe d43d b850 9f3d 0856 833d 964e 463d
000002f0: 43f2 90bd 934d c13d a0a4 12bd 3bea 0a3e
00000300: 761d 9cbc 38f1 f53d c8ea dd3d d6b7 2fbd
00000310: 7685 d93d 90b2 4fbd eb2c dd3d cb43 5dbd
00000320: d30f dfbd 76d3 06be 14ba 103e eb5f b83d
00000330: c063 43bc 86a0 18be 94de 19be f6db 8b3c
00000340: b03c 0c3e 1b03 52bd b869 a8bd 374d 063e
00000350: 4bd0 2f3d b6b6 0a3e 0ba4 bfbc ea7c 023e
00000360: d884 23be 801e 40bc a36d e0bd 5be3 84bd
00000370: 5057 9e3d 47fe 14be a62d 0f3d d7c7 26be
00000380: 4093 1fbe 4204 033e f650 20be db16 74bd
00000390: 4b67 ab3d fee5 cf3d e310 acbd a817 0cbe
000003a0: 8045 05bc 46f6 073d 40cc 36bc 0bcb a33d
000003b0: db6f 69bd 8627 4e3d 168c 06bc f649 aebc
000003c0: 8b2d b43c 62ce 183e 76aa ff3c fccf 27be
000003d0: b62b bbbc e668 17be 105a 09bd 50e8 a6bd
000003e0: 5bc7 06be b6c9 c0bd 4051 88bd 5bca 14bd
000003f0: 3e98 82bd ef4e 20be 6b74 7f3d ab75 7dbb
0.1181679 -0.042109847 -0.006285131 -0.12958936 0.07162621 -0.13225393 0.14911102 0.055445015
-0.023739776 -0.007221639 -0.12993684 -0.130815 -0.02221499 -0.036976855 0.094576165 0.15374097
0.11780064 -0.05908408 -0.0745828 0.09625743 0.01006043 0.043557107 0.07612687 0.13210475
0.10600402 -0.09448755 -0.06278372 -0.08470591 -0.115516625 0.09418391 -0.12569724 -0.051212035
-0.13050316 -0.13297622 0.0020716588 -0.03049457 -0.12200338 0.14673316 0.135465 0.15258883
0.1315829 -0.1361594 -0.1595289 0.0806738 0.11907667 0.044239026 -0.099753305 0.105987474
-0.0806195 -0.113132596 -0.035733305 0.09104918 0.042047262 -0.07537937 0.080874026 -0.14526552
0.012108445 0.124301754 -0.055687886 0.015648067 0.14957035 0.12269406 -0.0031054616 -0.097603045
-0.024057409 -0.15972757 -0.020748079 -0.025716444 0.090759754 0.038850307 0.12568979 -0.12357037
0.045310855 -0.07485394 -0.0796901 -0.011486988 -0.005582154 -0.11860313 0.06370336 0.06540128
-0.029263418 -0.059912324 0.090511665 0.032751225 0.06899434 -0.035295647 -0.029607575 0.13079038
0.14994721 -0.040023744 -0.051300924 -0.07234125 0.11927031 0.13208751 0.06669142 0.13100037
0.042878907 0.16521822 -0.05656455 0.15437213 0.0095668435 -0.16349486 -0.048488557 0.06074842
0.14873181 0.02632912 0.12306897 -0.05806967 0.13102576 -0.16458917 0.11942983 0.077183925
-0.05420973 -0.0074853105 0.16063923 0.06750989 -0.16232465 -0.1124547 -0.049799882 -0.032028418
-0.091691434 0.089800104 0.15614954 0.011901697 -0.02678152 0.13894258 0.1525026 -0.090107284
-0.13967103 0.13612658 0.088327035 0.10575198 -0.027300518 -0.15267637 -0.15017489 -0.15925132
0.05501358 -0.012644112 0.0652315 0.026379108 0.11103722 -0.1088603 -0.017397981 0.10028969
-0.041040223 -0.064414725 -0.1519942 -0.15182766 -0.02585419 0.15089022 -0.0716758 -0.10963013
-0.07331952 0.012652835 -0.1214398 0.095062755 0.0023511252 -0.16191277 0.11953698 0.10008641
-0.060804605 0.008399765 0.07745759 -0.043694895 -0.10520917 0.15882461 -0.043805026 0.031202912
0.052548807 0.037263118 0.08358759 -0.13327979 -0.16666149 0.12554982 0.035889924 -0.06294118
-0.10369639 0.04104712 -0.0014601748 0.061579626 -0.15199523 0.14214697 -0.12752472 0.08933779
0.10387977 0.07779068 0.064128935 0.04841479 -0.07077458 0.09438624 -0.03580153 0.13565914
-0.019057017 0.120088995 0.108357966 -0.04289993 0.10621159 -0.0507074 0.10799583 -0.05401973
-0.1089169 -0.13166603 0.14133483 0.0900267 -0.011925638 -0.14904985 -0.15026313 0.017072659
0.13695025 -0.051272493 -0.08223289 0.13115393 0.042923253 0.13546261 -0.023393651 0.12742963
-0.15968645 -0.011726022 -0.109584115 -0.06488677 0.07731497 -0.14550124 0.034955643 -0.1628717
-0.15583515 0.12794593 -0.15655884 -0.05959211 0.08369311 0.101512894 -0.084016584 -0.13680899
-0.008134246 0.03319385 -0.011157095 0.07997712 -0.05699144 0.05033066 -0.00821211 -0.021275502
0.021994373 0.14922479 0.031209212 -0.16387933 -0.022847991 -0.1478611 -0.033533156 -0.08149779
-0.13161986 -0.09413473 -0.06656122 -0.036325794 -0.06376694 -0.15655111 0.062366884 -0.0038674872

recurrent.conv_x_z.Q.bias f4 [32]
00000000: 3322 9fbd c80e ccbd a39b 253e b65d 9bbc
00000010: 43aa a63d 172d 29be 3667 eabd cb96 ef3c
00000020: f0de 053e 16b3 dd3c d684 12be be99 023e
00000030: b3c5 ebbd 6697 103e 6828 8abd fcd0 253e
00000040: bba4 2f3d c6ca 0abd 735f cc3d 6e86 0d3e
00000050: e6a1 69bd 2e46 1e3e cbf9 1dbd c374 f03d
00000060: e70a 043e 609e 783d 48c4 09be eb15 1d3d
00000070: c4bc 1abe d6f0 18be 685d 113e a0e8 803c
-0.07770195 -0.09963757 0.16172652 -0.018965583 0.081379436 -0.16521107 -0.11445467 0.029246708
0.13073325 0.027062934 -0.14308485 0.1275396 -0.115123175 0.14120254 -0.06745988 0.16193002
0.04288171 -0.033884786 0.09979143 0.13820812 -0.057039164 0.15456459 -0.0385683 0.117410205
0.12894784 0.060697913 -0.13453782 0.03835098 -0.15111071 -0.14935622 0.14195788 0.015735924

recurrent.conv_x_z.K.weight f4 [32, 36]
00000000: 5efb 1fbe ebcf 43bd 1675 a63c 1ede d7bd
00000010: 96b7 5f3c 6e56 d6bd 48c7 123e 53b6 dcbd
00000020: 6b99 973c 9ed6 953d d6af ee3c a036 a93d
00000030: 4230 093e 261e 8dbd 7bf7 d9bd 96d5 d93d
00000040: ec35 02be 9ef7 9f3d 0308 c3bd 5607 1a3c
00000050: d689 eebd 8818 93bd ca0e 173e d6ce ca3b
00000060: e01d 263e ded4 ebbd 1316 fb3d 9bb4 ea3d
00000070: 7bc6 e33d ce95 f1bd 004e 4ebd a625 9a3d
00000080: 5044 003d 7758 10be c619 1e3e 7830 cb3d
00000090: 0b3c b0bd 3654 2a3d 005e db3c a6fe 3dbd
000000a0: e0e4 8c3c a6b0 a2bd 8005 a13b 6baf e6bc
000000b0: 3b43 dfbd 2e5b d1bd 32d9 26be 98db 82bd
000000c0: 2650 9f3d bbe4 363d 98b4 9c3d 765f 04bd
000000d0: 20fe a23c b0e8 023e 633c 213e 9076 7fbd
000000e0: ab05 43bd 306f a93d 4b6c dabc cb1c 14be
000000f0: d640 9b3d 7b91 0b3d 3b8a 4dbd 53b7 06be
00000100: b822 e83d b6ce dfbd 6b96 593d bb83 25bd
00000110: 16ec 74bc 0699 edbd 9b43 433d bf1d 15be
00000120: 807a cebd 6bd9 7d3c 00dc d0bc eb8d f63c
00000130: 1679 133d 0b17 3ebd c09c 223c eaac 1b3e
00000140: 52be 163e 96a1 74bd 46fc 06bd d34c 163e
00000150: ebda 773c 2ba0 a53b 2eab c43d e0de 8bbc
00000160: c08b 203d 3e92 88bd 62dd 1fbe f6dd aabd
00000170: 16e8 cebc 3b54 033e 80c8 023d ab77 38bc
00000180: d652 24bc ab82 683d 8322 d53d 566f 88bc
00000190: bee7 80bd 167f b5bd ea12 1abe 4664 0d3d
000001a0: 8e21 d83d 1e43 f83d 6b5f f63c 2480 183e
000001b0: 5b2d 553d 1f64 013e cb8e 08be 63f7 06be
000001c0: 83ef 84bd 1077 05be 43e7 f2bd a728 273e
000001d0: 3c17 26be db2f b63d 7830 b1bd 3b0c 7cbd
000001e0: a62b 89bd a038 a6bc 0e8b f33d 14fe 0fbe
000001f0: dba9 77bd 1e22 8d3d 34da 153e db67 1c3d
00000200: 9061 a9bd 46ab 6bbd 2b44 863d 17a9 1dbe
00000210: d0e7 2cbd 5607 4dbd d055 27be 96ae e53d
00000220: 020f 1bbe 5be4 fabd f0d9 0fbe 3296 1fbe
00000230: 50a6 ae3d d60a b4bb 2b51 96bc f6c7 a83c
00000240: 4856 f53d cb7a 003d bef4 01be 7282 28be
00000250: e3c6 973d 7030 81bd 52df 16be c31f 01be
00000260: d6e8 d4bc cbf0 533d 866a 063e 8e13 8d3d
00000270: 0b73 353d 338e fe3d 534b 99bd bef1 ab3d
00000280: ab0a f83b 8bf3 aa3d 22d6 1cbe 124b 193e
00000290: fbaa 163d 0053 8c3c 7ebc bc3d 56f8 3b3b
000002a0: ebbd 213d 408e 013c c641 04be 56f5 33bb
000002b0: d699 ecbd 1b51 2cbd 4bcf 21be e08c 0cbe
000002c0: 9e75 f33d 0eae b8bd ced0 a5bd 560e a4bc
000002d0: ab81 aebd 1cb6 203e 5654 d8bc d03a f43d
000002e0: 5261 07be 7625 863c 0ad6 22be 56ed 24bd
000002f0: 1e3c 9bbd b01c 78bd 505f 433d d77c 233e
00000300: 6b65 5b3c a0e4 90bc 3be9 21be fb65 76bd
00000310: 66a8 7dbd a05d a63c d30e fbbd 40e0 c9bd
00000320: d375 b63d 2bff 9d3b 663c b6bd ee5b b33d
00000330: a39f 9b3d c8ed 24be 0be2 9a3d 1ea7 e9bd
00000340: 0b7e dfbc 56cd 14bc d6e6 a73d 1360 153e
00000350: 40df cd3c 67f6 0b3e 4e08 88bd b6cf 3d3d
00000360: 2b40 153e 3627 f63d 2639 20be 165d 903c
00000370: ab9e f1ba 4bd3 923c 80e8 c73d ee9e a23d
00000380: bbf0 b7bd b650 a3bc c666 0e3e bed7 8ebd
00000390: 4eb9 b83d f8dc a7bd 706d 093e abc6 9c3d
000003a0: fb1e 01be 56dc 56bb ab08 abbc 009b b53d
000003b0: 4bc0 f6bd ab22 2c3b 5b8d 1fbe 1c28 063e
000003c0: 806f f83b eec0 d8bd 7fbc 20be 809e 2f3c
000003d0: 10a2 b0bd 1bfb 183d 1cbf 213e a3f5 e1bd
000003e0: 6a7e 1ebe dc33 033e 46d8 6abd 964a e03d
000003f0: 2b75 c6bd 4bfd 5cbd 5a91 183e 9baf 693d
-0.15623233 -0.047805708 0.020319503 -0.10540412 0.01365461 -0.10465704 0.14333832 -0.10776963
0.018505773 0.073163256 0.02913658 0.08262372 0.13397315 -0.06890516 -0.10642906 0.106364414
-0.12715882 0.07810901 -0.095230125 0.009401163 -0.11647384 -0.07182413 0.14751735 0.0061892075
0.16222334 -0.115152106 0.1226007 0.11460229 0.111218415 -0.11796151 -0.050367355 0.07526712
0.031315148 -0.14096247 0.1543952 0.09921354 -0.08605202 0.041584216 0.026778221 -0.04638543
0.01719898 -0.07943849 0.0049139857 -0.028159818 -0.10901495 -0.10222469 -0.16293791 -0.063895404
0.07778959 0.044651728 0.07651633 -0.0323176 0.019896567 0.12784076 0.15745692 -0.06236893
-0.047612827 0.082731605 -0.026662966 -0.14464109 0.07580726 0.034074288 -0.050180655 -0.1315587
0.11334747 -0.10928099 0.053121965 -0.04040883 -0.014948865 -0.116014525 0.047671895 -0.14562128
-0.10081959 0.015493731 -0.02549553 0.030096969 0.03600415 -0.046408694 0.009925067 0.1520268
0.14721039 -0.059724413 -0.03295543 0.14677744 0.015127878 0.005054494 0.096029624 -0.017074049
0.039195776 -0.066685185 -0.15611795 -0.08343117 -0.025257152 0.128251 0.031929493 -0.011259
-0.010029515 0.05676524 0.10406973 -0.016654652 -0.06294201 -0.0886213 -0.15046278 0.034519456
0.10553275 0.121221766 0.030074796 0.14892632 0.052045207 0.1263585 -0.13335721 -0.13180308
-0.06490996 -0.130337 -0.11860516 0.16324101 -0.162198 0.088958465 -0.08651823 -0.0615351
-0.066977784 -0.020290673 0.11891757 -0.14061767 -0.06046472 0.06891273 0.14634019 0.03818498
-0.08270562 -0.057536386 0.06555971 -0.15396534 -0.04221326 -0.050055824 -0.16341329 0.1121494
-0.15142444 -0.122505866 -0.1404798 -0.15584639 0.08527815 -0.005494456 -0.01834925 0.020603161
0.119793475 0.031367105 -0.12691018 -0.16456011 0.074109815 -0.06308067 -0.14733627 -0.12609772
-0.025989931 0.05174331 0.13126573 0.068884954 0.044299167 0.12429466 -0.0748507 0.08395718
0.007569631 0.083472334 -0.1531606 0.14970043 0.036784153 0.017129421 0.092156395 0.0028681955
0.03948776 0.00790745 -0.12915716 -0.0027459464 -0.115527794 -0.042069536 -0.15801732 -0.13725615
0.11887668 -0.09017573 -0.08096467 -0.020026367 -0.08520826 0.15694469 -0.026407402 0.1192528
-0.13220719 0.016375285 -0.15901962 -0.040265404 -0.07579826 -0.060574234 0.04769832 0.15965591
0.013390879 -0.017687142 -0.15811627 -0.06015585 -0.061928175 0.020308316 -0.12258687 -0.098572254
0.08909192 0.004821678 -0.08898239 0.087577686 0.07598808 -0.16106331 0.075626455 -0.11408828
-0.027281782 -0.009082159 0.08198325 0.1458743 0.025130868 0.13668214 -0.06642209 0.046340667
0.1457526 0.12019198 -0.156468 0.017622512 -0.0018434128 0.017923018 0.09761143 0.0794047
-0.089814626 -0.019935947 0.13906392 -0.06974743 0.09019719 -0.08196443 0.13420653 0.076550804
-0.12609474 -0.003278514 -0.020878157 0.088674545 -0.12048396 0.002626578 -0.15581267 0.13101238
0.007581651 -0.105836734 -0.15696906 0.010718942 -0.08624661 0.037348848 0.15795559 -0.110331796
-0.1547791 0.12812752 -0.05733516 0.10951726 -0.09690317 -0.053952496 0.14899197 0.057052236

recurrent.conv_x_z.K.bias f4 [32]
00000000: dea1 0d3e 88fd 893d 6b7b cfbc 86d4 353d
00000010: 84c8 12be 460f 773d 60fe ce3c 0033 2ebd
00000020: 2bda 1fbc 08b7 98bd a612 0d3d 4250 01be
00000030: 27d7 0abe 66ba 1a3d a24a 1e3e 7795 153e
00000040: 707e 33bd 5300 b0bd dba1 373d 58b6 fdbd
00000050: 5851 9c3d bf71 193e c65d e73d fb19 033e
00000060: eb63 a23d b674 d93c 064f 40bd 2b91 d1bc
00000070: e3df 943d f631 1abe 66b7 063e 1b01 033e
0.13831279 0.067378104 -0.025327405 0.04439213 -0.14334303 0.0603173 0.02526778 -0.042529106
-0.009756605 -0.074567854 0.034441613 -0.12628272 -0.13558637 0.03777542 0.15458158 0.14607798
-0.043821752 -0.08593812 0.04483209 -0.12388295 0.076327026 0.14984797 0.11297183 0.1280288
0.07929214 0.02654491 -0.046950363 -0.025581917 0.072692655 -0.15058121 0.13155898 0.1279339

recurrent.conv_x_z.V.weight f4 [32, 36]
00000000: 7380 363d e9b1 93bd 3ed1 e23d c6dd 89bd
00000010: 4eac 22be 88f6 373e 6caf 0c3e 687c 6d3d
00000020: 05e9 40be e39e 0c3e 0839 193d bb24 393b
00000030: 6899 dcbc 3bf0 76bd 2c3f 403d 41f4 48bd
00000040: 3edf c7bd 0702 44bc 5f69 d23b 2d69 27bd
00000050: d173 d13d 26dc abbd 5e79 0f3e 0da5 30bc
00000060: 75f4 43bd b52f db3d 7f56 aa3d bc30 68bd
00000070: 5c87 c4bc ff91 cbbd 1d63 b3bd 1512 f9bd
00000080: d99c bb3d 557a 05bc f577 0cbd 02ab 18be
00000090: c2d6 f8bd 02fc 28bc 07cd efbc 4e1e 3cbd
000000a0: 5984 28bd a567 08bd 6386 f93c 0b20 f8bc
000000b0: 71b1 93bd 6a27 353d c192 103d d1c0 41bd
000000c0: 14d4 d3bd 0d21 e6bd 7f9e 0a3e 3d1b 94bd
000000d0: 4b83 9c3c b4a1 e3bd 8a6d 143e 9af0 efbc
000000e0: 1711 a13d ff7f 20bd b3f0 e43d 696c d53b
000000f0: c795 133d e034 a93d cc6c b33d 793b 0b3d
00000100: 0eb2 3ebd 0151 303e 98c4 0dbc b300 aa3d
00000110: b4ca d0bd bc01 edbd dc24 6b3d d34a e1bc
00000120: 1268 08be 3c9a 41bd 9c6a 2dbe 6c66 163d
00000130: 6932 f53b 445e 8ebd 0ac9 673d aae8 1e3e
00000140: f37c eb3b 4a69 2a3e e992 033d bfeb 27be
00000150: ed76 b7bc e82f f7bd 3f00 033e e01f 01bc
00000160: 8761 4abd 7344 fb3d 4ecc f43d e16e 9ebb
00000170: 1954 0fbe 76c0 153e bea2 b43c 2c9f 60bd
00000180: b416 96bd 901c d13d e2ba bdbd 3fca 1cbe
00000190: d034 da3d 157c 353d d1ea 1dbd dd78 c53c
000001a0: 014a 2c3e 4dd8 efbc 1e96 65bd 0f15 a13c
000001b0: 2272 8bbd 3557 c73d 1f52 78bc 8742 47bd
000001c0: 8fbd 1bbd 6e31 0b3e 76f3 97bc ebf1 8f3d
000001d0: 6992 ad3d 878a ccbd e122 afbd e446 be3d
000001e0: 3198 2f3d 66b6 16be 5c09 e7bd 75b2 b53d
000001f0: 6e25 c8bc b966 88bd e39a a5bc ee53 afbd
00000200: 0dc1 2dbd 602a 0b3e 0632 9b3d 0401 273c
00000210: 6f77 423c d25a 95bd 9eed 40bd 3eb6 a4bd
00000220: 1fc1 cfbc 47ea 3cbd beab 173e af29 503d
00000230: b3a6 e33d ea03 93bc 4334 16be f499 02be
00000240: d226 31be 99a8 04bb 5afe f8bd 2b35 9d3d
00000250: 0f62 9f3c bc37 b7bd c056 a3bd 8ebf 083e
00000260: 471b 123e 6e98 f5bd 892f 35bd 5857 813d
00000270: e87c 30bd bb1a cabd 5393 95bc b103 cc3d
00000280: 9bb2 6a3d 9f74 36be 7e23 38bd 47f4 85bd
00000290: 64bd e43d fdef cf3b a057 87bd 7cf9 0f3e
000002a0: 020e 3abe 456a 7f3d 23f7 03be 737b 22bd
000002b0: 0253 1f3e bd61 7d3c cdb0 8cbb cdbf 3ebd
000002c0: 0ef5 e13d 633f 3e3e 3a58 3cbe ba04 913d
000002d0: 39b1 e2bd 5c55 e5bd 7ba6 c13d e7b3 193e
000002e0: 2b63 81bd c620 3c3c 7cf3 763c c084 2d3d
000002f0: 30d8 e93d 3f8e 42bd 7398 debd 5344 a93d
00000300: 3649 dbbd ee6c 7a3c dcfe 9c3d b84a 13bc
00000310: 6b28 143e d790 88bd 4fd2 033d b47f b0bd
00000320: 5ed7 08be 6cdc 0ebe 4257 46bc b8d2 593d
00000330: 114a cd3d 9308 52bd 4719 a4bc bb65 b73b
00000340: 1770 7e3d d6a4 08be 261a 18be 919e 963c
00000350: 3c33 493b dd7b 313d 4e91 aa3d a346 8d3d
00000360: 8f9a 1bbe 5325 e5bc e12a 3dbd 901b 5e3d
00000370: 3391 34be a880 0f3d f72f c1bc afa7 3c3c
00000380: 98dd ab3d be81 a2bd 9ad4 d63d 2a9e 043e
00000390: 4ed5 223e b389 08be 40ba 85bd 4103 ffbd
000003a0: cc72 9dbd c554 0e3d b6ab aabd e47e 033e
000003b0: ef83 283e 76c3 af3c 8a4b 043e 1298 02be
000003c0: 2ca0 bdbd d2fe 3c3d af78 14bd aef6 0fbe
000003d0: 06ad 34be f317 f63d ba52 013d 81b6 863d
000003e0: 6758 c13d d4d1 bebc 4871 8f3b baaf cabb
000003f0: d6b7 ebbd e8a8 debd 9f68 383e 8b27 08be
0.044556092 -0.07211668 0.11075066 -0.06731753 -0.15886042 0.17965138 0.13738793 0.05797997
-0.1883889 0.13732485 0.037407905 0.0028250653 -0.026928619 -0.060287695 0.046935245 -0.049061064
-0.09759377 -0.011963374 0.0064212526 -0.040871788 0.10227168 -0.08391599 0.14011142 -0.010781539
-0.047840554 0.10702459 0.08317279 -0.0566871 -0.023990326 -0.09939956 -0.08759139 -0.12161652
0.09160776 -0.008146842 -0.034294087 -0.14908984 -0.12150337 -0.01031399 -0.02927257 -0.04592734
-0.04114184 -0.033301968 0.030459588 -0.030288717 -0.07211579 0.04422704 0.035296205 -0.047303025
-0.10343185 -0.11236773 0.13537024 -0.07231758 0.019105574 -0.11114827 0.14494911 -0.029289532
0.07864588 -0.039184567 0.11178722 0.0065131676 0.03603151 0.08262038 0.08760986 0.033992264
-0.046556525 0.172184 -0.008652829 0.083009146 -0.101949126 -0.115725964 0.0574082 -0.0275015
-0.1332095 -0.04726623 -0.169352 0.03671877 0.007482816 -0.069515735 0.05658821 0.15518442
0.007186526 0.16641727 0.032122526 -0.16398524 -0.022395575 -0.12069684 0.12793063 -0.007881135
-0.049409416 0.12268915 0.119530305 -0.004834995 -0.13996924 0.146242 0.022050258 -0.054839298
-0.07328549 0.10210526 -0.09264161 -0.15311526 0.106546044 0.044307787 -0.038554017 0.024105484
0.16825105 -0.029277945 -0.056051366 0.019663362 -0.068088785 0.0973343 -0.015156298 -0.04864743
-0.038022574 0.13593075 -0.018548708 0.07028564 0.08475191 -0.099873595 -0.085515745 0.09290865
0.04286975 -0.14718017 -0.11281082 0.088719286 -0.02443191 -0.06660218 -0.020215457 -0.0856093
-0.042420436 0.13590384 0.075779006 0.010193113 0.0118692955 -0.07292713 -0.04710161 -0.080425724
-0.025360642 -0.04612186 0.14811608 0.050821003 0.1111578 -0.017946202 -0.14668374 -0.12754041
-0.17299965 -0.0020242094 -0.12157889 0.076761566 0.019455938 -0.08946177 -0.079755306 0.13354322
0.14268218 -0.11991964 -0.044234786 0.063154876 -0.04308787 -0.0986838 -0.018258726 0.099616416
0.057299238 -0.17817925 -0.044955723 -0.06540733 0.11168936 0.0063457475 -0.0660851 0.14060014
-0.18169406 0.062357206 -0.12887244 -0.03966851 0.15559009 0.015465197 -0.0042935372 -0.046569634
0.110330686 0.18578868 -0.18393031 0.0708098 -0.11068959 -0.11197922 0.09455582 0.15010034
-0.06317743 0.011482423 0.0150727 0.04236293 0.114181876 -0.047498938 -0.10868921 0.08264985
-0.10707323 0.01528476 0.07665798 -0.008989982 0.14468543 -0.06668251 0.032182988 -0.086181074
-0.13363406 -0.13951272 -0.012105765 0.053179473 0.10023893 -0.05127771 -0.020031584 0.005596844
0.062118616 -0.1334413 -0.14853725 0.018386157 0.0030700704 0.043331016 0.08328496 0.068982385
-0.15195678 -0.0279719 -0.04618347 0.054225504 -0.17633514 0.035034806 -0.023582442 0.011514588
0.08391875 -0.079349026 0.10489769 0.1295096 0.15901682 -0.13333778 -0.06529665 -0.124517925
-0.076879114 0.03474881 -0.083335325 0.12841374 0.16456579 0.021455508 0.12919441 -0.12753323
-0.09259066 0.046141453 -0.036247905 -0.14058945 -0.17644128 0.12016287 0.031573035 0.065777786
0.094406895 -0.023293413 0.004377518 -0.006185499 -0.11509673 -0.1087206 0.1800866 -0.13296334

recurrent.conv_x_z.V.bias f4 [32]
00000000: 3ef1 073e e8a7 0abe 0dec a1bb ab4a f9bd
00000010: deb0 033e b21c 61bd 3095 09bd 0d68 0abe
00000020: 817f 78bd 98b5 413c 4230 113d 5175 043c
00000030: cae6 0b3c 5c41 c53d 6f5b 693d 7b17 a3bd
00000040: 3f94 89bd b523 8c3c bf31 07be 58cf cdbd
00000050: eb72 20bd 77fc 023e 9289 08be 72d4 32be
00000060: c34d 72bd c2d6 473d a462 17be c66b 21bc
00000070: 7fd6 07bd 9b77 85bd bd5f 28be f670 373c
0.1327562 -0.13540614 -0.0049414695 -0.12172445 0.12860438 -0.054959007 -0.033589542 -0.13516255
-0.060668472 0.0118230805 0.035446413 0.008084611 0.008538911 0.09631607 0.056971963 -0.07963463
-0.06717729 0.01710687 -0.1320257 -0.10049313 -0.039172094 0.1279162 -0.13333729 -0.17463854
-0.05915619 0.048788793 -0.14783722 -0.009852355 -0.033163544 -0.065169536 -0.16442771 0.011196366

recurrent.conv_x_z.ffn.weight f4 [32, 32]
00000000: 1834 e63d ec42 16be 41d5 0d3e 8f67 75bc
00000010: ef3b 963d b515 c0bd 278c fd3d b712 60bc
00000020: e270 6d3d 5004 443e a7dc 5abd 031c 223d
00000030: a281 34bd 7e36 e8bd 2f84 c0bd 7720 043d
00000040: fd16 1bbe c0b7 d5bd 7c0b f1bd 1404 0cbe
00000050: b477 7bbd e95d 21be 8ba8 773c 1fe5 a3bd
00000060: fb0f 1dbe cf90 133d 2cc8 8b3d 1d49 d4bd
00000070: 3c76 1fbd fd42 c23b 4aae 5fbc 661e 40bd
00000080: 96a7 1fbe 8a41 d0bd d81e 2a3d ab2b 883d
00000090: b270 1c3e 1d14 893c 45d9 1dbe e31a de3d
000000a0: ff2b 78bd ebe3 b9bd e134 ad3d 9e37 a7bd
000000b0: 0012 35be aa3f 833d fee4 75bd 7d3e 8a3c
000000c0: 278a 2cbe 42d7 fc3c fecf a73c 1967 ae3c
000000d0: a7ca 0bbd e83d dd3c 326f 8fbd 1b54 d23d
000000e0: d99d 43be 9a72 043e 8e45 16be 9b8b 36be
000000f0: 8635 01be d54d 113d ef21 213e 8167 e93d
00000100: 11b1 033d fd8c 183e 4977 15be 9155 c23d
00000110: fa28 0f3e 5956 033e 7e58 0ebd e975 193e
00000120: 7e61 e83b 2426 e33d 2541 893d a2a6 543d
00000130: 4883 6ebd 3ceb 2f3e 2a5f 5dbe 3dd4 4abd
00000140: 1074 6e3d 18ff 8dbc fef5 dabd 8df1 a53d
00000150: 9800 213e 2fb6 c23d df1f 5c3d ca72 c4bd
00000160: dcda 293e f868 46be 0e99 383e b0f7 1c3e
00000170: 61ea 0abd 8ee6 0a3d 80c4 063e 0e66 1dbe
00000180: 9fa1 babd 68a7 c63c af11 03be b695 123e
00000190: c6d9 1a3c a5df 9d3b 7dd2 eb3b 92fa a4bd
000001a0: aeb8 dbbd 7da8 c03d b1c8 4f3b 3bfa a8bd
000001b0: 4661 e03d 9a8e 913c fc83 f1bd 93f8 8dbd
000001c0: 8a1d dabd 2463 c1bd a966 853d d595 1f3d
000001d0: e43b 4c3e e98c 3f3d d40d a33d 5eb0 2c3b
000001e0: 8b5d 11bd 971d 14be 3996 6bbd 968d 2dbe
000001f0: 3da3 9a3d a624 54bd 076d 20bc 0ecb 1f3e
00000200: 9769 0a3d 5759 903d bbb0 0d3e 7004 023d
00000210: 883d a93d 3587 0c3e 65c3 1a3e d4e4 f3bd
00000220: cf4c efbd b2ae ac3c 0342 bd3d b67e b4bd
00000230: 0073 143e a2f6 0fbe 09a2 84bd 401a 9d3d
00000240: c985 20be bbac e63d a8ff 94bd 5c21 283e
00000250: 9a7b 21be 1f5b b8ba c64c 21be bd62 c13c
00000260: 1dd6 19be 51a7 42be 08bb 8ebd 1224 353d
00000270: 6b49 a33d 1a65 ea3d abad 203e 7732 a9bd
00000280: 8f63 963d c967 f63d 5d27 ca3c ed68 203e
00000290: 60c9 6c3d 8961 363b aca3 573d 2e35 063e
000002a0: df6b 0e3e afd2 a93d dcb6 dbbd 691a 3dbe
000002b0: 924a dabd feb0 58bd 0b06 b0bd 7912 373e
000002c0: c4e9 8bbd 1b32 6ebd a6c7 05be d9a7 463d
000002d0: 5e97 98bd 6512 3dbd a2de f53d c0b6 363e
000002e0: 9698 1fbe 6c39 59bd e328 da3d d6de dd3d
000002f0: b6c8 c0bd b3b7 123e 5ac5 a3bd c0e0 bcbb
00000300: 6ba2 693d 3e43 1ebe 409a 2abe 9d74 0bbe
00000310: 0f18 9a3d 5e56 203e ff1d 093e 2715 173e
00000320: 5890 9d3d 9bf5 d5bd 9ad3 2fbe 6687 163e
00000330: e390 6dbc 16a7 ecbd 01dc 343e 79c6 e4bb
00000340: 6b2f dabb c88e 663d b384 5ebc 6e60 7f3d
00000350: 60d0 d83c 11f4 18be 1b92 15bc 1c94 fa3c
00000360: 18f5 31be f309 993d d662 d23d 497f 3bbe
00000370: 5dcc c93d bbd7 0cbe 2168 3fbe ca1e 823d
00000380: c39e 96bc 1d0a 12be 9ae9 b33c 8e4c 1fbe
00000390: ea3c 01be 4708 1f3d 94e6 c0bd 7510 f53d
000003a0: 0ba4 b13d fbdf 84bc 1640 3bbd 1ce1 303e
000003b0: b87e f93d f1ea 1f3d 54f9 5d3e bc11 1c3e
000003c0: ae1e 6abd 75cd 1fbd efee fcba ade8 f83c
000003d0: 0642 1bbe 2fa2 e1bc 9733 bc3d dd43 773d
000003e0: e8cc 17be 0f6a ad3d 2bde c8bd c9ed e8bc
000003f0: b787 5a3d 1f87 50be 509f b03d 3cea 81bc
0.11240405 -0.14673966 0.13850881 -0.014978304 0.0733565 -0.0937914 0.123802476 -0.013676337
0.05796898 0.1914227 -0.053433087 0.039577495 -0.04406894 -0.113385186 -0.09400212 0.032257523
-0.15145488 -0.10435438 -0.117697686 -0.1367343 -0.061393455 -0.1575848 0.015115867 -0.08002686
-0.15338127 0.036026772 0.06825289 -0.10365508 -0.038931116 0.005928396 -0.013652394 -0.04690399
-0.15591273 -0.101687506 0.04153332 0.06648954 0.15277365 0.016733224 -0.15414913 0.10844972
-0.060588833 -0.09076675 0.084573515 -0.08164905 -0.17682648 0.06408627 -0.060032837 0.0168755
-0.16849576 0.030864362 0.02048492 0.021289395 -0.03412881 0.027007058 -0.07003631 0.10269948
-0.19103183 0.12934342 -0.1467497 -0.17826693 -0.12618074 0.035474617 0.15735601 0.11396695
0.032151286 0.14897533 -0.14596285 0.09488977 0.13980475 0.12825908 -0.03475236 0.14986385
0.0070917 0.11091259 0.067018785 0.051916726 -0.05823067 0.17179579 -0.21618333 -0.049518812
0.058216155 -0.017333552 -0.106914505 0.08102713 0.15722883 0.09507405 0.053741332 -0.09592207
0.16587394 -0.1937598 0.18027136 0.1532886 -0.033914927 0.03391128 0.13160896 -0.15370962
-0.09112858 0.024249747 -0.12799715 0.14314923 0.009451335 0.0048179203 0.007196723 -0.08055605
-0.10728584 0.094071366 0.0031705315 -0.08250853 0.109560534 0.017768193 -0.11792752 -0.069321774
-0.106501654 -0.09442738 0.065137215 0.03896125 0.19944721 0.04676524 0.07961622 0.002635024
-0.0354896 -0.14464413 -0.05751631 -0.16948542 0.075506665 -0.051792763 -0.009791619 0.15604803
0.033792105 0.0704829 0.13836949 0.031742513 0.08263689 0.13723452 0.151136 -0.1190888
-0.11684572 0.021079395 0.09241106 -0.08813231 0.14496994 -0.14058927 -0.06476218 0.076710224
-0.15676035 0.112634145 -0.07275325 0.16418976 -0.15769807 -0.0014065242 -0.15751943 0.023606652
-0.15023084 -0.19009139 -0.06969267 0.044223852 0.07972988 0.11445065 0.15691249 -0.082615785
0.07343208 0.12031514 0.024676973 0.15665026 0.057809234 0.0027829132 0.052646324 0.13106224
0.13908337 0.08292138 -0.10728237 -0.18467106 -0.106587544 -0.052903168 -0.085949026 0.1787814
-0.06831697 -0.058153253 -0.13064441 0.048499916 -0.07450746 -0.04616012 0.120053545 0.17843151
-0.1558555 -0.053033277 0.1065233 0.10833518 -0.094132826 0.14327888 -0.07996626 -0.005764097
0.05703966 -0.15455338 -0.16660404 -0.13618703 0.0752412 0.15657946 0.13390349 0.14754163
0.07693547 -0.10447236 -0.17170563 0.14700088 -0.014499876 -0.115553066 0.1766205 -0.0069816676
-0.0066584847 0.05628851 -0.013581443 0.062347822 0.026466548 -0.14936854 -0.009129073 0.030588202
-0.17378652 0.07472601 0.10272758 -0.18310274 0.09853432 -0.1375417 -0.18692066 0.06353529
-0.01838625 -0.1426167 0.021961976 -0.15556547 -0.12620893 0.038826253 -0.09418979 0.119660296
0.08673867 -0.016220083 -0.045715414 0.17273372 0.12182373 0.039042417 0.21677142 0.1524114
-0.057158165 -0.0390143 -0.0019297282 0.030384386 -0.15161905 -0.027543155 0.091895275 0.060367454
-0.1482426 0.08467495 -0.09808 -0.028433697 0.053352084 -0.20364045 0.086241364 -0.015858762

recurrent.conv_x_z.ffn.bias f4 [32]
00000000: 5585 81bd 47dc 29be d17b cbbd 8571 18be
00000010: 2429 e23d 879d 36be 2ad4 253e 3498 2dbc
00000020: e8ed 69bd 8060 9dbd 41ee 7b3d 6bef e73d
00000030: b32b d83d fcd9 32be 10e4 96bd 901f 343d
00000040: c42b 95bd 7ffd 02be 06c4 04be d7fe 143e
00000050: 7641 8cbc 4239 37bd 22f6 cdba b980 14bd
00000060: 9b14 9a3d ce89 df3d bffe f53d 2113 9cbd
00000070: c86e 493d af9a d63d 5f0d 1a3e 4b3c 11be
-0.06324259 -0.16587935 -0.099357255 -0.14887054 0.11043003 -0.1783353 0.16194215 -0.01059537
-0.05711165 -0.076844215 0.061506514 0.11324962 0.1055521 -0.17465967 -0.07367718 0.043975413
-0.07283738 -0.12792014 -0.12965402 0.14550339 -0.017121058 -0.04473234 -0.0015713612 -0.036255572
0.075234614 0.10914956 0.120114796 -0.07620836 0.049177915 0.10478722 0.15044163 -0.14183156

recurrent.conv_x_z.ln.weight f4 [32]
00000000: 3af7 863f 293b 853f 2f23 813f 574d 813f
00000010: 21c5 863f e92d 7c3f ae71 7f3f 0e12 833f
00000020: bb44 853f fe2a 7e3f 8373 833f a968 823f
00000030: 0cf2 803f d459 7a3f 6a08 873f 625f 873f
00000040: 00c0 813f cdae 793f 35cc 823f aae9 823f
00000050: 19ee 813f c9e7 813f eb9e 883f 0d0e 853f
00000060: 0b5c 7f3f 9996 803f 6ada 803f 992a 833f
00000070: 2d36 823f 3f74 853f 34fd 833f ca84 863f
1.0544198 1.0408679 1.0088862 1.0101727 1.0528909 0.98507553 0.99782836 1.0239885
1.04116 0.9928435 1.0269626 1.018819 1.0073867 0.97793317 1.0549443 1.0575984
1.0136719 0.9753235 1.0218569 1.0227559 1.0150787 1.014886 1.0673498 1.0394913
0.9974982 1.0045959 1.0066655 1.0247375 1.0172783 1.04261 1.0311646 1.0509274

recurrent.conv_x_r.lambda_q1 f4 [32]
00000000: 9a3b d63c d763 37be 4f49 083e 4d15 78bd
00000010: 8d04 dbbd 511e af3c 4bb5 56bb ab86 79be
00000020: dd98 033d a7bd 973b 324a 17bd 2e1a 33bd
00000030: dd93 53bd edaa 28bd c643 39bd 4f58 13bd
00000040: 38b8 d0bd d523 f4bc ad33 d73c 6514 ddbd
00000050: 6fac 843d c4af bcbd 17e3 db3c 3fc6 ae3d
00000060: 9e2f 32bc 1a59 eabb 0f3b 5bbd c742 8bbe
00000070: 6be5 17be aaff 5b3d 2da0 eebc 156c 10be
0.026151467 -0.1790918 0.13309215 -0.06056719 -0.10694227 0.02137676 -0.0032761868 -0.24367778
0.032128204 0.0046307626 -0.036935993 -0.04372614 -0.051654685 -0.041178633 -0.04523065 -0.03597289
-0.10191387 -0.029802242 0.026269758 -0.107949056 0.064782016 -0.09213212 0.026841683 0.08533906
-0.010875611 -0.007151735 -0.05352312 -0.27199385 -0.1483361 0.053710617 -0.029129112 -0.1410373

recurrent.conv_x_r.lambda_k1 f4 [32]
00000000: 2729 f8b9 91d0 b2bb 585f 0f3d a89e 30bd
00000010: 6909 31bd 7acd 23be d707 5bbe 40fb 763c
00000020: cef4 29bd 61bc 0a3d 6d3c 05be 4eb8 8a3c
00000030: f38d 32ba 9b53 1d3e db54 11bd 9b88 43bd
00000040: 3925 b83c a323 d9bd dbf4 e13d 5143 06bd
00000050: a59b 31be 68a5 b73c 8d08 be3d 32bf e43c
00000060: 1f87 c4bd 1b2c 13bd f053 8abe c2ac ae3d
00000070: 2767 11bd 8d9b c5bc 52b8 583d 6293 a5bc
-0.00047332907 -0.005456992 0.035003036 -0.043120056 -0.043221865 -0.15996352 -0.2138971 0.015074551
-0.04149323 0.03387106 -0.13011332 0.016933586 -0.0006811313 0.15363924 -0.035481315 -0.0477377
0.022478687 -0.106025 0.110330306 -0.03277904 -0.1734453 0.022417739 0.09278975 0.0279232
-0.09596085 -0.035930734 -0.27017164 0.08529045 -0.035498764 -0.024122024 0.052910157 -0.02021188

recurrent.conv_x_r.lambda_q2 f4 [32]
00000000: d734 fd3d b3ac f3bd fb96 913d 9ab8 d2bd
00000010: f41e 3ebc 21a0 413d ca78 d6bc c5bf 713d
00000020: eb53 1cbc ef8d 9abd 38c9 e53c f3e0 10bd
00000030: 7c18 0f3e fa36 5fbd 739f 2c3e 0ff3 52bd
00000040: ad9a f7bd 6736 02be 2739 d83c f9c8 1ebb
00000050: 8575 6e3d 24cf aabd bf50 ee3a 8ede 0fbb
00000060: 87b3 b4bd 9bd6 2d3d 9252 ec3c 07aa 7cbd
00000070: c2ee c9bc d25e b93d ff26 7e3b bbf2 8e3d
0.12363594 -0.11898174 0.07108875 -0.10289116 -0.0116040595 0.04727185 -0.026180644 0.059020776
-0.009541492 -0.07546603 0.02805005 -0.03537078 0.13974184 -0.05449579 0.168577 -0.05150133
-0.12090049 -0.12716065 0.02639444 -0.0024228676 0.058217544 -0.0834029 0.0018182023 -0.0021952721
-0.088233046 0.04244099 0.028847966 -0.06168559 -0.024649981 0.09051289 0.0038780568 0.06979891

recurrent.conv_x_r.lambda_k2 f4 [32]
00000000: c0e3 793c fe8b 923d 9dfc 8b3d 8413 0f3e
00000010: 3e10 a73d 3cb1 413d 0b55 743d 2453 223e
00000020: d829 31bd 6200 4bbe 3fc6 553d f636 c43d
00000030: f599 5fbd 973c 81be 87ef e93b a135 a33d
00000040: f796 80bd d66f 8e3c 1765 533e 8d2f c5bd
00000050: 983d f63d 87fb 1d3e 32bb cfbd 356c 2e3e
00000060: a0a2 afbd fbc6 473d 7921 9dbd df13 c5bd
00000070: 117c 93bd 5c41 bc3c 1062 af3d 6350 60be
0.015252054 0.07155608 0.068352915 0.13972288 0.08157395 0.047288164 0.059651416 0.15852028
-0.043252796 -0.19824365 0.052191015 0.095807955 -0.054590184 -0.2524154 0.0071391496 0.07969213
-0.06278794 0.017387312 0.20644031 -0.0962821 0.12023467 0.15427981 -0.101431265 0.17033465
-0.0857594 0.048773747 -0.076724 -0.09622931 -0.07201398 0.022980385 0.08563626 -0.21905665

recurrent.conv_x_r.Q.weight f4 [32, 36]
00000000: 6711 16be cbf1 03be 6b14 98bd 0b52 a63c
00000010: b09b 063d 4ca9 15be 60b2 56bd 40bc f4bc
00000020: 6072 b1bd 2304 913d 8088 153d 90c5 b43d
00000030: f84c 99bd 36ae bdbd 6e98 0dbe ce81 9f3d
00000040: 3883 8bbd 906b 67bd 8095 13be 938e 0d3e
00000050: 501b 3fbd b333 a93d 2e0b 263e a67a ecbd
00000060: e3aa 913d 0685 f2bd a652 803d 20f8 e43d
00000070: 78ce e23d 2e65 98bd 6839 d7bd 4b50 603d
00000080: 488b 99bd a062 4d3d 0613 d43d b45b 07be
00000090: dcad 013e 0000 3eba 489a 81bd 087c 96bd
000000a0: 2e76 0d3e fa06 1f3e 6b89 d5bd d870 d43d
000000b0: 560d 65bb 6ba7 493c 1bc5 e43d cb81 4b3d
000000c0: 76a3 ca3c c3e8 1abe d668 53bc e031 f6bd
000000d0: d691 04be ab7c 8d3c 6b1f 32bd 4410 263e
000000e0: 23ce ba3d 9b9c 6dbd d063 98bd b069 903d
000000f0: de4e 9d3d 96f8 75bd 2242 25be 7b0c 9f3d
00000100: c079 273e a0ba ec3d 60d5 b33d 96c6 f0bc
00000110: 5622 aabd f68c b8bd 2b03 7fbc a0bd de3d
00000120: 177f 02be 38f2 febd 86e8 c93d 5665 573a
00000130: f02a 1cbd 088c 803d 18cb b53d dbc4 d2bd
00000140: 00a8 23ba e688 553d fb8e 6a3d 0bc9 e33d
00000150: 08d1 22be ab76 5f3c 9a67 08be 6b4a 76bd
00000160: db07 53bd 3639 06bd 8b88 75bd 2b02 e93d
00000170: 2b36 9f3c 4e1e f23d f3fc 23be e6c0 1d3e
00000180: 5666 373b 48fa d7bd 4b6d ea3d 4bb7 223e
00000190: 401f 75bd 3777 27be b694 cabc 9eb3 ae3d
000001a0: c36f 8c3d f09e 05bd 1435 033e 20c0 33bd
000001b0: 66ff 62bd 56ce ecbd ca85 003e de42 11be
000001c0: 00b7 503c 3015 063d dc7b 023e 96c9 24be
000001d0: 8ea3 16be 2ed7 173e f86b b1bd 60b0 62bd
000001e0: e643 fa3d 969c 01be b3d2 8cbd 9683 abbc
000001f0: 18b2 293e db92 ea3d 4bff e3bc 0688 1e3e
00000200: 62c8 263e d62b 89bd 4b46 063e 80d8 abbb
00000210: 069a f63d a056 16bd 3e03 87bd 9cec 0e3e
00000220: f8f9 88bd 4ceb 04be 9670 1f3e f6ed 80bc
00000230: 7b11 663d 0050 ffba a3fc e6bd 0be8 693d
00000240: c02c 133d 2b5d 1c3e b08f 29be 90ab 38bd
00000250: d68b 83bb f612 38bd e03b 43bd 6b29 563d
00000260: 1ecb 873d aed1 cabd 76ab ffbc a67e 513d
00000270: 63ac c63d a07a cf3d 16bb a23d ee73 f43d
00000280: f618 d83c cb70 0abe f651 ccbd cb27 2dbd
00000290: e810 02be c0bd 8abc 3642 253d 341a 213e
000002a0: 687e 99bd bc2a 1c3e 4691 32bd ea53 0cbe
000002b0: 0b59 7bbd 4b24 18bd db67 3f3d 6bfb 203e
000002c0: 5688 413b f6c9 b03d c0bb 913d d6e7 003d
000002d0: 9058 293d 6b93 f33c c036 033d ab1f 883c
000002e0: 2ee9 cdbd 2b42 be3d 33a3 c63d 6622 d53d
000002f0: 80d2 1bbe 56e4 6a3c 5e93 edbd f679 983d
00000300: c643 1e3d 8b12 e33c 63a7 afbd a636 80bd
00000310: b026 9e3d 64b1 26be 88ba fcbd f646 133e
00000320: 7b63 603d 7695 6abd 6685 703d abda 14b9
00000330: 68c2 913d 60ea c1bc a3f4 ff3d b85b 033e
00000340: a060 5d3d 0065 f83d e65c 73bd d668 b63c
00000350: 5b3c 4e3d 36b9 a43d ab82 2a3a 4071 f2bc
00000360: cbdc b2bc 6609 1b3e ab2f 233d d6ed 9f3d
00000370: 4b22 673d 70dc d53d c72c 0abe 404f 46bd
00000380: 9e6e d4bd 5baf 27bd fbd7 0d3d c8b5 bdbd
00000390: 40d7 ffbd 9691 29bd 56a5 64bd 736b 273e
000003a0: b387 933d f8c7 e4bd d0b4 783d fecb ca3d
000003b0: 8608 47bd 1e17 e2bd 0b9c 9c3c f86c 9e3d
000003c0: 4e8a e3bd 603a 123d 60bd 92bc aba8 fc3c
000003d0: 26a3 263e 36b5 c93c 568c 8f3d 70a0 78bd
000003e0: 48cb 073e 9ba4 9dbd 76de 36bd 18a0 c3bd
000003f0: c081 cc3c f08d 2bbd bbce 5abd 53a2 f9bd
-0.14655076 -0.12885205 -0.074257694 0.020302793 0.03286332 -0.14615363 -0.052416205 -0.02987492
-0.086643934 0.07080867 0.03650713 0.088267446 -0.07485384 -0.09261744 -0.13827679 0.0778843
-0.06812137 -0.056499064 -0.14412498 0.13823919 -0.046656907 0.08261814 0.16215202 -0.11546831
0.07112672 -0.118417785 0.06265764 0.111801386 0.11074537 -0.074411735 -0.10508996 0.054764073
-0.07497269 0.050142884 0.10355191 -0.13218576 0.12663978 -0.0007247925 -0.06328255 -0.07347876
0.13814613 0.15530005 -0.10426601 0.10373086 -0.0034950576 0.012307982 0.111704074 0.049684327
0.024736147 -0.15127854 -0.012903413 -0.12021232 -0.12946257 0.01727136 -0.043486994 0.16217142
0.09121349 -0.05801068 -0.07440913 0.07051408 0.07681058 -0.060051523 -0.16138509 0.07766052
0.16355038 0.115590334 0.087809324 -0.029391568 -0.0830733 -0.09011261 -0.01556472 0.10876012
-0.12743793 -0.12448543 0.098588035 0.00082166994 -0.038126886 0.06276709 0.08876628 -0.102914535
-0.00062429905 0.05213251 0.057265263 0.1112233 -0.15900052 0.0136391325 -0.13320771 -0.060129564
-0.051521163 -0.032769404 -0.05994467 0.11377367 0.019435009 0.118221864 -0.16014461 0.15405616
0.002798458 -0.10545784 0.11446627 0.15890233 -0.059844255 -0.1635407 -0.024729114 0.08530353
0.06857254 -0.032622278 0.12813216 -0.043884397 -0.05541935 -0.11562793 0.12551036 -0.14185664
0.012738943 0.03273505 0.12742561 -0.16092524 -0.14710829 0.14828178 -0.086631715 -0.055343986
0.12219982 -0.12657389 -0.06876125 -0.020936769 0.16571844 0.11453792 -0.027831694 0.15481576
0.16287377 -0.06697814 0.13112752 -0.0052443147 0.120410964 -0.036703706 -0.06592415 0.13957447
-0.06688303 -0.12980384 0.15570292 -0.015738469 0.056169014 -0.0019478798 -0.112786554 0.05710606
0.03593135 0.15269916 -0.16558719 -0.04508549 -0.0040144725 -0.044939958 -0.047664523 0.052285593
0.066305384 -0.099032745 -0.031209689 0.051146172 0.09700849 0.10130811 0.0794584 0.11936174
0.02637909 -0.1351959 -0.0997657 -0.042274278 -0.12701762 -0.016936183 0.040346347 0.15732652
-0.07494813 0.15250677 -0.043595575 -0.13703886 -0.061364215 -0.037143987 0.046729904 0.15720908
0.0029530725 0.08632271 0.071158886 0.031471096 0.041344225 0.02973338 0.032034636 0.016616663
-0.10054241 0.09289964 0.096990965 0.104069516 -0.15217018 0.014336666 -0.11600374 0.07445137
0.038638853 0.027718803 -0.08576848 -0.06260423 0.07722223 -0.16278607 -0.123402655 0.14382538
0.054782372 -0.057271443 0.05872097 -0.0001419584 0.07117158 -0.023671329 0.124978326 0.12827957
0.054047227 0.12128639 -0.059414767 0.022266787 0.05035053 0.08043139 0.00065044564 -0.029595017
-0.021833798 0.15140304 0.03984038 0.078090355 0.05642919 0.10442436 -0.13493644 -0.048415422
-0.10372661 -0.040938716 0.034629803 -0.09263188 -0.124922276 -0.041398607 -0.05582174 0.16349582
0.07203617 -0.111709535 0.06071931 0.0990219 -0.048592113 -0.110395655 0.019117376 0.07735628
-0.11110364 0.035700202 -0.017912567 0.030842146 0.16273174 0.02462254 0.07009189 -0.06069988
0.1326114 -0.076974116 -0.04464575 -0.0955202 0.024964213 -0.04188341 -0.05341981 -0.12189164

recurrent.conv_x_r.Q.bias f4 [32]
00000000: 6e6a b6bd 2b78 203e 300b 36bd 569a a83d
00000010: a008 1fbe c06e 1b3d c0f0 b2bc 9b15 92bd
00000020: 9354 f23d 005a feba 66be 12be 0883 b4bd
00000030: 5beb d53d 6b84 173e caa0 243e 6bc7 663d
00000040: a6b0 3d3d 0bbf d23d 73d2 863d c6ec 023e
00000050: 8797 093e 5343 b3bd 20b8 683d ca40 12be
00000060: c363 27be 5ba8 373d 0b79 233d ea07 143e
00000070: 6b57 70bc 1096 ef3d a8bb b03d c626 08bd
-0.089070186 0.1567084 -0.044444263 0.08232562 -0.15530634 0.037947416 -0.021843314 -0.07133027
0.118325375 -0.0019405484 -0.14330444 -0.08814055 0.10445281 0.14796607 0.16076961 0.056342524
0.046311043 0.10290345 0.06583109 0.12785634 0.1343671 -0.087530755 0.05681622 -0.14282528
-0.1634665 0.04483829 0.039910357 0.14456144 -0.01466928 0.11698544 0.086295426 -0.033240102

recurrent.conv_x_r.K.weight f4 [32, 36]
00000000: c321 bebd 6b8a ddbc 5073 753d b859 afbd
00000010: 0618 dabd bb25 aebd db1a 2d3d 2b1c 713d
00000020: 0056 9e3c 2b83 87bc e063 9fbd 40ac 2ebc
00000030: 1b52 b6bd e6e4 213d 36de e23c 9baf 0b3d
00000040: 3440 1e3e c066 e5bc 3aac 0f3e 5370 03be
00000050: 80df c6bc 43b4 b73d 16a9 f83c 6042 f9bd
00000060: 7894 bebd ab0e 4a3b 9217 153e f0d2 67bd
00000070: bbf5 d2bd 5860 82bd 4b48 cbbd 6073 15be
00000080: 625f 2a3e 546a 0abe e623 dd3d 0fa1 0a3e
00000090: f6fb ddbd 7892 9a3d d639 b33b c2f5 19be
000000a0: 36bb 02be 3642 1d3e 93e0 263e fb54 c3bd
000000b0: 748b 223e 1b5d bdbd 86a8 6c3d 9857 8bbd
000000c0: e6b5 ccbd aeb5 9dbd 37cd 0cbe 9ad7 223e
000000d0: 46e8 cd3d 7664 ebbd e0c6 a23d cecc d6bd
000000e0: 2b8c abbc e08e 5d3d aca2 27be 1b74 fc3d
000000f0: 0bfe 933c 56d0 1abc 0a1d 29be 8ccf 13be
00000100: 6ebf cabd 7201 0abe 9628 ba3d 1bca 8c3d
00000110: 80b8 bc3c 60b7 bcbc ab21 82bc a05f c43c
00000120: c04c 31bd 30ff 293d 82ea 22be 96f7 033c
00000130: 7b8a 493d bf96 28be 1646 ccbc c07f 8b3c
00000140: dbf7 a03d ab5e 703c 338b 90bd 6bb8 033c
00000150: 70d1 efbd 8666 633d d654 cdbb e681 8b3d
00000160: 00e4 433b 3b81 81bd 0e12 b93d 5afc 093e
00000170: a04f 963d a6aa 293d 6634 16be fa37 193e
00000180: ba7d 1dbe 06c5 d9bd 66ce 213e 08c2 d13d
00000190: 4b30 183e 1645 293e 3608 0d3e 96b9 d73d
000001a0: f0c0 07bd ccc0 1a3e 8e65 cbbd 00be 7abb
000001b0: f8e5 28be 5627 2cbb 26d5 2bbd f66a 0b3d
000001c0: 4b0b c23c 7bce 5b3d 80b8 4bbd 3b72 213e
000001d0: 4fc3 1b3e ebaa 88bc 5669 63bb db11 0a3e
000001e0: 082a dc3d c383 d23d 2ee7 90bd 9b91 1e3d
000001f0: 4088 17be 5882 d4bd 6b06 27bd ae76 c6bd
00000200: 1075 b83d b609 f1bd 979d 08be ab07 a7bc
00000210: a608 833d 1e6a e2bd c459 243e b67c 853c
00000220: d01d 45bd ab02 79bb 2b98 8ebb 306f 4a3d
00000230: 00aa 71bb 1679 fbbc 23e9 133e 06fd 24be
00000240: 802a 22bc e849 01be 1e36 24be 1837 8c3d
00000250: 464e 0fbe 989c e2bd ab11 4bbc 7645 82bc
00000260: 5bf2 c93d c458 143e ab2b 8ebc 6a30 103e
00000270: 6454 113e fb12 1ebe 0845 133e 53e0 f5bd
00000280: cb03 923c 4b87 8cbc 6eb0 29be e3fb f9bd
00000290: 28b2 163e 506e 14bd 206b a13c 1b72 8bbd
000002a0: aede 9e3d d633 91bd 8037 6ebc eb92 8b3d
000002b0: 3ff1 0fbe 96c8 1ebc 525c 06be cb8c be3d
000002c0: b39f 143e 5267 12be b897 acbd f03a 37bd
000002d0: 666e d43d c079 c83c 8245 14be 9376 8e3d
000002e0: 4602 f1bd d64c 9b3b c0bc 6fbd 6ad9 24be
000002f0: 9644 ef3c aefa 993d d632 9bbc db5b ffbd
00000300: 0bb5 ec3d fc8d 2abe 86b1 253d 32ff 153e
00000310: de66 b7bd f860 d93d 9b20 413d f809 98bd
00000320: 3b51 aa3d 9881 96bd d60c 943d 366a 733d
00000330: f0cc 333d eb0e 843d 6093 23be e646 f3bd
00000340: cf5c 153e f723 1e3e d0cf 8e3d c6da 1abd
00000350: 1e0d e2bd 5290 12be bfb2 13be d046 c1bd
00000360: 7855 f73d 7b49 063d 1710 0e3e 53c8 e1bd
00000370: 58a6 dbbd c0bd dd3d 8b8b eabc d6c8 83bc
00000380: d2cd 23be 165c 2d3c 1606 87bc 564a de3c
00000390: f0cd a1bd 2b42 533c 036c 203e f35b d1bd
000003a0: 966f 14bd d668 8a3b abe1 1e3e b8e4 d0bd
000003b0: 98b4 813d c4cd 06be 00be 95bc 279a 20be
000003c0: 568a 86bb 5092 cb3d 4020 72bc f421 0ebe
000003d0: 7b86 7d3d 76ff e73d a6ba 7b3d d64d cbbc
000003e0: 968d 00be d380 fd3d ae2a aa3d f0da 953d
000003f0: a65a 2d3d 5e82 b9bd e0fe 0c3d d861 0b3e
-0.09283783 -0.027043542 0.059924424 -0.08562034 -0.10649113 -0.0850329 0.04226194 0.058864754
0.019328117 -0.016542038 -0.077827215 -0.010661185 -0.08902379 0.039524935 0.027693849 0.034103017
0.15454179 -0.028003097 0.14030543 -0.12835817 -0.024276495 0.08969929 0.030354064 -0.12170863
-0.09305662 0.0030831497 0.14559773 -0.05659765 -0.103007756 -0.06366032 -0.09925898 -0.14594793
0.16637948 -0.13517123 0.10797863 0.13538001 -0.10839073 0.07547468 0.005469541 -0.15035155
-0.12766728 0.15357289 0.16296606 -0.09537693 0.1587351 -0.09246274 0.057777904 -0.068038166
-0.09995632 -0.07700668 -0.13750158 0.15902558 0.10054068 -0.11493771 0.07948089 -0.10488282
-0.02094086 0.054091334 -0.16370648 0.12326833 0.018065473 -0.009449085 -0.16514984 -0.14434642
-0.098997936 -0.13477114 0.090897724 0.06874486 0.023037195 -0.023036659 -0.015885195 0.023971379
-0.043286085 0.04150313 -0.1590977 0.008054635 0.04920433 -0.16463755 -0.024935763 0.01702869
0.07859775 0.014671008 -0.070578 0.008039574 -0.11709869 0.055517696 -0.0062662167 0.068118855
0.0029890537 -0.06323477 0.09036647 0.1347517 0.07339406 0.04142251 -0.14668426 0.1496276
-0.15379992 -0.10633282 0.15801391 0.10242087 0.14862172 0.1653026 0.13772663 0.105334446
-0.033142984 0.15112609 -0.099314794 -0.0038260221 -0.16493976 -0.0026268563 -0.04195132 0.034037553
0.023687026 0.053663712 -0.0497365 0.15766232 0.15211223 -0.016683063 -0.0034700236 0.13483374
0.10750204 0.10279038 -0.07075344 0.03871308 -0.14798069 -0.103764236 -0.040777605 -0.09690605
0.09006703 -0.1176943 -0.13341366 -0.020389399 0.06398134 -0.110553965 0.16049868 0.016294818
-0.048124135 -0.0037995975 -0.004351636 0.049422443 -0.003687501 -0.030697387 0.14444403 -0.16112146
-0.009897828 -0.12625849 -0.16036269 0.06846446 -0.13994703 -0.11065024 -0.012394349 -0.015902262
0.09860679 0.14486986 -0.017354807 0.14080968 0.14192349 -0.15436928 0.14381802 -0.12005677
0.017824074 -0.017154356 -0.16571209 -0.12206247 0.14716399 -0.036238015 0.019704401 -0.06808873
0.077573165 -0.07089965 -0.014539599 0.06815132 -0.14056872 -0.009691378 -0.13121155 0.09304198
0.14514045 -0.14297226 -0.084273756 -0.04473394 0.10372619 0.024472117 -0.1447964 0.0695621
-0.11768012 0.004739384 -0.058529615 -0.16098562 0.029207509 0.075185165 -0.018945139 -0.12468692
0.11557969 -0.16655725 0.040452503 0.1464813 -0.08955167 0.106141984 0.047150236 -0.074237764
0.08316275 -0.07348937 0.07229011 0.059427463 0.043896616 0.06448158 -0.15974188 -0.11878757
0.14586185 0.15443407 0.06973231 -0.037806295 -0.11037658 -0.14312866 -0.14423655 -0.094373345
0.12076849 0.03278492 0.13873325 -0.11024537 -0.10725087 0.108272076 -0.028630992 -0.016086977
-0.15996483 0.010581037 -0.016482394 0.027135056 -0.079006076 0.012894194 0.15666203 -0.10222616
-0.03623923 0.004223923 0.15515773 -0.10199875 0.06333274 -0.13164431 -0.018279076 -0.15683804
-0.0041058464 0.09940016 -0.014778197 -0.1388014 0.06189583 0.11328022 0.0614573 -0.024817389
-0.12554011 0.12378087 0.08308922 0.0731715 0.042322777 -0.09058069 0.034422755 0.13611543

recurrent.conv_x_r.K.bias f4 [32]
00000000: b6c2 d33c dbb2 69bd a0fb 53bd 4380 dabd
00000010: 36e0 8a3c 84d8 21be c07c c8bc 9b01 c33d
00000020: 4bb0 943c 1003 b33d 4f73 2abe 8bb9 b23d
00000030: 4aab 1ebe ab00 f9bd fba0 5b3d f2e4 103e
00000040: be65 a93d 2071 1ebd d8e1 d43d c081 a9bd
00000050: 2e5f d6bd 4885 0c3e 806b f5bc c347 c0bd
00000060: 5090 863d fea9 d5bd 6b44 143c 5e90 c23d
00000070: feac 9dbd 16f5 3abd 9645 c33d a41f 133e
0.025849681 -0.057055335 -0.05175364 -0.10668995 0.016952615 -0.1580525 -0.024473548 0.095217906
0.01815047 0.087408185 -0.16645549 0.08726796 -0.15495029 -0.121583305 0.05362032 0.14149836
0.08271359 -0.038682103 0.10394639 -0.08276701 -0.10467373 0.13722718 -0.029958487 -0.093886875
0.06570494 -0.10432814 0.009049515 0.09500192 -0.07699011 -0.04564389 0.09534757 0.14367539
