GraphTransformer_mi_global_diff.pth (torch, 136534 bytes, 31 tensors)

recurrent.input_proj.weight f4 [32, 1]
0	0xbf4ed433	-0.8079254
1	0xbe4b1e2e	-0.19835731
2	0x3f808b48	1.0042505
3	0x3e2bc9e5	0.16776235
4	0xbf87e703	-1.0617374
5	0xbf5fb796	-0.87389505
6	0x3eafc4ea	0.3432992
7	0x3f2e1d08	0.6801305
8	0xbe06def4	-0.13170987
9	0xbf811988	-1.0085917
10	0xbf620882	-0.8829423
11	0x3f81a225	1.0127608
12	0xbec898f2	-0.39179188
13	0xbf3e1e20	-0.7426472
14	0x3f67f78a	0.9061209
15	0x3f5f2b56	0.871755
16	0xbf8a1736	-1.0788333
17	0xbf935e54	-1.1513162
18	0x3f068328	0.5254388
19	0xbee8784a	-0.45404273
20	0xbf63f05d	-0.8903864
21	0xbf9fd78f	-1.2487658
22	0xbf756d81	-0.95870215
23	0xbef8d061	-0.4859648
24	0xbe85b553	-0.26114902
25	0x3cdd4b1e	0.027013358
26	0xbefbea23	-0.4920207
27	0xbf0fe52f	-0.5620908
28	0xbf899fab	-1.0751852
29	0x3fd2936d	1.6451241
30	0xbf4ae493	-0.79255027
31	0xbef329ff	-0.47492978

recurrent.input_proj.bias f4 [32]
0	0xbda91a28	-0.08256942
1	0x3f2cf2f2	0.67558205
2	0xbf06b3e9	-0.5261827
3	0x3f6005de	0.8750895
4	0x3ea407ae	0.3203711
5	0x3f670460	0.9024105
6	0x3ebc9057	0.36828873
7	0x3f728d9f	0.94747347
8	0xbf37bb2e	-0.7176999
9	0x3f1ea036	0.6196321
10	0x3eac2d5e	0.33628362
11	0xbeab3e98	-0.33446193
12	0xbf36b2e1	-0.713667
13	0xbe6aed0d	-0.2294199
14	0xbe212960	-0.1573844
15	0xbecff6b0	-0.40617895
16	0x3f7d2a6e	0.9889287
17	0xbee58ec9	-0.448355
18	0x3ee810ff	0.45325467
19	0x3f5ecec4	0.8703425
20	0xbf41be11	-0.75680643
21	0xbf133cec	-0.57514834
22	0x3e976cd3	0.29575214
23	0xbf08a547	-0.53377193
24	0x3f5f0bad	0.8712719
25	0xbe6bd749	-0.23031344
26	0xbd7247a1	-0.059150342
27	0xbf099722	-0.53746235
28	0x3f715549	0.9427076
29	0x3e654e5e	0.22393176
30	0x3f6d2e62	0.926489
31	0xbe9a359e	-0.30119032

recurrent.time_embedding.weight f4 [128, 32]
0	0xbf9285b0	-1.1447048
1	0x3d672f75	0.056441743
2	0xbf46473e	-0.77452457
3	0x3fcb8af7	1.5901784
4	0xbf10e517	-0.56599563
5	0x3f61ee83	0.88254565
6	0x3f769398	0.9631896
7	0xbef999ae	-0.4875006
8	0xbebc2ec5	-0.36754432
9	0xbd8b99e7	-0.06816464
10	0xbef5d796	-0.48016042
11	0x3f3c8c8b	0.7365195
12	0xbd41531f	-0.04719841
13	0xbf61d7bf	-0.8821983
14	0xbdafa094	-0.0857555
15	0xbecbe673	-0.39824256
16	0xbd51a25f	-0.05118024
17	0xbb0ea63c	-0.0021766564
18	0xbea4b466	-0.32168883
19	0xbdf20847	-0.11817985
20	0xbdb06df5	-0.08614723
21	0xbeddb840	-0.43304634
22	0x3f591360	0.8479519
23	0xbf2056db	-0.6263253
24	0xbf5bd71c	-0.85875106
25	0xbeac926f	-0.3370547
26	0xbfc51f66	-1.5400207
27	0x3eaeccd6	0.34140652
28	0xbd9e48a7	-0.07728701
29	0x3f0c5b28	0.54826593
30	0x3f74206b	0.95361966
31	0xbf623f9c	-0.8837831
32	0xbf12c542	-0.5733224
33	0x3f33255a	0.6997887
34	0xbe90aaab	-0.2825521
35	0xbf36b557	-0.7137045
36	0x3f86a945	1.0520407
37	0xbeb4877a	-0.3525961
38	0x3f31dbcd	0.69476014
39	0xbd9f3a00	-0.077747345
40	0xbf8012bd	-1.0005718
41	0x3f4c5eac	0.7983196
42	0xbf12e152	-0.5737506
43	0xbf8ca03d	-1.0986401
44	0x3c60c68b	0.013719211
45	0xbf196a73	-0.59928054
46	0xbf4e5203	-0.8059389
47	0x3f608539	0.8770328
48	0x3e7a487c	0.24441713
49	0x3f775785	0.9661792
50	0x3e8885ed	0.26664677
51	0xbf13f53c	-0.5779607
52	0x3f7cbc6a	0.98725
53	0x3fa83100	1.3139954
54	0xbf72541d	-0.94659597
55	0xbe3a4d19	-0.18193473
56	0xbc88fad3	-0.016721165
57	0x3f246654	0.6421864
58	0xbf445c24	-0.76703095
59	0xc01b1220	-2.4229813
60	0xbf3fcb94	-0.7492001
61	0x3f219c28	0.631289
62	0x3ea52f96	0.32262868
63	0xbe8c08be	-0.2735042
64	0xc004cae7	-2.0748842
65	0xbf641ebc	-0.89109397
66	0xbf0b9d90	-0.54537296
67	0xbcf75437	-0.030191524
68	0xbef1cb31	-0.47225335
69	0x3f5586e7	0.8340897
70	0x3cae9d95	0.021315375
71	0x3f5d67e8	0.86486673
72	0xbf2326c2	-0.63731015
73	0x3f2cff2a	0.6757685
74	0x3feaeeac	1.8354087
75	0x3d3ffa68	0.046869665
76	0x3ec6fbce	0.38863987
77	0xbfc5d8dd	-1.5456806
78	0xbe70e5b8	-0.23525131
79	0xbed2d211	-0.41175893
80	0x3f7e2516	0.9927534
81	0xbfa49e00	-1.2860718
82	0x3f86e8b3	1.0539764
83	0x3ea6eacf	0.3260102
84	0x3f203640	0.6258278
85	0xbedf69d6	-0.43635434
86	0xbf1097e5	-0.5648177
87	0xbf23cc2f	-0.63983434
88	0xbe7506b6	-0.23928341
89	0xbfa58c7d	-1.2933499
90	0xbfd7f245	-1.687081
91	0x3f6950a3	0.91138667
92	0xbedb6f0a	-0.42858154
93	0x3eb09ece	0.34496158
94	0x3ecfb414	0.40567076
95	0x3ec64bf7	0.38729832
96	0x3ddcecf5	0.107873835
97	0x3f7e0c67	0.99237674
98	0xbe61cb43	-0.22050194
99	0xbf0fb96b	-0.561423
100	0xbf7d667d	-0.9898451
101	0xbf718d88	-0.94356585
102	0xbf592254	-0.84818006
103	0xbf766722	-0.9625112
104	0x3dba4cc2	0.09096672
105	0x3fbe1e1f	1.4852942
106	0xbe987271	-0.29774812
107	0xbf2493bc	-0.64287925
108	0x3f0e9753	0.5569965
109	0x3d4465bf	0.047948595
110	0x3fae1177	1.359908
111	0xbf19bc54	-0.6005299
112	0x3ddbc815	0.10731522
113	0x3e906611	0.2820287
114	0x3edd6d2e	0.4324736
115	0xbf317704	-0.6932223
116	0xc0439b16	-3.0563407
117	0xbeeab1fc	-0.45838916
118	0xbed5c994	-0.41755354
119	0xbe33a88b	-0.17544763
120	0x3e497deb	0.1967694
121	0x3dc623ee	0.09674822
122	0x3f21cfda	0.6320778
123	0xbf8c2450	-1.0948582
124	0x3f2b7b5b	0.669851
125	0x3e8c3469	0.27383736
126	0xbe918431	-0.28421167
127	0x3f3da083	0.74073046
128	0xbfdf1aa2	-1.7430003
129	0xbf32b5da	-0.69808733
130	0x3eb1f888	0.34759927
131	0x3f683609	0.9070745
132	0x3eabf3a0	0.3358431
133	0xbf861fdf	-1.0478476
134	0x3f3a619d	0.72805196
135	0x3e9a6038	0.30151534
136	0xbfcf49fa	-1.6194451
137	0x3fcdfd11	1.6092855
138	0x3d3bc9a1	0.045846585
139	0xbf242ac3	-0.6412775
140	0xbf654c28	-0.8956933
141	0xbed4b0ad	-0.41541043
142	0x3ed88ced	0.42295018
143	0xbf32e1f7	-0.69876045
144	0x3f323e2e	0.6962613
145	0xbf0cc308	-0.54985094
146	0x3ff407cc	1.906488
147	0xbe4f7647	-0.20259963
148	0xbe2d9306	-0.16950616
149	0x3f8c9eb3	1.0985931
150	0xbe3553bc	-0.17707723
151	0xbf9c4bd8	-1.2210646
152	0xbe1d6469	-0.15370335
153	0x3f954a9e	1.1663396
154	0xbedd24b1	-0.43192056
155	0x3fccb87e	1.5993803
156	0x3f8cb0d8	1.0991468
157	0x3ed7832b	0.4209226
158	0xbfc0fdfd	-1.5077511
159	0xbebe5c21	-0.37179664
160	0x3f3674ac	0.7127178
161	0x3fadee80	1.358841
162	0x3dc21b6d	0.09477887
163	0x3d2d8840	0.042366266
164	0xbf0ab44a	-0.5418135
165	0xbfb4cc86	-1.4124916
166	0xbfc1611f	-1.5107764
167	0x3f484e06	0.78244054
168	0xbfa2ed67	-1.27287
169	0x3d80d33f	0.06290292
170	0x3d9e6ce7	0.07735615
171	0x3e9fdc6c	0.31222856
172	0xbfab93e3	-1.3404506
173	0xbf5e062a	-0.86728156
174	0x3fb1f120	1.390171
175	0xbe77a150	-0.2418263
176	0x3c07f962	0.008299204
177	0x3f21c017	0.6318373
178	0xbe556ec3	-0.20843033
179	0xbe435c73	-0.19078235
180	0x3f5775b6	0.8416399
181	0xbf1598f3	-0.58436507
182	0xbf00315e	-0.5007533
183	0xbb1e0355	-0.0024110873
184	0x3f567768	0.8377595
185	0xbe998c59	-0.2998989
186	0xbf170fd6	-0.5900854
187	0x3f19f10e	0.60133445
188	0xbf7d79a7	-0.9901375
189	0xbf30bf3d	-0.69041806
190	0x3fa32a07	1.2747201
191	0x3f62a00b	0.88525456
192	0x3e00a2bb	0.12562077
193	0x3ff655fc	1.924499
194	0x3e0004c2	0.12501815
195	0x3feca719	1.8488494
196	0x3ed8d752	0.42351776
197	0x3f8d0a17	1.1018704
198	0xbf6b2aa7	-0.9186196
199	0x3fb4ec62	1.4134638
200	0x3e1c015e	0.15234897
201	0x3e8c69d0	0.2742448
202	0xbe4b7716	-0.19869646
203	0x3ed85255	0.42250314
204	0xbfaa1039	-1.3286201
205	0x3d4bb772	0.049735494
206	0x3d3adafb	0.045618992
207	0x3f808f65	1.004376
208	0x3f89676e	1.0734689
209	0x3f0bbc41	0.5458413
210	0xbfb4114f	-1.4067782
211	0x3eefcbff	0.46835324
212	0x3da19b9e	0.0789101
213	0x3eac9e87	0.33714697
214	0xbf01e04f	-0.5073289
215	0xbf8f906d	-1.121595
216	0x3f069242	0.5256692
217	0xbf832b3d	-1.024757
218	0xc02d66ea	-2.7094064
219	0xbf00b18e	-0.50270927
220	0xbf90c98d	-1.1311508
221	0x3f9e3bfc	1.2362056
222	0x3f19bb11	0.60051066
223	0xbf2f9ac6	-0.6859554
224	0xbeed87a8	-0.4639256
225	0x3f23d4c2	0.6399652
226	0xbf2d3829	-0.6766382
227	0x3da657e9	0.08122236
228	0xbe681ff7	-0.22668444
229	0x3e66744f	0.22505306
230	0x3f507755	0.81432086
231	0xbf04beef	-0.5185384
232	0x3fd26f51	1.6440221
233	0x3f1ae896	0.6051115
234	0xbf479d4d	-0.77974397
235	0xbea9e141	-0.33179668
236	0xbf06a161	-0.52589995
237	0x3e5342fc	0.20631021
238	0x3f8c6a0d	1.0969864
239	0xc0141b01	-2.3141482
240	0xbcdb1427	-0.026743008
241	0x3e94d6e3	0.29070196
242	0x3f975d35	1.182532
243	0xbef94106	-0.4868242
244	0x3f400079	0.7500072
245	0xbf96901c	-1.1762729
246	0xbd7b3b83	-0.06133605
247	0x3dc3fc87	0.0956965
248	0xbe98001e	-0.2968759
249	0xc0118d77	-2.2742593
250	0xbd80eb28	-0.062948525
251	0xbf2c0736	-0.67198503
252	0x3fd3e011	1.6552755
253	0x3f8d36d2	1.1032355
254	0xbfd11200	-1.6333618
255	0xbf1838d4	-0.5946171

recurrent.stock_embedding.weight f4 [472, 32]
0	0xbf917ba6	-1.136586
1	0xbf74bae7	-0.9559769
2	0x3f8a18c7	1.0788811
3	0xbfb51d92	-1.4149649
4	0x3dfb38b5	0.122666754
5	0xbf8352ec	-1.0259681
6	0x3e8c1ba8	0.2736485
7	0xbece4495	-0.402867
8	0x3e61786a	0.2201859
9	0xbf3b9c11	-0.73285013
10	0xbe86fa48	-0.26362824
11	0x3fa2f096	1.2729671
12	0x3fe5909a	1.7934754
13	0x3f002364	0.50054
14	0xbe1e1969	-0.1543938
15	0xbe900024	-0.28125107
16	0xbf402d9e	-0.75069606
17	0x3f8705f9	1.0548698
18	0xbf7b0f95	-0.9807065
19	0xbf4cac48	-0.7995038
20	0x3fb4522e	1.4087579
21	0xbf53d734	-0.8275025
22	0xbf41effe	-0.75756824
23	0x3d90c054	0.07067934
24	0xbee92d58	-0.45542407
25	0xbf43c14c	-0.7646682
26	0xbf3d5240	-0.7395363
27	0x3f1d1f61	0.61376005
28	0x3ff99269	1.9497806
29	0xbcaf7fc9	-0.021423237
30	0x3f914d34	1.1351686
31	0x3f587b26	0.8456291
32	0xbfd191a1	-1.6372567
33	0x3ea2bbd1	0.31783918
34	0x3f0d2b24	0.5514395
35	0xbe8a7044	-0.27038777
36	0xbe8d5210	-0.2760167
37	0xbf335583	-0.70052356
38	0xbe1ff99b	-0.1562256
39	0xbf99f0d7	-1.2026623
40	0xbeaebc32	-0.34127957
41	0x3fa8a944	1.3176656
42	0xbf7e88ce	-0.994275
43	0x3f8e57b2	1.1120512
44	0x3e6a7319	0.22895469
45	0x3f453f9f	0.77050203
46	0x3fb5d646	1.4206016
47	0xbe8b94a1	-0.27261832
48	0x401d6a40	2.45961
49	0xbebadaec	-0.3649515
50	0x3e5bb7e4	0.21456867
51	0x3f4b30b4	0.7937119
52	0xbf686208	-0.90774584
53	0x3d800543	0.062510036
54	0x3f642d7b	0.891319
55	0xbedd0780	-0.43169785
56	0xbe26b5eb	-0.16280334
57	0xbfa8aa39	-1.3176948
58	0xbfa33635	-1.2750918
59	0xbf630e67	-0.8869385
60	0xbef45985	-0.47724548
61	0x3fb06192	1.3779776
62	0xbf82f50c	-1.0231032
63	0xbc861d28	-0.016371325
64	0xbf2ecf25	-0.6828483
65	0x3f87a9da	1.059871
66	0x3fc01c48	1.5008631
67	0x40243cc3	2.5662086
68	0xbf16cdd4	-0.5890782
69	0x3f63b707	0.8895115
70	0x3fd29eca	1.6454709
71	0xbf02ebbe	-0.51140964
72	0x3fab9e55	1.3407694
73	0x3f1461bf	0.5796165
74	0xbf6db57a	-0.92855036
75	0x3f61e771	0.88243777
76	0x3e5cd13f	0.21564196
77	0xbd632619	-0.055456255
78	0xbf0e86b6	-0.556743
79	0x3f93a358	1.1534224
80	0x3f0c000f	0.5468759
81	0xbe74a779	-0.23892011
82	0xbf2d433c	-0.67680717
83	0x3e849e64	0.25902092
84	0x3f701dbd	0.93795377
85	0xbf8e4d69	-1.1117374
86	0x3c05d207	0.00816775
87	0xbd202093	-0.039093565
88	0x3f048194	0.5176022
89	0x3ec16f5d	0.37780276
90	0x3f4cbb60	0.7997341
91	0xbe171c6f	-0.1475694
92	0x3ea35e42	0.3190785
93	0x3e4269b1	0.1898563
94	0xbe9e8a33	-0.30964813
95	0xbfaa894f	-1.3323153
96	0xbf351c52	-0.7074634
97	0xc000f50b	-2.0149562
98	0x3ea52b94	0.3225981
99	0x3f04e383	0.51909655
100	0x3f419a16	0.7562574
101	0xbc2226ca	-0.009896943
102	0xbe9dc271	-0.3081241
103	0x3fd024c5	1.6261221
104	0xbf47826e	-0.77933395
105	0x3f6c406d	0.92285806
106	0x3f3a576c	0.72789645
107	0xbf1ab987	-0.6043934
108	0xbfda1385	-1.7037207
109	0xbee095f0	-0.43864393
110	0x3fc31048	1.5239344
111	0xbcc272bd	-0.023736352
112	0xbf911f1c	-1.1337619
113	0x3c86f872	0.01647589
114	0xbf13191b	-0.5746018
115	0xbf37fd0d	-0.718705
116	0xbfdf6e52	-1.7455542
117	0xbf23698d	-0.6383293
118	0x3d8da398	0.06915969
119	0xbf438ef8	-0.7639003
120	0xbfacf176	-1.3511188
121	0xbefa8f86	-0.48937625
122	0x3ee543af	0.447782
123	0x3edcb9df	0.43110558
124	0x3f909813	1.1296409
125	0xbf22f2a2	-0.6365148
126	0x3eac6539	0.33670977
127	0xbf38be1e	-0.72165096
128	0x3dd84b3b	0.10561224
129	0x3f614826	0.88000715
130	0xbeea63d7	-0.45779297
131	0x3eff4726	0.4985897
132	0xbdc51d9b	-0.096247874
133	0x3e863bcd	0.262175
134	0x3f892a5d	1.0716053
135	0x3f4c25f9	0.7974544
136	0xbfb77579	-1.4332725
137	0xc000fa17	-2.0152643
138	0xbf17c6bf	-0.5928764
139	0x3eeac829	0.45855835
140	0x3ebde8fe	0.3709182
141	0x3f4c8d06	0.79902685
142	0xbe920791	-0.28521398
143	0xbf1eab6e	-0.6198033
144	0x3f415637	0.7552218
145	0xbf24bf67	-0.64354557
146	0xbe90d548	-0.2828772
147	0x3fa0d6f8	1.2565603
148	0xbf627942	-0.88466275
149	0x3ee34fdc	0.44396865
150	0x3d488ab8	0.048960418
151	0x3f782e22	0.96945393
152	0xbe7a68a0	-0.24453974
153	0x3fde6b5c	1.7376513
154	0xbe8d09ff	-0.2754669
155	0x3f9a8295	1.20711
156	0x3ed187ca	0.4092391
157	0x3f597961	0.84950835
158	0xbf13d815	-0.5775159
159	0xbf68c1e7	-0.9092087
160	0xbf28881d	-0.6583269
161	0x3debce9f	0.11514019
162	0x3e3fe156	0.18738303
163	0x3f04a7d8	0.5181861
164	0x3f172861	0.5904599
165	0x3fa65069	1.2993289
166	0x3cfd4c23	0.030920094
167	0x3eb2301b	0.34802327
168	0xbf8f8b1d	-1.1214329
169	0xbefeac7d	-0.49740973
170	0xbe85c1aa	-0.26124316
171	0xbf6e4145	-0.93068343
172	0xbd7bd3fd	-0.061481465
173	0xbefb3e28	-0.4907086
174	0xbdbb04cc	-0.09131774
175	0x3f565ae3	0.8373243
176	0xbf061708	-0.5237889
177	0xbee5cce6	-0.44882888
178	0xbf0bc213	-0.5459301
179	0x3fa38c87	1.277726
180	0x3fe155d0	1.7604313
181	0xbf796000	-0.9741211
182	0x3df1d11c	0.118074626
183	0x3f98e6cf	1.1945437
184	0xbff7bfc8	-1.9355402
185	0x3d24a47e	0.040195934
186	0x3fa7befd	1.310516
187	0x3f29b59d	0.66292745
188	0xbee3c2d6	-0.44484586
189	0xbd574dd3	-0.052564453
190	0xbf57701f	-0.8415546
191	0x3e0e8755	0.13918813
192	0xbf192bff	-0.5983276
193	0xbfb98acd	-1.4495484
194	0xbdc6e418	-0.09711474
195	0x3ee7fb98	0.45309138
196	0x3ff1a2f4	1.8877854
197	0xbef452a9	-0.47719315
198	0x3f9383cc	1.1524596
199	0xbf4d0eab	-0.80100507
200	0x3e22605d	0.15857072
201	0xbfc39362	-1.5279353
202	0xbfa224a0	-1.2667427
203	0x3e5271ef	0.20551275
204	0xbf991d6f	-1.1962107
205	0x3e215f39	0.15758981
206	0xbdcfd761	-0.10148502
207	0x3dbba744	0.09162763
208	0x3dd2e4df	0.1029756
209	0xbf0c65cf	-0.5484285
210	0x3e6b43cf	0.22975086
211	0x3ec61c6b	0.38693556
212	0x3f820272	1.0156996
213	0x3dee43ee	0.1163405
214	0x3faed142	1.365761
215	0x3f0f38fd	0.5594633
216	0x3e9914e9	0.29898766
217	0x3f8cefd2	1.1010687
218	0x3f279395	0.6545957
219	0xbca53362	-0.020166103
220	0xbf7efa2d	-0.9960049
221	0xbe2cdfa0	-0.16882181
222	0x3edc0e17	0.429795
223	0xbe5ebb32	-0.21751097
224	0xc006e527	-2.1077363
225	0x3fd04c28	1.6273241
226	0x3e82306b	0.25427565
227	0x3f0017ce	0.50036323
228	0x3f274c9b	0.65351266
229	0xbf2efd52	-0.68355286
230	0x3fc48408	1.5352793
231	0xbe2d6473	-0.1693285
232	0xbedde5f7	-0.43339512
233	0x3f07d535	0.53059703
234	0x3f1e32e8	0.61796427
235	0x3faee091	1.3662282
236	0x3eb5abdc	0.3548268
237	0xbf644e62	-0.891821
238	0xbed7b746	-0.42132014
239	0xbf3186e7	-0.6934647
240	0x3ee5c71c	0.4487847
241	0xbf00274f	-0.5005998
242	0x3f0e8564	0.5567229
243	0x3fb18c70	1.3870983
244	0xbfbf88ad	-1.4963585
245	0x3e75a86a	0.23990026
246	0xbe3e591f	-0.18588684
247	0x3fe17c70	1.76161
248	0x3d804b39	0.062643476
249	0xbf19d2c5	-0.60087234
250	0xbfa4ce36	-1.287543
251	0xbf9ddf70	-1.2333813
252	0x3f0b9c57	0.5453543
253	0xbea40c20	-0.320405
254	0xbf5f6829	-0.8726831
255	0x3e2d9dcc	0.16954726

recurrent.spatial_attn.mha.lambda_q1 f4 [8]
0	0x3d86f46f	0.06589591
1	0xbdc64d72	-0.0968274
2	0xbc86029f	-0.016358672
3	0x3c105d36	0.008811286
4	0xb9d26582	-0.0004012995
5	0xbc68acaf	-0.014201327
6	0x3da71392	0.081580296
7	0xbdf00164	-0.11719015

recurrent.spatial_attn.mha.lambda_k1 f4 [8]
0	0xbdc5cb78	-0.09657949
1	0x3d7eebe6	0.06223669
2	0x3c0da5a9	0.0086454535
3	0x3be4e471	0.00698524
4	0xb9887fc6	-0.0002603514
5	0x3c24e3e1	0.010064096
6	0x3d249c70	0.040188253
7	0x3d55dc59	0.052212093

recurrent.spatial_attn.mha.lambda_q2 f4 [8]
0	0x3da44de0	0.08022666
1	0xba5b7890	-0.0008372152
2	0xb90e0bb3	-0.00013546534
3	0xb9421839	-0.00018510305
4	0xbd00c87e	-0.031441204
5	0xbdd1334a	-0.10214861
6	0x3c10dc6e	0.008841617
7	0xbd18ba47	-0.037287023

recurrent.spatial_attn.mha.lambda_k2 f4 [8]
0	0x3c13cab0	0.009020492
1	0x3b18683f	0.0023255495
2	0xb9950166	-0.00028420537
3	0x39ac4175	0.00032855166
4	0xbc437348	-0.011929341
5	0xbd5a350d	-0.05327325
6	0x3c0a1588	0.008427985
7	0xbd74eefa	-0.05979822

recurrent.spatial_attn.mha.q_proj.weight f4 [32, 32]
0	0xbde6878e	-0.11256324
1	0x3e0998a0	0.13437128
2	0xbd86e4d7	-0.065866165
3	0xbe06bfc0	-0.13159084
4	0xbdc39e98	-0.09551734
5	0x3e340579	0.17580213
6	0x3dc7b30e	0.09750949
7	0xbe2f9aa8	-0.1714884
8	0x3d3fa7c2	0.046790846
9	0xbc5ae2ec	-0.013359766
10	0xbd8e6b2a	-0.06954034
11	0x3e14ec4f	0.1454327
12	0x3d824890	0.063614964
13	0xbd89d533	-0.06730118
14	0x3e55aef7	0.20867525
15	0x3e0de4da	0.13856831
16	0x3de4b348	0.11167008
17	0x3e2178ec	0.15768784
18	0x3dc649f8	0.09682077
19	0x3c4380f1	0.0119325975
20	0xbe09947f	-0.13435553
21	0x3d9522e2	0.07282044
22	0xbcdbca78	-0.026829943
23	0x3dfcc846	0.123428866
24	0xbe5b164f	-0.21395229
25	0x3e1d41b8	0.15357101
26	0x3d4d8a02	0.050180443
27	0xbdb74985	-0.089495696
28	0x3d38af45	0.045089025
29	0xbd92c1b3	-0.071658514
30	0x3e0cfbb7	0.13767897
31	0x3dc155e0	0.094402075
32	0x3c6035c4	0.013684694
33	0xbe24308e	-0.16034147
34	0x3e59896f	0.21243833
35	0xbe3060a1	-0.17224361
36	0xbcd45ae6	-0.02592225
37	0xbcdda614	-0.027056731
38	0xbd1cada3	-0.03825153
39	0x3d87369e	0.06602214
40	0x3cf386b7	0.029727323
41	0x3e6efec7	0.23339377
42	0x3e4c62e3	0.19959597
43	0x3e4318ac	0.1905238
44	0x3db082f2	0.08618726
45	0x3e0481bc	0.12940115
46	0x3d1a8ca4	0.03773178
47	0xbdb44f7f	-0.08804225
48	0x3ddbef32	0.10738982
49	0x3ea0aa52	0.31379944
50	0x3e7fc96a	0.24979177
51	0x3e5b50ba	0.21417513
52	0x3e6e7fef	0.2329099
53	0x3e87bc98	0.26511073
54	0x3dac1a31	0.08403433
55	0x3dbc4f7b	0.09194847
56	0x3d9cd9e0	0.07658744
57	0x3dbeb19d	0.09311221
58	0x3e2f0824	0.17092949
59	0xbd6b162c	-0.05739419
60	0xbdbb8704	-0.091566116
61	0x3d38cd90	0.045117915
62	0x3baf2d86	0.005346003
63	0x3da38d55	0.07985941
64	0xbe2243ce	-0.15846178
65	0x3e24014c	0.1601612
66	0xbe30135e	-0.17194888
67	0x3df22071	0.11822594
68	0x3c49fe41	0.012328685
69	0x3ddfca90	0.109273076
70	0xbdd943f3	-0.106086634
71	0xbd99b120	-0.07504487
72	0xbd0b8c83	-0.03406955
73	0xbe160d99	-0.14653625
74	0xbda65f80	-0.08123684
75	0xbc88aa6a	-0.016682822
76	0xbc81967e	-0.01581883
77	0xbe2d28b8	-0.16910064
78	0xbe1c5005	-0.152649
79	0x3d0b8723	0.034064423
80	0xbe2536fb	-0.16134255
81	0xbe971f3e	-0.29516023
82	0x3d1016f8	0.035178155
83	0xbe456a4e	-0.19278833
84	0xbe6aea0b	-0.22940843
85	0xbe645845	-0.22299297
86	0xbe2a713c	-0.16644758
87	0xbdd16441	-0.102242
88	0x3cfe6c69	0.031057553
89	0xbdca9860	-0.098923445
90	0xbe2c48f2	-0.16824701
91	0x3e45abac	0.19303769
92	0xbe4f7007	-0.20257579
93	0xbe21699a	-0.1576294
94	0x3d15ef30	0.03660506
95	0x3e7bd70b	0.24593751
96	0xbca2c750	-0.01987043
97	0x3d092c03	0.03348924
98	0x3e32e42e	0.17469856
99	0xbdb7c3a7	-0.089728646
100	0xbde60ed1	-0.11233295
101	0xbe320938	-0.17386329
102	0xbd3c578b	-0.045981925
103	0x3d9da5bc	0.07697627
104	0x3e0eed04	0.13957602
105	0xbd827d67	-0.06371575
106	0x3d716168	0.058930784
107	0x3e3a9409	0.18220533
108	0xbd75131d	-0.05983268
109	0xbd705b39	-0.058680747
110	0xbdab8a8a	-0.083760336
111	0xbd534a2e	-0.051584415
112	0xbd1e419e	-0.038636796
113	0x3e7c7928	0.24655592
114	0xbe538a1f	-0.20658158
115	0x3e0ed6fb	0.13949196
116	0x3da7f3cb	0.08200797
117	0x3c573520	0.013135225
118	0x3e0755d4	0.13216335
119	0xbceb122e	-0.028695192
120	0xbdc41585	-0.09574417
121	0xbd25c328	-0.04046932
122	0xbb0ea306	-0.002176465
123	0xbd5a1913	-0.05324657
124	0x3e0f62c9	0.14002527
125	0x3daaea99	0.08345527
126	0x3e001270	0.12507033
127	0x3df0e330	0.117620826
128	0xbdede7dd	-0.1161649
129	0xbdd9064d	-0.10596905
130	0xbe1dd980	-0.15415001
131	0xbd8a9817	-0.0676729
132	0xbd1c41d0	-0.0381487
133	0xbe4b2ce0	-0.19841337
134	0xbd837ff8	-0.064208925
135	0xbdc39252	-0.09549393
136	0xbca7dab1	-0.020490022
137	0x3bf56615	0.0074889758
138	0xbe3a9954	-0.18222553
139	0xbd92241f	-0.07135796
140	0x3b5a9205	0.0033351195
141	0xbeb6ef72	-0.35729557
142	0xbd8d92b2	-0.069127455
143	0x3df73c0d	0.12072001
144	0xbdd2ee99	-0.10299415
145	0xbe10e22f	-0.14148782
146	0xba01fa64	-0.00049582706
147	0x3cd75945	0.026287684
148	0xbd39abb7	-0.045329776
149	0x3d1f2275	0.03885122
150	0xbdb10deb	-0.08645233
151	0x3d75e73f	0.060034987
152	0xbe352b9e	-0.1769242
153	0x3df8990a	0.12138565
154	0x3dbb6bec	0.09151444
155	0xbe6f22d7	-0.23353134
156	0xbe5869bd	-0.21134086
157	0xbd8526e3	-0.06501558
158	0x3e0373b5	0.12837107
159	0xbe45ebc5	-0.1932822
160	0xbc839601	-0.016062738
161	0xbdc3fbc8	-0.09569508
162	0x3d251c87	0.04031041
163	0x3e1a3c76	0.15062127
164	0x3df81b57	0.1211459
165	0x3d6b97b5	0.057517726
166	0x3cb53c33	0.022123432
167	0xbdbe14d0	-0.092813134
168	0x3d1faa4d	0.03898077
169	0x3dde50a5	0.108552255
170	0x3e0432a7	0.12909947
171	0xbc554b8a	-0.013018498
172	0x3d8df207	0.06930929
173	0xbe73e3be	-0.23817345
174	0xbe2f39c8	-0.17111886
175	0xbcc33ef7	-0.023833735
176	0xbe0887d0	-0.13333058
177	0xbc96125b	-0.0183193
178	0xbe57a5fe	-0.21059415
179	0xbcfb721c	-0.03069406
180	0x3da802d5	0.08203665
181	0xbe696527	-0.22792493
182	0xbdd1f718	-0.102522075
183	0xbd3b03b0	-0.045657814
184	0x3db1c174	0.086794764
185	0x3db179e1	0.08665825
186	0xbd08418e	-0.033265643
187	0x3e7210e8	0.23639262
188	0x3dbd73d8	0.09250611
189	0xbd01e2b7	-0.031710353
190	0x3c949955	0.01813952
191	0x3d9d0813	0.07667556
192	0xbe35185b	-0.17685072
193	0x3c240800	0.010011673
194	0xbe4995c9	-0.19686045
195	0x3e8f452f	0.2798247
196	0xbe3d48a8	-0.18484747
197	0xbd45a1f5	-0.048250157
198	0xbe19a963	-0.15006022
199	0x3c698a28	0.01425413
200	0xbe8c7c4b	-0.27438578
201	0x3ce43c69	0.027860837
202	0x3df939f4	0.12169257
203	0xbe4a34d2	-0.19746712
204	0x3daeecb0	0.08541238
205	0xbe1d330f	-0.15351509
206	0xbcede98d	-0.02904203
207	0x3c990fd4	0.018684305
208	0xbcc80193	-0.024414813
209	0xbdec8ec1	-0.11550666
210	0xbe82807f	-0.2548866
211	0xbd4c2ce8	-0.049847513
212	0xbd86b214	-0.065769345
213	0xbeab7046	-0.33484095
214	0x3c2a98eb	0.010412435
215	0xbe58a8aa	-0.2115809
216	0xbc52e7de	-0.012872664
217	0xbdff6e84	-0.12472251
218	0x3dbeada1	0.09310461
219	0xbd523e1f	-0.051328775
220	0x3dda8a04	0.10670856
221	0xbe5e2e6f	-0.216974
222	0x3d95fa93	0.07323184
223	0xbe3f2445	-0.1866618
224	0xbe08078a	-0.13284126
225	0x3b8e0bbd	0.0043348954
226	0xbd8677a5	-0.06565789
227	0xbd831660	-0.06400752
228	0xbe335946	-0.17514524
229	0x3d94a0f1	0.0725726
230	0x3da95a35	0.08269159
231	0xbd5dbd77	-0.054135766
232	0xbbe15789	-0.00687689
233	0xbe7360b8	-0.23767364
234	0xbe9a33c2	-0.30117613
235	0xbe4a9ed8	-0.19787157
236	0xbe038b0b	-0.1284601
237	0x3d9b5baf	0.07585847
238	0x3db15697	0.08659094
239	0x3da305d3	0.07960095
240	0xbddb51b0	-0.1070894
241	0xbe9ddaad	-0.308309
242	0xbe2c0409	-0.16798414
243	0x3e52e395	0.20594628
244	0xbd113eb0	-0.035460174
245	0xbdb0bb1c	-0.08629438
246	0xbe51d97c	-0.2049312
247	0x3ca98cdd	0.020697052
248	0xbe41147d	-0.18855472
249	0xbe8a56ca	-0.2701934
250	0xbdb0fe9f	-0.08642315
251	0x3d49b43b	0.049244147
252	0xbd9c0832	-0.07618751
253	0xbeab0512	-0.33402306
254	0xbde72d05	-0.11287884
255	0xbe169c32	-0.14708021

recurrent.spatial_attn.mha.k_proj.weight f4 [32, 32]
0	0x3e02a94a	0.12759891
1	0x3e08cd59	0.13359584
2	0xbe83ba45	-0.2572805
3	0xbc2c6d66	-0.0105241295
4	0xbdfc9f20	-0.12335038
5	0x3c89d0d6	0.016823214
6	0x3d096e76	0.03355261
7	0x3e2b7140	0.1674242
8	0xbe3cf682	-0.1845341
9	0xbd87cd21	-0.06630922
10	0xbdabeec5	-0.08395151
11	0x3d8cf6c8	0.06883007
12	0xbd94a7fa	-0.072586015
13	0xbb956764	-0.0045594443
14	0x3e0c93f3	0.13728313
15	0xbe82f90a	-0.25580627
16	0x3e793171	0.24335267
17	0xbd036c3c	-0.032085642
18	0x3e3460f7	0.17615114
19	0xbe14276f	-0.14468168
20	0xbd6eb985	-0.058282394
21	0xbde2d888	-0.11076456
22	0x3d20433b	0.039126616
23	0x3d935518	0.07193965
24	0xbe46b71d	-0.1940579
25	0xbe307ab0	-0.17234302
26	0x3e1dc69b	0.15407793
27	0xbde9fa10	-0.11424649
28	0x3e6e9ab9	0.2330121
29	0xbd8c8dfa	-0.068630174
30	0xbda1e9d1	-0.07905925
31	0x3d6e6c9c	0.058209047
32	0xbd9a07e2	-0.07521035
33	0x3ca0a7b2	0.019611213
34	0xbe640031	-0.22265698
35	0x3dc401e6	0.095706746
36	0x3e58f2b2	0.21186331
37	0xbe0a6d03	-0.13518147
38	0x3d2c454d	0.042058278
39	0x3d5b486e	0.05353587
40	0x3e020202	0.12696078
41	0x3c5a2d44	0.013316456
42	0xbcef9491	-0.029245647
43	0xbd28c943	-0.041207563
44	0xbdd2bfa2	-0.10290457
45	0xbe1e510f	-0.15460609
46	0x3e41a964	0.18912274
47	0x3e3ebdb7	0.18627058
48	0xbc77ebdf	-0.01513192
49	0x3b65067a	0.0034946487
50	0x3d7b1f6f	0.061309274
51	0x3dd2f36b	0.103003345
52	0x3d148292	0.036257334
53	0x3dec3357	0.1153323
54	0x3d239f29	0.03994671
55	0xbe30def9	-0.17272557
56	0xbdd0de23	-0.10198619
57	0x3d9060d5	0.07049719
58	0xbcfa4388	-0.03054978
59	0xbe1ae2c7	-0.15125571
60	0x3d189670	0.037252843
61	0xbdbfef07	-0.09371763
62	0x3e21bcfe	0.15794751
63	0xbdb9ee7d	-0.09078691
64	0x3dce2f50	0.10067618
65	0xbd0e99c6	-0.03481462
66	0xbb826885	-0.003979745
67	0x3d61b34a	0.055102624
68	0xbe0318a6	-0.12802371
69	0x3e23c684	0.15993696
70	0xbe6d4e15	-0.23174317
71	0xbe8bebb1	-0.27328256
72	0x3e0b6eee	0.13616535
73	0xbdde34ab	-0.10849889
74	0xbdcc2a29	-0.09968979
75	0x3d62ae20	0.05534184
76	0xbdf598ba	-0.11992021
77	0x3e1101f6	0.14160904
78	0x3df5e22c	0.120060295
79	0xbcf627e0	-0.03004831
80	0xbdafc71b	-0.08582898
81	0x3d470f65	0.048598666
82	0xbcfca40f	-0.030839948
83	0xbd82b813	-0.063827656
84	0x3d4b6ad2	0.04966242
85	0x3d3c153f	0.0459187
86	0xbe3be17f	-0.18347739
87	0x3e490c54	0.19633609
88	0x3ceb8d46	0.028753888
89	0xbb047d5c	-0.0020216322
90	0x3ddfe30e	0.10931979
91	0x3e03f315	0.12885697
92	0xbe2a45ab	-0.16628139
93	0xbda9eb10	-0.08296788
94	0xbb9a7c57	-0.0047145295
95	0xbd5a788b	-0.053337615
96	0xbccf96b0	-0.025340408
97	0xbd25e2da	-0.040499546
98	0xbd512fe8	-0.051071078
99	0x3dd077ca	0.10179098
100	0x3c403a88	0.011732705
101	0x3d08a8f7	0.033364262
102	0xbdb6b9c9	-0.089221545
103	0xbd93f91e	-0.0722525
104	0xbdf18f89	-0.11794955
105	0xbe2e13c6	-0.1699973
106	0xbe023502	-0.12715533
107	0xbdca849a	-0.09888573
108	0xbe241399	-0.16023101
109	0xbe2dd39f	-0.16975258
110	0xbca14011	-0.01968387
111	0xbd27bd9f	-0.04095232
112	0x3dec5a92	0.115407124
113	0xbd4220a6	-0.047394417
114	0xbe3b0848	-0.18264878
115	0xbdf37a3d	-0.118885495
116	0x3da10e25	0.07864026
117	0x3db33383	0.087500595
118	0x3e40c155	0.1882375
119	0xbdeb8916	-0.115007564
120	0x3e22db1e	0.15903899
121	0x3e224bff	0.15849303
122	0xbc894aee	-0.016759362
123	0xbcf55d86	-0.029951822
124	0xbac2e02c	-0.0014867834
125	0x3d84b418	0.06479663
126	0x3df4ef8f	0.11959755
127	0x3bd95be6	0.0066332696
128	0x3e193078	0.14959896
129	0x3d46a476	0.048496686
130	0x3d8493a2	0.06473471
131	0x3e40cbe0	0.18827772
132	0x3dd9cf5c	0.10635254
133	0x3cc592a8	0.024117783
134	0x3a700e10	0.0009157369
135	0xbe0e389c	-0.13888782
136	0x3c8d569d	0.017253214
137	0xbe7ebce1	-0.24876739
138	0x3d826e93	0.063687466
139	0xbdd1a5b5	-0.10236684
140	0xbddf2531	-0.108957656
141	0xbe61885f	-0.22024678
142	0xbe238a24	-0.15970665
143	0xbc6c8930	-0.014437005
144	0xbce2b964	-0.027676292
145	0xbd9324e4	-0.07184771
146	0xbcb16429	-0.021654205
147	0xbe0d86b6	-0.1382092
148	0x3e26b0b8	0.1627835
149	0x3cb1207b	0.021621933
150	0xbe35d18e	-0.1775572
151	0xbc8ec027	-0.01742561
152	0x3d67a99e	0.056558244
153	0xbd91bb2d	-0.07115779
154	0xbe69a2a2	-0.22815946
155	0xbd831a68	-0.06401521
156	0xbe2c0f18	-0.16802633
157	0x3c82c9be	0.015965339
158	0xbe52492b	-0.20535724
159	0x3d93c9b1	0.07216204
160	0x3e422f5c	0.18963379
161	0xbc9cbfa1	-0.019134345
162	0x3e099daa	0.1343905
163	0xbce3aa14	-0.02779106
164	0x3ce51b52	0.027967129
165	0xbdc777bc	-0.097396344
166	0xbe0cfa34	-0.1376732
167	0xbe2e424e	-0.1701748
168	0x3ba4d8a5	0.005030709
169	0xbdf6bbad	-0.12047515
170	0xbda24f72	-0.07925309
171	0xbd30bec7	-0.04315069
172	0x3d94a81e	0.07258628
173	0xbd1200ee	-0.035645418
174	0x3df0a2eb	0.11749824
175	0xbd2c1c6a	-0.042019285
176	0xbddc12b3	-0.10745754
177	0x3e74728a	0.23871818
178	0x3d833090	0.06405747
179	0xbdd13b6b	-0.10216411
180	0x3d6554ad	0.055988956
181	0x3e355600	0.17708588
182	0xbdcef36a	-0.10105021
183	0xbe4731eb	-0.19452636
184	0x3cbf94d7	0.023386402
185	0xbe8c80c7	-0.27442
186	0x3a183101	0.0005805642
187	0x3dac7c36	0.08422129
188	0x3d412dd4	0.047162846
189	0xbd2ae8e5	-0.04172601
190	0xbd74276e	-0.059607916
191	0xbda7771e	-0.08177017
192	0x3d9dac85	0.07698921
193	0xbe196ba1	-0.14982463
194	0x3eb09dc9	0.3449538
195	0xbe16cb37	-0.14725958
196	0x3db0911e	0.08621429
197	0xbd1ae30e	-0.037814192
198	0xbe2dd06d	-0.1697404
199	0x3e4476fc	0.19186014
200	0xbd47bd9b	-0.048764806
201	0xbdc25ea3	-0.09490707
202	0x3e724617	0.2365955
203	0xbbfe563d	-0.0077617452
204	0xbde85de7	-0.113460355
205	0x3e28b0d3	0.16473703
206	0xbc042a4f	-0.008066728
207	0xbc683028	-0.014171638
208	0x3da3faa8	0.08006793
209	0x3d9024ff	0.070383064
210	0xbda4e64d	-0.08051739
211	0x3cd27678	0.025691256
212	0xbe83ee6b	-0.25767836
213	0xbdf9ecfc	-0.12203404
214	0xbe357dd8	-0.17723787
215	0x3da42077	0.08014005
216	0xbd59767a	-0.053091504
217	0xbe172f51	-0.14764144
218	0x3d76321d	0.060106385
219	0x3e2ab5a1	0.16670848
220	0xbd711d36	-0.05886575
221	0xbd46c753	-0.048529934
222	0x3dc2f0e7	0.09518605
223	0xbb4d849b	-0.0031359557
224	0x3dfaa9d9	0.12239427
225	0x3e875883	0.26434717
226	0x3dfdfd4c	0.12401828
227	0xbde06cae	-0.10958229
228	0xbc21dcc9	-0.009879299
229	0xbdf22829	-0.11824066
230	0x3e37d124	0.17950875
231	0xbd2097cf	-0.039207276
232	0x3e3c60a6	0.18396243
233	0x3d4df8da	0.05028615
234	0x3dff492d	0.12465129
235	0x3e269f53	0.16271715
236	0xbd24f0a5	-0.04026856
237	0x3c867165	0.016411493
238	0x3d8c6c39	0.06856579
239	0xbc22ae15	-0.0099292
240	0xbb198021	-0.0023422318
241	0xbde8ccf6	-0.11367218
242	0x3e5d418b	0.21607034
243	0x3e00cc23	0.12577872
244	0x3e3b13f0	0.18269324
245	0xbde5ea6b	-0.11226352
246	0xbe12b2ce	-0.14326021
247	0x3e3e0e60	0.18560171
248	0xbdde02f1	-0.10840405
249	0x3dd1bf0f	0.1024152
250	0xbe0b7cd3	-0.13621835
251	0xbb8fa585	-0.004383745
252	0x3d831b84	0.064017326
253	0xbe0baefa	-0.13640967
254	0xbd76f082	-0.06028796
255	0x3e09b1eb	0.13446777

recurrent.spatial_attn.mha.v_proj.weight f4 [32, 32]
0	0xbd81e32b	-0.06342157
1	0x3e33b3f7	0.1754912
2	0x3e38dceb	0.18053024
3	0x3dd35ca2	0.10320403
4	0xbe3887a8	-0.18020499
5	0x3e135280	0.1438694
6	0x3c1438fd	0.00904679
7	0xbe0e27b8	-0.13882339
8	0xbd76824f	-0.060182866
9	0xbe286111	-0.16443278
10	0xbe87bbab	-0.26510367
11	0x3e2430f3	0.16034298
12	0x3de3a70c	0.11115846
13	0xbca8d54b	-0.020609519
14	0x3dc02030	0.09381139
15	0x3dd02f28	0.10165244
16	0xbd639886	-0.05556538
17	0xbdffa72e	-0.12483059
18	0x3d925344	0.07144788
19	0x3ac0996b	0.001469416
20	0x3bd776ce	0.006575442
21	0xbd99d4d0	-0.07511294
22	0xbe1274ab	-0.14302318
23	0x3e0a032e	0.13477775
24	0x3d72063e	0.059087984
25	0xbd1bfcab	-0.03808276
26	0x3ca892b2	0.020577762
27	0x3df9b32b	0.12192377
28	0xbe105a9c	-0.14097065
29	0x3da7618f	0.08172905
30	0x3e094145	0.13403805
31	0x3e5248ba	0.20535555
32	0xbc6e1394	-0.014531035
33	0x3c2d83b2	0.010590481
34	0x3cee614c	0.02909913
35	0xbe22144f	-0.1582806
36	0x3de3360e	0.110942945
37	0xbe5f7a78	-0.21824062
38	0x3e3e198c	0.18564433
39	0xbd69a459	-0.0570415
40	0x3e408055	0.18798955
41	0xbdaa9b66	-0.08330421
42	0x3cab45ec	0.020907365
43	0x3d2f01c1	0.042726282
44	0x3dded3d1	0.108802445
45	0xbdbc95c6	-0.092082545
46	0x3dd314d6	0.103067085
47	0x3dcb74e3	0.09934404
48	0xbd1ee178	-0.038789243
49	0xbc15014b	-0.009094547
50	0x3c670723	0.014100823
51	0x3da573bb	0.080787145
52	0x3e0e6d0c	0.13908786
53	0xbda4a6e4	-0.08039644
54	0x3d8df2db	0.06931087
55	0xbd7d16a8	-0.061789185
56	0x3cdf6125	0.027268002
57	0x3b7e7402	0.003882647
58	0x3e0b23f7	0.13587938
59	0xbdbc529f	-0.09195446
60	0xbe245b68	-0.16050494
61	0x3dd4383f	0.103622906
62	0x3ad2d8ef	0.001608638
63	0xbde13bae	-0.10997711
64	0xbe0efaff	-0.13962935
65	0x3c0dd9b6	0.008657863
66	0x3e4149e7	0.18875848
67	0xbd30e026	-0.043182515
68	0x3d9de41d	0.07709525
69	0xbd77c064	-0.060486212
70	0x3c21f63f	0.00988537
71	0x3db35d1e	0.08757995
72	0xbe4c1a80	-0.19931984
73	0xbd8c128c	-0.06839475
74	0x3e3b3c19	0.18284644
75	0xbe27e6bb	-0.1639661
76	0xbe73b113	-0.23798017
77	0x3ed7fad6	0.4218356
78	0xbe3d5e1a	-0.18492928
79	0xbe1cc2cd	-0.15308686
80	0x3e2de953	0.16983537
81	0x3d0c76b5	0.034292895
82	0x3db24949	0.08705384
83	0xbc5d14f9	-0.01349377
84	0xbd241bcb	-0.040065568
85	0xbe3512ca	-0.17682949
86	0x3d2e91cb	0.042619508
87	0x3e4c5bfa	0.19956961
88	0x3e2498a4	0.16073853
89	0xbe4b2e6d	-0.19841929
90	0x3c526282	0.012840869
91	0xbcad10d9	-0.021126198
92	0x3dace325	0.08441762
93	0x3c6220dd	0.0138017805
94	0xbdc9696d	-0.098345615
95	0xbe401001	-0.18756105
96	0xbcad882b	-0.021183094
97	0xbd854348	-0.065069735
98	0xbdc630c9	-0.09677274
99	0xbd562e59	-0.052290294
100	0x3e3e7508	0.18599331
101	0x3d83275a	0.0640399
102	0x3dd58d0b	0.104272924
103	0xbc925424	-0.017862387
104	0xbe151763	-0.14559703
105	0xbdb2b27b	-0.08725449
106	0xbc38f308	-0.011288412
107	0x3d411cb9	0.047146533
108	0xbe038991	-0.12845446
109	0x3d9401db	0.072269164
110	0x3c5532c9	0.013012596
111	0xbd8eb9cd	-0.069690324
112	0xbd685049	-0.05671719
113	0x3e46ab8a	0.19401374
114	0x3df7c666	0.120983884
115	0xbcef57fc	-0.029216759
116	0x3d18b931	0.037285987
117	0x3e21cd73	0.15801029
118	0xbd699d37	-0.057034697
119	0xbe393891	-0.18087985
120	0xbd6fcf91	-0.05854756
121	0xbcdab0b7	-0.026695592
122	0x3e0b4313	0.13599806
123	0xbd0770e0	-0.03306663
124	0x3df5b2ba	0.1199698
125	0xbe599f52	-0.21252182
126	0x3e2a944a	0.1665813
127	0x3dab3112	0.08358969
128	0x3f003f90	0.5009699
129	0x3dbf170c	0.09330568
130	0x3e1c9d80	0.15294456
131	0xbdc6495b	-0.0968196
132	0xbdd6b170	-0.10483062
133	0xbdb816e7	-0.08988743
134	0x3e266445	0.16249187
135	0xbf1a26a1	-0.60215193
136	0x3eb405c1	0.3516064
137	0xbf0b7868	-0.544806
138	0xbe8024d5	-0.250281
139	0x3da1d3a0	0.079016924
140	0x3ec57810	0.38568163
141	0xbdf28836	-0.118423864
142	0x3e44b20d	0.19208546
143	0x3e1044af	0.140887
144	0xbeaec104	-0.34131634
145	0xbcb8c5b1	-0.022555204
146	0xbcf37ba6	-0.029722046
147	0xbe2a928d	-0.16657467
148	0x3e9b8ea2	0.30382258
149	0x3e1136d3	0.1418107
150	0xbe6cf92b	-0.23141925
151	0x3e487023	0.19574027
152	0xbe08a708	-0.13344967
153	0xbeb7bc54	-0.3588587
154	0xbd4ac4cf	-0.049504098
155	0x3ecde661	0.40214828
156	0xbe9da347	-0.30788633
157	0xbe5a89dd	-0.21341653
158	0xbe94be6f	-0.2905154
159	0x3ecdb5da	0.40177804
160	0xbec79c1a	-0.38986284
161	0xbe2b486a	-0.16726843
162	0x3e28a381	0.16468622
163	0xbdab57e4	-0.08366373
164	0x3e53cfab	0.20684688
165	0x3d9ad542	0.07560207
166	0x3e1b03f2	0.15138224
167	0x3e6a7323	0.22895484
168	0x3c540b6b	0.012942175
169	0x3df95a25	0.12175397
170	0x3ce7ce29	0.028296547
171	0xbe0c9c76	-0.1373156
172	0xbda5035e	-0.08057283
173	0xbd3f1593	-0.046651434
174	0xbe3714cb	-0.17879026
175	0x3df2a5b8	0.118480146
176	0x3c48f6db	0.012265886
177	0x3e188c7a	0.14897338
178	0xbcb6e36f	-0.022325246
179	0x3e663de3	0.22484545
180	0xbdf78d1c	-0.12087461
181	0x3d01f459	0.03172717
182	0x3e6ab9cd	0.2292244
183	0xbe230884	-0.15921217
184	0xbd405c9c	-0.04696332
185	0xbd21f287	-0.039537933
186	0xbd9df2bd	-0.07712314
187	0xba5ee41e	-0.000850262
188	0xbdad2e6f	-0.08456122
189	0x3b81a27b	0.0039561368
190	0x3e287eae	0.16454574
191	0xbe38d00e	-0.18048117
192	0x3ed4572a	0.4147275
193	0xbd931533	-0.07181778
194	0xbd723da0	-0.0591408
195	0x3e565c8d	0.20933743
196	0x3e02bc3a	0.12767115
197	0xbe0596a0	-0.1304574
198	0xbe3b7b58	-0.1830877
199	0x3d888dd6	0.06667678
200	0xbe0171cd	-0.12641068
201	0xbe8124fa	-0.25223523
202	0xbdfda83a	-0.12385602
203	0xbd5163b5	-0.05112048
204	0x3d1bcf44	0.03803946
205	0xbe94072b	-0.2891172
206	0xbdf8075d	-0.121107794
207	0xbd248587	-0.040166404
208	0xbe1bbab9	-0.15207948
209	0x3e059b57	0.13047539
210	0x3bb12939	0.0054065255
211	0x3e13eb75	0.14445288
212	0x3e63dd60	0.22252417
213	0x3e11e8b4	0.14248925
214	0x3bd5c56c	0.0065237787
215	0xbe240f4c	-0.1602146
216	0x3e4c70df	0.19964932
217	0xbd81a439	-0.06330151
218	0x3e0fea25	0.14054163
219	0x3e3d68e1	0.1849704
220	0x3ba7820e	0.0051119393
221	0xbdbfa7b8	-0.09358162
222	0xbd90a1ec	-0.07062134
223	0x3e28b6aa	0.16475931
224	0x3b6d1a44	0.0036178986
225	0x3c8cb6ea	0.017177064
226	0xbde0ba09	-0.109729834
227	0x3c894d89	0.016760604
228	0xbd76363d	-0.06011032
229	0x3d3f37aa	0.046683945
230	0x3b9395a1	0.004503921
231	0xbe58b2bf	-0.21161936
232	0x3e38866a	0.18020025
233	0xbdbb857a	-0.09156318
234	0x3d32fc84	0.04369785
235	0x3e350aa4	0.1767984
236	0x3de87711	0.11350835
237	0x3d798c0f	0.060924586
238	0x3d57acd6	0.052655064
239	0xbd8687d4	-0.06568876
240	0x3ce62bb7	0.028097017
241	0x3bee842c	0.0072789397
242	0xbe3abff9	-0.18237294
243	0xbe430425	-0.1904455
244	0x3cdaeaaf	0.026723234
245	0xbe566c56	-0.20939764
246	0x3dc4eb65	0.096152104
247	0xbcce23b0	-0.025163502
248	0xbd606bb8	-0.05479023
249	0xbc66e30c	-0.014092218
250	0xbd30e502	-0.04318715
251	0x3dc337ff	0.09532165
252	0xbd81423e	-0.06311463
253	0xbd55a2d4	-0.052157238
254	0xbe445873	-0.19174366
255	0x3e612c78	0.2198962

recurrent.spatial_attn.mha.subln.weight f4 [16]
0	0x3f48e8d0	0.78480244
1	0x3f81cf09	1.0141307
2	0x3f740800	0.9532471
3	0x3f828d59	1.0199386
4	0x3fc739fa	1.5564568
5	0x3f669fe3	0.9008772
6	0x3f81cf59	1.0141402
7	0x3f6103f0	0.87896633
8	0x3f7fc2a7	0.9990639
9	0x3fa99106	1.3247383
10	0x3f6c6bbf	0.9235191
11	0x3f6916a0	0.9105015
12	0x3f72da01	0.948639
13	0x3f841b25	1.0320784
14	0x3f85a91c	1.0442233
15	0x3f7fb622	0.9988729

recurrent.spatial_attn.ln2.weight f4 [32]
0	0x3f7c1d46	0.9848217
1	0x3f6bc75a	0.9210106
2	0x3f7071bd	0.9392355
3	0x3f746037	0.9545931
4	0x3f749c07	0.9555058
5	0x3f5a2305	0.85209686
6	0x3f6a5ddb	0.9154946
7	0x3f394020	0.7236347
8	0x3f6d5829	0.92712647
9	0x3f6a23fd	0.91461164
10	0x3f602154	0.87550855
11	0x3f4633f4	0.77423024
12	0x3f72b30f	0.9480447
13	0x3f67c857	0.9054007
14	0x3f35cec1	0.71018606
15	0x3f814bba	1.0101235
16	0x3f64dfdc	0.8940408
17	0x3f6a9b5b	0.91643304
18	0x3f654949	0.8956495
19	0x3f80f286	1.0074012
20	0x3f40f008	0.7536626
21	0x3f4e49be	0.8058127
22	0x3f72999e	0.9476565
23	0x3f84f343	1.0386738
24	0x3f55803f	0.83398813
25	0x3f9ca41a	1.223758
26	0x3f6962c8	0.91166353
27	0x3f746135	0.95460826
28	0x3f662b3a	0.8990971
29	0x3f7607e4	0.9610579
30	0x3f858414	1.0430932
31	0x3f732342	0.94975674

recurrent.spatial_attn.ln2.bias f4 [32]
0	0xbd9acd4b	-0.07558688
1	0xbd962db0	-0.07332933
2	0x3e41c6ff	0.18923567
3	0xbd64cc6a	-0.055859007
4	0xbcbc38ac	-0.022976242
5	0xbdade1f4	-0.08490363
6	0xbe73b826	-0.23800716
7	0xbcaa8e5c	-0.020819835
8	0xbd8e229f	-0.06940197
9	0xbd948e4e	-0.07253705
10	0xbc0c0c63	-0.008547875
11	0x3e2dc143	0.16968255
12	0xbda6ad6b	-0.081385456
13	0xbce1e04c	-0.027572773
14	0x3df84b5c	0.12123749
15	0xbdb8a61f	-0.0901606
16	0x3d8641e1	0.06555534
17	0x3d7b0f22	0.06129373
18	0x3bb550e9	0.005533327
19	0xbd92208b	-0.07135113
20	0xbdb87680	-0.09006977
21	0xbd334420	-0.04376614
22	0x3d49501b	0.04914866
23	0xbdb4e5dd	-0.088329054
24	0xbe83c7c2	-0.2573834
25	0xbe38393f	-0.17990588
26	0xbd214650	-0.039373696
27	0xbd4723d0	-0.048618138
28	0x3b9d267d	0.004795848
29	0x3e60b4d4	0.2194398
30	0xbd9afd72	-0.07567872
31	0xbd455c88	-0.048183948

recurrent.spatial_attn.ffn.linear.weight f4 [32, 32]
0	0x3c9a45f0	0.018832177
1	0xbccd0d7d	-0.025030846
2	0xbd504182	-0.050843723
3	0xbe494f4a	-0.19659153
4	0x3e3ba437	0.18324362
5	0xbe5e4943	-0.21707635
6	0x3e297fc5	0.16552646
7	0x3daf5e89	0.08562953
8	0xbd542a04	-0.05179788
9	0x3da127bb	0.07868906
10	0xbd3ff907	-0.04686835
11	0x3db4eb92	0.08833994
12	0x3e3ef1fb	0.18646996
13	0x3db6b9f2	0.08922185
14	0x3d032a20	0.032022595
15	0x3cbb183a	0.0228387
16	0xbddb8990	-0.10719597
17	0x3dd495f5	0.103801645
18	0x3af23d55	0.0018481413
19	0x3e209a5f	0.15683888
20	0xbd9a38fb	-0.075303994
21	0xbe3b98c2	-0.18319991
22	0xbdd9d5b9	-0.106364675
23	0x3e84efa9	0.25964096
24	0xbd9848b6	-0.074357435
25	0x3e9171c2	0.28407103
26	0xbca80fc3	-0.020515328
27	0xbe45cfb5	-0.19317515
28	0xbc605381	-0.013691784
29	0x3d964685	0.07337669
30	0x3d0401cf	0.032228287
31	0xbd221a1e	-0.03957569
32	0x3e049c26	0.12950191
33	0xbe2f449a	-0.17116013
34	0x3dc3111f	0.0952475
35	0xbcbe3021	-0.023216309
36	0x3dd0683c	0.10176131
37	0xbdc28154	-0.09497324
38	0xbe1dcd4b	-0.15410344
39	0x3e38184c	0.17978019
40	0x3e647a15	0.22312196
41	0xbd9fb59c	-0.07798311
42	0xbd6b3edd	-0.057432998
43	0x3cb3fa36	0.021969896
44	0x3dc873fe	0.09787749
45	0xbe5ea963	-0.21744303
46	0xbe049bf5	-0.12950118
47	0xbca3f988	-0.020016447
48	0xbe291ae7	-0.16514169
49	0xbe43fa01	-0.19138338
50	0x3e1dac80	0.15397835
51	0x3e59daf4	0.2127493
52	0xbcc297a7	-0.023753954
53	0x3b93afa1	0.0045070206
54	0xbd8a1ef5	-0.06744186
55	0x3d3b3ef4	0.045714334
56	0x3e4b9823	0.19882254
57	0xbcc40caf	-0.02393183
58	0xbd397f04	-0.045287147
59	0xbc3bcf77	-0.011463038
60	0xbcf1467b	-0.029452553
61	0x3e1ab9f5	0.1511
62	0x3c8e92f8	0.017404065
63	0x3db90e49	0.09035928
64	0xbcb57b20	-0.022153437
65	0x3e30c1af	0.17261384
66	0x3e65da58	0.22446573
67	0x3d98d359	0.07462186
68	0xbdcc8381	-0.0998602
69	0xbe00e8f8	-0.1258887
70	0x3d6fa144	0.058503404
71	0x3e350e9f	0.17681359
72	0xbe59c404	-0.2126618
73	0xbbd83e09	-0.006599192
74	0x3cf17ded	0.029478991
75	0x3de7b4e1	0.11313797
76	0x3d8b5005	0.06802372
77	0xbe3d4d44	-0.18486506
78	0x3e2e7caf	0.1703975
79	0x3da84f2c	0.08218226
80	0xbe8cb439	-0.2748125
81	0xbe2c698d	-0.1683714
82	0x3e4ebcba	0.20189181
83	0x3e6676e5	0.22506292
84	0xbd88610e	-0.06659137
85	0xbe2a28ae	-0.1661708
86	0xbdc0b907	-0.09410291
87	0x3e25092c	0.1611678
88	0x3e7e2368	0.24818194
89	0xbdc3ee53	-0.09566941
90	0xbe588e8a	-0.21148124
91	0xbe3123d1	-0.17298819
92	0xbca1cfec	-0.019752465
93	0x3e178c87	0.147997
94	0x3e02d242	0.1277552
95	0xbe258e29	-0.16167511
96	0xbe02fb33	-0.12791137
97	0x3d1c12f4	0.038104013
98	0xbd06033a	-0.03271792
99	0xbe2aee29	-0.16692413
100	0xbd79f1ac	-0.061021492
101	0x3e28431f	0.16431855
102	0x3e0e3bb0	0.13889956
103	0x3cd0300c	0.025413536
104	0x3e166f2a	0.14690843
105	0x3e137fad	0.14404173
106	0xbe0b2220	-0.13587236
107	0x3e5bb515	0.21455796
108	0xbd9b07ca	-0.07569845
109	0xbdd2d1ba	-0.102939084
110	0x3c8a0a47	0.016850604
111	0xbc6ea613	-0.014565962
112	0xbe586bb0	-0.2113483
113	0x3d69fabc	0.057123885
114	0xbc428183	-0.011871698
115	0xbdd6a897	-0.10481375
116	0xbd121d29	-0.03567234
117	0x3e250113	0.16113691
118	0xbe55c3e3	-0.20875506
119	0x3e509d52	0.20372513
120	0xbd9560b7	-0.072938375
121	0xbcb5b431	-0.022180649
122	0xbe103a90	-0.1408484
123	0xbd8a70fe	-0.06759833
124	0xbe0231b8	-0.12714279
125	0xbdc642ff	-0.09680747
126	0x3e02dfbd	0.12780662
127	0x3c8decee	0.017324891
128	0xbd4130f1	-0.047165815
129	0x3dcfbaed	0.10143075
130	0xbdfbd443	-0.12296345
131	0xbdacb5cc	-0.084331125
132	0x3da82d66	0.08211784
133	0x3d720689	0.059088264
134	0xbd9be996	-0.07612912
135	0xbe035a9f	-0.12827538
136	0xbe5eb27e	-0.21747777
137	0x3e0e2615	0.13881715
138	0x3d940df4	0.07229224
139	0x3e210f95	0.157286
140	0xbe034693	-0.1281989
141	0x3dcdb2e7	0.100438885
142	0xbd7943be	-0.06085562
143	0xbdf5cc2b	-0.120018326
144	0x3e508334	0.2036255
145	0x3c7c5916	0.015402099
146	0x3e1fe96d	0.15616389
147	0x3e240aee	0.16019794
148	0xbdc98e6e	-0.098416194
149	0x3d70c87f	0.058784958
150	0xbcb937bf	-0.02260959
151	0xbdf824d0	-0.121163964
152	0xbdb0ec4b	-0.08638819
153	0x3d745d5d	0.05965935
154	0xbe494e26	-0.19658718
155	0x3d8421cd	0.064517595
156	0x3e027606	0.12740335
157	0xbe588857	-0.2114576
158	0x3e0849a7	0.13309346
159	0x3e7ad007	0.24493419
160	0xbc169651	-0.009191112
161	0xbdb14813	-0.08656325
162	0x3de0ae0c	0.10970697
163	0x3ca61b36	0.020276647
164	0x3b267b77	0.002540318
165	0x3ca31432	0.01990709
166	0x3e20ed10	0.15715432
167	0xbab7cc73	-0.0014022723
168	0x3d4f70d4	0.05064471
169	0x3e298eab	0.1655833
170	0xbdb7a0e0	-0.08966231
171	0x3e3b06af	0.18264268
172	0xbdb167de	-0.08662389
173	0xbcba1b04	-0.02271796
174	0xbd80b267	-0.062840275
175	0xbe0ed586	-0.1394864
176	0x3d87cc9d	0.06630824
177	0x3d03e309	0.03219894
178	0x3d14dbb2	0.03634233
179	0x3e191c39	0.14952172
180	0x3b92589f	0.004466131
181	0x3e56805b	0.20947401
182	0x3dbcd8dc	0.0922105
183	0xbda19ac6	-0.07890849
184	0xbd984fbd	-0.07437084
185	0xbdc4133f	-0.095739834
186	0x3d354fd2	0.044265576
187	0x3e001822	0.12509206
188	0x3d988526	0.07447271
189	0x3dbb8904	0.09156993
190	0x3e00d6ab	0.1258189
191	0x3c7cecc6	0.015437311
192	0xbd662938	-0.056191653
193	0xbd82e788	-0.06391817
194	0xbd9fd103	-0.07803538
195	0x3dbd38ce	0.0923935
196	0xbd9483fe	-0.07251738
197	0x3d477c53	0.04870255
198	0x3ddde228	0.108341515
199	0x3e12522f	0.14289163
200	0x3df64e8d	0.12026701
201	0x3da6b2e3	0.08139589
202	0xbe428e48	-0.18999588
203	0xbdaa0637	-0.08301967
204	0x3c783083	0.015148285
205	0x3d95e1d5	0.07318465
206	0xbd0ea9da	-0.03482995
207	0x3c955f9a	0.018234063
208	0xbe47e845	-0.19522198
209	0xbc642e5a	-0.013927067
210	0x3d1c8ae2	0.038218386
211	0xbd185b3e	-0.03719639
212	0x3d915d77	0.07097905
213	0x3e563d59	0.2092184
214	0xbd170b0b	-0.036875766
215	0x3c35a9dc	0.011087861
216	0x3cb16457	0.021654291
217	0x3df64511	0.12024892
218	0x3e561118	0.20904958
219	0x3dafc349	0.085821696
220	0xbe40cfc3	-0.18829255
221	0x3d710df8	0.058851212
222	0x3e5978ba	0.2123746
223	0x3d22dea5	0.03976311
224	0xbe8f1c38	-0.27951217
225	0xbc077aeb	-0.008269052
226	0x3af143f4	0.0018407092
227	0xbd7e2949	-0.06205109
228	0x3d9c07ce	0.07618676
229	0xbc96fcb2	-0.018431041
230	0xbc487f47	-0.0122373765
231	0x3d6047d7	0.05475601
232	0xbe0de2e1	-0.13856079
233	0xbd459496	-0.048237406
234	0xbc300c69	-0.010745146
235	0x3d83e85f	0.06440806
236	0x3d96e6ce	0.07368241
237	0x3bb27013	0.005445489
238	0x3d2d29d5	0.042276222
239	0xbc286cb8	-0.010279827
240	0x3c5e7602	0.01357794
241	0x3d23ac16	0.039959036
242	0xbd98339c	-0.07431719
243	0x3de95e80	0.113949776
244	0x3c87be67	0.016570283
245	0x3d3a8b23	0.045542847
246	0xbd22d58e	-0.039754443
247	0x3e2dbcc5	0.16966541
248	0xbd82b8f2	-0.06382932
249	0x3e39c415	0.18141206
250	0xbcfe71cb	-0.03106012
251	0x3dd573ba	0.10422464
252	0x3e4e789b	0.20163195
253	0xbde593fd	-0.11209867
254	0xbd3df41c	-0.04637538
255	0x3d44851f	0.047978517

recurrent.spatial_attn.ffn.linear.bias f4 [32]
0	0xbd3bb21e	-0.045824163
1	0xbe0e0122	-0.1386762
2	0x3dc5e67d	0.09663103
3	0xbdf3f1ff	-0.119113915
4	0xbe39edb8	-0.18157089
5	0xbddab638	-0.10679287
6	0x3d20f23a	0.039293505
7	0xbe04279a	-0.12905732
8	0xbe57a72e	-0.21059868
9	0xbe4e89c7	-0.20169745
10	0xbe4b1881	-0.19833566
11	0xbd89403e	-0.06701706
12	0xbbd0bd24	-0.0063702036
13	0xbb4b273d	-0.003099873
14	0x3dffa920	0.1248343
15	0xbdd8d5ac	-0.1058763
16	0xbe397332	-0.1811035
17	0xbd6e1c10	-0.05813223
18	0x3d51ab2c	0.051188633
19	0x3dbba1b5	0.091617025
20	0x3d582a8f	0.052774962
21	0x3d48b214	0.048997954
22	0xbb1eed22	-0.002425023
23	0xbd55c197	-0.052186575
24	0xbe22b965	-0.15891035
25	0xbc9e1693	-0.019297874
26	0x3e282da7	0.16423665
27	0x3e1c4f96	0.15264735
28	0xbe46f1ed	-0.19428225
29	0xbe4d672b	-0.20058887
30	0x3db0a767	0.086256795
31	0x3e624512	0.2209666
