GraphTransformer_mi_global_standard.pth (torch, 140596 bytes, 29 tensors)

recurrent.input_proj.weight f4 [32, 1]
000000 d8 a7 b1 bf 79 ef 8f bf 53 a6 2a 3f 80 44 86 3f
       -1.3879347 -1.1244956 0.6666004 1.0489655
000010 ff 3f a1 3f 63 0d a8 3e 17 21 8a bf 0b 0b 69 3f
       1.2597655 0.32822713 -1.0791348 0.91032475
000020 de 7a c7 3d 1c b8 d1 3e a8 71 f0 3e fb d2 14 be
       0.09740232 0.40960777 0.46961713 -0.14533608
000030 68 d1 c2 3e cf df b1 3f fd f2 2d be f5 7f 52 bf
       0.3805039 1.3896426 -0.16987224 -0.82226497
000040 61 3a d7 be f2 e0 89 bf 6b 44 51 3f 4d 91 8e 3e
       -0.42036727 -1.0771773 0.8174502 0.2784523
000050 fe 18 37 bf b8 99 5e 3f c1 23 90 be c3 c1 24 bf
       -0.7152251 0.86953306 -0.28152278 -0.64358157
000060 f6 59 49 3f 66 e9 2f bf 9b bd 44 bf 87 44 ed be
       0.78652894 -0.6871551 -0.76851815 -0.46341345
000070 f3 c4 b9 3f fd bd 66 3f 63 00 9a bf 8a 05 80 be
       1.4513229 0.9013365 -1.2031368 -0.25004226

recurrent.input_proj.bias f4 [32]
000000 40 c1 10 bf 51 d1 8f 3d 4b 7c 6c 3f ef 1c 13 3e
       -0.56544876 0.07022346 0.92377156 0.14366506
000010 e1 63 07 bf 1b 4a 26 3f 02 45 46 3f ef 61 08 3f
       -0.5288678 0.64956826 0.7744905 0.53274435
000020 0e 95 49 3d 74 ae 59 3f 21 8d 4f bf 9e 04 fc 3e
       0.049214415 0.8503182 -0.8107472 0.49222273
000030 8f ae ff 3e 17 68 e4 3d 3b 26 a1 bd 60 8d ae be
       0.49937865 0.11152666 -0.0786862 -0.34092236
000040 a0 62 64 bf 5a 57 4f 3e c2 2e 8f 3c 87 aa 02 3f
       -0.8921299 0.20248166 0.01747835 0.51041454
000050 58 a5 0a 3f 5a 78 ea 3e e6 25 2c 3f c9 36 73 bf
       0.54158545 0.45794946 0.6724533 -0.9500547
000060 c0 39 7a 3f 7b 03 1e bf fb cc 81 3f 8c 88 e6 3c
       0.9774437 -0.6172406 1.014068 0.028141282
000070 1a ad 08 be a4 52 1a 3f ec 45 ee 3e 07 09 d9 3d
       -0.13347283 0.6028235 0.4653772 0.10597425

recurrent.time_embedding.weight f4 [128, 32]
000000 af 1f a3 bf 67 40 5d be 28 c3 99 bf 35 26 7e 3c
       -1.2744044 -0.21606599 -1.2012682 0.015512039
000010 32 47 96 3f 2e 24 c8 3d 06 b6 88 3f 0a ca 67 3e
       1.1740477 0.09772526 1.0680549 0.22635666
000020 7b 56 00 3f cc 08 14 3d 25 d2 b2 be 69 61 a4 bf
       0.5013196 0.0361412 -0.34925953 -1.2842227
000030 aa 3d b2 be 7e df c9 3e 0f f2 65 3f 17 eb 7c 3f
       -0.3481267 0.39428324 0.8982248 0.9879622
000040 33 82 38 bf f8 a5 e7 3e 47 d9 04 40 53 c1 3c 3b
       -0.7207367 0.45243812 2.0757616 0.0028801754
000050 f8 6e 4d be ad 71 78 3f ae e7 3b 3f db be ad be
       -0.20061862 0.97048455 0.7340039 -0.33934674
000060 a5 a7 66 be e2 74 08 3f 8e b8 03 bf 8c c4 dd 3e
       -0.22524889 0.5330335 -0.51453483 0.43314016
000070 6a 1f 0b bf f8 94 34 be 28 12 0e be 28 a4 07 3f
       -0.5434481 -0.17634952 -0.13874114 0.5298486
000080 6f fe 7b 3f 9c 61 d3 3c 89 1c a7 3f b8 18 99 be
       0.9843511 0.02580338 1.3055583 -0.2990167
000090 4a 80 4b 3e 01 c5 a5 bf f1 3a 1d 3e 89 c0 de 3f
       0.19873157 -1.2950746 0.15354516 1.7402507
0000a0 e6 71 09 3d bc 19 4e 3f 0e 23 7e bf 8f 6e 1a be
       0.033555888 0.8050802 -0.9927224 -0.15081237
0000b0 06 a7 08 3e 87 6b 7b 3e 0d fb f1 bd 2a f9 80 bf
       0.13344964 0.24552737 -0.11815462 -1.0076039
0000c0 8c 2f 02 c0 59 cd 91 be e0 3f 63 3e 7a 2f 14 bf
       -2.034152 -0.2847698 0.22192335 -0.57884943
0000d0 b7 29 3f bf 2b 28 e6 bf 09 19 04 bf aa 69 15 3f
       -0.74673027 -1.7981008 -0.516007 0.58364356
0000e0 9a 45 4c bd 82 64 71 3f 3a df 1c 3e a3 ca 84 3f
       -0.049871065 0.9429399 0.15319529 1.037434
0000f0 da e4 0a bf 75 33 2b 3f 15 0f b3 be ab 1e b0 3e
       -0.5425545 0.6687539 -0.34972444 0.34398398
000100 52 6b 9d 3f b6 09 f7 bd d4 e5 98 be 8e dd a1 3e
       1.2298377 -0.12062399 -0.29862845 0.31614345
000110 27 10 98 3f c7 df 01 bf 9e 5f 89 bf 33 40 0a bf
       1.1879929 -0.5073208 -1.0732305 -0.5400421
000120 35 4f d0 3e 63 3d 88 3f bf e6 1f c0 e9 37 81 bf
       0.4068543 1.0643734 -2.4984586 -1.0095187
000130 76 35 d5 bf 22 2f c8 3d 09 ae 1d bf ee f1 26 bf
       -1.665694 0.09774615 -0.6159368 -0.65212905
000140 dd 36 3b bf f2 e1 ae 3d 32 bf 67 3f 42 7e fd 3e
       -0.7313059 0.085391894 0.90526116 0.4951039
000150 1a 02 21 40 0d e5 51 3e 6e aa 8b be 27 1e a8 bf
       2.5157533 0.20497532 -0.27278465 -1.3134202
000160 62 44 ea 3f 8a 78 ab 3f f2 28 d8 3f 3c 6e 84 bf
       1.8302119 1.3396161 1.6887496 -1.0346141
000170 f6 c7 5e bf 37 29 41 bf 94 a9 af bd da 5f bb bf
       -0.87023866 -0.75453514 -0.08577266 -1.4638627
000180 57 09 f2 be 6b 8c ec 3e 6c c5 5a 3f 8a 6c fa be
       -0.4727275 0.4620088 0.8545749 -0.48910934
000190 2b d1 c2 be e8 bf 22 c0 55 83 0f bf d9 62 81 bf
       -0.38050207 -2.542963 -0.5605977 -1.0108291
0001a0 9e ab 6f 3f 66 3d 33 3f f2 c2 13 c0 26 d8 d0 3e
       0.9362124 0.7001556 -2.3087735 0.40789908
0001b0 cc 6e 0b 40 b4 cb c2 be 17 39 c9 3e ab 5b 32 bf
       2.1786375 -0.38046038 0.3930137 -0.69671124
0001c0 40 a9 b4 be 36 06 4d bf 69 a1 3f 3f 04 d9 a4 bd
       -0.35285378 -0.800876 0.7485567 -0.08049205
0001d0 2e 17 e7 be 6e 21 80 3e eb 9b 4d bf 69 f0 7e 3f
       -0.45134872 0.25025505 -0.80316037 0.99585587
0001e0 47 1e 1a bf a7 d2 2e c0 70 6c 72 3f e0 22 8e 3f
       -0.6020245 -2.7316072 0.9469671 1.1104393
0001f0 ab c4 a4 bd 9c 2c 94 bb bb 61 00 3f b9 92 39 40
       -0.08045324 -0.0045219194 0.50149125 2.8995802
000200 66 34 42 3e 16 4a d7 bd 15 97 b4 bc 47 23 be 3e
       0.18965301 -0.10512178 -0.022044698 0.3713629
000210 18 a8 38 3f 69 ad cc bf af 16 0e bf cf 39 5a be
       0.7213149 -1.599042 -0.5550336 -0.21311115
000220 42 c9 84 bf e6 51 27 3f 88 3f 92 3f 26 ba 64 3e
       -1.0373919 0.6535934 1.1425638 0.22336635
000230 6a 99 29 bc eb f4 89 be a0 23 d9 3e 47 e6 ab bd
       -0.010351518 -0.2694467 0.42409992 -0.08393531
000240 56 ac 06 3f b9 da 1e bf 64 db 76 be 17 c4 56 bf
       0.52606714 -0.62052494 -0.24107128 -0.8389296
000250 d3 74 64 3e c7 ed 23 bf 55 6b 35 3f 0a 9a c4 bf
       0.2231019 -0.64034694 0.708669 -1.5359509
000260 d3 16 71 bf e8 48 9c be c9 9a c7 3e 5c e4 4a bf
       -0.9417545 -0.30524373 0.3898528 -0.792547
000270 8d 72 05 40 9c 16 ce bf ac 49 ff 3e d7 51 55 bf
       2.0851166 -1.610065 0.49860895 -0.83328
000280 8b cf 43 bf 47 7a 9a bf df a6 d4 3e f5 9c e8 3e
       -0.7648856 -1.2068566 0.41533563 0.4543225
000290 1e b9 d2 be 83 4a 36 3e 4b 7c 27 be c4 5d ad be
       -0.41156858 0.17801861 -0.16356008 -0.338606
0002a0 24 45 a2 bf e4 0c bf be 71 73 d8 bf c6 b5 fc 3f
       -1.267735 -0.37314522 -1.691023 1.9742973
0002b0 29 f9 0f be 11 f0 02 40 18 db 21 bf fb 17 95 bf
       -0.14059891 2.0459025 -0.63224936 -1.1647943
0002c0 f0 07 9c 3d 88 89 7a 3f cc 63 43 bd 04 99 02 bf
       0.076187015 0.97866106 -0.047702596 -0.51014733
0002d0 38 35 83 3e 6d 78 15 bf bc 36 8b bf 22 54 a4 bd
       0.2562654 -0.5838688 -1.0876079 -0.080238596
0002e0 dc cd a6 be 9a 43 a6 3f 7f 42 d9 be 55 1a 88 3e
       -0.32578933 1.298938 -0.42433545 0.2658259
0002f0 f6 c4 6d be e1 31 bc 3e e9 0a 75 3f 74 7a ee 3e
       -0.23219666 0.36756805 0.9571977 0.465778
000300 81 7e d3 3f 50 75 93 bf 8f c4 c4 3d a1 67 9c 3e
       1.6522981 -1.1520176 0.09607803 0.30547813
000310 00 15 90 bd 12 5d 60 be 08 d8 9c bc f0 9f d9 bf
       -0.070352554 -0.21910504 -0.01914598 -1.7001934
000320 8f 14 0e 40 2b 11 a7 bf 73 cc 65 3f 2c d4 f1 bd
       2.2200048 -1.3052114 0.8976509 -0.11808047
000330 cb 36 92 3f 73 99 f9 3f 18 58 7a bf 41 d8 3a bf
       1.1422971 1.9499954 -0.9779067 -0.7298623
000340 ca d4 2d 3f 66 d8 1e bf 5d 2f 30 bf 75 80 6c 3f
       0.67902815 -0.6204895 -0.6882227 0.9238351
000350 25 30 94 3f d5 3b 2c 3f ab 9a be bf 77 20 d4 3f
       1.1577193 0.67278796 -1.4890951 1.6572407
000360 e0 25 00 3f ed 5f 64 bf d1 c4 d3 3f f3 22 91 3f
       0.5005779 -0.8920887 1.6544439 1.1338791
000370 1f e1 3e bf 93 9a c0 bf 41 2b 5e 3f 06 72 3c bf
       -0.7456226 -1.5047172 0.8678475 -0.73611486
000380 df 37 5e bd 48 20 e6 be a6 7d 45 bf e2 13 33 bf
       -0.0542525 -0.44946504 -0.7714485 -0.69952214
000390 68 b1 9b bf 72 c9 5e be 71 90 8a be de b3 0e 3c
       -1.2163515 -0.21756533 -0.27063325 0.008709876
0003a0 ec 81 77 bd 91 b1 a7 bf 7a 80 29 bf f9 59 64 be
       -0.060426638 -1.3101064 -0.66211665 -0.22299947
0003b0 96 33 fd be 18 c5 20 bf 30 49 29 be ad aa 93 be
       -0.4945342 -0.6280074 -0.16531825 -0.28841153
0003c0 7e da a6 be f4 0c b5 be db b2 ac 3f 47 2a 11 40
       -0.3258857 -0.35361445 1.3492082 2.2682054
0003d0 2c d6 06 3f ce 86 92 3e 99 6f fa be 5e 52 2b 3d
       0.5267055 0.28618473 -0.48913267 0.0418266
0003e0 e7 c2 41 be 01 3b d4 3d 7d 46 1a bf f8 b1 c2 bc
       -0.18922006 0.103628166 -0.60263807 -0.023766503
0003f0 19 66 17 bf b9 7d d0 bd e2 19 74 bb 81 49 58 3f
       -0.59140164 -0.1018023 -0.0037246873 0.8448716

recurrent.stock_embedding.weight f4 [472, 32]
000000 b9 e1 15 be 83 2e e8 3e 91 0f 62 3f f8 e4 6a 3f
       -0.14636888 0.45347986 0.88305 0.9175563
000010 ec b7 22 bf 29 a3 20 3f 5c d6 fa 3e cc 26 e7 be
       -0.6356189 0.6274896 0.48991668 -0.45146787
000020 9b 3d f8 be 39 ff 20 40 61 83 20 bf 57 89 89 3f
       -0.484845 2.5155776 -0.6270047 1.0745038
000030 82 4c 8e bf a8 08 58 3e 92 e0 90 bf 26 bd 90 3d
       -1.1117098 0.21097052 -1.1318533 0.07067327
000040 48 dd b4 3e 80 86 f8 3e ad ae c6 be 1d 13 67 be
       0.35325074 0.48540115 -0.38805142 -0.22565885
000050 60 ac ea bd 2f 8a b4 3e 74 55 d2 3d a7 5b df 3f
       -0.11458659 0.35261676 0.10270205 1.7449845
000060 88 24 3a 3f 3b 75 a7 bf f6 13 85 3d 8e 8d b3 3f
       0.7271199 -1.3082651 0.06497948 1.4027574
000070 e5 61 2d bf df ab 50 bf f0 b4 ae be 50 36 91 3e
       -0.677275 -0.81512254 -0.3412242 0.2836175
000080 c2 80 9e be 5f d7 d4 bb 3a 6f fd be d6 87 be 3f
       -0.3095761 -0.006495401 -0.49498922 1.4885204
000090 b1 d0 00 40 ee 51 45 3f 73 be bd be cf 12 9f 3f
       2.0127375 0.7707814 -0.37059364 1.2427615
0000a0 24 24 08 bf 55 56 c8 3d a7 dd 04 c0 03 ac 9a bf
       -0.53180146 0.097820915 -2.0760286 -1.2083744
0000b0 db d3 43 3f ea 12 58 3f 4a ba 81 bd e0 8e 79 3f
       0.7649514 0.8440386 -0.0633436 0.97483635
0000c0 16 cb 5c 3e 14 17 94 be ba cd 9e be 06 2d cb be
       0.21561846 -0.28923857 -0.31016332 -0.39682788
0000d0 de e1 65 bc 92 70 d5 3d 87 3e c0 bf ca 6c 05 3f
       -0.014030902 0.10421862 -1.5019082 0.52119124
0000e0 a3 34 97 be 6a f8 95 bf 97 f4 3a 3f 17 e8 a6 bf
       -0.29532346 -1.1716435 0.73029464 -1.3039578
0000f0 f2 a5 31 3d c1 4a 2f be 7a ec df 3f a7 51 22 c0
       0.04337115 -0.1711836 1.7494042 -2.5362337
000100 ce 2a 91 be d7 15 57 3f 0c 27 cb 3e ff 40 92 3e
       -0.2835297 0.840177 0.39678228 0.28565213
000110 74 35 bf 3e dd 84 41 3f 0f fe c1 3f b1 1f 61 3e
       0.3734547 0.7559336 1.5155658 0.21984746
000120 e3 8e 96 be d3 c1 67 3f 09 41 ad 3f 20 50 2b c0
       -0.2940589 0.9053013 1.3535472 -2.6767654
000130 3e 21 5c 3e 49 e2 f7 3e a1 54 36 3f 81 6d 1d bf
       0.21497056 0.4841483 0.71222883 -0.61495215
000140 49 a3 a2 be 6f cf 50 3c 58 ce 13 3f 06 49 6e 3e
       -0.31765202 0.0127447685 0.5773673 0.23270044
000150 b2 2e 96 3f e5 c4 20 3f 89 c4 25 3f 68 a6 7e 3f
       1.1733 0.6280044 0.64753014 0.99472666
000160 59 40 56 3f 07 ae e7 3e 3a 6c cb bf ae 09 9c be
       0.83691937 0.4524996 -1.5892403 -0.30476135
000170 64 10 d0 be 95 e6 38 3f ff 6c 53 3f 08 84 05 3e
       -0.40637505 0.7222684 0.8258819 0.13038647
000180 55 fa c5 3f e7 69 8d bf 80 a8 60 bf e0 9f a3 3e
       1.546702 -1.1047944 -0.8775711 0.31957912
000190 48 48 95 3f e0 99 b0 bf c0 97 be 3c 83 53 44 bf
       1.1662683 -1.3796959 0.02326572 -0.7668993
0001a0 a8 58 4a 3f 9d 73 95 3f 93 fd 9c bd 84 91 60 3e
       0.7904153 1.1675907 -0.07665553 0.2193051
0001b0 c1 c2 d3 be e5 af 9e 3f 4a 0d 4c 3e 63 c8 9b 3f
       -0.41359523 1.2397429 0.19926944 1.2170528
0001c0 9c 8c d5 bf 8a 52 84 bf e1 ba d5 be 60 cb e0 bf
       -1.6683536 -1.0337689 -0.4174414 -1.7562065
0001d0 67 1e dd 3e 0f f3 9a 3e 83 08 93 3e 9c bb da bf
       0.43187258 0.30263564 0.2871743 -1.7088504
0001e0 07 a8 36 bf 35 68 a8 be d2 d9 80 3f ac cc 85 bf
       -0.7135014 -0.32892004 1.0066473 -1.0453086
0001f0 6f 42 88 3f 4d 80 8c 3e e9 05 08 3f 59 af 43 bf
       1.0645274 0.27441636 0.5313402 -0.76439434
000200 d1 be 2a 3f d7 e2 92 bf 47 bb bf 3f 71 e5 f2 bd
       0.6669741 -1.1475476 1.4979028 -0.11860169
000210 5d 8f 73 be 59 6f e3 3f ec a5 40 3d 95 ff bf 3f
       -0.23785158 1.7768356 0.047033235 1.4999872
000220 49 43 25 3f cf 67 ff 3f 98 d6 e5 bc 30 d2 3a 3f
       0.64555794 1.9953555 -0.028056428 0.7297697
000230 64 24 b0 be 94 f9 3d be 8d ef 2e bf f3 1b 83 3f
       -0.34402764 -0.18552238 -0.68334275 1.0242904
000240 d4 c7 ab 3d 16 73 3d 3e 1f 0d 12 3f 3c ff e8 bf
       0.083877236 0.18500933 0.5705127 -1.8202891
000250 15 16 fa be 0c e5 32 3f c2 7b 2a 3e 57 29 16 c0
       -0.48844972 0.6988075 0.16648772 -2.3462732
000260 a9 aa 8f be bf aa 9c bd a6 f1 e0 3f ec cc 39 bf
       -0.2805989 -0.07649755 1.7573745 -0.7257831
000270 e7 04 ab bd 34 06 2c bf 44 a3 3e 3f cf ac 2f bf
       -0.083505444 -0.67196965 0.74467874 -0.6862306
000280 e3 c3 76 bf 93 17 0e 3f 97 ff dd bd 86 38 82 bf
       -0.9639265 0.5550472 -0.108397655 -1.01735
000290 9b ff 8e 3f 79 7d 1b 3f b8 b1 7f 3b 36 a3 bf 3e
       1.1171755 0.6073833 0.003901584 0.37429208
0002a0 37 c9 1a 40 61 1b 31 c0 25 e4 86 3e 5e 7b e1 be
       2.4185312 -2.767296 0.26345935 -0.44039434
0002b0 e8 b1 47 3e 84 d4 0a bf 54 35 9d 3e bc b1 d6 be
       0.1950146 -0.54230523 0.3070475 -0.41932476
0002c0 6a bd 72 bf dc d8 09 3f 05 af 67 3e 44 87 9c 3f
       -0.9482027 0.53846526 0.22625358 1.222878
0002d0 4e 94 69 bf aa da 87 bf 1c 9b e1 3e 68 bf 9f 3f
       -0.9124192 -1.0613606 0.44063652 1.2480288
0002e0 5d 83 81 3f ba 2f 8e 3d 90 38 fb be 00 c5 2b 3e
       1.0118214 0.06942697 -0.4906659 0.16774368
0002f0 3d 27 2c 3e f9 4f 51 bf b4 d7 12 3d a6 5e 30 40
       0.16811843 -0.81762654 0.03585024 2.755777
000300 3a 87 36 3d f8 6a 84 bd d7 4b 63 bf 8f 83 ac bc
       0.044562556 -0.06465715 -0.887876 -0.021058826
000310 f0 eb 17 bf ae 75 71 bf 5c c9 96 bd 6c 7e 27 bf
       -0.5934439 -0.9432019 -0.07362625 -0.6542728
000320 65 e2 05 3f b4 15 b5 3e e8 dc 20 bf 29 3b af be
       0.52298576 0.3536812 -0.62837076 -0.34224823
000330 55 95 80 3f b1 0c ab bd f7 f4 2f bf 0c e0 20 be
       1.0045573 -0.0835203 -0.6873316 -0.15710467
000340 f9 4b a0 bf 8e 41 96 be 38 98 86 3f 5f 73 8e 3e
       -1.2523185 -0.2934689 1.0515203 0.27822396
000350 fa ac 31 3f 74 4e 44 be 6d f5 06 3f a6 f5 06 3f
       0.69404566 -0.19170552 0.5271824 0.5271858
000360 d2 e2 ea 3e d8 dd 7a 3f 25 53 48 3d e3 08 01 3f
       0.45876175 0.97994757 0.048907418 0.50404185
000370 89 eb e3 3f 7f ca 0f bf fe 74 41 3f 51 70 07 bf
       1.7806255 -0.5616836 0.7556914 -0.52905756
000380 6a 5a 02 bf 64 9c 21 bf e6 e5 bd 3f 65 5b 11 3f
       -0.5091921 -0.6312926 1.4835784 0.5678008
000390 b4 eb 0f be 8d ff 8d 3f 23 1e 81 3f e7 76 9f bf
       -0.14054757 1.1093613 1.0087322 -1.2458161
0003a0 d7 4c 20 3f 2c 22 5e 3c ea 49 88 3f 9f 7e c1 3f
       0.6261725 0.013557952 1.0647557 1.5116767
0003b0 50 58 0c 3c 14 48 1e bf b7 08 bb be ad 0c 0d 40
       0.008565977 -0.6182873 -0.36530086 2.2038987
0003c0 13 d3 81 bf e9 fd 0c bd 27 8c 00 bf d9 8f e1 be
       -1.014254 -0.034421835 -0.50213856 -0.4405506
0003d0 1f b0 23 3f 5e 71 59 bf a0 56 4a 3f 1e 5b af be
       0.63940614 -0.8493861 0.7903843 -0.34249204
0003e0 40 b6 be 3f 22 28 fe 3e b9 59 48 3e f4 ba 5c be
       1.4899368 0.49639994 0.19565476 -0.21555692
0003f0 29 0c 72 3e ad 51 3c 3e 99 b4 24 3e d4 74 51 3f
       0.23637451 0.18390532 0.16084518 0.8181889

recurrent.spatial_attn.mha.in_proj_weight f4 [96, 32]
000000 a1 87 23 be 6b ec d6 bd 3d c7 48 be 98 a5 bb bd
       -0.15969707 -0.10494312 -0.19607253 -0.09162444
000010 78 9f 6f 3d 31 7e 67 3e f5 41 cf 3d ea a4 23 3e
       0.05850169 0.22606732 0.10120002 0.15980878
000020 cc 46 d8 3d 1d e9 a4 3b 1f 7a 40 be fc 13 0d 3d
       0.105603784 0.005032672 -0.18796586 0.034442887
000030 1d 24 42 be 98 0d a0 3c 94 29 a6 bc 2d ec 88 be
       -0.18959089 0.019537732 -0.020283498 -0.26742688
000040 bf 93 a8 3d b1 66 02 3c ac ce 98 3d 72 8d 08 3e
       0.08231305 0.007959054 0.074612945 0.13335207
000050 8c 83 31 3e 20 18 6e 3d 5b 57 7b be d6 3b 2b bd
       0.17335337 0.058128476 -0.24545042 -0.04180511
000060 ed 41 76 3d cf dc b1 3d f1 6d 2d 3e e7 c1 82 bd
       0.060121465 0.08684694 0.1693647 -0.0638464
000070 3b 7f 82 bd fb 08 ae 3d 2e 01 4e be 36 f6 98 3a
       -0.063719235 0.08497807 -0.20117638 0.0011670056
000080 4f ab 39 be 63 fb 07 b9 3e 7d 07 3d a1 e6 cc bd
       -0.18131755 -0.00012968252 0.033078425 -0.100049265
000090 63 b0 0e 3e 3f 11 36 3e c8 37 20 3e 0a 84 fe bb
       0.13934474 0.17780016 0.15646279 -0.007767205
0000a0 ef 96 5a 3e 08 95 8b 3d b9 90 64 3d 15 38 4b 3d
       0.21346639 0.06815535 0.05580208 0.04961403
0000b0 b7 91 e8 bd 0c dd 09 3d 2b 6b bb 3b 4e 15 1b 3d
       -0.11355918 0.033658072 0.0057195625 0.037862115
0000c0 6f dd f8 bb 83 5d f3 bc 65 54 9c be 96 2c c7 3d
       -0.0075947563 -0.029707676 -0.30533138 0.09725301
0000d0 70 12 97 bb f1 da 4a 3b cc 81 db 3d 05 85 3c be
       -0.004610352 0.0030953253 0.10718116 -0.18410118
0000e0 8b 20 f3 bd 31 fc e2 bd c4 18 dd 3d ae 1a 2d bd
       -0.118714415 -0.11083258 0.10795739 -0.04226177
0000f0 58 7b 37 be 75 59 94 3e 62 b1 cd 3d fe 49 16 3e
       -0.17918146 0.289745 0.10043599 0.14676663
000100 f4 00 9c 3e 19 3e ec 3d b5 57 b0 3c 1e 4b a2 3c
       0.30469477 0.11535282 0.021526197 0.01981121
000110 02 cf fc bd 71 bb 86 be b6 c1 50 3e 3e ae 59 3e
       -0.12344171 -0.2631488 0.20386395 0.21257874
000120 82 68 17 3e 3a c9 44 3e e0 8c d3 bd ad cc 8b 3e
       0.1478596 0.19217387 -0.10329604 0.27304593
000130 a0 44 ac 3d f1 df 46 be f3 f2 6f be 98 2d 5a 3e
       0.08411527 -0.19421364 -0.23432522 0.21306455
000140 34 76 38 be ed 82 d8 3e 8a 32 d6 bd 86 65 8b be
       -0.18013841 0.42287388 -0.10458858 -0.27225894
000150 b6 c5 b8 3e 3b da 82 3e 77 02 ef 3d bc bd f9 3d
       0.3608834 0.25557122 0.11670392 0.12194392
000160 65 f8 9b 3e d3 67 19 be 47 cb bd 3d 63 67 f9 b9
       0.30462947 -0.14981012 0.09267288 -0.0004757001
000170 9a 71 bb bd 56 33 68 3c 81 f8 8a 3e cd a1 26 bd
       -0.09152527 0.014172396 0.27142718 -0.04068165
000180 9e 20 50 3e 91 65 9c 3e f1 03 a6 bd 6b 16 84 3e
       0.20324942 0.3054624 -0.081062205 0.25798354
000190 0f 06 67 3e f0 74 c9 3c 01 38 6f 3e 60 d1 fe bb
       0.22560905 0.024591893 0.23361208 -0.0077764243
0001a0 7b 96 cf 3d ab dc 7a be ac 8c 5d bd 95 c2 ba 3d
       0.10136124 -0.2449824 -0.054089233 0.09119145
0001b0 2f 0b a0 3c dc ba 38 bc a2 be 38 3d fc ee 67 3e
       0.019536583 -0.0112750195 0.045103677 0.22649759
0001c0 ba 83 7c bc 87 a8 fb 3d 9b c5 16 3e 6d 4c a5 be
       -0.015412265 0.122880034 0.14723818 -0.3228487
0001d0 cb ed 32 3e f1 a6 60 3d 79 9b 0f 3e 33 48 7a 3e
       0.17473523 0.054846708 0.14024152 0.24441604
0001e0 b9 50 59 3e 77 fa 4f 3e 5c 7c 64 bd e0 1b 96 3c
       0.212222 0.20310389 -0.05578266 0.018323839
0001f0 53 92 88 3e e5 93 4c be 43 8b 1d 3e 48 9e d4 bd
       0.26674137 -0.19978292 0.15385155 -0.10381752
000200 d3 74 af be 5f 21 85 be 06 33 7f be e3 fa 8d 3d
       -0.34268817 -0.26002023 -0.24921808 0.069326185
000210 bf 1c 41 be da 74 75 3c 83 82 64 be 3c aa 12 3d
       -0.18858622 0.014981473 -0.22315411 0.03580688
000220 e3 b4 e7 3d 18 62 7e 3e 2f 27 12 bd a1 a0 a3 bd
       0.11313798 0.24842107 -0.0356819 -0.07989622
000230 28 14 2b be cd 17 5c bb e9 a2 32 be 2e 4b 55 be
       -0.16706908 -0.0033583522 -0.17444958 -0.2082946
000240 55 14 64 bd e5 71 38 be 24 35 4b be fa e6 4b 3e
       -0.055683453 -0.18012197 -0.1984449 0.1991233
000250 f5 f0 ad bd ec 5a 32 3e 22 90 30 3d 8d ba e4 bd
       -0.084932245 0.17417496 0.043106206 -0.11168394
000260 13 33 6c be cb 5c 4c be 16 35 8b be bb b7 a5 3d
       -0.23066358 -0.19957273 -0.2718894 0.080916844
000270 e4 bf 87 bd 9b 9f 0b 3e 61 45 86 be b4 9f 34 bc
       -0.06628397 0.13635103 -0.26224807 -0.011024404
000280 0d 1c c4 bd e1 a5 1a 3d 56 1d ae 3d d1 6f ac bd
       -0.09575663 0.03775585 0.08501689 -0.08419765
000290 2c 4e 41 3d ce ac 2d 3e 20 67 a8 3e fd 9b 46 3e
       0.04719369 0.16960451 0.32891178 0.19395442
0002a0 46 8a aa bd d8 49 30 3e fe 55 6c be 5d 95 1f bd
       -0.08327155 0.17215669 -0.23079678 -0.038960803
0002b0 86 00 1b 3e 2e ed 42 be a8 65 2a 3d d4 d4 d8 bd
       0.15136918 -0.1903579 0.041600853 -0.10587469
0002c0 a0 dd 6f 3c b7 bb 40 bc 50 17 a5 3c d9 b3 7b bc
       0.014640242 -0.011763505 0.020152718 -0.015362703
0002d0 61 30 2c bd 48 6f 34 be 4e d3 b0 3c 67 ad 8b be
       -0.042038325 -0.17620575 0.021585133 -0.27280733
0002e0 92 d3 53 be d7 4e 8c bd 73 77 42 3e 94 8c 95 3d
       -0.20686176 -0.06850975 0.18990879 0.07302204
0002f0 23 51 2d be da 7b 66 3e 44 6e 11 3e 24 51 33 3e
       -0.16925482 0.22508183 0.14202219 0.17511421
000300 b6 1e ff bd 0e 72 02 bf a2 c5 d4 bd a3 46 00 3e
       -0.124570295 -0.50955284 -0.10389258 0.12526946
000310 27 0c 3c bb ad 6b 38 3e 48 f0 3f be 4d 0f 0c 3e
       -0.0028693767 0.18009825 -0.18744004 0.13677712
000320 59 b7 f2 3d db 0b 58 3d b9 8d 68 3e f1 29 66 3d
       0.11851377 0.05274568 0.22710313 0.056192342
000330 09 47 b9 3d 53 b4 9a bd a6 e6 57 3e dc b2 5b be
       0.09046752 -0.07553925 0.21084079 -0.21454948
000340 b5 09 37 3d e6 f6 bd be 08 f7 de 3d f9 33 26 3e
       0.04468699 -0.3710243 0.10886961 0.16230763
000350 14 3f 3b be 8a 76 89 3d 2b df a8 3d 23 91 4b 3e
       -0.18285781 0.06712063 0.08245691 0.19879584
000360 57 81 62 be 04 27 60 bc d5 46 c5 be 8b 89 99 be
       -0.22119652 -0.013681177 -0.38530603 -0.2998775
000370 5a 7c f3 3d e5 ca 8b bd 7a 89 5c be bf 7a f2 bd
       0.118889526 -0.068258084 -0.21536818 -0.11839818
000380 66 75 22 3e 16 d4 cf 3e 21 30 34 3e a3 5e 14 be
       0.15865096 0.40591496 0.17596485 -0.14489226
000390 fa 09 a4 bd 5d d4 89 be 7a 4d a1 bd 77 36 17 3e
       -0.080097154 -0.26919833 -0.078761056 0.1476687
0003a0 80 e3 d2 3c 57 d8 29 3d 57 96 28 be 66 9e 76 bd
       0.025743246 0.041466083 -0.164636 -0.060209654
0003b0 74 5d bd 3e f2 94 43 bd 8b 57 ae 3d 92 a9 3e 3e
       0.36985362 -0.047749467 0.08512791 0.18619373
0003c0 86 07 74 bc 87 ce 05 3e c0 5b 53 3e b6 84 cd be
       -0.014894372 0.13067065 0.20640469 -0.40140313
0003d0 13 e6 42 3e 9b 53 02 3e ce c7 17 3e 92 74 a0 3e
       0.19033079 0.12727205 0.14822313 0.31338936
0003e0 a1 3f 3a 3e 06 c9 be bd 56 86 d7 3d 07 23 ad 3d
       0.18188335 -0.09315686 0.105236694 0.084539466
0003f0 1d f0 61 3c 8d 71 a3 be c1 4e a3 bd 08 96 bf bd
       0.013790158 -0.3192257 -0.079740055 -0.09354788

recurrent.spatial_attn.mha.in_proj_bias f4 [96]
000000 1e 9c 21 3b 95 60 e3 3c 92 89 49 3e 17 4c 8e bc
       0.0024659703 0.027756015 0.19681385 -0.017370267
000010 9b 35 fd bc 43 29 29 3e ca 60 4a be 6d 39 b4 3c
       -0.03090935 0.16519646 -0.19763485 0.022000039
000020 c3 6b a0 bd 56 2a 3b bc 64 58 56 3e 37 1c f8 3d
       -0.07833054 -0.011423668 0.20932156 0.121147566
000030 3f 71 b7 3d cf 6b 04 bb ae d1 74 3c c2 90 20 3e
       0.08957147 -0.002020586 0.01494257 0.1568022
000040 b4 6c 88 3d e4 39 c1 3d 7d 4e 9f 3c dc c4 f2 bd
       0.066613585 0.0943487 0.019446606 -0.11853954
000050 7d e0 85 3d 62 a0 94 3b 03 87 14 3d 2d 2e e2 bd
       0.06536958 0.0045357207 0.03626157 -0.110439636
000060 b6 01 f2 bd 7a c2 d5 3d b9 b6 40 3c 82 3b be bc
       -0.118167326 0.10437484 0.0117623145 -0.023221735
000070 41 bd 1d be e6 0e 19 bd 47 a3 e1 3d 51 29 09 3e
       -0.15404226 -0.037367724 0.11017471 0.13394667
000080 c0 9c 82 3b 34 65 68 3b 36 e1 d9 3a 6c cd 22 bb
       0.003985971 0.0035460712 0.0016622904 -0.002484168
000090 62 c4 08 3c 8d 81 0b bb 74 86 52 3b 8e f2 8c 3a
       0.008347603 -0.0021286935 0.0032123597 0.0010753439
0000a0 a0 f2 b8 3a a4 5c 99 3a 17 40 07 bb 01 e0 6c bb
       0.0014110394 0.0011700583 -0.0020637566 -0.003614426
0000b0 00 15 2c bb 50 4a 2c 3b 8f 62 d6 ba 0a a7 31 bb
       -0.0026257634 0.002628941 -0.0016356277 -0.002710762
0000c0 fa 55 0e bb f4 9c c1 ba be 3e 6f bb c6 2d 10 3b
       -0.0021718726 -0.0014771507 -0.0036505903 0.002199994
0000d0 de d8 8e bb 78 9d 02 bb 06 ed 7b b8 a2 80 6b 3b
       -0.0043593487 -0.0019930284 -6.006381e-05 0.0035934825
0000e0 78 79 a3 3b ed 19 8f bb 24 89 e1 ba e6 d8 71 3b
       0.0049888454 -0.0043671043 -0.0017207009 0.0036902963
0000f0 8f 72 87 3b 25 83 18 3a f6 e8 e2 ba 3f d9 c7 bb
       0.0041335295 0.0005817882 -0.0017311859 -0.006098896
000100 15 8b 80 b9 54 b6 17 3d 2e fe 24 3c 38 a1 df 3d
       -0.00024517687 0.037039116 0.010070367 0.10919422
000110 e0 8c 6d 3d 0a 85 0b 3e 45 ff 57 3d 51 94 43 3e
       0.057995677 0.13624969 0.05273368 0.19099547
000120 9a f6 ed bd 62 98 40 3e 02 53 06 bd 05 55 38 bd
       -0.11619301 0.1880813 -0.032794006 -0.045002956
000130 ee 5c 33 bd d5 56 a9 bd d4 57 39 bd eb 52 f3 bd
       -0.043789797 -0.08268515 -0.045249775 -0.1188105
000140 b5 11 58 bd 76 e5 ba 3d 3d 36 94 bd 28 86 e6 3c
       -0.05275126 0.091257975 -0.07236908 0.028140143
000150 57 9f 13 bc fa e4 8e 3d 80 5e 39 3c 31 5e 94 bd
       -0.009010158 0.069772676 0.011314034 -0.07244528
000160 0f ba 9a bd 0a ab 24 3e 78 8e f5 3d eb c2 7e 3d
       -0.07555019 0.16080871 0.119900644 0.062197607
000170 4b cf c1 3d a2 d4 a9 3d 58 0a d9 3b 5a 30 bf bd
       0.09463366 0.082925096 0.0066235475 -0.09335394

recurrent.spatial_attn.mha.out_proj.weight f4 [32, 32]
000000 9b 67 4b bc f2 fb 4e 3d 35 06 50 bd af 75 ac 3d
       -0.012414838 0.050533243 -0.05078717 0.08420884
000010 6e 12 a1 3e 3a ee 1f 3e 86 8d 87 3e ed f2 3f 3e
       0.31459373 0.1561822 0.2647516 0.18745013
000020 79 4d f1 bd 21 2e 07 3e dc 10 22 bd db b7 23 3c
       -0.11782355 0.1320119 -0.03956686 0.009992565
000030 af 85 74 3d f9 6f ad bc b2 15 da be 03 df 9e be
       0.059697803 -0.021171557 -0.42594677 -0.3102952
000040 cb 16 6d be 6d e0 b0 3e 4b 74 92 be b0 30 ad 3e
       -0.23153226 0.34546223 -0.2860435 0.33826208
000050 45 31 63 bc 91 ac ef 3c f2 f0 8f be 16 99 07 be
       -0.013866727 0.02925709 -0.28113514 -0.13241991
000060 e0 87 9b bd 0f 56 0b 3e 86 df c9 3d cf 97 53 3d
       -0.075942755 0.13607047 0.09857087 0.051658448
000070 8c d0 ba 3d df c4 30 3e 29 14 3e 3e 05 95 bc be
       0.091218084 0.172626 0.18562378 -0.36832443
000080 78 55 96 3a d9 f2 bb bd a2 d9 44 3e 26 f0 9f 3e
       0.0011469563 -0.09177179 0.19223645 0.31237906
000090 0c c4 6e 3e 75 b5 2c 3e 90 5f a6 3e 7b 06 25 3e
       0.23316973 0.16866095 0.32494783 0.16115753
0000a0 a1 66 78 be 20 7b 9a 3d 01 84 0e 3e f0 6d 73 3c
       -0.242579 0.075430155 0.13917543 0.014857754
0000b0 05 99 87 3c 99 40 a3 be 9d 6c 94 be 0b c2 1d be
       0.016552458 -0.31885222 -0.28989115 -0.15406053
0000c0 1f bc 29 be 4e 62 a2 3d 27 95 a0 be 11 27 cd 3d
       -0.16575669 0.079289064 -0.31363794 0.10017217
0000d0 b9 4a 26 be df 35 3f be e8 66 89 be e7 5b be bd
       -0.16239442 -0.18672894 -0.26836324 -0.09294873
0000e0 28 25 f5 bd 81 5c 9e 3d 00 7e 4d 3e 27 e0 74 3c
       -0.119699776 0.077324875 0.20067596 0.01494602
0000f0 36 f8 4b 3e 9e 24 d2 3d bb c9 50 3e 28 56 08 bd
       0.19918904 0.102608904 0.20389454 -0.03328529
000100 40 aa bc bc 65 51 c2 3d e0 2d 08 3e 65 b1 59 3d
       -0.0230304 0.09488181 0.1329875 0.053147692
000110 9d 62 01 3d c6 ce e2 3d 61 06 e4 bd 6f b8 2c be
       0.031588186 0.11074595 -0.11134029 -0.16867231
000120 b0 30 fd 3d b9 4f ee 3d 6f f9 18 3d b7 ee 7b bd
       0.12362802 0.116363 0.037347253 -0.061506953
000130 e4 89 0a bd 73 43 cb bd a0 03 a9 bd d9 d2 07 3e
       -0.03382291 -0.09924974 -0.082526445 0.13264026
000140 ea a7 19 be b9 1f b9 3d c6 0d 1b 3d 85 32 d3 3d
       -0.1500546 0.09039254 0.037854932 0.1031237
000150 7a 67 62 3d f9 8f ed bd ba f9 83 bc 03 d7 bd 3d
       0.055274464 -0.11599726 -0.01611029 0.09269526
000160 53 c6 33 3c f1 11 a8 3d e2 90 06 3d 48 0b 0d 3e
       0.010972577 0.08206547 0.032853015 0.13773835
000170 78 5a 5a 3e 8f c9 1d bd a4 a8 27 3d 22 c2 2e be
       0.21323574 -0.0385223 0.040932313 -0.17066243
000180 85 29 a0 bd ff 11 10 3e 71 b9 2e 3e 11 b8 9f 3c
       -0.07820419 0.14069365 0.17062928 0.01949695
000190 6d e4 2a 3e 81 6c 62 3e 33 61 1b 3e fb d3 66 3e
       0.166887 0.22111703 0.15173797 0.22541802
0001a0 d1 9f 38 3e 34 60 ab 3d fa 1e 97 3e 5d 10 63 be
       0.18029715 0.08367959 0.2951582 -0.22174211
0001b0 bb 46 7c 3e 1a 20 ce 3d 3a 93 6d be 14 52 0b be
       0.24636357 0.10064717 -0.23200694 -0.13605529
0001c0 35 59 a9 3b f8 63 14 3e 51 d6 fb bc 0d 6d 43 3e
       0.005168105 0.1449126 -0.030741842 0.19084568
0001d0 80 db 5a be a5 f2 dc 3c 15 84 82 be d8 4e 13 3c
       -0.21372795 0.02697117 -0.25491396 0.008990966
0001e0 76 ae 6d be 07 ab ae bd 34 fa 4a 3e 9f fd 37 3e
       -0.23211083 -0.085287146 0.19822007 0.17967843
0001f0 aa 70 e4 bc 47 6e ad 3d ae 37 4a 3e 6e d7 c0 bd
       -0.027885754 0.08468299 0.19747803 -0.0941609
000200 20 f6 02 be dd b1 cc bd 2c 06 89 bd 6c 21 c2 be
       -0.12789202 -0.09994862 -0.0669063 -0.37916124
000210 ba e0 9d be dc fb 70 be dd aa fa bd 20 0f 80 be
       -0.30835515 -0.23533577 -0.12239621 -0.2501154
000220 40 fc 1b 3e 93 c6 8f be 46 15 4f 3e 95 a5 e2 3c
       0.15232944 -0.28081188 0.20222959 0.027666846
000230 e5 3a 95 be ce a9 55 3e 97 e7 66 3e a2 da ee 3d
       -0.29146495 0.20865557 0.22549282 0.11662795
000240 c0 c4 c8 3d 95 d0 d2 bd 24 21 0d 3d 01 86 6b be
       0.09803152 -0.1029369 0.034455433 -0.23000337
000250 01 a3 34 3e ca 4a 46 3e 41 f7 42 3e 0e 5f 10 39
       0.17640306 0.19364467 0.19039632 0.00013768321
000260 4c 99 d5 bd 9a 8d 41 be 7a 78 11 be ad 43 a6 3b
       -0.1042963 -0.18901673 -0.14206114 0.0050739856
000270 07 30 a3 3c f4 19 a0 3d 9c 92 b7 3d c0 f5 91 3d
       0.019920362 0.0781745 0.089635104 0.07126951
000280 0f c0 93 bd 78 67 73 bd bf e6 49 3d 97 1b 3f be
       -0.07214367 -0.059424847 0.049292322 -0.18662868
000290 49 32 6b be f9 02 a1 bc a6 b1 c0 3d d0 4c 71 be
       -0.22968401 -0.019654738 0.09408884 -0.23564458
0002a0 a9 34 32 3e 61 68 23 be 42 91 e4 bd 8e f0 6f 3e
       0.17402901 -0.15957786 -0.11160518 0.23431608
0002b0 9f 2f 18 bd bb 26 d8 bc ee f8 a2 3d d1 01 74 3e
       -0.03715479 -0.026385656 0.07957636 0.23828818
0002c0 9e c9 79 3e e6 0e b2 3d 6c 75 12 be a7 ee 5d be
       0.24393317 0.08694248 -0.14302605 -0.2167307
0002d0 a0 68 e3 3d 77 97 fe bd ba ba f7 3d c0 7b 57 bc
       0.1110394 -0.124312334 0.12096162 -0.013152063
0002e0 a8 1f 3f 3e 57 f7 80 be 8c 59 99 bd 14 b4 1d be
       0.1866442 -0.25188705 -0.07487783 -0.15400726
0002f0 b7 b9 20 3d 66 21 dc bc 3f e2 10 3e 3a e8 54 bd
       0.03923961 -0.026871394 0.14148806 -0.05197928
000300 a7 59 2d be 72 13 1a 3e 13 a1 0b bd 70 53 05 3e
       -0.16928731 0.1504648 -0.03408916 0.1302011
000310 47 96 6b 3e ad 0b df 3e 16 84 b9 3d bb 36 9f 3e
       0.23006545 0.43563595 0.090583965 0.31096444
000320 fb b4 02 be 73 d2 a9 3e 5c de 46 3e 4b bf ea bd
       -0.12764351 0.33168373 0.19420761 -0.114622675
000330 87 b7 07 3d 93 a2 c1 bd 2b 6f 32 be 24 dc 8d be
       0.03313401 -0.09454837 -0.1742522 -0.27707016
000340 7f fb 84 be e9 dc ba 3d ba ad 50 bd f6 36 9a 3e
       -0.25973126 0.091241665 -0.05094693 0.30120057
000350 4f 7c 79 be ed 6d f0 3d bd a9 20 3d c5 4b 34 3e
       -0.24363826 0.11739717 0.039224375 0.17607029
000360 ba fc 60 be 7f 85 50 bb e9 00 32 3e 93 5b 4e 3e
       -0.21971408 -0.003181785 0.1738316 0.2015212
000370 ea 93 eb bd 1c 0b 96 bd 4e 13 44 bd 14 94 5d be
       -0.11502822 -0.07326338 -0.047869973 -0.21638519
000380 a5 cd 2c 3e 45 51 19 be 9f 2d 46 be b5 d4 65 be
       0.16875322 -0.14972408 -0.1935334 -0.22444423
000390 8b 98 b0 be b4 ce 84 be 93 33 47 be 7e aa 83 be
       -0.3449138 -0.25938952 -0.19453268 -0.25716013
0003a0 2f 6d a7 3e 38 93 8c be 54 8a 12 bd 4e ec 34 bd
       0.32700488 -0.2745607 -0.03577645 -0.04417067
0003b0 63 f9 23 be 7e bb 4e 3d ca 13 c8 3d 90 bc bf 3d
       -0.16013102 0.050471775 0.097693995 0.09362137
0003c0 52 08 d4 3d 62 2a 33 be 26 95 e5 3a 0f ee b0 bd
       0.103531495 -0.17496637 0.0017515763 -0.08639156
0003d0 7d 3b b7 bb c7 5f 30 be 3d c1 0e 3e 39 4a d6 3d
       -0.0055918084 -0.17224036 0.13940902 0.104633756
0003e0 e5 e8 73 3e f4 14 a1 be 50 8e 33 be 9f 28 62 3c
       0.23819311 -0.31461298 -0.17534757 0.01380363
0003f0 e0 01 f5 bd 82 53 9c be d7 b8 93 bc 6b 77 92 3e
       -0.11963248 -0.3053246 -0.018032474 0.28606734

recurrent.spatial_attn.mha.out_proj.bias f4 [32]
000000 b9 4f 0e 3e 6e b4 1f 3e f8 e1 6b bb 85 59 08 3e
       0.138976 0.15596172 -0.0035992842 0.13315399
000010 27 37 2b bd 7b 7a db bc 95 39 0c 3e f0 48 12 bd
       -0.041800644 -0.026791802 0.13693841 -0.03571409
000020 f2 3c 28 bc c5 d3 28 3b 65 a2 a4 bd 8e b5 09 bd
       -0.010268437 0.002576099 -0.08038787 -0.03362041
000030 9f 7f ea bc b2 ca db 3d 5f a4 9d bd 4d 24 d1 bc
       -0.028625308 0.107320204 -0.07697367 -0.025530005
000040 08 4e 99 bd 37 0e 38 3d 9c 18 1c 3d 8f 5a 79 bb
       -0.074855864 0.04493543 0.038109407 -0.0038048362
000050 ef b6 79 3d 9d 69 2f 3c b4 d6 b1 3d 9c fc c4 bd
       0.060965475 0.0107063325 0.086835295 -0.09618494
000060 68 de 80 bc 0f 4c bf bd 1f 09 a3 3c 88 98 95 3d
       -0.015731052 -0.09340679 0.01990181 0.07304484
000070 5b 3d 94 3d 3b 64 ad bd 8a ef bc 3d 2d 4e 02 3d
       0.07238265 -0.08466383 0.09225376 0.031812835

recurrent.spatial_attn.ln1.weight f4 [32]
000000 ae b9 ac 3f 66 21 97 3f 6c 1a 71 3f 3f 43 89 3f
       1.3494165 1.1807067 0.9418094 1.0723647
000010 e3 6a 92 3f a7 8a 78 3f ff 95 93 3f 94 b0 8a 3f
       1.1438869 0.97086567 1.153015 1.0835137
000020 64 5a 6e 3f 81 18 75 3f a0 99 91 3f 7a fa 72 3f
       0.93106675 0.95740515 1.1375008 0.94913447
000030 b2 17 6d 3f e9 b2 77 3f ad c3 7d 3f f3 63 80 3f
       0.9261428 0.9675737 0.991267 1.0030502
000040 66 e5 84 3f ea 7a 81 3f 77 0a 7a 3f 5d fc 7a 3f
       1.0382507 1.0115635 0.9767222 0.98041326
000050 9c ca 83 3f aa ea 71 3f 64 1e 8b 3f 48 cc 90 3f
       1.0296206 0.94498694 1.086865 1.1312342
000060 aa 60 72 3f 81 40 81 3f 24 2e 79 3f ed 31 8a 3f
       0.9467875 1.009781 0.9733603 1.0796486
000070 a2 de 7f 3f d5 28 71 3f 6f f1 8b 3f b8 9e 82 3f
       0.99949086 0.9420293 1.0933055 1.0204687

recurrent.spatial_attn.ln1.bias f4 [32]
000000 33 34 24 3e f3 be 30 3e 3a c0 08 3a 1b 14 02 3e
       0.16035537 0.17260341 0.0005216632 0.12702982
000010 85 0e 28 bd ee 3a 1c bd 6b de 07 3e bc 52 5e bd
       -0.041029472 -0.038142137 0.1326844 -0.05427812
000020 0e e4 92 bc fc 7d 40 bc b6 37 90 bd ba 88 3e bd
       -0.01793101 -0.011748787 -0.07041876 -0.04651711
000030 11 13 0f bd 2b 59 29 3e 71 dc c1 bd b3 76 3a bd
       -0.034930293 0.16537921 -0.09465874 -0.045523357
000040 06 40 a2 bd 5f d0 a0 3d 58 05 68 3d 3c c2 40 bc
       -0.07922368 0.07852244 0.05664572 -0.011765059
000050 5c 61 94 3d 5f 6d 3e 3c c3 d3 92 3d 4d b8 dc bd
       0.07245132 0.011622756 0.071692966 -0.1077734
000060 de 3d aa bb d0 22 cc bd 8b c5 90 ba b3 1f a8 3d
       -0.0051953634 -0.099675775 -0.00110452 0.08209171
000070 c1 3f 2d 3e 3e 41 cc bd 26 2b ed 3d 91 6c 8e 3c
       0.16918851 -0.099733815 0.115804955 0.017385753

recurrent.spatial_attn.ln2.weight f4 [32]
000000 f9 7a 5b 3f cb 29 61 3f 5b 21 46 3f f6 0f 44 3f
       0.85734516 0.87954396 0.77394646 0.76586854
000010 50 92 44 3f 21 51 6a 3f 9e 6c 6a 3f 34 a2 3c 3f
       0.76785755 0.9153004 0.91571987 0.73685
000020 ef 9b 63 3f 76 29 69 3f 22 31 6f 3f ad 1d 6a 3f
       0.8890981 0.9107889 0.93434346 0.9145153
000030 43 39 60 3f 22 47 57 3f 19 42 7d 3f d2 e2 6d 3f
       0.87587374 0.84092915 0.9892898 0.92924225
000040 6c c2 5e 3f 89 b7 84 3f 9b 3e 6e 3f c8 29 6f 3f
       0.87015414 1.036851 0.9306428 0.9342313
000050 cc a9 7b 3f b7 4d 4e 3f 14 ca 64 3f ff c1 6e 3f
       0.98305964 0.80587333 0.89370847 0.93264765
000060 cc 71 53 3f 4d 0f 74 3f de f0 7e 3f a1 75 6f 3f
       0.82595515 0.9533585 0.99586284 0.9353886
000070 a7 99 51 3f db 8e 70 3f ea 46 81 3f 9f ce 73 3f
       0.8187508 0.9396798 1.0099766 0.95237154

recurrent.spatial_attn.ln2.bias f4 [32]
000000 56 b4 0a 3e 4f c3 fc 3d 43 4b 30 3d 55 b1 c8 3d
       0.13545355 0.1234194 0.043040525 0.097994484
000010 ed 4b 2b 3d 2e d8 80 bd c8 90 95 3d 52 37 59 bd
       0.041820455 -0.06291233 0.073030055 -0.053031273
000020 11 6e 6a bd f7 79 5c bd a9 ed 2a bd d7 44 35 bd
       -0.057233874 -0.053827252 -0.041730557 -0.044255104
000030 4c 86 fa bc a7 12 68 3e d6 8c e5 bd cf 49 81 bd
       -0.030581616 0.22663365 -0.11208503 -0.06312906
000040 2d 3c a9 bc e8 95 3a 3e a0 81 04 3e 14 67 4f bd
       -0.020658577 0.18221247 0.12940073 -0.050635412
000050 34 ed 98 3d ae 04 ba 3d ff 9a b3 bd 92 d8 35 bd
       0.07467118 0.09082924 -0.087697975 -0.04439599
000060 9c af 36 3d 97 cf 8f bd dc 06 c4 3d b8 e8 5c bb
       0.044601068 -0.070220165 0.09571621 -0.0033708047
000070 04 a4 91 3e db 67 dc bd 72 ff 0a 3e 53 20 ef bc
       0.28445446 -0.10761996 0.13574007 -0.029190218

recurrent.spatial_attn.ffn.linear.weight f4 [32, 32]
000000 be 9f a3 3d 85 61 2a 3e 5e 5a eb bc 4b a5 2d be
       0.07989453 0.16638763 -0.028729614 -0.16957586
000010 a0 22 d8 3d 29 1d 57 be f8 f9 d3 3d 9b ec 20 bd
       0.10553479 -0.21007217 0.10350412 -0.039288145
000020 1d f6 82 bc 8b ba 52 be 06 16 23 3e 0e 9e 06 be
       -0.015986497 -0.20578973 0.1592637 -0.1314623
000030 6b 5a 4b 3e d0 1f 41 3d e9 dc 26 3e bf 99 6d 3e
       0.1985871 0.04714948 0.16295208 0.2320318
000040 65 67 a9 bd c3 f8 45 3d 3a c3 0e be 00 f1 01 3d
       -0.08271674 0.04833294 -0.1394166 0.031723976
000050 e0 15 9c be f2 ae 6f 3e 23 41 58 3e 74 fc f8 bd
       -0.3048544 0.2340658 0.21118598 -0.121575266
000060 37 50 86 be 68 8a 9d 3a 4d 22 12 3e 32 54 ca 3b
       -0.26233074 0.0012019398 0.14270897 0.0061745876
000070 e4 d3 05 3d c4 bf a5 3c e2 cf 60 3d e5 79 81 be
       0.032672778 0.020233043 0.054885752 -0.2528831
000080 cf 4e 39 be 8d 8b 23 3d 66 76 63 be 05 7d 15 3e
       -0.1809647 0.039928008 -0.22213134 0.14598472
000090 98 a2 a5 3c 0f 01 ae 3e 12 fd f4 bc c9 5b 51 3d
       0.020219132 0.33985183 -0.02990583 0.051112924
0000a0 9d 70 b9 3e f6 e8 56 3e ba de a3 3d 13 ce b6 bd
       0.3621873 0.20987305 0.08001466 -0.08926024
0000b0 88 18 7c be 04 fd 06 3e 8c 35 32 be 71 4e 60 ba
       -0.24618733 0.13182455 -0.17403239 -0.00085566106
0000c0 9a 8e b6 3d 71 1c 4a 3c d3 67 5f 3d 41 8b 0f 3e
       0.08913918 0.0123358825 0.054542374 0.14017965
0000d0 ce 05 09 3e 07 ce a0 3d 2c 71 26 3d 80 fb 8f 3d
       0.1338112 0.078517966 0.040635273 0.07030392
0000e0 d5 82 0b bd 67 7d 62 be 6f 29 82 be 51 3a b2 bd
       -0.034060318 -0.2211815 -0.25422236 -0.08702529
0000f0 d4 90 12 3e 77 9d b3 3d 9f a7 88 3d 00 09 a8 3d
       0.1431306 0.087702684 0.06672596 0.082048416
000100 7f 46 66 3e 89 bd 0b 3e 4b 4f 6d bd c0 a7 4b bc
       0.2248783 0.1364652 -0.057936948 -0.012430131
000110 93 3d 5f be 54 6b 93 3d b6 24 45 3e 74 ee c8 bd
       -0.21800832 0.071982056 0.19252285 -0.09811106
000120 70 ed 38 bd 8a 8c b6 bd 14 25 14 be fa 13 67 bd
       -0.045148313 -0.089135244 -0.14467269 -0.056415536
000130 c9 26 14 be 14 69 a0 bd 6f ff ae bd 30 40 18 bd
       -0.1446792 -0.07832542 -0.08544814 -0.03717059
000140 cf 05 77 bd 4a 27 4d 3e 2a 69 af 3d e1 9b 5e be
       -0.060308274 0.20034519 0.0856498 -0.2173915
000150 03 c0 8a 3e 29 b3 d5 3c 89 d7 66 3e e6 09 70 be
       0.27099618 0.026086407 0.22543158 -0.23441276
000160 79 03 18 3e 40 b9 d6 ba e5 7e 15 3e ad 7b 1a 3e
       0.14845075 -0.0016382113 0.14599188 0.15086241
000170 c3 8a 6b be 86 5c a7 be 08 1c 89 3e f7 46 9c 3c
       -0.23002152 -0.32687777 0.267792 0.019076807
000180 dd 11 1b bd 67 82 13 bd 6d 88 7c be fe 30 24 be
       -0.037858833 -0.036013033 -0.24661417 -0.16034314
000190 4b a2 2e bd a8 f3 b2 3d 8e 2c 39 bd 8d 00 c8 3d
       -0.042635243 0.0873788 -0.045208506 0.0976573
0001a0 ca e7 a0 3d 52 77 5b be 4e b9 1a 3c 79 ac 7b 3e
       0.0785671 -0.21432236 0.009443594 0.24577512
0001b0 ca 4a 24 be b5 35 2e 3e f1 6a 11 bd 4d 57 12 be
       -0.16044155 0.17012675 -0.035502378 -0.14291115
0001c0 10 a7 4a 38 91 57 98 3d 13 9f 95 bd d0 37 32 bc
       4.8316142e-05 0.07438577 -0.073057316 -0.010877565
0001d0 e8 41 a8 bd 94 cc 74 be 07 65 cc bd 51 18 eb bc
       -0.082156956 -0.23906165 -0.09980207 -0.028698118
0001e0 ea 65 0e 3e c7 e9 c1 3c 85 a6 21 be 94 db 06 be
       0.13906065 0.023671044 -0.15786178 -0.131697
0001f0 85 1d 05 3d f8 cd 2f 3d 03 69 78 3d a2 b0 0c be
       0.032498855 0.042921036 0.060647022 -0.13739255
000200 38 41 aa 3c a7 0e b3 3d c2 7c 76 bd 39 2b 49 be
       0.020783052 0.08743029 -0.060177572 -0.19645394
000210 d2 b4 cf bd 28 87 8a be 34 45 7d 3d 02 b9 4b be
       -0.101419106 -0.2705624 0.061833575 -0.19894794
000220 7c 50 7c bd fd 14 61 bd 44 0c 6f bd 5d 6f c5 bb
       -0.061600193 -0.054951657 -0.058361307 -0.0060252384
000230 58 b9 7d 3e e4 05 0c bc bc a7 4f bd 22 9c 17 3e
       0.24777734 -0.008546326 -0.050697073 0.14805654
000240 b6 f5 af 3d ab 87 87 3c 7e d2 14 bd 6a cd 77 bc
       0.085917875 0.016544184 -0.036333553 -0.015124658
000250 93 98 e3 3d ad ee 27 3e dd 1f 03 3e 54 9b e1 3c
       0.111130856 0.16399641 0.12805124 0.027539887
000260 d0 89 1b 3e f7 e9 69 3e 89 82 0a bc c3 57 b6 bd
       0.1518929 0.22843157 -0.008453974 -0.08903458
000270 34 1a 15 3e 24 fa 77 be 94 75 85 3c 5a d8 c0 3d
       0.14560777 -0.24216515 0.016291417 0.09416266
000280 c9 9f 41 3e e9 90 73 be b4 90 84 3d a7 83 65 bd
       0.1890861 -0.23785748 0.064729124 -0.056033757
000290 c9 d6 94 3a ae 1b 5b bd 3c 2c 9c 3d 58 ed 0e be
       0.0011355515 -0.053493194 0.076256245 -0.13957727
0002a0 5f 0d 01 bd 63 ca e1 bd d6 5e 55 3d ac cc 4e bc
       -0.031506892 -0.1102493 0.052092396 -0.01262204
0002b0 ac fc cf 3c c4 96 29 3e 09 04 c8 bd 86 c0 67 bc
       0.025389038 0.16561419 -0.09766395 -0.014145022
0002c0 ed c0 94 3d 7c c3 c6 3c c4 70 63 3e e9 f5 2a be
       0.0726336 0.024263136 0.22210985 -0.1669537
0002d0 74 d6 9f 3c 50 59 56 3c 65 1e 90 be cb 78 a0 3e
       0.019511439 0.013082817 -0.2814819 0.31342158
0002e0 34 ff a9 3d 4f 0d f4 3c 81 d0 9c bd 17 a5 0d be
       0.08300629 0.029791502 -0.076569565 -0.13832508
0002f0 2f bd 97 bd a5 3a fb 3c aa 74 a0 3c 51 16 29 3e
       -0.07409131 0.030667612 0.01958688 0.1651242
000300 b7 97 df bc ce a8 e9 3d 3b 8c f0 3d e2 eb 2d bd
       -0.027294023 0.1140915 0.11745497 -0.042461284
000310 68 fa d7 bd 60 50 b6 be 9f ad 08 3e 2a 9b 2f 3c
       -0.10545808 -0.35608196 0.13347481 0.010718146
000320 5c 45 a4 bc 8f 2c 72 3d 89 46 35 be b2 21 0b 3d
       -0.020052604 0.059124526 -0.17702688 0.03396768
000330 6e 42 b7 3d cc a5 f7 3b 9e c1 6d 3e ca 7c 83 3e
       0.08948217 0.0075576063 0.2321839 0.25681144
000340 93 b0 c0 bd 3a 64 61 3d 1d fa 1b 3c 1d ee 14 be
       -0.09408679 0.055027224 0.009520081 -0.14543958
000350 d2 e3 1d bc b1 76 a1 bb 13 3e 90 3d 6f 5b f3 bd
       -0.009636836 -0.004927479 0.0704309 -0.11882674
000360 88 82 07 3d df f4 49 3e 7c e3 38 3e 9c 07 c6 bd
       0.03308347 0.19722317 0.18055528 -0.0966942
000370 52 5f 5b 3c ae 83 98 be de 28 80 3d 6c 98 6b be
       0.013389425 -0.29787964 0.06257795 -0.23007363
000380 68 a5 9b bd 79 26 f9 bd 11 4a 95 bd 95 bb 2d 3e
       -0.07599908 -0.12165541 -0.07289518 0.16966088
000390 01 41 24 bd b8 be a3 3e db 7d 68 bd 74 18 30 3e
       -0.040101055 0.31981444 -0.05676065 0.17196828
0003a0 07 02 7f 3e 8a d0 56 3e 24 85 5d bb 9f f1 cc bc
       0.24903117 0.20977989 -0.0033801282 -0.025017558
0003b0 1a c1 a9 3c 37 49 bc 3d 0d 52 7e be 18 d5 7e bd
       0.02072196 0.09193652 -0.24835987 -0.06221494
0003c0 2f e8 cb bd 41 f1 4b 3e 28 8e 4e 3d 6f b9 11 3e
       -0.09956395 0.1991625 0.05042854 0.14230894
0003d0 91 bf d2 3d 21 39 de 3d bd ee 09 3d 9b 78 8f bd
       0.10290445 0.1085074 0.033674944 -0.070054255
0003e0 69 cd 00 be a7 c0 73 be fa 62 58 be 89 42 70 bd
       -0.12578358 -0.2380396 -0.21131507 -0.058657203
0003f0 3e 2c 01 bc 11 cd 85 3e d4 ca 3f 3d 2f bb 31 3e
       -0.007884083 0.26133016 0.04682429 0.17356561

recurrent.spatial_attn.ffn.linear.bias f4 [32]
000000 e6 ab 4c 3d db c1 35 3b cb 44 f5 3c 45 3f 64 bd
       0.049968623 0.0027733955 0.02994003 -0.0557244
000010 38 e1 2a be 0f db 32 be 4e 6b ba 3a 78 05 1f 3d
       -0.16687477 -0.17466377 0.0014222653 0.038823575
000020 fc fc f4 bc 04 f3 2d be 51 35 87 3d 08 e9 f8 bd
       -0.029905789 -0.16987234 0.06601966 -0.12153822
000030 73 9b 45 3e e5 68 bd 3d 20 5c 9b 3b 69 0a 87 bc
       0.1929758 0.09248523 0.0047412068 -0.016484456
000040 2c f2 8a 3d 35 5b 84 bd 87 34 81 3d 6b 43 e9 3d
       0.06784472 -0.06462709 0.06308847 0.11389812
000050 f8 5f 57 be 00 fd 0a 3e bd dd 90 bb 6e b3 b2 3d
       -0.21032703 0.13573074 -0.0044209645 0.0872563
000060 3e 41 48 3e 2c d4 ff 3d 96 e1 1c 3e 38 01 36 be
       0.19556138 0.124916404 0.15320429 -0.17773902
000070 fb fa c4 3d 2b 85 c1 3d 15 9b 45 3e 93 7e 94 3c
       0.09618183 0.09449228 0.1929744 0.018126762
