GraphTransformer_mi_dual_diff.pth (torch, 136462 bytes, 31 tensors)

recurrent.input_proj.weight f4 [32, 1]
000000 fd aa b7 3f b1 6a c6 3f 86 ae 56 bf 1b 95 86 be
       1.4349056 1.550131 -0.8386005 -0.26285633
000010 d9 ea 1e be 71 0e 31 3f 01 a7 bc 3e 40 32 bd be
       -0.15519275 0.6916266 0.36846164 -0.369524
000020 bd 5d 5f bf a4 28 a4 bf 16 2e c6 be c1 7e a7 3f
       -0.8725241 -1.2824903 -0.38707036 1.3085557
000030 14 27 30 3f 2a 03 8b bf a1 33 88 3f 1a 73 5b bf
       0.6880963 -1.086034 1.0640756 -0.85722506
000040 72 f6 3e bf 97 f7 b0 bf 4c 83 9b bf f2 b0 8c be
       -0.74594796 -1.3825558 -1.2149444 -0.2747875
000050 62 bf db be 7c 87 91 3f 50 5b 41 bf c2 5e bd 3e
       -0.4291945 1.1369472 -0.75529957 0.36986357
000060 b6 f2 dd be 78 27 53 3e e5 78 c1 3e fc 78 4f 3e
       -0.43349236 0.20620525 0.37787548 0.20260996
000070 98 e7 1a bd c5 e5 1f be 05 c2 66 3f c5 dd 70 bf
       -0.03781852 -0.15614994 0.901398 -0.94088393

recurrent.input_proj.bias f4 [32]
000000 07 eb 34 bf 8c a4 d2 3e 13 57 03 3f 20 d6 4c 3e
       -0.70671123 0.41141164 0.5130474 0.20003557
000010 7c 5d f9 be 25 5d 8e 3d f2 eb 32 bf fb cb 06 3f
       -0.48704135 0.0695136 -0.69891274 0.52655
000020 b0 9b 28 bf ee 44 a9 3e 6c d0 82 be cb df 64 3f
       -0.6586256 0.33060402 -0.25549638 0.8940398
000030 83 5a e2 3e 09 89 2f bf 83 94 3d be c6 31 19 3f
       0.4420968 -0.68568474 -0.18513684 0.59841573
000040 94 35 31 3e c9 8f b1 be 4a 64 64 bf ff c8 49 3f
       0.17305595 -0.34680012 -0.8921553 0.7882232
000050 39 5d a6 3e 13 8f 80 be 37 72 18 bb 67 25 89 bf
       0.32492998 -0.25109157 -0.0023261437 -1.0714539
000060 32 68 68 3e 10 2a 06 bf fa 6c 21 3d 75 57 8b bf
       0.22695997 -0.5240793 0.03941057 -1.0886065
000070 d9 67 3e bf c6 c1 cf 3e f7 7a 57 3f f1 bc 9c 3e
       -0.7437721 0.40577525 0.84172004 0.306129

recurrent.time_embedding.weight f4 [128, 32]
000000 6e 8c 50 bf 4e 86 15 bf 5f 89 8e 3e 90 75 0f bd
       -0.8146428 -0.5840806 0.2783918 -0.035024226
000010 60 86 11 40 ed a4 de 3e 98 a2 5d bf 15 4a d8 be
       2.2738266 0.43485203 -0.86576223 -0.4224402
000020 45 87 9b be 1d 08 18 3d 83 2e ba 3f 8c 79 80 3f
       -0.3037664 0.037117112 1.4545444 1.0037093
000030 df 49 00 bd d6 72 55 bf a2 5d b4 bf 7e 8a f1 3d
       -0.03132045 -0.8337835 -1.4091074 0.117939934
000040 e3 d4 9e 3c 25 89 03 bf 2f 62 22 3f d2 95 2c 3e
       0.019388622 -0.5138114 0.63431066 0.16854027
000050 e6 71 01 be e7 82 9b 3a e5 3f 80 3f cd 88 60 bf
       -0.12641105 0.0011864573 1.0019499 -0.8770874
000060 74 43 5a bf bf 27 87 bf c6 5d 06 bf e0 1f 90 3f
       -0.85259175 -1.0559005 -0.52486837 1.1259727
000070 f2 1a 2c bf 7f 71 17 bf 3d 24 fa bc a7 6b 0a bf
       -0.67228615 -0.59157556 -0.030534858 -0.54070514
000080 4a 36 2a 3f 41 ec ff 3f b1 68 93 bf 6b ef 21 3f
       0.6648909 1.9993974 -1.1516324 0.6325595
000090 a1 98 54 3e 46 4a be bf 77 19 4b be 79 9a f7 3f
       0.20761348 -1.4866416 -0.19833933 1.9344016
0000a0 b8 37 32 be e2 63 74 3f ea 55 9a 3d f8 52 f1 be
       -0.17404068 0.9546491 0.07535918 -0.47133613
0000b0 f8 51 44 3f 1a cc 3c bf c8 55 d7 bd fa 4f 59 be
       0.76687574 -0.73748934 -0.10514408 -0.21221915
0000c0 6f 0f 28 3d b0 97 a5 be e6 b6 25 3e 0a 27 81 3e
       0.041030344 -0.3234229 0.16183051 0.25225097
0000d0 31 85 a3 3f 24 83 7b be cb b5 b6 3f 39 b2 97 bf
       1.2775022 -0.24561745 1.4274229 -1.1851264
0000e0 d7 a8 3c 3f fe 63 3f bf 09 c0 79 be c1 08 87 3f
       0.7369513 -0.7476195 -0.24389662 1.0549546
0000f0 d9 55 b6 3f 7d 5d ba be e5 78 9b bf ec cb 10 40
       1.4244949 -0.3639945 -1.2146269 2.2624464
000100 53 68 be 3e 2a 01 77 bd bd ab a2 3f 28 de 52 be
       0.37188968 -0.060303845 1.270866 -0.20592558
000110 95 49 b0 3e ac 79 53 bf 98 e6 7e be 20 20 20 3f
       0.3443114 -0.8260753 -0.24892652 0.6254902
000120 73 78 38 bf 74 9c 23 bd cd b1 2d bf 4a 0a ab bf
       -0.7205879 -0.039944127 -0.6784943 -1.3362515
000130 7e d9 c5 bc 1d 6c 46 bf ea a1 8d bf e5 c0 e4 be
       -0.02415156 -0.7750872 -1.1065037 -0.44678417
000140 29 43 ae bf 1e 5a 9a 3e 5e f8 91 3f b5 d1 18 3e
       -1.3614246 0.3014688 1.1403921 0.14923747
000150 64 06 65 be 04 2c a9 3f a8 ec e6 3e d0 e7 60 3f
       -0.22365719 1.3216558 0.4510243 0.8785372
000160 a0 ae b7 3f 88 d3 71 bf a8 b7 77 3e e4 f9 0f bf
       1.4350166 -0.94463396 0.24191153 -0.5624068
000170 3f 41 8d 3f b9 62 0c 40 08 6e 75 be c7 6e 0b bf
       1.1035537 2.1935256 -0.23967755 -0.5446591
000180 e3 81 0d bf f1 69 ae 3e df 85 1a 40 a8 ed 84 bc
       -0.55276316 0.34065202 2.4144208 -0.016226605
000190 e3 ec dd 3c fb 87 8f 3f 30 bd 7e 3d ab 5c c2 bf
       0.027090495 1.1213373 0.062192142 -1.518453
0001a0 b2 94 61 bf 3f d3 27 be eb 36 b9 bf 09 26 82 3c
       -0.88117516 -0.16389178 -1.4469885 0.015887277
0001b0 1f f4 16 bd a6 c1 d2 3c d0 6b 05 bf f8 af 9a bf
       -0.036853906 0.025727104 -0.52117634 -1.2084951
0001c0 b5 c1 9d 3e bc f0 a3 3e 1b 84 62 3f 97 f5 e2 3f
       0.3081185 0.32019603 0.88482827 1.7731198
0001d0 49 f8 f7 bc 76 7e a8 be 83 f8 76 be 5a 83 53 3d
       -0.030269759 -0.32908982 -0.24118237 0.05163894
0001e0 b7 0f f2 3e 6d 0b d2 3e 56 b0 5f 3e 79 b3 b1 bd
       0.47277614 0.41024342 0.2184461 -0.0867681
0001f0 a6 84 a4 3f 1d 57 2c 3f 1f 25 95 3f 03 d1 3d 3f
       1.2852981 0.67320424 1.1651953 0.7414705
000200 15 7a 67 3c f1 86 ee 3e f5 ea 88 be a7 d5 08 3e
       0.014128228 0.46587327 -0.26741758 0.13362752
000210 64 3d a0 3f 8e f5 22 bf 63 82 3e bf 5b a7 96 3e
       1.2518735 -0.63655937 -0.74417704 0.29424557
000220 26 14 09 bf e1 73 b7 3d 74 b1 bd 3f c3 f9 52 be
       -0.5354637 0.08957649 1.4819779 -0.20603089
000230 03 fc 84 be a9 4a 78 3f bf 8a d3 3f 7f 0b 8f 3f
       -0.2597352 0.9698892 1.6526717 1.1175383
000240 79 95 01 bf d7 81 85 bf 29 a3 dc bf 00 cc 9f 3e
       -0.506187 -1.0430249 -1.7237293 0.31210327
000250 52 cd bf bf 2d 4c d7 3e ae b6 56 bf 71 b8 ab bf
       -1.4984534 0.42050305 -0.838725 -1.3415662
000260 0c 60 39 bd 5a a0 10 bf df a8 e6 be 14 d4 0f 40
       -0.045257613 -0.5649468 -0.45050713 2.2473192
000270 58 ce d8 3f a9 8e cf bf 43 fb 35 bf f7 13 8c be
       1.6937971 -1.6215411 -0.7108652 -0.27358982
000280 17 b8 66 3f 31 89 c5 be 34 92 ef be 5f f6 26 3f
       0.9012465 -0.3858123 -0.46791232 0.6521968
000290 4d bf 82 3e 94 83 f2 3e 32 a3 02 c0 18 f1 97 be
       0.25536576 0.4736601 -2.0412107 -0.29676127
0002a0 06 e5 bd 3e ed d1 6d bc 7e a0 40 3e c2 39 ea 3e
       0.37088794 -0.014515382 0.18811223 0.4574719
0002b0 cd 8f 05 3f 1b 9d 0c bf ae 9d dc 3f 40 41 c7 bf
       0.5217255 -0.54927224 1.723562 -1.5566788
0002c0 a0 8b 96 bf 96 1b 37 3f a7 a6 f3 bf d6 3d 23 3f
       -1.176136 0.7152647 -1.9035233 0.6376623
0002d0 53 4c 13 c0 ef 1f f6 bd 7a d9 24 c0 7d 98 e7 be
       -2.3015335 -0.120178096 -2.5757737 -0.45233527
0002e0 fa 61 ad bc 3c 34 80 3f f7 a8 0e bf 01 9b 03 40
       -0.021164883 1.0015941 -0.5572657 2.0563357
0002f0 89 b4 f5 bf f4 b2 1b bf 50 93 af bf 1b 1f 18 3f
       -1.919572 -0.60819936 -1.3716831 0.59422463
000300 75 2e fd 3f c5 9a 2b bf c0 92 28 3e 13 5f 41 3f
       1.9779803 -0.67033035 0.1646223 0.75535697
000310 c8 4d 7b bf fb 0c c1 3e 8e a6 76 bf 31 95 05 3f
       -0.9816556 0.37705216 -0.9634789 0.52180773
000320 9a cd ba bc 85 82 47 be c6 af 23 40 9f 0c 25 bd
       -0.022803117 -0.19483383 2.5576034 -0.04029524
000330 cc a3 f0 bf e5 63 66 3f d9 7c 04 be fa 1e b0 bf
       -1.8799987 0.89996177 -0.1293825 -1.3759453
000340 96 4c e9 bf e8 1d 0f bf 85 b0 1d be ec 91 87 3e
       -1.8226497 -0.5590501 -0.15399368 0.26478517
000350 f0 40 9c be 29 8e ba 3e 3b 4d 5b bf 8a 1d 3e bf
       -0.30518293 0.36436585 -0.8566472 -0.74263823
000360 bd be 10 bf 1e e6 04 3f 9d c2 b1 3d cb b3 d1 3e
       -0.56541044 0.5191363 0.08679698 0.40957484
000370 40 70 4d bf 45 40 8c bf 2b bd 0b bf d1 a9 c9 3e
       -0.80249405 -1.0957114 -0.5458552 0.39387372
000380 e7 28 f0 bd bc ba 2d 3f 2d 2e 46 3f d4 eb 76 3d
       -0.117265515 0.6786306 0.7741421 0.060283497
000390 32 06 3a 3e 56 3d 6b bf 01 d4 05 40 c0 08 9b bf
       0.18166426 -0.91890466 2.0910647 -1.2112045
0003a0 7e 9a 65 3f 4a d1 bc 3e c1 19 ea 3e cf c9 6b bf
       0.8968886 0.36878425 0.45722774 -0.9210481
0003b0 61 f9 56 be ce ae 73 bf 8b 8f a6 3f e7 1f 1b bf
       -0.20993568 -0.95188606 1.3012556 -0.60595554
0003c0 6a df 4b bf 6c 83 ae 3f 9f a4 8e be ff 1e 8b bf
       -0.7963778 1.3633857 -0.2785997 -1.0868834
0003d0 40 89 b4 3f 6f 69 22 3f 92 e1 bc 3e b8 ae 9a bf
       1.4104385 0.6344213 0.36890846 -1.208457
0003e0 7e 67 fa bf 94 a8 34 3f 11 86 83 be cb 78 82 3f
       -1.9562833 0.7056973 -0.25688222 1.0193113
0003f0 7e a5 44 bf 56 37 de 3f af dd 75 3e 22 cb 5d 3e
       -0.7681502 1.7360637 0.24010347 0.2165952

recurrent.stock_embedding.weight f4 [472, 32]
000000 53 1b b9 3e 88 40 a1 3f af c7 cc bf ee dd 0f 3f
       0.3615366 1.2597818 -1.5998439 0.5619801
000010 da e9 9a bc 3b 9a ed be da 3c d3 3f b2 14 68 be
       -0.018910337 -0.4640673 1.6502945 -0.22664145
000020 94 32 10 bf 4d 8d a9 3d 2d e7 a0 bb a8 6c 3c bf
       -0.56327176 0.08278904 -0.004910371 -0.73603296
000030 27 cd 9d be f0 cf a0 3f e3 d8 01 bf 11 41 83 3f
       -0.3082058 1.2563457 -0.5072157 1.0254232
000040 8f 06 1d 3f 41 2e 26 3e a2 33 cc 3f 28 e1 92 bf
       0.6133813 0.16228582 1.5953257 -1.1474962
000050 c4 3e bd bf 02 0c 03 be 04 84 62 bf fb 61 35 3f
       -1.478478 -0.1279755 -0.8848269 0.7085263
000060 ff ca d3 3e 32 21 70 bf 19 33 1c bf 97 7c 9b bf
       0.4136581 -0.9380065 -0.6101547 -1.2147397
000070 a3 b9 16 c0 c0 52 0b 3e ee 1a ad bf cd bb a8 be
       -2.3550804 0.13605785 -1.3523843 -0.3295578
000080 48 68 e0 be e3 35 aa 3f d1 68 e8 3e 79 9b cd bf
       -0.4382956 1.3297695 0.4539247 -1.6063071
000090 3f f5 e8 be 66 cc 83 bd db f8 2d 3f da 13 62 3f
       -0.45499608 -0.0643547 0.6795785 0.8831154
0000a0 0a 0a a0 3f 05 71 fd be 5f 14 a7 bf 48 81 12 bf
       1.2503064 -0.4950029 -1.3053092 -0.5722852
0000b0 a9 24 89 bf 74 cb a7 3f 64 15 d9 bf 61 ca b5 be
       -1.0714313 1.3108964 -1.6959653 -0.35505965
0000c0 94 2c a6 be d0 c6 f4 be 21 e4 b3 3e c4 a5 98 3f
       -0.32455885 -0.47807932 0.35134986 1.1925588
0000d0 20 b0 c5 3f a8 96 48 3f c8 18 4e 3f bb 83 ee bf
       1.5444374 0.78354883 0.80506563 -1.8633951
0000e0 aa bf 6a 3f bf 83 93 be c3 30 25 bf 24 3f a6 3f
       0.91698706 -0.28811452 -0.6452753 1.2988019
0000f0 7a 06 10 3f 0e 9f 95 bf 77 90 32 bf 73 c3 f8 be
       0.5625988 -1.1689165 -0.69751686 -0.48586616
000100 55 37 85 bf 92 ea a8 3f 92 fa 94 bf e2 fd 18 be
       -1.0407511 1.3196585 -1.1638968 -0.14940599
000110 64 d0 b1 3e 0e ec 20 be dc d0 0a 3f 75 fd 63 3f
       0.34729302 -0.15715048 0.54224944 0.8905862
000120 11 38 3d be 9e 2d 08 bf 63 24 57 bf f8 c1 26 bf
       -0.18478419 -0.53194606 -0.84039897 -0.6513972
000130 7a 1d 88 bf 30 54 43 3f a2 e6 e5 3e de 23 db bd
       -1.0633996 0.76300335 0.4490252 -0.107002005
000140 10 56 b9 3f 33 6b 3e 3d 12 da 43 3e 2a e8 8f bd
       1.4479389 0.046488952 0.19126156 -0.07026704
000150 d5 1d 00 c0 22 c5 fd 3d 6c 98 a9 bf e5 b3 1d bf
       -2.0018208 0.12391116 -1.324964 -0.6160262
000160 61 8d 06 bf 6b fc 94 3f 54 e2 30 3c 56 62 68 be
       -0.5255948 1.1639532 0.010796148 -0.22693762
000170 4c 0c 61 3e 82 02 98 bd b9 4e 18 3f 34 d2 79 3f
       0.21977347 -0.07422353 0.5949512 0.9758637
000180 ff 48 17 3f aa 80 ba 3e c8 ac 7c bf 02 b9 2b 3f
       0.5909576 0.36426288 -0.98701143 0.67079175
000190 9d 18 09 40 ad 87 ed 3d 90 b7 3d bf a8 85 20 bf
       2.1421273 0.11598144 -0.7410822 -0.62703943
0001a0 e3 22 a9 3e f9 16 9b 3f a4 e4 39 bf 1c 52 d8 bd
       0.3303443 1.2116386 -0.726145 -0.10562536
0001b0 1d 6c 1a 3f b9 2d a3 be e0 9c 6e bd e7 6e 56 bf
       0.6032122 -0.3187082 -0.058255076 -0.83762974
0001c0 bc aa 3e 3f f0 68 92 bf 09 cb bb bf ea ce c7 3e
       0.7447927 -1.1438274 -1.4671336 0.3902505
0001d0 a7 de 6b be 7c 66 dd be 25 59 86 be 86 84 3f 3f
       -0.23034154 -0.43242252 -0.26239887 0.7481159
0001e0 75 04 6f bf e2 79 64 bf 7d 94 a7 bd 64 47 25 3d
       -0.93366176 -0.8924848 -0.08182619 0.040351287
0001f0 61 d8 aa 3f ba 74 a7 3f c8 af 82 3f 5f 19 28 3f
       1.3347284 1.3082497 1.0209894 0.65663713
000200 4b 77 6f 3f 69 bf 25 bf a5 ee 31 be aa 5b eb bd
       0.935414 -0.64745194 -0.17376192 -0.11492093
000210 95 65 a2 be 52 84 bb be a5 cb bc be 8f 5d 4e bf
       -0.31718126 -0.3662439 -0.36874118 -0.8061151
000220 f5 97 81 bf 9f f1 8e bf f7 3d 9a 3e d7 aa b2 3e
       -1.0124499 -1.1167487 0.301254 0.34895965
000230 d5 3e b8 bf a2 07 8a bd af c7 af 3e 00 f3 d1 3e
       -1.4394175 -0.06739737 0.34332034 0.41005707
000240 f4 5b 23 bf 2a d6 56 3f be 64 ad 3f 86 00 b0 3e
       -0.63812184 0.8392054 1.3546369 0.343754
000250 af 6a d1 bf 47 ff 35 bf 8c f6 61 3d 70 ac c1 3d
       -1.6360682 -0.7109265 0.055166766 0.09456718
000260 56 8c a7 3f 4d 34 ec be 31 05 01 bc 79 63 92 3f
       1.3089702 -0.46133652 -0.007874773 1.1436607
000270 31 38 6c bf 29 e7 d8 be 8f dd 3b 3f 1d df d9 3e
       -0.9227324 -0.4236386 0.73384947 0.42553034
000280 38 75 ef bd 36 d5 19 bf 37 22 2d bf f8 75 34 3e
       -0.116922796 -0.6009096 -0.6763033 0.17623127
000290 c5 61 9e bf d7 f5 5f be da ba 1f bf 09 f1 f7 be
       -1.2373587 -0.21871124 -0.6239449 -0.48426083
0002a0 fe 1b 62 3f 17 13 0f bf 68 e7 f2 3e aa c2 ed 3e
       0.8832396 -0.55888504 0.47442174 0.4643758
0002b0 2d e1 5d 3f fd b3 28 bd 65 6d 12 bf a8 f9 c2 bd
       0.86671716 -0.041187275 -0.5719817 -0.095202744
0002c0 80 c5 6f 3f 3d 0c 38 be ec 58 9a bf af 5f 49 bf
       0.93660736 -0.17973419 -1.2058387 -0.78661627
0002d0 41 0b 5e 3f 70 00 88 be c3 11 31 be fe 16 3a bf
       0.8673592 -0.26562834 -0.17291932 -0.72691333
0002e0 8a 29 de be 4c 5f c4 3d 30 af 98 3d 1c 7b 65 bf
       -0.43391067 0.09588489 0.07455289 -0.89640975
0002f0 99 39 36 3e f0 a9 63 bd b5 b9 b5 3e 51 ba cc bd
       0.1779541 -0.055581987 0.35493246 -0.099964745
000300 3a 19 45 bb 3e ab 0b be 66 a2 e3 3e 2e 0a 20 3f
       -0.003007485 -0.13639542 0.44459838 0.6251553
000310 cc 73 ff bf 3a 66 a1 3f 18 98 d1 bf 73 92 62 3d
       -1.9957213 1.2609322 -1.637454 0.055315446
000320 0f f8 c6 be 52 2b d9 be 50 0d 15 bf eb 54 33 3e
       -0.3886113 -0.42415863 -0.5822344 0.17512862
000330 46 e0 c6 be 84 51 9b 3f f0 5a 2e bf 4f f0 93 3f
       -0.38842982 1.2134252 -0.6810751 1.1557711
000340 bf 76 55 be e0 cc fe be 78 a5 c0 be 89 38 82 bf
       -0.2084608 -0.49765682 -0.37626243 -1.0173503
000350 a9 33 f2 be 8e 44 08 be 24 c1 07 bf df 37 21 3e
       -0.4730504 -0.13307402 -0.53029084 0.1574397
000360 82 21 a0 3f 46 04 bf 3e 1f a8 b4 be 92 e0 e9 be
       1.2510226 0.37307948 -0.35284516 -0.45679146
000370 15 8a 50 3e 57 55 20 3f 5e b7 1e bf bf ce aa bd
       0.20365174 0.6263022 -0.61998546 -0.08340215
000380 3f a0 80 3f 75 17 aa 3f 8b 44 b2 3f f9 17 15 3f
       1.0048903 1.3288409 1.3927168 0.58239704
000390 37 84 9c bf fa 93 22 bf 9b 01 82 3f c5 2f 1d 3e
       -1.2227849 -0.63507044 1.015674 0.15350254
0003a0 31 02 cd 3f e5 4e 3b 3f c0 17 98 3f 71 8d 0c 3e
       1.6016294 0.7316726 1.1882248 0.1372583
0003b0 ea ac 21 3f 35 ba 20 be 61 7b e6 3e 3c a6 8c bf
       0.6315447 -0.15696032 0.45016006 -1.0988231
0003c0 eb 7e b2 3e c7 55 88 3f b8 a6 af be 61 29 a2 be
       0.34862456 1.0651177 -0.34306884 -0.31672195
0003d0 eb b0 a3 3f 4d 56 ab be 17 9a 45 3f d8 50 00 bf
       1.2788366 -0.3346428 0.7718825 -0.5012336
0003e0 59 2e bb bf 4d c7 7c bf 91 0d ac bf 1b 2b aa bf
       -1.4623519 -0.9874161 -1.344164 -1.3294405
0003f0 c7 36 c0 be 3f 1a a4 3f 1d b8 e0 be ea dd b4 be
       -0.37541792 1.282051 -0.43890467 -0.35325557

recurrent.spatial_attn.mha.lambda_q1 f4 [8]
000000 48 d2 6c 3c 83 1e 09 be 48 1c 35 3c 63 d0 15 3d
       0.014454432 -0.13390546 0.011054106 0.036575686
000010 6d df 59 bd 72 d1 28 3b 64 ec c3 bd 0c e8 1b 3b
       -0.05319159 0.0025759605 -0.09566572 0.0023789434

recurrent.spatial_attn.mha.lambda_k1 f4 [8]
000000 dd 9e 3d bd bf 9e bc bc 9a f8 d2 bd 24 5d ac 3d
       -0.046294082 -0.023024915 -0.10301323 0.08416203
000010 5b b7 52 3d 6f ec ed 3d 77 59 09 3d 70 13 bf bb
       0.051444393 0.11617362 0.033532586 -0.0058311746

recurrent.spatial_attn.mha.lambda_q2 f4 [8]
000000 e7 d2 7e bd cc ce 88 be 1f 72 7b bd a0 1a 30 3d
       -0.06221285 -0.26720273 -0.06138813 0.04299414
000010 ac dd 8f 3c 6f 09 31 bb 69 37 8e 39 f7 67 b0 bd
       0.017561756 -0.002701368 0.00027125634 -0.0861358

recurrent.spatial_attn.mha.lambda_k2 f4 [8]
000000 52 05 a1 bc df 99 cf 3d ba 83 2a 3d 90 13 9b 3d
       -0.019655857 0.101367705 0.04162953 0.075720906
000010 ea 97 b5 3c e5 5e 56 b9 b5 66 7f 3a 80 ef 10 bd
       0.022167165 -0.00020443981 0.00097427826 -0.035384655

recurrent.spatial_attn.mha.q_proj.weight f4 [32, 32]
000000 76 e1 33 3e ab d8 9d bc e8 97 dd bd fe 1e 2e 3e
       0.17566475 -0.019268354 -0.108199894 0.1700401
000010 f1 f8 56 3e 83 ae 81 3d 24 09 f6 3d cf 88 6d 3d
       0.20993401 0.063321136 0.12013462 0.0579918
000020 81 12 bb bd 4d 8f 22 3d c7 b1 8a bd a1 87 09 be
       -0.09134389 0.039687444 -0.067721896 -0.13430645
000030 47 ff 19 be 47 f7 13 be 7e a4 09 3e e1 d7 48 be
       -0.15038787 -0.14449798 0.13441655 -0.19613601
000040 22 a5 4f 3b 10 3d 43 bd c1 57 6e 3e 53 b6 f9 bd
       0.003168412 -0.047665656 0.23275663 -0.12192979
000050 d9 f4 42 bc 80 f1 2a 3e 89 74 f5 bd ad 95 b6 3d
       -0.011899197 0.16693687 -0.11985118 0.08915267
000060 78 64 b4 3d f1 de 2f 3d 38 18 bc 3d 45 a8 15 3e
       0.088082254 0.042937223 0.09184307 0.14614971
000070 27 d6 d0 3d 8d 13 bf bd 39 f2 03 be 85 7d 64 bd
       0.10197096 -0.09329901 -0.1288537 -0.055783767
000080 e8 8c bf bd 17 98 18 3e 62 9a 31 3e d8 64 a9 3d
       -0.093530476 0.14901768 0.17344049 0.082711875
000090 05 cb 3b 3d 69 60 10 bd b9 1b df 3d 8e 8b 45 bd
       0.04584791 -0.035248194 0.108939596 -0.048228793
0000a0 a7 4b 13 be fd fb bf 3d a3 a3 39 3e 2f 1e b2 bd
       -0.14384328 0.09374235 0.18128829 -0.08697163
0000b0 67 04 10 3e 87 f5 22 3c 8f c3 b7 3d 7a f3 4c 3e
       0.1406418 0.009946234 0.08972847 0.20014754
0000c0 d8 be 02 3e 54 3b d2 b9 ff a1 bc 3d dc 97 12 3e
       0.12768114 -0.00040098524 0.09210586 0.14315742
0000d0 16 ca 5b 3d a6 6e 97 3d b6 81 2a bd d8 b4 12 be
       0.05365952 0.073941514 -0.04162761 -0.14326799
0000e0 87 60 5d 3d 80 56 00 bd e4 27 9e bd 49 2b 89 bd
       0.054047134 -0.031332493 -0.07722452 -0.06697709
0000f0 ce 08 99 bc ea ea 2d be 08 91 42 3d 06 1d 27 3e
       -0.018680956 -0.16984144 0.047501594 0.16319665
000100 bd 44 f1 bd da 13 18 3e 19 ca 29 3e d1 85 e0 3d
       -0.11780689 0.14851323 0.16581 0.109630235
000110 5b e5 10 3d dc cc 77 3d 6f 1f 3b bd d0 ba 66 3d
       0.03537498 0.060498103 -0.045684274 0.056330502
000120 bc a8 07 bd 64 44 6e 3d 25 9f 8a bd ac 73 2e be
       -0.033119902 0.05817069 -0.06768636 -0.17036313
000130 52 87 e1 bd aa 39 75 bb 4c 04 a5 bd d6 0f 09 3e
       -0.110121384 -0.0037418404 -0.0805746 0.13384947
000140 d5 34 96 3d 1a 3c bf 3c aa 8f 16 bd 12 c4 23 be
       0.07334296 0.023344088 -0.036758102 -0.15992764
000150 96 4e 19 3e af 5f 1f 3e 4c 06 4b be 67 e2 4e 3d
       0.14971384 0.15563844 -0.19826621 0.050508883
000160 e1 0e 50 3d 4b 1b d5 3d f0 ad 2a 3c cf 71 10 bc
       0.05079544 0.10405596 0.0104174465 -0.008816197
000170 66 84 f6 3d 10 87 6a 3e 61 14 2d 3e e6 54 18 3e
       0.12036972 0.22903085 0.16902305 0.14876136
000180 07 44 dc bd 8e 24 bc 3d 62 24 ea 3b 38 94 97 be
       -0.10755163 0.0918666 0.0071454505 -0.2960527
000190 1d 00 41 be b8 c7 1e bd f7 98 87 3d 99 e3 26 3e
       -0.188477 -0.038764685 0.066209726 0.16297759
0001a0 ec 94 4a bd 92 af d9 bd 62 52 1c 3e eb 8a cc bc
       -0.04945843 -0.106291905 0.15265802 -0.024968585
0001b0 6a e6 d8 bc 16 f8 97 bd a9 a8 21 be db f5 20 be
       -0.026477057 -0.074203655 -0.15786995 -0.15718786
0001c0 32 6e d7 bc 2c c8 43 3e 8f d7 28 3e 5f 5b b4 3d
       -0.026297662 0.19119328 0.16488479 0.0880649
0001d0 20 d9 41 bc d3 b4 86 bd 54 d1 a2 3d 45 17 08 be
       -0.011831552 -0.06577458 0.079500824 -0.13290127
0001e0 e3 5c 0c 3d 20 dc 4b be 31 93 f0 bd 58 df 52 be
       0.03426827 -0.1990819 -0.117468245 -0.20593011
0001f0 68 46 66 bd 93 2d 1f 3d 68 66 89 3e bc c7 25 3e
       -0.05621949 0.038861822 0.26835942 0.16189474
000200 4d 14 ba 3c 26 9b 52 be 54 32 5d 3c 70 db 3c 3e
       0.022714758 -0.20566997 0.013500769 0.18443084
000210 16 72 42 be 34 53 31 3e 08 69 16 bd 30 64 3d bd
       -0.18988833 0.17316896 -0.03672126 -0.046238124
000220 4e 70 83 3d b4 9e c2 bd f1 08 9b be 08 12 e5 3a
       0.06417905 -0.095029265 -0.3028026 0.0017476687
000230 a7 29 0b 3e 85 95 b7 be eb 19 f3 bd 10 57 24 3e
       0.13590108 -0.35856262 -0.11870178 0.16048837
000240 28 65 68 be 8c 14 89 bc a4 59 f8 bd 8c c8 26 3e
       -0.22694838 -0.01673343 -0.121264726 0.1628744
000250 04 f4 f4 bd 37 53 26 3e 34 85 bc bc 96 33 bb bd
       -0.11960605 0.16242681 -0.023012735 -0.091406986
000260 e7 b8 ca 3c bb 58 07 3e 69 9b 78 bd 71 7b 2a 3e
       0.024746371 0.13217442 -0.060695086 0.16648652
000270 87 f0 3d bd 3d ed 3a be 64 4e 5f 3d 27 b7 0a bd
       -0.046371963 -0.18254562 0.05451812 -0.033866074
000280 8f 7a 50 be 8d 44 06 3e c6 e3 8c bd ab e6 cb 3d
       -0.20359252 0.13112088 -0.06879382 0.09956106
000290 9f d6 ca 3b 4d 3a fb bd 80 b0 32 3e 20 ad 77 be
       0.0061901356 -0.12266979 0.17450142 -0.24187136
0002a0 e8 63 5b bd a3 66 57 be 0f 50 6b bd 59 99 18 be
       -0.053562075 -0.21035247 -0.057449397 -0.14902247
0002b0 6f 7b 83 3e cb ae e6 bd 5e ec db 3c 8b 78 5b 3e
       0.2568011 -0.11263808 0.026846107 0.21432702
0002c0 f0 12 62 be d3 b7 ce bd f6 89 89 be ab be 48 3e
       -0.22077537 -0.100936554 -0.26863068 0.19603984
0002d0 cd 51 63 be f6 ce d0 3d 64 42 93 bd a5 e0 d5 bb
       -0.22199173 0.10195725 -0.071903974 -0.006527024
0002e0 e2 ed 60 3d 61 df aa bd ee 99 66 3e 1a 7b c7 3d
       0.054914363 -0.083433874 0.22519657 0.09740277
0002f0 d6 6c 5b bd a6 cf 3a bd 3f 24 d8 3d 35 3e da 3c
       -0.05357059 -0.045608185 0.105537884 0.02664099
000300 0e 83 db 3c 87 f4 50 bc a5 eb 0e 3e fa 6c bf bd
       0.02679589 -0.012753612 0.13957079 -0.093469575
000310 49 e4 84 3d 25 7e 95 3b 16 13 fe bd a4 b6 82 bd
       0.064888544 0.0045621567 -0.12405984 -0.06382492
000320 e1 f3 4d be d9 ae 1f 3e 0b 1c 6d 3e 86 68 4e 3e
       -0.20112564 0.15594043 0.23155229 0.2015706
000330 e4 08 62 bd 16 65 41 3e d6 0f 03 be 82 09 13 3e
       -0.05518426 0.18886217 -0.1279901 0.14359096
000340 ac 92 c9 bc 29 27 76 3e e9 2f 12 3e 52 c5 02 be
       -0.024606071 0.24038376 0.14276089 -0.12770584
000350 5f 59 40 3d c4 f7 d1 3a 5a 2e 96 bc 39 8f e1 3d
       0.04696023 0.0016019274 -0.018332649 0.11013646
000360 6d b4 6f bd 1b cc 23 3e ab 2b 3d be e8 8a 7b bd
       -0.058521677 0.15995829 -0.1847369 -0.06141177
000370 e5 4d 03 3e 95 2b 1e 3e f5 ea d3 bd 1a 53 bf bd
       0.12822683 0.15446313 -0.10347549 -0.09342022
000380 22 af cd 3d ee cd 87 be 32 dc ec bc ff 25 c1 3d
       0.100431696 -0.265243 -0.028913591 0.09431075
000390 d4 dd 1b be a5 2b 3e be 99 d5 c4 bd 2d 98 2e bd
       -0.1522134 -0.18571337 -0.09611053 -0.042625595
0003a0 d7 d1 7e 3d 56 a5 e0 bd fd d3 fe 3d d0 20 84 bc
       0.062211838 -0.10969035 0.12442777 -0.016128927
0003b0 8d a5 d6 3d 05 ae e4 bc c6 c3 3e be e9 e3 04 bc
       0.10480795 -0.02791501 -0.18629369 -0.008110979
0003c0 4e 29 41 3d 48 e6 ec bd 4c c3 d7 bc 94 5a 0f 3c
       0.04715853 -0.1156736 -0.026338242 0.008749623
0003d0 56 c5 25 bd 37 fe 16 3b d6 ad 92 bd 6d e2 c2 3c
       -0.040471397 0.0023039707 -0.07162063 0.023789609
0003e0 f6 68 33 3c 6a 8f 30 bc 3a 8c d5 3d 12 de f9 3d
       0.010950318 -0.01077638 0.10427137 0.1220056
0003f0 49 cc e7 bd 40 11 36 3d e8 ce 91 bd b3 cd 99 bd
       -0.11318261 0.044450045 -0.07119542 -0.07509937

recurrent.spatial_attn.mha.k_proj.weight f4 [32, 32]
000000 4a 0a 48 bd fb 87 34 be e9 a6 46 3e 13 5a ae 3c
       -0.048837937 -0.17629997 0.19399609 0.021283185
000010 5e 04 d9 3d 5f b2 c5 bd 2f 43 b2 3d 2d 1b 1b 3d
       0.10596536 -0.09653162 0.087042205 0.037867714
000020 7e b4 7d bd 54 54 c0 3d 3e ca 00 3d b6 09 19 3e
       -0.06193971 0.09391084 0.031442873 0.1494511
000030 6a 21 76 3d a0 70 77 bc b9 6c 33 be 29 a2 3d bc
       0.06009046 -0.0151025355 -0.17521943 -0.0115743065
000040 4e 7a e9 3c 8d e0 55 bd ef b9 fb 3d 8d 22 21 3d
       0.028500702 -0.0522161 0.122913234 0.03933959
000050 54 ae 6a bd 3c f2 69 3d 1c 66 08 bc 95 54 2f 3e
       -0.05729516 0.05711578 -0.008325126 0.17122109
000060 22 a0 93 be 67 14 ab 3d 90 8c 55 bd c4 a4 1d 3d
       -0.2883311 0.08353501 -0.052136004 0.03848721
000070 e1 c9 3a be aa de c5 bd a5 7e 5e 3d ea 8c b7 3c
       -0.18241073 -0.096616104 0.054319996 0.02240606
000080 c2 0f df 3d 4a 8e 9c 3d d5 24 40 3d e7 07 07 3e
       0.108916774 0.07644327 0.046910126 0.13186608
000090 dc e1 27 be a0 22 1f be 08 3c ea bc b4 87 05 be
       -0.16394752 -0.15540552 -0.028593078 -0.13040048
0000a0 e0 e8 26 be 62 02 1e 3d 32 71 3f be cc 57 81 ba
       -0.16299772 0.03857649 -0.18695524 -0.0009868084
0000b0 6a d1 dc bd 91 a2 05 3e 94 54 d3 bd a0 e0 66 be
       -0.1078213 0.13050295 -0.10318866 -0.22546625
0000c0 1c 3c 0c 3d fb 21 1c bc a3 9c 68 bd f1 12 80 bd
       0.034237012 -0.009529586 -0.056790005 -0.06253613
0000d0 33 34 0e 3e ef 1e 46 bd cd ff b1 bc b4 09 95 be
       0.138871 -0.048369344 -0.02172842 -0.29108965
0000e0 85 0d d5 3b b6 cb 7f bd 77 71 e0 3c ca 08 d1 3d
       0.006501856 -0.062450133 0.027397854 0.102067545
0000f0 b6 cd 27 be 71 8d 28 bd 4d bb 99 bd 25 11 9e 3c
       -0.16387066 -0.041150514 -0.07506428 0.019295285
000100 04 00 9e bd 33 54 55 3e 7b 62 fd 3c 23 6e 90 bd
       -0.07714847 0.208329 0.030930748 -0.07052257
000110 ae 00 9e be f4 bc 14 3e 32 ee f1 bb 77 e9 82 3e
       -0.30859894 0.14525205 -0.0073831314 0.25568745
000120 c5 ff a3 bd e4 f5 3d 3e 89 1a 36 3e 2f a5 c7 bd
       -0.080077685 0.18550831 0.1778356 -0.09748303
000130 6f 6f f7 3d cf 6a d9 bd a5 7d 29 3e 0c 32 e3 bd
       0.12081801 -0.10616075 0.16551836 -0.1109353
000140 fa 6d 0c 3e b6 78 16 3d d3 ed 2c 3d 0b 51 bc bd
       0.13713828 0.036736213 0.042218994 -0.09195145
000150 27 91 1e 3d 82 f8 4d bc 8a 70 64 be d9 2b 1e bb
       0.038712647 -0.012571456 -0.22308555 -0.0024135022
000160 d0 f2 2d 3e 12 dd ca 3c 41 54 88 bd fc 19 60 3c
       0.16987157 0.024763618 -0.06656695 0.01367807
000170 22 0f 66 3d 03 ab 2b 3e f9 e7 38 be 8e 78 c3 3d
       0.056166776 0.16764455 -0.1805724 0.09544478
000180 5d aa 60 bd 49 65 84 bd cf 08 03 be df f6 c3 bc
       -0.05484997 -0.06464631 -0.12796329 -0.023921428
000190 ad 7d da bc 56 4d 28 be 8e 01 03 3e 96 ad c2 3c
       -0.026671255 -0.16435751 0.12793562 0.023764413
0001a0 12 5f f0 3d 64 9e dd bd 2e 2f 29 be aa 62 ef 3c
       0.11736883 -0.10821226 -0.16521904 0.029221851
0001b0 96 94 b2 bc 5f 3a 01 be 3c 9d 06 3e 48 79 20 be
       -0.021799367 -0.12619923 0.13145918 -0.15671265
0001c0 c9 b5 14 be 30 8a 9f 3d 51 99 a5 3d e1 57 0c 3e
       -0.1452247 0.07790029 0.080858834 0.13705398
0001d0 d1 c9 b6 bd 9b ff 5c bc 6e f6 2b be 89 c3 21 be
       -0.08925212 -0.0134886755 -0.16793224 -0.15797247
0001e0 d4 e2 3b 3e 40 41 0a 3d 2b ee 81 bc 43 3f 52 3e
       0.18348247 0.033753633 -0.015860638 0.20531945
0001f0 35 6a 41 3d 39 c3 8a 3d a2 3d 0c be 3e de 9c 3b
       0.047220428 0.06775517 -0.13695386 0.0047872355
000200 18 c2 f0 3d a0 29 a3 3d 5a 5e 2a ba 30 89 24 3e
       0.117557704 0.07966924 -0.0006499045 0.16067958
000210 65 85 26 3e 56 87 47 3d 4d 44 19 be b8 11 86 3b
       0.16261823 0.04871305 -0.14967461 0.0040914677
000220 1e 57 f3 3d 69 e4 a0 3d 96 bb 19 3d 59 cd a4 3d
       0.11881851 0.07856066 0.03753241 0.080469795
000230 01 d5 ba 3d 40 ca ea 3d 69 00 29 3e 8a b9 30 be
       0.091226585 0.114643574 0.16504063 -0.17258278
000240 25 ee cc bd 33 87 c8 3d cf 15 2a be f4 78 a2 3d
       -0.1000636 0.09791412 -0.16609882 0.07933226
000250 24 c6 b0 3d f0 ee 86 bc 77 aa 92 bd 13 bd c3 3d
       0.08631542 -0.016471356 -0.0716142 0.095575474
000260 57 fb 34 3e 01 6a 57 3a e2 97 32 bd 4e a2 6e 3e
       0.17674004 0.0008217395 -0.043601878 0.23304102
000270 a9 80 96 3d 20 95 1a bd 12 fb 19 be 0d 63 d5 bd
       0.07348759 -0.037739873 -0.15037182 -0.10419283
000280 40 aa c6 bd ae b1 33 3c 59 5c 78 be fd eb 3d 3e
       -0.09700441 0.010967655 -0.24253978 0.18547054
000290 e3 4a 70 3d 2b 26 09 be fa 34 93 bd 9d ae cc 3d
       0.058665168 -0.13393466 -0.07187839 0.09994242
0002a0 68 e4 42 be ec 05 4a 3d 73 64 48 be 8c cc 0f 3e
       -0.19032443 0.049322054 -0.19569568 0.14042872
0002b0 23 91 14 3e 72 12 46 3e 74 dd d3 3d f5 27 22 be
       0.1450849 0.19342974 0.10344973 -0.15835555
0002c0 73 b5 bf 3d 48 f7 e5 bd 7f b4 a8 bc 6c 45 e8 3d
       0.093607806 -0.11228806 -0.02059388 0.11341366
0002d0 2c f5 22 be 71 ec a6 bd 3c f7 cf 3d d6 08 53 be
       -0.15913838 -0.08150566 0.10154578 -0.2060884
0002e0 e5 ce 3d be 3d 99 c5 bc 47 a2 13 be 9a fe 05 3e
       -0.18535955 -0.024120921 -0.14417373 0.13085404
0002f0 2b 3b db 3d dc 49 60 be 5e 05 f3 bd 84 b2 34 be
       0.10704645 -0.21903175 -0.11866258 -0.17646223
000300 ae f3 3d 3d b0 18 ea 3c 5d 2e db 3d 96 df 89 bd
       0.04637497 0.028576225 0.107022025 -0.06732099
000310 f6 c7 1b be b5 cc 05 3d e1 30 62 bc 55 8a 05 bd
       -0.15212998 0.032665927 -0.013805599 -0.032602627
000320 94 ac 1c bd 15 8c e2 bd c0 39 48 bd 92 c3 c8 3d
       -0.03825052 -0.11061875 -0.0488832 0.09802927
000330 92 79 5a bd 12 7b 24 be a2 7c 13 be 86 fc 2c bb
       -0.053338595 -0.16062573 -0.14403012 -0.0026395633
000340 eb 08 79 3e 14 37 42 3e f1 d4 17 3c ad 8b 68 be
       0.24319808 0.18966323 0.009267078 -0.22709532
000350 8b 28 ba 3c 0c bd 98 3d f2 c0 01 3d 23 c0 4f bd
       0.02272441 0.07457933 0.031678148 -0.050720345
000360 17 b2 45 3e 40 04 b2 3c b7 ce f4 bd 08 a5 32 bd
       0.19306217 0.021730542 -0.1195349 -0.043614417
000370 c2 a1 07 3e f8 68 e9 bc 36 9f 17 bd c5 77 54 3e
       0.132453 -0.028492436 -0.03701707 0.20748813
000380 a4 e9 2b be d0 b4 b7 3c fc 3f 89 3d 01 47 14 bd
       -0.16788346 0.022425085 0.06701657 -0.036200527
000390 fe 13 34 3e 2e 76 c2 3d 86 67 95 3c 50 d3 e0 bd
       0.17585751 0.09495197 0.01823784 -0.10977805
0003a0 a0 45 4d bd e1 e4 4e 3d 1a 23 d1 bd f5 5f 54 bd
       -0.050115228 0.050511245 -0.10211773 -0.051849324
0003b0 9e 1e 72 bd dc f5 5d 3d e4 67 b3 bd 3a 9d ed 3d
       -0.05911123 0.054189548 -0.0876005 0.11602254
0003c0 69 96 82 bc 92 ea a7 bd 45 fe 3d be 00 7b 3e 3d
       -0.015940862 -0.081990376 -0.18554027 0.04650402
0003d0 37 dd f3 3d f6 b9 5a bd 43 53 e3 bc 53 23 8a 3e
       0.11907428 -0.053400002 -0.027749663 0.26980075
0003e0 22 0b c9 bd 26 db 14 be 03 45 10 be ca d1 ba bd
       -0.098165765 -0.14536723 -0.14088826 -0.09122045
0003f0 40 22 ce bb be 52 b7 3d 87 cf 7a 3d 7e 3c e8 3d
       -0.006290704 0.08951329 0.06123307 0.11339663

recurrent.spatial_attn.mha.v_proj.weight f4 [32, 32]
000000 f5 0b 04 be 78 87 94 3e 6d 3e 41 3d eb d6 fb 3d
       -0.12895186 0.29009604 0.047178674 0.12296852
000010 58 7e 84 3c 4c 95 b0 bd 9e 74 e2 bd ed 81 2e 3d
       0.016173527 -0.08622226 -0.11057399 0.042604376
000020 0a 7d a9 3c 5f c4 ab 3e ac dc 8c bc 65 24 24 bd
       0.020689506 0.33548257 -0.017195068 -0.04007377
000030 2e 8e 96 be ea 32 55 3e 14 3a 54 bb 57 0a 91 3d
       -0.2940535 0.20820203 -0.003238325 0.0708205
000040 ed 02 86 3e 4a ba 84 3e dd 3d ea bc 01 0e 1e 3e
       0.26174107 0.25923377 -0.028593952 0.1543503
000050 10 19 2a ba 7d 28 4d be 5b 47 af bd 7e 7d 9a be
       -0.000648872 -0.20034976 -0.08558532 -0.30173868
000060 6e b8 6b 3e db f3 27 3d 2a 10 80 bc 1c 95 97 3d
       0.23019573 0.041004043 -0.015632708 0.07401487
000070 69 2e af 3d af 7c 03 3e c7 43 43 be 4c 35 43 3d
       0.08553774 0.12840532 -0.19068824 0.04765825
000080 d1 b2 06 3e 7c b4 06 3e 07 5c 32 be 8f 18 16 be
       0.1315415 0.13154787 -0.17417918 -0.14657806
000090 ef 4a 89 bc df 60 1b be c1 65 8b be 5d 21 90 be
       -0.016759364 -0.15173672 -0.2722607 -0.28150454
0000a0 5e 5a f9 3d 80 b8 88 3e 7c 03 48 be fa e3 f2 3d
       0.12175439 0.26703262 -0.19532579 0.11859889
0000b0 0a 9f 56 3d d5 fd da 3d 27 1a 77 3e 66 0a 89 3e
       0.052397765 0.10692946 0.2413107 0.26765746
0000c0 e0 87 ce 3d 87 a0 b3 3d 28 9b 8b be 8d 94 90 3e
       0.1008451 0.087708525 -0.27266812 0.28238335
0000d0 6a 1e 63 3e f2 eb 0e bd 1e f4 22 bd c6 5c 86 be
       0.22179571 -0.034892984 -0.03978359 -0.26242656
0000e0 81 bb 7b 3e 32 26 9b 3e 87 62 17 be 71 24 2b be
       0.24583246 0.30302578 -0.14783679 -0.1671312
0000f0 09 7f 90 bd 34 aa 0f 3e 6c d2 0b 3d 9e cd 15 3e
       -0.0705548 0.14029771 0.03413622 0.14629218
000100 1d 65 1e be 24 5d a3 bc 06 42 96 3d 7c be db bc
       -0.15468259 -0.019941874 0.07336812 -0.026824228
000110 d3 52 37 3e 2d 38 2c 3d 08 e6 6b bd 03 89 06 3e
       0.17902689 0.04204576 -0.05759242 0.13138203
000120 88 ed c1 3d 24 20 a8 bd 13 b2 d3 bd 46 b1 f7 3c
       0.094691336 -0.08209255 -0.10336699 0.030235898
000130 d8 8f 04 3e 91 a1 25 3e ef 02 02 be 77 b1 30 3d
       0.12945497 0.16174914 -0.12696432 0.043137994
000140 d7 f1 37 be ef e8 db 3d 03 e8 a2 3d fa 48 da 3d
       -0.17963348 0.10737788 0.07954409 0.106584504
000150 cb 19 ad 3d 84 fc 98 3d c1 aa 05 bd 64 59 fb 3d
       0.08452185 0.074700385 -0.032633547 0.12272909
000160 72 51 2f be 31 94 ff bd 37 74 11 be 0f d8 25 3e
       -0.17120913 -0.12479437 -0.14204489 0.16195701
000170 dc 78 71 3d 07 20 da bd 6a f5 c6 3b 1b 6e 3b be
       0.05895315 -0.1065064 0.006071736 -0.1830372
000180 30 3a 90 bd 33 6d b5 3d 60 22 88 3c f7 ec c3 3d
       -0.070423484 0.08858719 0.016617954 0.09566682
000190 14 d3 e2 3c fe 42 a0 3d 2b 88 95 3c 14 1a b1 bd
       0.02768854 0.07825278 0.018253407 -0.08647552
0001a0 ff ed a3 3e 14 cb 04 be bf 2b 8e bc 50 10 ca bd
       0.32017514 -0.12968093 -0.017354844 -0.098663926
0001b0 71 ed c9 bd b6 8b ce bd 79 5a cf bd ec e8 98 3e
       -0.098597415 -0.100852415 -0.10124678 0.29865205
0001c0 89 32 08 3d 68 54 36 3d 6a 38 cf 3d 61 0e 5a 3c
       0.03325132 0.04451409 0.10118182 0.013309092
0001d0 f4 38 da 3d 43 07 29 be d8 91 84 bd e9 27 10 be
       0.10655394 -0.16506676 -0.0647313 -0.14077725
0001e0 ea 66 6a 3e a6 68 1e be da 71 08 3e 0e b7 75 be
       0.22890821 -0.15469608 0.13324681 -0.23995611
0001f0 11 46 be 3d 8b 9f 36 3e cc 20 fc 3d 41 81 0b 3e
       0.09290708 0.17834298 0.12310943 0.13623525
000200 83 b6 46 3d d0 c6 14 bd 87 94 67 bc 20 3b 96 3d
       0.0485139 -0.036322415 -0.014134533 0.07335496
000210 7c 29 04 3e 91 85 2f 3e 6c 92 37 3e a4 36 6c 3d
       0.1290645 0.17140795 0.1792695 0.057669297
000220 22 5a 14 be 87 ea 43 be 40 27 29 bd d2 45 62 bd
       -0.14487508 -0.19132434 -0.041297197 -0.055242367
000230 6f 0b 34 be 98 ce 0d be 0a 9b ea bd 31 90 9b be
       -0.17582487 -0.1384834 -0.114553526 -0.30383447
000240 0b 6d c7 bb e2 9e 19 be 93 b5 3e be b8 b2 fb be
       -0.006085997 -0.15002015 -0.18623953 -0.4915979
000250 82 eb 6f be ba dd 16 3e ea fc 12 3e 9b 67 09 3e
       -0.23429683 0.1473302 0.14354292 0.13418429
000260 74 6e d7 bd 72 d7 94 be f6 c6 63 3b 0c 3b e8 3d
       -0.10519114 -0.29070622 0.003475604 0.11339387
000270 d3 86 39 bc 2d 91 52 be bc a0 51 3d 9c a7 c0 bd
       -0.0113236485 -0.20563193 0.05117868 -0.09406969
000280 7c 4c b9 bd a0 38 ad bb cf d7 2d 3d dc 10 9f bd
       -0.09047791 -0.0052862912 0.04244214 -0.077668875
000290 d9 8d 98 bc fe 84 22 be e2 45 37 3d cd 7d 1b bd
       -0.018622326 -0.15871045 0.04474438 -0.03796177
0002a0 8d 3c cf bd 4e 1b 25 3e a4 a4 78 bc f6 a4 4d be
       -0.10118971 0.16123697 -0.015175972 -0.20082459
0002b0 06 60 9a bd a9 77 52 3e 70 db 36 3e ba 97 0a 3e
       -0.07537846 0.20553459 0.17857146 0.13534442
0002c0 c3 e1 f6 bb b8 d0 65 be 5a 0e 34 3d c7 8b f8 bc
       -0.007534237 -0.22442901 0.043959 -0.030340089
0002d0 b6 c0 b8 bd 0b 37 6b be f8 9a 32 3e 93 ad 2b be
       -0.09021132 -0.22970216 0.17441928 -0.16765432
0002e0 32 b1 af 3d dd 5f 33 bd 18 cf c8 bc a5 09 16 be
       0.08578719 -0.043792594 -0.024512812 -0.14652117
0002f0 de 15 a2 bd 44 0a 0a be 45 7e df 3c 9e a7 d0 bd
       -0.07914327 -0.13480479 0.02728189 -0.101882204
000300 8d ca 26 3e 9e b5 97 3c cb da 18 be 18 31 4d be
       0.16288204 0.018519219 -0.14927213 -0.20038259
000310 a6 bf f9 3d fc 23 49 bd 40 a7 98 3d 94 2c 11 3e
       0.12194757 -0.049106583 0.074537754 0.14177161
000320 c7 b7 ce 3d 56 38 86 be 1e e4 8d bd ea 25 a8 bd
       0.100936465 -0.26214856 -0.069282755 -0.082103565
000330 b6 74 4c 3e 4b 39 41 3d 01 46 41 bd d5 40 04 bd
       0.19966397 0.04717378 -0.0471859 -0.03228839
000340 70 c0 c4 3d 40 f1 28 3b 1f 03 f9 3d 77 7f 3d bd
       0.09607017 0.0025778562 0.121587984 -0.046264138
000350 85 02 92 be 02 c2 c1 3d 33 58 0a be 78 49 e8 3d
       -0.28517547 0.09460832 -0.13510208 0.11342138
000360 7a c0 c1 3d c6 fe 45 be 4f dd 37 3e b1 b6 f3 3d
       0.0946054 -0.1933547 0.17955516 0.1190008
000370 1d 37 9d 3d ba c4 a5 3d 4e d2 1a be d2 a8 1f be
       0.07676528 0.08094163 -0.15119287 -0.15591744
000380 1c 64 b0 bd 0b 65 b6 bd cb 63 f9 3d cb c6 34 3e
       -0.08612844 -0.08905991 0.12177237 0.17653958
000390 6c 6e 99 3e 4f c4 47 bd 6f d6 a5 3e 36 e4 85 3e
       0.29967058 -0.0487712 0.32390162 0.26150674
0003a0 b6 2b d6 3d e3 42 47 3d 72 50 8d bd 55 13 13 bd
       0.10457556 0.048647773 -0.06900109 -0.03590711
0003b0 a9 1e f5 3d a2 92 25 3e 91 d5 bb bd a5 70 c2 be
       0.119687386 0.16169217 -0.09171594 -0.37976566
0003c0 33 eb 86 be 7c 0b 89 be 33 09 85 bd ed 10 15 3e
       -0.26351318 -0.26766574 -0.06495895 0.14557238
0003d0 ad 3c f1 3c 3b e9 e6 3d ea 7d 8e bd 01 75 49 3e
       0.029447878 0.11274954 -0.0695761 0.1967354
0003e0 23 d1 9e be a2 10 6a bd 58 c3 24 be cd 89 1d 3e
       -0.31018934 -0.05714477 -0.16090143 0.15384598
0003f0 89 9c 90 3d 61 67 27 be d9 38 e5 bc 05 99 87 be
       0.07061107 -0.1634803 -0.027981209 -0.26483932

recurrent.spatial_attn.mha.subln.weight f4 [16]
000000 85 51 80 3f 47 17 79 3f e7 dd 83 3f 30 b0 85 3f
       1.0024878 0.97301143 1.0302094 1.0444393
000010 13 f7 85 3f f8 ce 75 3f 71 ef 58 3f 30 95 a4 3f
       1.0466026 0.96018934 0.8474036 1.2858028
000020 e1 4f 8a 3f a1 bf 90 3f b3 e8 85 3f 25 68 60 3f
       1.0805627 1.130848 1.0461639 0.8765891
000030 cf 1e 88 3f dc 72 79 3f 82 a3 9b 3f 03 39 50 3f
       1.0634402 0.97440886 1.2159274 0.8133699

recurrent.spatial_attn.ln2.weight f4 [32]
000000 bb c9 50 3f 37 7b 5e 3f 29 f3 7f 3f c5 cb 60 3f
       0.81557816 0.8690676 0.9998041 0.8781093
000010 67 9b 7d 3f e4 89 64 3f 63 7e 72 3f bc 9d 8c 3f
       0.9906525 0.89272904 0.947241 1.0985637
000020 80 ac 75 3f c1 d9 56 3f 82 19 7c 3f 70 a4 4b 3f
       0.9596634 0.83926016 0.9847642 0.79547787
000030 24 7c 8a 3f b2 66 71 3f 27 8b 34 3f 00 a9 3e 3f
       1.0819135 0.94297326 0.7052483 0.74476624
000040 1c ea 82 3f 04 bc 5b 3f 37 21 6e 3f a0 8a 64 3f
       1.0227695 0.85833764 0.9301943 0.89274025
000050 05 13 71 3f 91 04 46 3f c0 a3 61 3f b4 52 7a 3f
       0.94169647 0.7735072 0.8814049 0.97782445
000060 dd 5c b6 3f eb d0 8c 3f 4b 72 6d 3f 94 84 67 3f
       1.424709 1.1001257 0.9275252 0.90436673
000070 93 d5 1e 3f b3 a4 74 3f cd 9f 78 3f 1f 0a 55 3f
       0.6204464 0.9556381 0.97118837 0.8321857

recurrent.spatial_attn.ln2.bias f4 [32]
000000 4b fc 2f 3e 7f 63 2f 3e f2 9d a4 bd 16 a0 d9 bd
       0.17186086 0.17127798 -0.08037938 -0.10626237
000010 d6 d4 99 bd 66 64 79 bc 6a 7d 93 bd d5 b2 1d bd
       -0.07511298 -0.015221691 -0.07201655 -0.038500626
000020 30 c7 1a 3d 0f be 38 3d 19 68 48 bd 72 36 09 3e
       0.037787616 0.04510313 -0.0489274 0.13399675
000030 86 f5 d1 bd 53 1e e2 3c a2 b2 be bd 60 22 07 bb
       -0.10251908 0.02760235 -0.09311415 -0.0020619854
000040 e0 48 f1 bd bf 5d af 3d 51 a9 ab bd ac 38 a5 bd
       -0.11781478 0.085628025 -0.08381904 -0.0806745
000050 6f d8 cd bd d7 47 c8 3d a8 c7 38 bd 36 2b 20 3a
       -0.10051047 0.09779327 -0.045112282 0.00061099546
000060 c2 2e ab be 38 69 bd bd 21 1d 91 bd 21 5f 79 bd
       -0.3343411 -0.092485845 -0.07085634 -0.060881738
000070 e7 2c d6 be a0 da c5 bd 35 5c 49 3c e6 12 39 3d
       -0.41831133 -0.0966084 0.01229005 0.04518404

recurrent.spatial_attn.ffn.linear.weight f4 [32, 32]
000000 b3 a4 43 3e 12 e0 71 bd 51 aa 3e 3e 8b 3f 2b bd
       0.19105797 -0.05905158 0.18619658 -0.041808646
000010 40 06 14 3e ff 5b a7 3d cb a5 b9 3c 78 ab 85 3b
       0.14455509 0.08171844 0.022662064 0.0040792786
000020 67 8f 41 3d 4a ee 3a 3d 6e 6a 6c 3d 79 32 51 3d
       0.0472559 0.045637406 0.057718687 0.051073525
000030 69 95 9a bb b2 5e bf 3d 9e d1 5b 3b a3 14 7f 3d
       -0.004717518 0.093442336 0.003354169 0.06227554
000040 b9 dc 0b 3e 59 a3 7b bc b3 f4 48 3e 91 0b a0 3b
       0.13658418 -0.015358769 0.19624595 0.0048841913
000050 78 a0 4a 3e 94 a7 b9 3d d3 96 6a bd 04 99 20 bd
       0.19787776 0.09065166 -0.057272743 -0.039208427
000060 6a bc 06 bc fb 88 6d 3e 82 cd 30 bd 53 55 66 be
       -0.008223632 0.23196785 -0.043164738 -0.22493486
000070 d9 8c 5a be 01 76 48 3e c6 9b b3 3d 9a 6a 82 3d
       -0.21342792 0.19576265 0.08769946 0.06367989
000080 01 04 28 be 26 30 2e bc 30 9a 9c 3d f7 d9 20 be
       -0.16407777 -0.010631597 0.076465964 -0.15708147
000090 72 63 da 3d 09 39 17 be b6 79 d9 bc 6a 40 b4 bd
       0.10663499 -0.14767851 -0.026547294 -0.088013485
0000a0 bb ef 55 be fd 86 a7 bd 80 c3 11 be 7a ad 3e 3e
       -0.20892231 -0.08180044 -0.14234734 0.18620864
0000b0 cd cf 96 3c a1 65 2d bd 4e bf df bc 83 2b fa 3d
       0.018409634 -0.04233325 -0.0273129 0.122153305
0000c0 3c 3b 70 bd 99 72 95 3d 8d d4 05 3d 53 dd e3 3d
       -0.05865024 0.072972484 0.032673407 0.111261986
0000d0 46 e2 6b 3d 2d 8b c2 bc 56 a8 af bc 8e 9e 06 be
       0.057588838 -0.023748005 -0.021442574 -0.13146421
0000e0 c0 d2 3f be 87 65 2a 3e 28 44 2b 3d 2b ea b9 3d
       -0.18732738 0.16640292 0.041813046 0.09077867
0000f0 36 b9 24 be 99 65 f7 bc f7 80 7a bd a0 91 55 be
       -0.16086277 -0.030199813 -0.061158147 -0.20856333
000100 c4 f7 20 3e cf 15 23 be 4a d1 de bc 18 7e 58 bd
       0.15719515 -0.15926288 -0.027199406 -0.052854627
000110 92 fa 2e bc 97 2f 1f be be b5 1b be 00 3b 9a 3d
       -0.010679858 -0.15545498 -0.15206048 0.075307846
000120 11 3e b9 3d 58 9c 90 bd 1a d3 97 3d 6a ea 9f 3d
       0.09045041 -0.0706107 0.07413311 0.07808383
000130 11 5b 3f 3d ec d5 3c be fc d7 8f bd 6d 0c 17 bc
       0.046717707 -0.1844098 -0.070236176 -0.009219271
000140 73 87 0c be 82 44 98 3c 4f da 52 3e d1 1c ee 3d
       -0.13723545 0.018587355 0.2059109 0.1162659
000150 21 27 eb 3d 12 ce 8b bd c2 66 dd 3d 0a 52 cd bd
       0.114820726 -0.06826414 0.10810615 -0.10025413
000160 de 78 25 bd 8a 99 13 3e ef 16 40 be bc 3f 7a 3d
       -0.04039847 0.14414039 -0.18758748 0.061095938
000170 6c 47 4e be a5 c6 b9 3d 0e 39 21 3e 99 c5 45 be
       -0.20144433 0.090710916 0.15744421 -0.19313659
000180 1f 57 6c be bf bb 8f bd 93 d2 68 be 24 ae 9c bd
       -0.23080109 -0.070182316 -0.22736578 -0.07650402
000190 62 95 a5 3d c1 af 0a be 30 04 bd bd ac 5b 09 3e
       0.08085133 -0.13543607 -0.09229314 0.13413876
0001a0 00 fb be 3d b3 2a 66 be 8d 8e 25 3e 73 ca 06 be
       0.09325218 -0.22477226 0.1616766 -0.13163166
0001b0 94 98 08 3e 4b 53 33 3e 46 b3 6a be 7c bb d6 3e
       0.13339454 0.17512242 -0.2291995 0.41939914
0001c0 a8 72 d3 3c 7c 71 48 bb 65 ac 7a bc 7c 12 de bd
       0.025811508 -0.003058522 -0.015299891 -0.10843369
0001d0 0f c8 36 be 48 cd 04 be 51 d8 53 3e 0b 88 4a 3c
       -0.17849754 -0.12968934 0.20687987 0.012361537
0001e0 8e 26 03 3e 9b 89 58 3c cd fe 83 3d fc cc e9 3d
       0.12807676 0.013216401 0.06445084 0.11416051
0001f0 e0 8f 5e bd df f7 da bc d8 66 a5 bd 2e 96 41 3e
       -0.05433643 -0.026729522 -0.080762565 0.18904945
000200 39 00 ed bd da 16 82 bd 4c c2 d8 3b 08 95 e7 3d
       -0.11572308 -0.06352015 0.006614959 0.11307722
000210 8f 48 6a bd a4 c1 00 3e 31 8a 33 3e 1c 4d a4 bd
       -0.057198104 0.12573868 0.17533185 -0.0802252
000220 8c a0 5d bd 4f 59 74 3d c2 81 05 3c a7 92 5f be
       -0.054108188 0.059655484 0.008148612 -0.21833287
000230 fb 8d 07 3e bd 40 70 3c 14 5b 3b bc fa d3 ab bd
       0.13237755 0.014663872 -0.011435289 -0.08390041
000240 ab 99 55 bd a3 e4 31 3d cc 2a df bd 42 6f dd 3d
       -0.052148502 0.043430936 -0.10896835 0.10812236
000250 19 6a 77 bd ec 8a b6 bd 69 1f 04 be 8e c9 98 bd
       -0.060403917 -0.08913216 -0.12902607 -0.074603185
000260 ec b6 51 3e 56 32 b4 3e e8 f8 92 3d b2 d6 63 3e
       0.20479935 0.35194653 0.07176381 0.22249869
000270 62 47 f1 bd 00 ab 92 3d f3 c0 23 be 06 21 91 3d
       -0.11781193 0.07161522 -0.15991573 0.07086377
000280 df 2f bb 3c c4 09 08 be 58 71 75 3d 38 9e 1c 3d
       0.022849975 -0.13284975 0.059922546 0.038236827
000290 3c bc c6 3d ce b2 af 3d d5 a1 4a bd 14 7d 8b bd
       0.097038716 0.08579026 -0.04947074 -0.06810966
0002a0 2d 20 30 bc d4 7b 14 be 5e fa 4c 3e 18 05 2d be
       -0.010749859 -0.14500362 0.20017383 -0.16896474
0002b0 de 74 d3 3b ec 22 a4 3d a1 41 14 be 5e b8 b5 bc
       0.0064531406 0.08014473 -0.1447816 -0.02218264
0002c0 31 0b 09 3e b8 cc 22 3e 5f b6 e7 3d 94 ac 64 be
       0.13383175 0.15898407 0.113140814 -0.22331458
0002d0 ab 39 17 be c0 eb b3 3d b7 cd d7 bc ca b4 8a 3d
       -0.14768092 0.087852 -0.02634321 0.06772764
0002e0 a9 54 5e 3e aa 60 88 3d 66 3c a8 bd b5 f8 65 3e
       0.21711983 0.06659062 -0.08214645 0.22458155
0002f0 b5 82 68 3d 07 bb 04 be 7c ce 9a bd 3e 80 26 be
       0.056765277 -0.1296197 -0.07558915 -0.16259858
000300 11 fe 36 3d 09 de aa bd 6a e0 02 3e 2b 09 8e 3d
       0.04467589 -0.08343131 0.1278092 0.069353424
000310 c3 1a 0a 3e 5f 29 bd bd 42 c3 24 be 87 36 41 be
       0.13486771 -0.092364065 -0.1609011 -0.18868457
000320 91 20 18 be b0 c5 64 3e ad c4 37 bd 2e fe 43 3d
       -0.14856173 0.22341037 -0.0448653 0.047849827
000330 ac f5 38 3d 53 20 f6 bd 26 37 ba bd 7f 3f 0f be
       0.045156166 -0.12017884 -0.0909255 -0.13989066
000340 ba 85 b8 bd 41 c6 04 3e d4 43 0b 3e 5d 78 fa bd
       -0.09009881 0.12966253 0.13600093 -0.12229989
000350 67 7b 4b 3e d2 a3 59 3d 32 19 a8 bc 7f 30 b9 bd
       0.19871293 0.053134747 -0.020519827 -0.09042453
000360 70 91 52 3e c6 3f 84 3e 27 58 03 be 3d 82 f8 bd
       0.20563293 0.25829905 -0.12826596 -0.12134216
000370 b2 f4 33 3d 44 c5 bc 3d e0 5c 5b bd b7 02 cd bd
       0.04393453 0.09217313 -0.05355537 -0.100102834
000380 09 42 64 bd eb 85 4e be 09 ab a2 3d 8d 88 24 be
       -0.05572704 -0.20168273 0.079427786 -0.16067715
000390 a6 55 11 3d 58 5d ea bd 8d 8a cf bd bc dd f8 bd
       0.03548207 -0.11443585 -0.10133848 -0.121516675
0003a0 b9 10 2d be b7 72 43 be 64 bf fc 3d 0d 6d 4b 3d
       -0.1690091 -0.19086729 0.12341192 0.049664546
0003b0 03 ed 3c 3d f6 d3 93 bc f3 40 fd 3d 43 0c 8d 3d
       0.04612447 -0.018045407 0.12365904 0.06887104
0003c0 86 90 0e 3d 9e 64 01 be 3f c9 9a 3b 53 cc d1 bd
       0.034805797 -0.12636039 0.0047236974 -0.1024405
0003d0 a6 a9 7b ba ab 3b ab 3d 31 da 9d bd cc 92 99 be
       -0.000960017 0.0836099 -0.07707632 -0.2999481
0003e0 b1 bb f8 bd b2 d5 48 3d ac 41 5b 3d c4 4b e9 bd
       -0.12145174 0.04903192 0.053529426 -0.11391404
0003f0 b9 66 84 bd df 5d 51 3d ea ea 06 be 19 b9 03 be
       -0.06464905 0.051114913 -0.1317555 -0.12863578

recurrent.spatial_attn.ffn.linear.bias f4 [32]
000000 01 52 84 bd 67 16 08 be bb 8e ac 3d c8 b7 02 3d
       -0.064609535 -0.13289796 0.08425661 0.03191355
000010 06 74 18 3d c7 ea 94 3d d5 e6 1e 3e 0b d6 2b 3d
       0.037220024 0.07271343 0.15517743 0.041952174
000020 d3 7d 03 be 2e 1d c8 3d fd 42 38 3e 9f 3f a9 3c
       -0.12840967 0.097711906 0.17994304 0.02066022
000030 df 85 10 3e 52 c2 0e be de 4c b4 3c 21 04 04 3e
       0.14113568 -0.13941315 0.02200931 0.128922
000040 f7 d0 b6 3d 6e 8f a8 3d e0 cb af 3d 06 fb 34 be
       0.08926576 0.08230482 0.08583808 -0.17673883
000050 bf 0f 52 be e5 27 ab bd 07 be a0 3d f9 58 82 be
       -0.20513819 -0.08357219 0.07848745 -0.25458506
000060 c9 74 b8 3b 8f f9 b9 bd 40 c8 dc 3d 4e 9e 65 be
       0.0056291563 -0.09080803 0.10780382 -0.2242367
000070 62 a9 47 3d 1d ea b5 bd c3 a1 f6 bd 1c 51 3c bd
       0.04874552 -0.08882544 -0.12042572 -0.04597579
