GraphTransformer_mi_global_diff.pth (torch, 136534 bytes, 31 tensors)

recurrent.input_proj.weight f4 [32, 1]
000000 58 fc 72 bf 4c e1 8c 3f 92 a1 e7 3e 26 3b 01 bf
       -0.94916296 1.1006255 0.45240456 -0.5048088
000010 4d d5 6a bf 28 c7 71 bf 5e bc b0 bc fc d0 ed be
       -0.9173172 -0.94444513 -0.021574195 -0.46448505
000020 11 63 98 bf 32 aa 09 3f 5b ae 50 be 65 48 cd be
       -1.1905233 0.5377532 -0.20379011 -0.40094295
000030 fb c2 bf 3e 86 38 73 3f 62 5f 05 3f 20 68 e3 be
       0.37453446 0.9500812 0.5209867 -0.4441538
000040 7a ee ab 3e 85 c1 79 3f 71 ea 7d bf 9e 88 0f bf
       0.3358038 0.9756091 -0.99185854 -0.56067836
000050 87 9f 8e be b9 65 64 bd 02 3d 2b bf 83 9a f6 3e
       -0.27856085 -0.055761073 -0.66889966 0.48164758
000060 c8 94 ab 3e 56 4c 37 3f 2e 92 40 3f 1f 44 8d bf
       0.3351195 0.71600854 0.7522305 -1.1036414
000070 c6 cb c1 be b7 cb 7c 3f 0e 6d b3 3f 61 04 90 bd
       -0.3785078 0.98748344 1.4017656 -0.07032085

recurrent.input_proj.bias f4 [32]
000000 f5 4d a3 3e cd 7b 26 bd ea 50 25 3f 7f e8 b6 bd
       0.31895414 -0.04064541 0.6457659 -0.08931064
000010 72 22 90 3e 73 e0 19 bf cb 9b 77 bd 9c 92 87 3e
       0.2815128 -0.6010811 -0.06045131 0.26479042
000020 0b 39 84 3d 8c 7b c8 be f1 cf 36 bf 4c 8d 51 bf
       0.064561926 -0.3915676 -0.71411043 -0.81856227
000030 66 66 a5 3e 20 f2 53 bf d5 18 06 3f de 10 32 bf
       0.32304686 -0.8279133 0.5238164 -0.6955699
000040 15 90 c5 bd f6 4d 0b bd dc 86 4b bf 7f 47 0a 3f
       -0.09646622 -0.034009896 -0.79502654 0.54015344
000050 e0 6b 14 bf aa b8 8a be 05 28 3d 3f 2b 02 55 bf
       -0.57977104 -0.27094012 0.7388919 -0.83206433
000060 a7 93 45 3f da f6 7d be 62 53 8b bf 6d 68 b5 3d
       0.77178425 -0.24801198 -1.0884821 0.08857808
000070 b8 d8 07 3f 0d 79 eb be 31 16 b5 be 36 19 e7 be
       0.5306506 -0.45990792 -0.35368493 -0.45136422

recurrent.time_embedding.weight f4 [128, 32]
000000 4f c4 0c 3f 5c 19 6f bd 56 29 2f 3e b4 fc 69 3f
       0.54987043 -0.058373794 0.17105612 0.9140122
000010 bf 68 bd be 15 be 6b bf f1 14 2b 3f 8d 42 83 be
       -0.36993977 -0.9208692 0.6682883 -0.25636712
000020 d3 d7 15 3e 23 d9 87 3e 58 bf 9b 3e bd 22 6e 3f
       0.14633112 0.2653285 0.3041942 0.93021756
000030 df 83 26 bf 85 bf 8f be 97 20 34 bf 4e 7f 8b 3e
       -0.6504497 -0.28075805 -0.7036223 0.27245563
000040 7d 6c 1c 40 84 51 f9 be 48 94 bb 3f 7e 1e 9e 3e
       2.4441216 -0.48695004 1.4654627 0.3088264
000050 4c cd 4b c0 40 4b 1f c0 1c ca 9a be b7 80 0b 3f
       -3.1844053 -2.488968 -0.30232322 0.5449328
000060 9e cf 0b bc 63 ef 9d be f8 81 d2 3e f6 36 87 be
       -0.0085333865 -0.308467 0.41114783 -0.2640912
000070 39 d6 50 bc 46 ad 3c 3f 7f 49 af 3c 45 c4 03 c0
       -0.012746387 0.73701894 0.02139735 -2.0588543
000080 2a 38 cb bd 87 d5 bd 3d 34 bd 85 3f 49 79 9d 3d
       -0.09922822 0.09269243 1.0448365 0.07689149
000090 50 d3 36 c0 4a 7b 5a 3f aa 94 0b 3f ff 13 37 3e
       -2.8566475 0.85344374 0.5452372 0.17878722
0000a0 28 3b 5c be 9c 99 3b 40 c9 3e 40 bf 2a a5 a1 3d
       -0.21506941 2.9312506 -0.750958 0.07892831
0000b0 47 bd 7a 3f 4f 28 8e 3f a3 72 af 3e 85 d4 1a bf
       0.97945064 1.1106051 0.34267148 -0.6048053
0000c0 c7 ac a4 3e ce 80 ee bf a2 77 b4 3f bc a5 2e be
       0.3216307 -1.8633058 1.4099009 -0.1705541
0000d0 89 05 00 bf cb 8b 1c bf 9b 40 a1 3f 89 dc 26 bf
       -0.50008446 -0.6115081 1.2597841 -0.6518026
0000e0 46 82 3e bf 70 6c 9b bf 2f 24 79 bd 8c 86 c9 3e
       -0.7441753 -1.2142467 -0.060825523 0.39360464
0000f0 49 d9 95 3f f2 81 1e bf eb 64 a0 3e 99 29 ed 3e
       1.1706935 -0.6191703 0.31326994 0.463208
000100 ce d8 44 3f b5 d2 ee 3f 27 b8 38 3d ee 6b 71 3f
       0.7689332 1.8658053 0.045097496 0.9430531
000110 5b a9 28 3f 46 53 e4 3e c7 cb 9b 3c 09 12 7e 3e
       0.65883416 0.44594783 0.019018067 0.24811567
000120 e1 38 38 be 82 f6 f9 3e 3e a4 52 3f f2 3f e6 be
       -0.17990448 0.48820883 0.82281864 -0.4497066
000130 a3 a7 a5 bf 71 13 53 be 8f 80 18 c0 1b 56 0f c0
       -1.2941784 -0.20612885 -2.3828466 -2.2396305
000140 8e d5 50 40 d5 f2 ad bf 92 db 20 bf de 8f c7 be
       3.2630343 -1.3589731 -0.6283504 -0.3897695
000150 f2 97 c3 3f 7d 83 47 bf 75 81 06 3f 89 b7 5b be
       1.5280745 -0.7793501 0.52541286 -0.21456732
000160 4e ad 3f 3f c0 75 17 3d ae 38 a7 bf 56 a6 d4 3e
       0.74873817 0.03697753 -1.3064172 0.41533154
000170 5d ae 7b bf 58 61 27 3f 14 11 d2 3d d4 ca e5 be
       -0.9831293 0.6538291 0.10257164 -0.44881308
000180 df e0 18 be 22 64 c6 bd b4 8e 02 c0 13 da ac be
       -0.14929532 -0.096870676 -2.03996 -0.33760127
000190 bb 98 ac be 7e fb 5e be e3 61 e3 bd ab 38 c8 be
       -0.33710274 -0.21775624 -0.11102655 -0.39105734
0001a0 9e 86 c2 3f 96 a5 a0 3f da ea af be 3e 2a 04 40
       1.5197332 1.2550533 -0.34358865 2.0650783
0001b0 7b 28 71 bf 61 61 ed 3b f3 b4 2f 3e 3d 9c 27 bf
       -0.94202393 0.0072442745 0.1715887 -0.65472776
0001c0 b5 b0 96 3f 6b 4c 25 3f 38 96 b1 bf 1a 3f 1b 40
       1.1772677 0.6456973 -1.3873968 2.4257264
0001d0 c8 51 ff 3f ba d4 0b bf 06 03 9e 3f f2 67 b2 bc
       1.9946833 -0.5462147 1.2344673 -0.02177808
0001e0 ce 00 c3 3f 24 26 4b 3f 88 6c e4 be 27 06 61 3f
       1.523462 0.7935507 -0.44614053 0.8790001
0001f0 8e 8b 0f bf bf 8f 89 3e eb d7 22 3e 8b 1e ba be
       -0.5607232 0.26867482 0.15902679 -0.36351427
000200 44 e3 96 3f 13 5e 82 3f f6 68 ca bd c9 4f 36 3f
       1.1788106 1.0184959 -0.09883301 0.7121549
000210 08 53 d8 3e 3a a6 0b be ab 14 4d 40 6e 99 02 40
       0.42250848 -0.13637629 3.2043865 2.0406146
000220 d1 2c fd 3e 88 50 9f 3f d0 2c 5c 3f f6 c3 ad 3d
       0.49448255 1.2446451 0.8600588 0.08484642
000230 e0 42 d8 bd 6b 27 1e 40 8d 49 22 bf 87 f2 80 bf
       -0.105596304 2.471156 -0.6339348 -1.0074013
000240 5a a7 71 3f 5d 02 4a 3f 8d 4e 98 3e 28 a9 5b bf
       0.94395983 0.78909856 0.2974743 -0.85804987
000250 b9 93 ce 3f 0f b1 3e 3f 76 fb d8 3f 82 a9 46 3f
       1.6138831 0.7448892 1.695174 0.776024
000260 b7 cd 84 bf 45 92 2c be ab 09 fb 3d 8a d4 19 bd
       -1.0375279 -0.16852672 0.122577034 -0.03755621
000270 be c8 99 3f 2c bd c5 bd ca 7c 8f bd d4 26 0a be
       1.2014387 -0.09655222 -0.070062235 -0.13491374
000280 d6 15 83 3f fc 4b 2e be d5 42 f6 bd ae 98 14 3f
       1.0241039 -0.17021173 -0.12024466 0.5804547
000290 6b 44 ae bf 0e 15 7b bf af 53 d6 bd cf bf d3 bf
       -1.361463 -0.98079 -0.1046518 -1.654291
0002a0 86 e1 12 3f 57 0c eb be 06 32 c0 3f 71 dc 4e 3f
       0.5737537 -0.45907852 1.5015266 0.80805117
0002b0 1b d2 47 bf 74 e9 fa 3f c4 8e f2 b8 0c db ce bf
       -0.7805497 1.9602494 -0.000115660514 -1.6160598
0002c0 1f b3 e9 bd 43 30 00 3f 46 7a 9c 3f 45 a9 ba bf
       -0.11411118 0.5007364 1.2224815 -1.4582907
0002d0 64 bf b3 3e dc 40 90 3f ab 73 95 3f 44 e6 f5 bf
       0.35106957 1.1269794 1.1675924 -1.9210896
0002e0 28 ea 9b be af e6 93 bf 29 3c 72 be d9 e9 1d 3f
       -0.30452085 -1.1554774 -0.23655762 0.6168495
0002f0 7c 33 f4 3e 14 ba 18 3f 61 d7 0d 3f 02 c9 4b 3c
       0.4769553 0.5965893 0.5540677 0.012438061
000300 fe 20 80 3d 5e e0 a1 be 0b 9d 3f be e4 d1 70 3f
       0.06256293 -0.3161649 -0.18712251 0.9407027
000310 a6 92 6d 3f 06 f6 a1 3f 64 a4 94 be 79 9e 24 bf
       0.9280189 1.2653205 -0.2903167 -0.6430431
000320 5c 0c 6e 3f d3 bf af be 38 74 89 3f 0e 76 84 bf
       0.9298761 -0.34326038 1.0738592 -1.0348527
000330 82 bc 3e 3e 01 92 81 bd 64 2a 25 3f 01 a8 d2 bf
       0.18626598 -0.06326676 0.6451781 -1.6457521
000340 02 6b 2d 3f dc 11 c6 3e c1 07 5c 3e ac 3f fb be
       0.67741406 0.386855 0.21487333 -0.49072015
000350 90 89 e5 bd 0b 8d 44 3f a5 3f d3 3f c1 a7 0b bf
       -0.112078786 0.76777714 1.6503798 -0.5455285
000360 96 ce e5 bd f8 bd e6 3d 9c 75 9e be 05 18 6a be
       -0.11221044 0.112667024 -0.30949104 -0.22860725
000370 e8 08 52 bf 20 86 aa be 48 aa f6 3f 5b 64 7f be
       -0.8204484 -0.33305454 1.9270716 -0.24940626
000380 e5 ca a0 3f 3d 4b 83 3e 41 bc 57 bf f1 25 00 3f
       1.2561918 0.2564334 -0.8427163 0.50057894
000390 07 ec 47 bd fb 63 03 be 3d 76 88 bf f1 31 f2 3e
       -0.048809078 -0.12831108 -1.0661083 0.47303727
0003a0 f1 75 ed be 4f 5d bd be ac 85 77 3f 25 a4 24 3d
       -0.46379045 -0.3698525 0.9668834 0.040195603
0003b0 73 15 1c be af 86 7d 3f 04 02 c2 3f ae b4 87 3d
       -0.15242557 0.99033636 1.5156865 0.06626259
0003c0 41 90 a0 bf 35 5f 61 bf b6 f4 ea 3e fe 55 da bf
       -1.2544023 -0.880359 0.45889825 -1.7057493
0003d0 9f f5 a8 3e 9f a9 aa be 1f df e2 be e7 f7 ad bf
       0.32999894 -0.33332536 -0.44310853 -1.3591279
0003e0 db 99 ad be fa f0 93 3f 6c e0 d6 3f 45 45 8c 3f
       -0.33906445 1.1557915 1.6787238 1.0958639
0003f0 fb 16 a8 bf e9 ff bd be 49 3f 09 bf f2 64 6a 3f
       -1.3132013 -0.37109306 -0.5361219 0.9156028

recurrent.stock_embedding.weight f4 [472, 32]
000000 f3 b5 c6 3f ef db b1 3f 36 2f ee 3e 38 42 bb be
       1.5524276 1.3895243 0.46520394 -0.36573958
000010 9a 28 7c 3f 24 f7 ef bf be c5 0a bf 0e 7e cf 3f
       0.98499453 -1.8747296 -0.5420798 1.6210344
000020 09 4b 6b 3c e0 13 ed 3f 6a 89 23 bf ea a4 18 bf
       0.0143611515 1.852169 -0.6388155 -0.5962664
000030 ea c2 08 bf 8c 2c 3c bf ed 14 d2 bf 6f 14 93 3f
       -0.53422415 -0.73505473 -1.6412636 1.1490611
000040 55 62 28 bf ae 39 9a be 91 b3 bb bf 54 58 b0 3f
       -0.6577504 -0.3012213 -1.4664174 1.3776956
000050 4b 70 00 bf 7c 83 64 3c 10 c5 97 3f f7 5f d7 be
       -0.50171345 0.013947364 1.1857014 -0.42065403
000060 98 3c aa bd c0 34 75 3f 89 1f 92 3f 61 2b bd 3f
       -0.083123386 0.95783615 1.1415874 1.4778863
000070 e9 a5 63 bf ec 1e 6b 3f d6 19 19 be cd 67 0d be
       -0.88925034 0.9184406 -0.14951262 -0.13809128
000080 46 09 3c 3f df 49 b6 3f d9 6e 24 be 71 92 f0 bf
       0.7345165 1.4241294 -0.1605791 -1.879469
000090 4d 62 71 bf 8f 94 2e bf 48 e0 0a bf 4c 24 83 3f
       -0.9429062 -0.6819543 -0.54248476 1.0245452
0000a0 a6 73 51 3f 82 c5 52 3f c3 7f 8f bf ca 8c d9 be
       0.8181709 0.82332623 -1.1210865 -0.42490226
0000b0 cc 4e f4 bd fc cc 3c 3f 2d b7 cd be 71 b8 29 3f
       -0.11929092 0.7375028 -0.40178815 0.6629706
0000c0 ee bd 9d bf fe 2f e2 bf b5 f2 3a 3f fc 48 89 bf
       -1.2323587 -1.7670896 0.7302659 -1.0725398
0000d0 35 ce d9 be d8 20 60 3f 35 27 88 3f a0 7b 49 bf
       -0.42540136 0.87550116 1.0636965 -0.7870426
0000e0 fa 0d 36 bf ab b1 6b 3e c4 c8 2d 3f b0 3b 75 3f
       -0.71115077 0.23016994 0.6788447 0.957942
0000f0 ca ad a7 bf 17 8d f8 3d 9c 63 1a 3f 45 0e 72 3f
       -1.3099911 0.12136286 0.6030824 0.94553024
000100 9c 3a 1f 40 95 a8 5e bf d7 63 a7 3f 8b 47 e7 3e
       2.4879522 -0.86975986 1.3077344 0.4517177
000110 05 74 08 bf 5e 00 d4 3d 6c 59 bd 3e af 0f 78 3f
       -0.5330203 0.103516325 0.36982286 0.9689893
000120 e1 cb b5 3f 46 99 91 3f fa ec 82 bf 39 ce 3c bf
       1.4202844 1.13749 -1.022857 -0.7375217
000130 70 03 6b be 12 a2 c0 3f e2 92 dd 3d 47 1b 1d 3e
       -0.2295053 1.504946 0.10819031 0.15342437
000140 80 76 a2 3f 21 e5 90 3d 0b bc aa bf f7 a8 82 3f
       1.2692413 0.07074953 -1.3338636 1.0207814
000150 3b 75 e8 3e 4b 5c 3f bd 84 bb 0a bd 35 8e 82 bf
       0.4540194 -0.046718877 -0.033870235 -1.0199648
000160 1a 0d 86 3f b9 fb 32 be a6 56 df 3d c4 55 fd 3f
       1.0472748 -0.17478837 0.10905199 1.9791799
000170 08 3e 93 3f b4 e3 ed 3f de 90 a0 3f 4b 06 86 3b
       1.1503305 1.8585114 1.254421 0.0040901056
000180 41 92 2c 3f ea 7f a5 be 74 49 c4 3e 37 71 ea 3e
       0.67410666 -0.32324153 0.3833729 0.457895
000190 9d cd 24 bd 70 f7 16 3f 27 20 e3 3e 53 28 ca 3d
       -0.04023515 0.5897131 0.44360468 0.098709725
0001a0 68 4d 0e c0 e0 0d 7b be 13 e1 bc 3e 26 e9 3e be
       -2.2234745 -0.24517012 0.36890468 -0.18643627
0001b0 79 3f d7 be 51 e7 99 bf c4 a8 29 bf 33 2a 9a be
       -0.42040613 -1.2023717 -0.6627314 -0.3011032
0001c0 09 e8 14 3f c7 14 2b 3f 15 12 85 be 2f 43 41 be
       0.5816656 0.6682858 -0.25990358 -0.18873285
0001d0 72 a8 0e bf ea 83 01 40 b0 2c ab be 13 15 d5 3f
       -0.5572578 2.0236764 -0.3343253 1.6647056
0001e0 42 71 64 3f fc d2 11 c0 0d cd 70 be d7 3b d6 3d
       0.8923532 -2.2785025 -0.2351572 0.10460632
0001f0 42 ae 8f be bc fd 55 bc cc 90 f0 be ad 6f b2 bf
       -0.28062636 -0.013060983 -0.4698547 -1.3940331
000200 4c 38 d8 3e ff e5 c3 3f 4f 50 82 3e a0 fc ab 3f
       0.4223045 1.5304564 0.25451896 1.343647
000210 b2 95 ef 3e f4 90 46 be ee db 11 3e 3b cd 0f 3f
       0.46793896 -0.19391233 0.14244053 0.5617253
000220 8d ab 9f 3f f1 65 3d be 1a 85 bd bd b4 fc ac 3e
       1.2474228 -0.18495919 -0.09253903 0.33786547
000230 25 35 4c 3f 63 4a a9 3e d4 64 d9 3f 4d 49 11 3e
       0.7976859 0.33064565 1.6983895 0.14188118
000240 a8 e2 0a bf 41 0f 46 3f f7 27 c4 3f 6b c1 20 3f
       -0.542521 0.77367026 1.5324696 0.6279513
000250 38 84 c6 3f 1b bb e2 3e a4 6f 92 3d 50 2f 11 c0
       1.55091 0.44283375 0.071502 -2.2685127
000260 71 f7 3f 3f 68 13 90 3f 1a 6d fd be 39 c7 a8 3d
       0.7498694 1.1255922 -0.494973 0.08241124
000270 bd b9 0b 40 9a a6 e0 be 57 0a 6e be 99 6c 8d 3e
       2.1832116 -0.43877107 -0.23246132 0.27621916
000280 5c 3c 0f bf 00 17 83 3e 79 48 3f 3e 74 7b 96 bf
       -0.55951476 0.25603485 0.1867999 -1.1756425
000290 d4 e2 9c 3f ae f6 4b bf a6 99 05 40 40 09 de bc
       1.2256722 -0.7967328 2.087503 -0.02710402
0002a0 79 84 5f 3f d8 4e 5d 3f 9a a7 dd 3d 30 5f 46 bf
       0.8731151 0.8644843 0.10822983 -0.77488995
0002b0 56 c7 0f bf 5c da 0c be 30 e6 70 be 72 26 26 bf
       -0.5616354 -0.13755172 -0.2352531 -0.6490241
0002c0 94 1b 9e 3d 48 c5 8d 3f 54 b3 2d 3f 4f 96 8e 3f
       0.07720104 1.107583 0.6785176 1.113962
0002d0 9c 77 1d 3f 43 41 91 be eb fd 26 bf 24 06 14 be
       0.61510634 -0.28370103 -0.652312 -0.14455467
0002e0 74 d9 ab bf 10 28 29 bf f2 3b a4 3f b6 d4 00 c0
       -1.3425736 -0.66076756 1.2830794 -2.0129828
0002f0 ae 3e 3b 3f ee 93 f0 bf 7e 09 92 be ef bc d4 3e
       0.73142517 -1.8795145 -0.28522867 0.41550395
000300 16 75 b2 bf 88 90 69 bf 86 42 14 3e 6f b3 35 bf
       -1.3941982 -0.9123616 0.14478502 -0.7097692
000310 c4 6f 50 bf 3d 4c df be 77 cb a3 3f 69 1a cf 3e
       -0.8142054 -0.43612853 1.2796468 0.40449837
000320 dc e5 39 bf 1d 87 14 3f 89 8a d2 be b5 cf 01 3f
       -0.7261636 0.58018667 -0.4112132 0.5070756
000330 85 19 12 bf 0a ac 31 be 20 14 85 3e c8 8e dd 3f
       -0.5707019 -0.17350784 0.25991917 1.7309198
000340 28 4b fc bd ed 6c 20 be 7b 4b 5e be 4e a0 b5 3f
       -0.123190224 -0.15666552 -0.21708481 1.4189546
000350 4a bd f8 be b3 15 a8 bf cb 4e 83 3e 63 2a 87 bf
       -0.48581916 -1.3131622 0.25646052 -1.055981
000360 d6 c0 92 3f 57 34 c5 bd a0 05 e3 3f 28 91 51 bf
       1.1465099 -0.09629124 1.7736092 -0.81862116
000370 07 12 85 be 24 b3 10 be 69 9f cf be d2 7f 55 3f
       -0.25990316 -0.14130837 -0.40551308 0.83398163
000380 fb 2e 98 3f 28 42 61 3f 1b fa 0e 40 c9 a8 b1 3f
       1.1889337 0.8799157 2.2340152 1.3879634
000390 ea 50 18 40 6b 21 fe be d0 4b 5c 3d 6d 82 8e be
       2.3799386 -0.4963487 0.053783238 -0.27833882
0003a0 1b 8a ed bc 75 dd 5d bf 9c e3 b8 3d 63 b1 87 3e
       -0.028996518 -0.8666604 0.09027788 0.26502523
0003b0 45 b9 98 3f b0 85 d5 3e f6 58 07 3f 42 9e 89 3f
       1.193154 0.41703558 0.5287012 1.0751421
0003c0 cd 8e fc bd c0 59 9e bf 54 1e 15 c0 c8 6e 6e bf
       -0.123319246 -1.237114 -2.329976 -0.9313779
0003d0 1b d1 27 40 ea b9 4e 3f 00 fe 35 3d 5a 4b 14 3f
       2.6221378 0.8075243 0.044431686 0.5792748
0003e0 0c 20 0b c0 11 81 c8 3f 2a 28 6d bf 9b 08 02 be
       -2.173831 1.5664388 -0.9263941 -0.12698595
0003f0 4d e0 96 bf bb 32 b8 3f 71 ba fe be 38 95 d4 3f
       -1.1787201 1.4390482 -0.49751619 1.6608038

recurrent.spatial_attn.mha.lambda_q1 f4 [8]
000000 12 b7 2b 3e cc 79 d4 bd f9 5d 95 3d ff a2 0a 3c
       0.16769055 -0.103747934 0.072933145 0.008461713
000010 3d e8 0e 3e 5e 66 5a 3e 7d 69 05 3e fe b2 26 bd
       0.1395578 0.21328112 0.13028522 -0.040698044

recurrent.spatial_attn.mha.lambda_k1 f4 [8]
000000 2d 48 30 be 9b 42 1c 3d 0b 27 3a 3d fc d5 cf ba
       -0.17215033 0.038149457 0.04544739 -0.0015856619
000010 50 bd 56 bd 34 37 11 bd b4 e1 22 3d 96 ae e7 bd
       -0.052426636 -0.035453036 0.03976603 -0.113125965

recurrent.spatial_attn.mha.lambda_q2 f4 [8]
000000 41 41 20 be 59 89 b0 bd b6 35 46 bc bc c8 3b be
       -0.15649892 -0.08619947 -0.012097767 -0.18338293
000010 28 4a 8c 3b 00 59 20 3e 60 df 99 bd ce c5 81 be
       0.004281301 0.15658951 -0.075133085 -0.25346226

recurrent.spatial_attn.mha.lambda_k2 f4 [8]
000000 5b 52 b7 3d 9a 6f 42 bd 1d 8a 1d 3c 10 fb 33 3e
       0.08951255 -0.047469713 0.009615448 0.17576241
000010 5a c5 77 3d a1 44 8a 3d 02 bd 62 bc a7 47 50 be
       0.060490943 0.06751371 -0.013839008 -0.20339833

recurrent.spatial_attn.mha.q_proj.weight f4 [32, 32]
000000 87 d0 0c be 16 e3 3a 3d 09 7f 2e bd 05 3a 5e bd
       -0.13751422 0.045626722 -0.04260162 -0.05425455
000010 9c 94 ed bc 04 23 9c bd 04 66 ec 3c 31 c1 91 bd
       -0.029001527 -0.07623866 0.028857239 -0.071169265
000020 27 df a3 3c 03 54 8f bd 52 5c 4c 3d df a3 32 be
       0.020003868 -0.06998446 0.04989273 -0.17445324
000030 4e e6 c3 3d 17 30 52 3d 7f 59 16 be 34 e1 92 bd
       0.095654115 0.051315393 -0.14682578 -0.0717186
000040 98 82 84 bd ac 25 be bc ad d9 81 bd 68 17 24 be
       -0.06470221 -0.023211323 -0.063403465 -0.16024554
000050 ac f1 28 be 0c c0 4c be c7 10 26 3e 5c a2 52 3b
       -0.1649844 -0.19995135 0.16217338 0.003214023
000060 4e ac 12 be 5b 78 52 3e 0d 11 54 3e 1f 9a 39 be
       -0.14323542 0.20553724 0.2070963 -0.18125199
000070 d3 d7 09 3d b5 0e d7 bd 5d 78 a8 3d 15 dc 0f be
       0.03365309 -0.10500852 0.082260825 -0.14048798
000080 6a df e2 3d 18 2c 75 3e c7 b5 e1 3c 80 c0 a7 bd
       0.11077769 0.23942602 0.027552499 -0.08191013
000090 63 d7 3b bd e4 1d e4 bc b5 e4 6f 3d 00 89 b1 3d
       -0.045859706 -0.027846284 0.05856772 0.08668709
0000a0 2d 23 75 3b f7 6c 6a 3e 6c b7 9d bd e9 80 70 3c
       0.0037405 0.2289313 -0.077010006 0.014679172
0000b0 29 e0 3d bd 99 33 29 3d 8b ec ad 3d 2d 7a 1c be
       -0.046356354 0.041308973 0.084923826 -0.15280981
0000c0 43 c6 30 bd e8 fa 1d 3e 3c 83 81 3d 2a a1 2f 3e
       -0.043157827 0.15427744 0.06323859 0.17151323
0000d0 a3 87 bf 3d 4e 15 98 3d 2f 7e 4b 3e 44 aa b0 bd
       0.093520425 0.074259385 0.19872354 -0.086262256
0000e0 06 8c 32 3d a3 31 de bc ef 0a b2 3c d8 5f ca bc
       0.043590568 -0.027123278 0.02173373 -0.024703905
0000f0 2a 3e fc 3c fa 2d 01 bd d1 55 30 be 70 b3 b7 3d
       0.03079136 -0.031537987 -0.17220236 0.08969772
000100 e7 17 47 3e 7d 1c f5 bd 51 e6 64 bc c5 35 89 3d
       0.19442712 -0.11968324 -0.013970927 0.06699709
000110 86 1c 12 bd 32 9d c9 3d 18 37 50 3d 00 14 a7 3d
       -0.035671733 0.09844436 0.05083379 0.081581116
000120 99 f4 1a bd 4a 3e ef 3d 4e fa 3b bc 0f 3e a2 3d
       -0.037830923 0.116818026 -0.0114732515 0.07921993
000130 5e fa 1a be 56 4f 87 be 09 b9 04 bd 08 6d ae bd
       -0.1513457 -0.26427716 -0.032403026 -0.0851689
000140 08 b1 5a 3c 9c 5c f7 3d ac 0d df 3b 22 b5 eb 3d
       0.013347872 0.12078211 0.0068070497 0.11509158
000150 07 ae e3 3d 40 5b 53 bd ff d5 a3 bd 77 f7 60 be
       0.111171775 -0.051600695 -0.07999801 -0.219694
000160 1a 74 4a 3a 6f 77 77 be e6 19 87 be 29 17 87 3e
       0.0007722989 -0.24166654 -0.26386946 0.26384857
000170 5d 97 3c 3e 10 77 d0 3d 9c d8 18 be 2a 64 a8 bd
       0.18417116 0.10178959 -0.1492638 -0.0822223
000180 dd 0f 60 3e 28 6a 41 3d 09 3a 65 be f3 f4 74 3e
       0.21881051 0.04722038 -0.2238542 0.23921566
000190 46 68 24 3e d3 e6 b7 bc 90 a4 80 ba 91 b6 94 bd
       0.16055402 -0.022448933 -0.0009814668 -0.07261384
0001a0 31 f0 d8 3d 14 19 df 3d 1a 1a 79 bd 32 ad 2a be
       0.10592688 0.10893455 -0.060815908 -0.16667631
0001b0 1b 72 ce bd cd 65 67 be 9f d4 66 3c 31 6b 6c bd
       -0.10080358 -0.22597428 0.014088779 -0.057719413
0001c0 5c ad 86 be 64 65 6e 3d b8 8f 28 3d 3e 3b 03 3e
       -0.26304138 0.058202162 0.041152686 0.12815568
0001d0 29 8e 52 3d d7 f3 0e 3d c0 0d 28 3e a7 33 0c 3d
       0.051405106 0.034900513 0.16411495 0.034228947
0001e0 68 07 d0 bd 71 8c 2a be 33 a6 27 be 4c 6f 82 bc
       -0.10157663 -0.16655137 -0.16371994 -0.015922211
0001f0 e0 2f 2d 3d 8e 6d 23 bc 3f b3 b8 bd 16 7f 7c 3b
       0.042281985 -0.00997485 -0.090185635 0.0038527898
000200 9e f7 96 bd 94 20 20 3d 10 41 e1 3d a0 65 ae bd
       -0.07371448 0.03909357 0.10998738 -0.08515477
000210 7e de ec 3d 77 9c dd 3b 0c ac ad 3d 32 21 08 bd
       0.115658745 0.006763037 0.08480081 -0.033234783
000220 0a a0 f7 bd 61 75 4f be 82 e4 b2 3c fd 82 82 3d
       -0.12091072 -0.2025962 0.021837477 0.0637264
000230 4f 0d 2f 3c 0f 76 cb 3d d6 f4 8a bb 3d cf c2 bd
       0.010684325 0.09934627 -0.0042406125 -0.09512184
000240 01 7a d2 3d 8e 38 5f be 6b 5f 5b 3d e3 f2 7d bd
       0.10277177 -0.21798918 0.053557795 -0.061999213
000250 99 a6 5f 3e 75 a8 92 bd 25 2a 17 3e 1b 38 30 bd
       0.21840896 -0.07161037 0.1476217 -0.043022256
000260 0a e0 6a be 6a 7a 20 be 9c 58 26 3e 9a bf 6f bd
       -0.22937027 -0.15671697 0.1624474 -0.058532335
000270 06 d4 19 be 1f 38 5b 3e b6 9b d3 3c 4c 9a d7 3d
       -0.15022287 0.21408127 0.025831085 0.10527477
000280 a4 6a 2e be 39 af d5 3d eb 6b e1 3d 99 b6 a6 3c
       -0.17032868 0.10433812 0.11006912 0.020350741
000290 52 c1 57 bd a1 fc 8d 3c 5d bf 18 3e 38 02 20 3e
       -0.0526746 0.017332377 0.1491675 0.15625846
0002a0 ef f6 de bd 24 8d 5c be 3f 84 25 be 59 dd 54 be
       -0.108869426 -0.21538216 -0.16163729 -0.20787562
0002b0 5e 3a 7a 3e 35 44 03 3e 14 59 85 bc d3 bf ea bc
       0.24436328 0.12818988 -0.016277827 -0.028655922
0002c0 54 d1 99 3d 79 81 20 bd df a5 10 bd a7 54 0c bb
       0.07510629 -0.039185975 -0.035314437 -0.0021412761
0002d0 db 85 94 3d 24 96 09 be c4 0d 0e 3e f0 f8 f8 3d
       0.072520934 -0.1343618 0.13872439 0.12156856
0002e0 ec c4 bd bd 7f 23 6c 3e 22 fa bd bd 60 0f cd 3c
       -0.092660755 0.23060416 -0.09276225 0.025031745
0002f0 79 8c fc bd 1f d2 b7 bd d1 a6 cc bd d6 96 28 be
       -0.123314805 -0.08975624 -0.09992755 -0.1646379
000300 96 98 1d 3e e7 b9 24 3c 6c 38 c6 3d 46 0e 79 3d
       0.15390238 0.010054088 0.0967873 0.060804628
000310 fe 33 88 3d cf 46 25 3e eb a5 64 bd f6 76 56 3e
       0.06650542 0.16140293 -0.055822294 0.20943817
000320 59 7c b7 bd c4 0d 86 bd 57 db e8 bd ee 9d 4e 3e
       -0.08959264 -0.06545594 -0.11369961 0.20177433
000330 30 31 76 3d a0 07 ac 3d 1e 33 52 be ec ae 47 3d
       0.060105503 0.08399892 -0.20527312 0.048750803
000340 b6 0b 6d be 2e fc 9f 3d a0 40 12 be 3b d8 9a bc
       -0.23148999 0.07811771 -0.14282465 -0.018901935
000350 50 41 57 bd b2 2d a8 3d 41 07 1f bc 0d 31 3c 3e
       -0.05255252 0.08211841 -0.009706319 0.18378086
000360 a7 a9 1a 3d 05 4f ac 3d 8c 7a 12 3e 8b f8 1d be
       0.03775945 0.08413509 0.1430456 -0.15426843
000370 16 a9 ed bd 88 ae 0f 3e 14 12 45 bd ab f3 bf bd
       -0.11604516 0.14031422 -0.048112944 -0.09372648
000380 16 4e 94 bd c3 21 3e be 97 72 81 3d a8 c7 9b bd
       -0.07241456 -0.18567567 0.063206844 -0.07606441
000390 a1 24 9c be ed 22 70 be ac 0a 10 be cd 20 97 3d
       -0.30496696 -0.23450823 -0.14066571 0.07379303
0003a0 e9 c3 ec bd 96 01 77 3d 6f 90 a8 bd fb 8a f9 bb
       -0.115608044 0.060304247 -0.082306735 -0.0076154447
0003b0 ac fe 2c 3e ae 98 09 3e 3c c8 ce bd fd 1b c2 bd
       0.16894025 0.13437149 -0.100967854 -0.094779946
0003c0 17 3d 90 3d 07 fc 01 bd ff 3e 8c bd 3b 9b b3 bd
       0.07042902 -0.031734493 -0.06847953 -0.08769842
0003d0 1b a1 4a bd 70 db 55 bc 4a c8 08 3e d3 ae 38 bc
       -0.04947005 -0.013052806 0.13357654 -0.01127215
0003e0 ff fa 92 bc b6 f7 ba 3c 95 52 6e 3e 8d 05 fc bd
       -0.01794195 0.022823196 0.2327369 -0.12305746
0003f0 22 19 b0 3d e6 95 11 be 59 10 e8 bd a6 9b d0 bd
       0.08598544 -0.14217338 -0.11331243 -0.101859376

recurrent.spatial_attn.mha.k_proj.weight f4 [32, 32]
000000 a5 63 07 3e 30 62 38 be fb cf a8 bd d6 58 54 bd
       0.13221605 -0.18006206 -0.08242794 -0.051842533
000010 0b 06 a8 3d e5 b6 18 3e 2c cb 0b be 94 8e bd 3d
       0.082042776 0.14913519 -0.13651723 0.0925571
000020 3c 6f 02 be 20 02 0b be 17 a3 d0 3c ee 36 4e 3d
       -0.12737745 -0.1357503 0.025468392 0.050345354
000030 24 07 fa bd c4 69 b7 3d 1f 4d 20 3e 78 1d 0e be
       -0.12208393 0.0895572 0.1565442 -0.13878429
000040 a4 93 c0 3c e2 41 e4 bd b0 7b 72 3d 88 d6 41 bd
       0.0235079 -0.11145379 0.05919999 -0.047323734
000050 a4 05 a6 3b f4 7c 5b be 9a 14 dc bb 20 14 0d bc
       0.0050665904 -0.21434385 -0.006716323 -0.008610755
000060 2e 5e 4f 3e 56 b3 1a bd 33 7a 40 bd 2e 07 72 bd
       0.2025077 -0.037768684 -0.04699154 -0.05908888
000070 44 5f 0d be c5 bc 58 be 00 8c f2 3d 91 9d 87 3e
       -0.13805872 -0.2116576 0.11843109 0.264874
000080 1e 9d bb bd cc 54 20 3d 23 f5 14 be d3 ac 21 3d
       -0.09160827 0.03914337 -0.14546637 0.03947146
000090 e1 fb 34 be 3e bc 0e be c1 a3 70 bd a4 b7 2a bc
       -0.17674209 -0.13938996 -0.058749918 -0.01041976
0000a0 77 68 2b bd ec 24 86 bd 2e a1 48 3d a5 4f 72 bd
       -0.041847672 -0.06550011 0.048981838 -0.059157986
0000b0 76 28 6e bc f9 a6 63 be ea fa 78 3d de 4c b2 bd
       -0.014536014 -0.22231664 0.060786165 -0.087060675
0000c0 fa 76 6e be b2 72 09 3e 53 4b b6 bd a8 9f f5 3c
       -0.23287573 0.13422659 -0.08901086 0.029983357
0000d0 94 01 ad bd 38 be f7 3c 99 4c 2b be 20 11 aa 3d
       -0.08447567 0.03024207 -0.16728438 0.083040476
0000e0 8f 12 c6 bd 39 9e ac bd fa c6 72 3d a9 e2 8d 3c
       -0.096715085 -0.08428616 0.05927179 0.017319994
0000f0 c4 e1 d4 3c 6f d9 0b 3e af 97 0e be 89 29 19 be
       0.02598656 0.13657163 -0.1392505 -0.1495725
000100 9c 4f ba bd b8 dc c9 3d 8e 69 e9 bd 5a 76 80 be
       -0.090972155 0.09856552 -0.11397086 -0.25090295
000110 f0 ea 13 be e9 5f 35 3d 2a 4d 0a 3e 93 07 f5 3d
       -0.1444509 0.04428092 0.13505998 0.11964335
000120 f6 e2 31 3d 5b 90 f2 bc 76 17 ca 3d 16 5e 3d 3d
       0.043429337 -0.02960985 0.09867756 0.046232305
000130 af 33 b8 bc c4 95 30 3c 9e 6a 1c 3d 39 aa 94 be
       -0.022485582 0.010777894 0.038187616 -0.2903612
000140 97 38 04 3e e2 96 a0 b9 2f eb 2e bd 67 22 fd 3d
       0.12912212 -0.00030629995 -0.042704757 0.12360077
000150 25 06 87 bd a8 97 97 3c f1 79 b8 3d 00 e9 f7 bd
       -0.06592969 0.018504933 0.090076335 -0.12104988
000160 62 cf 3a bd ff 92 70 bd 5c 32 c4 3c ec a2 f6 bd
       -0.045607932 -0.058733936 0.023949794 -0.12042794
000170 e9 5a 85 3d 10 1d e8 3d ce a9 26 be df 95 78 be
       0.0651148 0.11333668 -0.16275713 -0.24275921
000180 9a da 31 bd 74 41 1a 3e c0 9a d0 bd 8f 73 64 bd
       -0.043421365 0.15064031 -0.10185766 -0.055774268
000190 af 99 7c bd 74 40 7a 3d 36 dc 5b be ef f0 54 3e
       -0.06167 0.061096624 -0.21470723 0.20795034
0001a0 17 44 8f 3d 49 32 48 bc 98 c4 b1 3d 98 1a 30 3d
       0.06995409 -0.01221902 0.086800754 0.04299411
0001b0 e1 73 98 be b8 24 d8 3d cd 45 80 3d 8a 16 3e be
       -0.2977591 0.105538785 0.062633134 -0.18563285
0001c0 c7 88 19 3d 4b 44 23 3e 36 c0 62 be 58 36 62 bd
       0.037483957 0.1594402 -0.22143635 -0.055227607
0001d0 44 1b 37 be ca d2 ee 3d 60 20 e3 3c 34 13 96 3d
       -0.17881495 0.116612986 0.027725399 0.073278815
0001e0 4a a4 50 3e b3 0c 9b 3d ab a8 9f bd 6a 47 a5 bd
       0.20375171 0.075707816 -0.07795843 -0.08070262
0001f0 09 79 38 bd 12 a0 07 bc ee c5 5d 3e ad 05 0a be
       -0.045037303 -0.00827791 0.21657535 -0.13478728
000200 25 80 c3 3d 7c 24 00 bd 74 d4 28 bd 80 02 d7 bd
       0.09545926 -0.031284794 -0.041218236 -0.10498524
000210 20 83 2b bc b5 65 8e 3d ae f6 30 be 6e 05 1b 3e
       -0.010468274 0.06952993 -0.17281601 0.1513879
000220 4e d0 aa 3d 05 24 09 be 05 b4 3e 3d bc 06 0f be
       0.08340512 -0.13392647 0.0465584 -0.13967413
000230 aa 90 fa bd 85 37 2d 3e c1 8a bc 3d 62 73 a2 bd
       -0.12234624 0.1691571 0.09206153 -0.07932164
000240 a2 37 2c be 2e a6 44 3b c2 27 ea bc c2 c0 96 3d
       -0.16818097 0.0030006277 -0.028583411 0.073609844
000250 b8 2b 44 bc 69 22 b1 3d 37 c1 8f 3b a4 b6 35 3e
       -0.011973314 0.08649141 0.0043870467 0.17745453
000260 69 df ff bc c1 ab d2 bd 01 01 46 bd 54 8c 3e 3d
       -0.03123446 -0.10286666 -0.0483408 0.046520546
000270 62 ee 08 be 9d ce 1b bd d6 73 49 3d 15 1a 53 3e
       -0.13372186 -0.03803884 0.049182735 0.20615418
000280 2d 11 37 3e bc 83 4f 3e 2f 72 20 3e 7c 6f 77 39
       0.17877646 0.20265096 0.15668558 0.00023597287
000290 22 84 f7 bd 94 21 32 be 82 47 8e 3c 45 2c 92 3c
       -0.12085749 -0.17395622 0.017368082 0.017843375
0002a0 bf 3f ac bd f1 9a 67 be 28 57 84 bd c0 3b 95 3d
       -0.08410596 -0.22617699 -0.06461936 0.07286787
0002b0 c9 cd 42 be 01 9c 94 bd 1a 2b 18 3e b4 2e c5 bc
       -0.19023813 -0.07256318 0.14860192 -0.024070121
0002c0 52 9d 91 3d 73 d2 17 3e 5f e2 95 3d 85 39 87 bd
       0.071100846 0.14826374 0.073185675 -0.06602768
0002d0 36 53 db bd 31 68 20 be ea 17 21 bd ec 17 da bd
       -0.107092306 -0.15664746 -0.039329447 -0.10649094
0002e0 54 b5 24 3e cc a1 b5 bd 2e 53 a3 bc ae 06 f7 3d
       0.16084796 -0.08868751 -0.019937124 0.12061821
0002f0 95 58 90 bd 6f 81 e6 bb e0 c0 c5 3b 0a df fd 3c
       -0.07048146 -0.0070344727 0.0060349554 0.030990142
000300 5d 26 5c 3e 94 b1 60 bd 23 6d be bc d9 79 26 bd
       0.2149901 -0.05485685 -0.0232454 -0.040643547
000310 f0 58 18 be 6c e0 15 3e b7 e3 9a bc 42 e0 1a be
       -0.14877677 0.14636391 -0.018907411 -0.1512461
000320 68 77 a3 bc 41 68 fe 3c f9 2f 7b 3d 5e 9e f0 bd
       -0.019954398 0.031055572 0.061325047 -0.11748956
000330 41 25 c3 bb 50 4a d9 3c 73 1f 6c 3e 08 c2 49 3e
       -0.0059553687 0.026524693 0.23058872 0.19702923
000340 56 4c fa bd e2 1b 36 3b 54 bb 23 be 2b 19 ab 3d
       -0.12221591 0.0027787616 -0.15989429 0.0835441
000350 ec c3 02 be f7 89 32 be 73 ce de 3d 12 76 43 be
       -0.12770051 -0.17435442 0.10879221 -0.19088009
000360 4a d9 b5 3c 38 16 4d 3e ed ec 90 bd 0f 68 10 be
       0.022198338 0.20028007 -0.0707644 -0.14102195
000370 5b bf e7 bd 72 7c 76 3d d9 7a f1 3d b7 0c 84 bc
       -0.11315795 0.060177274 0.117910095 -0.016119344
000380 68 57 16 3e d6 1c 8c 3d 14 bf 95 3b 43 09 a3 3c
       0.1468178 0.068414375 0.0045698974 0.019901877
000390 b5 77 fe 3d b3 7c 2d bd 12 c3 13 bd 82 fc cc bd
       0.12425176 -0.04235525 -0.036074705 -0.100090995
0003a0 29 03 dc bd 1a a7 56 be 42 f2 27 3d 2d f7 d5 3d
       -0.1074279 -0.20962182 0.04100252 0.10447536
0003b0 cf d0 d9 3d 5b c6 dc 3d 88 52 54 3e 66 d3 de bd
       0.1063553 0.10780021 0.20734608 -0.10880165
0003c0 68 f6 27 3d 79 15 aa bd fe 61 c6 3c 15 eb 5a bd
       0.041006476 -0.08304877 0.024216648 -0.053446848
0003d0 27 66 59 be a7 07 b1 3d a2 58 03 3e 77 a7 eb 3d
       -0.21230374 0.08644038 0.1282678 0.11506551
0003e0 64 bd 55 3e fb b3 72 3e c5 db 9e bd 1e b3 bf 3d
       0.20873028 0.2370147 -0.077567615 0.09360336
0003f0 f2 c6 ab bd 59 de d8 3c d8 98 63 3e 06 b9 7a 3e
       -0.08387555 0.026473211 0.22226274 0.24484643

recurrent.spatial_attn.mha.v_proj.weight f4 [32, 32]
000000 6f 76 cb 3d 55 c1 1b bd 2c 21 2b 3e d3 ce bb 3d
       0.09934699 -0.038026173 0.16711873 0.09170308
000010 ed b2 90 3d 91 82 a1 3d 1f 81 1a be 2d 7d 4e bd
       0.070653774 0.07886232 -0.15088318 -0.050412346
000020 42 aa b8 3d e6 9b ef bd 34 5b eb bd d7 bd 63 be
       0.09016849 -0.11699657 -0.11492005 -0.22240387
000030 7b 15 75 bb 89 0e 5f be 1b ea 77 3e ea 4f 37 be
       -0.0037396837 -0.21782888 0.24210398 -0.17901579
000040 20 7f 3f 3e 70 fe 2c 3e 58 a3 1c 3d 7f c6 a1 3d
       0.18700838 0.16893935 0.038241714 0.07899188
000050 1b 14 2b be 5a c3 c8 3c 6d 94 bf bb cf 29 39 3d
       -0.16706888 0.024507213 -0.005846551 0.045205887
000060 a3 35 41 3e 56 1e 42 be 1e a7 79 bb 55 cf ad bd
       0.18868117 -0.18956885 -0.0038093994 -0.08486811
000070 c9 78 e7 bd 48 a1 e2 bd 7d ec 84 3d c3 15 2c be
       -0.11302335 -0.11065918 0.06490419 -0.16805176
000080 33 97 8b bc 40 d7 dd 3d 85 46 d6 3d de bb a9 3d
       -0.01703987 0.10832071 0.10462669 0.08287786
000090 6a 99 e7 3d 31 f2 58 be 4c 66 08 be 73 b8 03 3e
       0.11308558 -0.21186139 -0.13320273 0.1286333
0000a0 37 40 cb bd 47 f1 b8 bd 85 18 c0 bd 78 f8 b9 3b
       -0.099243574 -0.09030395 -0.09379677 0.0056753717
0000b0 5d c4 c7 bd 12 93 c1 3d ff f1 5d 3d f5 4a 12 be
       -0.0975425 0.094518796 0.054185864 -0.14286406
0000c0 5b 51 32 be f1 26 5c 3d 83 c8 a3 bd 1d 03 a8 3c
       -0.17413847 0.053748075 -0.07997229 0.020509297
0000d0 27 ba 63 be d3 d9 56 be 1b cf 9a bb 51 64 05 3e
       -0.2223898 -0.20981531 -0.004724396 0.13026549
0000e0 d3 44 5e 3e 8a 14 bb bd b9 3d 92 3d ec 65 00 3e
       0.21705942 -0.09134777 0.07140679 0.1253888
0000f0 ef bd 09 be 30 b1 3e be 04 3e a8 bc 3d 48 f6 3d
       -0.1345136 -0.18622279 -0.020537384 0.12025497
000100 91 48 48 bd 60 25 f6 bd a7 9f 0d be 6c 4b 45 3e
       -0.04889733 -0.120188475 -0.13830434 0.19267052
000110 da 88 0a be c1 9e 10 3d 22 25 da bd 2e 1f ae 3d
       -0.13528767 0.03530765 -0.10651614 0.08502041
000120 6d 57 82 bd ca 42 4c 3e 67 1a 12 3e 74 74 1a 3e
       -0.063643314 0.19947353 0.14267884 0.15083486
000130 55 85 31 bd 1c 38 8d 3d 32 62 19 be 3a a4 01 bc
       -0.043340046 0.06895468 -0.14978865 -0.00791269
000140 c6 4e 1e 3d 05 53 03 be f6 13 1b 3c cd 3b b6 3d
       0.038649343 -0.12824638 0.009465208 0.08898125
000150 11 47 5c 3e 14 75 58 3d b7 15 c5 bd 57 36 37 3e
       0.21511485 0.05284603 -0.096232824 0.17891823
000160 81 94 3b be f7 47 23 be cf 2b 2e 3c 68 98 8c 3d
       -0.18318368 -0.15945421 0.010630562 0.06865007
000170 e9 80 ec 3d 28 c3 45 3d d2 d5 90 bc db 27 93 bd
       0.11548025 0.04828182 -0.017680082 -0.07185336
000180 32 b7 63 3c 05 ec 9c 3d 50 0e e1 3d 4d f9 46 3d
       0.013898658 0.07662205 0.10989058 0.048577596
000190 cb 26 20 3e e5 c3 92 3d b5 0b f1 bd 2d 9f 0b bd
       0.15639798 0.0716627 -0.11769811 -0.03408735
0001a0 e8 52 44 3e 99 48 9e 3d 56 22 38 be ec 58 ae bd
       0.19172251 0.07728691 -0.17981848 -0.08513054
0001b0 33 88 10 bd 3c b9 89 bb eb 67 01 3e 99 83 8f bc
       -0.03528614 -0.00420299 0.12637298 -0.017518805
0001c0 53 a5 67 3e 82 e2 1b 3c bb 25 44 bc 76 e8 74 3d
       0.2262166 0.009514453 -0.011971886 0.059792005
0001d0 69 f3 94 3b c8 8a 8a bd e7 73 7d bd 8f 6f 3d be
       0.0045456183 -0.06764752 -0.06187811 -0.18499587
0001e0 c4 cb bc 3d fd c5 f2 3d e3 fe c0 bd 23 45 d7 bd
       0.09218553 0.118541695 -0.09423616 -0.10511234
0001f0 28 89 0d 3e 2d c5 53 be d5 c9 22 be b8 cd 7b be
       0.13821852 -0.20680685 -0.15897305 -0.24590194
000200 af 47 22 be 76 53 05 3e 60 38 c0 bd 51 7c 59 3e
       -0.15847658 0.13020119 -0.09385753 0.21238829
000210 55 58 49 3d 9f c6 19 3e 5e 26 7a 3d 69 f9 fd bd
       0.049156506 0.15017174 0.061071746 -0.12401087
000220 1c a9 b9 bd f5 b7 1b be b7 cc 23 3d 19 90 a4 3d
       -0.09065458 -0.15206893 0.039990153 0.08035297
000230 a8 8f 83 3d 63 79 d8 3d ad b1 f0 bd 8c ab f9 3d
       0.06423885 0.10570028 -0.11752639 0.12190923
000240 13 de 15 3e 4a 41 22 be 86 12 79 bd a5 b6 56 3d
       0.14635496 -0.15845218 -0.06080868 0.052420277
000250 70 31 af bd e7 a2 38 bd a9 16 e8 bd 8b df 70 bd
       -0.08554351 -0.04507723 -0.11332447 -0.058806937
000260 c7 8c 2b be 74 67 18 bd 8b 57 51 3e 3b ca e4 3d
       -0.16752921 -0.037208036 0.20443551 0.11171385
000270 9d e1 e2 3d 20 c2 2f 3e 49 0c 35 3e 55 85 c0 3c
       0.110781886 0.17163897 0.17680468 0.023501078
000280 2a 65 19 be 35 08 c7 3d 84 1e 2c bd ab 0a 00 bd
       -0.14979997 0.09718362 -0.04202129 -0.031260174
000290 15 39 03 be 3c 04 40 3d 2c 65 09 bd ad 95 36 be
       -0.12814744 0.04687904 -0.03354375 -0.17830534
0002a0 29 9e 00 3d 35 54 df bc e8 74 3a 3d aa cc b6 bd
       0.031400833 -0.027261833 0.045521647 -0.08925755
0002b0 a8 59 f3 bd 22 f5 7d bd 13 ca 3e 3e 79 86 37 bc
       -0.11882335 -0.062001355 0.18631773 -0.011201494
0002c0 cd e2 31 3d 87 04 05 3e de 01 aa bd 72 5a cd bd
       0.043429185 0.12990008 -0.083011374 -0.10027017
0002d0 f7 89 02 bd 7e 77 2f bd e8 91 76 3c 12 d7 43 be
       -0.031869855 -0.042838566 0.015049435 -0.19125012
0002e0 ff 9e 8b bd 54 ff a5 3d 71 40 38 3c 20 7f 9f 3d
       -0.068174355 0.081053406 0.011245833 0.07787919
0002f0 49 57 40 be 91 02 c3 bc 7a be 43 3e 4b 80 86 3b
       -0.18783297 -0.023804935 0.1911563 0.004104649
000300 4a 9f dc bd 1e 92 a8 bc bd 6c 22 3e af 02 a3 3d
       -0.107725695 -0.020577487 0.15861793 0.07959496
000310 ac 70 1d be 37 bc 5f be 59 3b e7 3c 1f bc b0 3d
       -0.15375012 -0.21849142 0.028226541 0.08629631
000320 3f 57 3d be 88 60 53 bd 92 c3 2f 3d 5d d5 08 bd
       -0.18490313 -0.05160573 0.04291112 -0.033406604
000330 f0 96 0b 3e 84 bc a4 3d 13 02 f3 3d b9 d0 42 be
       0.13631797 0.08043769 0.1186563 -0.19024934
000340 b9 86 1b 3e 4d e8 dd 3c cc 52 26 bd a2 a1 9a 3d
       0.15188111 0.027088309 -0.040606305 0.0755036
000350 b4 2e 28 3d d8 d2 e2 bd de 9b 8e bd 8a 14 28 be
       0.041060165 -0.110753715 -0.06963323 -0.16414085
000360 f0 6f 8b bd 7d 36 9b 3e 61 2f a0 3d 8d e5 11 3e
       -0.0680846 0.3031501 0.07821537 0.14247723
000370 d5 df 33 3e 16 e5 0d 3e e4 f9 5a 3d 8b 99 8d 3e
       0.17565854 0.1385692 0.05346097 0.27656206
000380 0e 62 b2 3d 71 69 e6 3d 80 c6 b8 bd 3d 84 91 be
       0.08710109 0.1125058 -0.09022236 -0.28421202
000390 86 88 ae 3d a0 f7 01 be bb e5 58 be f3 5d 9c 3d
       0.085221335 -0.12692118 -0.21181385 0.07635107
0003a0 66 97 5f 3d 91 39 05 3e 37 e5 31 be 7b bf de 3c
       0.054587744 0.13010241 -0.17372595 0.027190914
0003b0 8e e4 da bc 29 4f d7 3c ee b0 c3 bd 7a d1 53 be
       -0.026720311 0.026282864 -0.09555231 -0.20685378
0003c0 09 54 d7 bd 76 62 2e 3e 57 df 9e 3d 6a ee f7 3c
       -0.10514075 0.17029747 0.077574424 0.030265052
0003d0 b3 3a 19 3c c8 5e 5d 3d 09 bd 1e 3e c9 61 b6 bc
       0.009352374 0.05404547 0.15501799 -0.022263424
0003e0 01 ca 9c bb 52 60 cf 3d 0f c9 c3 3c dc 9b 6b bd
       -0.004784823 0.101257935 0.023899583 -0.057521686
0003f0 a6 27 13 3e c6 80 66 3e 45 a9 1b 3c cc 4a 0e bd
       0.14370593 0.2251006 0.009500806 -0.0347393

recurrent.spatial_attn.mha.subln.weight f4 [16]
000000 d2 ba 89 3f f9 bf 81 3f ad 45 86 3f 32 76 7f 3f
       1.0760138 1.013671 1.0490013 0.99789727
000010 01 17 85 3f 14 11 71 3f b3 2e 58 3f 37 4a 70 3f
       1.0397645 0.94166684 0.8444626 0.9386324
000020 bb 5f 8c 3f b2 a1 88 3f 9a 2a 78 3f fc 29 7b 3f
       1.0966715 1.0674345 0.96940005 0.9811094
000030 c7 b6 74 3f 1c 31 73 3f fb d7 87 3f 02 0c 74 3f
       0.95591396 0.9499681 1.0612787 0.9533082

recurrent.spatial_attn.ln2.weight f4 [32]
000000 19 81 7a 3f a6 35 7c 3f e8 13 7b 3f c9 29 6f 3f
       0.9785324 0.9851936 0.9807725 0.93423134
000010 34 6c 7a 3f 5d b7 77 3f cc bf 73 3f 3b 5f 7f 3f
       0.97821355 0.96764165 0.95214534 0.99754685
000020 7d 01 86 3f d9 cb 76 3f 62 ff 70 3f 15 05 7a 3f
       1.0469204 0.96404797 0.94139683 0.97664005
000030 e7 b0 83 3f 5f 01 88 3f 92 b4 7c 3f 5b bc 70 3f
       1.0288361 1.0625418 0.9871303 0.9403741
000040 3a 3c 88 3f 6f 62 65 3f d1 f8 73 3f 43 f5 79 3f
       1.064338 0.8960332 0.9530154 0.97639865
000050 18 ac 7a 3f 1c de 82 3f 4d 4e 6b 3f 41 73 6e 3f
       0.97918844 1.0224032 0.9191635 0.93144614
000060 db 9c 71 3f c3 9e 83 3f c1 24 7d 3f 84 8c 6f 3f
       0.9437997 1.0282825 0.98884207 0.93573785
000070 e8 39 6f 3f b5 87 5b 3f d0 92 81 3f 3e 52 62 3f
       0.9344773 0.8575395 1.0122929 0.8840674

recurrent.spatial_attn.ln2.bias f4 [32]
000000 8f db 04 3c f9 d7 3e 3d 59 b4 90 bd 15 52 6d bc
       0.0081089875 0.046592686 -0.070656486 -0.014484902
000010 68 2d 64 bc 33 66 9c 3d 1e 42 20 bd b4 33 e9 3b
       -0.013926841 0.076366805 -0.039125554 0.007116759
000020 d1 3b c5 3d ad 26 0b 3d 0c 18 70 bd 6a 33 f7 bc
       0.0963055 0.03397243 -0.058616683 -0.030175883
000030 c2 0f 8a bd bb fe 69 3c 8f 3d ed 3c d9 a3 02 bd
       -0.06741287 0.014281924 0.028960017 -0.03189454
000040 33 00 83 bd cd 13 30 3d db 41 44 bd bb 53 2a bb
       -0.063965224 0.042987633 -0.047914367 -0.0025989849
000050 ea 9b e6 bc 3a f3 59 bd 08 ed f6 3a df 3d 4d bc
       -0.028150517 -0.053210475 0.0018838951 -0.012526958
000060 d8 af dd 3b e7 86 bb bd 49 87 dd bd 5a 1b 41 3d
       0.006765347 -0.0915659 -0.10816819 0.047145225
000070 93 05 19 bd d8 a3 91 3d 1d e2 84 3d 78 0e 0d bd
       -0.03735883 0.07111329 0.0648844 -0.034437627

recurrent.spatial_attn.ffn.linear.weight f4 [32, 32]
000000 1c 90 96 3d 9a 7b 5a be a2 30 a0 bd 69 01 11 3d
       0.073517054 -0.21336213 -0.07821776 0.035401735
000010 73 d2 2d bd 36 b8 0d bd 12 b1 f6 3d 04 a8 8e bd
       -0.04243703 -0.034599505 0.12045492 -0.0696564
000020 50 ca 7c 3d 6a 3d 13 3d b3 7a 13 bd ac b5 4a 3e
       0.061716378 0.03594724 -0.036005687 0.19795865
000030 64 85 79 3e 3c bf af bc 56 47 c8 bd 22 81 3a be
       0.2436729 -0.021453492 -0.09779231 -0.18213323
000040 d6 20 31 3d 77 cd 6b 3d c5 aa a3 3d 7b bb 39 3e
       0.043244205 0.057568993 0.07991556 0.18137924
000050 15 3b 0c 3e 2d 0d 58 3e a8 ca 8c 3e f8 3f aa 3d
       0.13694413 0.21098776 0.27498364 0.08312982
000060 61 24 1e be 21 5e 57 bc 7e 6b fa 3d 48 21 4e 3d
       -0.15443565 -0.013145001 0.12227534 0.05032471
000070 53 c3 59 be ed 64 76 3d 17 75 fe 3c 67 b3 28 be
       -0.21265917 0.060154844 0.031061692 -0.16474687
000080 11 45 6f be 75 d0 1d be cf 0a 61 3e 51 25 ed 3c
       -0.2336619 -0.15411551 0.2197678 0.028948458
000090 3b 49 af 3d 06 a8 ea bc ce 8e b0 bd bb c6 1a 3e
       0.085588895 -0.028644573 -0.08620988 0.15114872
0000a0 8b 7c 2d 3e 8b 6b 22 be c1 77 09 be 49 2c 43 be
       0.1694204 -0.15861337 -0.13424589 -0.19059862
0000b0 c2 76 ed 3d d3 32 5b bc 12 20 76 be 37 b1 22 be
       0.11594917 -0.013378817 -0.24035671 -0.15887915
0000c0 02 99 46 bd 8a 6c 90 be e5 40 8e 3d 16 14 ec 3d
       -0.048485763 -0.2820781 0.069459714 0.115272686
0000d0 34 fa 51 3d de fa d1 3d cf bd 46 3e 2f 2a 96 3c
       0.051264003 0.10252927 0.19408344 0.018330662
0000e0 2d 43 a2 bd 8d 1b 4a be f8 3e 74 3d da dc 24 bd
       -0.07922969 -0.19737072 0.059630364 -0.040249683
0000f0 65 0a 7a 3d a6 6b 38 be f1 f8 1a be 20 56 17 be
       0.06104507 -0.18009815 -0.15134026 -0.14778948
000100 b1 d8 20 be 96 f5 c2 bd 99 9d 57 3e 66 8d 92 bd
       -0.15707661 -0.09519498 0.21056212 -0.07155876
000110 aa 3e 47 bd f9 10 2a 3e 2f c1 4a be d2 cf fe bd
       -0.048643745 0.16608037 -0.19800256 -0.12441982
000120 7a b9 10 3d 8c dd 73 3c 33 6e de bd 74 a1 1e be
       0.035333134 0.014884364 -0.108608626 -0.15491277
000130 e3 f1 7e 3d 94 74 50 be a7 cf 9b 3d c5 d3 3a bd
       0.0622424 -0.20356971 0.07607966 -0.045612115
000140 ed 4b b8 3c 70 44 aa bd 43 52 c9 3d fb 0c e3 bc
       0.022497142 -0.08313835 0.09830143 -0.02771615
000150 21 6b 8b bd ee 2b e9 bd 1c 47 99 3d fb e2 03 3e
       -0.068075426 -0.11385332 0.07484266 0.12879555
000160 c7 f4 36 be 3e 17 f3 3d da 09 02 be 29 59 62 3e
       -0.17866813 0.118696675 -0.1269907 0.22104324
000170 23 49 ea 3d e6 87 b6 3d 08 eb 50 be 8c e1 30 be
       0.11439731 0.08912639 -0.20402157 -0.1727354
000180 52 0e b2 3d 74 e4 81 3e d0 c1 cd bd 62 8d e4 3d
       0.08694138 0.25369608 -0.100467324 0.11159779
000190 c1 d3 d8 bd 5b 33 a6 3d 32 8d 79 3c 47 72 e0 3d
       -0.10587264 0.08115264 0.0152314175 0.10959297
0001a0 43 c6 d7 3d a1 50 8f 3d e0 cd 02 3e e1 a4 57 3d
       0.10535862 0.069978006 0.12773848 0.052647475
0001b0 98 1e 45 be b5 f9 d5 3d 84 e0 b3 bd cf 96 39 be
       -0.19249952 0.104480185 -0.08783057 -0.18123935
0001c0 59 48 fa bc 1f 5a de 3d 13 4a 16 3e d0 7c 44 bd
       -0.030552076 0.10857033 0.14676695 -0.047970593
0001d0 b9 65 a6 3d 28 63 6e 3e be be 55 3d 9d 94 e5 bd
       0.08124871 0.23280013 0.05218386 -0.11209986
0001e0 18 2a 0d 3d a4 d7 87 3c 4e 34 b8 bd 9b c7 65 be
       0.03446397 0.016582318 -0.08994351 -0.22439425
0001f0 9f 06 92 3c ad af 93 be ce 7e 0e be 36 c3 f0 bd
       0.017825423 -0.28844967 -0.1391556 -0.117559835
000200 88 02 d3 3d a6 d9 2d 3d d2 e3 7c 3d a6 98 10 be
       0.10303217 0.042443894 0.061740704 -0.14120731
000210 a4 df 2a 3c 44 b6 d6 3b c6 7d 1d bd f8 19 e0 3c
       0.010429297 0.0065524895 -0.038450025 0.027356133
000220 95 58 f3 3d 7f 39 c8 3d aa d5 18 3e df 8b a7 3d
       0.1188213 0.097765915 0.14925256 0.08180975
000230 ef 87 12 3e c0 e3 6b be 79 05 8b bd 34 91 eb 3d
       0.14309667 -0.23036098 -0.06788153 0.11502305
000240 6b 65 1a be f6 ea 3d be 90 4e 93 bd 83 d0 e2 bd
       -0.1507775 -0.18546662 -0.07192719 -0.11074927
000250 f2 88 90 bd 4c 5b 1d be e8 31 0d bd de 64 50 be
       -0.0705737 -0.15366858 -0.034471422 -0.20350978
000260 d9 31 2d be 5f f9 bd bd 9d d6 9d bd 8e a0 a0 3d
       -0.16913547 -0.092760794 -0.0770695 0.078431234
000270 70 dc 51 bc d0 45 fd bd bc 63 de bd 84 cf 5f be
       -0.012808904 -0.12366831 -0.108588666 -0.21856505
000280 e3 c1 c3 bd 28 f4 cb bd 34 d5 18 3e 40 fc b1 bd
       -0.09558465 -0.099586785 0.1492508 -0.08690691
000290 c4 44 0d 3e 91 4c 80 bc 29 67 bf 3d a1 af 1b 3e
       0.13795763 -0.01566151 0.09345848 0.15203716
0002a0 6a 74 50 be dd fe 86 3d 93 3c 07 3d 62 c3 77 3d
       -0.20356908 0.0659158 0.033016752 0.060489066
0002b0 a2 a8 7c bd 05 47 a9 3d 80 aa 58 3d 64 de 9c bd
       -0.06168426 0.08265499 0.052896976 -0.07659605
0002c0 bf ba 29 bd 47 e4 3a bd b4 de ae bd 9d 50 3c 3d
       -0.04143786 -0.04562786 -0.08538571 0.045975316
0002d0 c8 4b bf 3d 8d bd 8d 3d 9d 0d d5 bd f1 3a f0 bb
       0.09340626 0.069209196 -0.10402987 -0.007331245
0002e0 8c a7 06 be d0 eb de 3c f0 c3 be bc 8b 5a 09 bd
       -0.13149852 0.027212054 -0.02328679 -0.033533614
0002f0 ae 50 a2 3d e9 6f c2 bc 13 d2 25 be f0 f5 bc 3c
       0.07925545 -0.023735004 -0.16193418 0.02306649
000300 d9 31 48 be 9f 7a d5 3d 23 59 21 3e 9a 63 76 3d
       -0.19550265 0.10423779 0.15756659 0.06015358
000310 49 9f 97 3d a7 62 6c bd a7 5e a1 bd 8f 17 c3 bd
       0.07403428 -0.05771127 -0.078793816 -0.09525978
000320 76 f3 91 3d f4 bc da bc 70 89 4e be b2 20 6d 3c
       0.071265146 -0.026701428 -0.20169616 0.014473127
000330 fd 07 71 3e 97 b7 2b 3e 61 2b 99 3d be 0e 1f be
       0.23538204 0.16769253 0.07478977 -0.15532967
000340 7c 79 19 bd bb 2a 9b 3c 4b 87 28 be b7 f4 71 3e
       -0.037469372 0.018941274 -0.1645786 0.23628508
000350 98 c9 53 3e d1 54 fa 3c 60 19 11 3e 6a 93 d6 bc
       0.2068237 0.030558022 0.14169836 -0.02619334
000360 a0 51 14 be 61 bb f7 3d a0 62 fa 3d 34 6c 70 bd
       -0.14484262 0.120962866 0.122258425 -0.05869694
000370 3b 2e a9 3c 3c e1 a4 bc 58 dc 71 bd d8 f8 9e bc
       0.020651927 -0.020126931 -0.059048027 -0.019405767
000380 f4 21 e3 3d 68 d4 fd bd 04 21 00 3e 62 4a ed bd
       0.110904604 -0.12394029 0.12512594 -0.11586453
000390 e1 01 b2 3d e0 36 12 3e b9 23 1f 3e d7 5c 86 bd
       0.086917646 0.14278746 0.15540971 -0.065606765
0003a0 98 f8 7d bd db bf 0e bd 7d d0 d8 bd 73 3b 38 3d
       -0.062004656 -0.034850936 -0.10586641 0.04497857
0003b0 e6 7f 4f 3e 9b ac 20 3d 25 ed d7 bd a4 e0 9c bd
       0.20263633 0.03922711 -0.105432786 -0.07660034
0003c0 76 55 e2 3d 6c 22 04 be e7 0f 12 bc ad 5f eb 3d
       0.11051457 -0.12903756 -0.008914924 0.11492858
0003d0 d5 d5 50 3e a1 c6 45 3e 9d 08 21 bd 9e 68 d1 3c
       0.2039407 0.19314052 -0.039314855 0.02556258
0003e0 75 9d 65 be 02 9b 29 bd 28 3c 65 bd dd 3a 6f bd
       -0.22423346 -0.041407593 -0.055965573 -0.058405746
0003f0 fc 77 8c bd c8 15 83 bd 0a f9 31 be 24 f6 57 bd
       -0.06858823 -0.06400639 -0.17380157 -0.052724972

recurrent.spatial_attn.ffn.linear.bias f4 [32]
000000 72 04 01 3c e8 0d 89 3d 45 15 ec 3d 07 6a 4d 3c
       0.007874595 0.066921055 0.11527494 0.012537486
000010 f7 79 da bc d9 bd a6 bd a4 81 e4 bd f9 3b 2d 3d
       -0.026669485 -0.08141679 -0.111575395 0.042293523
000020 d6 60 c9 3c e1 43 e0 3c 13 d9 3e be 48 11 29 be
       0.024582308 0.027376117 -0.18637495 -0.16510499
000030 54 68 bc 3d 64 56 34 be 28 37 e7 3d 99 8b 78 3d
       0.091995865 -0.1761108 0.11289817 0.060680006
000040 3f 62 a1 3d 9b 20 9e bd b2 53 8d bd 7e 69 67 be
       0.07880067 -0.07721063 -0.06900729 -0.22598836
000050 ca b5 96 bd 66 b6 5c bd 7b 71 8d be 1f f4 03 be
       -0.07358892 -0.053884886 -0.2762564 -0.12886094
000060 37 78 ac bc 8d 59 ab bd 61 57 06 be 2b e4 01 bd
       -0.021053417 -0.0836669 -0.1311927 -0.03171174
000070 8d f0 e2 bd 6e 6d f0 bc ca 65 c8 bd 58 67 56 bd
       -0.11081038 -0.029349055 -0.0978504 -0.05234465
