GraphTransformer_mi_dual_diff.pth (torch, 136462 bytes, 31 tensors)

recurrent.input_proj.weight f4 [32, 1]
0	0x3d1b1ddf	0.037870284
1	0x3ee3b8a4	0.44476807
2	0xbe2fc7ba	-0.17166033
3	0x3f6787fd	0.90441877
4	0x3f3cfa99	0.7381988
5	0xbefc26fe	-0.492485
6	0x3f7723e3	0.96539134
7	0xbdd2a502	-0.10285379
8	0xbf804e88	-1.0023966
9	0xbf430c5b	-0.7619073
10	0xbf8a5cb4	-1.0809541
11	0x3e5733b5	0.21015818
12	0xbea0307c	-0.3128699
13	0xbf046158	-0.51711035
14	0x3faf605f	1.3701285
15	0x3c91fc86	0.017820608
16	0x3e79a53b	0.24379437
17	0xbd5c3ca2	-0.05376876
18	0x3f87f5c7	1.062188
19	0x3ecb9889	0.39764813
20	0x3fbef767	1.4919251
21	0xbfa5b5bd	-1.2946087
22	0xbf7078f4	-0.9393456
23	0x3ee82d7e	0.45347208
24	0xbdc48860	-0.09596324
25	0x3fa75d2a	1.3075306
26	0x3f0d9766	0.5530914
27	0x3cc99574	0.024607398
28	0x3f7a10a9	0.9768167
29	0x3fa6aa5a	1.3020737
30	0xbf670d7a	-0.9025494
31	0x3f8d98b8	1.1062231

recurrent.input_proj.bias f4 [32]
0	0xbe0373b3	-0.12837104
1	0xbe4d05d1	-0.2002175
2	0xbc134edb	-0.008990969
3	0xbf34f77f	-0.7069015
4	0xbfa086c2	-1.2541125
5	0xbf450b0c	-0.7696998
6	0xbf2ea154	-0.6821492
7	0x3ecc682f	0.39923236
8	0xbea2a350	-0.31765223
9	0x3edf5002	0.4361573
10	0xbf112179	-0.566917
11	0x3f577b03	0.84172076
12	0xbf2a1cad	-0.66450006
13	0x3f1a9095	0.60376865
14	0x3ee0449d	0.43802348
15	0x3ed40e18	0.41417003
16	0x3e69c71a	0.22829857
17	0xbf88b290	-1.0679493
18	0x3eb03a1b	0.3441933
19	0x3c8da97d	0.017292732
20	0x3f8b0573	1.0861038
21	0x3f4b8bb2	0.79510033
22	0xbe5ba633	-0.21450119
23	0x3eda8ff9	0.42687967
24	0xbf7301fd	-0.9492491
25	0x3dcb20ea	0.09918387
26	0x3ea7154d	0.3263344
27	0x3f00e764	0.50353074
28	0x3ede5854	0.43426764
29	0xbe095f1e	-0.1341519
30	0xbe9d0e81	-0.30675128
31	0x3f3b259e	0.73104274

recurrent.time_embedding.weight f4 [128, 32]
0	0x3f35fa33	0.710849
1	0xbfdbb0b2	-1.7163298
2	0xbd9e73b7	-0.077369146
3	0x3fedbfe3	1.8574184
4	0xbf0a8929	-0.5411554
5	0xbf4f5ab0	-0.80997753
6	0x3f6ccbcf	0.9249849
7	0xbe43bc1b	-0.19114725
8	0x3d0f4df3	0.034986448
9	0xc0050f62	-2.079064
10	0xbec2c8d3	-0.38043842
11	0x3f7eda09	0.99551445
12	0xbf97f8a2	-1.1872752
13	0x3f91762d	1.1364189
14	0xbf35d1bb	-0.7102315
15	0xbf8dc0f7	-1.1074513
16	0xbf41043c	-0.75397086
17	0x3ca42cd4	0.020040907
18	0xbe7969fc	-0.24356836
19	0xbf3a1fe3	-0.72704905
20	0x3f6e20eb	0.9301898
21	0x3f0a3c4a	0.53998244
22	0x3f137029	0.5759302
23	0x401b3159	2.424887
24	0x3fcf289a	1.6184266
25	0x3e40f5b0	0.18843722
26	0x3ea40898	0.32037807
27	0xbf685b4d	-0.90764314
28	0x3f3ffc5f	0.7499446
29	0x3f992f43	1.1967548
30	0x3ea555ca	0.32292014
31	0x3f319d2b	0.69380444
32	0xbcd14725	-0.02554662
33	0x3f51502c	0.8176296
34	0x3eea179a	0.45721132
35	0xbfa9deea	-1.3271153
36	0xbf25517a	-0.6457745
37	0xc034f608	-2.8275166
38	0x3fb55eb9	1.4169532
39	0xbf99e4c1	-1.2022935
40	0xbf35d0a0	-0.7102146
41	0x3f6d9f24	0.92820954
42	0xbdb56bc8	-0.08858448
43	0xbfecb6b0	-1.8493252
44	0x3d9a9283	0.07547476
45	0x3ffa51a5	1.9556166
46	0x3dda227c	0.106511086
47	0xbda7a5a4	-0.0818589
48	0xbf552ef5	-0.83274776
49	0x3f85a4b8	1.0440893
50	0xbe775bef	-0.24156164
51	0xbf8ababf	-1.083824
52	0x3fb858b8	1.4402075
53	0x3faafa9c	1.335773
54	0xbda33cd2	-0.07970585
55	0x4003c944	2.0591593
56	0xc0113ae6	-2.2692199
57	0x3dda2be3	0.10652902
58	0xbf801c87	-1.0008706
59	0xbefcae86	-0.493519
60	0x3fccc4db	1.5997576
61	0xbf04c397	-0.51860946
62	0xbed3a1fb	-0.4133452
63	0xbec90b7a	-0.39266568
64	0xbead95a5	-0.33903232
65	0x3ee72b8d	0.45150414
66	0x3f1adfbc	0.6049764
67	0xbea4a739	-0.3215883
68	0xbfb846fc	-1.4396663
69	0xbf9aa9e5	-1.2083098
70	0x3f58699a	0.84536135
71	0xbf303199	-0.6882568
72	0xbebf8a69	-0.37410286
73	0xbc28f164	-0.010311458
74	0x3e8a7a28	0.27046323
75	0xbfa836a4	-1.3141675
76	0xbe97bf76	-0.2963826
77	0x3eda00c2	0.42578703
78	0xbdff9507	-0.124795966
79	0x3f0be8fd	0.54652387
80	0xbeef478d	-0.46734276
81	0x3f56770c	0.837754
82	0x3ec82ab3	0.39095077
83	0xbf938f9a	-1.1528199
84	0xbe9ff2b1	-0.31239846
85	0x3e9847d4	0.297423
86	0xbfa49dfc	-1.2860713
87	0x3e9a2489	0.30106
88	0x3ec70682	0.38872153
89	0x3e802df7	0.25035068
90	0x3ee1ea4a	0.4412406
91	0xbf811d5d	-1.0087086
92	0xbdde1081	-0.108429916
93	0x3e801f03	0.2502366
94	0xbdf596cc	-0.11991653
95	0xbe1cb9fa	-0.1530532
96	0xbf063446	-0.5242351
97	0xbfcd7141	-1.6050187
98	0x40063185	2.0967724
99	0xbfe2b035	-1.7710024
100	0xbd4e7928	-0.050408512
101	0x3fc82f4f	1.5639437
102	0x3dbd1750	0.09232962
103	0x3ca7bc9d	0.02047568
104	0xbf902e7f	-1.126419
105	0xbf06fd6e	-0.52730453
106	0x3fe03165	1.7515074
107	0xbf317144	-0.69313455
108	0x400f7e2f	2.2420766
109	0x3df8a403	0.12140658
110	0x3f913ea5	1.1347243
111	0x3f988c85	1.1917883
112	0xbf5ec900	-0.8702545
113	0xbd4c05cf	-0.049810227
114	0x3eda44b8	0.42630553
115	0xbfeba7a2	-1.8410532
116	0x3f22c05e	0.6357478
117	0x3f811fa0	1.0087776
118	0xbf9090e6	-1.129422
119	0x3f1fc8f4	0.62416005
120	0x3f997364	1.198834
121	0xbdbf54f2	-0.09342374
122	0xbf9d7428	-1.2301073
123	0xbed898d3	-0.42304096
124	0xbf06b32e	-0.52617157
125	0xbe1646d9	-0.14675464
126	0x3ea00696	0.31255025
127	0x3e365824	0.1780706
128	0x3e95906e	0.29211754
129	0xbdb91c96	-0.090386555
130	0x3fdba6fe	1.7160337
131	0x3ef1b359	0.47207144
132	0xbd115ab4	-0.035486892
133	0xbdd2779f	-0.10276722
134	0xbdfd87a8	-0.1237939
135	0x3f4f5c9c	0.81000686
136	0x3eabc2f1	0.33547166
137	0x3eab0715	0.3340384
138	0xc00e44af	-2.222942
139	0x3fa70985	1.304978
140	0x40078dd9	2.1180327
141	0xbfa670ec	-1.3003211
142	0xbf427262	-0.75955784
143	0x3edcf84c	0.43158185
144	0x3d201f20	0.039092183
145	0xbf58ea8f	-0.8473291
146	0x3da6863d	0.08131073
147	0x3f2e038a	0.6797415
148	0x3f1101a5	0.56643134
149	0xbe2e4be0	-0.17021132
150	0xbeda2fee	-0.42614692
151	0x3ed81fcf	0.42211768
152	0x3f034f3e	0.5129279
153	0xbe9b9ab1	-0.30391458
154	0xbf18dd94	-0.597131
155	0xbe4b63d3	-0.19862299
156	0xbd9b4cca	-0.07583006
157	0x3e5fa92b	0.21841876
158	0xbef8cafa	-0.4859236
159	0xc00215b8	-2.0325756
160	0x3f28be31	0.6591521
161	0xbd0d2890	-0.03446251
162	0x3f5d6b7c	0.86492133
163	0x3e939779	0.28826502
164	0xbebe3377	-0.3714864
165	0xbf1c6de0	-0.61105156
166	0x3f9eef49	1.2416774
167	0xbdffc618	-0.12488955
168	0xbfeab1b2	-1.8335478
169	0x3ee8abb7	0.45443508
170	0x3e2b5995	0.16733392
171	0xbf806ed1	-1.0033818
172	0x3f10cef5	0.5656579
173	0xbf708aa5	-0.93961555
174	0xbe85a24c	-0.26100385
175	0x3fb9489a	1.4475281
176	0x3f18309c	0.5944917
177	0xbe4f769a	-0.20260087
178	0xbec909a1	-0.3926516
179	0xbf702ee4	-0.9382155
180	0x3f9aa185	1.2080542
181	0xbe0e2ff3	-0.13885479
182	0x3edd51ce	0.43226475
183	0xbf367ea4	-0.7128699
184	0x3f419f9a	0.7563416
185	0xbf7cd12d	-0.98756677
186	0xbf05f8dc	-0.52332854
187	0x3e02203c	0.12707609
188	0xbf1989f2	-0.5997611
189	0x3f0ede8b	0.55808324
190	0xbde37802	-0.11106874
191	0xbfa985f8	-1.3244009
192	0x3f85aa16	1.0442531
193	0x3e720975	0.2363642
194	0xbfc5a3d2	-1.5440619
195	0x3d133cbb	0.03594659
196	0xbf8145f7	-1.0099477
197	0xbf968b1b	-1.1761202
198	0x3fb9867c	1.4494166
199	0xbf115ba4	-0.5678046
200	0xbef12abe	-0.47102922
201	0xbef5c776	-0.4800374
202	0x3eb15928	0.34638333
203	0xbf936f3a	-1.1518319
204	0x3ec605a8	0.3867619
205	0x3d7517d9	0.059837196
206	0xbeaa2b22	-0.33236033
207	0x3e91b88f	0.2846112
208	0xbfad14b1	-1.352194
209	0xbf6811e2	-0.90652287
210	0x3f5784e5	0.84187156
211	0x3f9ccb48	1.2249537
212	0xbef88db2	-0.48545605
213	0x3f482e9b	0.78196114
214	0x3ebc761d	0.36808863
215	0xbfa73bb1	-1.3065091
216	0x3dd158df	0.10222029
217	0x3eee0cad	0.46494046
218	0x3e869f8b	0.26293597
219	0x3f710f3e	0.9416388
220	0xbf0d9728	-0.5530877
221	0x3f9d68ae	1.2297571
222	0xbf92aabb	-1.1458353
223	0x3f6b893d	0.92006284
224	0xc03e1c8b	-2.9704921
225	0xbff27979	-1.894332
226	0xbfbca20f	-1.4736956
227	0xbed789f7	-0.42097446
228	0xbf54f1c4	-0.83181405
229	0x3ebd857d	0.37015906
230	0xbcbf555c	-0.023356132
231	0xbf6ee611	-0.93319803
232	0xbe357e61	-0.17723991
233	0xbf68a65c	-0.90878844
234	0xbf82359c	-1.017261
235	0x3d41b78b	0.04729418
236	0xbed9159a	-0.42399293
237	0x3d6405f4	0.05566974
238	0xbe9d70d8	-0.30750155
239	0x3eda68d1	0.42658094
240	0x3e42b9d5	0.19016202
241	0x3fc4bac6	1.5369499
242	0x3d905036	0.07046549
243	0x401d9766	2.4623656
244	0x3e738227	0.23780118
245	0xbe81a534	-0.25321352
246	0xbf5f0b4b	-0.87126607
247	0x3ec2e8ba	0.3806818
248	0xbf2f31a9	-0.6843515
249	0xbe1b782b	-0.15182559
250	0x3eaf269a	0.34209138
251	0x3e495932	0.19662932
252	0xbf05b3a9	-0.52227265
253	0x3f035be0	0.51312065
254	0x3f618555	0.88094074
255	0x3d6ea361	0.05826128

recurrent.stock_embedding.weight f4 [472, 32]
0	0x3f59436b	0.84868497
1	0xc00ed704	-2.2318735
2	0xbee55f28	-0.4479916
3	0x3f43d881	0.76502234
4	0x3f2988cc	0.6622436
5	0xbf746b80	-0.9547653
6	0x3e3c8cdf	0.18413113
7	0x3eae6c39	0.34066942
8	0x3f0de723	0.5543081
9	0xbed2036d	-0.4101824
10	0x3e80c383	0.25149164
11	0xbdedfd3e	-0.11620568
12	0xbd8b6a2e	-0.068073615
13	0x401f3cf6	2.4880958
14	0x3c2abb6f	0.010420664
15	0x3f35a435	0.70953685
16	0xbf7daa59	-0.99088055
17	0xbdec26d1	-0.11530841
18	0xbfc30862	-1.5236933
19	0xbe288e9e	-0.16460654
20	0x3d94d6a6	0.072675034
21	0x3e1f6495	0.15565713
22	0x3d0b6c07	0.03403857
23	0x3f3a04ef	0.7266378
24	0x3f9f33f9	1.2437736
25	0x3e649af6	0.22324738
26	0xbd822eab	-0.063565575
27	0xc014364b	-2.3158138
28	0xbeef772c	-0.46770608
29	0x3ef9c807	0.4878542
30	0x3cb64b26	0.02225263
31	0x3fb9706e	1.4487436
32	0xbf3bbbb4	-0.7333329
33	0x3f989748	1.1921167
34	0x3d1a2c85	0.037640113
35	0xbf07f125	-0.5310233
36	0xbe49d02f	-0.19708322
37	0x3bb6df98	0.0055808537
38	0x3f692881	0.9107743
39	0xbf3cdc39	-0.73773533
40	0x3ef47b63	0.47750387
41	0x3d765e2b	0.0601484
42	0x3dd2f18c	0.10299978
43	0x3f3c31f8	0.73513746
44	0xbe27ed6c	-0.16399163
45	0xbf97c29a	-1.1856263
46	0xbf2988fb	-0.6622464
47	0x3dbda218	0.092594326
48	0xbf24c0da	-0.6435677
49	0x3d776d96	0.060407244
50	0xbd86a21e	-0.0657389
51	0x3efcf975	0.4940907
52	0x3f8739df	1.0564536
53	0xbe58b64b	-0.21163289
54	0xbed30f04	-0.41222394
55	0xbf4a7b86	-0.7909473
56	0x3f81bd6e	1.0135934
57	0xbefb919a	-0.49134523
58	0xbf9ed4ca	-1.2408688
59	0x3ea14358	0.31496692
60	0xbe885d4b	-0.26633677
61	0x3f52303c	0.8210485
62	0x3f4cb5a4	0.7996466
63	0xbd675d48	-0.056485444
64	0xbf86e235	-1.0537783
65	0x3ee4e903	0.44709024
66	0xbdfcdde2	-0.12347008
67	0xbeea6348	-0.4577887
68	0x3f8acbdf	1.0843467
69	0xbf66eca3	-0.9020483
70	0xbf94833c	-1.160255
71	0x3e14ecc0	0.14543438
72	0x3df5d549	0.120035715
73	0xbe649d36	-0.22325596
74	0x3edb5cf5	0.42844358
75	0x3e14fd7d	0.14549823
76	0xbd25c5da	-0.04047189
77	0x3f152b7f	0.58269495
78	0x3ed6da00	0.41963196
79	0xbfd2d541	-1.647133
80	0x3e3516a5	0.1768442
81	0xbfa4fbdc	-1.2889361
82	0xbdf8d1ee	-0.12149416
83	0x3f453802	0.77038586
84	0xbf2cb833	-0.67468566
85	0x3db21ddb	0.08697101
86	0x3e5eecbd	0.21769996
87	0xbd9e280c	-0.07722482
88	0x3f03fe3a	0.51559794
89	0x3fdf9417	1.7467068
90	0xbf7a965a	-0.9788567
91	0xbefc2f0f	-0.49254653
92	0xbf1e9fec	-0.6196277
93	0x3f093e62	0.53610814
94	0x3f19d797	0.6009459
95	0xbfd68818	-1.6760283
96	0xbe0a3b73	-0.1349924
97	0xc005ef8e	-2.0927463
98	0x3ea54597	0.32279655
99	0x3fe7eee8	1.8119783
100	0x3ee03707	0.43791983
101	0xbf0cbd12	-0.54976
102	0x3f720cba	0.9455067
103	0x3d557306	0.052111648
104	0xbfebe164	-1.8428159
105	0x3d9cd2af	0.07657372
106	0x3e69a568	0.22817004
107	0xbe84a808	-0.25909448
108	0xbeba2675	-0.36357465
109	0xbd947555	-0.07248942
110	0x3e6f7a9b	0.23386614
111	0x3f9302ab	1.1485189
112	0xbfc6a279	-1.5518333
113	0x3dfcfde2	0.12353112
114	0xbe61ec22	-0.22062734
115	0xbe54adfe	-0.20769498
116	0x3f7f7003	0.9978029
117	0x3f2438be	0.6414908
118	0xbf71d4a2	-0.94465077
119	0x3fa6388e	1.2986009
120	0xbdd2b17b	-0.10287758
121	0xbf635fa9	-0.8881784
122	0xbe48be7f	-0.19603918
123	0x3ef0e740	0.4705143
124	0xbec78ede	-0.38976187
125	0xbfa9ca23	-1.3264812
126	0x3cca9b82	0.024732355
127	0x3f2fb85e	0.68640697
128	0x3ede8bc8	0.4346602
129	0x3d5a4628	0.053289562
130	0x3f1336a8	0.57505274
131	0x3fcee7a0	1.6164436
132	0xbec75345	-0.38930717
133	0xbf6311ae	-0.8869885
134	0x3cc512ec	0.024056874
135	0x3ecfc5e7	0.40580675
136	0xbf6e9d92	-0.93209183
137	0x3ecc3fc7	0.39892408
138	0xbf3bdfcb	-0.73388356
139	0x3f861955	1.0476481
140	0x3f2f1bdc	0.68401885
141	0xbde1c80f	-0.11024486
142	0xbd919d0a	-0.07110031
143	0xbffc8a1f	-1.9729651
144	0xbeccffeb	-0.40039
145	0xbf32c2d3	-0.6982853
146	0xbfc19ac2	-1.5125353
147	0x3fe6c058	1.8027449
148	0x3fdb2787	1.7121438
149	0x3f9858f5	1.1902148
150	0x3f5c22c0	0.85990524
151	0xbe05e270	-0.1307466
152	0x3f8988aa	1.0744832
153	0x3cca4c41	0.024694564
154	0xbfd87539	-1.6910774
155	0x3f20194c	0.625386
156	0xbfb8ba93	-1.4431938
157	0xbce805e0	-0.028323114
158	0xbe30312f	-0.17206262
159	0x3fd62eb7	1.6733006
160	0x4015588d	2.3335297
161	0xbf4018e7	-0.75038
162	0x3f0fdd1f	0.5619678
163	0xbf7d4517	-0.9893355
164	0xbe9ee231	-0.31031945
165	0xbf8e8c99	-1.1136657
166	0x3f3c68d5	0.7359746
167	0xc01dc47c	-2.4651175
168	0x3ee5bc7e	0.4487037
169	0x3fa42418	1.2823515
170	0xbf6f7d11	-0.9355021
171	0xbf910a9c	-1.1331363
172	0xbececcf5	-0.40390745
173	0x3f93681c	1.1516147
174	0x3d4878c2	0.04894329
175	0x3fc9750c	1.5738845
176	0xbe4a5378	-0.19758403
177	0x3fb06af1	1.3782636
178	0xbe467756	-0.1938146
179	0xc0055136	-2.0830817
180	0x4007db76	2.1227698
181	0x3ef481b1	0.47755197
182	0x3f9fc3c9	1.2481624
183	0xbf329e5f	-0.69772905
184	0x3d8c6463	0.06855085
185	0xbe4890e7	-0.19586526
186	0x3f2988a0	0.662241
187	0xbf27fc85	-0.6561969
188	0xc001335c	-2.0187597
189	0xbf030aac	-0.5118816
190	0x3f28a2c6	0.6587337
191	0x401008ca	2.2505364
192	0xbd88666d	-0.06660161
193	0x3f35eda8	0.7106576
194	0xbf3cf764	-0.7381499
195	0xbe85d63e	-0.26140016
196	0xbc665e65	-0.014060591
197	0x3f36bb29	0.71379334
198	0x3c8ae39e	0.01695424
199	0x3f267931	0.65028673
200	0x3f805882	1.002701
201	0x3f61d477	0.8821482
202	0x3f488317	0.7832503
203	0x3ee0d56a	0.43912822
204	0x3ea78127	0.32715723
205	0x3e29b167	0.1657158
206	0xbf33f6aa	-0.70298254
207	0xbf2a50d9	-0.66529614
208	0xbd02a97e	-0.03189992
209	0xbe88d2aa	-0.26723224
210	0x3eafe27e	0.34352487
211	0xbfb0eee6	-1.3822906
212	0x3f92653e	1.1437147
213	0xbeb7b39c	-0.3587922
214	0x3e042671	0.12905289
215	0x3d8e6729	0.0695327
216	0x3f4a2f8a	0.7897879
217	0xbe2d76d9	-0.16939868
218	0xbeff22a9	-0.4983113
219	0xbe9b8885	-0.30377594
220	0x3dca7eb4	0.09887448
221	0xbcd5099f	-0.026005564
222	0xbe4bd38c	-0.19904917
223	0x3f8af059	1.0854598
224	0xbfa667f3	-1.3000473
225	0xbff08dc4	-1.8793263
226	0x3c981100	0.018562794
227	0x3e26c96e	0.16287777
228	0xbf01fac9	-0.5077329
229	0x3ea2e457	0.31814834
230	0x3e9bab56	0.30404156
231	0xbff9285b	-1.946544
232	0x3fd0dcd5	1.6317393
233	0xbf89931a	-1.0748017
234	0x3fbd7c0e	1.4803483
235	0x3f23b104	0.6394198
236	0x3e0466ed	0.12929888
237	0xbed07ebf	-0.407217
238	0xbe9ea1b3	-0.30982742
239	0xbf53cd8b	-0.8273551
240	0x3f642a8a	0.8912741
241	0xbc898376	-0.016786318
242	0x3f0bf395	0.5466855
243	0x3fcbae53	1.5912575
244	0x3f05a4a3	0.5220434
245	0xbee198fe	-0.44062036
246	0x3de04450	0.109505296
247	0x3e2f862e	0.17141029
248	0x3f25a5d1	0.6470614
249	0xbe061c55	-0.13096745
250	0x3f1d7222	0.6150228
251	0xbf66e29b	-0.9018952
252	0x3ee5ffb9	0.44921663
253	0xbf9c33c4	-1.2203298
254	0xbf45a26c	-0.7720096
255	0xbfe2d25e	-1.7720449

recurrent.spatial_attn.mha.lambda_q1 f4 [8]
0	0xbe283160	-0.16425085
1	0x3d9d2c8c	0.07674512
2	0x37e62e62	2.7439735e-05
3	0xb8f7dd37	-0.00011819082
4	0xb8cb3932	-9.690448e-05
5	0x3d108820	0.03528607
6	0x3746aaf7	1.18415255e-05
7	0x384a18ae	4.8183538e-05

recurrent.spatial_attn.mha.lambda_k1 f4 [8]
0	0xbd83b9c8	-0.06431919
1	0x3bce3120	0.0062924773
2	0xb87c7351	-6.018888e-05
3	0x387b0b8a	5.985381e-05
4	0x39353dd6	0.00017284541
5	0xbcf689a4	-0.030094929
6	0x37c23062	2.3149132e-05
7	0xb88bf79b	-6.6741566e-05

recurrent.spatial_attn.mha.lambda_q2 f4 [8]
0	0x3ba7dcb9	0.0051227477
1	0x3de4d8e3	0.1117418
2	0x3da6037d	0.08106134
3	0x36a14828	4.806574e-06
4	0x3a4f164a	0.00078997447
5	0xbc97d018	-0.018531844
6	0x3b97a3b6	0.00462767
7	0x3bb86999	0.0056278226

recurrent.spatial_attn.mha.lambda_k2 f4 [8]
0	0xbcbe903a	-0.023262132
1	0xbe076c1b	-0.13224833
2	0xbca4029e	-0.02002078
3	0x36aa8026	5.0813132e-06
4	0x39fcddae	0.0004823035
5	0x3d2e76b6	0.04259368
6	0xb90e4f84	-0.00013571797
7	0xbd2d1075	-0.042252023

recurrent.spatial_attn.mha.q_proj.weight f4 [32, 32]
0	0xbdd1c1a4	-0.10242012
1	0xbe17a6a3	-0.1480966
2	0xbe39754a	-0.18111148
3	0x3d5a6517	0.053319063
4	0x3e112b2f	0.1417663
5	0xbd2529a3	-0.04032291
6	0x3e133316	0.14374956
7	0x3dcb7c07	0.09935766
8	0x3e4d2978	0.2003535
9	0xbda40af6	-0.08009903
10	0x3d75324c	0.05986242
11	0xbdabcd69	-0.08388788
12	0xbc15301d	-0.009105709
13	0x3b927d76	0.0044705225
14	0x3e54d58e	0.2078459
15	0xbdb26abd	-0.08711765
16	0x3d9f0a5e	0.07765649
17	0x3d512c98	0.05106792
18	0x3df106ee	0.117689
19	0x3cb3b5e1	0.021937313
20	0xbd144730	-0.036200702
21	0xbe6d0273	-0.23145466
22	0xbdb33383	-0.087500595
23	0xbda34535	-0.079721846
24	0x3dd6f68a	0.10496242
25	0xbd25c98f	-0.040475424
26	0x3dd3a71b	0.10334607
27	0xbdd83211	-0.105564244
28	0x3d9bb5aa	0.07603009
29	0xbd8fa85b	-0.07014533
30	0x3d1c6e06	0.038190864
31	0xbd9282a6	-0.071538255
32	0xbe4efcfd	-0.20213695
33	0xbe3dabb5	-0.18522532
34	0xbdb90dd9	-0.09035844
35	0xbe1add02	-0.1512337
36	0xbd8cfbe2	-0.0688398
37	0x3e2a1ff3	0.1661375
38	0x3cc0bc07	0.023527158
39	0x3e387a41	0.18015386
40	0x3ea71d03	0.32639322
41	0x3e886332	0.2663818
42	0x3e1afff3	0.151367
43	0xbd58d84c	-0.05294065
44	0xbc914259	-0.017731832
45	0x3b23d1e1	0.0024996924
46	0x3db34b95	0.087546505
47	0x3d039188	0.03212121
48	0xbc2a6320	-0.01039961
49	0x3c9c3f84	0.019073255
50	0xbe2a911c	-0.16656917
51	0xbdb395ec	-0.0876883
52	0xbda9a9b1	-0.08284319
53	0x3e6988a7	0.22806035
54	0x3ddebf40	0.10876322
55	0x3e1f935a	0.15583554
56	0xbcbd6211	-0.02311805
57	0x3c5affbe	0.013366638
58	0x3d13aa25	0.036050934
59	0x3dfa1475	0.12210933
60	0x3e276a2d	0.16349097
61	0x3e028647	0.12746535
62	0x3e85be6e	0.2612185
63	0xbccab297	-0.024743361
64	0xbd48aec8	-0.04899481
65	0xbccbb7ee	-0.024867978
66	0x3d9164a3	0.07099273
67	0x3d681a87	0.056665923
68	0xbb59409f	-0.003315009
69	0xbde3e88c	-0.11128339
70	0x3d5a53f5	0.053302724
71	0xbdab3f94	-0.08361736
72	0xbef7b901	-0.48383334
73	0xbe55d9b6	-0.20883831
74	0xbe445a8d	-0.19175167
75	0xbdaf17a4	-0.08549431
76	0x3d6093e7	0.05482855
77	0x3dc4c295	0.09607426
78	0xbe1afb11	-0.15134837
79	0xbd9e702f	-0.07736241
80	0xbe0362c9	-0.12830652
81	0xbe0a5edd	-0.1351275
82	0xbe0fa63b	-0.14028256
83	0x3dd07773	0.10179033
84	0x3e264869	0.1623856
85	0x3d0a7248	0.033800393
86	0xbd987db9	-0.07445855
87	0xbd656877	-0.05600783
88	0x3e0998db	0.13437216
89	0x3e0fea9c	0.1405434
90	0xbce7709e	-0.028251942
91	0x3d1cd734	0.03829117
92	0x3e4c6fc4	0.1996451
93	0x3d1d8f78	0.0384669
94	0xbc916fa9	-0.017753439
95	0x3e2d3811	0.16915919
96	0xbded9604	-0.11600879
97	0x3d1bd1d9	0.038041923
98	0x3b665979	0.0035148545
99	0x3daa5fd1	0.08319057
100	0x3e8b15d1	0.27165082
101	0xbc0e4943	-0.008684459
102	0x3e4b19c5	0.19834049
103	0x3df79585	0.120890655
104	0xbea29ba4	-0.3175937
105	0xbe8ba9bd	-0.27277938
106	0xbe00cffe	-0.12579343
107	0xbc92a18c	-0.017899297
108	0xbd9f4a6d	-0.077778675
109	0xbe7b49b6	-0.24539837
110	0xbdeaa471	-0.11457146
111	0xbd886968	-0.0666073
112	0x3d1e00cb	0.038574975
113	0x3db42be8	0.08797437
114	0x3d8d2c6e	0.0689324
115	0x3e154732	0.1457794
116	0xbe2536b2	-0.16134146
117	0xbec2a5e7	-0.38017198
118	0xbec82c3f	-0.39096257
119	0x3c378b1f	0.011202603
120	0xbd230cbc	-0.039807066
121	0x3cdca511	0.026934179
122	0xbe2d26a8	-0.16909277
123	0xbddcbf6d	-0.10778699
124	0x3e1949a3	0.14969496
125	0x3e552a76	0.20816979
126	0xbead8d10	-0.33896685
127	0x3d85bde0	0.065303564
128	0x3e337a8e	0.1752722
129	0x3ddb1b31	0.10698546
130	0x3e0c43fd	0.1369781
131	0xbda282d0	-0.07935107
132	0x3d10eeca	0.035383977
133	0xbd49f647	-0.049307134
134	0xbe08667c	-0.13320345
135	0x3e151e6c	0.14562386
136	0x3e9e285e	0.30890173
137	0x3db0b203	0.08627703
138	0x3e601d3a	0.21886149
139	0x3e3c8cff	0.1841316
140	0xbc3788a3	-0.01120201
141	0x3cdb5e1e	0.026778277
142	0xbd106b41	-0.035258535
143	0xbe1f2fe4	-0.15545613
144	0xbb060e9b	-0.0020455483
145	0xbb13d8fc	-0.0022559753
146	0x3e3e00aa	0.18554941
147	0xbe7d7d8f	-0.24754928
148	0x3cca9147	0.024727477
149	0x3ea6d42c	0.3258375
150	0x3e8083ad	0.2510046
151	0x3ccd338a	0.02504899
152	0xbc753b50	-0.0149677545
153	0x3e1bc15d	0.15210481
154	0x3cc27957	0.0237395
155	0x3de0ddea	0.10979827
156	0xbd5bac71	-0.05363125
157	0xbcc80772	-0.024417613
158	0x3de007a5	0.10938958
159	0x3e39a83a	0.1813058
160	0x3e0ad39b	0.13557284
161	0x3c58a4dd	0.0132229
162	0xbda90229	-0.08252365
163	0x3e1e1fd8	0.15441835
164	0xbc332bab	-0.010935704
165	0x3db3443d	0.0875325
166	0x3d0b9e93	0.034086775
167	0xbe4ceb81	-0.20011713
168	0xbe1a9c9a	-0.15098801
169	0xbe825dde	-0.2546224
170	0x3d163c6b	0.036678713
171	0xbc44271f	-0.011972218
172	0x3e137762	0.1440101
173	0xbdfafc1c	-0.12255117
174	0xbdde7c41	-0.10863543
175	0x3da8d866	0.082444
176	0xbdab6187	-0.08368211
177	0x3c22a506	0.00992704
178	0x3dc29c16	0.09502427
179	0xbd202c06	-0.039104484
180	0x3db33aea	0.08751471
181	0xbe7a1e4b	-0.24425618
182	0xbe217f73	-0.15771274
183	0xbdd4fa7b	-0.10399338
184	0xbc58a1a0	-0.013222128
185	0xbc71d04c	-0.0147591345
186	0xbde49ca1	-0.11162687
187	0xbcb1cd0c	-0.02170422
188	0x3d7d16c6	0.061789297
189	0x3d298ec6	0.041395925
190	0xbe549a09	-0.20761885
191	0x3e0e9ab8	0.13926208
192	0x3db11f23	0.08648517
193	0x3d628eca	0.055311956
194	0xbd5620aa	-0.052277245
195	0xbc8caea6	-0.017173123
196	0xbd8b1456	-0.06790988
197	0x3d44b204	0.04802133
198	0xbdea887f	-0.11451816
199	0xbb7a8381	-0.0038225355
200	0x3d4b5951	0.049645726
201	0xbe04660a	-0.1292955
202	0xbe3c2811	-0.18374659
203	0xbc0daed1	-0.0086476365
204	0x3b3ca2b2	0.0028783497
205	0xbe20b500	-0.15694046
206	0xbdcba9dd	-0.09944508
207	0x3e0275c0	0.1274023
208	0xbd2a24cc	-0.041539
209	0x3e032a49	0.128091
210	0xbdcc7fca	-0.09985311
211	0x3e1fe0b7	0.15613066
212	0xbcaa150d	-0.02076199
213	0xbe7ed4d0	-0.24885869
214	0x3c2ca535	0.010537435
215	0xbdba3103	-0.090913795
216	0x3e186bec	0.14884919
217	0x3dcbdb9f	0.09953999
218	0xbe1a7d7d	-0.15086932
219	0xbda33d28	-0.07970649
220	0x3df89666	0.12138061
221	0xbc560ac6	-0.013064092
222	0xbeaa18d8	-0.3322208
223	0x3d667427	0.056263115
224	0xbd321f53	-0.043486904
225	0x3d66f10f	0.056382235
226	0x3d84343b	0.06455275
227	0x3ce3aac9	0.027791398
228	0x3e18318d	0.14862652
229	0x3d347642	0.044058092
230	0xbe0b97fa	-0.13632193
231	0xbd730cd3	-0.059338402
232	0xbdba9d36	-0.09112017
233	0x3dc2ba0c	0.09508142
234	0x3d94ad53	0.072596215
235	0xbe059097	-0.13043438
236	0x3d21f125	0.039536614
237	0x3ddf9f39	0.10919041
238	0x3e124b7a	0.14286605
239	0xbcac17ce	-0.021007445
240	0x3e2ce016	0.16882357
241	0x3e33807d	0.17529483
242	0x3db2b7f3	0.08726492
243	0xbe19452d	-0.14967795
244	0xbd0f1359	-0.03493056
245	0xbe037d05	-0.1284066
246	0xbe89903c	-0.26867855
247	0x3e35f549	0.1776935
248	0x3e4a9ca7	0.1978632
249	0xbe04b9c3	-0.12961487
250	0x3d6dc359	0.058047626
251	0x3d83a6c8	0.064282954
252	0xbd095ac3	-0.033533823
253	0x3d87cd36	0.06630938
254	0xbdef8c81	-0.11696721
255	0xbe3c7444	-0.18403727

recurrent.spatial_attn.mha.k_proj.weight f4 [32, 32]
0	0x3e4385b8	0.19093978
1	0xbd209d3b	-0.039212447
2	0xbdd637f1	-0.10459889
3	0x3dfff1e9	0.124973126
4	0xbde68324	-0.11255482
5	0xbd800545	-0.06251005
6	0x3e2acef1	0.16680504
7	0xbc1beda8	-0.009517111
8	0x3d70918f	0.058732565
9	0xbe175cf3	-0.14781551
10	0xbcc7a82e	-0.024372187
11	0xbdb75ad6	-0.089528725
12	0x3d456c17	0.048198786
13	0xbe2232ad	-0.15839644
14	0x3d153706	0.036429428
15	0x3d27ae64	0.040937796
16	0xbc689ac3	-0.014197054
17	0xbd755212	-0.05989272
18	0x3dad3808	0.08457953
19	0x3e55a071	0.20861985
20	0x3d871440	0.06595659
21	0xbe1553de	-0.14582774
22	0x3ca39cb6	0.019972187
23	0xbc4bc5ef	-0.012437328
24	0xbdc4d972	-0.09611787
25	0x3d9aa758	0.075514495
26	0xbdeabec7	-0.11462169
27	0xbd2be240	-0.041963816
28	0xbd4f4f69	-0.05061284
29	0x3c2c60d3	0.010521132
30	0x3beed76d	0.0072888643
31	0x3d4a6416	0.049411856
32	0xbcbd1f78	-0.023086295
33	0xbe0d5aeb	-0.13804214
34	0x3e2ce332	0.16883543
35	0xbd87bc9e	-0.06627773
36	0x3e353a93	0.17698126
37	0x3cddc878	0.02707313
38	0x3d98672c	0.074415535
39	0xbdb1b1fd	-0.08676527
40	0x3e043ce2	0.1291385
41	0x3e851d42	0.25998884
42	0x3d237b2f	0.0399124
43	0x3e415e7d	0.188837
44	0x3d64342e	0.055713825
45	0xbe510d30	-0.20415187
46	0x3d4ba4bf	0.04971766
47	0xbe42154a	-0.18953434
48	0x3e562907	0.20914088
49	0xbe403ff8	-0.18774402
50	0xbd405ce2	-0.04696358
51	0x3bf3e76c	0.007443359
52	0xbb451481	-0.0030072036
53	0x3b993614	0.004675636
54	0x3e0c0a42	0.13675788
55	0xbd66d32c	-0.056353733
56	0xbcac2fb5	-0.021018842
57	0xbdc16af6	-0.09444229
58	0xbd53c215	-0.051698763
59	0x3dcc06db	0.09962245
60	0xbdef9929	-0.11699135
61	0xbe3655f0	-0.1780622
62	0xbc87dab2	-0.016583774
63	0x3dda755b	0.10666915
64	0xbd088d74	-0.033338025
65	0x3d9aa3ed	0.075507976
66	0x3dac176b	0.08402904
67	0xbc81b13d	-0.015831584
68	0x3c9eef60	0.019401252
69	0x3dabe58a	0.083933905
70	0xbde98751	-0.11402763
71	0x3e369734	0.17831117
72	0xbd61b3bd	-0.055103052
73	0x3d19459d	0.037419904
74	0x3d28f819	0.04125223
75	0xbb9ed0b2	-0.0048466558
76	0x3c1083e7	0.0088205105
77	0x3e2539a1	0.16135265
78	0x3dbe8bc9	0.09304006
79	0xbc0c3368	-0.008557178
80	0xbd119d5d	-0.035550464
81	0x3d5d3628	0.054006726
82	0xbe0af02d	-0.13568182
83	0xbe82d3e2	-0.2555228
84	0x3df4f191	0.11960138
85	0xbdac3da2	-0.08410193
86	0xbd709093	-0.058731627
87	0xbd10ac6a	-0.035320677
88	0x3df03994	0.11729732
89	0xbbd94de9	-0.006631602
90	0x3d775852	0.060386963
91	0xbe3f9623	-0.18709616
92	0xbe17a8ea	-0.1481053
93	0x3dc96512	0.09833731
94	0x3d65b397	0.056079473
95	0xbe6d93a1	-0.23200847
96	0x3dcb5aa8	0.09929401
97	0xbe4f02ab	-0.20215861
98	0xbdceb01d	-0.10092185
99	0x3ca0b5b5	0.019617895
100	0x3d35e3ac	0.044406578
101	0x3cd7956b	0.026316365
102	0xbd050cf0	-0.03248304
103	0xbe4224e8	-0.18959391
104	0xbe09beb2	-0.1345165
105	0xbe3eb56e	-0.18623897
106	0x3c803b24	0.0156532
107	0xbe63a634	-0.2223137
108	0x3da541de	0.08069204
109	0x3cd5c1a0	0.026093304
110	0xbd87c2f7	-0.066289835
111	0xbe3174a2	-0.17329648
112	0xbe6d33e6	-0.23164329
113	0xbd1acc6d	-0.037792612
114	0x3e4f2ae6	0.20231208
115	0xbe2accff	-0.16679762
116	0x3e5b8bef	0.21440099
117	0xbde20b59	-0.11037321
118	0xbe3dfaf5	-0.18552764
119	0x3e7f3894	0.24923927
120	0xbcfc2230	-0.03077802
121	0xbdcedfe4	-0.101012975
122	0x3dc79a00	0.0974617
123	0xbd7f6929	-0.062356148
124	0x3e6fe240	0.23426151
125	0x3d13fef4	0.036131814
126	0x3d8c64d8	0.06855172
127	0xbc8d448c	-0.0172446
128	0xbe00956e	-0.12557003
129	0xbd250a1b	-0.04029284
130	0xbc4e0671	-0.012574778
131	0xbcc3e4c9	-0.023912804
132	0xbe414193	-0.18872671
133	0x3de7c871	0.11317528
134	0xbe272530	-0.1632278
135	0x3dc19afc	0.09453389
136	0x3e0c3643	0.13692574
137	0x3dae3ada	0.08507319
138	0xbd3e4c41	-0.04645944
139	0x3d93fe13	0.07226195
140	0xbc97b02f	-0.018516628
141	0x3dbe9fa7	0.09307795
142	0x3d6b6633	0.05747051
143	0xbd422e6c	-0.047407553
144	0x3e147717	0.14498554
145	0xbe0a99e6	-0.1353527
146	0xbd45ac07	-0.04825976
147	0x3d8da456	0.0691611
148	0x3c190aba	0.009340936
149	0x3e5c9611	0.21541621
150	0xbd663c21	-0.056209687
151	0x3cdef7f4	0.027217843
152	0x3da694b9	0.08133835
153	0x3e284400	0.1643219
154	0x3db3e6e7	0.087842755
155	0xbcd24db6	-0.025671821
156	0xbdeb84d8	-0.11499947
157	0xbcfe5e8a	-0.03105094
158	0xbdf98ee5	-0.12185458
159	0xbdee38ba	-0.116319135
160	0xbdd822aa	-0.10553487
161	0x3da4cf55	0.08047358
162	0x3e393149	0.18085207
163	0xbde7f4e8	-0.11326009
164	0x3e29fc0b	0.16600053
165	0xbe465775	-0.193693
166	0x3cb7a0d3	0.022415554
167	0xbe67c134	-0.22632295
168	0xbd8e5b6f	-0.06951033
169	0xbe26296e	-0.16226742
170	0x3d7db0ba	0.061936118
171	0xbda54917	-0.080705814
172	0xbd1e2bea	-0.0386161
173	0xbdb61eea	-0.08892615
174	0x3e171d34	0.14757234
175	0xbd17341a	-0.036914922
176	0xbe6b7bbd	-0.22996421
177	0x3d81584e	0.06315671
178	0xbe1d074c	-0.15334815
179	0x3dd7c220	0.10535073
180	0xbd89949b	-0.06717797
181	0xbe25a8b5	-0.16177638
182	0x3e204608	0.15651715
183	0x3e037808	0.12838757
184	0x3dd0f6f4	0.102033526
185	0xbdd077fc	-0.10179135
186	0x3e5afe06	0.21385965
187	0x3da0b207	0.07846456
188	0x3dad1357	0.084509544
189	0x3dfb012c	0.12256083
190	0xbdf7a447	-0.1209188
191	0xbd62fe8f	-0.055418547
192	0xbd4b31c3	-0.049608003
193	0x3d772c5d	0.060345042
194	0xbbd2e27d	-0.006435691
195	0x3e3f2bc7	0.18669043
196	0x3de23f16	0.11047189
197	0x3e1aa765	0.15102918
198	0xbd9365ec	-0.071971744
199	0xbdc24c8a	-0.09487255
200	0xbdeaef4d	-0.11471424
201	0x3da1a543	0.07892849
202	0x3df1d7a9	0.11808712
203	0xbe065933	-0.13119964
204	0x3d57465d	0.052557338
205	0xbe5afdf3	-0.21385936
206	0x3dbe44e8	0.092904866
207	0xbe4b36de	-0.19845149
208	0x3dcd30c8	0.1001907
209	0x3d5c2b74	0.053752378
210	0x3da8eafb	0.08247944
211	0x3dcb55b3	0.09928455
212	0x3d32a8b0	0.043617904
213	0x3d987c97	0.074456386
214	0xbd2310c9	-0.03981093
215	0x3e214291	0.1574805
216	0xbe0e97b7	-0.13925062
217	0x3b4f989e	0.003167666
218	0x3bd95986	0.0066329865
219	0xbe3294fd	-0.17439647
220	0x3e1ac19f	0.15112923
221	0xbad1b300	-0.0015998781
222	0xbde3449f	-0.11097073
223	0xbdeec214	-0.11658111
224	0x3dbfdcf2	0.09368314
225	0x3d969b6d	0.07353864
226	0xbdcb0f7d	-0.099150635
227	0x3de72105	0.11285595
228	0x3dd5193e	0.10405205
229	0x3d621d61	0.0552038
230	0x3d583139	0.052781317
231	0x3d2975bb	0.041372042
232	0xbc7082d4	-0.014679629
233	0x3c7982b2	0.015228914
234	0x3cc3afec	0.023887597
235	0xbdb2ebfd	-0.087364174
236	0x3dea2d4d	0.11434422
237	0xbe5d645a	-0.21620312
238	0x3cd37eb8	0.02581726
239	0x3df11013	0.11770644
240	0xbd7e75ba	-0.06212399
241	0xbe15a5ad	-0.14613982
242	0x3c2104ed	0.009827835
243	0xbdd9f464	-0.10642317
244	0x3d89c5b4	0.06727162
245	0x3e2ead37	0.17058264
246	0xbd365e92	-0.044523783
247	0x3e0875c0	0.13326168
248	0x3d86dda9	0.06585247
249	0x3e249560	0.16072607
250	0x3e0698d0	0.13144231
251	0x3cf6d42a	0.030130465
252	0x3e0b3255	0.13593419
253	0xbdfe0116	-0.12402551
254	0x3d97fc22	0.074211374
255	0x3db0cdc6	0.08632998

recurrent.spatial_attn.mha.v_proj.weight f4 [32, 32]
0	0xbe8a4efc	-0.27013385
1	0xbdfc441e	-0.1231768
2	0x3dd1ba09	0.102405615
3	0xbe011503	-0.12605672
4	0x3c0218e0	0.007940501
5	0x3db513f3	0.08841696
6	0xbe07e383	-0.13270383
7	0xbb7b4fa1	-0.0038347023
8	0x3e3f196f	0.18662046
9	0x3d4d1bac	0.050075218
10	0xbddb368b	-0.107037626
11	0x3e62c0da	0.2214388
12	0xbe7add4b	-0.24498479
13	0x3d860e82	0.06545736
14	0xbde7a89e	-0.11311458
15	0x3d9ca5a1	0.07648779
16	0x3e2d73e7	0.16938744
17	0xbe0642e4	-0.13111454
18	0xbe2b63bd	-0.16737266
19	0x3e95aac3	0.29231843
20	0x3d305d8d	0.043057967
21	0x3e689871	0.22714402
22	0x3d9889b8	0.07448143
23	0xbe24ded6	-0.1610063
24	0xbe917744	-0.28411305
25	0xbe0b9f6c	-0.13635033
26	0xbe3374ef	-0.17525075
27	0x3d5c0fea	0.053726114
28	0xbd8390ae	-0.0642408
29	0xbcc6c4db	-0.02426379
30	0xbe5d1218	-0.21588933
31	0xbc31619f	-0.010826497
32	0x3dd3aff4	0.10336295
33	0x3ce4dac9	0.027936356
34	0x3c8619d8	0.016369745
35	0x3e12a7a2	0.1432176
36	0xbde97f2e	-0.11401211
37	0x3d3dd10a	0.046341933
38	0x3e1dce72	0.15410784
39	0x3dac8ebb	0.08425661
40	0x3d158bae	0.036510162
41	0x3d0f3565	0.03496303
42	0xbe162d85	-0.14665802
43	0x3d5b7105	0.05357458
44	0xbdc1bafe	-0.09459494
45	0x3e0548bd	0.13016029
46	0xbd461950	-0.048363984
47	0xbd674571	-0.05646271
48	0x3cd1c951	0.02560869
49	0x3d99091c	0.074724406
50	0xbda474b4	-0.08030072
51	0x3e714232	0.23560408
52	0xbe289220	-0.16461992
53	0x3dd15687	0.10221582
54	0x3b915bdc	0.0044359993
55	0x3d7f9382	0.062396534
56	0x3e1bb03d	0.15203948
57	0xbe59699f	-0.21231697
58	0xbe78d9f6	-0.24301895
59	0x3db3ad20	0.08773255
60	0xbda0d0bd	-0.07852314
61	0xbdeab84a	-0.114609316
62	0xbd34456c	-0.04401152
63	0x3dbc2c34	0.091881186
64	0x3e08bf75	0.13354285
65	0xbd4158fc	-0.047204003
66	0xbc18c341	-0.009323896
67	0xbe0faf63	-0.14031748
68	0xbd2e124c	-0.042497918
69	0x3d618192	0.05505521
70	0x3bf19064	0.007371949
71	0xbe06a0e0	-0.13147306
72	0xbe14bd10	-0.14525247
73	0x3d23da7b	0.04000328
74	0x3e1cf553	0.15327959
75	0x3df14ed6	0.11782615
76	0xbcb93706	-0.022609245
77	0xbd96ac19	-0.07357044
78	0x3e114dfa	0.14189902
79	0xbdc6d27f	-0.09708118
80	0xbde3923e	-0.11111878
81	0xbd2ec4e6	-0.042668246
82	0xbe04b0d1	-0.12958075
83	0x3d4a9670	0.049459875
84	0x3dedd260	0.116123915
85	0xbe5615f3	-0.2090681
86	0x3d88c94f	0.066790216
87	0x3cf33cba	0.029692043
88	0xbd339410	-0.043842375
89	0xbd532426	-0.051548146
90	0x3caee549	0.021349566
91	0xbe60fde2	-0.21971849
92	0xbbb94936	-0.0056544794
93	0xbd3f12bd	-0.04664873
94	0x3e12134e	0.14265177
95	0xbe4cc80c	-0.19998187
96	0x3e4273ca	0.18989483
97	0xbe2c7b8c	-0.16844004
98	0x3d658a3d	0.056040037
99	0xbbfd2991	-0.0077259024
100	0xbc16c7f7	-0.009202949
101	0x3e91d159	0.28480032
102	0x3e15a849	0.14614977
103	0x3d073a8c	0.03301482
104	0x3bc11f4b	0.005893623
105	0xbc162811	-0.009164826
106	0xbc147d31	-0.009063051
107	0x3d9a7251	0.075413354
108	0x3e0eabaf	0.1393268
109	0xbe055586	-0.13020906
110	0x3de494a3	0.11161163
111	0x3c51867b	0.01278841
112	0x3e082db0	0.13298678
113	0xbde91a8e	-0.11382018
114	0xbdb3bbc9	-0.087760516
115	0x3e2464af	0.16054033
116	0xbd40a64a	-0.047033586
117	0xbdf9a679	-0.12189955
118	0xbd8a7f01	-0.06762505
119	0xbc6865f4	-0.014184464
120	0xbdbfa4e1	-0.0935762
121	0xbc8e3aaa	-0.017361958
122	0xbe286043	-0.16442971
123	0x3df2acff	0.11849403
124	0xbe4aa5e1	-0.1978984
125	0xbdaef662	-0.085430875
126	0xbe6a9005	-0.22906502
127	0x3e0f1703	0.13973622
128	0xbe0c9d24	-0.1373182
129	0xbe6d9a53	-0.23203401
130	0x3de27810	0.11058056
131	0xbc6108e2	-0.013735028
132	0xbdbeff22	-0.093260065
133	0xbcaedc57	-0.0213453
134	0x3dd7473a	0.10511632
135	0x3e31564f	0.1731808
136	0x3e726475	0.23671134
137	0x3c4037ff	0.0117321005
138	0x3cdfd646	0.027323853
139	0x3e11ab22	0.14225438
140	0xbd5db969	-0.0541319
141	0xbcda183b	-0.026622882
142	0xbe2255a7	-0.15852986
143	0x3bd0b467	0.006369162
144	0x3df3f5fa	0.11912151
145	0xbc8d2d98	-0.017233655
146	0x3b8c00a0	0.0042725354
147	0x3cb62c4c	0.02223792
148	0x3cc8ea34	0.02452574
149	0xbd2ff324	-0.042956486
150	0x3e51c5c7	0.20485602
151	0xbe365e2b	-0.1780936
152	0xbe95e5ac	-0.29276788
153	0x3db322ef	0.087468974
154	0xbe096924	-0.13419014
155	0x3dc67ae4	0.09691408
156	0xbd922dcd	-0.07137642
157	0xbe3fa3cb	-0.18714826
158	0xbe016067	-0.12634431
159	0xbdd8ac97	-0.10579794
160	0x3e8f610d	0.2800373
161	0x3cb708c3	0.022343045
162	0xbe359598	-0.17732847
163	0x3e4d3b3f	0.20042132
164	0x3e0d3b8c	0.13792247
165	0x3e3a9e77	0.18224512
166	0x3e8484a7	0.25882456
167	0xbe608c2f	-0.21928476
168	0x3d236372	0.03988976
169	0x3d1a381e	0.037651174
170	0xbd725194	-0.05915983
171	0xbe1cdee4	-0.15319401
172	0x3dc78741	0.097425945
173	0x3d8ba9c7	0.06819492
174	0xbd7092a1	-0.058733586
175	0x3df316c2	0.11869575
176	0xbe4245e3	-0.18971972
177	0x3d11d920	0.035607457
178	0x3e0c956a	0.13728872
179	0x3d921637	0.071331434
180	0xbd87371e	-0.0660231
181	0xbe6fb980	-0.23410606
182	0xbe0bd850	-0.13656735
183	0x3da21256	0.079136536
184	0x3de1bb08	0.110220015
185	0x3c76d7d5	0.015066107
186	0x3d631cac	0.055447266
187	0xbdf7b5c9	-0.1209522
188	0x3d50c4a8	0.050968796
189	0x3d605714	0.054770544
190	0xbdcde720	-0.10053849
191	0xbe0b4613	-0.1360095
192	0x3dbf7e07	0.0935021
193	0x3ddd9366	0.1081913
194	0xbceb2bc1	-0.028707387
195	0x3dfb2dd5	0.12264601
196	0xbdf33ba8	-0.11876613
197	0x3e66525e	0.22492358
198	0xbc29b14b	-0.010357211
199	0x3deb4211	0.114872105
200	0x3d785e9e	0.06063711
201	0xbdd66a15	-0.10469452
202	0xbd64af64	-0.055831328
203	0x3e1b4500	0.1516304
204	0xbda87b5e	-0.082266554
205	0xbe4f8928	-0.20267165
206	0xbbf62754	-0.0075120125
207	0xbe01fc99	-0.12694015
208	0x3e0a7964	0.1352287
209	0xbdcfd6e9	-0.10148413
210	0xbd9afba9	-0.075675316
211	0x3e48f87e	0.19626042
212	0xbdede252	-0.11615433
213	0x3e1865b2	0.14882544
214	0x3dbdca0e	0.092670545
215	0xbe0f8f50	-0.14019513
216	0xbe0fd8f5	-0.14047606
217	0x3e34d16d	0.17658015
218	0x3d1d541a	0.038410284
219	0xbcd38577	-0.025820477
220	0x3d8ee5b4	0.06977406
221	0xbdc1fdcb	-0.09472235
222	0xbe52aadc	-0.2057299
223	0x3d05a477	0.03262755
224	0x3e8c6b3c	0.27425563
225	0x3e434ebc	0.19073004
226	0xbd2814b0	-0.041035354
227	0x3e4da161	0.20081092
228	0x3d8b3895	0.067979015
229	0xbb55d3c9	-0.0032627454
230	0x3e7144a2	0.23561338
231	0xbe19b7f8	-0.15011585
232	0x3da97ea4	0.08276108
233	0xbe49bad9	-0.19700183
234	0x3d0c1ff0	0.034210145
235	0xbdd9bc55	-0.106316246
236	0xbdd0a700	-0.10188103
237	0xbdcc8af1	-0.099874385
238	0xbe1d008b	-0.15332238
239	0xbe3e60aa	-0.18591562
240	0xbd7b7e79	-0.06139991
241	0x3e58ff02	0.21191028
242	0x3c0bb583	0.0085271625
243	0x3c6f8a04	0.014620308
244	0x3c83224a	0.016007561
245	0xbdf8e489	-0.121529646
246	0x3de21f19	0.11041088
247	0x3e3d1844	0.18466288
248	0x3cf27138	0.029595003
249	0xbe260e87	-0.16216479
250	0xbe15b17d	-0.14618488
251	0xbe67c564	-0.22633892
252	0x3e838e3c	0.25694454
253	0x3e2d127c	0.16901582
254	0xbc87191f	-0.01649147
255	0xbd2eb8be	-0.042656653

recurrent.spatial_attn.mha.subln.weight f4 [16]
0	0x3f89e5fb	1.077331
1	0x3f7c3560	0.98518944
2	0x3f5e5f56	0.8686422
3	0x3f6e346a	0.9304873
4	0x3f10917e	0.56472003
5	0x3f86ef08	1.0541697
6	0x3f811fe2	1.0087855
7	0x3f944e6f	1.1586436
8	0x3f76ba44	0.9637797
9	0x3f54a9d0	0.83071613
10	0x3f85f657	1.0465802
11	0x3f9dd418	1.2330351
12	0x3f83e5f5	1.0304552
13	0x3f9ed875	1.2409807
14	0x3f73f6e4	0.952986
15	0x3f8d596f	1.1042918

recurrent.spatial_attn.ln2.weight f4 [32]
0	0x3f577f1b	0.8417832
1	0x3f1b3b79	0.60637623
2	0x3f74f560	0.9568691
3	0x3f53ad60	0.82686424
4	0x3f65efcf	0.89819044
5	0x3f87eea8	1.0619707
6	0x3f73816e	0.9511937
7	0x3f89c5f5	1.0763537
8	0x3f4d7ec5	0.8027156
9	0x3f1ddf79	0.6166912
10	0x3f1f7f56	0.62303674
11	0x3f6f63c2	0.93511593
12	0x3f83cfb1	1.0297757
13	0x3f98fa5a	1.1951401
14	0x3f3e9175	0.744407
15	0x3f7a04f3	0.976638
16	0x3f8f035d	1.1172901
17	0x3f5d1dfa	0.86373866
18	0x3f5cde6b	0.8627688
19	0x3f6ad634	0.917331
20	0x3f3245a5	0.6963752
21	0x3f6c645b	0.9234063
22	0x3f71893e	0.9435004
23	0x3f5c59e0	0.8607464
24	0x3f8f6bb6	1.1204746
25	0x3f62daeb	0.8861529
26	0x3f83dabd	1.0301129
27	0x3f9578b5	1.1677462
28	0x3f830907	1.023713
29	0x3f5799d7	0.84219116
30	0x3f7c3dea	0.98531973
31	0x3f885ee1	1.0653955

recurrent.spatial_attn.ln2.bias f4 [32]
0	0xbe2d0b11	-0.16898753
1	0xbecce596	-0.4001891
2	0xbdb0dc88	-0.08635813
3	0xbe66ff2d	-0.2255828
4	0xbda882e6	-0.08228092
5	0xbd986478	-0.07441038
6	0xbdab6289	-0.083684035
7	0xbd9ae5ad	-0.075633384
8	0xbd2064b9	-0.039158557
9	0xbe0f6515	-0.14003403
10	0xbd86b214	-0.065769345
11	0xbde61852	-0.112351075
12	0xbdbf7fae	-0.09350525
13	0xbde2c703	-0.11073115
14	0x3deca05b	0.11554023
15	0xbd96b7a9	-0.07359249
16	0xbe9f3123	-0.31092176
17	0xbe1b8266	-0.15186462
18	0x3c83ec3e	0.01610386
19	0xbda47b68	-0.080313504
20	0x3dc066a7	0.093945794
21	0x3e23f4b5	0.16011317
22	0x3d98a20f	0.07452785
23	0xbdf159d0	-0.117847085
24	0xbe7152f9	-0.23566808
25	0x3e0cf2a0	0.13764429
26	0xbc3a3df3	-0.011367309
27	0xbddae144	-0.10687497
28	0xbde0c2f9	-0.10974688
29	0x3d39132e	0.045184307
30	0x3dc71fa9	0.097228356
31	0xbdb16620	-0.08662057

recurrent.spatial_attn.ffn.linear.weight f4 [32, 32]
0	0x3d51f44d	0.051258374
1	0xbddc92a8	-0.1077016
2	0xbdf07adb	-0.11742183
3	0x3e2e133c	0.16999525
4	0xbe122810	-0.14273095
5	0xbdaf093b	-0.085466824
6	0xbdf670b9	-0.12033219
7	0xbb6e21df	-0.0036336107
8	0xbe196bf9	-0.14982595
9	0xbd483fc0	-0.04888892
10	0xbd86248c	-0.065499395
11	0x3db31a88	0.08745295
12	0xbdf0ef9d	-0.117644526
13	0x3e4b5c0a	0.19859329
14	0xbc86c405	-0.016450891
15	0xbd65d0b0	-0.056107223
16	0x3daa6231	0.0831951
17	0x3e027a4b	0.12741964
18	0xbd25b21d	-0.040453065
19	0xbd1a8f4a	-0.037734307
20	0x3e176480	0.14784431
21	0xbe8ae665	-0.27128902
22	0x3daaccad	0.0833982
23	0x3cd5e2db	0.02610915
24	0x3b1c6011	0.002386097
25	0xbdb22664	-0.08698729
26	0xbd520f1c	-0.05128394
27	0xbde0aea9	-0.10970814
28	0xbe02b1f3	-0.12763195
29	0xbe2707c0	-0.1631155
30	0xbd4ac848	-0.04950741
31	0x3b4d9dac	0.0031374497
32	0xbe558a1b	-0.20853464
33	0x3db76726	0.08955221
34	0xbd4a45bc	-0.04938291
35	0x3d7bd784	0.06148483
36	0x3e294221	0.16529132
37	0x3e2b66da	0.16738454
38	0x3d62e73a	0.055396296
39	0x3cbf6556	0.02336375
40	0x3e3c1b74	0.18369848
41	0xbcb4c664	-0.022067256
42	0xbcb4f1e6	-0.022088002
43	0xbdb8075d	-0.089857794
44	0x3e1eed34	0.15520173
45	0x3d990165	0.07470969
46	0xbe472c4b	-0.1945049
47	0x3e2093a5	0.15681322
48	0x3dfbdedf	0.12298369
49	0xbdc0089c	-0.09376642
50	0x3dd3fe32	0.10351218
51	0xbd84cb7d	-0.06484125
52	0x3d462916	0.048379026
53	0xbcf09ca5	-0.029371569
54	0xbd6da883	-0.058022033
55	0xbe3eae39	-0.18621148
56	0x3e6507f2	0.22366312
57	0xbe0425f1	-0.12905098
58	0x3b4450bd	0.002995535
59	0x3e0e9119	0.13922538
60	0xbcfedf93	-0.031112468
61	0xbd3006f5	-0.042975385
62	0xbdcd2e9e	-0.10018657
63	0xbdc88720	-0.09791398
64	0xbd4bcddb	-0.049756866
65	0xbd5c7e23	-0.05383123
66	0x3d1d7105	0.038437862
67	0xbe6a18b8	-0.22860992
68	0x3deff32d	0.11716304
69	0x3db25382	0.08707334
70	0x3cf36ecf	0.029715924
71	0x3dc4e9b4	0.09614888
72	0xbe4ebebf	-0.20189951
73	0x3dea7252	0.11447586
74	0x3d1bccde	0.038037173
75	0xbd0c0e3c	-0.034193262
76	0xbd6432ae	-0.055712394
77	0x3e3e697a	0.18594924
78	0xbe56e6cd	-0.20986481
79	0x3e6e2e18	0.23259771
80	0x3d94ca34	0.0726513
81	0xbdf449d4	-0.11928144
82	0xbe53fc05	-0.20701607
83	0x3e4f3ebc	0.20238775
84	0x3da0a0b9	0.078431554
85	0xbe6d7701	-0.23189928
86	0x3d88302e	0.066498145
87	0xbe0a7db3	-0.13524513
88	0xbd850842	-0.06495716
89	0xbce2fc9f	-0.02770835
90	0x3d137aaf	0.036005672
91	0x3c794087	0.015213138
92	0xbe6ee339	-0.23328866
93	0x3cc2c0ac	0.023773514
94	0x3dc4d225	0.096103944
95	0x3d807682	0.062726036
96	0xbd944fa2	-0.07241751
97	0xbe477148	-0.19476807
98	0x3e223b5d	0.15842958
99	0xbd73a413	-0.059482645
100	0xbdb7811e	-0.08960174
101	0xbcf12521	-0.02943665
102	0xbde98469	-0.11402208
103	0x3d906b1d	0.0705168
104	0xbd088754	-0.033332184
105	0x3e0bd65f	0.13655995
106	0x3e60c62a	0.21950594
107	0x3b7abfd1	0.0038261304
108	0x3e3f9d25	0.1871229
109	0x3dbff338	0.09372562
110	0xbe5a7be8	-0.21336329
111	0x3d28bc0a	0.041194953
112	0xbd7d96d4	-0.06191142
113	0x3e4dca47	0.20096694
114	0xbd07d130	-0.03315848
115	0x3e8e51cc	0.2779678
116	0x3de44b69	0.11147196
117	0xbca2dcc1	-0.019880654
118	0xbe4f4cf7	-0.20244204
119	0xbc1965a7	-0.009362615
120	0xbd9c8124	-0.07641819
121	0xbe3d01bf	-0.18457697
122	0x3e4a7634	0.19771653
123	0xbde6e87e	-0.11274813
124	0xbd6c1cf0	-0.057644784
125	0x3e0c23f1	0.13685586
126	0xbce79ba6	-0.028272461
127	0xbdab1a76	-0.083546564
128	0x3daedf9b	0.08538743
129	0x3df9c912	0.12196554
130	0xbe15902a	-0.14605775
131	0x3df16c2b	0.117882095
132	0x3e27c56f	0.16383909
133	0x3c0ab507	0.008466012
134	0xbce26e86	-0.027640592
135	0x3e19402e	0.14965889
136	0xbc2ddfd2	-0.010612445
137	0xbdd5d7f3	-0.1044158
138	0x3daead51	0.08529151
139	0xbe16a4e0	-0.14711332
140	0x3e118e1a	0.14214364
141	0x3e4a176d	0.19735499
142	0xbe6cc4a0	-0.23121881
143	0x3dea5a84	0.11443046
144	0xbdf6bdd9	-0.12047929
145	0xbe0b8e46	-0.13628492
146	0xbdda1b28	-0.10649711
147	0x3c1c4649	0.009538242
148	0x3d7a1153	0.061051678
149	0xbd0f51c8	-0.034990102
150	0x3c03be64	0.008040998
151	0x3d7449fe	0.059640877
152	0x3d552e3a	0.05204604
153	0xbe741441	-0.23835851
154	0x3b7e5e77	0.003881363
155	0x3e0b71d9	0.13617648
156	0xbc3cfbfa	-0.011534685
157	0xbd21b110	-0.0394755
158	0x3e028c3d	0.12748809
159	0x3e67269c	0.22573322
160	0xbd05ec98	-0.032696337
161	0xbcf05589	-0.029337661
162	0xbe281ca9	-0.16417183
163	0xbd7bb1c0	-0.061448812
164	0xbd3baa48	-0.04581669
165	0x3dabd1f6	0.08389656
166	0xbdbb4b4a	-0.091452196
167	0xbd863799	-0.06553573
168	0xbd5fe027	-0.054657128
169	0xbd7d4a3d	-0.061838377
170	0xbdb36905	-0.08760265
171	0xbe7fa02a	-0.24963441
172	0x3cc0d593	0.02353934
173	0x3e81ab39	0.25325945
174	0x3c016d22	0.007899554
175	0x3ddcd198	0.10782164
176	0xbe0ef483	-0.13960461
177	0x3e1f0b90	0.15531754
178	0x3e6045cb	0.21901624
179	0xbd947398	-0.0724861
180	0xbdb21b86	-0.08696656
181	0xbe11b43b	-0.14228909
182	0xbe691e64	-0.227655
183	0xbe38619c	-0.18005985
184	0x3e22f229	0.1591269
185	0xbe6b785c	-0.22995132
186	0x3dcab63f	0.09898042
187	0xbd93f2c3	-0.072240375
188	0xbde301a9	-0.11084301
189	0xbd84c2fe	-0.06482504
190	0xbdf579ff	-0.119861595
191	0xbda894e0	-0.08231521
192	0xbdde6a3c	-0.10860106
193	0xbe2491d9	-0.16071261
194	0xbd692fa0	-0.056930184
195	0xbd1fa2ed	-0.038973738
196	0xbdc24ce1	-0.0948732
197	0xbd0e6ea8	-0.0347735
198	0xbd9f810f	-0.07788288
199	0x3e02d13d	0.1277513
200	0xbc8f01dc	-0.017456941
201	0x3d826121	0.06366182
202	0xbc22aff5	-0.009929647
203	0xbe72e68f	-0.23720764
204	0x3e6748ad	0.22586317
205	0xbd3a4c72	-0.04548306
206	0xbd6ecd08	-0.058301
207	0x3e676381	0.22596551
208	0x3c59d727	0.013295925
209	0xbd2d0c14	-0.042247847
210	0x3de71436	0.11283152
211	0xbdc9ed8d	-0.09859762
212	0xbe63a47f	-0.22230719
213	0xbcfa8c35	-0.030584434
214	0xbd54aa7c	-0.0519204
215	0x3ca62999	0.020283507
216	0xbb867a7f	-0.004103958
217	0xbd219f79	-0.039458726
218	0x3d8c8c3e	0.068626866
219	0x3e4b17fc	0.19833368
220	0xbdc2feb7	-0.09521239
221	0xbd58fea4	-0.05297722
222	0x3dc8c368	0.09802896
223	0x3e2a7c76	0.1664904
224	0xbe372fa9	-0.17889275
225	0x3d10f261	0.0353874
226	0x3dc01848	0.09379631
227	0xbec3bdaa	-0.3823064
228	0xbe476902	-0.19473651
229	0x3ee962ab	0.4558309
230	0x3d1c5211	0.038164202
231	0x3dd1ac99	0.102379985
232	0xbe6318ac	-0.2217738
233	0x3c9de186	0.019272577
234	0xbddf79a6	-0.109118745
235	0x3e62e5f8	0.22158039
236	0x3dcab2a1	0.09897352
237	0x3f0674cc	0.5252197
238	0x3d8ed0ee	0.06973444
239	0x3e6d35cf	0.23165058
240	0x3dc6ce61	0.097073324
241	0x3e8dc4e9	0.27689293
242	0x3d26253b	0.04056285
243	0xbe8bc12f	-0.27295825
244	0x3e5ec89b	0.21756212
245	0xbdbc6bae	-0.09200226
246	0xbde3ef39	-0.111296125
247	0x3dedb028	0.11605865
248	0x3cc2ee83	0.023795372
249	0xbe05a443	-0.13050942
250	0xbe1fcb1f	-0.15604828
251	0xbe2cf885	-0.16891678
252	0xbd2ac23c	-0.041689143
253	0xbdfcef1a	-0.123502925
254	0x3d2fed75	0.042951066
255	0x3c96e34f	0.018418936

recurrent.spatial_attn.ffn.linear.bias f4 [32]
0	0xbe29c7df	-0.16580151
1	0xbcb0d737	-0.021586997
2	0xbe06fe06	-0.1318284
3	0x3dddb258	0.10825032
4	0x3c3aaedd	0.01139423
5	0xbe3546f4	-0.17702848
6	0x3dd53168	0.10409814
7	0x3caf1fd6	0.021377485
8	0x3cf08efa	0.029365052
9	0x3d2730db	0.040818077
10	0x3dc850eb	0.09781059
11	0x3dbc1e80	0.09185505
12	0xbe1d144f	-0.15339778
13	0xbec2e4b6	-0.38065118
14	0xbdf590fa	-0.11990543
15	0x3d3dc98f	0.0463348
16	0x3d453022	0.048141606
17	0xbd13eecf	-0.036116417
18	0xbe2622e6	-0.1622425
19	0xbe092287	-0.13392077
20	0x3cceeaad	0.025258387
21	0xbd11e06d	-0.03561442
22	0xbdcd3faa	-0.100219086
23	0xbda38c4a	-0.079857424
24	0x3c06d2aa	0.008228937
25	0xbe13e404	-0.1444245
26	0xbdf763b0	-0.12079561
27	0xbd8a02ea	-0.06738837
28	0xbe1d358c	-0.15352458
29	0xbe42e104	-0.19031149
30	0x3d2b28cf	0.041786965
31	0xbe722e38	-0.23650444
