GraphTransformer_pearsons_dual_diff.pth (torch, 136678 bytes, 31 tensors)

recurrent.input_proj.weight f4 [32, 1]
0	0xbf650fc9	-0.8947721
1	0xbf72e5b4	-0.9488175
2	0x3f80b93a	1.0056527
3	0x3f8f5abc	1.1199565
4	0xbed3113e	-0.41224092
5	0xbf38628a	-0.7202536
6	0xbf7ec712	-0.9952251
7	0xbf93077d	-1.148666
8	0x3f1ba0a4	0.60791993
9	0xbf9a07a0	-1.2033577
10	0x3f38ec0e	0.7223519
11	0x3f2d19d3	0.6761753
12	0x3f17c1a2	0.59279835
13	0xbf6512d3	-0.8948185
14	0xbfa423c6	-1.2823417
15	0x3fa95407	1.3228768
16	0x3f4b85aa	0.7950083
17	0x3ec5dbe3	0.38644323
18	0xbf21e6ea	-0.6324297
19	0xbf1571cf	-0.58376783
20	0xbf5fe3b7	-0.8745684
21	0x3f86348a	1.0484784
22	0xbf97ea5e	-1.1868398
23	0x3f434ee7	0.7629227
24	0x3f470d7b	0.77754945
25	0xbe7e46f2	-0.24831751
26	0x3fb7f682	1.4372103
27	0xbe541993	-0.20712881
28	0x3f936c70	1.1517467
29	0x3f6d9cb4	0.92817235
30	0xbf5e18e9	-0.8675676
31	0x3f8161a6	1.0107925

recurrent.input_proj.bias f4 [32]
0	0x3f38c5a8	0.721766
1	0xbf0182ff	-0.5059051
2	0xbe9e1e9c	-0.30882728
3	0xbec48a19	-0.3838661
4	0xbdfb4967	-0.1226986
5	0x3e8e3e40	0.27781868
6	0x3e743424	0.23848015
7	0xbf1b727e	-0.60721576
8	0xbf149af5	-0.58048946
9	0xbd7997aa	-0.060935654
10	0x3efd00e4	0.49414742
11	0x3d37ab15	0.04484089
12	0x3ef59713	0.47966823
13	0x3ec4133b	0.38295922
14	0x3f4254b8	0.7591052
15	0x3f36b3a3	0.71367854
16	0x3e131e31	0.14366986
17	0xbe486b4d	-0.19572182
18	0xbed0dff0	-0.4079585
19	0xbf9126a3	-1.1339916
20	0xbea6035c	-0.32424438
21	0x3d508cfa	0.050915696
22	0xbe157989	-0.14597143
23	0x3f434e29	0.7629114
24	0x3f3f06c4	0.746197
25	0xbf70cc49	-0.94061714
26	0x3f460d65	0.7736419
27	0xbee77ae8	-0.45210958
28	0x3f3d03d1	0.7383395
29	0x3f552021	0.8325215
30	0x3f3b3233	0.7312347
31	0x3de6ccd5	0.11269537

recurrent.time_embedding.weight f4 [128, 32]
0	0xbf565087	-0.83716625
1	0xbf8d9221	-1.106022
2	0x3ed01e73	0.4064823
3	0x3ecdbb6e	0.4018206
4	0xbe975d4a	-0.2956336
5	0xbf3ed4d6	-0.7454351
6	0x3e3f0db3	0.1865757
7	0x3e486d17	0.19572864
8	0xbf8336a2	-1.0251048
9	0x3f4b4bfb	0.7941281
10	0x3fff579e	1.9948614
11	0xbda8ed25	-0.08248357
12	0x3ec38edd	0.38194934
13	0x3f83c690	1.0294971
14	0x3e8a5b5f	0.27022836
15	0xbe9e1311	-0.30873922
16	0xbfa07b14	-1.253756
17	0x3f9c7ad2	1.2224982
18	0xbf829018	-1.0200224
19	0x3e2c3fb6	0.16821179
20	0x3d92b2e7	0.07163029
21	0xbec36e3e	-0.38170046
22	0xbf4ed32a	-0.8079096
23	0x40023b49	2.0348685
24	0xbf079128	-0.52955866
25	0x3e1c8f0d	0.15288945
26	0x3deb95b6	0.115031645
27	0x3f9b62bb	1.2139505
28	0x3d8df934	0.06932297
29	0xbf32f908	-0.6991124
30	0xbe6d0d85	-0.23149689
31	0xbfd4799d	-1.6599613
32	0xbf87446f	-1.0567759
33	0x3e365d1e	0.17808959
34	0xbe55fa17	-0.20896183
35	0x3e589bd9	0.21153201
36	0xbf41aca6	-0.75654066
37	0xbfbbd7c1	-1.4675218
38	0x3fb55f7f	1.4169768
39	0x3fc5f51e	1.5465429
40	0xbfade8a6	-1.3586624
41	0x3e9524bd	0.29129592
42	0x3fb7dbda	1.4363968
43	0x3f214aa7	0.63004535
44	0x3ec8b7b5	0.39202657
45	0x3f43c718	0.7647567
46	0xbea18c01	-0.31552127
47	0x3f8c7aa2	1.0974925
48	0xbdc9823e	-0.09839295
49	0xbeda9c83	-0.42697534
50	0x4025dae1	2.5914843
51	0x3f8bf725	1.0934798
52	0x3d879a59	0.06621236
53	0xbfb3120b	-1.3989881
54	0xbf1c55c1	-0.6106835
55	0x3fa19391	1.2623159
56	0xbe39dad8	-0.18149889
57	0x3ea57ac1	0.32320216
58	0xbf2fd77f	-0.68688196
59	0xbf670f1f	-0.9025745
60	0x3f956398	1.1671019
61	0xbf45e088	-0.7729573
62	0x3ea8b68a	0.32951766
63	0xbe5c5dcf	-0.2152016
64	0x3bfcda13	0.007716426
65	0xbef85181	-0.48499683
66	0xbf897b1b	-1.0740694
67	0xbe804e48	-0.25059724
68	0x3e431d81	0.19054224
69	0x3fbacec6	1.4594352
70	0xbf364222	-0.7119466
71	0x3f1360e2	0.57569706
72	0xbf172792	-0.59044755
73	0x3f770b9e	0.965021
74	0xbf9f0222	-1.2422526
75	0x3e36617e	0.17810628
76	0xbfb453e2	-1.4088099
77	0xbf479698	-0.7796416
78	0x3f7bc084	0.9834063
79	0xbcd8d086	-0.02646662
80	0xbb91ae1b	-0.004445804
81	0x3f9a5238	1.2056341
82	0x3e875f94	0.26440108
83	0xbef13058	-0.47107196
84	0xbf86abf3	-1.0521225
85	0x3f6cb0c9	0.9245725
86	0xbf5b3f5d	-0.8564356
87	0x3eea446c	0.45755327
88	0x3d7825c1	0.06058288
89	0x3ff8de2e	1.9442804
90	0x3fb66417	1.4249295
91	0x3fbda0ee	1.4814737
92	0xbf5dd5ee	-0.86654556
93	0x3e8afbae	0.2714514
94	0xbee3a2a8	-0.44460034
95	0xbf858882	-1.0432284
96	0x3f544693	0.8292019
97	0xbfcc0b73	-1.5940994
98	0xbe564506	-0.20924768
99	0x3e599d5b	0.21251433
100	0x3f02f5d4	0.51156354
101	0x3f1590bf	0.5842399
102	0xbe13ce1d	-0.14434095
103	0x3d9e8c8b	0.0774165
104	0x3f72830d	0.9473122
105	0xbf932a4d	-1.1497284
106	0x3e3153aa	0.17317072
107	0xbf0190bc	-0.5061147
108	0x3eaea610	0.3411107
109	0xbe4d7726	-0.20064983
110	0xbeacd7f9	-0.33758524
111	0x3e016e0d	0.12639637
112	0x3ed491e7	0.41517565
113	0xbf5edf8c	-0.87059855
114	0xbe95aed7	-0.29234955
115	0x3d27b391	0.040942732
116	0x3f04f766	0.5194
117	0xbe9435bd	-0.2894725
118	0xbf9541c1	-1.1660691
119	0x3e5b6907	0.21426784
120	0xbea22a66	-0.31672972
121	0x3fb3c2ea	1.4043858
122	0xbdf9069d	-0.121594645
123	0xbebad4a9	-0.36490372
124	0x3f9bfc7e	1.218643
125	0xbf0f24c4	-0.55915475
126	0x3fc4af7c	1.5366054
127	0xbfcf7649	-1.6207973
128	0xbf2899c5	-0.65859634
129	0x3f6e61b6	0.93117845
130	0x3fa5a242	1.2940142
131	0x3f714936	0.94252336
132	0x3e58a647	0.2115718
133	0xbe09b38e	-0.13447401
134	0x3ed3eb6e	0.41390556
135	0xbf37301a	-0.7155777
136	0xbe7a818e	-0.24463484
137	0x3fe0c0c0	1.7558823
138	0xbb92f87b	-0.0044851876
139	0xbe439ea5	-0.19103487
140	0x3fa8144d	1.3131195
141	0xbf3f0364	-0.7461455
142	0xbebb779e	-0.36614698
143	0x3bd0e0e4	0.0063744653
144	0xbecf1d66	-0.40452117
145	0x3f2985b3	0.66219634
146	0x4026fe55	2.6092732
147	0xbf9e85ba	-1.238456
148	0xbf620dcb	-0.88302296
149	0xbe8a0a59	-0.2696102
150	0xbf2c0b7e	-0.67205036
151	0xbe302200	-0.1720047
152	0x3f9ca140	1.223671
153	0xbdb577b5	-0.08860723
154	0xbec23319	-0.3792961
155	0xbe97a4c8	-0.29617906
156	0xbe2b2e51	-0.16716887
157	0x3ee085cd	0.43852082
158	0x3f823998	1.0173826
159	0x3f2df131	0.67946154
160	0xbf6f55e9	-0.93490463
161	0x3ecc3d31	0.39890435
162	0xbf807249	-1.0034877
163	0x3e2ae4be	0.1668882
164	0x3e0b5aaa	0.13608804
165	0xbec8636d	-0.39138356
166	0x3ee8897e	0.45417398
167	0xbf3ceb93	-0.7379696
168	0x3f0a83d3	0.541074
169	0xbfb7c89e	-1.4358099
170	0x3f28cc74	0.6593697
171	0x3e0c9546	0.13728818
172	0xbf0f1571	-0.5589209
173	0xbf3c1f72	-0.7348548
174	0xbe256272	-0.16150835
175	0x3d59040f	0.052982386
176	0xbf8f3d9d	-1.1190678
177	0xbf6d60ff	-0.9272613
178	0xbd18f7df	-0.037345763
179	0xbef3b590	-0.4759946
180	0x3f1fd351	0.6243182
181	0xbdbd740f	-0.09250652
182	0x3dc6102c	0.09671053
183	0xbe50f1b3	-0.20404701
184	0xbf0f7c45	-0.56048995
185	0xbfe59db0	-1.7938747
186	0xbdc9ae04	-0.09847644
187	0xbffb64b9	-1.9640113
188	0x3f1e6134	0.6186707
189	0xbf85523d	-1.0415722
190	0x3fd6c249	1.6778041
191	0xbf081d59	-0.5316978
192	0x3eb72dce	0.35777134
193	0xbf6b0de5	-0.91818076
194	0xbedf4dd6	-0.43614072
195	0xbea8b410	-0.32949877
196	0xbf2856d8	-0.65757513
197	0xbe075e17	-0.13219486
198	0x3fa3cf70	1.279768
199	0xbde0669b	-0.109570704
200	0x3eaadf94	0.33373702
201	0xbe98477c	-0.29742038
202	0xbf02d43a	-0.5110508
203	0xbe2c7ef9	-0.16845311
204	0xbd8b004d	-0.06787167
205	0xbf04bf2a	-0.51854193
206	0x3daeb759	0.085310645
207	0xbf5a44f2	-0.8526145
208	0x3fb86afd	1.440765
209	0x3e99b5ca	0.30021507
210	0xbdc017b4	-0.09379521
211	0xbf550cf8	-0.83222914
212	0xbf787050	-0.97046375
213	0x3cb60d81	0.022223236
214	0xbfbdcaab	-1.4827474
215	0xbe5ba80a	-0.2145082
216	0xbe84c519	-0.25931624
217	0xbd120506	-0.035649322
218	0x3ea62eb7	0.32457516
219	0x3f900cb5	1.1253878
220	0x3eca1e21	0.39476112
221	0xbf2d4113	-0.6767742
222	0x3d4990b3	0.04921026
223	0x3faca45e	1.3487661
224	0xbe0060a0	-0.1253686
225	0xbf9b246c	-1.212049
226	0x3f1dd436	0.61651933
227	0x3ed057f2	0.40692097
228	0x3e4bab59	0.19889583
229	0x3f70b7a8	0.9403024
230	0x3c8ca99c	0.01717072
231	0xbfd39fad	-1.6533104
232	0x3e413c3e	0.18870637
233	0x3f64e372	0.89409554
234	0xbfc24cf6	-1.5179737
235	0x3e57a9d7	0.21060883
236	0x3f05e8f8	0.5230861
237	0xbf646f44	-0.8923228
238	0x3cd79b84	0.026319273
239	0xbda4c279	-0.08044905
240	0x3deeb608	0.116558135
241	0x3fb7fe99	1.4374572
242	0x3df10455	0.117684044
243	0xbf884fc2	-1.064934
244	0xc00d2b33	-2.2057617
245	0xbe4f9c9d	-0.20274587
246	0x3fa413d2	1.2818549
247	0x3e359993	0.17734365
248	0x3f9ecb4b	1.240579
249	0xbf639c8c	-0.88910747
250	0xbf2b90bc	-0.6701772
251	0xbf302962	-0.68813145
252	0x3e5b393b	0.2140855
253	0x3f473b2e	0.77824676
254	0x3f14b116	0.5808271
255	0x3f26c829	0.6514917

recurrent.stock_embedding.weight f4 [472, 32]
0	0x3f0318b1	0.5120955
1	0xbeaebe70	-0.34129667
2	0xbd8c1e6f	-0.06841742
3	0x3e1d47fc	0.15359491
4	0xbddfef69	-0.10934336
5	0xbee2ea7b	-0.4431952
6	0xbea62ce1	-0.32456115
7	0xbf012042	-0.50439847
8	0x3ea49300	0.32143402
9	0x3f0765af	0.5288953
10	0x3f498103	0.7871248
11	0xbf56da20	-0.8392658
12	0xbe488dbe	-0.1958532
13	0xbeb7f1c3	-0.35926637
14	0xbf4209d5	-0.7579625
15	0x3f0105d2	0.50399506
16	0x3e881d25	0.26584736
17	0x3f637fd7	0.88866943
18	0xbf5b7c6d	-0.85736734
19	0xbeaaca5e	-0.3335752
20	0x3f96d20c	1.1782851
21	0x3ea1214c	0.31470716
22	0xbeb6438f	-0.35598418
23	0xbf215bb5	-0.6303056
24	0x3eaca9e2	0.3372336
25	0xbe96f45e	-0.29483312
26	0xbf85575e	-1.0417287
27	0xbfce00c1	-1.609398
28	0x3d7125cc	0.058873937
29	0xbf776d6a	-0.9665133
30	0xbe716861	-0.23574974
31	0xbe744e35	-0.23857959
32	0x3ea85e14	0.32884276
33	0x3e2e2ef9	0.17010106
34	0xbfb93bee	-1.4471414
35	0x3e96b8bb	0.29437813
36	0xbeea9309	-0.45815304
37	0x40074746	2.1137252
38	0xbf11e988	-0.56996965
39	0x3f12e398	0.5737853
40	0xbf4e35ed	-0.80551034
41	0xbfa5c4e2	-1.2950709
42	0xbfee2c69	-1.8607303
43	0x3f05f639	0.5232883
44	0x3edc6beb	0.43051085
45	0x3e162a46	0.14664564
46	0x3e1a4788	0.1506635
47	0x400677ee	2.10107
48	0xbf2cbf2c	-0.67479205
49	0xbffb3e78	-1.9628439
50	0xbf7245a4	-0.94637513
51	0x3f409ee7	0.75242466
52	0xbe80bf16	-0.25145787
53	0x3f158f02	0.5842134
54	0x3f2b4af4	0.66911244
55	0xbdc0e0e0	-0.094178915
56	0xbe34f040	-0.17669773
57	0x3f825911	1.0183431
58	0xbf7858d6	-0.9701055
59	0x3f9bce47	1.2172326
60	0x3f26495d	0.64955693
61	0xbf0fbea7	-0.5615029
62	0x3ff7f312	1.9371054
63	0xbe729be7	-0.23692285
64	0x3e68c366	0.22730789
65	0x400b9491	2.1809428
66	0xc027e46e	-2.6233172
67	0x3f51cfac	0.8195751
68	0xbedf5ff1	-0.43627885
69	0xc00fb0a8	-2.2451572
70	0xbf91e4fa	-1.1398003
71	0xbe02ea06	-0.12784585
72	0x3e52cac8	0.20585167
73	0x3e59841b	0.212418
74	0xbeb7c017	-0.3588874
75	0x3fad2968	1.3528261
76	0xbf7a36fd	-0.97740155
77	0xbf53dba5	-0.82757026
78	0xbee75520	-0.45182133
79	0xbf8287f7	-1.0197743
80	0xbfca02f3	-1.578215
81	0x3f8c992a	1.0984242
82	0xbf5f14d6	-0.8714117
83	0xbfd2733d	-1.6441418
84	0xbe30dbea	-0.1727139
85	0x3e441750	0.19149518
86	0x3f006734	0.50157475
87	0xbf99a583	-1.2003635
88	0xbe7ff098	-0.24994123
89	0xbe2b331b	-0.16718714
90	0x3f40d393	0.75322837
91	0x3eaadbf0	0.33370924
92	0xbf0f7376	-0.56035554
93	0x3d6d88aa	0.05799166
94	0x3e87aa49	0.26497105
95	0xbefeac46	-0.4974081
96	0x3f31ade2	0.6940595
97	0x3fbd6d32	1.4798949
98	0xbccca076	-0.024978857
99	0xbf9d2a0b	-1.2278455
100	0xbf31b7ce	-0.6942109
101	0x3e7d0ed5	0.24712689
102	0x3ea7da6c	0.3278383
103	0xbfa8a227	-1.3174485
104	0x3f89cc13	1.0765404
105	0xbed37128	-0.4129727
106	0x3f52a453	0.8228199
107	0x3e9fe3e8	0.31228566
108	0xbf908d4e	-1.1293123
109	0xbe805872	-0.25067478
110	0xbe659618	-0.22420537
111	0xbf175ea4	-0.59128785
112	0x3e33d950	0.17563367
113	0x3fd1f011	1.6401387
114	0x401b41a1	2.4258807
115	0xbf5f3cdf	-0.87202257
116	0x3eb0f608	0.34562707
117	0x3cca8c8d	0.024725223
118	0x3e543beb	0.20725982
119	0xbd4ecd91	-0.050489012
120	0xbcd450d9	-0.025917457
121	0x3cdc7fb3	0.02691636
122	0x3f65d604	0.89779687
123	0x3f480090	0.7812586
124	0x3fa78c61	1.3089715
125	0xbf82701e	-1.0190465
126	0x3fca8603	1.5822147
127	0xbe8b542f	-0.27212664
128	0xbd810acf	-0.0630089
129	0x3eadd501	0.33951572
130	0x3ff00ad7	1.8753308
131	0x3ee854c8	0.45377183
132	0x3fa86cd4	1.3158212
133	0x3f21d5b9	0.6321674
134	0xbf5d2f5e	-0.864004
135	0x4034e623	2.8265464
136	0xbfa0cd50	-1.2562656
137	0xbf84253f	-1.0323867
138	0xbf04b250	-0.51834583
139	0xbe2748a6	-0.16336307
140	0xbf1a988e	-0.6038903
141	0xbf9059a4	-1.1277356
142	0x3df1e609	0.11811454
143	0x3f8d0e10	1.1019917
144	0xbee56f3b	-0.44811425
145	0x3ef6d24d	0.48207322
146	0xbf412fc0	-0.75463486
147	0xc01b9bb9	-2.4313796
148	0xbe723b37	-0.23655401
149	0xbf0be893	-0.54651755
150	0xbf5be102	-0.8589021
151	0x3e2dac28	0.16960204
152	0xbf69bffd	-0.91308576
153	0xbf5e625b	-0.8686883
154	0xbeaf6753	-0.34258518
155	0x3e0692b4	0.131419
156	0x3df5d868	0.12004167
157	0xbf9e405d	-1.2363392
158	0x3edc4d8f	0.43027923
159	0x3f6c8c05	0.9240115
160	0xbf8c2d58	-1.0951338
161	0xbf728904	-0.9474032
162	0x3fdc708a	1.7221844
163	0x3d4415e9	0.047872458
164	0x3ba07f00	0.004897952
165	0xbf69afd7	-0.91283935
166	0x3f0c4ec1	0.5480767
167	0x3eb4fec5	0.35350624
168	0xbf1fe297	-0.62455124
169	0x3f86b814	1.0524926
170	0x3d0efe70	0.03491062
171	0x3f98467a	1.1896508
172	0xbfdbca12	-1.7171042
173	0x3f98bf00	1.1933289
174	0x3e2c83f4	0.16847211
175	0xbeff46c2	-0.4985867
176	0xbfc53cbd	-1.5409161
177	0xc0106650	-2.2562447
178	0x3e1bb124	0.15204293
179	0xbf9a0d70	-1.2035351
180	0xbf892cc2	-1.0716784
181	0x3f9f67b9	1.2453529
182	0xbf028d1a	-0.50996554
183	0xbf8f45b4	-1.1193147
184	0x3d6fa41b	0.058506113
185	0xbeb1118e	-0.34583706
186	0x3e60e9f6	0.21964249
187	0x3fa2d864	1.2722287
188	0xbd5f75ef	-0.05455583
189	0x3f929b31	1.1453611
190	0xbfb91a4c	-1.446115
191	0x3e8bdf9e	0.27319044
192	0xbe8a5924	-0.27021134
193	0x3f56cae6	0.8390335
194	0xbfade638	-1.3585882
195	0xbf12c956	-0.57338464
196	0x3e70ed56	0.23528036
197	0xbecf7573	-0.40519294
198	0x3f0b863c	0.545017
199	0xbc5213f0	-0.012822136
200	0xbe8f920a	-0.28041106
201	0x3e3695f1	0.17830636
202	0x3edd7cf9	0.4325941
203	0x3e986370	0.29763365
204	0x3eb0e990	0.34553194
205	0x3e262f6e	0.1622903
206	0xbf3eb699	-0.7449737
207	0xbd859810	-0.06523144
208	0x3e429b5e	0.1900458
209	0xbe061da5	-0.13097246
210	0xbd8dffca	-0.069335535
211	0x3dbdb9bf	0.09263944
212	0x3f119c65	0.56879264
213	0x3fddf7c0	1.7341232
214	0x3de386ea	0.11109717
215	0x3f5abd16	0.8544477
216	0x3f2e1a78	0.6800914
217	0xbfd1469e	-1.6349676
218	0xbdd0aae3	-0.10188844
219	0xbf115d41	-0.5678292
220	0xbf30979d	-0.68981344
221	0x3fb7c306	1.4356391
222	0x3f8a3d5e	1.0799978
223	0xbe981bb6	-0.29708642
224	0xbe5b50d8	-0.21417558
225	0xbf2701fd	-0.6523741
226	0x3f91f027	1.1401414
227	0x3f60308f	0.87574095
228	0x3fee62a6	1.8623855
229	0xbf29673c	-0.6617315
230	0x4007934a	2.1183648
231	0xbea45ad7	-0.32100555
232	0x3f1fb565	0.6238616
233	0xbcba72b5	-0.022759775
234	0xbef543c5	-0.47903267
235	0x3f66e241	0.90188986
236	0x3e2ddb4c	0.16978186
237	0xbf37a0da	-0.71729815
238	0x3e2f8046	0.17138776
239	0xbf54f5b5	-0.8318742
240	0xbe11893d	-0.14212508
241	0xbdd5c593	-0.10438075
242	0x400b96d4	2.1810808
243	0x4006c16c	2.1055555
244	0xbf934c86	-1.1507728
245	0xbf80277b	-1.0012048
246	0xbf7ffbc4	-0.9999354
247	0x3f4699f7	0.7757868
248	0x3f47e124	0.7807791
249	0x3f116635	0.5679658
250	0x3f146463	0.5796568
251	0x3f7694f8	0.9632106
252	0x3f20d846	0.6283001
253	0x3c9aa647	0.018878115
254	0x3fa6459b	1.2989992
255	0x3fd83981	1.6892549

recurrent.spatial_attn.mha.lambda_q1 f4 [8]
0	0xbeabf7ae	-0.33587402
1	0x3dbb8ac9	0.091573305
2	0x3de5641a	0.112007335
3	0xbd15db07	-0.036585834
4	0xbe24495c	-0.1604361
5	0x3e440afb	0.19144814
6	0x3e50c959	0.20389308
7	0x3e995398	0.2994659

recurrent.spatial_attn.mha.lambda_k1 f4 [8]
0	0xbe6bc118	-0.23022878
1	0x3d2033f0	0.03911203
2	0x3d76a37a	0.060214497
3	0x3d426432	0.047458835
4	0xbea2da4b	-0.3180717
5	0x3eba8ab1	0.36433938
6	0x3e89188c	0.2677654
7	0x3e5c531f	0.21516083

recurrent.spatial_attn.mha.lambda_q2 f4 [8]
0	0x3c495c2d	0.012290043
1	0x3dffeda0	0.12496495
2	0x3e63d561	0.22249366
3	0x3dac3fcc	0.08410606
4	0x3ea1c3ff	0.31594846
5	0xbd8d1641	-0.0688901
6	0xbe3c6661	-0.1839843
7	0xbc9904b6	-0.018679004

recurrent.spatial_attn.mha.lambda_k2 f4 [8]
0	0x3c36ec39	0.011164718
1	0xbdb4d549	-0.088297434
2	0xbe8bc02b	-0.2729505
3	0xbd6ad0e3	-0.057328116
4	0xbe85495d	-0.26032534
5	0x3c206eed	0.009792072
6	0x3ea98d7b	0.33115754
7	0x3ca1dcf5	0.01975868

recurrent.spatial_attn.mha.q_proj.weight f4 [32, 32]
0	0x3d91fb44	0.07128003
1	0xbe2488d6	-0.16067824
2	0xbd5738c8	-0.052544385
3	0x3db0e86f	0.08638083
4	0xbce69d83	-0.02815128
5	0x3e1a817a	0.15088454
6	0x3db6a902	0.089189544
7	0x3e0b88cf	0.13626407
8	0x3dbf85c1	0.093516834
9	0xbe139dc6	-0.14415655
10	0xbe0544ea	-0.1301457
11	0xbdc55a61	-0.09636379
12	0x3d894e46	0.067043826
13	0x3b4966f9	0.0030731543
14	0xbbcea482	-0.006306232
15	0x3d981b6e	0.07427107
16	0x3d8b57f4	0.06803885
17	0xbd0d9aff	-0.034571644
18	0x3de5c7c8	0.11219746
19	0xbe1cc0fe	-0.15307996
20	0x3e717d3d	0.23582931
21	0x3d0abcc9	0.033871446
22	0xbd24e0ca	-0.040253438
23	0xbc967d31	-0.018370243
24	0x3d81bb28	0.06334525
25	0xbdc34b19	-0.09535808
26	0x3cf68bbb	0.030095926
27	0xbca8befe	-0.020598885
28	0xbc863d64	-0.016386695
29	0x3c1b23c9	0.009468981
30	0x3e0257be	0.12728783
31	0x3dabd5a4	0.08390358
32	0xbd80d0e3	-0.06289842
33	0x3e045235	0.12921984
34	0xbde8fd2e	-0.11376415
35	0x3d6c0ab4	0.057627395
36	0xbcafeaf0	-0.021474332
37	0x3d5c9bda	0.05385957
38	0x3d3fd4b4	0.04683371
39	0x3e1777b6	0.1479176
40	0x3e256cec	0.16154832
41	0x3e096eac	0.13421124
42	0xbd87bbb9	-0.06627602
43	0x3d0282c8	0.031863004
44	0x3dbf5ae1	0.09343506
45	0xbb0924ab	-0.0020926397
46	0x3c302bd6	0.010752639
47	0x3df7be9f	0.12096905
48	0xbe24dee1	-0.16100647
49	0xbd0bc48d	-0.034122992
50	0xbd631ef6	-0.05544945
51	0x3e2235ef	0.15840887
52	0xbe39dd31	-0.18150784
53	0x3e01d10a	0.12677398
54	0xbe1bc0d0	-0.15210271
55	0x3dc9e36e	0.09857832
56	0xbdf07cbf	-0.117425434
57	0x3d9ab17d	0.075533845
58	0xbe09cb91	-0.1345656
59	0x3cf6b574	0.03011582
60	0xbe1939b0	-0.14963412
61	0xbc00a9c0	-0.007852972
62	0xbe48bb10	-0.19602609
63	0xbc95fe6d	-0.018309796
64	0x3d108d2a	0.035290875
65	0xbd94dd13	-0.07268729
66	0xbe3d7081	-0.18499948
67	0x3c93b649	0.018031256
68	0xbd967328	-0.07346183
69	0x3e310363	0.17286448
70	0xbd65f928	-0.056145817
71	0xbe0efd5e	-0.1396384
72	0x3cb9d767	0.02268572
73	0xbe16ad04	-0.14714438
74	0x3e3b5d3d	0.18297286
75	0x3e048e44	0.12944895
76	0xbd15288c	-0.03641562
77	0x3e3491e1	0.17633773
78	0x3ccd13e6	0.025033902
79	0x3c46397d	0.012098667
80	0x3d14e61c	0.036352262
81	0x3d207a9a	0.039179422
82	0xbd9ae74d	-0.075636484
83	0x3ccdfdcf	0.02514544
84	0x3d33bcb2	0.043881126
85	0xbdb364aa	-0.087594345
86	0x3daa219f	0.08307194
87	0xbbcfb31d	-0.0063384906
88	0xbdfe82d6	-0.12427299
89	0xbd1fa8c7	-0.038979318
90	0xbe4b46b8	-0.19851196
91	0x3c6f142a	0.01459221
92	0xbd5cc8ec	-0.05390255
93	0x3dca8ccd	0.09890137
94	0xbd78bfe2	-0.06072987
95	0xbd87b4de	-0.066262946
96	0x3e114c37	0.1418923
97	0xbc3515b0	-0.011052534
98	0x3e424fac	0.18975705
99	0xbdf49484	-0.119423896
100	0xbc6b02ef	-0.014343961
101	0xbe2679de	-0.16257426
102	0xbdf95896	-0.121750996
103	0xbc81bdca	-0.015837569
104	0x3e4bd3ef	0.19905065
105	0xbe123051	-0.14276244
106	0xbe4153a1	-0.18879558
107	0xbc65982d	-0.014013332
108	0x3e4a321a	0.19745675
109	0x3d957f04	0.07299617
110	0x3dd44870	0.10365379
111	0x3d321f89	0.043487106
112	0xbdac16ef	-0.08402812
113	0x3dbfae6e	0.09359442
114	0xbe4edeb0	-0.20202136
115	0x3e24fb7c	0.16111559
116	0x3d12ae94	0.035811022
117	0x3e04b713	0.12960462
118	0x3de657de	0.11247228
119	0xbd736a14	-0.059427336
120	0xbd62aca3	-0.05534042
121	0xbcac8a61	-0.021062078
122	0x3d07805c	0.033081397
123	0x3daf10a9	0.085480995
124	0xbc9a28f2	-0.018818352
125	0x3d3f7943	0.046746504
126	0xbd40d3bd	-0.04707693
127	0xbc6ea141	-0.014564813
128	0xbd9c71f3	-0.076389216
129	0xbcea9ec7	-0.028640164
130	0x3cc0565e	0.023478683
131	0x3dda4167	0.10657006
132	0xbe4027ad	-0.18765135
133	0xbd2e47c1	-0.0425489
134	0xbe508f82	-0.20367244
135	0xbd801115	-0.06253258
136	0x3e0bc3cd	0.13648911
137	0x3da35da2	0.079768434
138	0x3cd0e02b	0.025497517
139	0x3dcdb452	0.10044159
140	0xbd634126	-0.055482052
141	0xbc8511bb	-0.016243806
142	0x3d5cba44	0.053888574
143	0xbdd1eb80	-0.10249996
144	0xbceabe0a	-0.02865507
145	0xbc526d5b	-0.012843455
146	0xbd96df4e	-0.07366811
147	0x3d0ddb27	0.034632828
148	0x3c91df3b	0.01780664
149	0x3d7f939a	0.062396623
150	0xbcc7f5db	-0.024409225
151	0xbd35eace	-0.04441338
152	0x3e11e589	0.14247717
153	0xbd787e0c	-0.060667083
154	0x3e2ead2a	0.17058244
155	0x3d681885	0.05666401
156	0x3df3b08b	0.11898907
157	0xbdeb95bf	-0.11503171
158	0xbe347a79	-0.17624845
159	0xbb87ba47	-0.004142079
160	0xbd3e3fda	-0.046447612
161	0x3dcd2b53	0.10018029
162	0x3c81caa1	0.015843691
163	0x3d187519	0.037221048
164	0xbdf53e63	-0.1197479
165	0x3dd3f084	0.10348609
166	0x3d2c8052	0.042114563
167	0xbda8a791	-0.08235086
168	0x3d43a0d0	0.047760785
169	0x3c86b8b1	0.01644549
170	0xbdade55f	-0.08491015
171	0x3e0fac97	0.14030682
172	0x3de63bd0	0.11241877
173	0xbce2b7c4	-0.027675517
174	0x3e2fc1bc	0.17163748
175	0x3da6aa28	0.081379235
176	0x3de628d1	0.11238254
177	0xbdd14743	-0.1021867
178	0x3db89e01	0.09014512
179	0x3e1c4f29	0.15264572
180	0x3d766de0	0.06016338
181	0x3e44a84d	0.19204827
182	0xbe410df3	-0.18852977
183	0x3dd100b0	0.10205209
184	0x3e0371c4	0.12836367
185	0x3dee581e	0.11637901
186	0x3ca2cc59	0.019872831
187	0xbdec2c30	-0.115318656
188	0x3dd65443	0.104652904
189	0xbd9c4b91	-0.07631601
190	0x3d1f978e	0.038962893
191	0x3e3b1da0	0.1827302
192	0xbdd57fe8	-0.10424787
193	0x3cb4958e	0.02204397
194	0xbdcad489	-0.09903819
195	0xbbada30a	-0.005298977
196	0x3e5d76b5	0.21627314
197	0x3e3ece9e	0.18633506
198	0x3d908e67	0.07058411
199	0x3e7d5007	0.2473756
200	0xbd9038c2	-0.07042076
201	0xbd5c28eb	-0.05374996
202	0xbcb64618	-0.02225022
203	0x3e0788d8	0.13235795
204	0xbe64cbbd	-0.22343345
205	0xbd473711	-0.0486365
206	0xbe111a4a	-0.14170185
207	0xbd7c55e8	-0.061605364
208	0xbe57e244	-0.21082407
209	0xbdf53c12	-0.11974348
210	0x3e51c65f	0.20485829
211	0x3de0110b	0.10940751
212	0xbd8564cf	-0.06513368
213	0x3df5a2e7	0.11993962
214	0x3dc31519	0.095255084
215	0x3df4ddf6	0.11956398
216	0x3e46c6ea	0.19411817
217	0x3dae1745	0.08500532
218	0xbdfa9a30	-0.1223644
219	0x3dac2737	0.08405917
220	0x3e2f87c0	0.17141628
221	0xbe14668c	-0.14492244
222	0xbc4e325a	-0.012585247
223	0xbe1100d2	-0.14160469
224	0xbe74e202	-0.2391434
225	0xbdf08aa4	-0.117451936
226	0xbd71ba55	-0.05901559
227	0xbe510525	-0.20412119
228	0xbd45ed6a	-0.04832212
229	0xbd6f12ab	-0.058367413
230	0xbe561f7b	-0.20910446
231	0x3dde9ef2	0.1087016
232	0x3dacfa0e	0.08446132
233	0xbe02532f	-0.12727045
234	0x3deef44c	0.1166769
235	0x3e48f092	0.1962302
236	0x3e0d1610	0.13777947
237	0xbdfb4db5	-0.12270681
238	0xbe8c7c87	-0.27438757
239	0xbdf25416	-0.11832444
240	0x3d2fbfe0	0.042907596
241	0xbd17f0df	-0.037094947
242	0x3c210fe9	0.009830453
243	0xbd2392bc	-0.03993486
244	0xbdd8e985	-0.10591415
245	0xbc89304b	-0.01674666
246	0xbe5d3605	-0.21602638
247	0xbe1391fe	-0.1441116
248	0xbe026c72	-0.12736681
249	0x3dc5382e	0.09629856
250	0xbd36d8e6	-0.044640444
251	0xbd705627	-0.05867591
252	0x3e1eaf77	0.15496622
253	0xbdaf01c5	-0.085452594
254	0xbdd39607	-0.1033135
255	0x3c25714d	0.010097814

recurrent.spatial_attn.mha.k_proj.weight f4 [32, 32]
0	0x3d28ac11	0.04117972
1	0x3e2b80b3	0.16748314
2	0xbddec85d	-0.1087806
3	0x3e30db1a	0.1727108
4	0x3e076356	0.13221487
5	0xbc3766d3	-0.011193949
6	0xbe086bd1	-0.13322379
7	0x3ce1ffdd	0.027587825
8	0xbd887bf4	-0.06664267
9	0x3dfe39d2	0.12413372
10	0xbe663bdf	-0.22483777
11	0x3d4cddea	0.05001632
12	0x3c4904ca	0.012269208
13	0xbba182b5	-0.0049289116
14	0x3d39016c	0.04516737
15	0xbda52459	-0.080635734
16	0xbe06e4e3	-0.13173251
17	0xbe09e141	-0.13464834
18	0xbca9bc6d	-0.020719731
19	0x3de4727e	0.1115465
20	0x3de9f786	0.114241645
21	0xbd4534bd	-0.048146
22	0x3d2c343d	0.042042006
23	0x3d7ae265	0.061251063
24	0x3bba2d46	0.0056816665
25	0x3d9d1c1f	0.07671379
26	0xbe2374d8	-0.15962541
27	0x3c019fc5	0.007911627
28	0xbdf9b932	-0.12193526
29	0x3e16b893	0.14718847
30	0xba03af0b	-0.0005023337
31	0xbbee6eff	-0.0072764154
32	0x3d86c697	0.06580847
33	0xbd8cd291	-0.068761
34	0x3cfc7327	0.030816628
35	0xbe87c159	-0.265147
36	0x3c0c0ff6	0.008548727
37	0xbd2b1de5	-0.041776557
38	0x3c404e37	0.011737398
39	0x3e364fef	0.1780393
40	0xbe0c1ecb	-0.13683622
41	0xbe068813	-0.13137846
42	0x3dfe75bf	0.12424802
43	0xbd7ce037	-0.061737265
44	0x3cd53fd2	0.026031408
45	0xbcbb3d8f	-0.022856502
46	0x3d608d82	0.054822452
47	0xbdf6e135	-0.120546736
48	0x3deb2b60	0.114828825
49	0x3be84051	0.0070877452
50	0xbbc21232	-0.005922579
51	0x3d36ae40	0.04459977
52	0x3e232ade	0.15934321
53	0xbe5797c7	-0.21053992
54	0x3bc26365	0.005932259
55	0x3e0c3718	0.13692892
56	0xbc9862fe	-0.01860189
57	0x3e6ebcd8	0.23314226
58	0xbe6f05a7	-0.23342
59	0xbd2fb851	-0.042900387
60	0x3b095eab	0.0020960968
61	0xbc9a8b5b	-0.018865278
62	0x3d5aff94	0.053466395
63	0x3e08ca76	0.13358483
64	0x3dc987c3	0.098403476
65	0xbd94d9ec	-0.07268128
66	0xbe12f0dd	-0.14349695
67	0x3e1d6798	0.15371549
68	0xbcec553e	-0.02884924
69	0x3bedf2bb	0.0072616017
70	0xbd3c7f56	-0.046019875
71	0x3e37bd73	0.17943363
72	0x3d3dd439	0.04634497
73	0xbdb7e67d	-0.08979509
74	0xbd5e257a	-0.05423496
75	0xbdfc4198	-0.123171985
76	0xbd79e269	-0.061006937
77	0x3da4cfeb	0.0804747
78	0xbd6cf400	-0.057849884
79	0x3dedfdb7	0.11620658
80	0xbc3d0bec	-0.011538487
81	0x3e912a76	0.28352708
82	0xbdb8113b	-0.089876615
83	0x3de2c14c	0.11072025
84	0xbce10bb6	-0.027471405
85	0x3cc1975e	0.023631748
86	0x3dce2505	0.10065655
87	0xbd3302ec	-0.04370396
88	0xbd425db5	-0.047452647
89	0x3dc4de57	0.096127205
90	0xbe1bc586	-0.15212068
91	0xbd893d5a	-0.06701155
92	0x3dada3a7	0.0847848
93	0xbdb00468	-0.085945904
94	0x3e090357	0.1338018
95	0x3ce228e0	0.027607381
96	0xbc3b38cd	-0.011427117
97	0xbdaef5f2	-0.08543004
98	0xbe1f8823	-0.15579276
99	0x3bf87aca	0.007582997
100	0xbe90c7c4	-0.2827741
101	0xbe0af056	-0.13568243
102	0x3dea1320	0.11429429
103	0x3e31e9e3	0.17374377
104	0x3d084c0d	0.033275653
105	0x3c9e3085	0.019310245
106	0x3db41b8e	0.08794318
107	0xbda60ae2	-0.081075445
108	0xbdc09880	-0.09404087
109	0xbb40544d	-0.0029347122
110	0xbdae2522	-0.08503176
111	0x3d52135f	0.051288005
112	0xbc857054	-0.016288914
113	0xbd704bed	-0.05866616
114	0x3e75d7e7	0.24008141
115	0x3c29f096	0.010372302
116	0x3d8efec9	0.0698219
117	0x3d266878	0.040626973
118	0x3dfe0508	0.124033034
119	0x3de490f9	0.11160464
120	0xbd81aac1	-0.06331397
121	0xbe45acb5	-0.19304164
122	0xbdc62ffa	-0.096771196
123	0xbd5e4fe3	-0.054275405
124	0xbbf52188	-0.007480804
125	0xbde3739f	-0.11106037
126	0xbd7129f3	-0.058877897
127	0x3d757c05	0.059932727
128	0x3e546401	0.20741273
129	0xbd011d3f	-0.031522032
130	0x3e6fe3b1	0.23426701
131	0xbd94e1e3	-0.07269647
132	0x3e60e1bc	0.21961111
133	0xbe1314ec	-0.1436345
134	0xbbaf8251	-0.005356111
135	0xbe2f45ed	-0.17116518
136	0xbc73fa73	-0.014891255
137	0xbb951915	-0.004550109
138	0x3e83923b	0.25697502
139	0x3e236d69	0.15959705
140	0xbdfd11ae	-0.12356888
141	0xbe663214	-0.22480041
142	0x3d9a5d12	0.07537283
143	0xbd2661c4	-0.04062058
144	0xbce225b6	-0.027605873
145	0xbd77d218	-0.060503095
146	0xbd9c7822	-0.07640101
147	0xbd52d37e	-0.051471226
148	0xbe2c2724	-0.16811806
149	0xbd807cf9	-0.06273837
150	0x3cd6a97c	0.026203863
151	0xbd664623	-0.05621923
152	0xbc54cec3	-0.012988749
153	0x3e189923	0.14902167
154	0x3da2add6	0.07943313
155	0xbe423ea3	-0.18969207
156	0xbd69f66c	-0.05711977
157	0xbd6941c8	-0.0569475
158	0xbdb7c0af	-0.08972298
159	0xbd8544da	-0.06507273
160	0xbdde28d3	-0.1084763
161	0xbe45af34	-0.19305116
162	0x3dd534d6	0.10410468
163	0x3e1604b2	0.14650229
164	0x3d2e821e	0.04260456
165	0x3ca46229	0.020066338
166	0xbddcab00	-0.10774803
167	0xbdac032a	-0.08399041
168	0xbcfb87a2	-0.030704323
169	0x3d94a121	0.072572954
170	0x3e13901c	0.14410442
171	0xbd8a2ce7	-0.06746846
172	0x3c29d97d	0.010366795
173	0x3d81bd2a	0.06334908
174	0xbe3dfc97	-0.18553387
175	0x3ca94259	0.02066152
176	0xbc5f67f1	-0.013635621
177	0xbd9e5b57	-0.077322654
178	0x3d0b062a	0.033941425
179	0xbd946c66	-0.07247238
180	0xbd5dded3	-0.05416758
181	0x3df5b85d	0.11998055
182	0x3d81ee2d	0.063442566
183	0xbc5d2236	-0.013496926
184	0x3d3cb48b	0.046070617
185	0xbdca9e36	-0.098934576
186	0x3d40a445	0.04703166
187	0x3d58a156	0.052888237
188	0xbce338b3	-0.027736997
189	0xbd2fc09d	-0.0429083
190	0xbe142551	-0.1446736
191	0x3d909e2d	0.0706142
192	0x3e78617f	0.24255942
193	0xbd8f3fbf	-0.069945805
194	0x3e224179	0.15845288
195	0x3de7802c	0.11303744
196	0x3dc96cc2	0.09835197
197	0xbdc6be5e	-0.097042784
198	0xbdfde16b	-0.12396511
199	0x3dd3e637	0.10346644
200	0x3b03f8a7	0.0020137222
201	0xbdbee94e	-0.09321843
202	0xbe5db657	-0.21651588
203	0x3de1f1c3	0.110324405
204	0xba98fcd4	-0.0011672028
205	0xbdf68d62	-0.120386854
206	0xbe649f42	-0.22326377
207	0x3e404bef	0.18778966
208	0x3e64a337	0.22327887
209	0xbe39c1f0	-0.18140388
210	0xbd778863	-0.060432803
211	0x3dc9c41a	0.098518565
212	0x3aa6d960	0.0012729578
213	0x3d661079	0.056168053
214	0xbe2d4385	-0.16920288
215	0xbdee92df	-0.11649107
216	0x3c852d5b	0.016256979
217	0xbd3135dd	-0.04326426
218	0xbde3454e	-0.11097203
219	0xbdf7cb2c	-0.12099299
220	0xbd37f08d	-0.04490714
221	0x3e6f7fe0	0.23388624
222	0x3e4c79d5	0.1996835
223	0x3e3c09fc	0.18363184
224	0xbdaf0bf1	-0.085471995
225	0x3e34de39	0.17662896
226	0xbdd31f03	-0.103086494
227	0x3d308037	0.043091025
228	0x3d3543d4	0.04425414
229	0xbea8b8a1	-0.3295336
230	0x3e5d48ff	0.21609877
231	0xbd7078c1	-0.05870891
232	0xbdb62556	-0.0889384
233	0xbe8a7aa6	-0.27046698
234	0xbce42fd6	-0.027854841
235	0xbcacb40c	-0.021081947
236	0x3c82c711	0.015964063
237	0xbe40c6ba	-0.18825808
238	0xbd2b4cbe	-0.041821234
239	0xbe3748b8	-0.17898834
240	0xbe1c5e15	-0.15270264
241	0xbdfdd970	-0.123949885
242	0xbc27ac55	-0.010233958
243	0x3e43af4d	0.1910984
244	0x3e7fed33	0.24992828
245	0x3e0d583b	0.13803189
246	0xbdcff045	-0.1015325
247	0xbe276582	-0.16347316
248	0xbdcc9024	-0.0998843
249	0xbd959dea	-0.0730551
250	0x3d08c508	0.03339103
251	0xbe445cb4	-0.19175988
252	0xbda87acc	-0.08226547
253	0x3e13f6bc	0.1444959
254	0xbd1f335c	-0.03886734
255	0xbe167822	-0.14694265

recurrent.spatial_attn.mha.v_proj.weight f4 [32, 32]
0	0x3dc73ea4	0.097287446
1	0x3acd62f1	0.0015669746
2	0x3c8819bd	0.016613835
3	0xbd4d5f80	-0.050139904
4	0x3d73db94	0.059535578
5	0xbde9407e	-0.11389254
6	0xbd7c027f	-0.061525818
7	0xbda249cf	-0.07924234
8	0x3bb5a5a4	0.0055434275
9	0xbd4ba6be	-0.049719565
10	0xbd516c85	-0.051128883
11	0xbe13000d	-0.14355488
12	0xbe2f0b93	-0.17094259
13	0xbe5d3bec	-0.2160489
14	0x3c13bf9a	0.009017849
15	0x3d149b90	0.03628117
16	0x3df852c1	0.12125159
17	0x3d8d24cf	0.06891786
18	0xbe878faf	-0.2647681
19	0x3b7fbfe5	0.003902429
20	0xbd4c1551	-0.049825016
21	0xbcab32f8	-0.020898327
22	0xbe4dd43d	-0.20100494
23	0xbc43ad5f	-0.01194319
24	0xbda16a24	-0.07881573
25	0x3dc35ba7	0.09538966
26	0x3cd8c09a	0.026459027
27	0x3c52afd6	0.012859305
28	0xbe278eb2	-0.16363028
29	0x3e06488f	0.13113616
30	0x3d2df1f9	0.04246709
31	0x3d1206a4	0.035650864
32	0xbd5bf33a	-0.053698756
33	0xbd9201ad	-0.07129226
34	0x3c344678	0.011003129
35	0x3df3558a	0.1188155
36	0xbe8a219d	-0.2697877
37	0x3d45756b	0.04820768
38	0xbdec206f	-0.11529624
39	0xbdc432e1	-0.09580017
40	0xbdd026b4	-0.10163632
41	0xbdecc965	-0.115618505
42	0x3e1f5597	0.15559994
43	0x3dcca4bb	0.09992357
44	0x3d9091a6	0.0705903
45	0xbceec757	-0.029147787
46	0xbdc3a118	-0.095522106
47	0x3db958bd	0.090501286
48	0xbdcdfa1b	-0.100574695
49	0xbad11134	-0.0015950562
50	0xbdbe18a1	-0.09282041
51	0xbdfe0e3d	-0.124050595
52	0xbb8e181a	-0.004336369
53	0xbde926c5	-0.11384348
54	0x3e6985ee	0.22804996
55	0x3ddad1bc	0.10684535
56	0xbe4a02d1	-0.19727637
57	0x3d94d953	0.07268014
58	0x3dc8c4b8	0.09803146
59	0xbdb2d5f9	-0.08732218
60	0xbd77ffc2	-0.060546644
61	0xbdf7e752	-0.12104668
62	0x3dbe9ec8	0.09307629
63	0x3d44c427	0.048038628
64	0x3d9952de	0.07486509
65	0xbb8cd636	-0.004297997
66	0xbc88b50a	-0.016687889
67	0xbcaa43e9	-0.020784335
68	0x3d401010	0.04689032
69	0x3e35dcf5	0.1776007
70	0xbd6c2e61	-0.057661418
71	0x3e656e28	0.22405303
72	0x3dd3412f	0.10315167
73	0x3d93ab4c	0.07210407
74	0xbddabb08	-0.10680205
75	0xbe3f38ee	-0.1867406
76	0x3ddf8d41	0.10915614
77	0xbc599af2	-0.013281571
78	0xbe5d6fc4	-0.21624666
79	0xbe025be2	-0.12730363
80	0x3e267b8e	0.1625807
81	0x3da64a0f	0.08119594
82	0xbbd86dc6	-0.006604883
83	0xbd83955d	-0.06424973
84	0xbc228160	-0.009918541
85	0x3dd7744f	0.10520231
86	0xbe1b96dc	-0.15194267
87	0xbdcc4567	-0.09974175
88	0x3db421d7	0.08795517
89	0x3e966022	0.2937022
90	0xbdb72bf6	-0.08943932
91	0xbccb1aff	-0.024793146
92	0x3d7f76a9	0.062369023
93	0xbe3c3ca9	-0.18382515
94	0x3e28e097	0.16491924
95	0x3dd3feaf	0.103513114
96	0x3cd02895	0.025409976
97	0x3e4684b2	0.19386557
98	0xbd43b3d0	-0.047778904
99	0xbdd82cde	-0.10555433
100	0xbc65da31	-0.014029072
101	0xbdf11132	-0.11770858
102	0x3d0d0353	0.034427
103	0xbe1e6dd8	-0.1547159
104	0x3dceaf96	0.10092084
105	0x3d8ff27d	0.07028673
106	0xbd6270e7	-0.055283453
107	0x3d4e5975	0.05037828
108	0xbbbeb9af	-0.005820475
109	0xbde4fcae	-0.11181007
110	0xbd6ae9e9	-0.05735198
111	0xbd345041	-0.04402185
112	0xbe44961c	-0.19197887
113	0xbd3e9969	-0.046533022
114	0xbd62625f	-0.055269595
115	0x3dd9a068	0.10626298
116	0xbd3a4ca6	-0.045483254
117	0x3e33fab0	0.17576098
118	0xbcc8f9bd	-0.024533147
119	0xbe24b7d1	-0.16085745
120	0xbda9333e	-0.08261727
121	0x3ddc51ab	0.107577644
122	0xbc4c5357	-0.012471042
123	0xbe3ad314	-0.18244582
124	0x3d8b8d6e	0.06814085
125	0xbbc5a64b	-0.0060317866
126	0xbe030f51	-0.12798811
127	0xbd91d9c4	-0.071216136
128	0xbcebf6e6	-0.028804254
129	0x3dd6eb17	0.104940586
130	0xbe5b9d1d	-0.21446653
131	0xbd48112b	-0.048844498
132	0xbda3007c	-0.07959077
133	0xbe51de7a	-0.20495024
134	0x3ea66760	0.32500744
135	0xbe831a44	-0.25605977
136	0xbe1a5b1d	-0.1507382
137	0xbe6140e6	-0.21997413
138	0x3d9c84a9	0.076424904
139	0xbe2cb6df	-0.16866635
140	0xbd744f75	-0.05964609
141	0x3be8c2f1	0.007103317
142	0x3e4bfac9	0.19919886
143	0xbe2c7369	-0.168409
144	0xbe482fa0	-0.19549417
145	0xbe01f705	-0.12691887
146	0x3e04d9c6	0.12973699
147	0xbcce2642	-0.025164727
148	0x3e555945	0.20834835
149	0xbe024097	-0.12719952
150	0x3e544962	0.20731118
151	0x3e82bd83	0.2553521
152	0x3a86caf0	0.0010283869
153	0xbeb7c0bc	-0.35889232
154	0x3c9e710e	0.019341018
155	0xbe5803f5	-0.2109526
156	0x3d9523db	0.072822295
157	0xbd07da4b	-0.033167165
158	0x3e5c70ab	0.21527354
159	0xbe3c10a8	-0.18365729
160	0x3e0a6b2a	0.13517442
161	0x3d342119	0.043976877
162	0xbe900e3d	-0.28135863
163	0xbda3a4ea	-0.07990439
164	0xbe161097	-0.14654766
165	0xbe465de9	-0.19371761
166	0x3df88309	0.12134368
167	0xbc6243aa	-0.013810078
168	0xbe03953f	-0.12849902
169	0xbe6819f7	-0.22666155
170	0x3dffa1d4	0.12482038
171	0xbe1c4219	-0.15259589
172	0xbdcf8594	-0.101329
173	0xbc18ee8d	-0.009334219
174	0xbdc72c94	-0.097252995
175	0xbe5674b6	-0.20942959
176	0xbe118b9e	-0.14213416
177	0xbdfb8f6b	-0.12283214
178	0x3e5da5a2	0.21645215
179	0x3dddbe69	0.108273335
180	0x3e47b662	0.19503167
181	0x3cabae6d	0.020957196
182	0x3b439a74	0.00298467
183	0x3d16dba4	0.03683056
184	0xbe1d9349	-0.15388216
185	0xbdc835b4	-0.09775868
186	0xbe440107	-0.19141017
187	0xbe29f68c	-0.16597956
188	0xbdd694e4	-0.104776174
189	0x3e413421	0.18867542
190	0x3e832bef	0.25619456
191	0xbd12b724	-0.035819188
192	0x3dc8f5e4	0.09812525
193	0x3e129be1	0.14317276
194	0x3dfbc9d4	0.12294355
195	0x3e0f64b0	0.14003253
196	0x3e00f3a7	0.12592946
197	0xbe117efe	-0.142086
198	0xbd619b26	-0.0550796
199	0x3d5aa118	0.053376287
200	0xbd04a85c	-0.032387123
201	0xbded8150	-0.1159693
202	0x3d8ef4eb	0.06980308
203	0x3e1e0999	0.15433349
204	0x3d225fc2	0.039642103
205	0xbcb8a576	-0.022539835
206	0xbc9062a1	-0.017625155
207	0x3c9b4786	0.018955003
208	0xbce5b9de	-0.02804273
209	0x3e2d7c3d	0.16941924
210	0xbdc20705	-0.09473995
211	0x3cde5dd0	0.027144343
212	0x3d43e160	0.047822356
213	0x3c9169a1	0.017750563
214	0xbe235fdb	-0.15954535
215	0xbd807e42	-0.06274082
216	0xbd71c7db	-0.059028488
217	0x3d888980	0.06666851
218	0x3d0949c3	0.03351761
219	0xbe558398	-0.2085098
220	0x3df9d81e	0.12199424
221	0x3e1e7a68	0.15476382
222	0x3d70acf6	0.0587587
223	0x3ca2bf0f	0.019866494
224	0x3e8e0c38	0.27743697
225	0xbe15d9ac	-0.14633816
226	0xbe9f3979	-0.31098536
227	0x3d75015f	0.05981576
228	0xbe5f97e3	-0.21835284
229	0xbe22021e	-0.1582112
230	0xbd83126f	-0.064
231	0x3d63ab8a	0.055583514
232	0x3d533fc9	0.051574502
233	0xbdf3631d	-0.11884139
234	0x3d87a7dc	0.066238135
235	0xbd33e5b5	-0.043920238
236	0x3dca4ad9	0.09877557
237	0x3e654630	0.22390056
238	0x3e4c376e	0.1994302
239	0x3d73dbc0	0.05953574
240	0x3d806021	0.06268335
241	0x3e1e329e	0.15448996
242	0xbd28c59c	-0.04120408
243	0xbe30f6e0	-0.17281675
244	0xbe1fb958	-0.15598047
245	0x3ceeeb08	0.029164806
246	0x3ea32a58	0.31868243
247	0x3e9bde37	0.30442974
248	0xba8990c1	-0.001049541
249	0xbe472149	-0.19446291
250	0x3e5ee7b4	0.21768075
251	0xbd9e3238	-0.07724422
252	0x3e901ddb	0.28147778
253	0x3e0ef1f8	0.13959491
254	0x3e489b98	0.19590604
255	0xbd1b3889	-0.037895713

recurrent.spatial_attn.mha.subln.weight f4 [16]
0	0x3f495c99	0.7865692
1	0x3f7957c1	0.97399527
2	0x3fa49178	1.2856894
3	0x3f4dce65	0.8039306
4	0x3fd3cd5c	1.6547046
5	0x3f8ca62c	1.0988212
6	0x3f62b4a4	0.88556886
7	0x3f8b2b3b	1.0872568
8	0x3f833c7b	1.0252832
9	0x3f925caa	1.1434529
10	0x3f839369	1.0279361
11	0x3fb0611a	1.3779633
12	0x3f31e0dc	0.69483733
13	0x3f718e45	0.9435771
14	0x3f516243	0.8179056
15	0x3f7e14b5	0.99250346

recurrent.spatial_attn.ln2.weight f4 [32]
0	0x3f32cc9e	0.6984347
1	0x3f729112	0.9475261
2	0x3f6cb4f7	0.9246363
3	0x3f196da3	0.5993292
4	0x3f8247f2	1.0178206
5	0x3f908550	1.1290684
6	0x3f37d772	0.7181312
7	0x3f1bf549	0.6092115
8	0x3f765673	0.9622566
9	0x3f19c710	0.6006937
10	0x3f53b7dc	0.8270242
11	0x3f1f6437	0.6226229
12	0x3f715513	0.9427044
13	0x3f3726be	0.7154349
14	0x3f3ca763	0.7369291
15	0x3f3cc8ae	0.7374371
16	0x3f253077	0.64527076
17	0x3f841c2b	1.0321096
18	0x3f842612	1.0324118
19	0x3f714d2f	0.942584
20	0x3ede5a83	0.4342843
21	0x3f1d13f8	0.61358595
22	0x3f55cbbb	0.83513993
23	0x3ef3a72a	0.47588474
24	0x3f45375b	0.7703759
25	0x3f2bde49	0.67136055
26	0x3efe7eee	0.49706215
27	0x3f8d996e	1.1062448
28	0x3ef24340	0.47316933
29	0x3f3b4c53	0.73163337
30	0x3f53289b	0.82483834
31	0x3f6dcb55	0.92888385

recurrent.spatial_attn.ln2.bias f4 [32]
0	0x3d87e8ed	0.06636224
1	0xbdbb1c76	-0.09136288
2	0xbdb4636c	-0.08808026
3	0x3d7ffdc2	0.06249786
4	0xbd98b4aa	-0.07456334
5	0xbdb51190	-0.088412404
6	0x3cca1523	0.024668282
7	0xbd905d1b	-0.070490085
8	0xbd95693a	-0.07295461
9	0xbcb545a9	-0.022127943
10	0xbd0509d5	-0.03248008
11	0xbd954c66	-0.072899625
12	0xbd9e6669	-0.07734377
13	0x3d625cc0	0.055264235
14	0x3e207aad	0.15671797
15	0x3d81f4fa	0.06345554
16	0xbe2f0055	-0.1708997
17	0xbddaf927	-0.10692053
18	0xbdb3c84b	-0.08778437
19	0xbdb79b6f	-0.089651935
20	0xbec6cdec	-0.3882898
21	0x3d8ecda5	0.06972817
22	0x3da3874c	0.0798479
23	0xbe6e89af	-0.2329471
24	0x3cde7766	0.027156543
25	0xbe7f6c56	-0.2494367
26	0x3e0c574c	0.13705176
27	0xbda9a4ea	-0.08283408
28	0x3dab7d1e	0.083734736
29	0xbdf378ae	-0.11888252
30	0x3d324c67	0.043529894
31	0xbdd4fe52	-0.1040007

recurrent.spatial_attn.ffn.linear.weight f4 [32, 32]
0	0xbdd5eb4d	-0.10445271
1	0xbe0e5878	-0.13900936
2	0x3e92051d	0.28519526
3	0xbe12e35c	-0.14344543
4	0x3e002628	0.12514555
5	0x3e8f934f	0.28042075
6	0xbddd8164	-0.10815695
7	0x3e03f3fd	0.12886043
8	0x3cff5c28	0.031171873
9	0xbd0058ee	-0.03133481
10	0x3e076ac5	0.13224323
11	0xbe3bbd6f	-0.18333982
12	0x3e348843	0.17630105
13	0x3ceb3a5d	0.028714353
14	0x3d8b57b4	0.068038374
15	0xbe415e7e	-0.18883702
16	0x3d304ed5	0.04304393
17	0xbe1eae8a	-0.15496269
18	0x3ded9537	0.11600726
19	0x3d8a5d9d	0.067561366
20	0x3e2d889e	0.16946647
21	0x3d0a3b51	0.033747975
22	0x3d0dd426	0.03462615
23	0xbd3ca9ef	-0.0460605
24	0x3e2e648b	0.17030542
25	0x3d6def23	0.058089387
26	0xbcc4c409	-0.024019258
27	0x3e393c37	0.18089376
28	0xbe217f26	-0.1577116
29	0xbe23d0c0	-0.159976
30	0x3d41dbef	0.047328886
31	0xbd9c7bba	-0.076407865
32	0x3e2bb53d	0.16768356
33	0xbe2924c4	-0.16517931
34	0xbdd0e29c	-0.10199472
35	0x3dcbce91	0.09951509
36	0xbaec5893	-0.0018031768
37	0xbd0ca9db	-0.034341674
38	0x3df04a5e	0.117329344
39	0xbda8d143	-0.082430385
40	0x3bca1da3	0.0061680838
41	0x3e36cc74	0.1785143
42	0xbcc03ab5	-0.023465494
43	0x3cf0acfa	0.029379357
44	0x3df4067b	0.119152986
45	0xbdd78c78	-0.10524839
46	0xbc22258c	-0.009896647
47	0xbe21ad95	-0.15788873
48	0xbdda49d6	-0.10658614
49	0x3d31ebbf	0.043437716
50	0x3e40170f	0.18758796
51	0x3da9e322	0.08295275
52	0xbd69d50f	-0.057087954
53	0xbcedbf59	-0.029021906
54	0xbe0764c8	-0.13222039
55	0x3e484f6d	0.19561549
56	0xbe1e47a5	-0.15457018
57	0xbc5df4ed	-0.013547164
58	0xbcf27fa6	-0.029601883
59	0xbd6802a7	-0.056643154
60	0x3e4d4b8d	0.20048352
61	0xbd01c112	-0.031678267
62	0x3af2e481	0.0018531234
63	0x3e186a57	0.14884315
64	0x3db379f1	0.08763493
65	0x3ce04621	0.02737719
66	0xbca7b579	-0.020472275
67	0x3e67ee80	0.22649574
68	0x3da93904	0.08262828
69	0x3c15bce0	0.00913927
70	0xbdc38223	-0.09546306
71	0x3dd0bc2b	0.1019214
72	0x3dc0b603	0.09409716
73	0xbbddce6c	-0.006768992
74	0xbe381054	-0.17974979
75	0xbe100482	-0.1406422
76	0x3da8164e	0.08207379
77	0xbbc9974d	-0.0061520697
78	0xbdf0d379	-0.11759085
79	0x3c204483	0.0097819595
80	0xbc0edf35	-0.008720209
81	0x3e65a28b	0.22425286
82	0x36f4b9a0	7.2933763e-06
83	0x3d2074eb	0.039174
84	0x3d9bac86	0.076012656
85	0xbe136f4f	-0.1439793
86	0x3d94204a	0.07232721
87	0xbd8b2e29	-0.06795914
88	0x3ddfc6a7	0.10926562
89	0x3d9b4415	0.07581345
90	0x3e725405	0.23664863
91	0x3d75d95e	0.06002175
92	0xbd4f5c2d	-0.050625015
93	0xbca6bd93	-0.020354068
94	0xbe752538	-0.23939979
95	0x3e8b0e2e	0.27159256
96	0xbe359dfd	-0.17736049
97	0xbcb10e6a	-0.021613318
98	0x3e0faca4	0.14030701
99	0x3d71091d	0.05884658
100	0x3ea9049c	0.3301133
101	0x3e72343e	0.23652741
102	0xbc803870	-0.015651911
103	0x3ed33476	0.41250962
104	0x3cf87f50	0.030334145
105	0x3e1e2f6d	0.15447779
106	0xbd9be751	-0.076124795
107	0x3e00d2e0	0.12580442
108	0x3e1e5599	0.1546234
109	0xbe811e3c	-0.2521838
110	0x3dc82c3d	0.09774063
111	0x3cbadc23	0.022810047
112	0xbe88dd22	-0.2673121
113	0xbebb4d53	-0.3658243
114	0x3e4af2cf	0.19819187
115	0xbd5785bb	-0.05261777
116	0x3e66e030	0.22546458
117	0x3e4ef8e8	0.20212138
118	0x3c4c4b5f	0.012469142
119	0x3db3b883	0.08775427
120	0x3db5d965	0.08879355
121	0x3eac81e6	0.33692855
122	0xbe1ce7a5	-0.1532274
123	0x3e3ba249	0.18323626
124	0x3a9171c6	0.0011096529
125	0xbe57c0c4	-0.21069628
126	0x3e67db95	0.22642358
127	0xbe0d0bfe	-0.13774106
128	0xbe458d83	-0.19292264
129	0xbe36add4	-0.17839748
130	0xbe4576ee	-0.1928365
131	0x3e01d3ef	0.12678503
132	0x3dc6865c	0.09693596
133	0xbd8b7880	-0.06810093
134	0x3bc398de	0.005969151
135	0x3cbb340b	0.022851964
136	0xbd643217	-0.055711832
137	0xbde8c839	-0.113663144
138	0x3e6551c1	0.22394468
139	0x3dde8121	0.10864473
140	0xbd04f199	-0.032456968
141	0xbeaf1705	-0.3419725
142	0x3d2531c8	0.04033068
143	0xbd8a313c	-0.06747672
144	0x3d7991ff	0.06093025
145	0xbc3aa74b	-0.011392425
146	0xbe7b80a1	-0.24560787
147	0x3e60976d	0.21932764
148	0x3cd4056e	0.025881495
149	0x3d646f44	0.055770174
150	0x3d8d2943	0.06892636
151	0x3dc88c1e	0.0979235
152	0x3d0d0caf	0.034435924
153	0xbddab7d5	-0.106795944
154	0x3e39fd1c	0.1816296
155	0xbe0b629a	-0.13611832
156	0x3eac1cd2	0.33615738
157	0x3e82154b	0.2540687
158	0xbe72abfa	-0.23698416
159	0x3ea43d62	0.3207808
160	0x3e75e2d6	0.24012312
161	0x3dfffbc2	0.12499191
162	0x3e273e05	0.16332252
163	0xbe23e2cd	-0.16004486
164	0xbce7082a	-0.028202135
165	0x3c34588a	0.0110074375
166	0xbd872d98	-0.06600493
167	0xbe2d7cbc	-0.16942114
168	0xbeb5db73	-0.3551899
169	0x3eb9791b	0.3622521
170	0xbd1aabf4	-0.037761644
171	0xbdb855fd	-0.09000776
172	0xbea0a1c3	-0.31373414
173	0x3de5d342	0.11221935
174	0xbd22d75f	-0.039756175
175	0xbd2e0173	-0.04248185
176	0xbdcfba62	-0.101429716
177	0xbe815164	-0.2525741
178	0xbdef8747	-0.11695724
179	0x3e04b6a6	0.129603
180	0xbdd92374	-0.10602465
181	0x3dc5abdb	0.096519195
182	0x3e2c33d8	0.16816652
183	0x3dc16259	0.094425865
184	0x3dfd703f	0.12374925
185	0x3e35be5e	0.177484
186	0xbd6a20ce	-0.05716019
187	0x3ddc665b	0.1076171
188	0xbd9b9445	-0.075966395
189	0xbd52a37f	-0.051425453
190	0x3e27532a	0.16340318
191	0xbe9058e6	-0.28192824
192	0x3da2b878	0.07945341
193	0x3d629395	0.055316526
194	0x3e0b2fb7	0.1359242
195	0xbdfa1910	-0.122118115
196	0xbc69eb7e	-0.014277337
197	0x3db187ec	0.08668503
198	0xbe2aba74	-0.16672689
199	0x3e2352bf	0.15949534
200	0xbd98993d	-0.07451103
201	0xbe9b84d3	-0.30374774
202	0xbda3007d	-0.079590775
203	0xbd4ffee9	-0.05078021
204	0x3dd135d2	0.102153435
205	0x3e03f76a	0.1288735
206	0xbe2e9268	-0.17048037
207	0xbe0a6a52	-0.1351712
208	0x3e4fe6c8	0.2030288
209	0xbe045498	-0.12922895
210	0xbd94884d	-0.0725256
211	0x3a89b5c3	0.001050644
212	0xbe85d1e9	-0.2613671
213	0x3d46a7b2	0.04849977
214	0x3dc53fc6	0.096313044
215	0x3e6e5e8e	0.23278257
216	0xbe38bbfa	-0.18040457
217	0xbe59cc02	-0.21269229
218	0xba3c9d25	-0.0007195047
219	0xbdc9c808	-0.09852606
220	0x3e02124c	0.12702292
221	0x3e547eb4	0.20751458
222	0x3d16535e	0.0367006
223	0xbdfcd272	-0.12344827
224	0xbe0c60f4	-0.1370886
225	0x3de773fe	0.11301421
226	0xbe66c037	-0.22534262
227	0xbe6043ed	-0.21900912
228	0xbc52f64c	-0.012876105
229	0xbc50fefe	-0.012756107
230	0x3dd82e06	0.10555653
231	0x3d87ff8a	0.06640537
232	0xbd057fa1	-0.03259242
233	0xbdcf30cd	-0.1011673
234	0xbe81563a	-0.25261098
235	0xbd31b74f	-0.043387707
236	0xbdeccd11	-0.11562551
237	0xbd44ac70	-0.04801601
238	0xbe95195e	-0.29120916
239	0x3e164d8c	0.1467802
240	0x3e28f1d4	0.164985
241	0xbe1ff414	-0.15620452
242	0xbe4f6c7c	-0.20256227
243	0xbdab4b67	-0.08363991
244	0xbbe2fa9e	-0.0069268486
245	0x3e79d3fd	0.24397273
246	0x3debee5d	0.115200736
247	0x3e8221ec	0.25416505
248	0x3e36a44e	0.17836115
249	0x3e286a91	0.16446902
250	0xbd840d03	-0.06447794
251	0x3df6ca2e	0.120502815
252	0x3ec5dc53	0.38644657
253	0xbd822462	-0.06354596
254	0x3e24a7b6	0.16079602
255	0xbe4154f3	-0.18880062

recurrent.spatial_attn.ffn.linear.bias f4 [32]
0	0xbc5387be	-0.012910781
1	0xbe41fc40	-0.18943882
2	0x3d37179e	0.044700257
3	0x3e95e62c	0.2927717
4	0xbe99c2a2	-0.30031306
5	0xbd84fc13	-0.06493392
6	0x3e166c15	0.14689668
7	0x3d32707d	0.04356431
8	0xbd5b9ac1	-0.05361438
9	0xbddcc344	-0.107794315
10	0xbd940fd5	-0.07229582
11	0x3d318081	0.04333544
12	0x3c4bbc0e	0.012434972
13	0xbdd862f6	-0.1056575
14	0x3ccde474	0.025133349
15	0xbd257120	-0.040391088
16	0x3db55709	0.08854491
17	0xbd80bc20	-0.06285882
18	0xbe17e860	-0.14834738
19	0x3dadc7d5	0.084853806
20	0x3da80584	0.08204177
21	0x3dca000b	0.098632894
22	0x3e063025	0.13104303
23	0x3d85cabb	0.065328084
24	0x3e2444ed	0.16041918
25	0xbd9a65e2	-0.07538964
26	0x3dc8692f	0.09785687
27	0xbe391d9c	-0.18077701
28	0x3d6ef5d6	0.058339916
29	0x3cd9e981	0.026600601
30	0x3db6bfd4	0.08923307
31	0xbb60d576	-0.003430692
