GraphTransformer_pearsons_local_diff.pth (torch, 136714 bytes, 31 tensors)

recurrent.input_proj.weight f4 [32, 1]
0.7606441 1.0190277 -0.86713564 0.0038842675 0.986713 1.0820781 -1.2656888 0.61606205
0.80889726 0.8801952 -0.9801296 0.51878923 -0.015425233 0.6131522 1.0566854 1.2219384
1.277893 0.06870615 -0.15944798 0.9244845 0.59818363 0.3779673 1.0601062 0.7949478
-0.8097316 0.6028371 -0.6764895 0.9694409 -0.49450088 0.06509571 0.6830806 -0.16457993
00000000: 92b9 423f 806f 823f 9afc 5dbf 328f 7e3b
00000010: 3999 7c3f 8981 8a3f 1702 a2bf 3eb6 1d3f
00000020: e413 4f3f 7954 613f c6e9 7abf 5fcf 043f
00000030: 1eba 7cbc 8bf7 1c3f 7841 873f 7a68 9c3f
00000040: ff91 a33f cfb5 8c3d 5546 23be 04ab 6c3f
00000050: 9022 193f ee84 c13e 8fb1 873f b381 4b3f
00000060: 924a 4fbf 8853 1a3f 6a2e 2dbf 472d 783f
00000070: 382f fdbe e650 853d 5fde 2e3f a487 28be

recurrent.input_proj.bias f4 [32]
0.38979673 -0.1870237 0.13585296 -0.91419226 0.09597745 -0.70153064 1.0654992 -0.39473388
-0.6944187 0.9818503 1.0194162 -0.2754835 0.36015332 0.32157356 0.582321 0.37925643
0.5069626 -0.52610815 -0.03159106 1.0299308 -1.0866542 0.12285028 -0.016435284 0.34629762
-0.30037585 0.5808788 0.76135117 0.8337745 -0.1706722 -1.0620978 0.43250346 -0.32773474
00000000: 7093 c73e 2483 3fbe 0a1d 0b3e 8108 6abf
00000010: d38f c43d 8397 33bf 4762 883f 8f1a cabe
00000020: 6dc5 31bf 8b5a 7b3f 3b7c 823f 2c0c 8dbe
00000030: 0466 b83e 4aa5 a43e fd12 153f e62d c23e
00000040: 4dc8 013f 06af 06bf a165 01bd c6d4 833f
00000050: 7c17 8bbf ed98 fb3d 4aa3 86bc ec4d b13e
00000060: ddca 99be 79b4 143f e9e7 423f 3f72 553f
00000070: b1c4 2ebe d2f2 87bf 1871 dd3e d9cc a7be

recurrent.time_embedding.weight f4 [128, 32]
0.25431475 0.661563 0.7003783 -0.899366 -0.47045603 0.36242676 1.1802253 -0.20819621
-1.4779547 0.9008446 -0.053762067 -1.0957993 0.48107466 -0.45028898 -1.5101573 0.5679979
0.23960279 0.7399217 2.0575511 0.52987695 1.7551978 -0.35676506 -1.669058 1.2703581
0.006500663 0.60898244 0.034868587 -0.703118 0.26891583 -1.3905745 -0.3852149 -2.0439117
-1.0933425 -0.276444 -0.46915978 0.6930638 -1.0775592 -0.32421649 1.1125104 -0.07179304
-0.24141027 1.9206831 -0.5113084 -0.22085407 0.2118075 -0.87730277 0.48071238 -0.671987
0.475598 -0.004093194 -1.2974182 0.34093443 0.41971695 -0.5676578 -0.4183197 -1.1141036
0.32172838 -0.04657144 -0.5266223 0.77253556 1.3459532 0.15221025 -1.6575559 0.5525502
-0.18676604 -1.5272706 0.84188163 1.1020523 1.7956892 -0.6056424 0.9771828 0.79778445
-1.21226 0.00480628 -1.0021726 -0.16975965 0.45886308 2.5715952 1.4547433 0.69874585
0.05189637 0.6235499 0.39851457 0.80421895 -0.08305862 1.0811619 -1.0870029 -1.1377394
0.50683403 -0.7070051 -0.83679104 1.5199718 -0.5263617 0.32666063 -0.97259057 1.3203106
0.6882831 0.2302501 0.13352273 0.8527379 0.96652865 -0.2961046 -0.3564038 -0.4730374
0.56369543 1.8711487 1.6292051 2.1350489 2.0008354 1.7479892 -1.3318071 -0.30699968
0.38199502 -0.27815643 -1.0529649 0.6171781 0.33542117 2.0724866 0.92739636 -1.0413835
1.3164583 0.3290943 -1.64862 -1.6616457 0.40402547 -1.2350525 1.4021378 -0.2550466
0.59588206 -0.3831739 0.6823731 0.55707425 0.30397174 -0.25847 -0.6824654 -0.2657166
0.17556237 0.8586352 -0.18076366 0.82372487 -0.38439217 0.50243556 2.2767022 0.58277386
-0.2010042 -1.1632102 -1.261225 0.39890656 0.41730857 1.218581 -0.47676662 0.2128995
0.32455072 1.1337577 2.1682887 -0.32832745 -0.34257188 -0.8410284 -0.804179 0.5808324
0.67401606 -0.17658195 -0.735937 1.218508 -0.32327154 -0.010825454 -0.37228286 0.5296696
0.33999622 1.0297035 -0.01838192 -0.22380018 0.32962668 0.08285882 -1.836596 1.1235688
-1.154064 0.60484993 -1.0527674 -0.22557858 0.0652147 -0.20841354 0.3090748 -0.9468224
0.5215111 -0.44275662 0.4578214 0.7240574 0.31307927 1.4616466 -1.0312306 0.09285759
1.1359317 -0.2709369 0.68678516 0.9859015 -1.205118 -0.6350419 0.48516262 1.1221024
-1.4231503 -0.60519654 -0.95383465 1.9467683 -0.58683467 1.3585583 0.15424593 -1.1331395
1.408475 -0.10659145 -0.97388846 -0.9620352 0.44686893 0.0063896626 -1.17192 0.34063566
-0.6123872 0.24712355 -0.56162184 0.9066854 -0.4053354 0.40884766 0.095135994 0.4574379
-0.1453826 -0.20348999 -0.49443147 -0.79218286 -1.3075615 1.5500919 1.0668752 2.527763
-1.0377787 -0.74612695 0.14724886 0.7779403 -0.5576661 -0.39040932 -0.5702749 0.53413665
-0.2178334 -1.1324861 -0.5424766 0.1202198 0.14297144 1.5029593 0.32734758 0.2703756
-0.29874942 0.24157618 -0.70441973 -0.25809214 -0.24801543 0.101118036 0.01172886 -0.5417396
00000000: 8b35 823e 315c 293f fe4b 333f da3c 66bf
00000010: 9ddf f0be 0090 b93e 9f11 973f 6331 55be
00000020: 9f2d bdbf c09d 663f 9d35 5cbd 2743 8cbf
00000030: 6b4f f63e 478c e6be d64c c1bf 4f68 113f
00000040: 6f5a 753e 826b 3d3f ebae 0340 04a6 073f
00000050: 52aa e03f e9a9 b6be b1a3 d5bf 189b a23f
00000060: 8303 d53b 46e6 1b3f 5dd2 0e3d 8bff 33bf
00000070: 56af 893e 58fe b1bf e33a c5be 73cf 02c0
00000080: a6f2 8bbf 118a 8dbe b635 f0be a16c 313f
00000090: 76ed 89bf b4ff a5be be66 8e3f 3b08 93bd
000000a0: 4134 77be f2d8 f53f 1be5 02bf 9227 62be
000000b0: 11e4 583e ea96 60bf ef1f f63e 5707 2cbf
000000c0: 9581 f33e 3320 86bb cd11 a6bf f58e ae3e
000000d0: 24e5 d63e 0652 11bf 002e d6be f29a 8ebf
000000e0: 95b9 a43e b2c1 3ebd b8d0 06bf e4c4 453f
000000f0: 3248 ac3f 01dd 1b3e cb2a d4bf ee73 0d3f
00000100: 993f 3fbe 9a7d c3bf 8e85 573f 0d10 8d3f
00000110: 25d9 e53f 610b 1bbf a728 7a3f 9a3b 4c3f
00000120: 562b 9bbf 007e 9d3b 3147 80bf 79d5 2dbe
00000130: 1af0 ea3e 0495 2440 0735 ba3f 02e1 323f
00000140: 4a91 543d f7a0 1f3f 1a0a cc3e 4be1 4d3f
00000150: a31a aabd 8363 8a3f e922 8bbf 72a1 91bf
00000160: e0bf 013f 49fe 34bf f037 56bf 708e c23f
00000170: a4bf 06bf 1040 a73e b2fb 78bf f0ff a83f
00000180: 5233 303f afc6 6b3e 2fba 083e 084d 5a3f
00000190: 6c6e 773f 069b 97be 8f7a b6be f531 f2be
000001a0: 584e 103f cd81 ef3f cb89 d03f a4a4 0840
000001b0: b00d 0040 1cbe df3f a878 aabf 102f 9dbe
000001c0: da94 c33e 856a 8ebe 8ec7 86bf 62ff 1d3f
000001d0: 53bc ab3e 9fa3 0440 d969 6d3f 0e4c 85bf
000001e0: b581 a83f 0c7f a83e fb05 d3bf ceb0 d4bf
000001f0: 6ddc ce3e 3316 9ebf 4079 b33f 7895 82be
00000200: ba8b 183f 5f2f c4be 01b0 2e3f 6b9c 0e3f
00000210: 2fa2 9b3e 2e56 84be 0db6 2ebf 020c 88be
00000220: 9fc6 333e 84cf 5b3f 1c1a 39be a2df 523f
00000230: 0dcf c4be 9e9f 003f 7db5 1140 ab30 153f
00000240: 0cd4 4dbe 12e4 94bf d26f a1bf 7b3d cc3e
00000250: 78a9 d53e 76fa 9b3f c11a f4be 5402 5a3e
00000260: 832b a63e f91e 913f 3ec5 0a40 891a a8be
00000270: 9565 afbe a34d 57bf adde 4dbf 6fb1 143f
00000280: 518c 2c3f e6d1 34be 5e66 3cbf 12f8 9b3f
00000290: d983 a5be 3f5d 31bc dc9b bebe 6d98 073f
000002a0: fc13 ae3e 53cd 833f ae95 96bc e02b 65be
000002b0: d4c4 a83e e3b1 a93d 9415 ebbf 1ad1 8f3f
000002c0: 5fb8 93bf 72d7 1a3f 15c1 86bf 12fe 66be
000002d0: 498f 853d 5c6a 55be 0d3f 9e3e f462 72bf
000002e0: c081 053f ffb0 e2be 9167 ea3e d35b 393f
000002f0: ed4b a03e 3c17 bb3f 5dff 83bf 1f2c be3d
00000300: 3666 913f 3eb8 8abe 27d1 2f3f 0a64 7c3f
00000310: 4e41 9abf 1b92 22bf 3c67 f83e 0da1 8f3f
00000320: ca29 b6bf 29ee 1abf 822e 74bf b42f f93f
00000330: cc3a 16bf 3de5 ad3f a5f2 1d3e b70a 91bf
00000340: e948 b43f 9e4c dabd c150 79bf f047 76bf
00000350: 01cc e43e 6060 d13b 7901 96bf cc67 ae3e
00000360: 68c5 1cbf f50d 7d3e 73c6 0fbf 891c 683f
00000370: 1f88 cfbe 7b54 d13e a9d6 c23d 4d35 ea3e
00000380: 2ddf 14be ae5f 50be 1f26 fdbe 7fcc 4abf
00000390: 2d5e a7bf 6969 c63f 5e8f 883f dec6 2140
000003a0: efd5 84bf 2d02 3fbf 68c8 163e 1827 473f
000003b0: 35c3 0ebf bbe3 c7be 89fd 11bf 2ebd 083f
000003c0: b80f 5fbe 4ef5 90bf bfdf 0abf cc35 f63d
000003d0: 1b67 123e f860 c03f 1a9a a73e ac6e 8a3e
000003e0: aff5 98be bf5f 773e da54 34bf a724 84be
000003f0: c2f7 7dbe f916 cf3d 682a 403c 72af 0abf

recurrent.stock_embedding.weight f4 [472, 32]
1.2326885 1.1463147 -0.966685 -0.7571504 1.2314742 -0.3823555 -0.6833658 -0.23197724
0.2331927 1.0880247 1.3490837 0.12554036 -0.09104586 -0.69644856 0.8824668 -0.9469176
0.2520372 0.41062722 -0.5363683 0.41126278 0.78748983 0.73651254 0.13764036 -0.7845557
0.2746229 -0.41635656 0.8686404 0.6419951 -0.62292194 0.4546162 -0.20952228 -1.3871897
0.1569908 0.05347344 0.5650168 0.33182818 -1.5011493 0.29912466 0.16815273 -0.30915186
-0.025633635 0.13207431 -0.109929316 -2.7924168 0.3730335 -0.8868543 0.4936909 0.12920791
-0.78588355 -1.1491827 -0.04472664 -0.20443958 0.30444047 0.8179454 0.88282526 -0.65395653
-0.49698573 0.2887515 -1.0478246 0.13789968 -1.0909797 2.1174858 -0.07307938 0.3318204
1.0198013 0.83197093 1.46361 0.6383966 -2.4216638 0.39768988 0.019972507 0.081366405
-0.22880071 0.5321118 0.10645179 -0.4413554 -0.06228814 0.61700666 -0.09592541 0.7223431
-0.536301 -0.72087187 -0.4935117 -0.71707654 -0.37991092 -1.1381279 -0.32269043 0.68047065
-1.8594513 0.44971824 0.2778267 1.8287765 2.4867449 1.3106003 0.47496086 -0.27369815
-0.22329915 -0.74149394 -1.0718472 1.9238927 -0.7997527 0.45419544 -0.066109754 1.2237664
-2.215651 0.6372848 0.5676712 -0.056876443 -0.3483681 -1.0959755 -0.16548155 0.5442387
0.70989925 1.1702901 -0.5894098 -1.3538725 -0.7035977 -1.3903847 1.2861694 0.7900299
-0.13891451 0.5521003 0.6755869 -0.9400256 -0.3315917 -1.0362526 -1.0179228 0.7655026
0.3906667 0.31438473 -1.111488 -0.5294372 -0.2053627 1.2004675 -0.25413764 0.562435
-0.9268839 -0.17780471 0.25557098 -1.0156374 0.78549576 -0.550163 0.8470667 -0.8182247
-0.5836689 -0.022000348 0.8033471 0.31247306 0.299946 -0.8986723 0.04207757 -0.21084847
0.13529804 0.0794472 0.0766758 0.24761246 2.106279 -0.2623499 -1.3097905 -0.5250454
1.7219498 1.1222 1.0914791 -0.22255626 0.30092153 -0.014674967 0.69845366 1.0097014
0.4445533 -0.54763484 -0.950062 0.708984 0.04501912 -0.04626699 0.25564724 -0.5027033
-0.35923794 -0.26143873 0.6420877 1.3605794 0.14341505 -1.2076268 0.33605668 1.0887204
0.2523459 -0.1206467 -1.1478391 -0.8483345 -0.19643308 -1.6241388 -0.30679184 -1.963258
-0.53690827 -0.5320374 0.51470304 1.7060149 0.76957726 1.5835717 -0.51675165 1.2617323
0.2815769 0.25293803 0.37424937 -1.6316297 -0.18738125 0.53143156 0.94475067 0.37381366
0.012354313 0.442121 -0.80477875 -0.66129273 -0.61701226 0.61253446 0.2870942 -1.5149994
0.18724331 0.36756122 0.032293748 -0.26133314 -1.5386568 0.13061453 -0.7684818 -0.91526306
-0.0593299 -0.35027596 0.07698547 0.7276605 0.13785331 -0.8285727 1.365023 -0.22744663
1.867578 0.6760349 1.3724393 -0.12571156 -0.07735736 -0.23090005 1.8617606 1.5177499
0.49488837 -0.07667388 0.0456448 1.3933096 1.4319934 0.87295526 -0.31914914 1.8637713
-1.0250189 0.74589926 0.7111688 -1.8187828 -0.91234094 -0.059598338 -1.3230067 1.3313748
00000000: bdc8 9d3f 71ba 923f ab78 77bf 9cd4 41bf
00000010: f2a0 9d3f 1ac4 c3be 10f1 2ebf 718b 6dbe
00000020: 11ca 6e3e 6544 8b3f c6ae ac3f a78d 003e
00000030: 4076 babd 744a 32bf 58e9 613f 3169 72bf
00000040: 050b 813e bb3d d23e 6f4f 09bf 0991 d23e
00000050: ef98 493f 168c 3c3f 98f1 0c3e a4d8 48bf
00000060: 5f9b 8c3e b02c d5be 385f 5e3f ca59 243f
00000070: d077 1fbf 74c3 e83e 028d 56be 6f8f b1bf
00000080: 32c2 203e f706 5b3d f1a4 103f 62e5 a93e
00000090: a925 c0bf de26 993e 3b30 2c3e 2749 9ebe
000000a0: a1fd d1bc 7d3e 073e 9f22 e1bd f5b6 32c0
000000b0: 3ffe be3e e208 63bf 0ec5 fc3e 144f 043e
000000c0: aa2f 49bf 6b18 93bf 4833 37bd 9c58 51be
000000d0: 9fdf 9b3e df64 513f d600 623f b269 27bf
000000e0: ea74 febe 3dd7 933e 1e1f 86bf 9335 0d3e
000000f0: 39a5 8bbf e384 0740 a4aa 95bd 5de4 a93e
00000100: d988 823f 0cfc 543f 9357 bb3f f66d 233f
00000110: 8afc 1ac0 029e cb3e 629d a33c 6ea3 a63d
00000120: bc4a 6abe 7b38 083f 6503 da3d 56f9 e1be
00000130: d921 7fbd 26f4 1d3f 8b74 c4bd 7aeb 383f
00000140: 064b 09bf 0f8b 38bf 91ad fcbe 5492 37bf
00000150: af83 c2be 2dae 91bf ae37 a5be 5333 2e3f
00000160: 8002 eebf 7841 e63e 4d3f 8e3e 5915 ea3f
00000170: d426 1f40 c0c1 a73f 122e f33e 2a22 8cbe
00000180: 88a8 64be 8cd2 3dbf 4a32 89bf 1e42 f63f
00000190: 98bc 4cbf 4e8c e83e 8d64 87bd 61a4 9c3f
000001a0: 3acd 0dc0 1925 233f e652 113f 46f7 68bd
000001b0: 4e5d b2be ed48 8cbf ff73 29be 3a53 0b3f
000001c0: f5bb 353f 11cc 953f 90e3 16bf b24b adbf
000001d0: fb1e 34bf 20f8 b1bf 33a1 a43f 663f 4a3f
000001e0: 9b3f 0ebe 7256 0d3f 43f3 2c3f 85a5 70bf
000001f0: 63c6 a9be eda3 84bf 4b4b 82bf faf7 433f
00000200: 7705 c83e 09f7 a03e 3d45 8ebf 3289 07bf
00000210: 9a4a 52be eba8 993f 541e 82be bdfb 0f3f
00000220: 4348 6dbf 7012 36be 33da 823e 6800 82bf
00000230: 4016 493f 7bd7 0cbf 5dd9 583f 2d77 51bf
00000240: 536b 15bf 133a b4bc 28a8 4d3f 78fc 9f3e
00000250: 8692 993e 630f 66bf 8859 2c3d a9e8 57be
00000260: 928b 0a3e 37b5 a23d 3408 9d3d 1f8e 7d3e
00000270: 46cd 0640 ba52 86be 37a7 a7bf 6069 06bf
00000280: da68 dc3f 40a4 8f3f 96b5 8b3f cae5 63be
00000290: 6312 9a3e 466f 70bc dccd 323f e53d 813f
000002a0: 7d9c e33e cc31 0cbf 4337 73bf fa7f 353f
000002b0: f865 383d 7582 3dbd 32e4 823e 2ab1 00bf
000002c0: 09ee b7be 4cdb 85be dc5f 243f 7727 ae3f
000002d0: 65db 123e 8493 9abf 9f0f ac3e 315b 8b3f
000002e0: 7b33 813e 9e15 f7bd 64ec 92bf 732c 59bf
000002f0: c125 49be c8e3 cfbf d213 9dbe 0a4c fbbf
00000300: d272 09bf 9a33 08bf 94c3 033f b25e da3f
00000310: 0403 453f 7ab2 ca3f d649 04bf 7280 a13f
00000320: d92a 903e 1881 813e 9d9d bf3e 3ed9 d0bf
00000330: dfe0 3fbe e60b 083f 2edb 713f 8164 bf3e
00000340: bf69 4a3c af5d e23e fb05 4ebf 7b4a 29bf
00000350: 84f4 1dbf 0fcf 1c3f 03fe 923e 80eb c1bf
00000360: b6bc 3f3e fc30 bc3e 7346 043d 75cd 85be
00000370: b5f2 c4bf d1bf 053e 39bb 44bf ae4e 6abf
00000380: e903 73bd 5f57 b3be 8faa 9d3d f547 3a3f
00000390: 6b29 0d3e 571d 54bf 13b9 ae3f c5e7 68be
000003a0: cc0c ef3f a010 2d3f 17ac af3f 88ba 00be
000003b0: 896d 9ebd 1071 6cbe 2c4e ee3f a145 c23f
000003c0: 0262 fd3e 3207 9dbd 0bf6 3a3d f857 b23f
000003d0: 8f4b b73f ff79 5f3f 8467 a3be 0f90 ee3f
000003e0: d233 83bf 41f3 3e3f 290f 363f e0cd e8bf
000003f0: 2d8f 69bf 631d 74bd 4958 a9bf 7d6a aa3f

recurrent.spatial_attn.mha.lambda_q1 f4 [8]
0.029101936 -0.23358737 0.30707994 0.0058528087 0.23602305 0.26429918 -0.022332793 0.19666901
00000000: 2f67 ee3c 8731 6fbe 9539 9d3e ebc8 bf3b
00000010: 07b0 713e 3952 873e 43f3 b6bc 9a63 493e

recurrent.spatial_attn.mha.lambda_k1 f4 [8]
-0.025068318 -0.29645237 0.21492006 0.090096064 0.34279007 0.28168803 -0.021884276 0.37265375
00000000: 135c cdbc 9bc8 97be 0114 5c3e 4984 b83d
00000010: 2e82 af3e 6a39 903e a746 b3bc 79cc be3e

recurrent.spatial_attn.mha.lambda_q2 f4 [8]
0.021773584 -0.101382904 -0.28306925 0.48142305 0.1560417 -0.046918992 0.1372045 -0.030476332
00000000: 845e b23c d7a1 cfbd 74ee 90be 157d f63e
00000010: 65c9 1f3e 212e 40bd 567f 0c3e 80a9 f9bc

recurrent.spatial_attn.mha.lambda_k2 f4 [8]
-0.045781694 0.076989435 0.2263936 -0.21444476 -0.16350125 0.09601709 -0.06715786 0.030728297
00000000: 9685 3bbd a3ac 9d3d b9d3 673e 6897 5bbe
00000010: df6c 27be 9ca4 c43d 0f8a 89bd e9b9 fb3c

recurrent.spatial_attn.mha.q_proj.weight f4 [32, 32]
0.16762017 -0.062120344 0.20614491 -0.23089507 -0.04560496 -0.11031228 0.2878456 0.06507648
0.0022281657 0.11328813 0.073834665 -0.24794592 -0.06346976 0.1953794 0.08483954 0.08965929
0.06403345 -0.13783544 -0.2598456 0.07295502 -0.27166456 -0.10042439 -0.03249358 -0.117424965
0.042425763 0.1279999 0.111469574 0.3186199 0.13883273 -0.06580672 0.24969172 0.016657332
0.23322345 0.030148549 -0.05415571 0.035341732 0.09952798 0.18404655 -0.21701074 0.02684758
0.10401037 0.03500248 0.056078408 0.23472472 -0.22729379 -0.18759611 0.14968042 0.03982831
0.009517849 0.19198261 -0.13401136 -0.22218947 -0.11880658 0.1254058 0.14627786 0.19206582
-0.11011477 0.057054263 0.01568063 -0.05033292 -0.17690106 0.061070528 0.009483225 -0.045859486
-0.11248563 -0.015473828 0.058285918 0.020620678 0.08891633 -0.046919525 -0.15915738 0.11934916
0.19687812 -0.08149598 -0.17519061 0.04626422 0.01773775 0.119903885 0.053361334 0.04616385
-0.10972273 -0.09453792 0.25612918 -0.049476504 0.029258402 -0.128171 -0.061970744 0.106094524
-0.27104095 0.05747876 -0.04144024 -0.22418404 0.07214631 0.27484506 0.13789508 0.062226083
0.08692176 -0.05733572 -0.2318811 0.11700017 -0.017271755 0.12888792 -0.31192714 -0.12779808
0.18683556 0.12975116 -0.12097878 0.19455302 -0.023079045 0.13276733 0.049006358 0.06494583
-0.018645672 0.0151418755 0.23664486 0.09282776 0.17338519 0.07891174 -0.10477804 -0.010827482
-0.044519205 0.12215775 -0.16671227 -0.024672734 -0.03731336 -0.03830897 0.19580284 -0.014391204
0.044123363 -0.24976198 0.10250908 0.07050651 -0.12841384 -0.04595613 0.16092485 -0.21992928
-0.15124848 -0.012864715 0.10553083 -0.06206489 -0.024579145 -0.116176866 0.08170621 0.06743903
0.023699274 -0.049892027 -0.07722373 0.13808098 0.0715925 -0.13471104 -0.14096221 -0.15168402
0.2312947 0.14699955 0.1542141 0.11648491 0.029132074 -0.15910226 -0.03191525 0.047615465
0.07023457 -0.13464451 0.03686803 -0.11793521 0.023986673 -0.0735675 0.02919641 -0.06235449
0.05790556 0.11498561 0.06157069 0.110537626 0.057762317 0.07954806 0.038069 0.21049158
-0.11535543 -0.00806855 -0.26506144 -0.13102096 0.07739871 0.2155369 -0.098007396 0.037736475
-0.16755179 0.03489115 -0.023994587 0.13682395 -0.13337943 -0.06570578 0.21566768 0.09868417
-0.089448154 0.022113701 0.1293511 0.07655903 -0.033162363 0.011561752 0.20739812 -0.06663413
0.010940737 0.061509937 -0.035797987 -0.054765824 0.08327242 -0.15619008 -0.096221864 -0.018748231
0.21434307 0.02300887 0.08104426 0.09095196 -0.16893062 0.04835922 -0.06694835 -0.11758007
-0.059553005 -0.23028007 0.066211514 -0.1585041 0.1945358 0.038991068 -0.25271794 -0.15429237
-0.107458316 0.25911498 -0.077408254 0.17751777 -0.21532229 -0.19522299 0.07880223 0.17088465
-0.055314932 -0.03402606 0.09761069 0.08641254 0.28268984 -0.06918015 -0.15865484 0.06362431
0.022291781 0.22594675 0.11562769 0.19613142 0.014217589 -0.12867664 -0.050939295 0.07636168
0.080479905 -0.05050581 -0.14317988 -0.03956248 0.15541826 0.046774343 -0.1930766 0.04667463
00000000: 9fa4 2b3e e771 7ebd a717 533e c26f 6cbe
00000010: 44cc 3abd 68eb e1bd 8060 933e d146 853d
00000020: 6b06 123b 9b03 e83d a136 973d 89e5 7dbe
00000030: 6ffc 81bd 8a11 483e 5ac0 ad3d 4a9f b73d
00000040: f823 833d bc24 0dbe 7c0a 85be 7169 953d
00000050: 9e17 8bbe 4dab cdbd fd17 05bd 807c f0bd
00000060: a3c6 2d3d 6812 033e 294a e43d 2622 a33e
00000070: 2b2a 0e3e acc5 86bd 30af 7f3e f574 883c
00000080: 21d2 6e3e 17fa f63c 61d2 5dbd 7ec2 103d
00000090: 53d5 cb3d b376 3c3e 1038 5ebe 75ef db3c
000000a0: 6403 d53d c35e 0f3d 79b2 653d ad5b 703e
000000b0: b4bf 68be 3219 40be d345 193e 0323 233d
000000c0: c1f0 1b3c 1797 443e 463a 09be a385 63be
000000d0: dd50 f3bd 616a 003e ddc9 153e e7ac 443e
000000e0: da83 e1bd bbb1 693d aa74 803c e429 4ebd
000000f0: 8d25 35be 1725 7a3d 875f 1b3c 28d7 3bbd
00000100: de5e e6bd f085 7dbc 37bd 6e3d b2ec a83c
00000110: c419 b63d b02e 40bd 27fa 22be 556d f43d
00000120: 6b9a 493e 5de7 a6bd 2b65 33be 8d7f 3d3d
00000130: c24e 913c 2b90 f53d 6a91 5a3d 4e16 3d3d
00000140: 50b6 e0bd 199d c1bd 5d23 833e e0a7 4abd
00000150: 51af ef3c 423f 03be 09d5 7dbd 1648 d93d
00000160: e1c5 8abe d96e 6b3d 3ebd 29bd 8090 65be
00000170: 72c1 933d 7eb8 8c3e 5e34 0d3e c7e0 7e3d
00000180: 0904 b23d dcd8 6abd 3d72 6dbe c99d ef3d
00000190: 7f7d 8dbc 32fb 033e eab4 9fbe 80dd 02be
000001a0: d251 3f3e 7ddd 043e b9c3 f7bd e838 473e
000001b0: 4410 bdbc 29f4 073e e4ba 483d 5202 853d
000001c0: cfbe 98bc a115 783c 0853 723e 7b1c be3d
000001d0: e38b 313e 7a9c a13d de95 d6bd c065 31bc
000001e0: c559 36bd d82d fa3d 9fb6 2abe 791e cabc
000001f0: e5d5 18bd dee9 1cbd 8a80 483e 16c9 6bbc
00000200: b3ba 343d 9bc1 7fbe 48f0 d13d b865 903d
00000210: eb7e 03be 7f3c 3cbd 7cc9 243e 2435 61be
00000220: e2e0 1abe 87c6 52bc 8c20 d83d c137 7ebd
00000230: 345a c9bc 23ee edbd 9655 a73d 791d 8a3d
00000240: fb24 c23c 955b 4cbd 7a27 9ebd 1a65 0d3e
00000250: 179f 923d b1f1 09be 6658 10be 0e53 1bbe
00000260: 85d8 6c3e 0d87 163e 4dea 1d3e a48f ee3d
00000270: 63a6 ee3c b4eb 22be 91b9 02bd 6f08 433d
00000280: 24d7 8f3d 40e0 09be ee02 173d 0488 f1bd
00000290: b37f c43c 8faa 96bd 4f2d ef3c 6c67 7fbd
000002a0: 612e 6d3d 937d eb3d 8c31 7c3d 8d61 e23d
000002b0: 2e98 6c3d 18ea a23d 3dee 1b3d 1b8b 573e
000002c0: 783f ecbd f431 04bc 22b6 87be 5c2a 06be
000002d0: 3783 9e3d b5b5 5c3e 1ab8 c8bd 9091 1a3d
000002e0: b292 2bbe 06ea 0e3d 4c90 c4bc 941b 0c3e
000002f0: 9e94 08be c190 86bd fdd7 5c3e ed1a ca3d
00000300: 9830 b7bd cb27 b53c 9d74 043e fbca 9c3d
00000310: 42d5 07bd 816d 3d3c 2c60 543e 7a77 88bd
00000320: c740 333c d8f1 7b3d e9a0 12bd 2152 60bd
00000330: bb8a aa3d 4bf0 1fbe f80f c5bd e495 99bc
00000340: c07c 5b3e 197d bc3c 88fa a53d 0545 ba3d
00000350: 26fc 2cbe 5114 463d 371c 89bd d2cd f0bd
00000360: daed 73bd 8ace 6bbe e799 873d e64e 22be
00000370: 6534 473e 19b5 1f3d 3f64 81be d2fe 1dbe
00000380: 1b13 dcbd b8aa 843e 3888 9ebd 38c7 353e
00000390: 727d 5cbe 89e8 47be 1063 a13d 63fc 2e3e
000003a0: e991 62bd e95e 0bbd 1de8 c73d 0ff9 b03d
000003b0: b9bc 903e 53ae 8dbd 6a76 22be 764d 823d
000003c0: 419d b63c 965e 673e 36ce ec3d add6 483e
000003d0: e4f0 683c cfc3 03be b9a5 50bd 8363 9c3d
000003e0: a6d2 a43d 2edf 4ebd bf9d 12be 440c 22bd
000003f0: f725 1f3e 7496 3f3d dfb5 45be e62d 3f3d

recurrent.spatial_attn.mha.k_proj.weight f4 [32, 32]
-0.13665806 -0.04639169 0.0027596003 -0.03252599 0.020509522 -0.18698299 0.078140944 0.028812902
0.032560688 -0.13451402 0.0585074 0.173437 -0.17410165 -0.0071160253 -0.18186472 0.007454552
-0.12319312 0.19605039 -0.035506178 -0.16822544 0.08043476 0.2127485 0.24264008 -0.00785166
-0.13705407 -0.019543702 -0.15424635 -0.18358794 -0.21083343 0.18039778 0.15368678 0.14366208
0.043946747 0.2240606 0.085376434 0.0992485 0.14185327 -0.06602481 -0.06341134 -0.09424253
0.006642118 -0.1695532 -0.2075596 -0.010443343 0.2397261 -0.031021807 0.08483042 -0.29000118
-0.15109177 -0.13041267 -0.18539688 0.09785223 0.1435106 0.17500333 0.046575367 -0.10283924
0.06431489 -0.13569343 -0.065494545 0.055500284 -0.08596522 0.06373936 -0.19478346 -0.19764368
-0.18499474 -0.06152044 0.15604821 0.01879045 -0.13019744 0.23521698 -0.18850641 -0.048213527
0.023939896 -0.11233488 -0.20630234 -0.059133813 0.24391113 0.05354296 0.27382684 -0.034296334
0.06810459 -0.1449718 -0.08816251 -0.024265995 0.014438901 0.08214932 -0.071627855 -0.11122717
0.16932368 0.06350815 -0.22076683 -0.0100428695 0.09092538 -0.16158004 -0.20916986 0.09308615
0.06664211 0.1573843 0.06321076 -0.071204424 -0.006028973 0.010688063 0.1042606 -0.08854827
-0.20856515 -0.19150434 -0.04192183 -0.10871504 0.16977808 -0.07936759 0.14811206 -0.17997149
0.0459404 0.016540002 0.17683972 -0.122878335 -0.103891216 0.09677216 -0.004590749 -0.13935278
0.12735744 0.045956455 -0.2075022 0.23561552 -0.05909311 -0.19416074 -0.18347879 -0.1135759
0.0512314 0.16483594 -0.15769719 0.002969245 -0.03640341 -0.13277696 0.11008064 -0.057283264
0.16641533 -0.07161437 0.18887551 -0.14522299 0.14884663 -0.089921966 -0.20131132 0.16192898
0.05849767 0.042767547 -0.255389 0.012762377 0.2092574 0.16469613 0.26503196 -0.059340633
-0.1695743 -0.08875057 0.15197733 -0.15849878 -0.09885674 0.0864931 -0.008420636 0.03436515
-0.01699964 0.088265635 -0.1303875 -0.17959906 -0.10175109 -0.05752718 0.14373931 0.038446624
-0.0074670743 -0.11355698 0.10795446 0.07630976 -0.08243311 -0.009238011 0.112826064 0.06658408
0.1729897 0.1684525 0.12753408 -0.13250342 0.12683462 -0.047780313 0.000683784 -0.116265364
-0.086678654 -0.019147594 0.09251138 0.1241599 0.056312643 -0.00053314504 0.23311889 -0.0066890325
-0.045994908 -0.17416325 0.1708043 -0.11524386 0.10879154 -0.0037522747 -0.04048518 -0.14180024
0.011092667 0.066353604 0.004744853 -0.054052517 -0.06481238 0.029485168 -0.21658026 0.1770281
-0.021401541 -0.123346746 -0.07386961 -0.035000324 -0.10715991 0.11328323 0.09146363 0.0011435885
0.026347885 0.1438177 0.070251666 -0.15660244 -0.12696394 0.19430734 0.037819065 0.13354424
-0.0032532325 -0.19279754 0.052578107 0.035600834 -0.09274129 -0.11332185 0.1255708 -0.23242529
-0.019686766 0.15956348 -0.016504997 -0.163635 -0.089064345 0.025427964 -0.008883099 0.03246308
0.08852682 -0.10463264 -0.12751415 0.17797014 -0.17952612 0.0008502256 -0.104666226 -0.079246715
0.05794293 -0.13770728 0.047258843 -0.11926785 -0.09696127 0.13017829 -0.0014989307 -0.005972859
00000000: 17f0 0bbe 3605 3ebd 69da 343b f939 05bd
00000010: 9603 a83c 7878 3fbe 5c08 a03d 0909 ec3c
00000020: 5b5e 053d 0bbe 09be 75a5 6f3d 7899 313e
00000030: b447 32be 8c2d e9bb bf3a 3abe 5145 f43b
00000040: ad4c fcbd 6fc1 483e ed6e 11bd 4a43 2cbe
00000050: fbba a43d beda 593e a476 783e 40a4 00bc
00000060: e757 0cbe 1d1a a0bc c1f2 1dbe 7afe 3bbe
00000070: b8e4 57be 32ba 383e 1160 1d3e 271c 133e
00000080: 8101 343d 2470 653e d7d9 ae3d cc42 cb3d
00000090: fc41 113e 0438 87bd cedd 81bd 3a02 c1bd
000000a0: 20a6 d93b 5b9f 2dbe 818a 54be 8e1a 2bbc
000000b0: c27a 753e 7221 febc 92bb ad3d 097b 94be
000000c0: cdb7 1abe e68a 05be aed8 3dbe c066 c83d
000000d0: 71f4 123e 1334 333e d0c5 3e3d 619d d2bd
000000e0: 86b7 833d 38f3 0abe 0122 86bd 4454 633d
000000f0: 890e b0bd c889 823d 5175 47be 1b63 4abe
00000100: 436f 3dbe dbfc 7bbd 1acb 1f3e 6eee 993c
00000110: 7a52 05be b8dc 703e d307 41be 8c7b 45bd
00000120: 9a1d c43c d40f e6bd ec40 53be 4c36 72bd
00000130: d7c3 793e dd4f 5b3d 0833 8c3e 507a 0cbd
00000140: 6b7a 8b3d 7d73 14be 8c8e b4bd 7bc9 c6bc
00000150: 2491 6c3c e73d a83d a0b1 92bd 12cb e3bd
00000160: 3063 2d3e 9010 823d b310 62be d98a 24bc
00000170: 1637 ba3d 3d75 25be a030 56be f4a3 be3d
00000180: a97b 883d 5a29 213e a574 813d a0d3 91bd
00000190: b18e c5bb fc1c 2f3c 9586 d53d cc58 b5bd
000001a0: 1a92 55be b719 44be 3ab6 2bbd fea5 debd
000001b0: 4eda 2d3e 7a8b a2bd b0aa 173e 724a 38be
000001c0: 002c 3c3d e67e 873c 7915 353e a3a7 fbbd
000001d0: ebc4 d4bd 7b30 c63d fe6d 96bb 7fb2 0ebe
000001e0: fd69 023e d63c 3c3d 757b 54be 3245 713e
000001f0: 9e0b 72bd 13d2 46be dde1 3bbe 7b9a e8bd
00000200: 04d8 513d c1ca 283e 5f7b 21be aa97 423b
00000210: be1b 15bd aff6 07be f571 e13d dba1 6abd
00000220: c868 2a3e 8eaa 92bd 9568 413e 56b5 14be
00000230: 406b 183e 0229 b8bd 8e24 4ebe b6d0 253e
00000240: 419b 6f3d 062d 2f3d 59c2 82be 4a19 513c
00000250: 9247 563e 1aa6 283e 45b2 873e 2a0f 73bd
00000260: e3a4 2dbe dcc2 b5bd f29f 1b3e 814d 22be
00000270: 6775 cabd 4b23 b13d b5f6 09bc 79c2 0c3d
00000280: d442 8bbc 9dc4 b43d 4d84 05be d1e8 37be
00000290: e062 d0bd 9fa1 6bbd 6630 133e 357a 1d3d
000002a0: 5cae f4bb 9090 e8bd 3a17 dd3d 4b48 9c3d
000002b0: b1d2 a8bd 075b 17bc 5a11 e73d 3c5d 883d
000002c0: 3624 313e d07e 2c3e 4b98 023e faae 07be
000002d0: efe0 013e 4ab5 43bd f83f 333a 891c eebd
000002e0: 9484 b1bd 6adb 9cbc 9b76 bd3d 8c47 fe3d
000002f0: 16a8 663d c2c2 0bba b8b6 6e3e ac2f dbbb
00000300: 2865 3cbd da57 32be 53e7 2e3e f904 ecbd
00000310: 19ce de3d b9e8 75bb cad3 25bd 1534 11be
00000320: 04be 353c 66e4 873d b67a 9b3b 2c66 5dbd
00000330: 5abc 84bd e18a f13c 37c7 5dbe db46 353e
00000340: 4952 afbc 389d fcbd f348 97bd 805c 0fbd
00000350: a876 dbbd 0a01 e83d 4951 bb3d 76e4 953a
00000360: 85d7 d73c f244 133e 1be0 8f3d 645c 20be
00000370: d602 02be 81f8 463e 2ae8 1a3d d2bf 083e
00000380: 2f34 55bb b86c 45be 245c 573d 2ed2 113d
00000390: 25ef bdbd 4915 e8bd a295 003e e500 6ebe
000003a0: 2446 a1bc 9c64 233e 7d35 87bc ef8f 27be
000003b0: 5e67 b6bd 4e4e d03c 6b8a 11bc 02f8 043d
000003c0: 8d4d b53d a349 d6bd 1293 02be ce3d 363e
000003d0: b2d5 37be ade1 5e3a 3f5b d6bd 1a4c a2bd
000003e0: 9155 6d3d 2303 0dbe 7d92 413d b442 f4bd
000003f0: a193 c6bd 754d 053e c577 c4ba f9b7 c3bb

recurrent.spatial_attn.mha.v_proj.weight f4 [32, 32]
-0.038666446 0.04705144 0.1852147 0.072123036 0.09175005 0.22512576 0.107245006 -0.23071031
-0.21834075 0.17523323 -0.008629258 -0.1110783 -0.10120821 -0.08752609 -0.16633554 0.06668345
0.00088575255 -0.23884176 0.09537416 0.13368404 -0.17698953 0.04535419 -0.20996992 0.034341052
0.03983426 -0.056725554 0.10295236 0.14039986 0.17155868 -0.17017058 0.16063896 0.1791044
-0.01931578 -0.011889727 -0.09815894 -0.0133061465 0.008002534 -0.121685594 0.09384099 0.1666247
-0.0056335465 -0.1960892 0.05431765 -0.10870422 -0.010863664 0.19921689 0.17659773 -0.074789815
-0.014827408 0.165119 0.036505274 -0.13231993 0.16298279 0.15155555 0.06088837 0.12624872
-0.25916737 0.055406824 0.006427632 -0.12772955 -0.07559308 0.026136817 0.073172085 -0.14460783
0.17541955 -0.009113645 -0.19586223 0.09252259 -0.031672608 -0.070062324 0.14090636 0.22501007
0.33023128 -0.075896546 0.19701426 -0.18575652 -0.20975718 0.17932078 -0.20243981 -0.005789238
-0.23749307 0.2982342 0.19404912 -0.14813928 0.13915902 -0.008996575 0.11061361 0.038943753
-0.22854716 -0.033467606 0.10637562 -0.07302966 -0.24027698 0.17848873 0.17208843 0.064863265
0.071941726 0.22181608 -0.14513533 -0.028674927 0.17844707 0.23413928 -0.110963665 0.17932676
0.18019669 -0.12941608 -0.25211078 -0.002664184 -0.1631301 -0.16757606 0.08086092 0.1283211
-0.00031720195 -0.11191063 0.12839511 0.11356172 -0.13446018 -0.2120694 0.11634757 0.07793786
0.008895865 0.15350871 0.0662398 -0.031060943 0.1576117 0.075388595 -0.18762027 -0.014988172
0.07860956 -0.18400608 0.13577381 -0.1516672 -0.20599246 0.00021138723 0.09541944 -0.003868223
0.0016131831 0.0064456197 0.03220637 0.00751818 -0.07015623 -0.17795041 -0.06573936 -0.008057029
-0.10343734 -0.18267167 -0.17851773 0.05887337 -0.066581726 -0.16836192 -0.0029805345 -0.06360411
0.26968935 0.08480751 -0.049947277 -0.04656187 0.16528744 -0.33528984 0.07413922 -0.17152983
0.036603846 0.15338789 -0.14653955 -0.059496958 -0.09778668 -0.2472295 -0.0748111 0.2358305
0.10885574 -0.02690156 0.11713361 0.12535664 -0.11761327 0.19603738 -0.16980931 0.04791211
-0.18427245 0.22710651 0.11231365 0.032515444 0.17892739 0.23909836 0.03799857 0.075227804
-0.22095574 -0.07790714 -0.14822935 -0.14154457 -0.120756455 0.03429746 0.06465383 0.19377913
-0.22698966 -0.029401049 -0.1297065 -0.04596083 0.084349826 -0.18334769 -0.027940191 0.24173966
-0.0172578 0.13066696 -0.07813378 0.08716621 0.09387077 0.11929639 -0.099525504 -0.15586463
-0.040879626 0.10340707 0.16667894 -0.21325198 -0.035101 0.090000644 0.11399146 -0.032752186
-0.08560358 0.21610479 0.04510295 -0.04802032 -0.1000324 0.22504476 0.034016006 0.09750271
0.1331751 0.21798249 -0.035825167 -0.03294581 -0.15265357 0.12627023 0.06928912 0.110589884
0.07072275 0.102625206 0.14375639 -0.07625752 0.13803363 0.13787057 0.034678344 -0.021623578
0.05354937 -0.14297158 -0.1899676 0.029216614 -0.13282564 0.05917643 -0.05170525 -0.3102968
-0.17476574 -0.15669274 0.037117194 0.14815047 -0.023158787 -0.017176295 -0.12521105 0.04571314
00000000: b560 1ebd 03b9 403d eca8 3d3e 3eb5 933d
00000010: 73e7 bb3d 5e87 663e 45a3 db3d 533f 6cbe
00000020: b894 5fbe 5770 333e bb61 0dbc 057d e3bd
00000030: 4046 cfbd e140 b3bd dd53 2abe 5591 883d
00000040: d931 683a ef92 74be 8753 c33d 78e4 083e
00000050: be3c 35be 51c5 393d 5b02 57be 34a9 0c3d
00000060: 4029 233d 0e59 68bd b0d8 d23d fbc4 0f3e
00000070: 14ad 2f3e 3241 2ebe 8a7e 243e 2567 373e
00000080: 203c 9ebc 21cd 42bc 8e07 c9bd 0602 5abc
00000090: 0f1d 033c 4c36 f9bd b42f c03d aa9f 2a3e
000000a0: 9d99 b8bb 9bcb 48be 2f7c 5e3d 51a0 debd
000000b0: 82fd 31bc 83ff 4b3e 09d6 343e 672b 99bd
000000c0: a8ee 72bc f514 293e 8e86 153d e07e 07be
000000d0: f6e4 263e 6131 1b3e 1566 793d 5847 013e
000000e0: 96b1 84be 44f2 623d e39e d23b 89cb 02be
000000f0: 8bd0 9abd e11c d63c 3fdb 953d 1314 14be
00000100: 2fa1 333e 6651 15bc 1c90 48be 7c7c bd3d
00000110: 23bb 01bd d67c 8fbd c249 103e 0a69 663e
00000120: 1314 a93e a66f 9bbd 1bbe 493e f536 3ebe
00000130: 96ca 56be de9f 373e 624c 4fbe a6b3 bdbb
00000140: 6231 73be 27b2 983e d0b4 463e d3b1 17be
00000150: b47f 0e3e 5f66 13bc 6389 e23d 7c83 1f3d
00000160: 4408 6abe 5415 09bd 76db d93d 9390 95bd
00000170: 2b0b 76be c0c5 363e f337 303e 08d7 843d
00000180: 2f56 933d c123 633e 5b9e 14be aee7 eabc
00000190: d4ba 363e 35c2 6f3e eb40 e3bd 6fa1 373e
000001a0: 7b85 383e a685 04be aa14 81be 9799 2ebb
000001b0: 940b 27be 0f99 2bbe 699a a53d 9b66 033e
000001c0: 204e a6b9 6631 e5bd 027a 033e 0c93 e83d
000001d0: eeaf 09be b928 59be a347 ee3d e29d 9f3d
000001e0: f6bf 113c 6331 1d3e bba8 873d 8573 febc
000001f0: f664 213e 5665 9a3d 871f 40be f390 75bc
00000200: 0dfe a03d 176c 3cbe 4a08 0b3e a54e 1bbe
00000210: b0ef 52be d4a7 5d39 446b c33d 0382 7dbb
00000220: 7171 d33a c735 d33b d4ea 033d 115b f63b
00000230: 12ae 8fbd a238 36be 5ca2 86bd a101 04bc
00000240: f5d6 d3bd 480e 3bbe 5acd 36be 3425 713d
00000250: 005c 88bd 1167 2cbe 1255 43bb df42 82bd
00000260: b914 8a3e 8faf ad3d 8495 4cbd a9b7 3ebd
00000270: 1c41 293e 1cab abbe 4ed6 973d 84a5 2fbe
00000280: eaed 153d b711 1d3e 770e 16be 15b3 73bd
00000290: 6244 c8bd bb29 7dbe 9036 99bd 8d7d 713e
000002a0: c2ef de3d a960 dcbc bfe3 ef3d 7e5d 003e
000002b0: 3adf f0bd 06be 483e 7ee2 2dbe 7d3f 443d
000002c0: ebb1 3cbe 9c8e 683e b304 e63d ea2e 053d
000002d0: be38 373e 33d6 743e 63a4 1b3d 0911 9a3d
000002e0: 3942 62be c78d 9fbd 6fc9 17be 0ff1 10be
000002f0: 294f f7bd 7e7b 0c3d 3a69 843d 096e 463e
00000300: fa6f 68be 78da f0bc c8d1 04be 6c41 3cbd
00000310: 9abf ac3d 7fbf 3bbe d4e2 e4bc 9a8a 773e
00000320: 3b60 8dbc 8fcd 053e 9a04 a0bd 3384 b23d
00000330: 513f c03d aa51 f43d 07d4 cbbd fa9a 1fbe
00000340: 6571 27bd 16c7 d33d e2ad 2a3e ba5e 5abe
00000350: 11c6 0fbd 4252 b83d 5b74 e93d 2827 06bd
00000360: ee50 afbd 934a 5d3e dfbd 383d f4b0 44bd
00000370: c9dd ccbd 2272 663e 5e54 0b3d 80af c73d
00000380: 0e5f 083e cd36 5f3e 69bd 12bd 30f2 06bd
00000390: 3851 1cbe fc4c 013e 74e7 8d3d f37c e23d
000003a0: 17d7 903d 2a2d d23d e034 133e e72c 9cbd
000003b0: b058 0d3e f12d 0d3e e10a 0e3d ee23 b1bc
000003c0: 9656 5b3d 2467 12be de86 42be ae57 ef3c
000003d0: 7203 08be fc62 723d e2c8 53bd 39df 9ebe
000003e0: caf5 32be 1074 20be 3308 183d c2b4 173e
000003f0: 7fb7 bdbc 4db5 8cbc 5337 00be b43d 3b3d

recurrent.spatial_attn.mha.subln.weight f4 [16]
0.9500447 0.95376945 1.131596 0.9134113 1.0443597 1.07121 0.9382369 1.0539223
0.9551225 1.1045984 0.9031225 1.1145475 1.0631133 0.9649246 1.0108247 1.0399029
00000000: 2136 733f 3c2a 743f 23d8 903f 53d5 693f
00000010: 94ad 853f 691d 893f 4b30 703f ede6 863f
00000020: e882 743f 7b63 8d3f 0933 673f 7ea9 8e3f
00000030: 1914 883f 4c05 773f b462 813f 8a1b 853f

recurrent.spatial_attn.ln2.weight f4 [32]
0.8101033 1.0757841 1.0102861 0.93419564 0.98128253 1.1012844 1.1030058 0.8910475
0.9198852 0.7573335 1.0156062 0.994949 0.971842 0.9198996 0.9418169 1.0125604
0.9884749 0.8163516 1.0775957 0.86298853 0.9377059 0.8448687 0.7599235 0.7176365
1.1624273 1.051893 1.0639105 0.9559548 1.0441196 0.940756 0.7535705 0.96400124
00000000: ee62 4f3f 4bb3 893f 0e51 813f 7227 6f3f
00000010: 5535 7b3f e3f6 8c3f 4b2f 8d3f b01b 643f
00000020: 997d 6b3f 9ce0 413f 62ff 813f fab4 7e3f
00000030: a3ca 783f 8a7e 6b3f ea1a 713f 949b 813f
00000040: b10c 7d3f 6bfc 503f a8ee 893f d1ec 5c3f
00000050: 7e0d 703f 5149 583f 598a 423f 07b7 373f
00000060: 6bca 943f 6ea4 863f 382e 883f 74b9 743f
00000070: b6a5 853f 63d5 703f ffe9 403f c9c8 763f

recurrent.spatial_attn.ln2.bias f4 [32]
-0.031758722 0.19583686 0.1460486 -0.07292741 -0.10755627 0.23297067 0.20468679 0.041687667
-0.1254068 0.11069468 0.17353845 -0.10414859 -0.060445193 -0.034719136 0.029041452 0.14545773
0.18700096 -0.18622777 -0.07573785 0.092209786 -0.1250521 -0.13262762 0.05050352 0.0019435121
0.169145 -0.104256324 0.099316776 -0.11075338 0.16321997 -0.07611288 -0.04158872 -0.025529712
00000000: 6f15 02bd 7589 483e c48d 153e f75a 95bd
00000010: 7646 dcbd dd8f 6e3e 6a99 513e b0c0 2a3d
00000020: a46a 00be e4b3 e23d 10b4 313e db4b d5bd
00000030: 6195 77bd a735 0ebd 57e8 ed3c dff2 143e
00000040: 2e7d 3f3e 7eb2 3ebe 721c 9bbd 7cd8 bc3d
00000050: a80d 00be 89cf 07be c7dc 4e3d 72bd fe3a
00000060: 5934 2d3e 5784 d5bd 9866 cb3d abd2 e2bd
00000070: 2323 273e 12e1 9bbd ef58 2abd b023 d1bc

recurrent.spatial_attn.ffn.linear.weight f4 [32, 32]
0.12579618 0.1432901 -0.17353345 0.08314654 -0.01548317 -0.26656446 -0.005168581 0.09382223
0.02559605 -0.13088636 -0.12029125 -0.033332594 0.13129707 -0.018023832 -0.14440116 -0.0061573144
0.039648812 0.011830298 -0.011351227 0.11940146 0.21360338 -0.14491823 0.08519554 0.030413369
0.09930408 0.20319387 -0.11493565 0.09194086 0.014498423 -0.17960289 -0.13214067 -0.1556413
-0.14548522 -0.16076036 -0.109889485 -0.05231035 0.015678588 -0.01329482 -0.22003013 0.33033055
0.17143413 0.21815886 -0.24396385 -0.06906301 0.20959336 0.088506505 -0.17396994 -0.28481594
-0.011672122 -0.16724998 -0.20509064 -0.21301025 -0.10142369 0.17539719 0.113801725 -0.06195457
-0.14800818 0.13515355 -0.05791766 0.05027833 -0.050100774 -0.058865108 0.08265346 -0.044504095
0.11891458 0.18344496 -0.29829162 0.024520764 0.007733317 0.012979454 0.12573667 0.021928929
-0.07137154 -0.08474092 -0.16663253 -0.07515441 0.045893166 -0.048436414 -0.010702748 0.0045878068
-0.059069313 -0.1852975 0.05365605 0.08742406 -0.11044954 0.076150164 0.08750567 0.0987168
-0.05752723 -0.14456308 -0.071473226 -0.17742763 -0.07466679 -0.004968857 0.14124903 -0.07691246
0.18443656 -0.24783285 0.06130297 -0.0387021 0.04428658 0.23007137 0.0040335613 -0.025825797
0.07159594 0.051419362 0.0989127 0.19796371 0.05402479 -0.016737275 -0.035107177 -0.18829449
0.011736641 -0.06643632 0.110400446 0.13145025 0.060203213 0.1457534 -0.22360641 -0.11987747
0.12158741 -0.14324091 -0.09901234 0.20464262 -0.013500579 0.23780344 -0.114118196 0.23314591
-0.12502798 0.20223251 -0.025974423 0.23540272 0.09908976 -0.09401022 -0.019031463 -0.015106173
0.03573626 0.020440754 -0.03694685 0.14624172 -0.067767225 0.05133631 -0.099358626 -0.028059216
0.01206928 -0.13069041 0.17057902 -0.09990823 0.11270016 -0.11948996 0.07243519 0.09513272
-0.25693342 0.083980374 0.018688865 0.11971781 0.009636494 0.0011889869 0.02240632 0.105794296
-0.0023249954 0.0038947596 -0.013719944 0.09414331 -0.002581548 -0.18764898 -0.15251185 -0.17475228
0.0719645 0.22132754 0.19037536 0.15285881 -0.016870191 -0.0757601 -0.07270739 -0.24421373
0.009709165 0.1079729 0.14450218 -0.20333776 -0.039922487 -0.052040435 0.13850038 -0.15055217
0.12518299 0.03457427 -0.18212639 0.19092283 0.008727676 0.0014450857 0.18747297 -0.0364169
0.003660936 -0.3741193 0.05834196 0.03687158 0.3358716 0.039100356 -0.017929705 -0.31079268
0.10990016 0.1482229 -0.05567046 0.019245747 -0.021929536 -0.30880845 0.12089545 -0.12662546
-0.1213623 -0.27379084 -0.08012632 -0.3007769 0.07746835 0.03424661 -0.039708395 -0.15563321
0.14300081 -0.058022205 -0.23347431 0.1288193 0.10186651 -0.069555104 -0.014260728 0.14169833
0.0973644 0.17091697 -0.2772043 0.15831167 -0.03250267 0.051129702 0.017647328 -0.0602558
0.30007043 -0.11719423 -0.215523 -0.20302568 0.03279192 0.060075376 -0.24814892 -0.28990284
-0.09199789 -0.05777637 0.2798425 -0.12849839 -0.028364819 -0.22149813 -0.05285892 0.04542546
0.083407015 -0.07593325 -0.19129626 -0.015468245 -0.03512203 0.010441751 0.007048776 -0.18523031
00000000: b7d0 003e a4ba 123e c1b2 31be bc48 aa3d
00000010: 1fad 7dbc 237b 88be 335d a9bb df25 c03d
00000020: cfae d13c 1307 06be 425b f6bd c287 08bd
00000030: bd72 063e b7a6 93bc e6dd 13be 4cc3 c9bb
00000040: cb66 223d ded3 413c 7ffa 39bc c188 f43d
00000050: d8ba 5a3e 7265 14be 007b ae3d 7525 f93c
00000060: f05f cb3d 0e12 503e 6263 ebbd 7d4b bc3d
00000070: cb8a 6d3c d2e9 37be e24f 07be 6f60 1fbe
00000080: 14fa 14be 5d9e 24be bd0d e1bd 6143 56bd
00000090: 6270 803c 84d2 59bc 944f 61be 1621 a93e
000000a0: 6e8c 2f3e 0965 5f3e a9d1 79be e870 8dbd
000000b0: a49f 563e e642 b53d 2d25 32be 65d3 91be
000000c0: 6e3c 3fbc 9443 2bbe 4803 52be 5c1f 5abe
000000d0: 39b7 cfbd 529b 333e e110 e93d 13c4 7dbd
000000e0: 758f 17be b165 0a3e 113b 6dbd a6f0 4d3d
000000f0: 7836 4dbd 8a1c 71bd 3846 a93d ed49 36bd
00000100: 7d89 f33d ffd8 3b3e aeb9 98be c5df c83c
00000110: c467 fd3b c7a7 543c 1dc1 003e 4ca4 b33c
00000120: 3e2b 92bd a68c adbd b8a1 2abe 8eea 99bd
00000130: 79fa 3b3d 4365 46bd 945a 2fbc 5055 963b
00000140: aaf2 71bd a1be 3dbe 72c6 5b3d 630b b33d
00000150: 5e33 e2bd 9ef4 9b3d 2c36 b33d 092c ca3d
00000160: aca1 6bbd 5808 14be 8e60 92bd 97af 35be
00000170: e7ea 98bd cbd1 a2bb 96a3 103e 4884 9dbd
00000180: f0dc 3c3e e5c7 7dbe d318 7b3d 1886 1ebd
00000190: d865 353d d497 6b3e f72b 843b 9f90 d3bc
000001a0: e4a0 923d 1c9d 523d be92 ca3d 00b7 4a3e
000001b0: 1949 5d3d 9c1c 89bc 8bcc 0fbd 45d0 40be
000001c0: 0a4b 403c c40f 88bd a119 e23d e59a 063e
000001d0: a597 763d 6140 153e 14f9 64be 5282 f5bd
000001e0: d202 f93d bfad 12be fbc6 cabd d68d 513e
000001f0: 8831 5dbc bf82 733e cdb6 e9bd cdbd 6e3e
00000200: 5607 00be 0a16 4f3e 50c8 d4bc 690d 713e
00000210: 92ef ca3d 6e88 c0bd dfe7 9bbc e27f 77bc
00000220: 2f60 123d 5e73 a73c 9555 17bd 64c0 153e
00000230: 8bc9 8abd 0646 523d 897c cbbd 71dc e5bc
00000240: 3bbe 453c b5d3 05be 44ac 2e3e b09c ccbd
00000250: 57cf e63d 27b7 f4bd e758 943d f2d4 c23d
00000260: c78c 83be e7fd ab3d 6419 993c 9c2e f53d
00000270: 63e2 1d3c c8d7 9b3a 758d b73c aeaa d83d
00000280: f35e 18bb 393f 7f3b 9ec9 60bc 35ce c03d
00000290: 302f 29bb 0e27 40be 112c 1cbe 43f2 32be
000002a0: 2062 933d b0a3 623e c2f1 423e 0587 1c3e
000002b0: 5b33 8abc 1c28 9bbd 9de7 94bd 2a13 7abe
000002c0: 3113 1f3c e520 dd3d 61f8 133e c637 50be
000002d0: c385 23bd 5a28 55bd 0bd3 0d3e 592a 1abe
000002e0: f82f 003e c09d 0d3d 577f 3abe 4681 433e
000002f0: 87fe 0e3c 0869 bd3a eaf8 3f3e e329 15bd
00000300: 50ec 6f3b 918c bfbe fbf7 6e3d a706 173d
00000310: 5df7 ab3e b227 203d 51e1 92bc 3820 9fbe
00000320: 5613 e13d bec7 173e b506 64bd 42a9 9d3c
00000330: 92a5 b3bc 241c 9ebe 0998 f73d 1baa 01be
00000340: cc8c f8bd 502e 8cbe 4519 a4bd 6eff 99be
00000350: baa7 9e3d 2c46 0c3d 45a5 22bd 505e 1fbe
00000360: ce6e 123e b1a8 6dbd e413 6fbe 35e9 033e
00000370: 649f d03d e872 8ebd d4a5 69bc 5e19 113e
00000380: fd66 c73d dc04 2f3e b9ed 8dbe 741c 223e
00000390: 8521 05bd 616d 513d 2191 903c c9ce 76bd
000003a0: d5a2 993e 8703 f0bd 10b2 5cbe f7e5 4fbe
000003b0: d250 063d 9911 763d c01a 7ebe 256e 94be
000003c0: 6469 bcbd eaa6 6cbd 8447 8f3e 1595 03be
000003d0: 565d e8bc 68d0 62be 9882 58bd 0c10 3a3d
000003e0: 4cd1 aa3d e482 9bbd 2be3 43be 866e 7dbc
000003f0: 1edc 0fbd e113 2b3c 6bf9 e63b 04ad 3dbe

recurrent.spatial_attn.ffn.linear.bias f4 [32]
-0.2024151 0.11918425 -0.10290651 0.05080705 -0.06893313 -0.04492001 0.119474314 0.12433346
0.226115 -0.04415946 0.04271748 0.17732976 -0.12875517 0.024299402 -0.14998432 -0.13094842
0.116074 -0.22297429 -0.1948873 0.08886788 0.16960646 0.07420904 -0.008132684 0.14949934
0.2976134 -0.04838111 -0.0915503 -0.09996895 -0.29519814 -0.085086316 0.0060068793 -0.07717757
00000000: e745 4fbe df16 f43d a6c0 d2bd 0e1b 503d
00000010: d02c 8dbd 0bfe 37bd f3ae f43d 8ba2 fe3d
00000020: b18a 673e 8de0 34bd 86f8 2e3d ef95 353e
00000030: 65d8 03be 8a0f c73c 7d95 19be 5817 06be
00000040: 35b8 ed3d 5f53 64be 8990 47be 5d00 b63d
00000050: 51ad 2d3e e9fa 973d f33e 05bc 5b16 193e
00000060: c960 983e 452b 46bd b97e bbbd 85bc ccbd
00000070: 3624 97be bc41 aebd 5bd5 c43b 460f 9ebd

recurrent.spatial_attn.ffn.linear2.weight f4 [32, 32]
-0.007821864 -0.08364086 -0.0053903926 -0.066928975 -0.057160743 0.020441696 0.013755049 0.09141242
-0.052967712 -0.17788778 0.09847707 -0.13667454 0.13143344 -0.026584169 0.017990712 0.03330585
-0.19018851 -0.08798985 -0.008477863 -0.022090733 -0.43416923 -0.08608734 -0.26784056 -0.025279768
-0.19489096 -0.14125033 -0.26842138 0.115211196 -0.038456727 0.08494688 0.12835184 -0.08329506
0.017199498 0.045608364 -0.06570186 0.11308051 0.118967004 0.013225591 0.14467655 0.058084093
0.19871044 0.19660188 0.21575174 -0.071272925 0.051053494 0.07368152 0.061289087 -0.1342619
0.13369676 -0.12124386 0.1561172 -0.07545186 -0.123432904 0.046946447 -0.076891825 0.15908135
0.055897344 -0.07310081 -0.06685628 0.010879821 0.035746455 -0.060336187 0.07599472 0.16769275
0.0954934 0.082934156 0.19410753 -0.04654777 0.031549506 0.034252457 0.25211135 0.15514547
0.13624251 0.2786968 0.1858109 -0.020612668 0.12364053 0.21125513 0.14010131 0.27890813
-0.049754053 -0.041073807 0.063385636 0.06661393 -0.11567908 0.17909117 0.12654397 0.041404292
0.16510592 0.026120488 0.13843702 0.1368974 0.091964476 -0.03500836 0.0663235 -0.035680287
-0.12709582 0.15659174 0.22185771 0.18068144 0.1464687 -0.074452475 0.17445587 0.0040100366
-0.22588967 0.0035269607 -0.042862445 0.07965995 0.034604594 -0.09010053 0.004505824 -0.08798664
-0.21393095 0.10714376 0.011095968 0.06842431 -0.6063592 -0.053935617 -0.27063817 0.20432994
-0.050025884 0.044844232 0.16583745 -0.16245331 -0.11771308 -0.10165488 -0.10639552 -0.084748365
0.07685299 -0.33630326 -0.007483943 -0.14346524 -0.23015285 -0.2810058 -0.2572979 -0.18418242
-0.36190227 -0.028177278 -0.21339962 -0.11579784 -0.0142083 -0.14971411 -0.1965714 -0.0169034
-0.23992 -0.21436702 -0.015492646 -0.31642655 -0.33962217 -0.12144481 -0.09833986 -0.23190188
-0.44571388 -0.36150104 -0.14156064 -0.12402862 -0.0015124289 -0.39878547 -0.08342806 -0.07641032
0.0026621958 0.20081727 -0.035602212 0.22103754 0.012792097 0.0509824 0.024172103 0.13981786
0.059779376 0.1097941 0.22382732 -0.07712169 0.19790179 -0.07853681 0.1378069 -0.028641803
0.00998679 0.0062034875 0.049940933 0.056943372 -0.058040682 0.2200779 0.046552815 0.17981815
0.0015082663 0.07638893 0.021983448 0.008941409 0.24163528 0.111230835 0.097375765 0.004459734
0.10441576 0.24834302 -0.016452264 0.18904126 -0.024544539 0.107871614 0.15192144 -0.0113392025
-0.11627933 0.0025838355 -0.123870194 0.04636087 -0.031383142 0.11336075 0.1595559 0.08955353
0.08495779 0.0387455 -0.0781739 0.092795365 0.044335548 0.036728665 -0.043460097 0.0666162
-0.10820791 0.20457365 0.19787341 0.16389765 0.031617038 0.109659374 -0.021861585 -0.07757812
0.10280174 0.095080614 -0.13924746 0.023771564 -0.11459554 0.1560495 -0.035186645 -0.04117503
-0.15323426 0.10716432 -0.069321714 0.12703885 -0.056857083 0.07955633 0.029269442 -0.14977092
0.07626249 -0.18414177 -0.022800833 -0.0530033 -0.402139 -0.1392732 0.17403747 -0.13521087
0.07548311 0.035293497 0.1146183 0.17403272 0.09523867 -0.14817987 0.05121994 0.07191334
00000000: 4727 00bc e64b abbd e4a1 b0bb 0f12 89bd
00000010: 6221 6abd 5875 a73c db5c 613c 6f36 bb3d
00000020: acf4 58bd 3728 36be 59ae c93d 69f4 0bbe
00000030: 7d96 063e 0bc7 d9bc 4261 933c b76b 083d
00000040: c7c0 42be 0634 b4bd bce6 0abc a0f7 b4bc
00000050: 6e4b debe 8f4e b0bd 6622 89be 8417 cfbc
00000060: 7f91 47be eda3 10be 876e 89be d9f3 eb3d
00000070: cd84 1dbd a1f8 ad3d aa6e 033e 9a96 aabd
00000080: f6e5 8c3c d6cf 3a3d b28e 86bd c196 e73d
00000090: f9a4 f33d 26b0 583c 1726 143e 96e9 6d3d
000000a0: c07a 4b3e 0152 493e 06ee 5c3e 8af7 91bd
000000b0: 781d 513d 56e6 963d 440a 7b3d f47b 09be
000000c0: cee7 083e b34e f8bd 30dd 1f3e 8186 9abd
000000d0: 64ca fcbd eb4a 403d 7679 9dbd 39e6 223e
000000e0: 9df4 643d e1b5 95bd f2eb 88bd 4741 323c
000000f0: e06a 123d 1423 77bd 1fa3 9b3d a6b7 2b3e
00000100: 0b92 c33d 62d9 a93d 20c4 463e e0a8 3ebd
00000110: 0e3a 013d 4e4c 0c3d bd14 813e 74de 1e3e
00000120: 2883 0b3e 59b1 8e3e 3645 3e3e e6db a8bc
00000130: 3f37 fd3d 4453 583e b876 0f3e 0ccd 8e3e
00000140: e8ca 4bbd 023d 28bd 54d0 813d e26c 883d
00000150: 27e9 ecbd ad63 373e be94 013e 8c97 293d
00000160: 8711 293e a2fa d53c 6fc2 0d3e d52e 0c3e
00000170: df57 bc3d ed64 0fbd 9dd4 873d 7e25 12bd
00000180: 6825 02be 9659 203e ab2e 633e 8e04 393e
00000190: e4fb 153e 8a7a 98bd 8fa4 323e a066 833b
000001a0: 9f4f 67be 9524 673b 8890 2fbd c224 a33d
000001b0: 8cbd 0d3d a086 b8bd 97a5 933b 5732 b4bd
000001c0: b710 5bbe 306e db3d ddcb 353c 0b22 8c3d
000001d0: 5b3a 1bbf 98eb 5cbd 1691 8abe de3b 513e
000001e0: f1e7 4cbd 96ae 373d 4bd1 293e 295a 26be
000001f0: 8e13 f1bd 6f30 d0bd e5e5 d9bd 8d90 adbd
00000200: 1a65 9d3d f12f acbe dd3b f5bb 8de8 12be
00000210: 30ad 6bbe fedf 8fbe 8dbc 83be 519a 3cbe
00000220: 414b b9be 09d4 e6bc 6e85 5abe 6b27 edbd
00000230: eec9 68bc a84e 19be 034a 49be 0079 8abc
00000240: 97ad 75be 0783 5bbe ded4 7dbc a902 a2be
00000250: f5e2 adbe 0eb8 f8bd 6966 c9bd b077 6dbe
00000260: 9c34 e4be aa16 b9be 46f5 10be b802 febd
00000270: b13c c6ba 9c2d ccbe 55dc aabd 047d 9cbd
00000280: 3c78 2e3b 0ba3 4d3e a0d3 11bd aa57 623e
00000290: f295 513c ecd2 503d 9304 c63c 6a2c 0f3e
000002a0: 38db 743d bbdb e03d fd32 653e faf1 9dbd
000002b0: c4a6 4a3e e8d7 a0bd 411d 0d3e 37a2 eabc
000002c0: a29f 233c a046 cb3b dd8e 4c3d 743d 693d
000002d0: 11bc 6dbd 1a5c 613e 2aae 3e3d 4022 383e
000002e0: 05b1 c53a cd71 9c3d a216 b43c fd7e 123c
000002f0: 3d6f 773e fecc e33d f26c c73d f622 923b
00000300: eed7 d53d a24d 7e3e e6c6 86bc 0894 413e
00000310: a111 c9bc cbeb dc3d 4b91 1b3e 10c8 39bc
00000320: db23 eebd 9155 293b a8af fdbd e5e4 3d3d
00000330: 9c8b 00bd ae29 e83d 9f62 233e d767 b73d
00000340: 5afe ad3d 9ab3 1e3d a319 a0bd 7f0b be3d
00000350: 3199 353d cc70 163d 3703 32bd 136e 883d
00000360: 1c9c ddbd c17b 513e 549f 4a3e c9d4 273e
00000370: de80 013d 1895 e03d 1117 b3bc 47e1 9ebd
00000380: b889 d23d a0b9 c23d e396 0ebe 95bc c23c
00000390: 11b1 eabd 71cb 1f3e df1f 10bd 26a7 28bd
000003a0: 71e9 1cbe f878 db3d 8bf8 8dbd 7916 023e
000003b0: f9e2 68bd 6eee a23d 78c6 ef3c 8c5d 19be
000003c0: 822f 9c3d a98f 3cbe d0c8 babc fd19 59bd
000003d0: 2ae5 cdbe a29d 0ebe e136 323e b874 0abe
000003e0: e496 9a3d ea8f 103d 00bd ea3d a235 323e
000003f0: 7e0c c33d 77bc 17be 00cc 513d 4d47 933d

recurrent.spatial_attn.ffn.linear2.bias f4 [32]
-0.1451748 0.20860544 0.057024416 0.13194211 -0.2664096 0.15878816 0.08267565 -0.13494809
-0.03180325 -0.022541042 -0.024682006 -0.23175848 0.052651968 0.05851092 0.16852815 0.21008931
-0.050970063 -0.106606424 -0.12862416 0.031387977 0.017698321 -0.058022376 -0.1481631 -0.10909051
-0.098678306 -0.13422354 0.056179453 -0.04168652 -0.058997884 0.10899362 -0.053777065 -0.081369
00000000: b4a8 14be aa9c 553e 6f92 693d d51b 073e
00000010: d766 88be 5d99 223e da51 a93d d52f 0abe
00000020: 2044 02bd fea7 b8bc eb31 cabc 1852 6dbe
00000030: 97a9 573d 25a9 6f3d a592 2c3e a721 573e
00000040: fcc5 50bd 7854 dabd 0db6 03be ae90 003d
00000050: 12fc 903c dfa8 6dbd 11b8 17be d86a dfbd
00000060: da17 cabd e571 09be 6d1c 663d 7cbf 2abd
00000070: c4a7 71bd 0c38 df3d 5745 5cbd caa4 a6bd
