GRU.pth (torch, 42048 bytes, 9 tensors)

recurrent.rnn.weight_ih_l0 f4 [96, 1]
-0.40077558 0.08786104 -0.32589883 -0.13767445 0.18397547 0.38747942 -0.25290135 0.024327992
-0.6850004 -0.48890036 0.62506646 -0.10165521 -0.18559614 0.38821045 0.0155644445 -0.39469096
-0.33999887 -0.18920359 -0.2198097 -0.53906935 0.252236 0.07828015 -0.46666464 0.3645923
-0.32531542 -0.36075285 -0.45451862 -0.22592025 -0.34077623 0.009094146 0.25751513 -0.573068
-0.29264098 0.64611894 0.8268415 -1.1141535 0.110686705 0.535402 -0.12786393 0.08929595
-0.71798027 -0.37807897 -0.29412252 -0.5036156 -0.561192 0.3726213 1.1396729 -0.1346968
-0.008548327 0.88578033 -0.15887257 -0.3390887 0.27549157 0.12932986 -0.63895607 0.103280134
-0.20311561 -0.32705235 0.23167284 -0.22401735 0.27511033 0.03958798 1.2278694 -0.4027843
0.3496367 0.36155808 0.062332172 0.17777994 0.40755942 0.2077926 0.4072897 -0.022394734
-0.41220438 0.4587163 0.15929036 -0.2845341 0.17801648 -0.31974497 0.33506233 -0.26846695
0.29597512 -0.05805935 0.3343424 -0.54292864 0.045575954 -0.42221957 0.31419805 -0.31689987
-0.4185013 0.2341476 -0.31029952 -0.380373 -0.31201872 0.29406086 -0.21912047 -0.31797922
00000000: 7532 cdbe 7df0 b33d 36dc a6be 88fa 0cbe
00000010: 1164 3c3e b463 c63e 497c 81be 7f4b c73c
00000020: 305c 2fbf 2651 fabe 5b04 203f 9b30 d0bd
00000030: ea0c 3ebe 85c3 c63e 0302 7f3c ef14 cabe
00000040: 5514 aebe 96be 41be cb15 61be 7300 0abf
00000050: 1425 813e 5851 a03d abee eebe d8ab ba3e
00000060: be8f a6be 99b4 b8be aab6 e8be a357 67be
00000070: 397a aebe 9dff 143c 06d9 833e 96b4 12bf
00000080: 0ad5 95be 0d68 253f e2ab 533f 959c 8ebf
00000090: b6af e23d 1b10 093f c3ee 02be cce0 b63d
000000a0: 8ecd 37bf 9193 c1be 3a97 96be f4ec 00bf
000000b0: 47aa 0fbf 38c8 be3e cde0 913f f5ed 09be
000000c0: 480e 0cbc 80c2 623f 7eaf 22be 099d adbe
000000d0: 3b0d 8d3e 0c6f 043e a092 23bf 8984 d33d
000000e0: 8afd 4fbe 6873 a7be a53b 6d3e ce64 65be
000000f0: 43db 8c3e 0127 223d d32a 9d3f be39 cebe
00000100: 9503 b33e 241e b93e 0550 7f3d f20b 363e
00000110: a1ab d03e 95c7 543e 4788 d03e 2975 b7bc
00000120: 740c d3be dddc ea3e 031d 233e 74ae 91be
00000130: f449 363e 9db5 a3be 4a8d ab3e 8074 89be
00000140: 0d8a 973e a4cf 6dbd ed2e ab3e 5ffd 0abf
00000150: daad 3a3d 2a2d d8be 91de a03e b340 a2be
00000160: cd45 d6be 63c4 6f3e 94df 9ebe 40c0 c2be
00000170: ebc0 9fbe 258f 963e 1e61 60be 2cce a2be

recurrent.rnn.weight_hh_l0 f4 [96, 32]
-0.2988617 -0.4768574 0.18878295 -0.067395404 -0.3180419 -0.20972875 -0.3312762 -0.14425172
-0.1721995 -0.4624912 0.6019991 -0.0447731 0.20812199 -0.006979563 -0.26274747 0.29954782
0.013712713 0.12976532 -0.21920472 0.46699706 0.14848033 0.20643057 -0.04542522 0.30686313
0.51585054 -0.18267852 -0.011488287 0.414759 0.026947083 0.0077137304 0.51758873 -0.16849424
0.13268685 0.447069 0.4062953 -0.068046995 0.35543835 0.48662227 0.29006925 -0.7373312
-0.71386635 0.37138212 0.8241109 -0.549828 0.32677758 -0.5894928 -0.81256354 -0.20248888
0.21339823 0.16690703 0.13595277 -0.18116808 -0.082734905 -0.38712117 0.18167439 -1.0521117
-0.34481665 -0.21548896 -0.59392834 -0.03986057 -0.38669318 -0.008910867 0.09568723 0.21951678
-0.1616885 -0.38963586 0.31599733 -0.7514401 -0.05901207 0.21790226 -0.19224858 0.060500856
-0.0561447 -0.08758666 -0.12840691 -0.08677383 0.109654084 -0.0958312 -0.33743152 0.041346136
0.22256827 0.17225112 -0.2145356 0.2220252 -0.05216493 -0.02829073 -0.073804595 -0.70788515
0.23783661 -0.14898117 0.0444476 -0.11201083 -0.10036631 -0.081578955 0.03175983 0.050004553
-0.2062191 -0.17714307 0.26891086 -0.54677814 -0.186168 -0.37246233 -0.15795502 -0.1799496
0.23624845 -0.029267821 0.40702885 0.54513687 -0.18824878 0.14472614 -0.30861586 0.3764221
0.05590576 0.1813236 -0.22015437 0.11440707 -0.014703683 -0.43577355 -0.25608975 -0.09201527
0.092122 -0.31154954 0.25770414 0.286102 -0.067159474 -0.39000186 0.16402534 0.18722595
-0.0029251147 0.24764545 -0.19856933 -0.32419828 -0.18654047 0.31771988 -0.14216505 0.023303568
-0.16838361 -0.15356368 0.5123173 -0.115525894 0.18553048 -0.2878667 -0.7064366 -0.019614697
0.09165883 0.103332944 0.09604829 0.19264211 -0.24023724 -0.00029055617 -0.16374625 -0.32407504
0.2537379 -0.21005335 0.0718851 0.1702043 -0.060809445 0.105697 0.3638669 0.017491879
0.1092162 0.17896494 -0.043751914 0.022589756 -0.05699589 -0.009976617 0.022885805 -0.46574542
0.07014077 -0.088914715 0.36532867 0.042645413 -0.09860832 -0.4459994 -0.54038304 0.21989673
0.3769948 -0.14564553 -0.08700314 0.1368068 0.24857739 -0.44378895 -0.019066129 -0.61029404
0.07575678 -0.42767426 -0.34286368 0.10680974 -0.07770465 -0.01072097 0.076696165 0.8762441
0.41477734 0.58036494 -0.1645163 -0.41755974 0.08631003 0.5942679 -0.18082334 -0.18116494
-0.2879604 0.004266627 0.43970472 -0.08928292 0.1481017 -0.68678194 -0.1867075 0.053858735
0.54973894 0.27262443 0.0058808476 0.17342612 -0.16596548 0.07646567 0.2961428 -0.060941927
0.21005468 -0.28531396 -0.15465918 -0.004560985 -0.36181784 0.55136734 0.20011483 -0.06355905
0.1829446 1.0414071 -0.48521006 -0.8560246 0.13209727 0.8135038 0.14019744 0.0056513133
0.10123997 0.19342871 -0.71854925 0.63324934 0.17191789 0.6689429 0.786668 -0.23056488
-0.19211154 0.20517805 0.12702197 -0.19625838 -0.082588285 0.059338946 0.13516928 1.2339573
-0.10890253 -0.14694114 0.48020726 0.1794967 0.039326645 0.4544214 -0.52871054 -0.6754073
00000000: 6704 99be a726 f4be 5150 413e 9a06 8abd
00000010: 63d6 a2be 22c3 56be 099d a9be b9b6 13be
00000020: 1155 30be a6cb ecbe 9d1c 1a3f 0064 37bd
00000030: ee1d 553e d1b4 e4bb d686 86be 555e 993e
00000040: 49ab 603c 33e1 043e 3477 60be 3d1a ef3e
00000050: 3a0b 183e 8962 533e cc0f 3abd 2a1d 9d3e
00000060: c80e 043f 1410 3bbe 5e39 3cbc 4b5b d43e
00000070: 21c0 dc3c 76c3 fc3b b280 043f c189 2cbe
00000080: 10df 073e 3ae6 e43e f005 d03e 395c 8bbd
00000090: 04fc b53e 8e26 f93e f583 943e bdc1 3cbf
000000a0: f2bf 36bf cc25 be3e eff8 523f 87c1 0cbf
000000b0: 644f a73e 00e9 16bf 2a04 50bf 3f59 4fbe
000000c0: 1185 5a3e ade9 2a3e 3437 0b3e 2084 39be
000000d0: eb70 a9bd bf34 c6be da08 3a3e 99ab 86bf
000000e0: cf8b b0be 23a9 5cbe b00b 18bf d644 23bd
000000f0: a6fc c5be e3fe 11bc abf7 c33d 02c9 603e
00000100: ac91 25be 5a7e c7be 67ca a13e 615e 40bf
00000110: a4b6 71bd c521 5f3e d0dc 44be bfcf 773d
00000120: fcf7 65bd a360 b3bd 1a7d 03be 7ab6 b1bd
00000130: 5292 e03d 2643 c4bd d3c3 acbe 915a 293d
00000140: f0e8 633e 9962 303e 38af 5bbe 935a 633e
00000150: e5aa 55bd f6c1 e7bc dd26 97bd f637 35bf
00000160: 718b 733e 858e 18be b00e 363d ef65 e5bd
00000170: da8c cdbd de12 a7bd 9816 023d 93d1 4c3d
00000180: 1a2b 53be fe64 35be afae 893e a7f9 0bbf
00000190: d3a2 3ebe 62b3 bebe f6be 21be b544 38be
000001a0: 1deb 713e 12c3 efbc 1666 d03e 178e 0b3f
000001b0: 4ac4 40be 1733 143e e602 9ebe 66ba c03e
000001c0: 70fd 643d e5ac 393e 2670 61be 414e ea3d
000001d0: b7e7 70bc b61d dfbe 321e 83be 8072 bcbd
000001e0: 76aa bc3d 6c83 9fbe ccf1 833e f67b 923e
000001f0: e88a 89bd 53ae c7be 42f6 273e 29b8 3f3e
00000200: 48b3 3fbb c596 7d3e c255 4bbe 51fd a5be
00000210: 7704 3fbe 2eac a23e b793 11be 20e7 be3c
00000220: c16c 2cbe cc3f 1dbe 3a27 033f d798 ecbd
00000230: b4fb 3d3e 4463 93be 07d9 34bf 00af a0bc
00000240: a0b7 bb3d 39a0 d33d f7b4 c43d f943 453e
00000250: c000 76be ca55 98b9 19ad 27be 2aed a5be
00000260: efe9 813e 3a18 57be 7f38 933d 094a 2e3e
00000270: 5313 79bd ab77 d83d c34c ba3e 214b 8f3c
00000280: beac df3d 9642 373e 3535 33bd 270e b93c
00000290: 8674 69bd f774 23bc 037b bb3c 2f76 eebe
000002a0: f7a5 8f3d eb18 b6bd 5c0c bb3e f5ac 2e3d
000002b0: 29f3 c9bd 095a e4be 8b56 0abf 9c2c 613e
000002c0: 7605 c13e 1a24 15be b42e b2bd 1517 0c3e
000002d0: 128b 7e3e 4e38 e3be 9230 9cbc 3b3c 1cbf
000002e0: 5f26 9b3d 1ff8 dabe d48b afbe 11bf da3d
000002f0: 9e23 9fbd 02a7 2fbc e112 9d3d 8951 603f
00000300: b25d d43e cc92 143f f676 28be 64ca d5be
00000310: 50c3 b03d f121 183f c129 39be 4d83 39be
00000320: 8c6f 93be 10cf 8b3b fa20 e13e f7d9 b6bd
00000330: f9a7 173e f1d0 2fbf 4030 3fbe fa9a 5c3d
00000340: b1bb 0c3f 6e95 8b3e 20b4 c03b 9e96 313e
00000350: dbf2 29be 089a 9c3d 07a0 973e 3e9e 79bd
00000360: 9318 573e ac14 92be fa5e 1ebe 5174 95bb
00000370: 3040 b9be 6926 0d3f e7ea 4c3e 3f2b 82bd
00000380: d455 3b3e d44c 853f 746d f8be 6e24 5bbf
00000390: 8244 073e c941 503f eb8f 0f3e a72e b93b
000003a0: e756 cf3d 2d12 463e d8f2 37bf a11c 223f
000003b0: 3e0b 303e d83f 2b3f 1363 493f 3319 6cbe
000003c0: e3b8 44be 321a 523e 0c12 023e f5f7 48be
000003d0: 0c24 a9bd 650d 733d d169 0a3e 50f2 9d3f
000003e0: 4a08 dfbd bd77 16be badd f53e fccd 373e
000003f0: fa14 213d eca9 e83e 9359 07bf 7ee7 2cbf

recurrent.rnn.bias_ih_l0 f4 [96]
-0.3033695 -0.18247966 0.13059427 -0.07069509 -0.67005956 -0.45942947 -0.51644355 0.13806441
-0.31633708 -0.56149 0.03114084 -0.116725825 -0.3829378 -0.16862832 -0.15951344 -0.2332713
0.06541983 -0.1505812 -0.5855444 -0.4949925 -0.1463508 0.114584826 0.22720148 -0.15971996
-0.53622633 0.18253088 0.05785424 -0.5198974 -0.51526654 -0.28088126 -0.33020273 -0.023963565
0.15824106 0.41368365 0.22088557 0.26538992 -0.46599287 0.5497867 -0.82792735 0.009522744
-0.38836747 -0.26723182 0.21076788 -0.44916877 -0.007592422 -0.046488103 0.25009167 -0.17130344
0.2788529 0.741245 0.16682357 -0.57735 0.8183371 -0.81170136 0.41037446 -1.3592298
-0.58622843 0.25542912 -0.51656306 -0.39133972 0.58760226 0.5230409 0.4014814 -0.3917896
-0.45613948 -0.09298736 -0.006693302 -0.22229806 -0.37264466 -0.17366596 -0.3006614 0.02298299
0.6025939 -0.48498338 -0.08765662 0.49065983 -0.2239254 0.17204285 -0.2142202 0.3380901
-0.4518572 0.05208606 -0.4043373 0.5469204 0.07597641 0.015031615 -0.45499852 0.11219639
0.30186495 -0.31256 0.4580071 0.42553586 0.4480587 -0.27540794 0.08499141 0.51402986
00000000: 3f53 9bbe f3db 3abe 81ba 053e 96c8 90bd
00000010: 0689 2bbf 573a ebbe a535 04bf c260 0d3e
00000020: eff6 a1be cfbd 0fbf 131b ff3c f30d efbd
00000030: 6c10 c4be e7ac 2cbe 7e57 23be acde 6ebe
00000040: d5fa 853d f531 1abe 3de6 15bf a86f fdbe
00000050: fcdc 15be 73ab ea3d 81a7 683e a18d 23be
00000060: 2146 09bf 60e9 3a3e 91f8 6c3d ff17 05bf
00000070: 82e8 03bf abcf 8fbe 5510 a9be 3d4f c4bc
00000080: f209 223e 58ce d33e d42f 623e 30e1 873e
00000090: 9e96 eebe d2be 0c3f 0cf3 53bf 4905 1c3c
000000a0: 1ad8 c6be 9cd2 88be 89d3 573e 73f9 e5be
000000b0: dac9 f8bb 4f6a 3ebd 040c 803e 2b6a 2fbe
000000c0: cfc5 8e3e 3bc2 3d3f ccd3 2a3e 36cd 13bf
000000d0: 8a7e 513f a9cb 4fbf 9a1c d23e 3efb adbf
000000e0: 1113 16bf 9bc7 823e 7a3d 04bf ae5d c8be
000000f0: 1a6d 163f 02e6 053f f88e cd3e a598 c8be
00000100: 1d8b e9be 2870 bebd 7d53 dbbb 1aa2 63be
00000110: 48cb bebe 7dd5 31be 4bf0 99be d346 bc3c
00000120: 9843 1a3f be4f f8be 5085 b3bd c437 fb3e
00000130: b34c 65be 002c 303e 8a5c 5bbe 251a ad3e
00000140: d459 e7be 3158 553d 4c05 cfbe fa02 0c3f
00000150: 8599 9b3d 2a47 763c 91f5 e8be 39c7 e53d
00000160: 0b8e 9a3e dd07 a0be e87f ea3e d6df d93e
00000170: f367 e53e 4502 8dbe fa0f ae3d 7697 033f

recurrent.rnn.bias_hh_l0 f4 [96]
-0.25659555 -0.20028292 0.0477908 0.14310758 -0.7258534 -0.39990374 -0.6719126 0.1564055
-0.17390996 -0.7760871 0.14212422 -0.17418553 -0.1331464 -0.25086603 -0.10656006 -0.23810494
0.059796944 -0.14111255 -0.6218173 -0.4200044 -0.01500881 0.13016725 0.070466205 -0.19463204
-0.7046957 0.13897641 0.15233697 -0.56135726 -0.39695603 -0.08404424 -0.32262614 0.276744
0.18345533 0.5758198 0.4713322 0.42685765 -0.2920068 0.4864327 -0.9272482 -0.15172906
-0.43823597 -0.25725234 -0.014428667 -0.6742978 0.08549087 -0.0075846505 0.26630872 -0.14876607
0.40777084 0.8173647 0.1255075 -0.53655905 0.5730506 -1.0280179 0.55589163 -1.2985175
-0.7517585 0.3774906 -0.5852817 -0.30775553 0.8027304 0.51830727 0.4767589 -0.4025652
-0.15690447 -0.36094666 -0.048429567 0.12107344 -0.023488868 -0.049088433 -0.15034169 -0.016035866
0.13450246 -0.28982824 0.106241904 -0.19711196 -0.0713236 0.06101236 -0.08643181 0.14948493
-0.024315001 0.009636604 -0.072818264 0.12201611 -0.08895613 0.34178755 0.026328154 0.07180341
0.22929023 -0.038228177 0.022120064 0.01245738 0.04775316 -0.16046071 0.00025976938 0.14722036
00000000: 7e60 83be f716 4dbe 49c0 433d cb8a 123e
00000010: 87d1 39bf 2fc0 ccbe 7702 2cbf c328 203e
00000020: 7415 32be a5ad 46bf 0389 113e b15d 32be
00000030: 8857 08be 8371 80be 293c dabd c8d1 73be
00000040: a4ed 743d cf7f 10be 6b2f 1fbf d10a d7be
00000050: 83e7 75bc 904a 053e 9650 903d 9f4d 47be
00000060: f066 34bf d54f 0e3e 39fe 1b3e 1cb5 0fbf
00000070: d23d cbbe 631f acbd 412f a5be 64b1 8d3e
00000080: b7db 3b3e ed68 133f 7452 f13e 168d da3e
00000090: ea81 95be b50d f93e 2360 6dbf dd5e 1bbe
000000a0: 7760 e0be 94b6 83be 3766 6cbc c89e 2cbf
000000b0: d615 af3d a988 f8bb 9e59 883e 2256 18be
000000c0: 57c7 d03e d03e 513f 0a85 003e ef5b 09bf
000000d0: 72b3 123f 1796 83bf ea4e 0e3f d235 a6bf
000000e0: 3f73 40bf 7346 c13e 06d5 15bf 2292 9dbe
000000f0: bd7f 4d3f c9af 043f be19 f43e 071d cebe
00000100: 91ab 20be 00ce b8be 155e 46bd 5af5 f73d
00000110: ba6b c0bc f410 49bd 2cf3 19be a65d 83bc
00000120: 03bb 093e 5e64 94be 5b95 d93d b8d7 49be
00000130: 1c12 92bd 19e8 793d 2903 b1bd 9412 193e
00000140: 4130 c7bc d9e2 1d3c be21 95bd 95e3 f93d
00000150: a22e b6bd c7fe ae3e 24ae d73c ab0d 933d
00000160: 0fcb 6a3e 2695 1cbd 2335 b53c 0a1a 4c3c
00000170: d198 433d d04f 24be a831 8839 efc0 163e

recurrent.rnn.weight_ih_l1 f4 [96, 32]
-0.026168494 0.24443917 0.10605868 0.29493588 -0.2782293 -0.07657464 -0.10280706 -0.058199007
-0.09551957 0.11069652 0.13962024 -0.028519893 -0.23815814 -0.0038330609 -0.08506466 0.033774514
0.09049739 0.18356577 -0.11237792 0.06256719 -0.070990935 -0.0028724046 -0.08429261 0.17200966
0.009119275 -0.039532647 -0.16334423 0.29908076 -0.19495451 -0.012464571 -0.02960586 -0.076552674
-0.17731471 0.11557717 0.3075526 -0.29409087 -0.18949145 -0.10441577 -0.4293075 -0.31008017
0.23930036 -0.185075 0.63351446 0.05305584 -0.11618281 0.6421188 -0.14269167 0.5358661
-0.16088226 0.36366352 -0.34059995 0.2557588 -0.5252072 -0.098597795 -0.3035327 0.3405644
0.35411617 -0.4195566 0.18908568 0.4121768 0.4507821 -0.27790034 -0.10229807 -0.082334206
0.69249785 -0.07598462 -0.15400228 -0.031267308 0.45895723 0.16295087 0.35985684 -0.18909608
-0.9794 0.5255962 -0.17389683 -0.5889542 0.5506509 -0.767496 -0.4561034 -0.4903086
0.702215 -0.48714566 0.45136988 -0.4682447 0.23304395 -0.18936 0.5330678 -0.59241545
-0.34327438 0.49576777 -0.7384485 -0.38572925 -0.58018965 0.5409007 0.8001207 -0.3948086
0.027807252 -0.006729726 -0.16649273 -0.08265866 -0.2955394 0.021686254 -0.17765851 -0.18475986
0.06891445 -0.014243857 0.09122576 -0.11272198 -0.0118480995 0.03387539 -0.131603 -0.017973386
-0.024364457 -0.024218895 -0.043238346 0.14374557 -0.18930979 -0.19141787 0.23177208 -0.040610943
0.2256695 0.10900085 -0.005059975 0.28084397 0.05892315 0.16455024 0.3530104 -0.16345972
0.10074672 0.8639152 -0.4916777 0.022546126 -0.060769357 0.28648147 -0.07018268 0.10630331
0.09886331 -0.22605613 0.03300489 0.82841504 -0.052493688 0.41725066 0.30502415 0.28703934
-0.14696069 0.022005178 0.16111462 0.15973562 -0.19407022 -0.5509244 -0.042641472 0.68899804
-0.0144136315 -0.12972203 0.3787665 0.30792913 0.0117465975 0.438795 -0.44135493 -0.1792069
0.07485986 0.7502308 -0.26500875 -0.22097261 0.47006628 0.46649286 0.262659 -0.052623045
-0.14007874 0.081542745 0.10716363 -0.1265763 0.28003708 -0.3852271 0.73664004 -0.12763064
0.26073056 -0.047808547 0.08171032 -0.08833198 0.26877323 -0.87491846 -0.058845866 -0.32427013
-0.20628043 -0.29545718 -0.10115636 -0.17138754 -0.22592142 0.24824083 -0.29914868 -0.14456081
0.03693953 0.16690199 -0.14413159 0.48580942 0.3395839 0.013708154 0.16360554 -0.2631991
0.13312769 0.43122628 0.12745309 0.13780692 -0.03238825 -0.23012778 0.29842225 -0.2116963
0.21011458 -0.05850208 0.25708264 -0.088531055 -0.19137654 -0.35228297 -0.067722835 -0.26441446
-0.27920714 0.19804016 -0.12376359 -0.09059279 -0.052003868 0.35301515 -0.099219225 -0.007977526
-0.3068416 0.17727011 0.1803004 -0.35273078 -0.40153533 -0.16271842 -0.4298937 -0.38425893
0.16799198 -0.111339994 0.19318296 0.4504032 -0.19565727 0.2618433 -0.7998744 0.51229554
-0.18347105 0.079158604 -0.29412714 0.13063091 -0.00724341 0.29864424 -0.67025894 -0.20473574
0.14613008 -0.4229153 0.32770976 0.3909823 0.31748784 -0.7191518 0.023995392 0.5380013
00000000: 4f5f d6bc 434e 7a3e 4b35 d93d d601 973e
00000010: 1274 8ebe 2ad3 9cbd 828c d2bd 1562 6ebd
00000020: c49f c3bd dbb4 e23d 9cf8 0e3e 8da2 e9bc
00000030: badf 73be 1734 7bbb 6136 aebd 2557 0a3d
00000040: b256 b93d aaf8 3b3e 6526 e6bd 3a23 803d
00000050: b263 91bd f43e 3cbb 9ba1 acbd 4d23 303e
00000060: 0369 153c fcec 21bd b643 27be 1d21 993e
00000070: 28a2 47be 3338 4cbc fd87 f2bc a6c7 9cbd
00000080: fd91 35be b9b3 ec3d 8977 9d3e 1493 96be
00000090: 0c0a 42be efd7 d5bd 31ce dbbe d4c2 9ebe
000000a0: 270b 753e 4d84 3dbe 012e 223f 1551 593d
000000b0: 41f1 edbd e661 243f c41d 12be 852e 093f
000000c0: 52be 24be 1b32 ba3e 1e63 aebe d1f2 823e
000000d0: fb73 06bf a4ed c9bd a368 9bbe 755e ae3e
000000e0: b74e b53e 1fd0 d6be ad9f 413e d608 d33e
000000f0: e9cc e63e f448 8ebe a781 d1bd d69e a8bd
00000100: 8a47 313f d39d 9bbd c6b2 1dbe 2612 00bd
00000110: 71fc ea3e 98dc 263e 283f b83e 67a2 41be
00000120: f5b9 7abf 798d 063f 0312 32be b4c5 16bf
00000130: 75f7 0c3f 9e7a 44bf 6386 e9be bb09 fbbe
00000140: 5dc4 333f 286b f9be f419 e73e c5bd efbe
00000150: 13a3 6e3e 96e7 41be 2277 083f 8aa8 17bf
00000160: a9c1 afbe 46d5 fd3e f60a 3dbf 4e7e c5be
00000170: 4f87 14bf 7878 0a3f b6d4 4c3f 5a24 cabe
00000180: 09cc e33c 0985 dcbb 127d 2abe f248 a9bd
00000190: f150 97be 5fa7 b13c 1dec 35be b031 3dbe
000001a0: 0523 8d3d 115f 69bc 92d4 ba3d c8da e6bd
000001b0: 881e 42bc ecc0 0a3d f0c2 06be ec3c 93bc
000001c0: f897 c7bc b466 c6bc b11a 31bd 0a32 133e
000001d0: 6dda 41be 0c03 44be a955 6d3e a957 26bd
000001e0: e815 673e d63b df3d 26ce a5bb c8ca 8f3e
000001f0: 6759 713d dc7f 283e c7bd b43e fc61 27be
00000200: 4c54 ce3d 8c29 5d3f 2ebd fbbe a7b2 b83c
00000210: 4ae9 78bd b3ad 923e f0bb 8fbd 8db5 d93d
00000220: d978 ca3d 427b 67be 2330 073d 0213 543f
00000230: 9f03 57bd e1a1 d53e 202c 9c3e d2f6 923e
00000240: dd7c 16be 3444 b43c 3bfb 243e bc91 233e
00000250: 58ba 46be 6209 0dbf d3a8 2ebd 2d62 303f
00000260: 2727 6cbc dad5 04be afed c13e e3a8 9d3e
00000270: cd74 403c bda9 e03e 46f9 e1be 0382 37be
00000280: 2050 993d 200f 403f 3aaf 87be a546 62be
00000290: 87ac f03e 27d8 ee3e 3e7b 863e 438b 57bd
000002a0: cd70 0fbe e2ff a63d 9b78 db3d 389d 01be
000002b0: 0561 8f3e 7d3c c5be 7194 3c3f 9bb1 02be
000002c0: 7a7e 853e e5d2 43bd be57 a73d 66e7 b4bd
000002d0: a59c 893e a8fa 5fbf 5d08 71bd bc06 a6be
000002e0: 2d3b 53be 2a46 97be 112b cfbd 3780 2fbe
000002f0: f257 67be d832 7e3e 042a 99be c007 14be
00000300: e84d 173d 5be8 2a3e 3b97 13be 03bc f83e
00000310: f1dd ad3e 2a98 603c 3688 273e 08c2 86be
00000320: a052 083e b1c9 dc3e 1083 023e 421d 0d3e
00000330: 8ba9 04bd 9ea6 6bbe cdca 983e eac6 58be
00000340: 4728 573e e19f 6fbd 56a0 833e c54f b5bd
00000350: 36f8 43be 6f5e b4be 45b2 8abd 5561 87be
00000360: 3df4 8ebe 0acb 4a3e c477 fdbd b688 b9bd
00000370: 0202 55bd 67be b43e 7333 cbbd 2bb4 02bc
00000380: 581a 9dbe 4c86 353e aba0 383e 2199 b4be
00000390: 0a96 cdbe a89f 26be 071b dcbe 96bd c4be
000003a0: 1706 2c3e 3906 e4bd c1d1 453e 409b e63e
000003b0: 615a 48be 5310 863e 92c4 4cbf cd25 033f
000003c0: d6df 3bbe e81d a23d d597 96be 1cc4 053e
000003d0: 215a edbb e6e7 983e 1796 2bbf 3fa6 51be
000003e0: 20a3 153e 5b88 d8be 93c9 a73e d52e c83e
000003f0: c48d a23e 551a 38bf fc91 c43c 74ba 093f

recurrent.rnn.weight_hh_l1 f4 [96, 32]
-0.13351063 -0.13564202 0.12642185 -0.31220195 0.38680112 0.3903927 0.1289731 -0.072906524
0.23259568 -0.070693836 -0.5091096 0.0222004 0.10353815 0.28803265 -0.2581851 0.26373392
-0.41730484 0.32191184 0.4621246 -0.14517891 0.08542301 -0.3043104 0.56436133 0.12445086
0.035527952 0.016004136 0.12105061 0.27909803 -0.3270956 0.08288146 -0.33539146 -0.32190484
0.04329817 0.06613896 0.46006665 -0.17257392 0.16512553 0.14438224 0.38268277 0.13980983
0.19332577 0.034694936 -0.32720587 -0.11455114 0.09867411 0.32095605 0.2537 -0.18035814
-0.14864439 0.37246555 0.08337449 0.24954289 0.18234068 -0.34050187 0.15277423 0.17559491
0.30796453 0.20865187 0.3192461 0.17073512 -0.22297007 0.31032974 0.40610948 -0.42977688
0.27640072 0.66212744 -0.6699468 1.1069319 0.4285956 -0.17971238 0.37088516 -0.1464955
0.18756057 0.15962665 1.0180454 0.04599409 0.37890193 -0.09131247 -0.16343763 0.2172565
0.89572203 0.605849 -0.0025886095 -0.42669052 0.5095869 0.44648895 0.32908478 0.06765177
0.06452238 -0.060286596 -0.18744612 -0.43730533 0.57922876 -0.009136276 0.13416633 1.376118
-0.1050548 -0.2258818 0.093462504 -0.4771171 0.059286032 0.7106085 0.020508142 0.3169774
-0.050102483 0.072117 -0.6482969 0.045066275 0.13696939 0.08067303 -0.0895788 0.30744886
-0.26364502 0.4611324 0.37335685 0.097559474 0.13094951 -0.4430532 0.036475204 0.21377772
0.20395881 0.21705042 0.08300485 0.5749243 -0.53501743 0.022920087 -0.300849 -0.5401449
0.5700063 0.5771129 -0.5148497 0.28012854 -0.31178656 0.46844155 0.30472982 0.3885376
0.1303812 0.5475445 -0.18944983 -0.28216323 0.15086216 -0.18168217 0.05808157 -0.35838786
0.24096967 0.06404195 0.73040414 0.029918378 0.31814995 -0.11182544 0.45912027 -0.56758183
0.18492113 0.2198435 0.20752774 -0.12410605 0.16482945 -0.11096689 0.47326353 -0.023822159
0.08234109 0.12237574 0.10571674 -0.20494634 -0.09989176 0.07181669 0.06537143 0.22658417
-0.22950992 0.33317015 0.39107293 0.14457971 -0.26158598 0.18988608 -0.62552583 0.2588903
0.022606097 0.3482495 -0.0026094012 -1.1371921 0.32346275 0.15133053 -0.31950158 0.06610835
-0.048747353 -0.13507928 -0.16374987 -0.014291051 -0.049306117 0.053898536 0.561993 0.17180008
0.35737893 0.13285658 -0.35633186 0.36111048 0.012929427 -0.012076747 -0.122186534 0.013664909
0.11045568 0.22797054 0.21674855 -0.04682302 0.16987142 0.07437661 -0.38728678 -0.09577551
0.20553227 -0.001931242 0.30444854 -0.085206725 -0.23997164 0.13932344 0.088684544 -0.011705853
0.3605317 -0.025422446 0.07632489 0.084858604 0.19967298 -0.19165881 0.53230286 0.13999556
-0.104217686 -0.15273437 0.5130641 -0.010387908 -0.26551816 -0.20484911 -0.008752213 -0.052852113
-0.059243917 -0.05024834 0.24366544 0.07242549 0.06168401 0.0729163 0.41629162 0.19875629
0.2652685 0.25491315 -0.014890787 -0.35505685 -0.012265746 -0.11090805 -0.25974146 0.019022092
0.07977716 0.36833894 0.08397288 -0.20114295 0.20233056 -0.01619736 0.10326174 0.0043671275
00000000: 03b7 08be bee5 0abe bb74 013e efd8 9fbe
00000010: cc0a c63e 8de1 c73e 8611 043e 0450 95bd
00000020: 902d 6e3e eec7 90bd 0255 02bf 9ddd b53c
00000030: cf0b d43d 0479 933e d630 84be 2208 873e
00000040: fba8 d5be a1d1 a43e 989b ec3e c8a9 14be
00000050: 42f2 ae3d 93ce 9bbe fc79 103f 18e0 fe3d
00000060: c285 113d 1b1b 833c 62e9 f73d f0e5 8e3e
00000070: 1379 a7be c1bd a93d 6eb8 abbe b6d0 a4be
00000080: 6c59 313d dd73 873d db8d eb3e 38b7 30be
00000090: ab16 293e f0d8 133e ffee c33e 4f2a 0f3e
000000a0: 31f7 453e 471c 0e3d 8787 a7be ca99 eabd
000000b0: a715 ca3d 5a54 a43e f7e4 813e ceaf 38be
000000c0: 3c36 18be ceb3 be3e 3fc0 aa3d 2c88 7f3e
000000d0: 84b7 3a3e 4356 aebe d970 1c3e 27cf 333e
000000e0: 87ad 9d3e d6a8 553e 3a74 a33e 30d5 2e3e
000000f0: 4452 64be 8ae3 9e3e 95ed cf3e b70b dcbe
00000100: 6584 8d3e 2f81 293f a281 2bbf f2af 8d3f
00000110: e270 db3e 8606 38be a9e4 bd3e eb02 16be
00000120: e10f 403e 2b75 233e 504f 823f 4d64 3c3d
00000130: 6fff c13e 0802 bbbd 325c 27be 7d78 5e3e
00000140: 0a4e 653f ec18 1b3f a9a5 29bb 2e77 dabe
00000150: 4974 023f 339a e43e cd7d a83e 038d 8a3d
00000160: 4f24 843d 14ef 76bd e0f1 3fbe 7ce6 dfbe
00000170: 5648 143f 52b0 15bc e662 093e a224 b03f
00000180: f926 d7bd 8f4d 67be 4569 bf3d b148 f4be
00000190: e9d5 723d 70ea 353f b100 a83c dd4a a23e
000001a0: 4338 4dbd 14b2 933d c9f6 25bf 6a97 383d
000001b0: b441 0c3e e737 a53d 1775 b7bd f069 9d3e
000001c0: 7bfc 86be 8c19 ec3e a128 bf3e 43cd c73d
000001d0: a117 063e ded7 e2be 0667 153d 8ce8 5a3e
000001e0: 94da 503e 7742 5e3e 72fe a93d 3d2e 133f
000001f0: e7f6 08bf e8c2 bb3c e108 9abe f046 0abf
00000200: efeb 113f acbd 133f 31cd 03bf 026d 8f3e
00000210: 7da2 9fbe 92d7 ef3e 8c05 9c3e 66ee c63e
00000220: a682 053e e02b 0c3f 23ff 41be b377 90be
00000230: 9c7b 1a3e e40a 3abe f1e6 6d3d 9d7e b7be
00000240: c1c0 763e 6d28 833d c4fb 3a3f 6317 f53c
00000250: 8de4 a23e bc04 e5bd d011 eb3e 0b4d 11bf
00000260: f75b 3d3e a81e 613e 2782 543e 502b febd
00000270: 0dc9 283e 9c42 e3bd 994f f23e b026 c3bc
00000280: 72a2 a83d 22a0 fa3d 0582 d83d 74dd 51be
00000290: 0d94 ccbd a114 933d 75e1 853d ae05 683e
000002a0: a604 6bbe 4795 aa3e b63a c83e b40c 143e
000002b0: 99ee 85be 7f71 423e 7622 20bf 458d 843e
000002c0: 6c30 b93c c24d b23e 7d02 2bbb 838f 91bf
000002d0: e99c a53e 64f6 1a3e b695 a3be d163 873d
000002e0: 4eab 47bd 3952 0abe 0cae 27be 0325 6abc
000002f0: 36f5 49bd b6c4 5c3d c6de 0f3f 5cec 2f3e
00000300: 5ffa b63e 8e0b 083e 2171 b6be 79e3 b83e
00000310: f3d5 533c 8cdd 45bc ef3c fabd c8e2 5f3c
00000320: 9636 e23d 1c71 693e 55f3 5d3e 7fc9 3fbd
00000330: c6f2 2d3e c452 983d 744a c6be f325 c4bd
00000340: 0d77 523e ba21 fdba aee0 9b3e dd80 aebd
00000350: 20bb 75be ceaa 0e3e 3ea0 b53d e8c9 3fbc
00000360: 9c97 b83e bc42 d0bc 3950 9c3d 59ca ad3d
00000370: 1377 4c3e 3542 44be 0045 083f ff5a 0f3e
00000380: 1570 d5bd 6666 1cbe 2b58 033f 0b32 2abc
00000390: fff1 87be f7c3 51be 7165 0fbc 757b 58bd
000003a0: c0a9 72bd 34d1 4dbd 6f83 793e d153 943d
000003b0: 5fa8 7c3d 2455 953d 2d24 d53e c586 4b3e
000003c0: 46d1 873e fa83 823e 7df8 73bc 03ca b5be
000003d0: 44f6 48bc c223 e3bd d5fc 84be 38d4 9b3c
000003e0: 3562 a33d ec96 bc3e f9f9 ab3d 6bf8 4dbe
000003f0: be2f 4f3e 53b0 84bc e47a d33d 1f1a 8f3b

recurrent.rnn.bias_ih_l1 f4 [96]
-0.34221828 -0.16961169 -0.3119769 -0.5230296 -0.40388092 -0.01166915 -0.23861553 0.18243504
-0.011313888 -0.0037923486 -0.22588693 -0.027990215 -0.5649194 -0.17717506 0.7846254 -0.2974785
-0.48073396 -0.6274753 0.08292106 0.35475442 -0.30002737 0.0023150665 -0.24711016 -0.29205206
0.10662652 0.069097534 -0.31228724 0.025705216 -0.68230253 -0.2000399 -0.29740077 -0.54442465
0.026562866 0.2747248 0.020225782 -0.123423286 0.44645417 0.52918833 -0.2211779 1.3923957
-0.18363161 0.8489196 -0.4897068 1.1875769 0.3627568 0.5695755 -1.4035105 0.66879815
-0.47220084 1.3270522 -0.40895578 -0.8172435 1.5883384 -0.7228682 0.40861776 0.24436581
0.16285066 0.14243394 0.65090734 0.533056 -0.9679301 1.4672964 -0.1942581 0.24647008
-0.39045274 -0.30110213 -0.2452034 -0.2889421 -0.2309626 -0.07515569 -0.18153279 -0.45313668
0.11082278 -0.53682756 -0.21974705 -0.18350616 -0.072342224 -0.07999263 0.074750304 -0.36886388
0.016055088 -0.22028208 -0.23200104 -0.07476418 0.07833138 -0.5223551 -0.3304137 -0.03224245
-0.22127806 -0.029609477 -0.13577937 -0.18014309 0.26845115 -0.15437283 -0.2854403 -0.44837442
00000000: 3c37 afbe b0ae 2dbe 70bb 9fbe 45e5 05bf
00000010: 7bc9 cebe f62f 3fbc a157 74be 40d0 3a3e
00000020: e35d 39bc 0d89 78bb e74e 67be bc4b e5bc
00000030: 8f9e 10bf 616d 35be 36dd 483f 1a4f 98be
00000040: c322 f6be 39a2 20bf 84d2 a93d 5fa2 b53e
00000050: 309d 99be 5fb8 173b 720a 7dbe d987 95be
00000060: 015f da3d 0283 8d3d 1de4 9fbe bf93 d23c
00000070: 61ab 2ebf 42d7 4cbe ea44 98be 6a5f 0bbf
00000080: 5e9a d93c bba8 8c3e 8ab0 a53c 59c5 fcbd
00000090: a495 e43e e378 073f 767c 62be 063a b23f
000000a0: ed09 3cbe cb52 593f daba fabe 8502 983f
000000b0: 42bb b93e b3cf 113f 3ba6 b3bf 5b36 2b3f
000000c0: 4fc4 f1be d9dc a93f a762 d1be df36 51bf
000000d0: ac4e cb3f e40d 39bf 5936 d13e 083b 7a3e
000000e0: 53c2 263e 34da 113e dda1 263f 5c76 083f
000000f0: 44ca 77bf 5ed0 bb3f 98eb 46be a762 7c3e
00000100: 6ce9 c7be 0f2a 9abe 9a16 7bbe 38f0 93be
00000110: 7681 6cbe 3aeb 99bd bbe3 39be 8801 e8be
00000120: 0ef7 e23d 886d 09bf 5f05 61be 0ae9 3bbe
00000130: 2928 94bd 2dd3 a3bd b016 993d badb bcbe
00000140: f685 833c a091 61be ae91 6dbe f61d 99bd
00000150: 346c a03d 10b9 05bf fc2b a9be a910 04bd
00000160: b796 62be 938f f2bc bf09 0bbe 6e77 38be
00000170: 6e72 893e e913 1ebe 3b25 92be 5591 e5be

recurrent.rnn.bias_hh_l1 f4 [96]
-0.3424704 -0.009164799 -0.3387132 -0.27313375 -0.23745193 0.3117058 -0.22418004 0.1214728
0.13710262 -0.0954856 -0.3316175 0.061687928 -0.28149277 -0.325969 0.5602794 -0.27566695
-0.78902787 -0.6331803 0.1621732 0.46862543 -0.11700862 0.055628277 -0.33797392 -0.41865358
0.072421856 0.012254461 -0.31833693 0.1355598 -0.6282602 -0.42802238 -0.18537357 -0.3229051
-0.08142927 0.23007676 0.116654225 -0.11307863 0.31956068 0.6472568 -0.46406937 1.3495133
-0.17092198 0.8323402 -0.5431516 1.1451148 0.46396556 0.47863597 -1.5386755 0.64905125
-0.5701058 1.3748938 -0.29594702 -0.8816222 1.4725469 -0.8721985 0.271076 0.42594492
0.10727303 0.23089845 0.65143794 0.49706796 -1.2259135 1.483 -0.1914655 0.4347002
0.032694623 -0.1303801 0.06358778 -0.019461107 -0.06370036 -0.34354296 -0.19283463 -0.061517507
-0.17829536 -0.055007022 0.097789824 -0.09035127 -0.124876 -0.02199326 0.75608695 -0.43456507
-0.046294134 -0.09539223 -0.123988174 0.034412984 -0.1666124 -0.52790916 -0.11555952 -0.19877367
-0.024204832 -0.14504232 -0.020694131 -0.23867397 0.030901909 0.06859913 -0.085916966 -0.007930827
00000000: 4858 afbe f427 16bc d16b adbe 30d8 8bbe
00000010: 9926 73be e797 9f3e 748f 65be bbc6 f83d
00000020: a164 0c3e f48d c3bd c5c9 a9be 7bac 7c3d
00000030: d21f 90be 69e5 a6be 796e 0f3f 3824 8dbe
00000040: bbfd 49bf 1b18 22bf bb10 263e acef ef3e
00000050: 37a2 efbd 7ada 633d eb0a adbe c359 d6be
00000060: e951 943d efc6 483c 0ffd a2be 30d0 0a3e
00000070: a9d5 20bf c025 dbbe 92d2 3dbe d153 a5be
00000080: 64c4 a6bd 3e99 6b3e 69e8 ee3d c595 e7bd
00000090: 759d a33e 9fb2 253f 809a edbe dabc ac3f
000000a0: 2c06 2fbe 3f14 553f fc0b 0bbf 1f93 923f
000000b0: e58c ed3e c60f f53e 52f3 c4bf 3928 263f
000000c0: 74f2 11bf 85fc af3f 5e86 97be feb1 61bf
000000d0: 6b7c bc3f 6748 5fbf 79ca 8a3e 7415 da3e
000000e0: f6b1 db3d a570 6c3e a3c4 263f b17f fe3e
000000f0: bcea 9cbf f2d2 bd3f 880f 44be 0691 de3e
00000100: ccea 053d 5c82 05be 4f3a 823d e66c 9fbc
00000110: 5675 82bd dde4 afbe 7176 45be c8f9 7bbd
00000120: 0f93 36be 0b4f 61bd 0846 c83d 160a b9bd
00000130: fdbe ffbd 362b b4bc ea8e 413f 507f debe
00000140: eb9e 3dbd 005d c3bd 83ed fdbd a1f4 0c3d
00000150: 719c 2abe 0e25 07bf 78aa ecbd 538b 4bbe
00000160: 3649 c6bc f985 14be bd86 a9bc f366 74be
00000170: 0026 fd3c b37d 8c3d 3cf5 afbd 4df0 01bc

linear.weight f4 [1, 32]
0.14320892 0.14776944 -0.17040749 0.20614398 -0.20726301 -0.31528983 -0.24415402 0.21981902
-0.108801074 0.2041416 0.1889093 -0.130586 0.026751123 -0.31588522 0.37275273 -0.13951753
0.4438622 -0.34617352 0.098868825 0.11857911 -0.03186548 0.15043111 0.08137984 -0.15283154
-0.1785095 -0.15505208 -0.013859376 -0.24426065 0.36115494 -0.34852442 0.11323378 0.29604235
00000000: 5ca5 123e df50 173e 4d7f 2ebe 6817 533e
00000010: c13c 54be ab6d a1be 8303 7abe 3d18 613e
00000020: 19d3 debd 7f0a 513e 7171 413e 56b8 05be
00000030: 2c25 db3c b5bb a1be 72d9 be3e afdd 0ebe
00000040: e841 e33e a83d b1be bd7b ca3d 9bd9 f23d
00000050: 6185 02bd 9d0a 1a3e 79aa a63d df7f 1cbe
00000060: 32cb 36be f9c5 1ebe 7012 63bc 771f 7abe
00000070: 4de9 b83e cb71 b2be 1de7 e73d dd92 973e
