GRU.pth (torch, 42048 bytes, 9 tensors)

recurrent.rnn.weight_ih_l0 f4 [96, 1]
0	0x3e270ebb	0.16314213
1	0x3d9f6237	0.07782405
2	0xbd8caa57	-0.06868427
3	0x3bb30150	0.005462803
4	0xbcb0b95b	-0.02157276
5	0xbe2cffa2	-0.16894391
6	0xbe1275f0	-0.14302802
7	0xbdd91d84	-0.10601333
8	0xbd0df10a	-0.0346537
9	0xbd10e94d	-0.035378743
10	0xbdd3575b	-0.10319396
11	0x3d018f0d	0.031630564
12	0xbc08ace4	-0.008342002
13	0x3e20f9b7	0.15720259
14	0x3d832b3c	0.06404731
15	0xbda0607f	-0.07830905
16	0x3d4f79fe	0.05065345
17	0x3b8dc6d0	0.004326679
18	0xbd27b41a	-0.040943243
19	0xbd849770	-0.06474197
20	0xbdaeb29f	-0.08530163
21	0x3e154069	0.14575352
22	0xbdc3a809	-0.095535345
23	0x3d1ef4ca	0.038807668
24	0x3e3ce5c5	0.18447025
25	0xbe3c9cb4	-0.18419152
26	0xbd12e2ca	-0.035860814
27	0x3e39fdce	0.18163225
28	0xbe8a3c59	-0.26999167
29	0xbe7d2e08	-0.24724591
30	0xbe3d8c94	-0.18510658
31	0xbe0c1c06	-0.13682565
32	0xbee388ea	-0.44440395
33	0xbe432760	-0.19057989
34	0x3df050a7	0.11734133
35	0xbe4ac034	-0.19799882
36	0xbe59ea8b	-0.21280877
37	0xbe4877c4	-0.19576937
38	0x3cc0d673	0.023539757
39	0x3d2f267c	0.04276131
40	0xbe4724e1	-0.19447662
41	0x3cd7c2ff	0.026338099
42	0xbedcbf4b	-0.43114695
43	0xbdf6af70	-0.12045181
44	0xbde7713f	-0.11300897
45	0xbea31b9a	-0.31856996
46	0xbebfec22	-0.37484843
47	0xbea5e4d7	-0.32401153
48	0xbeaa70be	-0.3328914
49	0xbf5b11d0	-0.85574055
50	0xbea9100b	-0.33020052
51	0xbdd2a877	-0.10286038
52	0xbe2a1576	-0.16609749
53	0xbe4529f1	-0.1925428
54	0xbe509445	-0.2036906
55	0xbeea625f	-0.45778176
56	0xbea0add0	-0.31382608
57	0xbf00a69a	-0.50254214
58	0x3d0353c7	0.03206232
59	0xbe6071e0	-0.2191844
60	0x3d834e1e	0.06411384
61	0xbe95ea4f	-0.29280326
62	0xbe0a0259	-0.13477458
63	0x3e6f6ae7	0.23380624
64	0x3d3244e3	0.043522727
65	0x3e88532b	0.26625952
66	0x3dbce7ca	0.09223898
67	0xbe46d46f	-0.19416974
68	0x3e36663c	0.17812437
69	0xbe505456	-0.20344672
70	0x3e69b24e	0.22821924
71	0xbe8bb716	-0.2728812
72	0x3c80d384	0.015725859
73	0x3e5e8b54	0.21732837
74	0x3d197e12	0.037473746
75	0x3e482ab9	0.19547547
76	0x3e7e9383	0.24860959
77	0x3e8de43d	0.27713194
78	0xbe69563e	-0.22786805
79	0x3e409c85	0.18809707
80	0x3e49085a	0.19632092
81	0xbe044265	-0.12915953
82	0xbdf3cbe8	-0.119041264
83	0xbe896ce6	-0.26840895
84	0xbb98071c	-0.0046395194
85	0xbe0bf29b	-0.13666765
86	0x3e270e18	0.1631397
87	0x3e4e0474	0.20118886
88	0x3d8d43f2	0.06897725
89	0x3df6ce99	0.12051124
90	0xbe820641	-0.25395396
91	0x3e83e0dd	0.25757495
92	0xbe80efef	-0.25183055
93	0xbe3c3ba1	-0.18382122
94	0x3e3d825b	0.18506758
95	0xbda04bc4	-0.07826951

recurrent.rnn.weight_hh_l0 f4 [96, 32]
0	0x3da63ccd	0.081170656
1	0x3d806002	0.06268312
2	0x3e4489a4	0.1919313
3	0xbe5ac40d	-0.2136385
4	0x3bc2c0d6	0.005943398
5	0xbe90f6aa	-0.2831319
6	0xbc9af91f	-0.018917618
7	0xbe703100	-0.23456192
8	0xbe22c5d6	-0.15895781
9	0x3dfe4912	0.12416281
10	0xbcf2dc33	-0.029646015
11	0x3c6861d8	0.014183484
12	0x3d789aed	0.060694624
13	0xbca4112f	-0.020027725
14	0xbe7728d6	-0.24136671
15	0x3e1940a1	0.1496606
16	0x3e7e18db	0.24814169
17	0x3ce88178	0.028382048
18	0xbe686a95	-0.22696908
19	0xbe831ff0	-0.25610304
20	0x3e49387f	0.19650458
21	0xbc212e8c	-0.009837758
22	0x3e0aedc1	0.13567258
23	0x3e946262	0.2898131
24	0x3e769057	0.24078499
25	0x3dd37de4	0.10326746
26	0xbd8df8fd	-0.06932256
27	0xbc759ff9	-0.014991754
28	0xbe555437	-0.20832907
29	0xbd9578de	-0.07298444
30	0x3db8a771	0.09016312
31	0xbdab682d	-0.08369479
32	0x3e4ae0a5	0.19812258
33	0xbb2ee01d	-0.0026683875
34	0x3ea6fcd7	0.32614776
35	0x3e58db2e	0.2117736
36	0x3dd69872	0.104782954
37	0x3dc78eed	0.09744058
38	0x3c98851f	0.018618165
39	0xbe93cd3f	-0.28867528
40	0x3e056afd	0.13029094
41	0x3d27252e	0.04080694
42	0xbd518bbd	-0.051158655
43	0x3d63a4aa	0.055576958
44	0xbcdc6e65	-0.026908109
45	0xbdf8dbfc	-0.12151334
46	0x3e0bacae	0.13640091
47	0xbc4cb731	-0.012494848
48	0x3e10712f	0.14105676
49	0xbd230025	-0.03979506
50	0x3cf66840	0.030079007
51	0x3c4e287a	0.012582893
52	0x3e287bb4	0.16453439
53	0xbddcb5dd	-0.10776875
54	0xb8e8be9b	-0.00011098125
55	0xbe293d0e	-0.16527197
56	0x3e2ab39a	0.16670075
57	0xbe56a75a	-0.20962277
58	0x3d916e32	0.07101096
59	0xbde6a59a	-0.11262055
60	0xbd09877a	-0.033576466
61	0x3da1ebda	0.07906313
62	0x3d95eaba	0.07320161
63	0x3bcd6f95	0.006269405
64	0x3de5f663	0.11228635
65	0xbe7924cf	-0.24330448
66	0x3d9cd154	0.07657114
67	0xbd06543f	-0.032795187
68	0xbe708756	-0.23489127
69	0x3dc5e069	0.096619435
70	0xbdfadf05	-0.12249569
71	0x3e0262c3	0.12732987
72	0x3e180b97	0.14848171
73	0xbd7a6d32	-0.061139293
74	0x3ca47215	0.02007393
75	0xbe660a7e	-0.2246494
76	0xba0e3fd6	-0.00054263824
77	0xbd636325	-0.055514473
78	0x3e1064fe	0.14101025
79	0x3d99c7d9	0.07508821
80	0xbe1149ec	-0.14188355
81	0xbdf57ca0	-0.11986661
82	0xbe9775e9	-0.29582146
83	0x3e08885e	0.1333327
84	0x3ddd9b73	0.10820665
85	0xbd8e2df4	-0.069423586
86	0xbe7f5d14	-0.2493785
87	0x3d8085c8	0.06275517
88	0xbcc84b83	-0.02445007
89	0x3e312e84	0.173029
90	0x3e1d83fe	0.15382382
91	0x3db68d39	0.08913655
92	0x3e02e18c	0.12781352
93	0x3e33800f	0.17529319
94	0x3c0e3e5c	0.00868186
95	0x3e3ef6c1	0.18648817
96	0x3e44d018	0.19220006
97	0x3d647a22	0.055780537
98	0x3eaf65dc	0.342574
99	0x3d7c5f7a	0.06161449
100	0xbe40f896	-0.18844828
101	0x3e4d68aa	0.20059457
102	0x3e4ae9fe	0.19815823
103	0xbc3f52d6	-0.0116774645
104	0xbd1800d0	-0.03711015
105	0x3dbfddbf	0.093684666
106	0x3e9b9de6	0.30393904
107	0xbe3c7b56	-0.18406424
108	0x3e4032fd	0.1876945
109	0xbe08461f	-0.13307999
110	0xbc180d1d	-0.00928047
111	0xbe77bf71	-0.24194123
112	0x3e911c9e	0.28342146
113	0x3e84ac03	0.25912485
114	0x3e12a2de	0.14319941
115	0xbd1f13f3	-0.038837384
116	0x3e7c2e88	0.24627125
117	0x3d8144aa	0.06311925
118	0x3e2dea21	0.16983844
119	0xbd585b19	-0.052821252
120	0x3e346253	0.17615633
121	0xbe24230a	-0.16028991
122	0x3e34e2a7	0.17664586
123	0xbdc9ceb1	-0.098538764
124	0xbe38d1ba	-0.18048754
125	0xbdd2a23e	-0.102848515
126	0xbd9bd221	-0.07608438
127	0xbe525ac6	-0.2054244
128	0xbdccbf2f	-0.09997403
129	0x3e0cd115	0.13751633
130	0x3eb659a4	0.35615265
131	0x3c2f92e1	0.010716171
132	0x3d990a8b	0.07472714
133	0x3da79d9c	0.081843585
134	0x3e83a9c9	0.25715473
135	0xbe188033	-0.14892654
136	0xbdfe53e3	-0.12418344
137	0x3e472685	0.19448288
138	0x3d0d6f93	0.034530234
139	0xbdaf8c7e	-0.08571719
140	0x3e8df3f8	0.27725196
141	0xbdf48b9c	-0.11940691
142	0xbcdabac0	-0.026700377
143	0x3e336ac6	0.175212
144	0x3df26a36	0.118366644
145	0x3e2f6836	0.17129597
146	0xbe0375df	-0.12837933
147	0xbe28d0ee	-0.1648595
148	0xbda8cf7c	-0.082426995
149	0x3dbe6e33	0.092983626
150	0x3d677d9f	0.056516286
151	0xbdf0be83	-0.11755087
152	0x3e9db4e5	0.30802074
153	0xbc956bd9	-0.018239902
154	0xbbfa177c	-0.007632194
155	0x3e14cfe3	0.14532427
156	0xbe9f40ca	-0.31104118
157	0xbda82718	-0.082105815
158	0x3e38c8c1	0.18045332
159	0xbe9718a1	-0.29510978
160	0x3c496dd6	0.012294253
161	0xbd543a30	-0.051813304
162	0x3cd5c739	0.026095973
163	0x3d150130	0.036378086
164	0x3dec27e7	0.11531048
165	0x3e0fc10b	0.14038484
166	0x3cab57d9	0.020915912
167	0x3b782f26	0.00378699
168	0xbb7a029f	-0.0038148535
169	0xbdffbfd0	-0.12487757
170	0x3dfe70e1	0.12423874
171	0xbdfb6798	-0.12275618
172	0x3d547f20	0.05187905
173	0x3ddd7d80	0.10814953
174	0xbdc1c094	-0.094605595
175	0xbe028405	-0.12745674
176	0x3dfc216c	0.12311062
177	0x3c9dcbc9	0.019262211
178	0xbe28ccb9	-0.16484345
179	0xbc1407e1	-0.009035082
180	0xbdaab6ce	-0.083356485
181	0xbdf9a580	-0.1218977
182	0x3e577b5f	0.21043156
183	0xbdcd30dd	-0.100190856
184	0x3e404a7b	0.18778412
185	0xbe33ba37	-0.17551504
186	0x3dc8ff5e	0.098143324
187	0xbe396748	-0.18105805
188	0x3d927b26	0.07152395
189	0xba7ebea1	-0.0009717737
190	0x3db3e07b	0.087830506
191	0x3cd74867	0.026279641
192	0xbd4e1e9b	-0.050322156
193	0xbe5800f5	-0.21094115
194	0x3e66f226	0.2255331
195	0x3e39ecec	0.18156785
196	0x3d2f60a7	0.042816784
197	0x3e2fa7dc	0.17153877
198	0x3b1c6dfc	0.0023869267
199	0xbe6b446b	-0.22975318
200	0x3dfdec2c	0.12398562
201	0xbd74668a	-0.0596681
202	0x3e3e1cd3	0.18565683
203	0xbd6b584a	-0.057457246
204	0x3e546e68	0.20745242
205	0x3c33a8dc	0.010965552
206	0x3d7a90c0	0.0611732
207	0xbdc72c96	-0.09725301
208	0x3ddbd446	0.10733847
209	0x3d25153a	0.040303446
210	0xbe01f822	-0.12692311
211	0xbd1a605e	-0.03768956
212	0xbcba416f	-0.02273628
213	0xbdb0da5f	-0.08635401
214	0x3d841111	0.06448568
215	0x3dda4f64	0.10659674
216	0x3d8872a1	0.06662489
217	0x3dcdb2e9	0.1004389
218	0x3e4379c3	0.19089417
219	0xbdc351ee	-0.09537111
220	0xbc40ddc7	-0.011771626
221	0xbe0cf549	-0.13765444
222	0xbd5d896e	-0.05408614
223	0x3e042acc	0.1290695
224	0x3e4623dc	0.19349617
225	0x3d115d7b	0.03548954
226	0x3e7fbdc5	0.24974735
227	0xbbde2c3f	-0.006780177
228	0xbe0ac01d	-0.13549848
229	0x3e119706	0.14217767
230	0xbe0fcafc	-0.14042276
231	0x3e347c4b	0.17625539
232	0x3e1053ac	0.14094418
233	0xbdad0374	-0.08447924
234	0x3cf4c0d8	0.029877111
235	0xbe98aa2b	-0.29817328
236	0x3d009416	0.031391226
237	0xbc1fdd85	-0.009757404
238	0x3e90a56f	0.28251216
239	0xbe814fc0	-0.25256157
240	0x3e989cc5	0.29807106
241	0x3d2cb638	0.042165965
242	0x3da21b4e	0.07915364
243	0x3e402ea1	0.18767788
244	0xbe2c7a07	-0.16843425
245	0x3e57b47e	0.21064946
246	0xbe0a131d	-0.13483854
247	0xbd9d8b86	-0.076926276
248	0x3eb3d1c6	0.35120982
249	0xbd828a68	-0.06374055
250	0x3ea24421	0.31692603
251	0xbe6a0519	-0.22853507
252	0x3c9d16ab	0.019175848
253	0xbd9d0fb9	-0.076690145
254	0xbdf2653a	-0.11835714
255	0x3c8f365e	0.017481979

recurrent.rnn.bias_ih_l0 f4 [96]
0	0xbe0b0026	-0.13574275
1	0xbe71fe88	-0.23632252
2	0x3e086772	0.13320711
3	0xbe52b4a2	-0.20576718
4	0xbe0e521f	-0.13898514
5	0xbd202e25	-0.039106507
6	0x3c8631d3	0.01638118
7	0x3da239b4	0.07921162
8	0x3e2f8391	0.17140032
9	0xbe348e98	-0.1763252
10	0xbe188b68	-0.1489693
11	0xbc839286	-0.016061079
12	0x3d84f360	0.064917326
13	0xbe2dc689	-0.16970266
14	0x3df34a04	0.11879352
15	0x3dfa80ff	0.12231635
16	0xbe012410	-0.12611413
17	0xbdc90453	-0.09815278
18	0x3e02fb5e	0.12791201
19	0xbeb0c6e1	-0.34526733
20	0xbb83415e	-0.004005595
21	0xbdb7c25b	-0.08972617
22	0xbe021812	-0.12704495
23	0xbd822191	-0.063540585
24	0x3bcb162d	0.006197712
25	0x3dc7ef09	0.09762389
26	0xbdaeeb9a	-0.08541031
27	0xbdc9e3da	-0.09857912
28	0xbb5912b6	-0.0033122725
29	0x3cb5278f	0.02211359
30	0xbded91a0	-0.116000414
31	0xbde7b1e2	-0.11313225
32	0xbf243032	-0.6413604
33	0xbf273619	-0.6531692
34	0xbf12bd5a	-0.5732018
35	0xbe86fe27	-0.26365778
36	0xbf23f9cf	-0.6405305
37	0xbe38c6c9	-0.1804458
38	0xbec356cd	-0.3815216
39	0xbf2e7df4	-0.6816094
40	0x3df1afe9	0.1180113
41	0xbdd161cd	-0.10223732
42	0xbeb4e062	-0.3532744
43	0xbf23d047	-0.6398968
44	0xbed9a7d8	-0.42510867
45	0xbecfd27e	-0.4059028
46	0xbf48d816	-0.7845472
47	0xbf3f5bb7	-0.7474932
48	0xbf6f0173	-0.93361586
49	0xbee81106	-0.45325488
50	0xbea47676	-0.3212163
51	0x3d6330a9	0.055466328
52	0xbe38c950	-0.18045545
53	0xbf5d6c33	-0.86493224
54	0xbf1780c3	-0.5918085
55	0xbef26898	-0.47345424
56	0xbf1032fd	-0.563278
57	0xbf129a73	-0.5726692
58	0xbe8b4cc7	-0.27207014
59	0xbe9d1ac9	-0.30684498
60	0x3d357f69	0.04431096
61	0xbef1fa1a	-0.47261125
62	0xbf11d6ec	-0.5696857
63	0xbf1a8e4c	-0.6037338
64	0x3d16ad34	0.036786273
65	0xbd9b9deb	-0.0759848
66	0xbd8b097b	-0.06788918
67	0xbde1396c	-0.109972805
68	0x3d7ec3ec	0.062198564
69	0xbe03f7dc	-0.1288752
70	0xbe423560	-0.18965673
71	0x3e6424cd	0.22279663
72	0xbe0337bb	-0.12814228
73	0xbc708a04	-0.014681343
74	0xbdc90a7a	-0.09816451
75	0xbdb957e9	-0.09049971
76	0xbd76e806	-0.06027987
77	0x3cdf76b3	0.02727828
78	0xbd947536	-0.07248919
79	0x3da47eb0	0.08031976
80	0x3c26778b	0.010160337
81	0x3c83b423	0.016077107
82	0xbd181286	-0.03712704
83	0x3ce4f70a	0.027949829
84	0xbd62ce0f	-0.055372294
85	0x3dd75ba6	0.105155274
86	0xbdfb8aa0	-0.122823
87	0x3c9dd126	0.019264769
88	0xbdec462a	-0.1153682
89	0x3dc16ea7	0.094449334
90	0x3dc84251	0.09778274
91	0x3e0940d0	0.1340363
92	0x3de2cf82	0.11074735
93	0xbdf1fd38	-0.11815876
94	0xbddef4a9	-0.10886509
95	0x3d79e823	0.0610124

recurrent.rnn.bias_hh_l0 f4 [96]
0	0xbe0535f2	-0.1300886
1	0xbe6406f1	-0.22268273
2	0xbc6fb6a8	-0.014630951
3	0xbdc11077	-0.094269685
4	0xbe654f0d	-0.22393437
5	0x3b97ab2e	0.0046285605
6	0xbe33369d	-0.17501302
7	0x3e0ba6fb	0.13637917
8	0x3dd56c6b	0.1042107
9	0x3d9d40b3	0.07678356
10	0xbe261f84	-0.1622296
11	0xbdac51cf	-0.08414041
12	0x3c7ce869	0.01543627
13	0xbe607c20	-0.2192235
14	0x3e0dc1a4	0.138434
15	0xbe46a5a4	-0.19399124
16	0x3e287976	0.16452584
17	0x3d713d0b	0.058896106
18	0x3d0d0a3c	0.03443359
19	0xbdddd7a6	-0.10832147
20	0xbd527105	-0.051377315
21	0xbe76ed95	-0.24114068
22	0xbdff66ec	-0.12470803
23	0xbe25ccac	-0.16191357
24	0x3dc298a8	0.09501773
25	0xbd5d3a62	-0.054010756
26	0x3c082611	0.008309857
27	0x3db9950b	0.09061631
28	0xbc7482a7	-0.014923728
29	0x3dcd0182	0.10010053
30	0x3dc38e87	0.09548669
31	0x3ce44edf	0.02786964
32	0xbec8c82e	-0.39215225
33	0xbf22002b	-0.63281506
34	0xbf06ca2b	-0.52652234
35	0xbe3411b7	-0.17584883
36	0xbf0f2ab4	-0.55924535
37	0xbcb5c20e	-0.022187259
38	0xbebe64d9	-0.37186316
39	0xbf0a0fef	-0.5393056
40	0xbd60c3ed	-0.05487435
41	0xbcec4ab0	-0.028844208
42	0xbe66ad15	-0.22526963
43	0xbf033da7	-0.5126595
44	0xbf0020a0	-0.5004978
45	0xbed5fcb6	-0.41794366
46	0xbf049c3b	-0.5180089
47	0xbf32d6cf	-0.6985902
48	0xbf2b0eb6	-0.6681932
49	0xbf4ae095	-0.79248935
50	0xbedda5f6	-0.4329068
51	0xbe02c202	-0.1276932
52	0xbeb5cd38	-0.35508132
53	0xbf52c3ff	-0.82330316
54	0xbf0c0789	-0.54699
55	0xbef6a102	-0.48169714
56	0xbe788d39	-0.24272622
57	0xbeae8841	-0.34088328
58	0xbec043e5	-0.375518
59	0xbecc01dd	-0.39845172
60	0xbd87ccfc	-0.066308945
61	0xbf216c21	-0.63055617
62	0xbf30010f	-0.68751615
63	0xbf0f0010	-0.5585947
64	0xbde9a23e	-0.11407898
65	0x3b34b8ee	0.0027576047
66	0xbe561fef	-0.20910619
67	0xbdf5bc98	-0.11998862
68	0xbe3a09d2	-0.18167809
69	0x3dc43308	0.09580046
70	0x3d164922	0.03669084
71	0x3d653fcf	0.055969056
72	0x3e314d90	0.17314744
73	0xbc5320b6	-0.012886217
74	0xbbc97e9f	-0.0061491276
75	0x3e16ea0a	0.14737716
76	0xbdefef98	-0.11715621
77	0x3db73f5b	0.08947631
78	0x3e5f4ac7	0.21805869
79	0xbe3602f8	-0.1777457
80	0xbe524132	-0.20532683
81	0xbc72c3aa	-0.014817158
82	0x3d3c6907	0.0459986
83	0x3e019de1	0.12657882
84	0xbd1ec5d0	-0.038762867
85	0xbdc840f7	-0.09778016
86	0x3bcb0bd6	0.0061964793
87	0xbd645180	-0.055741787
88	0xbe36ffe9	-0.1787106
89	0xbd7dd286	-0.06196835
90	0xbd1c5e57	-0.038175907
91	0x3e12f145	0.1434985
92	0x3de3b1ab	0.11117872
93	0x3e495c1f	0.19664048
94	0xbdacbee5	-0.08434848
95	0x3db15cce	0.08660279

recurrent.rnn.weight_ih_l1 f4 [96, 32]
0	0x3e53213a	0.20618144
1	0xbdfe1b45	-0.12407545
2	0x3ea14e25	0.31504932
3	0xbd13f834	-0.036125377
4	0xbd5aaf7f	-0.053390022
5	0xbd4be50f	-0.049778994
6	0x3ddb07e6	0.10694866
7	0xbeb785ab	-0.35844168
8	0x3b4251e2	0.0029650857
9	0x3d890c1e	0.06691764
10	0x3e7762eb	0.24158828
11	0x3db5c877	0.08876126
12	0x3dcc9c7f	0.09990787
13	0x3b8ae9e5	0.004239308
14	0xbdcbccec	-0.09951195
15	0x3dd1699a	0.1022522
16	0x3ed1bbff	0.40963742
17	0x3e1ac7a3	0.15115218
18	0xbd639b2c	-0.055567905
19	0xbdc834a6	-0.09775667
20	0x3dcdd464	0.10050276
21	0xbe5fd19a	-0.218573
22	0xbd530f0d	-0.051528025
23	0x3d46b281	0.04851008
24	0x3e14bd83	0.14525418
25	0x3d87cf1c	0.066313
26	0x3d4f6faa	0.0506436
27	0xbe43c340	-0.1911745
28	0xbe6eb97c	-0.23312944
29	0xbdd60608	-0.10450369
30	0x3e658622	0.22414449
31	0xbe1f7ad9	-0.15574206
32	0xbce4fa72	-0.027951453
33	0xbab0427f	-0.0013447552
34	0xbe05cc43	-0.13066201
35	0x3ca0ac91	0.019613536
36	0x3ca67b82	0.020322565
37	0xbcf32112	-0.029678855
38	0xbd29d852	-0.041466065
39	0x3e5bdab3	0.21470146
40	0x3e000d84	0.12505156
41	0xbe45785c	-0.19284195
42	0xbbd43dc4	-0.0064770896
43	0xbe4c13f7	-0.19929491
44	0xbe3ea3d1	-0.18617178
45	0xbe0ee61d	-0.13954969
46	0x3e92f660	0.28703594
47	0xbde195a6	-0.11014871
48	0xbe162038	-0.14660728
49	0x3dc77552	0.09739174
50	0x3e548dca	0.20757213
51	0x3e8c0ed9	0.27355078
52	0xbc6423e1	-0.01392457
53	0xbd36e3fe	-0.044651024
54	0x3cad2bcd	0.02113905
55	0x3c816fd7	0.0158004
56	0x3e1dc1b0	0.15405917
57	0xbe28b82f	-0.1647651
58	0x3e1a0446	0.15040693
59	0xbe4d2447	-0.2003337
60	0x3d4d946c	0.050190374
61	0x3e127e6f	0.14306043
62	0xbe17ecfb	-0.14836495
63	0x3de2a11e	0.11065887
64	0xbcb08956	-0.021549862
65	0x3df0b4df	0.117532484
66	0x3e011453	0.1260541
67	0xbc635400	-0.013875008
68	0x3904343c	0.0001260796
69	0xbd342f16	-0.043990217
70	0x3db4a096	0.08819692
71	0x3d15d039	0.03657553
72	0xbd2f0619	-0.042730425
73	0x3e0932c8	0.13398278
74	0xbd095fb6	-0.033538543
75	0xbe0324f2	-0.12807062
76	0xbd1a874e	-0.037726693
77	0xbda53a00	-0.08067703
78	0xbe4c8dff	-0.19976042
79	0xbd9827b4	-0.07429448
80	0x3e5caa8c	0.21549433
81	0x3e333a8b	0.17502801
82	0x3dd09372	0.10184373
83	0x3d4be7dd	0.04978167
84	0xbde3845c	-0.1110923
85	0x3c57128a	0.013126979
86	0x3df7a692	0.12092318
87	0x3dfee45f	0.12445902
88	0x3e4e9153	0.20172624
89	0x3e3b4184	0.18286711
90	0x3de7404e	0.11291562
91	0x3d832d49	0.06405122
92	0xbe2feb7e	-0.17179677
93	0xbc24bbc7	-0.010054535
94	0x3e246305	0.16053398
95	0xbe081a1f	-0.13291214
96	0x3da86108	0.08221632
97	0xbdaec30b	-0.08533295
98	0x3cbbd401	0.02292824
99	0x3e43b367	0.19111405
100	0xbe31d9ba	-0.17368212
101	0x3dcd4b49	0.10024125
102	0xbd977d40	-0.073969364
103	0xbd81a274	-0.063298136
104	0x3e9a17f3	0.30096397
105	0xbdcc8479	-0.09986205
106	0x3dcf1f23	0.10113361
107	0xbe9ae64d	-0.3025383
108	0xbc050dd0	-0.008120969
109	0xbe9332f5	-0.28749815
110	0x3e84bbcd	0.2592453
111	0xbecae498	-0.39627528
112	0xbc698830	-0.014253661
113	0x3eb3d1a6	0.35120887
114	0x3e3b4dcc	0.18291396
115	0x3cdf59bf	0.027264474
116	0xbe00e7d5	-0.12588437
117	0x3e863b4c	0.26217115
118	0xbe759f65	-0.23986585
119	0xbed3e550	-0.4138589
120	0x3dc7d0ae	0.09756599
121	0xbeafa3f0	-0.34304762
122	0x3e27ea48	0.16397965
123	0xbe8b7e92	-0.27245003
124	0x3ca728ef	0.02040526
125	0x3e80e1b5	0.251722
126	0xbe5ae820	-0.21377611
127	0xbe2cbafc	-0.16868204
128	0x3e16f191	0.14740588
129	0xbe1b4725	-0.15163858
130	0x3d880fea	0.0664366
131	0x3d3fbf8b	0.04681353
132	0xbd53dfb6	-0.05172702
133	0x3e6f03c0	0.23341274
134	0xbcaeeed8	-0.021354124
135	0x3e6fbacc	0.23411101
136	0xbd9a7dac	-0.07543501
137	0xbd16f87b	-0.036858063
138	0x3e3ebd9d	0.18627019
139	0xbe2beb7d	-0.1678905
140	0xbe57d24e	-0.21076319
141	0xbd885621	-0.06657053
142	0x3e71465b	0.23561995
143	0x3dbdf467	0.09275132
144	0x3de6996f	0.11259734
145	0x3e3b7387	0.18305789
146	0x3e325063	0.17413478
147	0x3e6d5fa6	0.23181018
148	0xbcd4f442	-0.025995377
149	0xbac94d1e	-0.0015358066
150	0xbd913d0e	-0.070917234
151	0xbe0f4cc4	-0.13994128
152	0x3d77cb14	0.060496405
153	0x3d9a8721	0.07545305
154	0x3d3fb182	0.046800144
155	0x3dea2d38	0.11434406
156	0x3dd92e63	0.10604551
157	0xbcffe955	-0.031239191
158	0x3d73c2a6	0.059511803
159	0x3cfa5c6e	0.030561652
160	0xbc58a471	-0.0132228
161	0xbe7cef54	-0.24700671
162	0xbcd2b249	-0.025719779
163	0xbdb6db43	-0.089285396
164	0xbcca8a16	-0.024724048
165	0x3e460b63	0.19340281
166	0xbd246541	-0.040135626
167	0x3e7ae409	0.24501051
168	0xbe2414de	-0.16023585
169	0x3d529c92	0.05141885
170	0x3e724713	0.23659925
171	0xbe6ca7d0	-0.2311089
172	0xbe1f4d4b	-0.15556829
173	0xbd8a861a	-0.06763859
174	0x3e6b5204	0.22980505
175	0xbe7415d9	-0.23836459
176	0x3df72142	0.1206689
177	0x3d166c5e	0.03672444
178	0x3d932085	0.07183937
179	0xbaee16df	-0.0018164775
180	0x3e69b994	0.22824699
181	0x3db117d6	0.086471245
182	0xbe5807e5	-0.21096762
183	0x3bd21cae	0.0064121103
184	0xbe29fb4e	-0.16599771
185	0xbe525beb	-0.20542876
186	0x3e8b34d1	0.27188733
187	0xbe1c3ffd	-0.15258785
188	0x3e8b49ca	0.27204734
189	0x3d92bd9d	0.07165072
190	0xbd02d6bf	-0.03194308
191	0x3c9e3b70	0.019315451
192	0x3c8dbffc	0.01730346
193	0x3d9f883d	0.07789657
194	0xbcdaa2e0	-0.026688993
195	0x3dc4c436	0.09607737
196	0x3dcc5282	0.099766746
197	0xbe206fae	-0.15667602
198	0x3e508dd0	0.20366597
199	0xbe755e69	-0.23961796
200	0x3d037dfb	0.032102566
201	0xbe16026c	-0.14649361
202	0x3d808705	0.06275753
203	0xbd7d8d4c	-0.06190233
204	0xbc986ba5	-0.018606016
205	0xbd894a5d	-0.06703637
206	0xbe0784ae	-0.13234207
207	0x3db2531f	0.0870726
208	0xbcda5771	-0.026653023
209	0x3c8c4572	0.017122958
210	0xbe283c1f	-0.16429184
211	0xbe171360	-0.14753485
212	0x3c94224a	0.018082757
213	0xbe22a1d2	-0.15882042
214	0x3e11975f	0.142179
215	0xbda3c6c1	-0.07996894
216	0x3e72c307	0.2370721
217	0xbd175829	-0.03694931
218	0xbe3152cb	-0.1731674
219	0x3d2b899f	0.041879293
220	0xbe430123	-0.19043402
221	0xbe211af0	-0.15732932
222	0x3d2b36b7	0.041800227
223	0xbcf9342c	-0.030420385
224	0x3e3113e8	0.1729275
225	0x3e71c212	0.23609188
226	0x3bf17cac	0.0073695984
227	0xbe631ee1	-0.22179748
228	0x3e35048b	0.17677514
229	0xbe082d25	-0.13298471
230	0x3d656c15	0.05601128
231	0xbe4c092c	-0.19925374
232	0x3d5fa453	0.05460007
233	0x3cf0981f	0.029369412
234	0x3e00731d	0.12543912
235	0xbd949b33	-0.072561644
236	0x3db65c01	0.08904267
237	0x3e5e2079	0.21692075
238	0x3cfee9aa	0.03111728
239	0xbd0fe071	-0.035126153
240	0xbd5fca7e	-0.05463647
241	0xbe1dd758	-0.15414178
242	0x3d93f161	0.07223774
243	0xbe45fd19	-0.1933483
244	0xbe198d9e	-0.14995429
245	0x3b64f480	0.0034935772
246	0x3d0debbe	0.03464865
247	0xbdadeeaa	-0.08492787
248	0x3cebd381	0.028787376
249	0x3e45fdbc	0.19335073
250	0x3d269fcf	0.04067975
251	0x3cf011d3	0.029305374
252	0xbd0b5574	-0.03401704
253	0x3d145ae1	0.03621948
254	0x3e91e1fe	0.2849273
255	0xbda610ca	-0.08108671

recurrent.rnn.weight_hh_l1 f4 [96, 32]
0	0x3e804e00	0.2505951
1	0x3e7623d8	0.24037111
2	0xbe860c58	-0.26181293
3	0x3dfa6d43	0.12227871
4	0xbebf40c4	-0.373541
5	0xbefa7711	-0.48918965
6	0xbd417c78	-0.047237843
7	0xbd9206af	-0.07130181
8	0xbe215481	-0.15754892
9	0x3e75e1f2	0.24011973
10	0x3e94aaae	0.29036468
11	0xbe0152b9	-0.12629212
12	0xbe2ac5ae	-0.16676971
13	0x3dc6f2c0	0.0971427
14	0xbe7198ac	-0.23593396
15	0xbd8369cc	-0.064166635
16	0xbe44b296	-0.1920875
17	0xbbf951f7	-0.007608648
18	0x3eb9c1c7	0.36280653
19	0xbddbe6e5	-0.10737399
20	0xbe8b582c	-0.27215707
21	0x3d0f2f34	0.034957126
22	0xbe64e92b	-0.22354572
23	0xbde0f6ac	-0.10984549
24	0xbd882566	-0.06647758
25	0x3e68bb19	0.22727622
26	0x3beb29e9	0.007176627
27	0x3eac1ce9	0.33615807
28	0x3dd28257	0.102787666
29	0xbdb7fb51	-0.08983482
30	0xbdadf0b9	-0.0849318
31	0xbdc68325	-0.096929826
32	0x3d945787	0.07243257
33	0x3b68dec1	0.0035533162
34	0xbdecd8fc	-0.11564824
35	0x3e317a1d	0.17331739
36	0xbe40087d	-0.18753238
37	0xbda0de29	-0.07854874
38	0xbe5c9207	-0.2154008
39	0xbca85bdc	-0.020551614
40	0x3e5c0187	0.21484958
41	0x3d134c33	0.03596134
42	0xbabbf7d0	-0.0014340822
43	0x3c8634db	0.016382625
44	0x3de512d6	0.11185233
45	0xbd35e76a	-0.044410147
46	0xbe1e62f8	-0.15467441
47	0xbd649f57	-0.05581602
48	0xbe6baccc	-0.23015136
49	0xbc59dd80	-0.013297439
50	0x3d0bd9ea	0.034143366
51	0x3e27cb20	0.1638608
52	0xbdee5e2b	-0.11639055
53	0x3c12eb91	0.008967296
54	0xbd83e682	-0.0644045
55	0xbe05b936	-0.13058934
56	0x3e525398	0.20539701
57	0x3e992445	0.29910484
58	0xbe46471c	-0.19363064
59	0x3ddd36f8	0.108015
60	0xbcb32964	-0.021870323
61	0x3e875054	0.26428473
62	0xbc8af61b	-0.016963055
63	0x3d30c304	0.04315473
64	0x3dafa2d7	0.08575981
65	0x3eb131c8	0.34608293
66	0x3c6cc0ae	0.014450235
67	0xbbb46eae	-0.005506358
68	0xbe334c25	-0.17509516
69	0xbd9a8391	-0.075446256
70	0xbe38639a	-0.18006745
71	0xbe1bc212	-0.1521075
72	0x3ce7d52b	0.028299889
73	0x3e1baeaf	0.15203355
74	0x3c43f8a2	0.011961134
75	0xbe60b655	-0.21944554
76	0xbd386560	-0.045018554
77	0x3e8fc505	0.2808
78	0x3d23ce7b	0.039991837
79	0xbd49c3a8	-0.049258858
80	0xbe07df35	-0.1326874
81	0x3e104ecb	0.14092557
82	0x3da1f222	0.07907511
83	0xbe465609	-0.19368757
84	0x3d452271	0.04812855
85	0x3e844565	0.25834194
86	0xbdcad601	-0.09904099
87	0x3de63636	0.11240809
88	0xbe190359	-0.14942683
89	0x3e2263e7	0.15858422
90	0xbe41d018	-0.18927038
91	0xbc5e547e	-0.013569949
92	0xbd05caff	-0.032664295
93	0xbdcfc6bd	-0.10145328
94	0x3db09b8a	0.08623417
95	0xbdb4b468	-0.08823472
96	0xbc8f8e56	-0.017523926
97	0x3e903fc1	0.2817364
98	0xbd86d4e2	-0.06583573
99	0xbc8954e6	-0.016764116
100	0x3be65afb	0.0070298887
101	0xbc8f579b	-0.017497828
102	0xbda1421a	-0.07873936
103	0xbd7d92a3	-0.06190742
104	0x3bc105a5	0.0058905655
105	0xbc07a5b5	-0.008279254
106	0xbeb4c062	-0.35303026
107	0xbe227335	-0.1586426
108	0xbd6856a9	-0.05672327
109	0x3e1cc221	0.1530843
110	0xbe5c4d1f	-0.21513794
111	0xbebb539a	-0.3658722
112	0xbdd37d8a	-0.10326679
113	0x3d28c35f	0.041201945
114	0x3da2dd55	0.07952372
115	0xbd8366a4	-0.064160615
116	0xbe4693ce	-0.1939232
117	0x3da477f1	0.080306895
118	0xbe8c212d	-0.2736906
119	0xbe964b6f	-0.29354426
120	0xbdc0b255	-0.09409014
121	0xbcc82dff	-0.024435995
122	0xbe9f4c4d	-0.311129
123	0x3e18cfa8	0.14922965
124	0x3e10890c	0.14114779
125	0xbe7f2e7b	-0.24920075
126	0x3e1829f5	0.14859755
127	0x3e0f25d4	0.13979274
128	0xbdd7c053	-0.1053473
129	0xbdf0cd7b	-0.11757942
130	0xbd8cb2d6	-0.06870048
131	0x3e67bc52	0.22630432
132	0xbd02f84c	-0.031975076
133	0xbe2f6d26	-0.1713148
134	0x3ca2eb0d	0.019887472
135	0x3d0cd883	0.03438617
136	0xbdb9e690	-0.090771794
137	0xbe5d9665	-0.21639402
138	0xbd51f1e4	-0.051256076
139	0x3da6a3e9	0.08136732
140	0x3b81d68f	0.003962345
141	0xbdaa1c55	-0.08306185
142	0xbd785243	-0.060625326
143	0xbdf9629a	-0.1217701
144	0xbd96bc8f	-0.073601834
145	0xbd7850ec	-0.060624048
146	0x3debc178	0.115115106
147	0xbd320594	-0.04346235
148	0x3dbcbd88	0.09215838
149	0x3b9514c3	0.004549594
150	0x3e167057	0.14691292
151	0xbe26285e	-0.16226336
152	0x3e3a975a	0.18221799
153	0xbd22a32a	-0.039706387
154	0x3d992012	0.0747682
155	0xbdc90005	-0.09814457
156	0x3d54cab2	0.051951118
157	0xbdb7ef72	-0.089812174
158	0xbb514eb0	-0.003193777
159	0x3d86b831	0.065781005
160	0x3d3b95fd	0.045797337
161	0xbe47a41b	-0.19496195
162	0xbd7b1236	-0.061296664
163	0x3e9c5b48	0.30538392
164	0xbded16cc	-0.11576614
165	0xbe4696a0	-0.19393396
166	0xbc079dc5	-0.008277361
167	0x3d56b3bb	0.052417498
168	0x3d63fb5b	0.055659633
169	0xbe1c15c6	-0.15242681
170	0x3e680b64	0.22660595
171	0x3cfb48b6	0.03067432
172	0x3e07d648	0.13265336
173	0xbd198ee1	-0.037489776
174	0x3d464f52	0.04841549
175	0x3dd64935	0.10463182
176	0xbd5c00a0	-0.053711534
177	0x3e46f031	0.19427563
178	0x3d3d07df	0.046150085
179	0x3dc82461	0.09772564
180	0xbe0be942	-0.136632
181	0xbe598733	-0.2124298
182	0x3d476aab	0.04868571
183	0xbe26ff41	-0.16308309
184	0xbd4c7f4f	-0.0499261
185	0xbdab30a0	-0.08358884
186	0x3b9c5f48	0.0047721006
187	0xbdf204a5	-0.11817292
188	0x3dcef064	0.101044446
189	0x3e6d2024	0.23156792
190	0x3e4f467e	0.20241734
191	0x3e00a96d	0.12564631
192	0xbd7d7176	-0.061875783
193	0xbc14eb49	-0.0090892995
194	0x3d0227df	0.031776305
195	0x3d0f253a	0.03494761
196	0x3d8f525f	0.06998133
197	0xbd05d356	-0.03267225
198	0xbe5aa3bd	-0.21351524
199	0xbdb3f9e5	-0.08787898
200	0x3be8193e	0.007083087
201	0x3e84bde7	0.25926134
202	0xbe39f5e6	-0.18160209
203	0xbe7f84c8	-0.24952996
204	0x3d172a88	0.036905795
205	0xbd13776b	-0.036002558
206	0xbd452d1f	-0.048138734
207	0xbe991e95	-0.29906145
208	0xbe12ee89	-0.14348806
209	0xbdecf723	-0.11570575
210	0x3d7398c1	0.05947185
211	0xbdf11169	-0.11770899
212	0x3c5ed153	0.0135997115
213	0x3d316ad8	0.043314785
214	0xbe27c7de	-0.16384837
215	0xbce937b8	-0.028468952
216	0xbda66d81	-0.08126355
217	0x3e8372f6	0.25673646
218	0xbe375007	-0.17901622
219	0x3e1a4e78	0.15068996
220	0x3e04d2c4	0.12971026
221	0xbe191dd1	-0.1495278
222	0x3e4799f7	0.19492327
223	0xbd3db9d5	-0.0463198
224	0x3d33e3a8	0.04391828
225	0xbd587daa	-0.052854218
226	0x3ccc1def	0.024916617
227	0x3dd7892c	0.1052421
228	0xbd413a2b	-0.047174614
229	0xbe117b2d	-0.14207144
230	0xbd948bce	-0.07253228
231	0xbe0fb43f	-0.14033602
232	0xbda26747	-0.07929855
233	0xbd87f196	-0.06637876
234	0xbe2465f1	-0.16054513
235	0xbd5c45c3	-0.053777467
236	0x3c072b45	0.008250062
237	0x3e0098e8	0.12558329
238	0x3d40724b	0.046984
239	0xbd8dc399	-0.06922073
240	0xbcfba1bd	-0.030716771
241	0x3baebafa	0.005332348
242	0x3e3190b4	0.17340356
243	0xbe7260e5	-0.23669775
244	0x3daafaaa	0.083485916
245	0x3e092c3e	0.13395783
246	0x3dc63a07	0.096790366
247	0x3c3915fe	0.011296747
248	0xbe4b63bc	-0.19862264
249	0xbdee566d	-0.11637578
250	0xbd70b558	-0.058766693
251	0x3df10a62	0.117695585
252	0xbe35b579	-0.17745008
253	0x3d19348a	0.03740362
254	0xbdeefe38	-0.11669582
255	0xbca08a9b	-0.019597342

recurrent.rnn.bias_ih_l1 f4 [96]
0	0xbe5b5067	-0.2141739
1	0xbe5faa84	-0.2184239
2	0x3e1bf83b	0.15231411
3	0xbdd0bf9d	-0.10192797
4	0x3da7dd9e	0.08196567
5	0xbe724ea7	-0.23662816
6	0xbe1b4be7	-0.15165673
7	0x3df2aede	0.118497595
8	0xbe02addb	-0.12761633
9	0xbd400442	-0.04687906
10	0xbe1537f8	-0.14572132
11	0xbe220430	-0.1582191
12	0x3bb62d08	0.0055595674
13	0xbebfd931	-0.3747039
14	0xbdb61f26	-0.0889266
15	0x3c135a28	0.008993663
16	0xbd5a171a	-0.053244688
17	0x3d079e10	0.033109725
18	0xbe43b3e4	-0.19111592
19	0x3c85c4a2	0.016329113
20	0xbcc25c76	-0.02372573
21	0x3c024f5b	0.00795349
22	0x3d4d2587	0.050084617
23	0x3c9d3d0f	0.019194154
24	0xbda4e6e2	-0.0805185
25	0xbdb1b35c	-0.08676788
26	0xbe4c9ec0	-0.19982433
27	0x3e43e3cb	0.19129865
28	0xbddbdaf6	-0.10735123
29	0xbda1170b	-0.07865723
30	0xbd2b0d62	-0.04176081
31	0xbe8cc2fb	-0.27492508
32	0xbf561cde	-0.836378
33	0xbeca22db	-0.39479718
34	0xbdeba8b8	-0.1150679
35	0x3e8340a5	0.25635257
36	0x3e0b55b1	0.13606907
37	0xbe91a0c1	-0.28442958
38	0xbea5eb97	-0.32406303
39	0xbed210a3	-0.41028318
40	0x3e776709	0.24160399
41	0x3e0190b4	0.12652856
42	0x3ebb2d03	0.3655778
43	0xbed7daf6	-0.4215924
44	0xbf454dca	-0.7707182
45	0xbecd7f4b	-0.4013618
46	0xbf079c19	-0.5297256
47	0xbe671b9d	-0.22569127
48	0xbebd8d0e	-0.3702168
49	0xbe68663e	-0.22695252
50	0x3d82d2f2	0.06387891
51	0xbea6f095	-0.32605425
52	0xbedbaed3	-0.42906818
53	0x3d35d348	0.044390947
54	0xbc538e6b	-0.012912373
55	0xbd9f2233	-0.07770195
56	0xbee3232a	-0.44362766
57	0xbed9dc51	-0.425509
58	0xbef24cec	-0.47324312
59	0xbec2811f	-0.37989137
60	0xbe697a38	-0.22800529
61	0xbf1d7bfd	-0.61517316
62	0x3d3009d8	0.042978138
63	0xbe8b1e28	-0.27171445
64	0xbd30b274	-0.043138936
65	0xbda70362	-0.08154942
66	0x3d9e09e6	0.07716732
67	0xbd1a3189	-0.037644897
68	0x3e10ac15	0.14128144
69	0x3e0228a7	0.1271082
70	0xbccb828d	-0.024842525
71	0x3e615317	0.22004353
72	0xbdef9cb9	-0.11699814
73	0xbe483322	-0.19550756
74	0x3de77438	0.11301464
75	0x3d86657e	0.06562327
76	0xbd42ddaf	-0.047574695
77	0xbe6d1660	-0.23153067
78	0x3e4bacdb	0.19890158
79	0xbc00b3a6	-0.0078553315
80	0x3dfb1087	0.12259012
81	0x3c103270	0.008801088
82	0xbe926b17	-0.28597328
83	0x3d073f0b	0.033019107
84	0x3dc89649	0.097942896
85	0xbd5b0c66	-0.05347862
86	0x3de8e6e7	0.11372166
87	0x3dfcc30c	0.1234189
88	0xbdea5a60	-0.11443019
89	0xbe476a6b	-0.19474189
90	0x3be6073a	0.0070199044
91	0x3dc09ac3	0.094045185
92	0xbdc4b06c	-0.09603962
93	0xbe66abee	-0.22526523
94	0xbd2b8cfa	-0.041882493
95	0x3d2f6e85	0.04283001

recurrent.rnn.bias_hh_l1 f4 [96]
0	0xbe1559d7	-0.14585052
1	0xbe6ce17e	-0.23132893
2	0x3d655f53	0.05599911
3	0xbe15d48c	-0.14631861
4	0xbd1c76e7	-0.03819933
5	0xbe6202fe	-0.22071454
6	0xbd478a8e	-0.04871612
7	0xbdd617a2	-0.10453726
8	0x3d3ce380	0.0461154
9	0xbdec3f90	-0.11535561
10	0xbe7432b9	-0.23847474
11	0xbe2d4116	-0.1691936
12	0x3d6cccc6	0.057812475
13	0xbe2a0dca	-0.16606823
14	0x3d96b576	0.0735883
15	0xbdb7a211	-0.089664586
16	0x3caa0af8	0.020757183
17	0x3d4cd205	0.050004978
18	0xbe07fd2a	-0.13280168
19	0xbd2adaf8	-0.04171273
20	0xbe8b9f92	-0.2727018
21	0xbe2d175e	-0.16903445
22	0xbce219a0	-0.02760011
23	0xbdadc08b	-0.0848399
24	0xbdeaef79	-0.11471457
25	0x3ce1fe8d	0.0275872
26	0x3d5de90e	0.054177336
27	0xbd3b4f53	-0.045729946
28	0x3d7452a4	0.059649125
29	0x3d0702fc	0.03296183
30	0xbe0ed212	-0.13947323
31	0xbea03eb3	-0.31297836
32	0xbf5098f2	-0.81483376
33	0xbe5d7841	-0.21627904
34	0xbe06cf7f	-0.13165091
35	0x3ec38b96	0.38192433
36	0xbdb36757	-0.08759945
37	0xbe3a3504	-0.18184286
38	0xbe0cd68e	-0.13753721
39	0xbe175da6	-0.14781818
40	0x3e9f5427	0.3111889
41	0x3cd1bf3b	0.025603881
42	0x3dbac0c4	0.091187984
43	0xbea8d4a1	-0.32974723
44	0xbf16ea53	-0.589513
45	0xbe7fac42	-0.24968055
46	0xbecebb2e	-0.40377182
47	0xbe6ef70d	-0.2333643
48	0xbe0801c5	-0.13281925
49	0xbe95b3df	-0.29238793
50	0xbe7baa2e	-0.24576637
51	0xbe9c5e16	-0.30540532
52	0xbe8c68b8	-0.27423644
53	0xbe7c7735	-0.24654849
54	0xbc232096	-0.0099565
55	0xbe561bd1	-0.20909049
56	0xbf1e9982	-0.61952984
57	0xbf02ef0b	-0.51146
58	0xbf0f7fb1	-0.56054217
59	0xbe707aeb	-0.2348439
60	0x3c40efad	0.011775893
61	0xbf44ccc9	-0.7687498
62	0xbdf18e3e	-0.11794709
63	0xbe601f03	-0.2188683
64	0xbdd2f146	-0.102999255
65	0x3c8d82a9	0.017274218
66	0x3e5162d3	0.20447855
67	0xbdd1c12b	-0.10241922
68	0xbe01b3c9	-0.12666239
69	0x3d10d7d8	0.035362095
70	0x3e38f206	0.18061075
71	0x3e55dbd6	0.20884642
72	0xbce26bda	-0.027639318
73	0x3d510d78	0.051038235
74	0xbe18e347	-0.1493045
75	0x3d886e6f	0.066616885
76	0xbdbd5498	-0.092446506
77	0x3d9e993e	0.077440724
78	0x3e836d76	0.2566945
79	0xbdc9e1f3	-0.098575495
80	0xbd15b4a3	-0.03654922
81	0x3dee96e4	0.11649874
82	0xbe813239	-0.2523363
83	0x3d8d65af	0.0690416
84	0x3c155673	0.009114849
85	0x3c1e236c	0.009652
86	0x3e209783	0.15682797
87	0x3d27a28c	0.0409265
88	0x3e10c6e4	0.14138371
89	0xbe853cee	-0.26023048
90	0x3cf7ff9b	0.03027325
91	0xbe799578	-0.24373424
92	0xbe31cfab	-0.17364375
93	0x3d536ae0	0.051615596
94	0xbe0f4a5a	-0.13993207
95	0xbe00ead7	-0.12589584

linear.weight f4 [1, 32]
0	0xbeb72e9b	-0.35777745
1	0xbe3c0c21	-0.18364002
2	0x3e8a6c15	0.27035585
3	0x3d1d4e1b	0.038404565
4	0xbe163177	-0.14667307
5	0xbe16665c	-0.14687485
6	0x3e9280f7	0.28614017
7	0x3e472db0	0.19451022
8	0x3cf95467	0.030435754
9	0xbe345d4f	-0.1761372
10	0x3e180cf0	0.14848685
11	0x3e3e23f2	0.185684
12	0x3e479f45	0.1949435
13	0xbeaa55ee	-0.33268684
14	0x3e917e8b	0.28416857
15	0x3e2d9d8e	0.16954634
16	0x3e64c3aa	0.22340265
17	0xbe8cbc04	-0.27487195
18	0x3ea65f2f	0.32494494
19	0x3e5bb376	0.21455178
20	0x3e91bd61	0.28464797
21	0xbe054b12	-0.13016918
22	0x3e5be8d2	0.21475533
23	0x3e0a088c	0.13479823
24	0x3e2d82d1	0.16944434
25	0xbec741c4	-0.38917363
26	0x3e6bec37	0.23039328
27	0xbe58117d	-0.21100421
28	0xbe8edc33	-0.27902374
29	0x3e766f26	0.24065837
30	0xbe9e8d08	-0.30966973
31	0xbea71808	-0.32635522
