GRU.pth (torch, 43200 bytes, 9 tensors)

recurrent.rnn.weight_ih_l0 f4 [96, 4]
-0.13784891 0.7900608 0.73506665 0.30624136 0.0051872656 0.82059205 0.7005834 0.4883226
-0.0788816 0.72166705 0.37806144 0.28561434 -0.00023181328 0.589725 0.58860433 0.07323202
0.11674801 0.38866007 0.31613386 0.2620957 0.044300117 0.792982 0.584694 0.17854956
-0.23872687 -0.80576426 -0.0798446 0.009859868 -0.080365926 0.0007923228 0.20482361 0.12949204
-0.10431643 0.4944989 -0.010998127 0.21020406 0.12780948 0.66984004 0.5129483 0.092050746
-0.05978901 0.23348844 0.20023642 0.114409916 -0.011876129 0.43305963 0.018212153 0.025701838
0.17630142 0.7156341 0.5720157 0.05744139 -0.059711523 0.69580084 0.45693186 0.23326693
0.12369781 0.6490344 0.66781324 0.36845595 0.1975501 0.9015384 0.6123424 0.18547773
0.119397774 0.8371467 0.2569241 0.09852863 0.14264475 0.65181917 0.54639375 0.35191634
0.013857561 -0.29652727 0.020558871 -0.019424764 0.026025876 0.27532744 0.5223946 0.299634
-0.02592917 0.3656241 0.033670515 0.15085915 0.07927955 0.7817454 0.29093498 0.20836797
0.090431586 0.79491985 0.6720342 0.43217048 0.07553732 0.6131391 0.18791713 0.49609894
0.0029444636 0.5649217 0.40381512 -0.09382027 0.01241354 1.0215656 0.41953248 0.3500457
0.1337171 0.07309363 -0.01949934 -0.13044998 -0.16969812 -0.53768146 -0.32979593 -0.082917325
-0.17549245 0.42040226 0.3774652 -0.0998249 0.08886345 0.35638905 0.1115258 0.26582664
-0.08855419 0.8740806 0.6688758 0.30903065 0.035876304 0.21482888 0.031264484 0.026931696
-0.028585805 0.067013115 -0.068663575 0.008516185 -0.11545015 -0.04886607 -0.053013388 -0.03457034
-0.027338471 0.004612731 0.0179765 -0.095508605 0.1316817 -0.053970687 -0.003351366 0.06621852
-0.10069346 0.110478215 0.12022278 0.059560902 0.015001946 -0.020192437 -0.03975821 0.046477478
-0.159395 0.073291644 0.19625114 0.052496426 -0.07643766 -0.087110355 -0.13284904 0.024480084
-0.14665194 0.08174746 -0.012832256 -0.15442699 0.12506042 0.0339728 -0.10971559 -0.1589018
0.03004253 -0.053556114 -0.007997409 0.055152647 0.07225501 -0.10083327 0.0059952936 0.08665151
-0.09869866 0.059307672 -0.04448068 0.15407756 -0.16256602 -0.022586657 0.11330534 -0.077418804
-0.1316258 0.27912363 0.02780231 -0.044729576 -0.23358814 -0.049448904 -0.24429315 -0.1496635
0.08167354 -0.029375931 0.010539274 -0.113193125 -0.018746672 0.027520232 -0.116419695 0.0661685
0.0441731 0.107036404 -0.05224179 -0.14473422 -0.09531936 0.044003487 0.09639015 -0.09558428
-0.009348511 -0.23278221 0.0038936683 0.08906732 0.080567494 0.029553223 0.019785898 -0.0074944966
0.07402623 -0.035576273 0.04698578 0.11530644 0.034266338 0.12576942 0.11494323 -0.08817679
0.10052135 -0.023633128 -0.026663346 -0.024560135 -0.18842019 0.26599246 -0.00057200063 0.04628235
0.09315125 0.055877384 0.023117576 -0.02572441 0.08134332 -0.049316328 0.08784365 -0.09483808
-0.073663004 -0.05530349 -0.10323431 -0.042045917 0.03602072 -0.008047937 0.020146102 -0.112880915
0.05995612 -0.2096568 -0.06778158 0.018342707 -0.14283656 0.07718978 0.055881526 -0.06267052
00000000: 4428 0dbe 6d41 4a3f 542d 3c3f abcb 9c3e
00000010: f0f9 a93b 5212 523f 6f59 333f 6b05 fa3e
00000020: ad8c a1bd 2cbf 383f 4591 c13e 0b3c 923e
00000030: e712 73b9 38f8 163f c6ae 163f abfa 953d
00000040: 9519 ef3d 74fe c63e 4cdc a13e 6831 863e
00000050: 0a74 353d de00 4b3f 82ae 153f b2d5 363e
00000060: d174 74be 9146 4ebf 9185 a3bd 498b 213c
00000070: e496 a4bd e2b3 4f3a 48bd 513e 9099 043e
00000080: daa3 d5bd f62e fd3e 7d31 34bc bc3f 573e
00000090: 7de0 023e a37a 2b3f 9450 033f 1a85 bc3d
000000a0: 52e5 74bd 9817 6f3e c70a 4d3e bf4f ea3d
000000b0: 1894 42bc feb9 dd3e a731 953c a98c d23c
000000c0: 5c88 343e cc33 373f 9f6f 123f aa47 6b3d
000000d0: 1294 74bd 0120 323f f9f2 e93e 87dd 6e3e
000000e0: 4755 fd3d 1e27 263f cff5 2a3f 42a6 bc3e
000000f0: 934a 4a3e 38cb 663f 79c2 1c3f e0ed 3d3e
00000100: d286 f43d 3f4f 563f 8e8b 833e 61c9 c93d
00000110: 7711 123e 9fdd 263f 76e0 0b3f 612e b43e
00000120: d30a 633c 6cd2 97be 146b a83c af20 9fbc
00000130: 3834 d53c b8f7 8c3e a7bb 053f a169 993e
00000140: 6969 d4bc 1533 bb3e 18ea 093d d27a 1a3e
00000150: 515d a23d 7720 483f 6ef5 943e 6a5e 553e
00000160: 3234 b93d de7f 4b3f 6f0a 2c3f 7345 dd3e
00000170: 4fb3 9a3d aff6 1c3f 596d 403e ae00 fe3e
00000180: e7f7 403b b59e 103f dbc0 ce3e d724 c0bd
00000190: 2962 4b3c a9c2 823f f6cc d63e 3139 b33e
000001a0: 23ed 083e 1db2 953d 14bd 9fbc ae94 05be
000001b0: 58c5 2dbe 7ea5 09bf 03db a8be 8fd0 a9bd
000001c0: 4bb4 33be f73e d73e 1e43 c13e ff70 ccbd
000001d0: 0afe b53d a078 b63e a367 e43d 6e1a 883e
000001e0: e65b b5bd bfc3 5f3f 723b 2b3f 4439 9e3e
000001f0: 08f3 123d 1afc 5b3e 300f 003d dc9f dc3c
00000200: c72c eabc 2c3e 893d 7d9f 8cbd 7887 0b3c
00000210: 2171 ecbd ca27 48bd 9124 59bd a199 0dbd
00000220: eef4 dfbc 6426 973b 7443 933c 049a c3bd
00000230: 91d7 063e 5e10 5dbd 97a2 5bbb 939d 873d
00000240: 5f38 cebd 6742 e23d 5c37 f63d 22f6 733d
00000250: b9ca 753c 9c6a a5bc 81d9 22bd 2b5f 3e3d
00000260: 7138 23be ee19 963d 0ff6 483e 7e06 573d
00000270: 598b 9cbd ea66 b2bd 9409 08be 758a c83c
00000280: ed2b 16be 366b a73d 623e 52bc 1c22 1ebe
00000290: d70f 003e 1027 0b3d 91b2 e0bd 27b7 22be
000002a0: c01b f63c a85d 5bbd 9107 03bc bee7 613d
000002b0: 6ffa 933d ac81 cebd 2b74 c43b 5976 b13d
000002c0: 8622 cabd 9aec 723d 6031 36bd 82c6 1d3e
000002d0: b577 26be a707 b9bc a10c e83d c08d 9ebd
000002e0: eac8 06be 4be9 8e3e acc1 e33c 5c36 37bd
000002f0: bb31 6fbe ef8a 4abd fc27 7abe 6341 19be
00000300: 7544 a73d cba5 f0bc ebac 2c3c ccd1 e7bd
00000310: 9f92 99bc 1c72 e13c 736d eebd 5a83 873d
00000320: daee 343d e735 db3d 7dfb 55bd 3535 14be
00000330: cc36 c3bd 003d 343d 3368 c53d b1c1 c3bd
00000340: 7f2a 19bc 765e 6ebe ea2c 7f3b ed68 b63d
00000350: 9200 a53d 9a19 f23c 0916 a23c 6594 f5bb
00000360: 109b 973d 6db8 11bd 2974 403d c825 ec3d
00000370: dc5a 0c3d b3c9 003e 5b67 eb3d 0896 b4bd
00000380: 23de cd3d 439a c1bc 176d dabc 5632 c9bc
00000390: 39f1 40be 2a30 883e 50f2 15ba 9092 3d3d
000003a0: 15c6 be3d afdf 643d 1261 bd3c ffbb d2bc
000003b0: 5497 a63d ebff 49bd 5fe7 b33d 783a c2bd
000003c0: a1dc 96bd ea85 62bd 836c d3bd 5738 2cbd
000003d0: 768a 133d 7fdb 03bc 7009 a53c 1c2e e7bd
000003e0: 8c94 753d 46b0 56be 12d1 8abd 7243 963c
000003f0: bf43 12be ad15 9e3d 07e4 643d 6759 80bd

recurrent.rnn.weight_hh_l0 f4 [96, 32]
-0.006110207 0.14949779 0.06873283 0.15090677 0.002150476 0.07017334 0.04604721 -0.040882524
0.043201033 -0.15509269 -0.09587221 -0.05806029 0.18879467 0.10424333 -0.22469524 0.017367816
-0.1482878 0.18286225 -0.06369879 0.08286486 0.019128794 -0.016944634 -0.08346499 -0.09488332
0.09584998 -0.14333619 -0.04649593 0.043876432 0.1264554 0.0075204195 -0.081671126 -0.13557307
-0.070325464 -0.15070191 -0.08305511 -0.043294076 0.07648698 0.03988411 0.0127282785 0.028292347
0.11062589 0.060321193 0.061928112 0.0042079333 0.07141312 0.114223115 0.034673754 -0.03600785
0.032310467 0.068972185 -0.20206642 -0.22431204 -0.036064096 -0.11264542 0.11832659 -0.17934242
-0.00045595889 -0.11489236 -0.120565034 -0.03274165 -0.11584606 0.06453892 0.24214035 -0.018569266
0.16834801 -0.13728234 0.008486209 -0.10441656 0.09451548 -0.06839404 -0.062011663 0.21065402
-0.09258049 -0.11496637 0.116451606 0.17169483 -0.108678676 0.10618558 -0.12076437 -0.18689099
-0.1233443 0.2219892 -0.07283444 -0.031089287 -0.09677055 0.044257957 0.016044898 -0.21873428
0.18506275 -0.108516574 -0.09672887 0.09208717 0.15971403 -0.041243233 0.029570833 0.07686305
0.15758164 -0.11378456 0.047744654 0.07008314 -0.15475565 -0.097259715 0.16962114 0.086134814
-0.13740486 0.03735613 0.11153671 -0.036795963 0.08630827 -0.1829876 0.014528193 0.092532486
-0.036101308 -0.0764793 0.070452 0.09174322 -0.068984345 0.058112893 -0.05506759 0.13492982
-0.07906179 -0.21252254 0.026437804 0.023364894 -0.15793031 0.08897005 -0.1120945 0.08609865
-0.049664676 0.15205252 0.069974944 -0.0069610705 -0.14282745 0.07482479 -0.13239713 0.06599281
-0.039874524 -0.015071083 0.01665246 -0.036827344 0.1481417 -0.09005052 -0.18771459 -0.19565998
-0.0011613339 -0.14863527 0.085916616 -0.10577542 0.0077527356 -0.124108426 0.11649456 0.16810916
-0.13998911 -0.16236852 -0.03241608 -0.06794041 0.07682132 -0.00069602294 -0.00781369 -0.08560545
-0.0039198217 -0.14680971 -0.088448964 0.029839328 -0.122056685 -0.15460181 -0.16254504 -0.04601211
0.11466316 0.0685798 -0.02947325 -0.15035775 -0.16296004 -0.11371109 0.101929456 0.005948815
-0.09425591 -0.13831188 0.13667233 -0.08865824 0.038360056 -0.05196334 0.13904183 0.1561465
0.009665546 -0.016983481 -0.03449314 -0.006724684 -0.04997084 -0.06637855 -0.017752102 -0.14040339
0.097857736 0.31132498 -0.29023746 -0.3781597 -0.3250823 0.19590628 -0.14570148 -0.1001175
-0.34415898 0.23635231 -0.029784836 -0.24668987 -0.12406577 -0.1987945 0.00010397975 0.1440929
0.10791435 -0.17996143 0.071142375 0.09348639 0.3509057 0.17882043 -0.27709255 0.060551874
-0.20340136 -0.1520164 0.2744426 0.18046577 0.009587901 0.065737315 -0.31250638 -0.12285609
-0.025434226 0.041492354 0.16407698 -0.15348044 -0.08090624 -0.13357085 -0.012733901 -0.0545911
-0.0001751265 -0.07655823 0.024667224 -0.07199731 0.20413682 -0.03192163 0.1290021 0.08699481
0.16537853 -0.0030793077 0.024490807 -0.100497365 0.108612455 0.12652534 -0.15423566 0.04217971
0.13564196 0.054428987 0.006898635 0.0965036 -0.13348843 0.14623353 -0.003266697 0.028722908
00000000: 2238 c8bb f315 193e ccc3 8c3d 4e87 1a3e
00000010: 00ef 0c3b 0ab7 8f3d 009c 3c3d 6f74 27bd
00000020: 91f3 303d 9ed0 1ebe a658 c4bd a0d0 6dbd
00000030: 6453 413e 877d d53d 8216 66be f346 8e3c
00000040: c2d8 17be 3e40 3b3e 8374 82bd 0db5 a93d
00000050: fdb3 9c3c 79cf 8abc b1ef aabd 3052 c2bd
00000060: ff4c c43d b9c6 12be 8472 3ebd c6b7 333d
00000070: 867d 013e da6d f63b 3143 a7bd abd3 0abe
00000080: cc06 90bd 9a51 1abe cc18 aabd 2155 31bd
00000090: 35a5 9c3d 855d 233d 458a 503c 5ac5 e73c
000000a0: d48f e23d 5b13 773d 55a8 7d3d b4e2 893b
000000b0: 0b41 923d cfed e93d 1106 0e3d f87c 13bd
000000c0: fb57 043d 4a41 8d3d 80ea 4ebe 0eb2 65be
000000d0: f2b7 13bd a4b2 e6bd 3655 f23d 8aa5 37be
000000e0: c40d efb9 b04c ebbd cdea f6bd 1c1c 06bd
000000f0: b340 edbd fb2c 843d a4f3 773e 931e 98bc
00000100: 6c63 2c3e be93 0cbe be09 0b3c 59d8 d5bd
00000110: 5591 c13d 2d12 8cbd f1ff 7dbd b0b5 573e
00000120: d79a bdbd 7d73 ebbd 2e7e ee3d c5d0 2f3e
00000130: ed92 debd d377 d93d 4f53 f7bd 5a60 3fbe
00000140: f09b fcbd 2351 633e 392a 95bd f6ae febc
00000150: a32f c6bd d547 353d 9770 833c e1fb 5fbe
00000160: 1781 3d3e f03d debd c919 c6bd 3398 bc3d
00000170: 138c 233e aaee 28bd 883e f23c 606a 9d3d
00000180: 155d 213e e107 e9bd e68f 433d c087 8f3d
00000190: 4478 1ebe 1a30 c7bd 2ab1 2d3e 7367 b03d
000001a0: dcb3 0cbe be02 193d 5c6d e43d 5db7 16bd
000001b0: 64c2 b03d 1a61 3bbe a807 6e3c ac81 bd3d
000001c0: f7de 13bd 2ea1 9cbd 2349 903d dfe3 bb3d
000001d0: aa47 8dbd c907 6e3d 8e8e 61bd 0b2b 0a3e
000001e0: 26eb a1bd 829f 59be 1894 d83c bc67 bf3c
000001f0: 7cb8 21be ee35 b63d cd91 e5bd 7d54 b03d
00000200: 306d 4bbd a8b3 1b3e 064f 8f3d b119 e4bb
00000210: 5c41 12be bd3d 993d 1d93 07be 3d27 873d
00000220: 7853 23bd b4ec 76bc bd6a 883c 45d8 16bd
00000230: 75b2 173e 686c b8bd 4138 40be 175b 48be
00000240: e637 98ba d833 18be 0df5 af3d c9a0 d8bd
00000250: a90a fe3b 8f2c febd b394 ee3d cf24 2c3e
00000260: 4e59 0fbe ef43 26be b9c6 04bd 5724 8bbd
00000270: 7f54 9d3d 4f75 36ba fe04 00bc e951 afbd
00000280: d971 80bb 4955 16be bb24 b5bd 9b71 f43c
00000290: dbf8 f9bd f04f 1ebe 3572 26be 3277 3cbd
000002a0: 85d4 ea3d 9173 8c3d e371 f1bc 62f7 19be
000002b0: ffde 26be 5ce1 e8bd 64c0 d03d 47ee c23b
000002c0: 3e09 c1bd a1a1 0dbe d5f3 0b3e 7492 b5bd
000002d0: 6f1f 1d3d 83d7 54bd fb60 0e3e dee4 1f3e
000002e0: 3d5c 1e3c f120 8bbc ae48 0dbd bd5a dcbb
000002f0: 39ae 4cbd 7af1 87bd db6c 91bc e8c5 0fbe
00000300: a369 c83d fd65 9f3e 019a 94be 269e c1be
00000310: 3071 a6be a89b 483e c532 15be 670a cdbd
00000320: 9b35 b0be 5706 723e 54ff f3bc 459c 7cbe
00000330: 3216 febd c990 4bbe b40f da38 178d 133e
00000340: 3302 dd3d cf47 38be 18b3 913d cb75 bf3d
00000350: e9a9 b33e b41c 373e 13df 8dbe 3e05 783d
00000360: 7248 50be 30aa 1bbe be83 8c3e 05cc 383e
00000370: 9216 1d3c 49a1 863d d600 a0be f99b fbbd
00000380: 705b d0bc e3f3 293d cc03 283e fa29 1dbe
00000390: 2cb2 a5bd ccc6 08be daa1 50bc eb9a 5fbd
000003a0: 29a2 37b9 90ca 9cbd eb12 ca3c 5373 93bd
000003b0: 3e09 513e 41c0 02bd 2019 043e 562a b23d
000003c0: fd58 293e 36ce 49bb f2a0 c83c 90d1 cdbd
000003d0: 3570 de3d dc8f 013e f4ef 1dbe a2c4 2c3d
000003e0: bae5 0a3e eef0 5e3d f20d e23b aea3 c53d
000003f0: 31b1 08be 3ebe 153e 1516 56bb 4e4c eb3c

recurrent.rnn.bias_ih_l0 f4 [96]
0.017398862 -0.019582836 -0.11350986 0.011338016 0.09245915 -0.105841 0.0761583 0.105042994
0.12571308 0.15059024 0.021778708 -0.09175463 -0.12516114 -0.16502585 0.12763977 -0.05102158
0.13380042 -0.06448849 0.13186187 0.16668129 -0.13486196 -0.15688913 -0.07801056 0.09407711
-0.12710282 -0.12945081 -0.1346334 0.096537165 0.02807054 0.0535425 -0.047806975 -0.2024182
-0.04883098 -0.054414198 -0.010480526 -0.10980601 -0.03657245 -0.19059601 -0.028633755 -0.01681146
-0.20538262 -0.25555146 -0.0035784962 0.08389591 -0.06956219 -0.027436856 -0.32044232 -0.075588584
-0.048776593 -0.27737528 -0.24970134 -0.12353669 0.033868894 -0.24062297 -0.06631874 -0.15054713
-0.06869493 -0.12804942 -0.040189162 0.083368026 -0.06493054 -0.0749186 -0.20987591 -0.1281785
-0.09454843 -0.17090578 -0.014230995 0.07490745 0.06569385 -0.11668444 -0.035203755 -0.079661205
0.052625347 0.028913964 -0.10983872 0.01884074 0.04028517 -0.04319276 -0.11063211 -0.0378993
-0.16854236 -0.16428871 0.06806846 -0.1181349 -0.059786912 -0.16801453 0.100516394 0.13388878
0.19433342 -0.13776211 6.0207167e-05 0.18528795 -0.22129452 0.07163302 -0.15881489 0.077219255
00000000: 0f88 8e3c 2f6c a0bc dc77 e8bd 16c3 393c
00000010: 395b bd3d 2bc3 d8bd e2f8 9b3d c820 d73d
00000020: eeba 003e 5434 1a3e 4369 b23c dae9 bbbd
00000030: 3e2a 00be 89fc 28be 00b4 023e 01fc 50bd
00000040: fa02 093e 8b12 84bd cc06 073e 80ae 2a3e
00000050: 4119 0abe 8ba7 20be 00c4 9fbd 80ab c03d
00000060: 3e27 02be c18e 04be 57dd 09be 47b5 c53d
00000070: 30f4 e53c 614f 5b3d 3fd1 43bd b746 4fbe
00000080: fe02 48bd 6ce1 5ebd 83b6 2bbc f9e1 e0bd
00000090: fecc 15bd 9a2b 43be 5691 eabc 30b8 89bc
000000a0: d24f 52be a4d7 82be 3485 6abb 9ed1 ab3d
000000b0: 9f76 8ebd 42c3 e0bc 0411 a4be 30ce 9abd
000000c0: f7c9 47bd 2204 8ebe b5b1 7fbe ce00 fdbd
000000d0: 1cba 0a3d de65 76be 1fd2 87bd 0729 1abe
000000e0: edaf 8cbd 631f 03be 649d 24bd dbbc aa3d
000000f0: 4efa 84bd ec6e 99bd b6e9 56be 3a41 03be
00000100: 9ba2 c1bd ed01 2fbe 1f29 69bc 1469 993d
00000110: 7f8a 863d 40f8 eebd d031 10bd 6a25 a3bd
00000120: ad8d 573d fadc ec3c 1ff3 e0bd e557 9a3c
00000130: 1002 253d e4ea 30bd 1693 e2bd 4c3c 1bbd
00000140: 5e96 2cbe 4d3b 28be 7a67 8b3d b6f0 f1bd
00000150: 1fe3 74bd 000c 2cbe 8adb cd3d 241a 093e
00000160: 57ff 463e 8311 0dbe f486 7c38 20bc 3d3e
00000170: 089b 62be 55b4 923d 5fa0 22be 2125 9e3d

recurrent.rnn.bias_hh_l0 f4 [96]
-0.15332884 0.021657363 -0.14597255 0.09283053 -0.0005006593 -0.057518445 0.1538948 0.13346407
-0.009983183 0.09558272 -0.14588803 0.015639232 0.07946713 -0.19604813 0.054777008 -0.04977922
0.064124174 0.05751332 -0.010382799 -0.040118273 0.12564433 0.08903188 0.050671533 0.2052829
-0.1334453 -0.13726597 -0.14776786 0.19047871 0.018652521 0.08287789 -0.121176034 -0.036283806
-0.18645637 -0.24594325 0.041568838 -0.22020367 -0.1874004 0.0069624125 0.044793863 -0.053157922
-0.20454319 0.012752135 -0.18496627 0.020803688 -0.0027204247 -0.19036002 -0.18647751 -0.10320335
0.013596641 -0.0979318 -0.093598254 0.10494441 0.050744087 -0.054877497 -0.12038216 -0.21595599
0.086876534 -0.054730996 0.025584904 -0.17215298 -0.20055696 -0.23705558 -0.03979177 -0.041854054
0.08500954 0.1494305 0.06910699 -0.03880336 -0.16771308 -0.021384066 -0.014166644 0.16872954
-0.08459899 0.02135987 -0.05978707 -0.18038622 -0.10456159 -0.009625766 0.002591084 -0.12324218
0.022252023 0.16935103 -0.17379183 -0.10433724 0.07865082 0.14227098 -0.1852897 0.11912006
0.08563312 -0.082207836 0.13357629 0.22263779 -0.14160977 -0.17743199 0.1281043 0.0002672033
00000000: 3c02 1dbe c86a b13c d479 15be ef1d be3d
00000010: ad3e 03ba 7698 6bbd 9996 1d3e ceaa 083e
00000020: 8190 23bc e0c0 c33d ac63 15be d91d 803c
00000030: aabf a23d d7c0 48be db5d 603d 4ce5 4bbd
00000040: 8953 833d 1693 6b3d 9e1c 2abc 0f53 24bd
00000050: e8a8 003e 5956 b63d f48c 4f3d ae35 523e
00000060: e2a5 08be 738f 0cbe 7550 17be da0c 433e
00000070: 2ccd 983c e2bb a93d 242b f8bd 549e 14bd
00000080: 6bee 3ebe 8cd8 7bbe 1644 2a3d 127d 61be
00000090: e4e5 3fbe f324 e43b c579 373d 1fbc 59bd
000000a0: c573 51be 55ee 503c cc67 3dbe 7f6c aa3c
000000b0: 2749 32bb bded 42be f6f3 3ebe 475c d3bd
000000c0: 72c4 5e3c 7890 c8bd 71b0 bfbd 18ed d63d
000000d0: 08d9 4f3d 3ac7 60bd ec8a f6bd 9123 5dbe
000000e0: 53ec b13d 9c2d 60bd 6f97 d13c df48 30be
000000f0: ce5e 4dbe b3be 72be b2fc 22bd 286f 2bbd
00000100: 7b19 ae3d 4f04 193e f787 8d3d 46f0 1ebd
00000110: fabc 2bbe a32d afbc 361b 68bc 70c7 2c3e
00000120: 3c42 adbd e5fa ae3c 49e3 74bd 2ab7 38be
00000130: 6324 d6bd 64b5 1dbc 2dcf 293b 6566 fcbd
00000140: e049 b63c 5b6a 2d3e 7cf6 31be c3ae d5bd
00000150: ae13 a13d 7caf 113e 95bc 3dbe 38f5 f33d
00000160: 6b60 af3d 955c a8bd 39c8 083e 29fb 633e
00000170: 2702 11be bbb0 35be c62d 033e 6b17 8c39

recurrent.rnn.weight_ih_l1 f4 [96, 32]
-0.09450513 0.16373625 -0.053692028 -0.2234425 0.0012159791 0.21789669 -0.015225816 -0.19023068
-0.22335136 0.012918997 0.07599423 0.040159803 -0.07755571 -0.014679866 -0.30501094 -0.040406067
-0.102726676 -0.007849779 -0.019793928 0.08356282 0.17172551 0.19015856 -0.16346255 -0.034049235
0.06869455 -0.20684852 0.090656675 0.06459616 -0.025719663 0.04351978 -0.16667801 -0.08295696
0.16440652 0.17340976 -0.07254134 -0.27520797 -0.16332304 0.19028065 -0.4101463 -0.21475357
-0.16830227 0.07787862 0.0570448 0.103130676 -0.11553852 -0.02105216 -0.1214903 -0.00439523
0.34539896 -0.19362347 -0.00827711 0.19175644 0.056485284 0.16525306 -0.20117001 0.12154403
-0.19392592 -0.13371368 0.06612026 0.07236849 -0.11131665 0.2617067 -0.041394193 -0.16816966
0.24682045 0.08489065 0.08075529 -0.09390364 0.03253847 0.115077406 -0.05733264 -0.21519685
-0.20746517 0.062629856 0.13678189 -0.18451066 -0.06088525 -0.21918833 -0.0830942 0.10626796
0.21323493 -0.09193538 0.06224396 -0.07079938 0.21676666 0.19881932 -0.017524222 0.07416377
-0.26154962 0.13054258 0.101838015 -0.16235518 0.13705501 -0.044204094 -0.047747537 -0.1899259
-0.07324832 -0.21045299 0.20381124 -0.048339028 -0.07308671 -0.07823934 -0.010024605 0.033646416
-0.0204708 -0.18344486 0.11975757 0.18405828 -0.10390066 -0.0511116 0.03729473 -0.134422
-0.059647266 0.042010784 -0.045758832 -0.017867757 -0.11024209 -0.17381886 0.21794105 0.0146146305
0.15861303 0.107472025 -0.18951526 0.0013874463 0.102068454 0.099346355 -0.052677784 0.17654917
-0.15953283 0.091778114 0.16250607 0.123599485 0.1180772 0.03944409 0.2200809 0.09453206
0.10418245 0.09173309 0.312388 0.052837938 0.035204813 0.08017748 0.019937297 -0.20864463
0.10463006 0.09444086 0.04353313 -0.080695756 -0.00481555 0.10745507 0.017134806 -0.08406542
0.08409413 -0.0032670377 -0.24693552 -0.28207928 0.005981277 0.048697572 0.20884542 -0.012016311
-0.13429783 -0.15424377 0.108309135 0.062370934 0.064919025 0.036615204 0.04068978 -0.12167312
-0.11264909 0.08455045 -0.26216432 -0.20396467 -0.1610812 -0.0005815655 -0.033196516 0.18609692
0.043294977 0.1221207 0.19655237 -0.061396554 0.080823325 0.14542131 0.021322973 0.045666397
-0.08414617 0.018927414 -0.023759525 0.10416484 -0.14958818 0.13550079 0.011993261 0.06773655
-0.026985692 -0.08151868 0.18257158 -0.04778448 -0.05502559 0.119977586 0.15242943 0.12214346
-0.016167695 -0.042813525 0.17918472 -0.0500377 0.17503035 -0.041900363 -0.118679546 -0.024082268
-0.10067413 0.1496165 -0.10709039 0.12560856 -0.00021799354 0.008949339 0.17916349 -0.25215715
0.009167485 -0.14351895 -0.22192213 -0.20278533 -0.010121945 -0.016689062 0.27897266 0.12273563
0.027989222 0.06160319 0.09469592 -0.32818234 -0.121123046 0.17179231 -0.082779065 0.010215869
-0.30511394 -0.0026192083 -0.07223926 0.08327545 -0.121553876 -0.20301045 -0.5206858 -0.058565315
0.38650998 0.029979942 -0.15656312 0.18841682 0.26212502 0.11419589 -0.2565688 0.1546995
-0.30572686 -0.020750027 0.2444509 -0.2044083 0.17797141 0.24251808 -0.11338111 -0.19626753
00000000: e88b c1bd 7aaa 273e 2cec 5bbd 1cce 64be
00000010: 7d61 9f3a 4f20 5f3e b375 79bc d5cb 42be
00000020: 38b6 64be 33aa 533c dda2 9b3d 9b7e 243d
00000030: 87d5 9ebd d283 70bc 652a 9cbe d580 25bd
00000040: 5d62 d2bd 5c9c 00bc e026 a2bc fc22 ab3d
00000050: d0d8 2f3e edb8 423e ba62 27be 3677 0bbd
00000060: baaf 8c3d 19d0 53be 35aa b93d fe4a 843d
00000070: 0bb2 d2bc cc41 323d a4ad 2abe 57e5 a9bd
00000080: 2f5a 283e 5492 313e 8e90 94bd 0fe8 8cbe
00000090: 283e 27be eed8 423e b2fe d1be 5ce8 5bbe
000000a0: 6e57 2cbe d37e 9f3d cfa7 693d 2d36 d33d
000000b0: 769f ecbd 9475 acbc e8cf f8bd dd05 90bb
000000c0: 22d8 b03e 3b45 46be b79c 07bc cd5b 443e
000000d0: 1d5d 673d 1938 293e 83ff 4dbe 14ec f83d
000000e0: 8494 46be 3dec 08be 0f6a 873d ee35 943d
000000f0: fcf9 e3bd 6cfe 853e f58c 29bd ab34 2cbe
00000100: 80be 7c3e 26db ad3d 0863 a53d 8d50 c0bd
00000110: 0f47 053d b4ad eb3d a1d5 6abd 905c 5cbe
00000120: c071 54be 1544 803d 8d10 0c3e 5df0 3cbe
00000130: d062 79bd e872 60be 4b2d aabd 04a3 d93d
00000140: 425a 5a3e 9e48 bcbd 86f3 7e3d 44ff 90bd
00000150: 14f8 5d3e 4b97 4b3e f58e 8fbc 2de3 973d
00000160: d5e9 85be f4ac 053e 7390 d03d 7040 26be
00000170: 2658 0c3e 5a0f 35bd ec92 43bd ef7b 42be
00000180: 3703 96bd fd80 57be e5b3 503e 25ff 45bd
00000190: 7cae 95bd f23b a0bd 3e3e 24bc d3d0 093d
000001a0: 61b2 a7bc f8d8 3bbe 7543 f53d c679 3c3e
000001b0: dfc9 d4bd 665a 51bd 5cc2 183d eca5 09be
000001c0: b150 74bd 8013 2c3d 9d6d 3bbd 675f 92bc
000001d0: 9bc6 e1bd 92fd 31be f02b 5f3e 3472 6f3c
000001e0: 746b 223e 4b1a dc3d 4a10 42be f9da b53a
000001f0: 4409 d13d 1a76 cb3d a9c4 57bd 4ec9 343e
00000200: 935c 23be 2af6 bb3d fe67 263e ba21 fd3d
00000210: 76d2 f13d 2090 213d e35c 613e 069a c13d
00000220: 9c5d d53d 8fde bb3d 52f1 9f3e 986c 583d
00000230: ec32 103d 1734 a43d 8b53 a33c f0a6 55be
00000240: 4948 d63d 366a c13d cc4f 323d d143 a5bd
00000250: c3cb 9dbb 6711 dc3d 4b5e 8c3c 7e2a acbd
00000260: 8b39 ac3d cc1b 56bb aadc 7cbe b26c 90be
00000270: 97fe c33b 1b77 473d 93db 553e 10e0 44bc
00000280: 5f85 09be 14f2 1dbe 2ed1 dd3d aa78 7f3d
00000290: 44f4 843d d3f9 153d 54aa 263d c22f f9bd
000002a0: 91b4 e6bd c928 ad3d 673a 86be 1ddc 50be
000002b0: 78f2 24be 3374 18ba 12f9 07bd 3190 3e3e
000002c0: 1356 313d 6b1a fa3d 0645 493e f47a 7bbd
000002d0: b386 a53d 53e9 143e 84ad ae3c b00c 3b3d
000002e0: d454 acbd aa0d 9b3c 56a3 c2bc 6054 d53d
000002f0: a52d 19be b8c0 0a3e 627f 443c 76b9 8a3d
00000300: 1911 ddbc 44f3 a6bd 0bf4 3a3e a9b9 43bd
00000310: 8362 61bd cfb6 f53d 7616 1c3e 5a26 fa3d
00000320: 1d72 84bc 3c5d 2fbd 337c 373e 55f4 4cbd
00000330: 283b 333e b79f 2bbd 430e f3bd 2d48 c5bc
00000340: 3d2e cebd 1135 193e 3552 dbbd 889f 003e
00000350: 3295 64b9 40a0 123c a276 373e be1a 81be
00000360: 3833 163c a2f6 12be 8e3f 63be f5a6 4fbe
00000370: 84d6 25bc 80b7 88bc 81d5 8e3e d15c fb3d
00000380: a749 e53c a053 7c3d efef c13d 8407 a8be
00000390: 5c0f f8bd 53ea 2f3e 1288 a9bd 7660 273c
000003a0: e537 9cbe 06a7 2bbb 2df2 93bd 528c aa3d
000003b0: 3df1 f8bd f9e1 4fbe aa4b 05bf 2fe2 6fbd
000003c0: a3e4 c53e 7f98 f53c 1552 20be 57f0 403e
000003d0: 4035 863e 89df e93d fc5c 83be 8c69 1e3e
000003e0: 3b88 9cbe f6fb a9bc 5651 7a3e 6950 51be
000003f0: 233e 363e a956 783e 5b34 e8bd 5bfa 48be

recurrent.rnn.weight_hh_l1 f4 [96, 32]
-0.07130978 -0.101962514 0.119835995 0.033412337 -0.027405744 0.1402198 -0.14820394 -0.049549684
-0.050057713 -0.18942021 0.16059548 -0.111623034 0.0024832115 -0.19509943 0.1776355 0.11139069
-0.021673864 -0.117689885 0.031233812 0.02563702 -0.18246676 -0.036067694 0.20469686 0.05888955
-0.11742122 0.13658346 -0.16358012 0.118133955 0.121533446 -0.0141356755 -0.022302395 -0.055605143
-0.018159613 0.03840417 -0.09511847 -0.037300132 -0.048603173 -0.031546585 -0.33385453 0.21934193
-0.32847017 0.06866569 0.0969885 0.148358 0.061516456 -0.07645786 0.16030197 -0.08205685
0.1652327 -0.20333633 -0.062490262 0.051839925 0.045670923 -0.09508221 0.111815326 0.1442337
0.0822946 0.17621066 0.0073540932 -0.13095765 -0.110752024 0.0056336084 0.011296844 0.014126212
0.13634732 0.10715754 0.012908571 0.05373125 -0.20141125 0.0715574 -0.06627358 0.06533628
-0.34017643 -0.07394518 -0.08593537 0.12044392 -0.11451914 -0.00769005 -0.0016883239 0.1732664
-0.1720946 0.020351382 -0.15678245 -0.037039306 -0.042005748 0.16591495 -0.08361551 0.2280369
0.019521682 -0.08716857 -0.07720197 0.08896012 -0.11475979 -0.054412447 0.039612275 -0.12658066
-0.205588 -0.2159663 -0.07944629 0.08269368 0.16999702 0.18230101 -0.08096659 -0.10447533
0.18658216 -0.00084570044 -0.23651004 -0.1289707 -0.04155336 0.040713616 -0.0058754277 -0.14002089
0.09286475 -0.06968799 -0.07448857 -0.024161471 0.16164622 -0.009994481 0.049467225 0.025815269
0.09495971 0.18403383 0.11533792 0.05289101 -0.24004757 0.18171987 0.21618456 -0.011464398
-0.035844266 -0.20269914 0.021397136 -0.09723865 -0.11707328 0.06608523 0.16313821 0.16746052
-0.11456038 -0.112171926 0.119759694 0.08835127 0.099356875 0.11316591 -0.0644592 -0.02801966
0.27581212 -0.08690789 -0.025663879 0.0007256761 -0.028631926 -0.003921186 0.0023145208 0.12073919
0.061378304 0.21971512 -0.085286066 -0.11554413 -0.024866017 0.056076143 -0.031064702 0.15127276
-0.05694954 -0.24232946 -0.16946614 0.022162516 -0.035920244 -0.057762645 0.1686598 -0.086138844
0.11121194 0.07878222 0.051808916 -0.061951265 0.0028898881 -0.1267719 0.042450573 -0.11231569
0.095433496 0.17316134 0.05971598 -0.060308997 0.030272467 -0.06992285 -0.121700004 -0.22021054
-0.19443356 -0.14668578 0.038853135 0.1490715 -0.102800235 0.090588935 -0.07694217 0.021075182
0.21396986 -0.17181973 -0.22392565 0.15302972 0.14850496 0.03057857 -0.053101704 0.12551665
0.08442654 0.06764743 0.00027235888 -0.14496203 -0.0908133 -0.034730792 0.031446207 -0.0939327
0.21715584 -0.09000252 -0.10836591 -0.019282496 0.16373271 -0.08434256 -0.16710307 -0.06456122
0.12395109 -0.083768845 0.07490467 -0.034762546 0.045556277 -0.008506331 0.0032355683 0.022364851
-0.0714185 0.21000813 -0.15571351 -0.044259466 -0.048961226 0.12087809 -0.39323404 0.15070134
-0.11510992 0.047250923 0.04434774 0.055256087 0.05982984 0.042733822 0.28225607 0.08966406
0.20226443 0.11375343 0.047806256 -0.00556584 0.08129623 -0.011751635 0.073690064 0.3701745
-0.08087211 0.18709177 0.02687992 -0.074115776 -0.17866816 0.059674557 -0.05919248 0.06524765
00000000: dd0a 92bd b9d1 d0bd 936c f53d 60db 083d
00000010: 0382 e0bc c795 0f3e c6c2 17be 9cf4 4abd
00000020: 5109 4dbd 5ff7 41be 2473 243e 9e9a e4bd
00000030: 60bd 223b 25c8 47be 15e6 353e cd20 e43d
00000040: 638d b1bc 6507 f1bd 0dde ff3c ba04 d23c
00000050: 91d8 3abe b8bb 13bd 0e9c 513e 2b36 713d
00000060: 897a f0bd 89dc 0b3e 8c81 27be 37f0 f13d
00000070: 87e6 f83d 5299 67bc 83b3 b6bc 38c2 63bd
00000080: 78c3 94bc b14d 1d3d 79cd c2bd 06c8 18bd
00000090: 1f14 47bd fe36 01bd fbee aabe 2c9b 603e
000000a0: 3e2d a8be 99a0 8c3d e8a1 c63d 29eb 173e
000000b0: aef8 7b3d f095 9cbd 3326 243e 6c0d a8bd
000000c0: c332 293e 6637 50be caf5 7fbd 1a56 543d
000000d0: 6f11 3b3d 76ba c2bd 6fff e43d 00b2 133e
000000e0: 128a a83d 9170 343e 9bfa f03b c319 06be
000000f0: f5d1 e2bd 229a b83b 6616 393c a171 673c
00000100: a29e 0b3e 6a75 db3d 797e 533c 4d15 5c3d
00000110: c03e 4ebe b08c 923d 71ba 87bd 07cf 853d
00000120: 9b2b aebe 9270 97bd e2fe afbd 4dab f63d
00000130: 0389 eabd d1fc fbbb c04a ddba bf6c 313e
00000140: 9139 30be f1b7 a63c 948b 20be 87b6 17bd
00000150: 380e 2cbd 9ce5 293e 9c3e abbd 8182 693e
00000160: efeb 9f3c 6f85 b2bd 111c 9ebd b930 b63d
00000170: 2e07 ebbd 96df 5ebd 7b40 223d 5c9e 01be
00000180: a985 52be 4526 5dbe bdb4 a2bd 4e5b a93d
00000190: b313 2e3e 1ead 3a3e d0d1 a5bd 29f7 d5bd
000001a0: 650f 3f3e ffb1 5dba b02f 72be e510 04be
000001b0: db33 2abd 52c3 263d a986 c0bb a361 0fbe
000001c0: e02f be3d 94b8 8ebd 778d 98bd 47ee c5bc
000001d0: 9686 253e e4bf 23bc 259e 4a3d 8b7a d33c
000001e0: 3d7a c23d 5d73 3c3e 4a36 ec3d 3ea4 583d
000001f0: 08cf 75be c614 3a3e 7c5f 5d3e 2cd5 3bbc
00000200: 70d1 12bd 5d90 4fbe 0c49 af3c 0f25 c7bd
00000210: 1ec4 efbd b157 873d b40d 273e c57a 2b3e
00000220: a29e eabd 65ba e5bd 9244 f53d 83f1 b43d
00000230: 9e7b cb3d 87c3 e73d 2f03 84bd 7c89 e5bc
00000240: 3f37 8d3e c4fc b1bd 0e3d d2bc 4c3b 3e3a
00000250: 808d eabc 4b7d 80bb 37af 173b 1c46 f73d
00000260: d167 7b3d 00fd 603e 76aa aebd 67a2 ecbd
00000270: d1b3 cbbc 19b0 653d 677b febc 3fe7 1a3e
00000280: ec43 69bd 3725 78be 8888 2dbe 2a8e b53c
00000290: 1b21 13bd 8698 6cbd 28b5 2c3e 9069 b0bd
000002a0: 16c3 e33d 9358 a13d 9635 543d 9cc0 7dbd
000002b0: 4764 3d3b 7ed0 01be a7e0 2d3d c505 e6bd
000002c0: a372 c33d 3551 313e be98 743d 9106 77bd
000002d0: f7fd f73c b633 8fbd da3d f9bd df7e 61be
000002e0: 9719 47be cc34 16be 7724 1f3d 33a6 183e
000002f0: ee88 d2bd b186 b93d db93 9dbd dca5 ac3c
00000300: ea1a 5b3e 83f1 2fbe c44c 65be d3b3 1c3e
00000310: af11 183e e97f fa3c 2c81 59bd 7087 003e
00000320: d2e7 ac3d bc8a 8a3d 64cb 8e39 ed70 14be
00000330: 53fc b9bd e041 0ebd bdcd 003d ca5f c0bd
00000340: 1a5e 5e3e 3e53 b8bd f2ee ddbd 53f6 9dbc
00000350: 8ca9 273e cbbb acbd 111d 2bbe ac38 84bd
00000360: 12da fd3d 008f abbd 9f67 993d 2c63 0ebd
00000370: 3899 3a3d 235e 0bbc d40b 543b 7e36 b73c
00000380: dd43 92bd 5f0c 573e 5d73 1fbe 6a49 35bd
00000390: 918b 48bd ef8e f73d f955 c9be 7451 1a3e
000003a0: c0be ebbd 2f8a 413d faa5 353d 3554 623d
000003b0: 2210 753d a909 2f3d de83 903e caa1 b73d
000003c0: 681e 4f3e 8ff7 e83d 7ed0 433d a661 b6bb
000003d0: a37e a63d ee89 40bc d1ea 963d 8387 bd3e
000003e0: 47a0 a5bd fc94 3f3e 4733 dc3c 03ca 97bd
000003f0: c9f4 36be 4f6d 743d d073 72bd 8fa0 853d

recurrent.rnn.bias_ih_l1 f4 [96]
0.033886682 0.06317736 0.01051502 -0.060452655 -0.016210878 0.17040816 -0.06423113 -0.19899365
-0.034790706 -0.034284804 -0.037455373 -0.08540626 0.0052152905 0.17272536 -0.092327125 -0.036284022
0.18628752 -0.20961533 -0.16060194 0.046001446 0.007890698 -0.07001524 -0.09893458 -0.11030104
-0.0665209 0.013454224 0.13990627 -0.14109999 0.050504383 -0.13286328 -0.25523782 -0.13725373
0.106929265 -0.2037722 -0.12294202 0.098639704 -0.07840091 -0.06576087 0.04397717 -0.23151727
-0.14777061 -0.15276924 0.03626396 0.11354619 -0.08953109 -0.09587432 0.059212875 -0.1655431
-0.022747377 -0.058022365 -0.049239703 -0.16954844 -0.05528782 0.115576394 -0.091451265 0.0025452296
-0.018606583 -0.015258361 0.025812889 -0.023800662 -0.08190847 -0.13940895 -0.19402656 -0.17442153
0.03690378 0.024625812 0.04749245 0.010370378 -0.06311621 0.18647811 0.19209956 -0.21843441
0.23943408 -0.107227914 0.16040985 -0.11936409 -0.08739878 -0.15559416 -0.16945173 -0.17378114
-0.18475583 0.10057464 -0.04786228 -0.007989709 -0.10385265 0.16121319 0.074412405 0.08345664
-0.05768697 0.015217885 -0.17250918 0.07935373 0.20326366 0.17441069 -0.16367398 -0.0041107214
00000000: c3cc 0a3d 2263 813d 3147 2c3c 349d 77bd
00000010: adcc 84bc 7a7f 2e3e 9c8b 83bd fec4 4bbe
00000020: b380 0ebd 396e 0cbd ce6a 19bd 7ae9 aebd
00000030: 07e5 aa3b ebde 303e 0116 bdbd 8e9e 14bd
00000040: 28c2 3e3e 67a5 56be d674 24be 036c 3c3d
00000050: fc47 013c 2664 8fbd 379e cabd 83e5 e1bd
00000060: 1c3c 88bd 1b6f 5c3c 9743 0f3e 847c 10be
00000070: afdd 4e3d 500d 08be 88ae 82be 3e8c 0cbe
00000080: bbfd da3d a9a9 50be 07c9 fbbd 9d03 ca3d
00000090: a890 a0bd a3ad 86bd 6821 343d dd12 6dbe
000000a0: 2e51 17be 8a6f 1cbe 8589 143d e88a e83d
000000b0: 135c b7bd c159 c4bd 3389 723d 2184 29be
000000c0: b558 babc dca8 6dbd 92af 49bd 1b9e 2dbe
000000d0: 7b75 62bd 51b3 ec3d cd4a bbbd decd 263b
000000e0: d56c 98bc 34fe 79bc 8d75 d33c 9bf9 c2bc
000000f0: a1bf a7bd 38c1 0ebe e6ae 46be 8f9b 32be
00000100: 6b28 173d 12bc c93c 7187 423d 85e8 293c
00000110: 1243 81bd 1ef4 3e3e bfb5 443e 45ad 5fbe
00000120: 352e 753e 4f9a dbbd 7b42 243e 2975 f4bd
00000130: 22fe b2bd 1354 1fbe c184 2dbe aff3 31be
00000140: a230 3dbe 14fa cd3d 3d0b 44bd 45e7 02bc
00000150: b3b0 d4bd 1215 253e 8865 983d 51eb aa3d
00000160: 2c49 6cbd 7054 793c 3fa6 30be 3584 a23d
00000170: 5924 503e b798 323e 279a 27be 3bb3 86bb

recurrent.rnn.bias_hh_l1 f4 [96]
0.09842916 0.05515017 -0.032014072 0.13380422 0.025062008 -0.1230906 0.0028221887 -0.2582112
-0.22258922 -0.14598086 -0.1018868 -0.1297345 0.046825647 -0.013468813 -0.16579038 0.08168904
0.019398266 -0.14495242 -0.07789328 -0.14594552 -0.025992285 -0.13219516 -0.12976353 0.2119989
0.028304296 0.020809337 0.05341143 -0.14625117 0.08895835 -0.08403174 -0.2102969 0.09768733
0.072722234 -0.20831595 -0.07786134 -0.06836762 -0.101807475 -0.15524559 0.10958863 0.033740412
-0.020959236 0.117137484 -0.040462673 -0.12615876 0.104760185 0.088703185 -0.117727295 -0.09346718
0.03584683 -0.2040072 -0.1335653 -0.09291428 -0.083998024 -0.07003352 -0.079165146 0.08544487
-0.06247879 0.023210907 -0.004563859 -0.12994903 -0.2260533 -0.2806853 0.04795014 -0.13620277
0.0508199 0.11304615 -0.046390984 -0.04952376 0.14118847 -0.069081865 0.16630077 0.118258104
-0.06098293 -0.14444418 0.06231222 0.047699742 0.011310348 -0.025209406 -0.11923555 -0.03333569
-0.07135134 0.047205925 0.16792688 0.09309671 -0.12942572 0.026448406 -0.09069465 -0.07959508
-0.18714486 -0.044110186 -0.09204983 -0.0072197067 0.06561 -0.064952746 0.1000189 0.07356986
00000000: 3a95 c93d 25e5 613d 3021 03bd f903 093e
00000010: d74e cd3c ed16 fcbd 78f4 383b 4234 84be
00000020: 6eee 63be 027c 15be 07aa d0bd 1fd9 04be
00000030: 40cc 3f3d 4cac 5cbc f4c4 29be 954c a73d
00000040: 1de9 9e3c 686e 14be 8386 9fbd be72 15be
00000050: c6ed d4bc 2b5e 07be bbe0 04be 3d16 593e
00000060: 69de e73c 5878 aa3c f2c5 5a3d dec2 15be
00000070: cc2f b63d d518 acbd 1258 57be 4b10 c83d
00000080: 65ef 943d c750 55be c475 9fbd 5304 8cbd
00000090: 7080 d0bd b3f8 1ebe 0170 e03d 6333 0a3d
000000a0: b4b2 abbc c7e5 ef3d 30bc 25bd c32f 01be
000000b0: 828c d63d 04aa b53d 021b f1bd b96b bfbd
000000c0: 20d4 123d 43e7 50be 58c5 08be d849 bebd
000000d0: 2807 acbd bc6d 8fbd 5621 a2bd b8fd ae3d
000000e0: c2e9 7fbd cd24 be3c 6d8c 95bb 5c11 05be
000000f0: 847a 67be fcb5 8fbe 5e67 443d bd78 0bbe
00000100: 8728 503d bd84 e73d 7904 3ebd 6dd9 4abd
00000110: b693 103e cb7a 8dbd c04a 2a3e 4e31 f23d
00000120: 3dc9 79bd 2de9 13be 193b 7f3d ce60 433d
00000130: 0a4f 393c f583 cebc c531 f4bd 018b 08bd
00000140: a720 92bd 005b 413d 06f5 2b3e 7da9 be3d
00000150: 2d88 04be 54aa d83c 1ebe b9bd bf02 a3bd
00000160: e7a2 3fbe e2ac 34bd 9f84 bcbd 4a93 ecbb
00000170: 895e 863d f205 85bd b6d6 cc3d cbab 963d

linear.weight f4 [1, 32]
-0.24079031 -0.18515752 -0.31450552 0.1607274 0.30379677 0.26398134 0.21529014 -0.30656177
0.16771814 -0.04988773 -0.13565151 0.022120079 0.17848699 0.21527642 -0.21018073 -0.35363016
0.25217494 0.14521387 -0.15905057 0.20301609 0.22004558 -0.15273938 -0.28503853 -0.1263827
0.0027125077 -0.035951387 -0.14730713 0.2397541 -0.09856433 0.2757616 0.14174214 0.2739083
00000000: bc91 76be ef99 3dbe de06 a1be b995 243e
00000010: 408b 9b3e 9028 873e 0575 5c3e aaf5 9cbe
00000020: 4ebe 2b3e 1457 4cbd 3be8 0abe 2b35 b53c
00000030: 4bc5 363e 6c71 5c3e 9e39 57be 030f b5be
00000040: 131d 813e f2b2 143e 27de 22be 73e3 4f3e
00000050: a153 613e b667 1cbe 92f0 91be 776a 01be
00000060: 54c4 313b c341 13bd aed7 16be 1982 753e
00000070: 18dc c9bd a030 8d3e da24 113e b53d 8c3e
