TGCN_gat_mi_local.pth (torch, 37833 bytes, 28 tensors)

recurrent.conv_z.att f4 [1, 1, 32]
00000000: c86e ab3d 6044 1b3f dba7 263f f722 1cbf
00000010: eb6f 2ebf 74f0 2f3f 2f5f 473f 5d0c 233f
00000020: 1c0c 77be 13d7 02bd 4937 86be d74f 4f3f
00000030: 6984 313d 64d1 543f 2619 ee3e 7d59 68be
00000040: 8d2d 3d3e c402 6d3f 48bb e83d 68a6 403f
00000050: e8db 1c3e 889b 9c3e fe57 cf3d 2f05 5a3f
00000060: cece 133f 72fd 873d a5a0 d6be 3336 7e3f
00000070: ee57 99be 1c6e 5abd fa7d 33be 67a9 253d
0.08370739 0.60651207 0.6509988 -0.6099085 -0.68139523 0.6872628 0.77879614 0.6369074
-0.24125713 -0.031943392 -0.26214054 0.809812 0.043339167 0.83132005 0.46503562 -0.22690387
0.18474407 0.92582345 0.11363846 0.75253916 0.15318263 0.3058741 0.10124205 0.8516416
0.57737434 0.06640138 -0.41919437 0.9930145 -0.29949898 -0.053327665 -0.17528525 0.040444758

recurrent.conv_z.bias f4 [32]
00000000: a4d3 e13e 08bb c4be d1bd 853e 2dc2 1abe
00000010: 2829 9e3d bc7c e8bc bc0e 8e3d 58cd 7fbe
00000020: fd47 123d 088e b43c 4a01 9b3e 22fe 6d3d
00000030: e4a8 903e 7edd c7bd 3b34 abbd 7e63 6cbe
00000040: 3724 34be f9ac 7b3e 1407 753e 7e9e 18be
00000050: d694 1b3e e933 38be cdce 9e3e 0e47 253e
00000060: 1f2c d73d 56a3 2d3e a8e5 a83e 75e8 49bd
00000070: 0cdf 8b3d a55b 66bc b1ac 1f3e 6e88 9abe
0.4410678 -0.38423944 0.2612138 -0.15113135 0.07722694 -0.02837979 0.06936404 -0.24980676
0.035713185 0.022040382 0.3027442 0.058103688 0.28253853 -0.09759043 -0.083595715 -0.23084828
-0.1759194 0.24577703 0.23928481 -0.1490421 0.15193495 -0.17988552 0.3101715 0.16140386
0.10506462 0.16956839 0.32987714 -0.049293954 0.06829652 -0.014059936 0.1559322 -0.30182213

recurrent.conv_z.lin_l.weight f4 [32, 1]
00000000: 5778 dcbe fd44 993e 19a6 a13e 5793 83be
00000010: f0ad 4ebf cf12 35bf 82d9 033f 12b8 ee3e
00000020: 3f8d 6a3f 6a6b 5bbf c542 1bbf 4571 8bbf
00000030: 8a0f 05bc 8a04 16bf 03e9 003f 4f49 abbe
00000040: 3c3e b5bd f7cb e6be fc8d 2cbd 5a49 643f
00000050: d0f4 d63b 9c3c eebd c2ac 19be a3bb 53bf
00000060: 19d8 f53e 9e88 5c3d 52aa 33bf 8f37 44bf
00000070: 9949 7ebf faae 23bf e129 213f 8a52 233c
-0.43060562 0.29935446 0.31572035 -0.2569835 -0.8073416 -0.70731825 0.51503766 0.4662481
0.91621774 -0.85710776 -0.6064876 -1.0893942 -0.008121381 -0.58600676 0.5035555 -0.33454368
-0.08849761 -0.45077488 -0.042127594 0.89174426 0.0065599456 -0.11632654 -0.15007308 -0.82708186
0.48016432 0.053841226 -0.70181763 -0.76647276 -0.9933105 -0.6393887 0.6295453 0.009968409

recurrent.conv_z.lin_l.bias f4 [32]
00000000: d14f 18bf 1790 333d 07fc 2cbf f5ac 9a3e
00000010: 6d93 5dbe e59d b73e 34a5 99be f2db 493e
00000020: 4538 3ebf 7f4b fe3e e5e5 0bbf 2d0b 893e
00000030: 39df a6bd e0ec bebb d275 943d 7561 c13e
00000040: 653f 323f f0f3 0bbf 654b 13bf 6e38 81bd
00000050: f9e0 0fbe ec67 103f 83e3 d5be 49f1 dbbe
00000060: 4882 debe f077 28bf 31ef 64bf 5589 d43e
00000070: 30ea 66be ee7c 6c3f 51f7 e1be a117 033f
-0.5949679 0.043838587 -0.67572063 0.3021008 -0.2163827 0.3586265 -0.30008852 0.19712809
-0.7430461 0.49666974 -0.54647666 0.2676634 -0.08148045 -0.0058265775 0.07249035 0.37769666
0.6962798 -0.54669094 -0.5753692 -0.06309591 -0.14050664 0.5640857 -0.4177514 -0.42957523
-0.43458772 -0.6580801 -0.8942748 0.41511026 -0.22550273 0.9237813 -0.44134 0.5120793

recurrent.conv_z.lin_r.weight f4 [32, 1]
00000000: 9104 8cbe 3cc5 763f a37d 723f 0368 383f
00000010: 67bf a83f 41bb a5bf 8049 933f 5533 a13f
00000020: 2bbf 10bc a56c de3e 16d1 81be 563c bdbf
00000030: cf3e 883d fc76 99bf 2fe8 493f 976c f03e
00000040: cbee f1bd 9d38 87bf 25e8 1b3e 05f7 c03f
00000050: f4f7 4e3b 9781 713e 2f94 b5bd f034 aebf
00000060: dc93 363f 3964 683d 53f3 843f 58d6 bcbf
00000070: 9bee 973f 61d0 893d f95f 22be 38e3 8ebd
-0.27347234 0.96394706 0.94722956 0.7203371 1.3183411 -1.294777 1.1506805 1.259379
-0.0088346405 0.43442264 -0.25354832 -1.4784038 0.06652605 -1.1989436 0.7886991 0.46957847
-0.11813124 -1.0564152 0.15225275 1.5075384 0.0031580897 0.23584591 -0.088661544 -1.3609905
0.71319366 0.056736205 1.0386757 -1.4752913 1.1869692 0.06729198 -0.15856923 -0.06976932

recurrent.conv_z.lin_r.bias f4 [32]
00000000: ee80 16bf 58da 35bf b011 47be 662d 90be
00000010: e871 d33d a866 a93d ee9d a7bd 7c90 51bf
00000020: ae0e 9bbf 964b 9d3e 8b7f 88be 8ac6 a2bd
00000030: 1f00 843f 6b8f 893e 9081 64bf df23 213e
00000040: 2dee 743f e54e 2b3f c3d5 913f 360e 5dbf
00000050: 8ac8 67bf 76e5 e03e ffad 58be 900c 3f3f
00000060: 1ccb 33bf 5a81 a33f 2ad4 3a3f 86d0 e63c
00000070: cad6 783c 1a79 743f dbe3 e9be df1e d5bc
-0.5879048 -0.7103629 -0.19440341 -0.28159636 0.1032446 0.08271533 -0.081844196 -0.8186109
-1.2113855 0.3072173 -0.26659808 -0.079480246 1.0312537 0.26867232 -0.89260197 0.1573634
0.9567593 0.6691726 1.139336 -0.8634981 -0.90540373 0.43925065 -0.21160124 0.74628544
-0.70231795 1.277385 0.72979987 0.028175604 0.015187928 0.95497286 -0.45681652 -0.026015697

recurrent.conv_z.lin_edge.weight f4 [32, 1]
00000000: 0d8f 073e 2faa 03bd 8ddb 653e 0c98 f2be
00000010: bac3 13bf 9a55 8f3e 5181 f0be 192a 79be
00000020: acf0 c4be 2d7b e4be 0c5f 86bf 9ce2 1e3f
00000030: a456 533e 7ade 0f3f c9e7 f7bd 5e1a 4abf
00000040: 778a 603f 10fa 283f 6f50 733f f57e a13d
00000050: a0a4 fb3e 6397 8a3f 47f1 d53c 0290 013f
00000060: c94a c73e 2376 d83e 849a bfbe 595f a33e
00000070: 465c 11bf eae1 21bd f8cf 6ebe 20d5 6f3f
0.13238163 -0.03214472 0.22447033 -0.47381628 -0.5772053 0.27994996 -0.4697366 -0.24332465
-0.38464868 -0.44625226 -1.0497756 0.6206453 0.2063852 0.5619885 -0.121047564 -0.78946483
0.8771128 0.66006565 0.95044607 0.07885543 0.49149036 1.082745 0.026116027 0.50610363
0.38924244 0.4227763 -0.37422574 0.31908682 -0.56781423 -0.03952209 -0.23321521 0.9368458

recurrent.linear_z.weight f4 [32, 64]
00000000: 922c 403d b1be c13d 9986 603e c8ce 2c3c
00000010: 505d a63e 2a4f 50be 2f1d 1dbe f587 ebbd
00000020: 0df7 63bd 54fb 60bd f214 313e 2f8c fbbc
00000030: 9168 1bbd 698e 0f3e 1155 a43d 274d ebbd
00000040: aa23 b1bd fe10 f53d 1aa2 173e 7c5c b7bb
00000050: 92bf 723d 2902 49be 8c15 763e 1192 093e
00000060: 34fb 673e 532d 8b3e 8966 9a3e 4f6c 1fbd
00000070: e6d7 c73d 8aa5 60be 6cb1 83bd 5135 21bd
00000080: 90d8 b53d 03d2 273e bb3c b83e 6b1b 08be
00000090: b70c 563e 55a8 a23d bc23 bbbd 39c1 923e
000000a0: da86 3c3e cda0 783e 7495 cbba 85dc 9d3d
000000b0: 2491 c93d e9a6 0f3e e0d2 09be f1c8 843e
000000c0: 046a c13d 26a0 453e 0a98 cf3d 2b34 353e
000000d0: 04d7 9c3e e6aa 513e 5110 64bd c654 763c
000000e0: 8f7d 45be 0448 08bd 9514 3a3e 8a93 8a3d
000000f0: 63db 813e 2c8e 083e 2604 3e3e b77a 893e
00000100: 6e0f 67be 4b58 67be 50a5 b2be 9180 293e
00000110: fd09 b43e d0d1 bc3e 6062 02bf 5911 8abd
00000120: b1b4 b6be 86f7 f93e d689 04be c849 823e
00000130: 9a48 c33c 61ad 603e e3a7 3bbd 0140 a23e
00000140: 2e57 bb3e db3a 6fbe dc3b 0cbe 3f53 76be
00000150: f3ef 30bd e9c0 ab3e 204f 21be 2ee8 83be
00000160: d1d7 b2be 5277 b1be 624c 73be 2c4c f23e
00000170: b017 1e3e cee1 9c3e 2e03 febe d928 893e
00000180: fa4e 00be 4ec7 afbd 3372 bcbe dddf 37bd
00000190: f4e3 47be 8442 abbe ab39 b9bd bf0e 41be
000001a0: 1154 b5be 5380 84be 2eca 96be a80d 36be
000001b0: 3361 2dbe 8e8a ecbe 7424 ca3e 549f 8fbe
000001c0: 7c1b 84be cd81 73be 811d f53d 267e dbbe
000001d0: 72c8 9dbe d333 9d3d d654 803d d3b4 26be
000001e0: 2ab2 d13e f7b0 7ebe 5f47 06be 678e 21be
000001f0: 24a1 813e ec08 49be 747c 8dbe 4093 50be
00000200: 5491 ff3d 5bc8 1fbe dae5 86be b78a 8c3e
00000210: f1ed ad3e 4cfe 043f 8f91 97be 7c49 03be
00000220: 72ee b9be 4a66 d23e 37cb 513d 2ec2 853e
00000230: bc89 143e 9f2b 9b3e 0fb8 ec3c fdd9 883e
00000240: 9355 bb3e 794d 093e 346d fdbd bbd5 0dbe
00000250: 1b11 db3d 26bb ea3e 2959 283e 93b0 5d3e
00000260: a83b a7be f455 e8be 2384 d63c 29d4 bc3e
00000270: 3845 20be 9538 403e 6dc4 c4be d832 573e
00000280: d301 cebe 94bb 293e 265d 9c3d 961e 4abe
00000290: b531 e5bd fa11 f7be eac4 00bf 8f54 47be
000002a0: eb84 b2be a8eb bd3e 3c47 d9be babd 58be
000002b0: 1ed0 54be eb75 a8be 96f4 c83e 60c0 11be
000002c0: 8a29 92be 28fd fd3b bc5c 053f 15fe bbbe
000002d0: 9857 13bf 6b93 d53e 94b6 c53c 8a94 98bd
000002e0: 256e bd3e 9658 9dbe 06e5 afbd 898f 4f3e
000002f0: 0f94 063f f8f3 8abe d9ba 8fbd 5aca b3be
00000300: 8758 043d 07f1 3c3c 1c05 f5bd 8ecd 5c3e
00000310: 7e79 c53e b0c2 163e fe31 27be b07c ad3c
00000320: e9a6 56be a7b7 963e c6f2 7b3c d52c 363e
00000330: 5906 36bd 36ab 7c3d 2587 74bb bd95 5e3d
00000340: 4253 fa3d 0fc4 d93c df1b 12be f112 8cbe
00000350: 38c0 2d3d 00f1 0c3e 9337 90bd 5a6a 0a3e
00000360: c73e 44be 79a4 c4bc 8325 c53d 761d 563e
00000370: a687 8f3d d206 643e 91a2 6abe 5a5b 363d
00000380: b688 d4be 5c95 e3bd f6b1 4f3e 6899 c4be
00000390: 47e5 29be f78e e7bc e66b 3ebe d7f9 a43c
000003a0: 453d e2bd 88e7 a53e b2ae ddbe 3477 88be
000003b0: 93c7 8e3b c9b5 abbd ff74 ebbd 8fef 8e3d
000003c0: 28c5 f2bd 8265 0d3e 90c6 b43e e52e 633d
000003d0: a239 fcbc 2ebb de3e 0e64 1fbe 2f82 083e
000003e0: f4fd b4bd 84b9 b2bd 3881 aa3e 26d6 d23e
000003f0: 9628 143f 5499 13bd 4584 723d 3046 073e
0.046917506 0.094601996 0.21926345 0.010547347 0.32493067 -0.20342699 -0.15343164 -0.11500541
-0.055655528 -0.054927185 0.17293146 -0.030706493 -0.03794152 0.14019169 0.08024038 -0.11489325
-0.086493805 0.11966132 0.1480793 -0.005595742 0.059264727 -0.1962973 0.24031657 0.13434626
0.2265442 0.27183017 0.30156353 -0.03892165 0.09757976 -0.21938148 -0.06430325 -0.039357487
0.08879197 0.16388707 0.35983834 -0.13291709 0.20903288 0.07942263 -0.09137675 0.28663042
0.18410817 0.2428009 -0.0015532211 0.077080764 0.098421365 0.14028515 -0.13459349 0.25934556
0.09444049 0.19299373 0.10136421 0.17695682 0.30632794 0.20475349 -0.055679623 0.01503486
-0.19286178 -0.033271804 0.18171914 0.06766422 0.2536269 0.13335484 0.1855627 0.26851436
-0.2256448 -0.22592275 -0.34891748 0.1655295 0.3516387 0.36878824 -0.5093136 -0.0674159
-0.35684732 0.48821658 -0.12943205 0.25446916 0.02383833 0.21941139 -0.045814406 0.31689456
0.3658995 -0.23362295 -0.1369471 -0.24055193 -0.043197583 0.33545616 -0.1575284 -0.25763077
-0.3493028 -0.34661347 -0.23759606 0.4732374 0.15438724 0.30641025 -0.496118 0.26788977
-0.12530127 -0.08582936 -0.36805877 -0.044891227 -0.19520551 -0.33449185 -0.090442024 -0.18853281
-0.354157 -0.25879154 -0.29451126 -0.17778647 -0.1693161 -0.4619946 0.39480937 -0.28051245
-0.2580222 -0.23779984 0.11968518 -0.4286968 -0.3081699 0.076759 0.06266181 -0.16279916
0.4095624 -0.24872194 -0.13113163 -0.15776978 0.25318253 -0.1963231 -0.27634013 -0.20368671
0.12478891 -0.15603773 -0.26347238 0.2744958 0.33970597 0.51950526 -0.2960324 -0.12821001
-0.36314732 0.41093665 0.05121919 0.2612471 0.14505666 0.30306718 0.02889636 0.26728812
0.36588725 0.1340846 -0.123743445 -0.13851063 0.10696622 0.45845908 0.16440262 0.21649389
-0.32662702 -0.45378077 0.026186055 0.36880615 -0.15651405 0.18771584 -0.3843111 0.21015489
-0.40235767 0.16575462 0.07634954 -0.1973823 -0.111911215 -0.48255903 -0.50300467 -0.1946585
-0.34867033 0.37093854 -0.4243716 -0.21166125 -0.20782515 -0.32902464 0.39249104 -0.14233541
-0.28547317 0.007751126 0.52094626 -0.36717287 -0.5755553 0.41714033 0.024134912 -0.074502066
0.36998096 -0.30731648 -0.08588605 0.20269598 0.5256967 -0.27139258 -0.0701806 -0.3511532
0.03231099 0.011532075 -0.11963865 0.21562788 0.38569254 0.14722705 -0.16327664 0.02117762
-0.20962109 0.2943699 0.015377706 0.1779054 -0.044439647 0.061686717 -0.0037311998 0.05434202
0.122229114 0.026582746 -0.14268444 -0.273582 0.042419642 0.13763809 -0.0704185 0.13517132
-0.19164573 -0.024004208 0.096262954 0.20909676 0.07008295 0.22268227 -0.22913577 0.044520713
-0.41510552 -0.111124724 0.2028273 -0.3839829 -0.16591369 -0.028266413 -0.18595847 0.020138664
-0.110468425 0.32403207 -0.43297344 -0.26653445 0.004357287 -0.08384282 -0.114969246 0.06979286
-0.11854011 0.13808253 0.3530774 0.055464644 -0.0307892 0.43502182 -0.15565512 0.13330911
-0.088375 -0.087267905 0.3330171 0.41179007 0.5787443 -0.036034897 0.059208173 0.13210368

recurrent.linear_z.bias f4 [32]
00000000: 82c9 c5be 1023 ce3e 141c a03e 811d 113e
00000010: 7792 603d ea0a 9bbe 8309 7ebe 63fd b53d
00000020: 3743 1cbd 38af 373d 127e 85be 63ee 32bd
00000030: d795 213d ae3a f93b 1930 1b3e 7fac ac3d
00000040: 3e71 433e de35 0c3e f323 b6bd 398a 4e3e
00000050: 5607 5e3c dc38 5bbe fb6c 5e3e 1c90 893d
00000060: f019 033e 0c9a 4abe e5c5 03be 87c8 c7bc
00000070: 7cb5 abbe 544a ea3c b9e3 273f 02f8 fbbc
-0.386303 0.40261126 0.31271422 0.14171411 0.05482718 -0.30281764 -0.24808316 0.0888622
-0.03815004 0.044844836 -0.26072747 -0.043684375 0.03944954 0.007605872 0.15155067 0.084313385
0.19086167 0.13692424 -0.088935755 0.20169915 0.013551554 -0.21408409 0.2172126 0.0671694
0.12802863 -0.19785327 -0.1286846 -0.024387611 -0.335369 0.028599896 0.6558185 -0.030757908

recurrent.conv_r.att f4 [1, 1, 32]
00000000: 558b 11bf 73f1 183f 3f20 543d f533 2c3f
00000010: 4db9 af3e 102a b93e 074d ea3e 99ce dabd
00000020: ddf6 37bf 7c99 e03e 1193 19be 7168 8c3e
00000030: 7b1a 233e 4ce2 3cbb 8d87 073f 4644 da3e
00000040: 3fb4 6dbd 505f 243f cac5 00bf fdf5 45be
00000050: a57f 073f 4475 fd3d 3378 26bf 8785 533f
00000060: 70b9 d63d 8853 983e beaa 82bf 7f2f 05bf
00000070: 1fe0 65be badd 04bf 7d37 f33e aebd 5a3e
-0.5685323 0.5974342 0.051788565 0.6726678 0.3432106 0.36164904 0.45761892 -0.106839366
-0.7186106 0.438671 -0.14997508 0.27423432 0.1592807 -0.0028821407 0.5294121 0.42630213
-0.058033224 0.64207935 -0.503018 -0.19332118 0.52929145 0.12375882 -0.6502716 0.8262562
0.10484588 0.2975123 -1.0208356 -0.520256 -0.22448777 -0.5190083 0.47503272 0.2136142

recurrent.conv_r.bias f4 [32]
00000000: 510b 683d 4df2 07bd 04f9 50be 66af 1ebe
00000010: 360b ed3c 6c73 2e3e 3de6 863d 3e0b ffbd
00000020: 36d1 8bbe 679e a4bc f855 6a3e 77e1 61be
00000030: 6ee3 fc3d 7fd1 72be 25fc bf3e 906b 82bd
00000040: 890a 7e3e 8869 d13c 3f66 25be f33a 86be
00000050: 173e 6abd 4f02 663e 16e5 3b3e 47d3 403d
00000060: be85 913c 6b24 223e e530 7dbc 9213 a0bc
00000070: 9c88 cd3e ae40 dbbd 5fe9 42bd 4edc 9dbd
0.056651417 -0.03319006 -0.20407492 -0.15496597 0.02893601 0.17036217 0.06586883 -0.12453316
-0.27308053 -0.020095063 0.22884357 -0.22058664 0.12348066 -0.23712729 0.3749706 -0.06368172
0.24808706 0.025563017 -0.16152285 -0.2621685 -0.05718812 0.22461818 0.18349108 0.04707649
0.017763969 0.15834205 -0.015453552 -0.019540582 0.40143287 -0.10705696 -0.04758584 -0.077080354

recurrent.conv_r.lin_l.weight f4 [32, 1]
00000000: 3dbd 233f 47bd 1b3f e370 3dbc e1c9 11bf
00000010: 936d 36bf 0224 043e 42e5 2cbf 2bab fa3e
00000020: 2877 263f 2983 0a3f f6f1 4d3d 60a0 a5be
00000030: b2ff f5be eb00 ed3e 1937 4ebe ace6 ecbe
00000040: d3ae 93be e349 513f 51e8 ad3e 4bb7 dc3e
00000050: cec4 3dbf 0d3e 16bf 4cd1 c3be db3d 07bf
00000060: be78 1fbf 72ba f3be 614e 17bf 0034 643f
00000070: 3f6d 673d 034f 1c3f ee86 59bf 2df2 1c3f
0.6396063 0.6083569 -0.011562559 -0.5694867 -0.71260947 0.12904361 -0.6753732 0.48958716
0.6502557 0.54106385 0.05027958 -0.3234892 -0.48046643 0.46289763 -0.20138206 -0.4626974
-0.28844318 0.8175337 0.33966306 0.4310859 -0.74128425 -0.5868843 -0.38245618 -0.5282876
-0.6229361 -0.47603184 -0.5910397 0.89141846 0.05650067 0.6105806 -0.8497151 0.6130703

recurrent.conv_r.lin_l.bias f4 [32]
00000000: ad42 edbe 238f 34be 6acf bc3e b6bb f83e
00000010: aad1 2a3e a42a f6be 77a3 cc3e 0065 2b3f
00000020: 9337 c03e 87cc 33bf a999 7ebe 3192 283f
00000030: b37e 48bf cc84 e83e f6ef 0fbf aba3 c03e
00000040: 4e8f 07bf 48ea 60be d52c 423f 5d0c bd3c
00000050: 3d2a b43e 5b6f 89be 9a4a 88bf 4c20 c43d
00000060: f6d3 f13c 0b43 44be 872d a2be 9ee2 f7bd
00000070: d65b efbe e7d2 393f 7756 653e 6fa6 84bd
-0.46339932 -0.17632727 0.36876994 0.48580712 0.16681543 -0.48079407 0.39968464 0.6695099
0.375424 -0.7023396 -0.24863304 0.6584807 -0.7831833 0.45413816 -0.56225526 0.3762487
-0.5295304 -0.21964371 0.7584966 0.023077184 0.35188475 -0.2684277 -1.0647767 0.09576473
0.029520016 -0.191662 -0.3167536 -0.12103771 -0.46749753 0.72587436 0.22396265 -0.06477057

recurrent.conv_r.lin_r.weight f4 [32, 1]
00000000: 532f 45bf 62fc 223f 9c70 e53e b91b 52bf
00000010: a88b 14bf 0faf f03e ce2f 37bf 78a2 efbe
00000020: e5f9 49bf 5421 3d3f be37 8a3c 2544 2abf
00000030: 8560 50bf 1db8 03bd fab0 42bf 3fd1 2c3e
00000040: f1b5 bc3e 2385 6e3f 2ba5 1abf 30c0 e6be
00000050: e37c 22bf 18ee 83be 1bdb 453f 1829 4dbf
00000060: 96c1 04bd de69 07bf e146 703f db68 7ebf
00000070: d3ff 97be 6d0d 28bf 1275 0dbf ec78 7c3e
-0.77025336 0.63666356 0.44812477 -0.8207355 -0.580256 0.4700856 -0.7155732 -0.4680364
-0.78896934 0.7387898 0.016872283 -0.6651023 -0.8139728 -0.032158006 -0.76051295 0.16876696
0.3685756 0.931719 -0.60408276 -0.45068502 -0.6347181 -0.2576759 0.77287453 -0.8014083
-0.03241118 -0.52895916 0.9385815 -0.99378747 -0.29687366 -0.65645486 -0.5525676 0.24655503

recurrent.conv_r.lin_r.bias f4 [32]
00000000: 8a27 0e3f 1dba 4b3d b61a 33be 387d 70bd
00000010: ab17 cbbe e6e4 2ebf e2e6 a13e 7b9d cebd
00000020: 3dd4 b6be 49ba 11bf 7c59 e63e 5fbe 663d
00000030: d723 cbbe c2af 99bf 6328 a8be 25b4 213f
00000040: 8a34 e83e d2ec 00bf ce34 8abc 7850 503f
00000050: 533b 00bc ba8e 7cbf d564 0f3f f566 c03e
00000060: 271d 4e3f 0575 a5be f87d e1be 791b 243f
00000070: 1786 4cbf b8d2 60be bc65 b0be 95a3 35bf
0.5552908 0.04973804 -0.17490658 -0.058713168 -0.39666495 -0.6831802 0.31621462 -0.10088631
-0.357088 -0.56924874 0.44990146 0.056333896 -0.3967578 -1.2006762 -0.32843313 0.63165504
0.45352584 -0.5036136 -0.016870882 0.81372786 -0.007826644 -0.98655283 0.5601323 0.3757855
0.8051323 -0.3231584 -0.4404142 0.6410442 -0.79892105 -0.21955383 -0.34452617 -0.7095273

recurrent.conv_r.lin_edge.weight f4 [32, 1]
00000000: 1a8e c63e b35b 1dbf 8124 2dbe 2d23 d83e
00000010: 8b29 953e 0b69 3e3f 8137 33bd 5a73 91bc
00000020: 1796 0a3f f0ef db3e ef78 563e 00b6 e339
00000030: 3102 b9bb 48fd b2be 443f 443f 9dcc fe3e
00000040: d5aa 85be 7cb8 3dbe 1346 cebe 678f e0be
00000050: bb44 573e 94c7 003d 5e39 d3be cbfd de3e
00000060: f8a9 213e d2c0 2d3f 0cc5 2fbe 3559 b7bd
00000070: da41 f6be 18c5 03be ebf4 c33e f549 c5be
0.3878029 -0.61468047 -0.16908456 0.42214337 0.29133257 0.7437903 -0.043754105 -0.0177552
0.5413527 0.42956495 0.2094457 0.00043432415 -0.005646013 -0.34958863 0.76659036 0.49765483
-0.26106897 -0.18527406 -0.40287837 -0.43859407 0.21022312 0.031440333 -0.41254705 0.43553004
0.15787494 0.67872345 -0.17165011 -0.08952562 -0.48097116 -0.12868154 0.38272795 -0.38532987

recurrent.linear_r.weight f4 [32, 64]
00000000: 6392 ac3d c0c2 edbd 758a 7b3c 6de5 b53b
00000010: 8b50 dfbd 0eb8 933b 4773 a5bd de97 c8bd
00000020: 4335 95bd 15df 273e a0d9 a6bc 7fb6 23be
00000030: 2c25 59bc 652c 18be 255d d03d 9335 4d3d
00000040: d0ae 553d 52c1 aebc 02da 04be 6fa1 5fbd
00000050: bd8f fabd bb4f 253e 3b27 353e 530a e43d
00000060: 2e7a 2b3e 84e5 3fbb 76ce dc3d 6110 e63c
00000070: 69ea d43c c453 16be 7640 ae3c 6871 0cbe
00000080: 80b4 8d3d 4aee 633e e2de 373d cf32 083c
00000090: e407 b93e 8b73 9b3e 9621 333e b2ce dd3d
000000a0: 493f 7e3e 363b b43d b655 c33d 6040 993e
000000b0: d774 553e 9314 e03c 8336 d0bd aa37 683e
000000c0: aa9a 223d bfb6 6c3e b106 2fbe 4d86 b33d
000000d0: b944 a13e 5617 013c e503 29be 7632 a23e
000000e0: bec4 26bd ac99 b5bd 4516 323d ea68 fbbc
000000f0: 925d 2a3c 1893 a03e c3a9 8d3e 1696 793e
00000100: 4d82 513e 3809 61bc d4ff 8cbe d326 6dbe
00000110: 234f 0bbe d115 f43d 4c84 6ebd 6ac0 eebd
00000120: 8e02 d03a 6a42 543e 0a66 a23d 50e3 3dbe
00000130: fa3e 853e 6e35 55be 91f6 943e afe6 c9bd
00000140: 094e 073e b7f7 113e 29e9 90be 0a22 62be
00000150: 290d 49be c8cb 543e b903 4e3e ee53 6b3d
00000160: ba2e 2dbd c708 0a3e 5fb0 8c3d 0d1d 37bd
00000170: a661 c23d 76e6 e3bd 4f0d 21bd 1fac 91bd
00000180: 1fdd 143e fdd8 ea3d 26d6 7f3e 8514 463e
00000190: 9974 933d d4df 92bc 9686 5bbd 55af 313e
000001a0: 9d55 883e 2c7b b23d 3814 9e3d f4f3 553d
000001b0: 6d4b 723e decb dd3d 2015 c43d af62 62bc
000001c0: 0293 4d3d ba75 383d ac0d 5fbe abc3 163e
000001d0: 8555 8b3d c4ec 4bbe 5b43 62bd b0a8 9a3d
000001e0: 02cb 0ebd 5c76 323e c92d aa3c 8314 9cbd
000001f0: e9ff 07be 129f 113e f979 453d 0e61 f83d
00000200: d42c 413e ff2a fcbd 36d6 edbd 0708 d6bd
00000210: ef9a 413d 9b07 c23d 7946 d2bd 39e6 90be
00000220: 8de6 11be abff c63d e578 723e 2ff0 47be
00000230: cb1c 643e b4e4 4cbe 0641 983e 5148 34bb
00000240: 1feb 8c3e f617 4fbe 7b7c 6cbe ef26 95bd
00000250: 134b ac3d a465 ce3d dcf2 453e 7bc9 a73d
00000260: 7e53 933d 4899 613e 02c7 863e bb8c a7bd
00000270: 6a51 1f3e 94df acbe 8c09 533e 18a3 34bd
00000280: 279e d53e 3100 bd3d 121a 2c3e 5593 e23d
00000290: f950 1a3e e0e5 d23e bbc9 a63e d49e 283e
000002a0: fc88 723e e5ff 99bc 6f89 383e 46fd 3b3e
000002b0: 4b24 423e 103e ef3d 1702 11bd 7860 563e
000002c0: 0334 a43e 1809 9c3d c661 77be e0b8 783e
000002d0: dedf e63e 4df5 83be f2fb 003e 864b a03c
000002e0: 4e27 14be c6c3 3f3e 6e92 173e 2a4d 15be
000002f0: 75e8 5cbe a964 f43d 4394 4f3e a89f 6c3e
00000300: a1ef 9abd 0502 a6be 0893 5cbb 2678 1b3e
00000310: dca1 d23d 4359 84bc 5ef0 223a 0f5f 28be
00000320: 6d94 acbe 5dc1 a8bd 7455 053e 5be8 4d3d
00000330: 8ced 313e 9111 5bbe a5a0 e03c b3aa 53bc
00000340: 6b78 1f3e 146b 61be 354f 40be edf8 79be
00000350: 08bb 7d3e 8473 103e 5a1f 8d3b 7106 b43e
00000360: fe27 1e3e 13c3 a33e c8ad fc3d 8564 88be
00000370: 286e 373e 2d04 4dbe 7399 983e ecc5 80be
00000380: bde0 983e dc20 063e a42d 28be bd32 323e
00000390: fe2b 1f3e 392c 933d 48f9 1b3e ae5d 733e
000003a0: f529 323e bfcb 93be f9f2 2d3e 500c d03d
000003b0: 9ee0 383d 8836 b43d fc02 9dbc fe71 31be
000003c0: 283c 363e 89cf 273d d828 93be 7201 743e
000003d0: 12a9 ad3d 98a7 b4bd 4b61 0d3e 036a 9dbd
000003e0: 60bf 173e 7821 163e b340 93be a979 ecbd
000003f0: e9b9 8bbe 1908 4fbd a5f5 f43c de24 1a3e
0.084263586 -0.11609411 0.015352835 0.0055510313 -0.10904034 0.004508025 -0.08078628 -0.09794591
-0.072855495 0.16393693 -0.020367444 -0.15987585 -0.013253491 -0.14860685 0.10174016 0.05009992
0.052168667 -0.021332417 -0.12973788 -0.054597314 -0.12234447 0.16143696 0.17690746 0.11134782
0.16745827 -0.002928109 0.10781567 0.028083982 0.025990682 -0.14680392 0.021270972 -0.13715136
0.06919193 0.22258869 0.044890292 0.008312895 0.36138833 0.3036159 0.17493281 0.108304396
0.24828829 0.08800356 0.095378324 0.29931927 0.20845352 0.02735356 -0.10166647 0.22677484
0.03969828 0.23116587 -0.17092396 0.0876585 0.31497744 0.007879099 -0.16505392 0.31679124
-0.04071497 -0.08867201 0.04347827 -0.030689675 0.010398285 0.31362224 0.2766858 0.2437366
0.20459862 -0.013735108 -0.2753893 -0.23159342 -0.13604407 0.11918224 -0.058231637 -0.11657794
0.0015869902 0.2072846 0.07929619 -0.18543744 0.2602461 -0.20821163 0.29094365 -0.098584525
0.13213362 0.14254652 -0.28302887 -0.22083297 -0.19633926 0.20780861 0.20118608 0.05745309
-0.04228089 0.13479911 0.068695776 -0.04470544 0.09491281 -0.11127941 -0.039319333 -0.071129076
0.14537476 0.114671685 0.24984035 0.19343765 0.071999736 -0.017928995 -0.053595148 0.1735204
0.26627818 0.087148994 0.077187 0.052234605 0.23661585 0.108299 0.09574342 -0.013817473
0.050189026 0.045034148 -0.21782559 0.14723079 0.06803421 -0.19914538 -0.055240016 0.07551706
-0.034861572 0.17427963 0.020773785 -0.076211 -0.13281216 0.14220837 0.048212025 0.12127887
0.18864757 -0.12312888 -0.11613123 -0.1045075 0.047266897 0.09474107 -0.10267348 -0.28300646
-0.14248104 0.097167335 0.2367893 -0.19525217 0.22276609 -0.20009118 0.2973711 -0.0027508924
0.27523133 -0.20223984 -0.2309436 -0.072828166 0.08412757 0.1007798 0.19330925 0.08192726
0.07193659 0.22031128 0.26323706 -0.08181139 0.15558401 -0.33764327 0.2060911 -0.04410085
0.41722223 0.09228552 0.1680682 0.110632576 0.15069951 0.41191006 0.32575783 0.16466838
0.23685068 -0.018798778 0.18021177 0.18358335 0.18959157 0.11681759 -0.035402384 0.20935237
0.32070932 0.07618922 -0.24158391 0.24289274 0.45092672 -0.25773087 0.1259611 0.019567262
-0.14468119 0.18727025 0.14801952 -0.14580217 -0.2157305 0.11933262 0.20271401 0.23107779
-0.07565237 -0.32423416 -0.0033656973 0.15182552 0.102847785 -0.016155845 0.0006215627 -0.16442512
-0.3370699 -0.08240006 0.13020879 0.05027042 0.17375773 -0.2139342 0.027420351 -0.012919116
0.1557328 -0.22013503 -0.18780215 -0.24411364 0.24778378 0.14106566 0.004306716 0.35161164
0.15444943 0.31984767 0.12337834 -0.2663919 0.17913115 -0.20021124 0.29804572 -0.25151002
0.29858962 0.13098472 -0.1642366 0.17402168 0.15544125 0.07186169 0.15231812 0.23766205
0.17398818 -0.28866383 0.16987218 0.101585984 0.045136087 0.087994635 -0.019166462 -0.17328641
0.17796385 0.040969405 -0.287421 0.23828676 0.08479513 -0.088210285 0.13806646 -0.07686236
0.14819098 0.14661205 -0.287603 -0.11546642 -0.27290276 -0.050544832 0.029902289 0.15053126

recurrent.linear_r.bias f4 [32]
00000000: 7608 57be deec 5ebe 9e9c 42be a691 c83c
00000010: abc1 213c cfde 06bd de74 00be 1580 38bd
00000020: b8e2 e33d 7549 54be 3f3b 5abe f6b4 eebd
00000030: 8960 71bd f52b 9b3d 43c8 61be 84d6 3cbb
00000040: ae4e 4d3d 6ebc 1abe eaef 1dbe 44b3 89bd
00000050: d73e 25bd dcaa eb3b d571 8ebc c98b d23d
00000060: f778 3dbe dc7a 08be 2a9a 0c3e 2bff 24be
00000070: 9b08 52be f0ee 0fbe f811 373c 1287 8bbd
-0.20999321 -0.21770045 -0.19005057 0.024483513 0.009872834 -0.03292733 -0.12544581 -0.045044024
0.111272275 -0.20731147 -0.21311663 -0.11655609 -0.058929954 0.075767435 -0.2204905 -0.0028814385
0.050123863 -0.15110943 -0.15423551 -0.06723645 -0.040343132 0.007191999 -0.017388264 0.10280568
-0.18503176 -0.13328117 0.13730684 -0.16112964 -0.20511095 -0.14055991 0.011173718 -0.06812872

recurrent.conv_h.att f4 [1, 1, 32]
00000000: 4eff 1a3f 104c 20bf e3c7 f0be c296 053f
00000010: af99 48bf e340 d3be 6e0d 1f3e 4bc8 95be
00000020: e83f 4fbf ab7a 4e3f cbd1 87be 1ba3 dbbe
00000030: 5fef 83be 3dd2 37bf fa69 763e 4c09 043f
00000040: ce8d 623c e9b6 123f a7bb ffbd 57cf 8ebd
00000050: 8e69 d1be 7f78 04bf 55e5 bbbe 0a16 0bbf
00000060: 1f7a 573e 5222 c9be 07cc 5b3e 0d38 ea3e
00000070: b11a 803e fe20 6e3e bda1 523e 9a92 e73d
0.60545814 -0.6261606 -0.470275 0.52183163 -0.783595 -0.41260442 0.15532467 -0.29254374
-0.8095689 0.80655926 -0.26527247 -0.42897877 -0.25768563 -0.71805173 0.24063864 0.51576686
0.013827754 0.5731035 -0.12486964 -0.06973141 -0.40900844 -0.5174636 -0.36698404 -0.54330504
0.21042679 -0.39283997 0.21464549 0.45745888 0.25020364 0.23254773 0.20569511 0.11307259

recurrent.conv_h.bias f4 [32]
00000000: 0e45 4d3d 784b aebc b4aa c7bd ff6d 513c
00000010: 5727 573c 93d0 bc3c 0e83 bbbd 3c54 fa3d
00000020: 28a4 903d 8f32 21be 2772 c2bd 6697 7bbc
00000030: db81 53be 1632 3d3e 26f3 043e 8115 883d
00000040: c8c2 683e 1344 04be 7667 b33e e395 853e
00000050: 67ed 133e 1efa 573e def1 2dbd a2ca dd3d
00000060: 5860 ee3d cf90 993c bcc5 38bd 47fb 3fbe
00000070: 033b 3c3c 071a 0dbd fe70 353d 6655 8a3d
0.050114684 -0.02127622 -0.09749356 0.012782573 0.013131938 0.023048675 -0.09155856 0.12223098
0.0706256 -0.15741943 -0.09494429 -0.01535592 -0.20655005 0.18476138 0.12983379 0.066447265
0.22730553 -0.12916593 0.35039872 0.26090917 0.1444603 0.21091506 -0.04246699 0.10829665
0.1163947 0.018745808 -0.04511045 -0.18748198 0.011488679 -0.03444865 0.04429721 0.0675457

recurrent.conv_h.lin_l.weight f4 [32, 1]
00000000: ebe3 053f 1679 31bf 91f6 05bf 38df ce3e
00000010: 91af 33bf 4a36 c1be 2690 57bb 7876 03be
00000020: e51d 2a3f c44b dd3e 797e ecbe fe2f 2e3f
00000030: 0b28 de3e e82b 12bf 5a8d db3e eae0 bebe
00000040: 677b de3c 4849 be3e 2763 563c 0032 c23c
00000050: 5641 e83e 1496 aebe beba 473f d264 15bf
00000060: a31a 8a3e b179 643e b46e edbe 6651 1fbf
00000070: 3979 5f3e e24e b83e 79fc 183f 9239 243c
0.523009 -0.6932539 -0.52329355 0.40404677 -0.7018977 -0.37736732 -0.0032892316 -0.12838161
0.66451865 0.43221867 -0.4619024 0.6804198 0.43389925 -0.57098246 0.4288128 -0.3728097
0.027158452 0.37165284 0.013085163 0.023705482 0.45362347 -0.34098876 0.7801932 -0.58356965
0.26973447 0.22312047 -0.46373522 -0.6223358 0.21823587 0.35997683 0.5976024 0.010023491

recurrent.conv_h.lin_l.bias f4 [32]
00000000: 41b3 023e 658c 603e 46cc c3bd f1cc e1be
00000010: 1522 223f fb0e 633e b1f5 0d3f ef3b ebbd
00000020: 8575 20bf 12f9 2e3d 6386 433f 87c1 e8be
00000030: 9e20 1a3f 6888 08bf d0cd debe cbad c33e
00000040: 872c 16bf 4f87 0c3e 6fb1 a8be 6faa 2ebf
00000050: 52a2 50be a695 08bf a858 5d3e 8c2d 943d
00000060: 2a19 0dbf b7fa 8abe 7362 8b3e 05ce 253f
00000070: c276 bcbc f678 6c3e 284d 18bf 1668 37bf
0.12763692 0.21928556 -0.095604464 -0.4410167 0.63333255 0.22173683 0.5545302 -0.11486041
-0.6267932 0.042718 0.7637693 -0.4546015 0.6020602 -0.5333314 -0.43516397 0.3821853
-0.58661693 0.13723491 -0.3294787 -0.6822881 -0.2037442 -0.53353345 0.21615851 0.0723525
-0.5511652 -0.27144405 0.27223548 0.64767486 -0.023005847 0.23093018 -0.5949273 -0.716432

recurrent.conv_h.lin_r.weight f4 [32, 1]
00000000: b4e8 b83f 07c5 953f b500 583f 7c89 b83f
00000010: 1e6c 943f 010e 6f3f 7de7 4b3f 3979 1e3d
00000020: ed2a 96bf faf0 953f d3af 243e 2981 32bf
00000030: b561 f3bd 42cb 8c3f 6487 17be e0d0 cebe
00000040: adb2 f93e b45c 363f 03a8 5bbe 4b4c 31bd
00000050: eef9 823d abe0 2d3f cfaf 4ebf 5de5 8b3f
00000060: 0570 813f a197 73bf 51f7 e8bd bf20 84bf
00000070: d9f5 213d 8f6f 9c3f 4255 883f 3586 9f3e
1.4446015 1.1700753 0.8437608 1.4416957 1.1595495 0.93380743 0.796501 0.038689826
-1.173185 1.1714165 0.16082697 -0.6972833 -0.118838705 1.0999529 -0.14797741 -0.40393734
0.4876913 0.71235204 -0.2145081 -0.04328565 0.063953266 0.6792094 -0.8073701 1.0929371
1.0112311 -0.9515324 -0.11375297 -1.0322493 0.0395411 1.2221545 1.0651019 0.3115708

recurrent.conv_h.lin_r.bias f4 [32]
00000000: 6198 b7be 7e3b 363e 6376 093e b044 163e
00000010: b39f 20bf d801 4f3c 8764 bd3e 4bec 2abf
00000020: 7bb0 f83e 642d 8bbe eeb0 8cbf 8cac f6bd
00000030: b942 7bbe 6b49 1b3f ec57 94bf 295e 61bf
00000040: fb80 5b3e c86b b0be 3a9b 07bf a122 783f
00000050: cc2c 94bf d269 1c3f 146a 21bf 9a73 a5be
00000060: d24a bcbe f6bc 01be 5e5e 0abf c4bd 54bf
00000070: ac2f b1bf cd66 afbd 7f85 07be ce63 d3bd
-0.35858443 0.17796132 0.13424067 0.1467464 -0.6274368 0.012634717 0.3699076 -0.66766804
0.48572144 -0.27183068 -1.0991495 -0.120446295 -0.24537171 0.606589 -1.1589332 -0.880343
0.21435921 -0.3445723 -0.5297123 0.9692784 -1.1576171 0.6109897 -0.6305249 -0.3231476
-0.36775833 -0.12669739 -0.5405024 -0.8310206 -1.3842673 -0.085645296 -0.13234518 -0.103217706

recurrent.conv_h.lin_edge.weight f4 [32, 1]
00000000: ca98 88bb d7ba 46be 344f 283e 515c 103e
00000010: ff08 ac3e 7def 32be d5cd de3d 88ac 20bf
00000020: 182d 8bbe 4620 423d a7e1 09bf 8cad f3bd
00000030: 8d8d 673e f2c6 2b3e cd8a 5fbe ec1b 1e3f
00000040: 2934 713e 1ac8 733d ca8e 3e3e 4b64 943e
00000050: 840c 34be 52e4 0e3d 64e7 abbe b3b5 163f
00000060: 8ddd 2e3f b03b f73d 6617 d5be ebfd 813e
00000070: a43b 363e 99f2 fcbe d629 473e ea2c e13e
-0.0041686045 -0.19407211 0.16436464 0.14097716 0.33600613 -0.1747417 0.10879103 -0.6276326
-0.2718284 0.04739406 -0.53859943 -0.11898336 0.22612591 0.1677511 -0.21830292 0.61761355
0.23555054 0.059517004 0.18609157 0.28982767 -0.175829 0.034885712 -0.33574975 0.58871
0.6830681 0.12071931 -0.41619414 0.25389037 0.17796189 -0.49403837 0.19449553 0.4397958

recurrent.linear_h.weight f4 [32, 64]
00000000: 1072 0f3e bd1c d3be 2f6d b9be caf7 933b
00000010: 7fcd c5bd 6adf 83be 0875 263d de20 c73b
00000020: d5e2 213e a955 8f3e ae77 06be 7a13 413e
00000030: 323a b23c d287 edbd 3040 a23e f494 39be
00000040: 7c4a 513d 796f d63c abf3 613d 5188 963d
00000050: 2453 9b3e 7535 8abc 0191 7b3e 801c 99be
00000060: 4edf 01bc 8e55 403d 54e2 a1be 6d25 efbd
00000070: ce0b 8c3e 7872 383e 3c05 303e f37f a0bc
00000080: f94c 013d 9177 5dbd 57a2 98bd e01d 9c3d
00000090: 9c06 58be 6e5d aebc f058 73bd 797e bdbd
000000a0: 4c3e 733d c242 863c 8052 963c 4219 5fbd
000000b0: a4af 2abd d547 0ebe 8516 813d df97 f9bd
000000c0: 5cec 80be 7439 f1bd 2e95 36bd bf71 92bd
000000d0: 5a78 bebd 70a4 1abe b39a 493e 3cc6 a1bd
000000e0: 6a32 dd3d d4ed c23c 68a8 3fbe 7665 26be
000000f0: 3768 13be fc25 4f3c 1b47 2fbe d9ed f7bc
00000100: 1d2f 183e 2508 7c3d f8d4 9b3d a49b 0f3e
00000110: 91c2 54bd 8ea2 0a3c f912 31bd bf61 733d
00000120: bad1 823c 8367 4f3c 8c0d b9bd 842c aebc
00000130: bf7b cabd cd16 7fbd cbbf 9c3c a505 cfbd
00000140: cecf 2e3e fa62 b9bc 1d67 973d 1a82 053e
00000150: 9843 efbc 93c7 9d3d a52c f0bd 464e 9b3b
00000160: af1c 533d b000 abbd d810 e3bd f7fb bebd
00000170: ca48 f23d 773a ecbd 2163 9dbc b379 35bd
00000180: faed bc3d 012e 00be fe5b 743d 7022 a83d
00000190: 477d cbbc caa5 12bd bb5e 89be 6817 923d
000001a0: 4e69 75bd 1f2f e4bd 9dee dc3d a831 9abc
000001b0: 9285 29bd dcc5 8c3d ac2c 253c fba8 f33c
000001c0: fdd1 bebd 726c 19be 21b8 bebc 20cc 62bd
000001d0: 5141 43be 8e38 b93d 1057 bc3c 82ad 17be
000001e0: cd14 213e 27b7 0f3d 9b90 c4bd 345d 8fbd
000001f0: f30c cf3d 23d5 d7bd fa49 69be a0d2 f6ba
00000200: 83bc d1bd ecb8 2a3e b5c5 8e3d da8b a7bd
00000210: b232 ea3d 9b1d 0cbd 8e2d 0ebd 6f7c c03b
00000220: 3bb9 68bd c444 ebbc c5b9 2bbc e8a6 93bd
00000230: aa9d 01bc 36d6 083e 24ca 353d 9344 3ebd
00000240: d424 99bd 7f3a 76bd 688f e63d 9ecd cf3d
00000250: 378d 19be c99a 313d cfb9 15be 628c 863d
00000260: 0e3d 8b3d dde5 4fbc 07f1 8a3d 77a6 59bc
00000270: 48f8 18be d8df 83bd 5fa3 b0bd 3f97 b63c
00000280: b435 1a3d f845 243e b055 f4bd 0046 d7bd
00000290: b44c 853e 2f60 da3d 57db cebc 5a41 033e
000002a0: 9f46 ad3d 3568 31be 5847 2d3d 22a3 0b3e
000002b0: 1b38 243e 932d 2ebd 858d f23d 157f 0c3d
000002c0: 6a8c 963d dabf 113e 3927 2dbd fc0e 49be
000002d0: 4d2d 6f3d 17b6 15be 118a 9dbd 4e90 963d
000002e0: eab2 c83d 97ea 033e 5ea0 163c 6671 c6bc
000002f0: cf38 1cbe 5fc9 683e 1af5 8e3d a54e df3d
00000300: cdd2 593d 6f0f 6bbe a07c 46bd aa6e 2bbc
00000310: 4219 06be d71e 1bbe 3877 5a3d d7d2 96bd
00000320: fa98 7c3d 5efd 213e f195 07be ad37 653e
00000330: 452c fa3d e46b 1f3d d708 4f3e 37f8 f8bd
00000340: bcf6 843c ac81 c73c f462 a53b 068f aa3d
00000350: 575f 723e 0eb9 603c 694a 553e 651b ccbd
00000360: 3338 55bd c997 c3bd fc44 a93c 0035 0fbe
00000370: b7d2 5e3e af67 26bd 972b f93d 5c21 c8bd
00000380: d571 dbbd 9d10 ed3d 9d48 24be f228 90be
00000390: ca4a 74bd a643 493d fe3f 3fbb 44c4 e3bd
000003a0: aa62 093d 182a a9bc 64e7 a23d 55a8 2fbe
000003b0: bbaa 91bd 7905 873d 374d 44bd a8a2 61bd
000003c0: 074d 0bbe 90ae 00be 4f8c ea3d 4e11 0abe
000003d0: 2666 7cbd b3f5 0c3e ba01 993c 4aba da3c
000003e0: a45e 96bd f2d0 a13d bf04 023e fe3d 713d
000003f0: a9b8 11bd 204c c2bd 501a 89bd 7883 603c
0.14008355 -0.41232863 -0.36216113 0.0045156227 -0.09658336 -0.2575639 0.040638953 0.006076916
0.15809186 0.2799504 -0.13131592 0.18855086 0.021756265 -0.11598171 0.31689596 -0.18123227
0.051096424 0.026176201 0.05516402 0.07350219 0.3033687 -0.016871193 0.24567033 -0.29904556
-0.007926775 0.04695659 -0.31617987 -0.1167706 0.27352756 0.18012416 0.17189497 -0.019592261
0.031567547 -0.054069106 -0.07452839 0.07622886 -0.21096271 -0.021284785 -0.05941099 -0.09252638
0.059385583 0.016389254 0.018349886 -0.054467447 -0.04167141 -0.13894589 0.063031234 -0.1218717
-0.25180328 -0.117785364 -0.044575863 -0.071506016 -0.09300299 -0.1510179 0.1968792 -0.07899138
0.10800631 0.023795046 -0.18716586 -0.16249642 -0.14395224 0.0126433335 -0.17116968 -0.030264782
0.14861722 0.061531205 0.0760898 0.14024216 -0.051943365 0.008461608 -0.043230984 0.05941939
0.015969146 0.012658956 -0.09035787 -0.021261461 -0.09886884 -0.062277604 0.019134423 -0.101084985
0.17071459 -0.022630204 0.07392714 0.13037911 -0.029207036 0.077040814 -0.11727265 0.0047395555
0.051541027 -0.083497405 -0.11087197 -0.09325402 0.1183029 -0.11534589 -0.019212307 -0.044305515
0.09225078 -0.12517549 0.059658043 0.082096934 -0.02484001 -0.03580264 -0.26830086 0.07133371
-0.05991488 -0.111418 0.10787699 -0.018822506 -0.04138715 0.06873676 0.010081451 0.029743662
-0.09317396 -0.14982775 -0.023281159 -0.05537045 -0.19067885 0.0904399 0.022990733 -0.14812282
0.15730591 0.035086777 -0.09597894 -0.07000199 0.10109892 -0.105386995 -0.22782126 -0.0018831082
-0.10241034 0.16672105 0.069713034 -0.081809714 0.114354506 -0.03420792 -0.034711413 0.0058742086
-0.056817275 -0.028719313 -0.010481303 -0.07209569 -0.007911125 0.13362965 0.04438223 -0.046452116
-0.074777275 -0.06011438 0.11257821 0.1014664 -0.14995275 0.043360505 -0.14621662 0.06569745
0.06798755 -0.012689081 0.067842536 -0.013284317 -0.14938462 -0.06439179 -0.086249106 0.022288917
0.03764887 0.16042316 -0.11930406 -0.10511398 0.26035082 0.10662877 -0.025251074 0.12817898
0.084607355 -0.17324908 0.042304367 0.13636449 0.16037028 -0.04252393 0.11843399 0.034300882
0.073510006 0.14233342 -0.042273734 -0.19634622 0.05839281 -0.14620243 -0.0769235 0.07351743
0.0979975 0.12882458 0.009193508 -0.024223994 -0.15256046 0.22733067 0.06980343 0.10903672
0.05317955 -0.22955106 -0.048458695 -0.010463396 -0.13095573 -0.15148483 0.053336352 -0.07364433
0.061669327 0.15819308 -0.13240792 0.2238452 0.12215475 0.038921252 0.20218216 -0.12156718
0.016230933 0.024353825 0.0050471965 0.08328061 0.23669182 0.0137159955 0.20829166 -0.099661626
-0.05205555 -0.09550435 0.020662777 -0.13985062 0.21760069 -0.040626224 0.12166517 -0.09771988
-0.10715071 0.11575434 -0.16043325 -0.2815624 -0.059641637 0.04913678 -0.002918243 -0.11121419
0.03354136 -0.020649955 0.079542905 -0.17154057 -0.071126424 0.06592841 -0.0479252 -0.05508676
-0.13603602 -0.1256659 0.11452543 -0.13483164 -0.061620854 0.13765602 0.018677581 0.026700158
-0.0734227 0.07901181 0.12697123 0.05889701 -0.035576496 -0.09487176 -0.06694472 0.01370322

recurrent.linear_h.bias f4 [32]
00000000: 8777 2a3b a1f4 403d 66f2 223d bd24 f4bd
00000010: 0ea9 0738 6235 24bd aa88 5abe 3ecb f1bc
00000020: bfba 98be 88f5 933d 310e 25be 80fc 42be
00000030: 4102 29bd 672a 02bd c458 883d 90d2 a039
00000040: 7b26 a53c 9c9a 87bc 6232 8bbd ccc5 b2bd
00000050: e731 77bd 2a27 e2bd 4543 4e3a e0d1 143d
00000060: 751e 543d c1a9 52bc ebc9 d73d 52d3 c73c
00000070: 78cd bd3d 4bd9 8fbc baf4 14be 2e62 b4bd
0.0026011185 0.047108296 0.03978195 -0.1192107 3.2343953e-05 -0.040089972 -0.21341196 -0.029515859
-0.29829976 0.07224566 -0.16118695 -0.19041634 -0.041261915 -0.03177872 0.06657556 0.0003067446
0.02015995 -0.016553216 -0.06796719 -0.08729133 -0.060350325 -0.11042626 0.00078683003 0.036332965
0.05178686 -0.012857855 0.1053656 0.024392758 0.09267706 -0.017559668 -0.14546481 -0.08807789

linear.weight f4 [1, 32]
00000000: 037d 8a3e 7fb1 923c 89c9 983d 0636 123e
00000010: 9692 a83d e3af 233e 89fc 6e3e 865b 34bc
00000020: cda8 633d 61ac 0fbd a653 703e 293a 843d
00000030: 855d 3a3d c285 f4ba ac07 33be 9d1d ebbc
00000040: 4d0f 153e fa99 a93d 28ba 75be f2ef 203d
00000050: 47fd 8d3d 5a98 61be 05f9 e43d 58d1 9f3d
00000060: 7212 24be cc36 803e 2957 6fbd c4ab 14bd
00000070: 2d50 56be 2e06 6fbb 4572 9c3d e04a c83d
0.270485 0.017906902 0.07460315 0.14278421 0.08231084 0.15985064 0.23338522 -0.011008149
0.055580903 -0.035076503 0.2346941 0.06456406 0.045499343 -0.0018655586 -0.17483395 -0.028700644
0.14556618 0.08281322 -0.23996794 0.03929133 0.069330744 -0.22030774 0.11180309 0.07803601
-0.16022661 0.25041807 -0.05843273 -0.03629662 -0.20929022 -0.003647219 0.07638983 0.09779906
