TGCN_mi_global.pth (torch, 31210 bytes, 13 tensors)

recurrent.conv_z.bias f4 [32]
000000 e5 43 0c bf 6e d6 13 bf b0 fc c2 3e 0c ec fe 3e
       -0.547911 -0.5774907 0.3808341 0.49789464
000010 7e 17 e3 3e c4 66 e9 3e 05 72 16 bf 51 5a c5 3d
       0.4435386 0.45586216 -0.5876773 0.09636367
000020 00 03 0b 3f c1 02 b0 3e 6c 61 c9 3e 5f ff db be
       0.5430145 0.343771 0.3933214 -0.4296827
000030 03 db ef be 1c 3f fb be c5 81 c1 3e 4a 65 ea 3e
       -0.4684678 -0.49071586 0.3779432 0.45780402
000040 de cf 07 3f 3b b9 08 3f 86 b6 47 3e 78 d2 e8 3e
       0.53051555 0.5340764 0.19503221 0.45473075
000050 36 f8 ec be 45 9c 3f be 99 43 ea 3e de b4 fc 3e
       -0.4628312 -0.18711956 0.45754698 0.4935674
000060 39 a8 09 bf c5 74 09 bf 64 b4 0c bf 21 d9 fc 3e
       -0.5377231 -0.536938 -0.54962754 0.49384406
000070 ad d5 99 3e a8 9b 13 3f 88 b7 ce 3e 08 b5 06 bf
       0.30045834 0.5765939 0.40374398 -0.5261998

recurrent.conv_z.lin.weight f4 [32, 1]
000000 4a ff 60 3f 0e 03 28 3f e3 35 ea be 98 82 2b bf
       0.8788954 0.6562966 -0.45744237 -0.66996145
000010 f4 30 3a bf 40 7c 18 bf 4e 26 45 3f 8b c0 78 bf
       -0.72730947 -0.5956459 0.77011573 -0.971688
000020 e6 95 12 bf 31 3b 21 bf 48 2a 3e bf be 92 1f 3f
       -0.57259977 -0.62980944 -0.74283266 0.62333286
000030 3c 81 5b 3f 2d e6 3c 3f 28 61 ec be 4a b5 d1 be
       0.8574407 0.7378872 -0.46167874 -0.40958625
000040 c6 11 3e bf 1c fd 31 bf 4e 2b 56 bf c3 63 56 bf
       -0.7424587 -0.6952684 -0.8365983 -0.83745974
000050 2d 8e 5e 3f 9a 2e 0c 3f d7 87 76 bf 75 e9 3d bf
       0.86935693 0.5475861 -0.96301025 -0.7418435
000060 be 7c 22 3f 17 82 29 3f 17 f8 2b 3f 13 a7 4d bf
       0.6347159 0.66214126 0.6717543 -0.8033306
000070 a6 12 3b bf a0 a6 12 bf 28 14 79 bf 9b c4 02 3f
       -0.7307533 -0.572855 -0.9729638 0.51081246

recurrent.linear_z.weight f4 [32, 64]
000000 89 aa ac 3e 39 71 87 3e a8 c1 d9 be 5d e6 42 be
       0.33723858 0.2645357 -0.4253056 -0.19033189
000010 12 21 7f be 04 8d 41 be fa 90 ac 3e 7f 6a aa be
       -0.24914959 -0.1890145 0.33704358 -0.33284375
000020 50 41 93 be dc df 21 be 86 03 83 be 57 1f 80 3e
       -0.28760767 -0.15808052 -0.25588626 0.2502391
000030 2e 68 39 3e fc 0e 8b 3e 3c 17 d0 bd a5 96 56 bd
       0.18106148 0.2715987 -0.101606816 -0.05238976
000040 ce 48 94 be 28 04 c5 be 16 cc 8f be 39 a5 8d be
       -0.28961796 -0.38479733 -0.28085393 -0.27665117
000050 36 d7 bf 3e f7 cd 92 3e 94 92 94 be 88 22 40 be
       0.3746888 0.28672764 -0.2901808 -0.18763173
000060 76 e5 a3 3e db cb 50 3e cd 1d b3 3e 1e 82 92 be
       0.32011002 0.20390265 0.34983674 -0.28614897
000070 94 20 55 be 3f b3 85 be f6 2c cf be ba 01 89 3e
       -0.20813209 -0.26113316 -0.4046399 0.2675913
000080 6e 01 81 be 8d 09 9b 3e f2 5f b8 3d 3b d2 90 bd
       -0.25196403 0.30280724 0.09002675 -0.07071348
000090 d3 42 1b 3c 8e be 6a 3e ef 89 77 3d 06 05 49 be
       0.009476381 0.22924253 0.060434278 -0.19630823
0000a0 3a fe 96 3c c2 51 1a 3e 78 8c ee 3d fe fe 07 be
       0.018431772 0.1507025 0.11647886 -0.13280866
0000b0 a7 d2 a5 bd d3 9e dc 3d b8 cc 03 be 04 c4 a1 3d
       -0.08096819 0.10772481 -0.12871063 0.07898715
0000c0 a0 b4 22 be 3a ad 84 3e 4f 82 09 be 1b a9 a2 3c
       -0.15889215 0.2591341 -0.13428615 0.019856026
0000d0 f4 e6 73 bd 04 1c 3e 3d ea 2f dd bc 65 5d 0f 3e
       -0.059546426 0.046413437 -0.027000386 0.14000471
0000e0 30 81 90 3e 33 0a 93 bd 2f ca 49 be 7b 97 9d 3d
       0.28223562 -0.0717968 -0.19706033 0.07694908
0000f0 da 4d d4 bd a1 4c 82 3e 65 98 31 bb 64 61 f1 3d
       -0.103664115 0.25449088 -0.002709889 0.11786154
000100 5e db d4 be 18 40 01 bf 5f e7 e8 3e aa f2 dd 3e
       -0.41573614 -0.50488424 0.45489022 0.433492
000110 1c 32 b5 3e 7b b4 e6 3e 6b 6e c5 be 14 5c 4e 3e
       0.35389793 0.4505957 -0.38560805 0.20152313
000120 4a b9 fa 3e 39 5e 43 3e 15 78 cf 3e f5 43 9b be
       0.4896949 0.19078912 0.40521303 -0.30325285
000130 cb d4 ac be 47 d4 ae be 7c 92 b3 3e 0a 08 25 3f
       -0.33756098 -0.3414633 0.35072696 0.6446539
000140 e1 a4 d5 3e c0 0a 90 3e ce 84 ac 3e 82 07 9a 3e
       0.41727355 0.28133202 0.33695072 0.30083853
000150 82 a4 88 be d4 3e 1b be af 6d aa 3e 20 78 cd 3e
       -0.2668801 -0.15160686 0.33286807 0.4013071
000160 80 cc ef be 9b f3 a9 be 82 84 c2 be 6b 98 9f 3e
       -0.4683571 -0.3319367 -0.3799172 0.31170973
000170 d3 8f b8 3e 8c 1f f8 3e f4 9d 74 3e b0 e4 07 bf
       0.3604723 0.48461568 0.2388838 -0.53083324
000180 7a 8a a2 3d 31 58 de bc 13 8f bf 3d 45 32 cd 3d
       0.079365686 -0.027141662 0.09353461 0.10019354
000190 76 36 28 3e a3 60 24 be ca d1 d5 bb 8b e9 88 bd
       0.16427025 -0.16052489 -0.006525253 -0.0668517
0001a0 64 d0 74 3d 50 42 57 bc bc 8e 8a be 2b d2 97 3c
       0.05976905 -0.013138369 -0.27062023 0.018532833
0001b0 43 c5 74 3e e1 87 b8 bd fd 8f 57 3d b5 99 cf bd
       0.23903374 -0.09010292 0.052627552 -0.10136739
0001c0 ac 11 67 be 68 1c 85 be d5 70 58 3e fa 47 6d 3d
       -0.22565335 -0.25998235 0.21136792 0.05792997
0001d0 a8 b6 4f bf 05 92 9e bd 21 d0 19 be 43 c7 ab 3e
       -0.81138086 -0.07742695 -0.15020801 0.33550462
0001e0 f4 8d 73 be e0 c6 93 be ea 1f a3 3d 60 aa b1 be
       -0.2378462 -0.28862667 0.079650715 -0.34700298
0001f0 20 31 ee be 77 9d 9f be fb b4 6e 3d 04 8a 26 3c
       -0.46521854 -0.31174824 0.058278065 0.010164741
000200 d1 76 6b bd 73 d5 95 bd 86 94 a0 3e 69 bf 2d 3e
       -0.05748636 -0.07316103 0.31363314 0.16967548
000210 80 ea a2 bc 6a d9 71 3e 7f fc 32 be b1 29 23 be
       -0.019887209 0.23618093 -0.17479132 -0.15933873
000220 6a d7 0e 3e a0 77 12 bd 01 40 93 bc 6e b8 13 be
       0.13949361 -0.035758615 -0.017974855 -0.14425823
000230 f9 d2 ae 3d 78 ca 4d bd b4 85 aa 3e 44 e0 cc 3e
       0.085363336 -0.050241917 0.33305132 0.4001485
000240 e9 2f a0 3d 6a 8a 0e 3e 81 82 21 bd a0 cd 08 3e
       0.07821638 0.13919988 -0.0394311 0.1335969
000250 b4 ef 08 be 66 b0 93 bd a6 9a 1d bd bf dc 40 3e
       -0.1337269 -0.0721138 -0.038477562 0.18834208
000260 58 e2 4b be d3 a0 7c be 51 14 8a be fd b4 0b bd
       -0.19910562 -0.24670725 -0.26968625 -0.03410815
000270 c3 65 eb 3d 7c 97 87 3e 88 fa 16 bd 39 35 96 be
       0.11494019 0.2648276 -0.03686002 -0.2933748
000280 32 d5 81 be bb c0 41 3e 52 d7 7b 3d 39 41 7e be
       -0.25357968 0.18921177 0.061484642 -0.24829568
000290 4a ee 10 3e bf 62 99 3e 45 be ed bc a0 da 8e bd
       0.141534 0.2995815 -0.029021392 -0.06975293
0002a0 19 30 ca be 5c 9c bc 3d c2 5e 31 3e 17 9e 99 be
       -0.3948982 0.09209511 0.17321303 -0.30003425
0002b0 27 72 4c 3e eb 47 8d 3e 24 39 5f 3d b5 10 83 3e
       0.1996542 0.27593932 0.054497853 0.25598684
0002c0 89 a3 dc 3d 93 ff 02 3e 18 cd e3 bd e9 00 c0 3e
       0.10773379 0.12792806 -0.11123103 0.37500694
0002d0 f9 24 eb be 47 d6 40 3e 59 68 d6 be 30 31 a3 3d
       -0.45926645 0.1883174 -0.41876486 0.07968366
0002e0 ea 34 de bb b6 89 e6 bc 5a 9b 6b bd 95 be 21 3d
       -0.00678121 -0.028141838 -0.0575212 0.039488394
0002f0 e8 bb aa 3d 5e cb fd 3d 37 39 95 3d 75 1a d7 bd
       0.083366215 0.12392305 0.072863035 -0.10503093
000300 73 3d 0f 3f f5 09 05 3f 98 1f 72 3d a2 74 05 bf
       0.5595314 0.5196832 0.05911216 -0.5213109
000310 d9 97 d2 be b5 51 09 bf 48 77 e3 3e 3a d2 d4 be
       -0.41131476 -0.536403 0.44426942 -0.4156664
000320 9d 31 c8 be ea 15 e9 be a6 66 b8 be 53 68 db 3e
       -0.39100352 -0.45524532 -0.36015815 0.4285303
000330 71 94 05 3f 65 c7 07 3f 51 a3 47 be a4 1e 08 be
       0.5217963 0.53038627 -0.19495894 -0.13292938
000340 1e fb ff be 6c e7 1c bf 55 3d e1 be a1 53 e1 be
       -0.49996275 -0.6129062 -0.43992105 -0.44009116
000350 1a 84 fb 3e b5 60 98 3e 01 b5 03 bf 28 a1 18 bf
       0.49124223 0.29761282 -0.51448065 -0.59620905
000360 90 5c af 3e c8 04 01 3f d6 43 d8 3e fc 34 08 bf
       0.34250307 0.5039792 0.42239255 -0.5320585
000370 7e 2d b2 be d6 d5 4c be 01 93 0e bf fc 4a 81 3e
       -0.34800333 -0.20003447 -0.5569306 0.2525252
000380 f6 bd 12 bf ff ce be be 61 ea b8 be f2 9c 1d bf
       -0.5732111 -0.372673 -0.36116317 -0.61567605
000390 d8 3d b4 3e 6c d5 84 3e 86 5b c7 be 06 c7 9b be
       0.35203433 0.25944078 -0.38937014 -0.3042528
0003a0 ed 12 11 bf ac 8a 47 3e cd 01 86 3d cf 86 d6 be
       -0.56669503 0.19486493 0.06543312 -0.41899726
0003b0 8d 80 c1 bd fe 6d 86 3e dc 17 ec be c4 c8 cc 3e
       -0.09448347 0.26255792 -0.46111953 0.39996922
0003c0 38 6f 41 be a8 2b 6b 3e 32 a2 1d bf 63 72 76 3e
       -0.18890083 0.22965872 -0.61575615 0.24067073
0003d0 51 6f 5d be 57 03 d1 3e cd bd 65 be d7 eb be 3e
       -0.21624495 0.4082286 -0.22435685 0.37289307
0003e0 7e f2 5a 3e 1e 2d ab be 5d cd 58 3e 6c 01 84 3e
       0.21381566 -0.3343286 0.2117209 0.25782335
0003f0 cf fb 26 be c3 2e 2e 3e 5f 09 cd 3d 23 25 0c bf
       -0.16306995 0.17010026 0.10011553 -0.54744166

recurrent.linear_z.bias f4 [32]
000000 ea 03 23 be 18 29 ab 3e 02 00 7f 3d cf 31 e8 3c
       -0.15919462 0.3342979 0.062255867 0.028344063
000010 61 c6 0c 3f f7 7e 5e be a1 84 1a be 6e 45 e8 bd
       0.549902 -0.2172812 -0.15089656 -0.11341368
000020 e4 7a 97 3c 38 57 99 3e 61 b8 e1 3c e1 9f 03 be
       0.018491216 0.29949355 0.027553739 -0.12853958
000030 21 4b 4f 3e df 6a f0 be 62 10 ff 3e 8e b9 c7 be
       0.20243503 -0.46956536 0.49817187 -0.39008754
000040 14 f6 ac 3d 3c 27 00 3c 48 91 91 bd 1a 9c 3f 3f
       0.08445373 0.007821854 -0.07107788 0.7484757
000050 3f 1a b8 3d 47 8c 99 3c fd d1 57 3d cb 72 03 3f
       0.08989381 0.018743647 0.052690495 0.51347035
000060 6d 33 3a 3e 91 06 f4 bb 6f ae a9 3d 9d b4 1c 3f
       0.1818368 -0.007447072 0.08285224 0.61213094
000070 72 27 57 bc 4d 97 96 bd 89 bd d8 3d 78 14 c5 bb
       -0.013131963 -0.07353077 0.10583026 -0.006014403

recurrent.conv_r.bias f4 [32]
000000 60 40 1c be 95 3e 90 be 6b c4 9d be d9 31 91 3e
       -0.15258932 -0.28172746 -0.30813918 0.28358343
000010 27 4c 28 be 6a e7 6e 3e f3 f0 a9 be 40 f9 d8 3a
       -0.164353 0.23330465 -0.33191642 0.0016553774
000020 f5 1e 14 3f 9d 84 96 be 5c d4 c5 be cc 2d bb 3d
       0.57859737 -0.2939805 -0.3863858 0.091395944
000030 d7 27 b4 be 33 73 ed bd 70 c5 94 3d c1 ef e6 bc
       -0.35186645 -0.11594238 0.07264221 -0.028190495
000040 75 dd 8a 3e d2 90 6e be 41 11 5a 3e e3 a3 a4 3e
       0.27122083 -0.23297432 0.21295644 0.32156286
000050 28 84 37 3e 4b b4 3d be 83 36 d6 bd 91 b3 0b 3f
       0.17921507 -0.18525808 -0.10459616 0.5457087
000060 94 98 81 bd 5d a6 af be 68 40 90 3e d3 22 b0 3d
       -0.0632793 -0.34306613 0.28174138 0.08600392
000070 3d 4b b4 bc ab 03 8d 3e da 99 42 be 65 e1 95 be
       -0.022008533 0.2754186 -0.19004002 -0.29273525

recurrent.conv_r.lin.weight f4 [32, 1]
000000 d7 ec ab 3e a8 6c ce 3e 87 af 85 3e a5 a4 4c 3e
       0.33579132 0.40317273 0.2611048 0.19984682
000010 34 47 db 3e 41 d5 66 3d 8a 4d ee 3d 13 38 a4 3e
       0.4282776 0.05635572 0.11635883 0.3207403
000020 20 b1 cd bd 25 19 a1 3e 0b ab ae 3e 1d 3f f6 bc
       -0.100435495 0.31464496 0.3411487 -0.030059392
000030 1a d2 74 3e a2 47 bf 3e 8f f1 86 3e ef 48 66 be
       0.23908272 0.3735934 0.2635617 -0.2248876
000040 ed bb 2d be 8e 8f 93 3e 63 b0 be be ad bf 9d be
       -0.16966219 0.2882046 -0.37243947 -0.308103
000050 06 b5 c3 be 5a 4b d6 3d b9 5b a1 3e 6a 4c c8 bd
       -0.38224047 0.10463591 0.3151529 -0.097802
000060 c3 99 2b be a3 9f 95 3e 11 9e e4 be 66 96 4c 3e
       -0.16757874 0.29223356 -0.44651845 0.19979247
000070 d8 de 9f be da 80 98 be 9e e7 67 bc a3 04 70 3e
       -0.31224704 -0.29785806 -0.014154343 0.23439269

recurrent.linear_r.weight f4 [32, 64]
000000 0e b4 85 3d 7a 85 84 3e bd 8a c4 3e 54 74 66 be
       0.06528483 0.25883085 0.383871 -0.22505313
000010 04 54 61 3e 39 f9 34 bc 36 f7 9d 3e 8c 75 33 3d
       0.22004706 -0.011045747 0.3085267 0.043813273
000020 1c 03 3b bf 6c ff 9c 3e a0 55 af 3e f2 92 7e ba
       -0.7305162 0.3066362 0.34245014 -0.00097112276
000030 fa 69 00 3f a7 14 29 3e df c9 b5 3c fd 39 62 3d
       0.5016171 0.16511784 0.022190986 0.055231083
000040 5c 68 b9 be 31 c0 95 3e 55 ae 7a be 9e 73 83 be
       -0.36212432 0.29248193 -0.24480565 -0.25674146
000050 87 f2 22 be 76 f5 b2 3e 27 ce 6d 3d f8 b3 4f bf
       -0.1591283 0.34952897 0.05805793 -0.81133986
000060 07 13 d7 bb da f4 d4 3e bd 86 d5 bd f2 9a ce bc
       -0.0065635475 0.41593057 -0.1042609 -0.025220368
000070 fe 0b 79 3d 98 94 a1 be 28 9f 0d 3e d3 ae de 3e
       0.060802452 -0.3155868 0.13830245 0.43492755
000080 5c ec 04 bd d3 32 29 3e 0e 93 50 3c 87 8e 3d bd
       -0.032451972 0.16523294 0.012730373 -0.046278503
000090 88 27 b6 bd 2c 7f ff 3c f9 c3 90 bd 3b 25 7c 3d
       -0.08894259 0.03118857 -0.07068629 0.061558943
0000a0 ef dc 91 3c 42 de 3a be 73 72 7d bc 77 4f 30 be
       0.017805545 -0.18248847 -0.015469181 -0.17217813
0000b0 40 f9 14 bc cb 45 51 be bc 28 17 bd 3c 12 f1 bc
       -0.009092629 -0.2043678 -0.03690408 -0.02942764
0000c0 2d ed c3 3e 3a 0d 9d 3d 38 6d 90 3d f3 05 da 3c
       0.38266888 0.076685384 0.07052082 0.026614165
0000d0 25 b6 0a 3e be 7a ae be 79 87 04 3e a5 15 d9 bd
       0.13546045 -0.3407802 0.12942304 -0.105998315
0000e0 93 90 d7 bd 6c 40 bb 3d 1a a6 f7 bd 0b 92 16 3e
       -0.10525622 0.09143147 -0.12092228 0.14704148
0000f0 a9 85 cf 3d 84 42 0b be 91 7f 5e be d7 2b 97 bd
       0.101329155 -0.13599592 -0.2172835 -0.07381409
000100 3c 09 2f 3d 48 54 c6 3d 69 89 45 3e 04 5a bf bd
       0.042733416 0.09684044 0.19290699 -0.09343341
000110 66 42 6d 3d a8 68 92 bc 06 5b 78 3c d7 f1 f9 3c
       0.05792465 -0.01787217 0.01515842 0.030510826
000120 ed 41 34 be 4d 0e e0 3d d4 20 33 3e 2e 0c 86 3b
       -0.17603274 0.10940228 0.17492992 0.0040908074
000130 90 51 1f 3e de 39 be 3d 9b 6b 96 bd d1 6b cb bd
       0.15558457 0.09288381 -0.07344743 -0.09932674
000140 5b ab 08 be ee 38 4c 3e b8 8f aa bd 64 19 d1 3c
       -0.13346617 0.19943592 -0.083281934 0.025524803
000150 48 85 23 be f2 98 07 3e 40 15 35 bc ef e8 75 be
       -0.15968812 0.13241938 -0.01105243 -0.24014638
000160 a6 c8 95 ba c9 3a 3e bc 31 32 57 bd 86 c2 29 bd
       -0.0011427596 -0.011610695 -0.0525381 -0.041445278
000170 64 0b 00 be 4a d8 96 bc e7 0c bc 3d fb e1 2d 3e
       -0.12504345 -0.018413682 0.091821484 0.16980736
000180 8b 42 75 be e0 fe 3d 3e ea 9f 2a be 8a 50 c4 bd
       -0.23951165 0.18554258 -0.16662565 -0.09585674
000190 5e 2a 0a bd 06 1d 7c 3d 9b 64 a8 bb ec db f5 3d
       -0.03373181 0.061551116 -0.005138946 0.120048374
0001a0 e3 77 65 be 1f f7 38 bb 60 78 19 3e 64 75 5d be
       -0.22409014 -0.0028223468 0.14987326 -0.21626812
0001b0 0d 93 e0 3d 5d 7e 6d 3d 2e 69 92 bd ef a2 05 3e
       0.10965548 0.057981838 -0.07148968 0.13050435
0001c0 69 db 45 3e 76 65 1e 3a 81 b2 1d be c9 56 4a 3e
       0.1932198 0.00060423405 -0.15400125 0.19759668
0001d0 34 5a 75 3e 31 61 28 3e 0d 30 14 3e 39 cb 18 3c
       0.23960191 0.16443326 0.14471455 0.009325796
0001e0 8d d6 eb 3d 18 ab 27 3e 74 e2 af bd a1 0b 85 3d
       0.11515532 0.16373861 -0.085881144 0.06496359
0001f0 b0 d7 67 3e 05 49 54 3e c2 09 db 3d 26 47 44 bd
       0.22640872 0.2073098 0.106952205 -0.047919415
000200 29 f3 3b 3d c9 f0 7f 3e 7b 80 75 3e e8 9c 01 be
       0.045886192 0.24994196 0.23974793 -0.12657511
000210 3f 6c e2 3d df da 1b 3b e4 73 c0 3e 2d 44 0b 3d
       0.110558026 0.002378158 0.37588418 0.034000564
000220 f7 53 b6 be 32 54 03 3e 68 20 36 3e 1a bb 0e be
       -0.35610935 0.12825087 0.177858 -0.13938561
000230 45 a5 e2 3e 1f 5a dd bb a1 47 88 3d d5 1c f3 3c
       0.44266716 -0.006755128 0.06654287 0.029676834
000240 7f db 1d be 88 1e 07 3e d0 3f 25 be 4a c6 82 be
       -0.15415762 0.1319524 -0.16137624 -0.25541908
000250 bf ab c4 bd ad 0c c9 3e 88 59 b7 3d c3 2a 09 bf
       -0.096030705 0.39267483 0.089526236 -0.53580874
000260 3d e8 d9 bd db e4 96 3e 8c 86 91 be 28 93 da bc
       -0.10639999 0.29471478 -0.28422964 -0.026681498
000270 e1 73 5e 3d 49 47 52 be bc 4d 4f 3e 43 9a d1 3e
       0.05430973 -0.20535006 0.20244497 0.40938005
000280 6f d6 37 bd ca 49 b6 3c 4a 9d 0b 3e a6 ce 24 be
       -0.044882234 0.022251982 0.1363422 -0.16094455
000290 c4 12 33 bd f6 4e 55 3e 7a fb 74 3e 1a c2 15 3e
       -0.04371907 0.20830902 0.23924056 0.14624825
0002a0 84 75 e9 bd 44 54 80 3d 71 29 6e 3d 04 b7 4b bc
       -0.113993675 0.062660724 0.05814499 -0.012433771
0002b0 2f b7 6c 3e a3 61 0b 3d 1d 82 13 be 3f 1f 13 bb
       0.23116754 0.03402866 -0.14405103 -0.0022449044
0002c0 ed 16 7d 3d 7d a7 65 3e eb c3 57 be 3e a2 f6 3d
       0.06178944 0.22427173 -0.2107083 0.12042664
0002d0 d4 93 d3 3e 42 19 1b 3e 41 f1 13 3e 45 5d 41 be
       0.4132372 0.15146354 0.144475 -0.18883236
0002e0 ce d3 a0 3c a1 ad f2 3d 58 2d c6 3b 4d e8 b8 3d
       0.019632246 0.11849523 0.006047886 0.09028683
0002f0 18 e0 8d 3e b4 02 51 3e 56 73 b4 bd f7 1f d0 bd
       0.27710032 0.20411187 -0.08811061 -0.10162347
000300 2f cc 39 3e 5d 51 47 3e e9 a7 82 3e 7d 91 89 be
       0.18144296 0.19464631 0.2551873 -0.2686881
000310 67 d6 7a 3d 5b f8 6b be fe 58 05 3f d6 e1 b1 bc
       0.061239626 -0.23043959 0.52088916 -0.021714132
000320 4d 19 3b bf 42 8f f4 3d 5d d6 b6 3e 34 ac b5 bd
       -0.7308548 0.11941387 0.3571042 -0.08870736
000330 50 ae 8e 3e 4d c9 c6 bc 85 86 88 bd 7c 16 e2 3d
       0.27867365 -0.02426591 -0.066662826 0.11039445
000340 7d c0 de be 2b 3e fe 3d 52 95 78 3b 7c e6 53 be
       -0.43506232 0.12414201 0.0037930799 -0.20693392
000350 a2 f0 e7 bd 27 7b b8 3e ca b7 f1 ba 0a ef 25 bf
       -0.11325194 0.36031458 -0.0018441614 -0.6481787
000360 f2 7b cb 3b 2c c7 e1 3e ad 49 71 be 9c 21 15 be
       0.006209844 0.4409727 -0.23563261 -0.14563602
000370 f6 7c 71 3a b9 7f 95 bd c9 af 45 3e 55 10 a5 3e
       0.0009212041 -0.07299752 0.19305338 0.32239023
000380 76 12 f2 bc 3a 33 f9 3d 37 08 03 bd e0 b1 d0 3a
       -0.029549818 0.12167974 -0.031990256 0.0015922152
000390 d0 47 59 bd 0f 85 73 3d 55 fe f0 3b ab 37 27 3d
       -0.053047 0.059453066 0.0073545375 0.040824573
0003a0 1e 1e ba bb 7c a2 55 be 95 4d 7a bd 61 25 b7 bd
       -0.00567986 -0.20862764 -0.061109144 -0.08942676
0003b0 35 11 39 3e 56 09 fa 3d ae 02 a3 3c 00 31 4c 3d
       0.1807297 0.12208812 0.019898739 0.049851418
0003c0 cb 04 a6 3e 07 db 3e bc 99 7e 9e bd de c5 27 bd
       0.32425532 -0.0116489 -0.0773899 -0.040960185
0003d0 bc 1a 28 3e 1d 3c 3c be 17 1c 35 3e 00 85 83 3d
       0.16416448 -0.18382306 0.17686497 0.06421852
0003e0 c4 e2 90 3d a0 35 39 3e b6 4a 67 be c2 08 86 3d
       0.07074502 0.18086863 -0.22587094 0.06544639
0003f0 f4 c8 5a 3e f3 57 0a 3e 15 7c 39 be 1e 1e 21 be
       0.2136572 0.13510112 -0.1811374 -0.15734145

recurrent.linear_r.bias f4 [32]
000000 9a 02 a9 be c7 33 2a be f4 1b 9d be 3d ae 8d be
       -0.33009797 -0.16621314 -0.3068539 -0.27671996
000010 24 3c 6e be 83 75 be be 37 71 e7 be 61 1a dd 3d
       -0.2326513 -0.3719903 -0.45203564 0.10796047
000020 ac b6 00 bf 16 60 10 bd de fa 2a be 01 b5 b0 be
       -0.50278735 -0.035247885 -0.1669726 -0.34513095
000030 41 35 56 be 62 1d 5a be f7 c9 4d be 1d 78 52 be
       -0.20918752 -0.21300271 -0.20096575 -0.20553632
000040 d4 8d 9b be 4e 58 54 be 4a aa aa be 61 ac 68 bd
       -0.30381644 -0.2073681 -0.33333045 -0.05680502
000050 6f c7 4e 3e f5 f6 2d 3d 22 f9 31 3e 25 dd f8 be
       0.20193265 0.042471845 0.17380193 -0.4860622
000060 a3 42 a8 be 98 5d 71 3d 26 2f 8e bd 9d 98 2c be
       -0.3286334 0.05892715 -0.069425866 -0.16855092
000070 db e1 4c 3d 5b 6c 83 be a3 43 85 be dc d0 5a be
       0.05002008 -0.25668606 -0.26028165 -0.21368736

recurrent.conv_h.bias f4 [32]
000000 30 4e 84 bb 48 fa 98 bc 36 f4 6a 3b 9d c9 84 3d
       -0.004037641 -0.01867403 0.0035851127 0.06483767
000010 75 b8 89 3c 5b 8c a3 3b 0c d0 8a 3c 2a 39 46 3b
       0.016811589 0.004991097 0.016944908 0.0030246475
000020 7d cd c2 3c 3a f7 68 3d a8 83 66 3d 9e b5 90 3d
       0.023779625 0.0568764 0.0562779 0.07065891
000030 7a 09 d2 3c 3c 6f 47 3c de 42 05 bd c9 34 83 bb
       0.025639284 0.012172516 -0.032534473 -0.004004095
000040 99 c6 83 3b 11 39 29 bb ef 0e b3 bd 51 1a 9c 3c
       0.0040214774 -0.0025821368 -0.08743083 0.019055517
000050 ff 48 ed bb 82 49 ad 3c 91 d6 2d 3d 8b 70 11 bc
       -0.007241368 0.021153215 0.042440955 -0.00887693
000060 6c cf 86 bd 97 af 1a bd 84 a8 05 bd 1d 60 de 3b
       -0.06582531 -0.03776511 -0.032631412 0.00678636
000070 9c cf 2f bd d8 f2 20 3d 0f 75 32 3d 90 4e a7 ba
       -0.0429226 0.039294094 0.043568667 -0.0012764502

recurrent.conv_h.lin.weight f4 [32, 1]
000000 aa 1d 14 3f 7f 95 09 bf 67 73 1f 3e 19 4c de be
       0.57857764 -0.5374374 0.15571366 -0.43417433
000010 e9 85 0d bf 1a fe a7 3e 09 10 6b 3d 59 70 0b 3d
       -0.55282456 0.32811052 0.05738834 0.03404269
000020 39 0e 06 3f 56 2e 21 bf 39 c8 15 bf 24 6f b6 3e
       0.5236545 -0.6296133 -0.5850864 0.3563167
000030 65 da 66 be 5e d2 ba 3e 75 15 a0 be 62 1d 80 bc
       -0.22544248 0.36488622 -0.3126637 -0.01563901
000040 7f a4 f6 3c dc d5 8a ba 52 1a db be 48 48 95 3e
       0.030107735 -0.00105923 -0.42793518 0.2915671
000050 b0 cb 88 bc df 82 97 3e 3d 16 3e 3e 40 da 6e ba
       -0.016698688 0.29592034 0.1856317 -0.0009111501
000060 69 f0 ee be 85 e7 12 be 9d 9e a2 be fd 15 9d bb
       -0.46667793 -0.1434613 -0.31761637 -0.004793881
000070 3b b0 41 be ed d3 d4 3e b8 88 14 3e 6c 24 f2 3e
       -0.18914883 0.41567937 0.14505279 0.47293413

recurrent.linear_h.weight f4 [32, 64]
000000 a2 c6 be be f2 14 84 3e 27 92 61 be 81 4a 89 3e
       -0.3726092 0.2579723 -0.22028409 0.26814654
000010 f8 86 a5 3e ab e9 93 be a2 b9 90 bd 88 c7 1b be
       0.32329535 -0.28889212 -0.07066657 -0.15212834
000020 be e6 86 be 86 80 d7 3e 29 25 bc 3e 2f e5 80 be
       -0.26347917 0.42090243 0.367471 -0.25174853
000030 21 2d 86 3e 3f c6 12 be 02 03 66 3e 41 13 1c 3e
       0.26206306 -0.14333437 0.22462085 0.1524172
000040 9e ad dd bd bb 6e 11 3e c8 7a 60 3e 44 6a 3a be
       -0.108241305 0.14202397 0.21921837 -0.182046
000050 a8 04 c5 bc 4f 70 12 be ff fd 8b bd 30 d1 f6 bc
       -0.024050072 -0.14300655 -0.06835555 -0.030129045
000060 63 eb 62 3e e2 64 0f 3e 10 9b 71 3e 17 e6 5c 3d
       0.22160105 0.14003327 0.23594308 0.05393037
000070 54 ec 47 3d 7a 86 81 be 1e 7a bc bd 06 dd 97 be
       0.048809364 -0.2529791 -0.092029795 -0.29660815
000080 2a 3e 14 bc 3b 91 19 be 43 7b 9a 3d 69 d2 88 bd
       -0.009048024 -0.14996807 0.075430416 -0.066807576
000090 56 e2 8f 3d cc 1e 99 bd 16 b1 9d bb 4f e5 52 bd
       0.07025592 -0.07476577 -0.00481237 -0.051488217
0000a0 3c 55 b3 3d 98 1c 0c bd b8 ae 9e bd 8f 25 03 be
       0.087564915 -0.034206957 -0.07748169 -0.12807296
0000b0 46 d4 b4 3c e4 54 e9 bc 40 ca e3 3c c4 10 76 bd
       0.022073876 -0.028482862 0.027806401 -0.060074583
0000c0 fa a3 f2 bd 03 de 89 bd f5 07 d3 bc e4 04 3b 3d
       -0.11847682 -0.067317985 -0.02576063 0.04565896
0000d0 cd 4f 77 3c 24 86 97 3c cd 18 02 3d 29 35 66 3e
       0.01509471 0.01849658 0.031761933 0.22481216
0000e0 ed ee a7 bc 74 21 e8 bd 19 03 a7 38 38 63 10 3e
       -0.02049967 -0.11334506 7.9637575e-05 0.14100349
0000f0 27 44 82 bd b5 d6 f6 bd 19 d4 fc 3c 1e ab 47 bd
       -0.06360655 -0.12052671 0.030862855 -0.048747174
000100 a8 5d e2 3d e9 80 94 3c 78 37 4a 3c e4 65 51 bd
       0.1105302 0.018127875 0.012342326 -0.05112256
000110 4e 8a 41 be e8 c1 d7 3d 3a 3c 22 bd 9a 48 99 bd
       -0.18900415 0.105350316 -0.039608218 -0.07484551
000120 ba d7 18 bd d2 a6 41 bd 30 d8 6b bd 4e 5a 4d 3d
       -0.037315108 -0.047278233 -0.05757922 0.05013495
000130 fe 37 9c 3d 6e 9c 2c 3e 29 e8 c0 3b 99 e7 e3 bc
       0.07627867 0.16856548 0.0058870506 -0.027820395
000140 2d 13 ff bd 63 0f 57 3c c0 86 1f bd 4f 3f a9 bd
       -0.12454829 0.013126227 -0.038946867 -0.08264028
000150 e8 d4 f4 3d c6 41 da 3d f8 ce 01 bc f3 8d e8 3d
       0.11954671 0.106570765 -0.00792288 0.113552
000160 7f 2d 27 be 18 18 83 3c b1 ff 1d be 99 61 99 bd
       -0.16325949 0.0160027 -0.1542957 -0.074893184
000170 3d 4c 0b bd 0c a2 19 3e 4a c4 d1 bd b0 b9 08 3e
       -0.034008253 0.15003222 -0.10242517 0.13352084
000180 79 94 0e bd d1 4e fd be 22 ad 31 bd f2 44 c6 3d
       -0.034809563 -0.49474195 -0.043378003 0.09681119
000190 cc f6 b0 3b fa f0 07 bc 20 a8 bd 3d e5 9e a8 3e
       0.005400514 -0.008297199 0.09260583 0.32933727
0001a0 af cb 74 3e 7c a3 e6 bd 21 b7 aa bd c3 03 18 3e
       0.23905824 -0.11261651 -0.0833571 0.14845185
0001b0 c3 f9 4a 3d 65 a8 52 bd d1 46 ad 3e 89 f0 8b bd
       0.049554598 -0.051430125 0.3384309 -0.06832988
0001c0 07 be 47 be 26 86 51 3e 24 16 87 bd 0f 3c 74 3e
       -0.19506083 0.2046133 -0.0659602 0.23851036
0001d0 e6 ff e3 3e bd 27 18 bd 03 6f 01 3f ad 3f a5 bd
       0.44531173 -0.037147272 0.50560015 -0.08068786
0001e0 d0 da ff bc 65 44 26 3e 98 30 34 be 6c 19 b6 bd
       -0.031232268 0.16237028 -0.17596662 -0.088915676
0001f0 aa a4 58 3e 12 c2 9b bd 18 86 82 be 8f 48 92 3d
       0.21156564 -0.07605375 -0.2549293 0.07142746
000200 49 8a 43 bd a4 00 26 3d e3 36 6c 3c 17 41 2a 3d
       -0.0477393 0.040527955 0.014417383 0.04156598
000210 98 1f 58 3d 1c bc a6 bc da 24 8f 3d da e0 36 3d
       0.052764505 -0.02035337 0.06989451 0.04464803
000220 5b 31 20 bd c0 84 41 3d ca 6f d9 bd 81 ff 46 3d
       -0.03910957 0.04724574 -0.10617025 0.04858351
000230 dc af a7 bd 26 c0 39 3d b3 7e a4 bd 56 20 27 3d
       -0.081878394 0.045349263 -0.080319785 0.040802322
000240 37 0d 41 3d d7 94 f5 3c c8 09 e0 bc 40 dc ae 3d
       0.047131743 0.029978199 -0.027348414 0.08538103
000250 1b 27 3d be dc bc e3 3d 87 12 8e 3c 09 07 9a 3c
       -0.18471949 0.111200064 0.017342819 0.018802183
000260 ca 03 86 bd da 7e c8 bd 41 c1 4b 3d c3 a3 7e bd
       -0.065436915 -0.0978982 0.04974485 -0.062167894
000270 c3 0a 57 3d c2 a2 af bd 7c 3a b6 3c bd bf ee bc
       0.052500498 -0.085759655 0.022244684 -0.029144162
000280 2b c4 61 3c d4 be 81 bd b6 91 2e be 58 ee 15 bc
       0.01377968 -0.06335226 -0.17047772 -0.009151064
000290 32 5b f2 3d 5d bb 0d 3e 7a a2 a0 bd b1 aa 44 3d
       0.118338004 0.13841005 -0.0784349 0.048014347
0002a0 f7 08 a5 bd 21 e8 f4 3c 4c 71 03 be ce ac 08 be
       -0.080583505 0.029895844 -0.12836188 -0.1334717
0002b0 d6 52 2b be 99 14 55 3d fa 11 ca bb c8 ea 51 bd
       -0.16730818 0.052021597 -0.0061666938 -0.051249295
0002c0 c2 f7 d2 bc ca dd 22 3d cd 34 ff bd a1 fd 40 3e
       -0.025752906 0.039762296 -0.12461243 0.18846752
0002d0 49 38 65 bd a6 74 8a 3d c3 ec fe 3c c9 26 63 3c
       -0.05596188 0.0676053 0.031118756 0.013864228
0002e0 39 3c 30 bc ba a3 8d 3d 5c fc ad 3d 98 b9 1c bd
       -0.010756546 0.06915994 0.08495399 -0.038262933
0002f0 26 d6 15 bd c0 01 4f bd d5 ab c3 bd 5e 96 09 be
       -0.03658118 -0.05053878 -0.09554259 -0.13436267
000300 5c e3 a9 be 1d be b5 3e 43 7f 62 bd ad 3b f2 3d
       -0.33181274 0.35496607 -0.055297147 0.118277885
000310 66 23 9b 3e 2b 68 52 be c4 5b 9d bd 04 69 2f 3d
       0.30300444 -0.2054755 -0.076835185 0.04282476
000320 b3 51 24 be b6 0f 54 3e e8 a5 91 3e cd 1e 71 be
       -0.16046791 0.20709118 0.2844689 -0.23546906
000330 8c 63 0c 3e af 90 86 be 4c 90 49 3e 3f 6b 93 bd
       0.13709849 -0.2628226 0.19683951 -0.0719819
000340 6d d6 40 bd 45 34 a8 3d 7c 5f 74 3e da df 30 be
       -0.047079492 0.082130946 0.2386455 -0.17272893
000350 c0 5c 01 bd ed a0 cb bd da 78 5e be 3f 65 bd bd
       -0.031582594 -0.099428035 -0.21725789 -0.09247827
000360 40 4a 4b 3e fd 6c b4 bc 8a d6 33 3e 02 aa 89 3d
       0.19852543 -0.022024626 0.17562309 0.067218795
000370 3c 19 5f 3e 92 0a a8 be 28 4d 4f bd 66 01 40 be
       0.2178697 -0.32820565 -0.05061069 -0.18750533
000380 b7 0b 89 3b 53 aa a2 bd ad 0d d2 3c 8c 71 e4 bc
       0.0041823047 -0.07942643 0.025641287 -0.027886175
000390 ca 4a b7 bc 97 b5 04 3d 9a e5 f5 bd 20 c5 73 bc
       -0.02237453 0.03239974 -0.12006684 -0.014878541
0003a0 06 57 47 be a4 e8 d5 bd 54 98 61 3d f6 d5 1c be
       -0.1946679 -0.10444763 0.055076912 -0.15315995
0003b0 c8 98 3f be 8e a8 99 bc 3a da 01 bd 0f db 74 bd
       -0.18710625 -0.018757131 -0.031702258 -0.059779223
0003c0 9a 10 0e be 35 c9 db bd 7a 3e 4c bd 51 a6 14 3e
       -0.1387352 -0.107317366 -0.04986427 0.1451657
0003d0 51 07 93 bb 8c a1 40 3d a6 e3 77 3d 98 97 6f 3d
       -0.004486956 0.047029063 0.060519837 0.05849418
0003e0 7e 46 d5 bc c9 ba 98 3d e1 f1 43 bd 1e 70 0f 3e
       -0.02603459 0.074575014 -0.047838096 0.14007613
0003f0 c0 83 7f bd 21 e0 82 3d 6d 4b fb bd 57 bf 89 be
       -0.062381506 0.063904054 -0.12270246 -0.26903793

recurrent.linear_h.bias f4 [32]
000000 b0 28 38 3d 55 d4 0c bd e7 0b 24 be 91 df 22 bd
       0.044960678 -0.034382183 -0.16020165 -0.03976399
000010 dc 0b df bd 2c 7c 30 be 1e a9 2c be 10 02 c3 bd
       -0.10890934 -0.17234868 -0.16861388 -0.09521878
000020 aa 16 b9 be b0 de fb bd b2 13 29 be 16 3f c8 bc
       -0.36150104 -0.12298334 -0.1651142 -0.024444144
000030 d5 e6 5d bd 53 33 aa bd 19 2e 1c bd 75 11 cc bd
       -0.054175217 -0.083105706 -0.0381299 -0.09964267
000040 e2 9d 0d 3e 08 0e a2 be 29 73 2c 3e a6 2b 6d be
       0.13829759 -0.3165133 0.16840805 -0.23161182
000050 31 f8 a3 be 04 08 08 be c8 91 ca be cb ff e3 bd
       -0.32025293 -0.13284308 -0.39564347 -0.11132773
000060 63 91 84 be e3 11 ae be be 58 00 bb f9 3b 00 be
       -0.2589217 -0.3399802 -0.0019584144 -0.12522878
000070 1a e5 4d be ba b1 ab be 67 77 8d 3d 81 b1 9d bd
       -0.20106927 -0.33534032 0.0690754 -0.07699872

linear.weight f4 [1, 32]
000000 b0 de 9d be 6e 8d 07 3d be 5a da 3b 2b 83 2f be
       -0.3083396 0.033093862 0.0066636493 -0.1713988
000010 dd c8 cd 3c 43 0a 82 3e 58 b7 53 bd 2e 29 0f bc
       0.025120193 0.25398454 -0.051688522 -0.008737845
000020 13 09 3e be 09 5b 8d 3c ba 29 41 3e 50 15 e4 bd
       -0.18558149 0.017255323 0.18863574 -0.111368775
000030 61 16 99 3c 93 c9 4b 3e 2c 03 be bc ad 6e 93 3e
       0.018687429 0.19901113 -0.023194872 0.28795376
000040 ac 5b ee 3c 21 4f a8 bd 6e 69 7e be 46 3b 75 3c
       0.029096447 -0.08218218 -0.24844906 0.014967745
000050 5f e9 72 bc 72 92 3d bc b2 d0 d2 bb 36 61 56 3e
       -0.014826148 -0.01157056 -0.00643357 0.2093552
000060 69 cf 37 3e 47 20 bc 3b f7 3c 50 bc cb 9b 61 3d
       0.17950214 0.0057411524 -0.012709848 0.055080216
000070 26 00 73 bc 0a ba 00 3e 21 6f f8 bc 86 31 18 bc
       -0.014831578 0.12570968 -0.030326428 -0.009289151
